results/shortRays/Tank/checkpoint.pt (torch, 635051 bytes, 42 tensors)

network_body._body_endoder.seq_layers.0.weight f4 [128, 64]
000000 42 03 ca 3c 10 7d 22 be 49 28 26 be 9b 39 90 3d
       0.024659757 -0.1586802 -0.16226305 0.07042237
000010 a8 91 ec 3d 3e 69 40 3d 85 c1 51 3c 48 f8 62 be
       0.11551219 0.046975367 0.012802486 -0.22165024
000020 e8 bf 2c bc b1 be 25 bd 52 70 3f be c2 08 d0 3d
       -0.010543801 -0.04046506 -0.1869519 0.101579204
000030 97 64 4a 3b ac d6 da bc 63 b5 82 3d aa 2b 17 be
       0.003088271 -0.026713692 0.06382253 -0.1476275
000040 db 51 23 3e c0 24 f3 3d 21 f2 c4 bd 8a 0c 4c 3c
       0.15949194 0.11872244 -0.09616495 0.012454161
000050 01 1d 1a 3e 2d 8b 40 3d ad 76 7e bd a8 80 a0 3e
       0.15050127 0.04700773 -0.062124897 0.31348157
000060 9d 98 86 3e 9d 46 3a 3d a2 37 35 3d f3 86 ae bc
       0.2628831 0.0454775 0.04424251 -0.021304583
000070 25 eb 4b bd 6a be 1f be fd 06 04 be a2 9e 5e bd
       -0.0497848 -0.15599981 -0.12893291 -0.054350503
000080 a1 d7 a9 3e f8 5f 69 be d7 79 27 bd b5 d9 9f bd
       0.33172324 -0.22790515 -0.04088768 -0.07805196
000090 78 7d 1e bd 4c 2e d9 bd bb 3d 62 3c 80 48 fa bc
       -0.038693875 -0.106045336 0.013808663 -0.030552149
0000a0 1d 1a 73 3d 85 dc 61 bc bf 38 cc 3c b8 74 60 bc
       0.059351075 -0.013785486 0.024929402 -0.013699703
0000b0 68 ac 19 3d 7e 7a 87 bb d6 88 6c bc 02 1a bd bd
       0.037517935 -0.0041344753 -0.014436921 -0.09233476
0000c0 da 97 9a 3d 7b 44 de 3d da e9 43 be 40 25 b3 bc
       0.07548495 0.10852905 -0.19132176 -0.021868348
0000d0 07 e5 9d 3d a4 6b 54 3e 97 83 4b bd 16 6e 72 3d
       0.07709699 0.20744187 -0.04968604 0.059187017
0000e0 a3 54 60 be c1 1e 2b 3d 58 8e 51 3c 68 ec 53 3e
       -0.21907286 0.041777376 0.012790285 0.2069565
0000f0 fc a4 42 bd 3d 5a 64 bd 76 c7 6b 3e b0 1c 96 3d
       -0.047520623 -0.05575012 0.23025307 0.073296905
000100 5d f0 43 bd 4b 9f 8a 3e 17 a9 14 be de b3 c5 3d
       -0.04783665 0.27074656 -0.14517628 0.096534476
000110 b5 aa 4b 3d a1 40 96 3d 01 58 0f 3e 15 3a 3a 3c
       0.049723346 0.07336546 0.13998415 0.011366387
000120 32 16 28 3e b5 8c 44 bc df d7 21 bd e0 05 10 3e
       0.16414717 -0.011996438 -0.03951251 0.14064741
000130 7a 49 08 be 12 38 a6 bc 13 a3 1d be ee 12 e9 bd
       -0.13309279 -0.020290408 -0.15394239 -0.11380564
000140 d3 ae 3c 3e 66 11 12 3e 4e f0 83 be 2d 66 cf bc
       0.18426065 0.1426445 -0.25769275 -0.025317276
000150 e6 46 4b 3d 40 25 be 3d 7e 89 87 3e 63 79 c5 bc
       0.04962816 0.092844486 0.26472086 -0.024105733
000160 0f 6a fd 3d bb a2 8f bc a0 fa 15 3e 2c b4 15 bc
       0.12373745 -0.01753365 0.14646387 -0.009137195
000170 cc 05 8a 3d 2f 92 8f 3c 22 00 05 3e 02 f6 5d be
       0.06739387 0.01752576 0.12988332 -0.21675876
000180 40 8b 0c be 30 42 9f 3d 3d ee 6c bd b0 8c 0c bd
       -0.13724995 0.07776296 -0.05784439 -0.034313858
000190 c0 bf 3d be 21 f4 07 bd 3b 5d 0c 3e b0 8d 5d bd
       -0.18530178 -0.033191804 0.1370744 -0.0540902
0001a0 38 f9 0f be e4 72 01 bc 36 0c df 3c 54 3e a5 bd
       -0.14059913 -0.007900927 0.027227502 -0.08068529
0001b0 5d a3 c8 bd 0f 7d f2 bd 3d 54 d7 bd 75 98 6f 3d
       -0.09796784 -0.11840259 -0.10514114 0.058495004
0001c0 bb f2 78 3e 5c bb 84 3b 1b bb 5c 3e 6f 1a 53 3e
       0.24311344 0.0040506553 0.2155575 0.20615552
0001d0 f8 ef 32 3c 55 49 0e bd f0 7f 0e bc d8 5e 07 be
       0.010921471 -0.034737904 -0.008697495 -0.13219774
0001e0 3f 3c 14 be 32 d5 14 be e7 60 e5 3d f1 7e 2b 3d
       -0.14476107 -0.14534453 0.11200123 0.041869108
0001f0 28 23 7e bd 6a bd 33 be ac 26 76 bd 16 00 f2 3d
       -0.062045246 -0.17552724 -0.060095474 0.11816423
000200 75 f8 30 be 6b 50 81 3d 73 27 14 be 1f ab 29 bd
       -0.17282279 0.06314167 -0.14468174 -0.04142296
000210 f6 b6 06 be ec 25 b7 bd 9f bf d1 3b 1a 51 a2 3d
       -0.13155732 -0.0894278 0.006401017 0.07925625
000220 97 76 0e be 45 cc 8a be 5b 4f 2b 3e 6e ce f5 3c
       -0.13912426 -0.2710897 0.1672949 0.03000566
000230 0c 23 34 be ad 65 2e be e0 d3 5a be 96 cf 07 3b
       -0.17591494 -0.17030974 -0.21369886 0.0020723096
000240 d6 52 c4 3d 29 2e 0b be 88 44 8f bd 9c 5d e5 3d
       0.09586112 -0.13591827 -0.06995493 0.11199495
000250 82 d4 f9 3d b0 32 1d 3e 8c 8d ac 3c d3 a8 34 bc
       0.12198736 0.15351367 0.021063589 -0.011026579
000260 35 cf 9e 3d 26 22 2c 3e 45 18 33 bd ef d0 ad 3d
       0.07754365 0.16809902 -0.043724317 0.084871165
000270 d5 ba 3d be f5 d5 89 bd 79 69 4a be c7 2c 40 3e
       -0.18528302 -0.06730262 -0.19766797 0.18767081
000280 8a 8f 32 3d c1 75 5d 39 84 c7 02 3e 55 dd 1b 3e
       0.04359392 0.00021120069 0.12771422 0.1522115
000290 f7 85 a5 bd 1e 53 68 bd 4b 2c 41 bd cb 0c 45 3e
       -0.080821924 -0.05671989 -0.04716138 0.19243161
0002a0 14 75 39 bd a0 d2 89 bc 23 3d 70 bd f2 59 da bd
       -0.04527767 -0.016824067 -0.058652055 -0.10661687
0002b0 eb 95 8f 3e ed 80 88 3e 15 11 9a 3c ea cf 4c 3e
       0.28044066 0.26660863 0.018806973 0.20001188
0002c0 8f e5 fa 3d b7 d0 6f be 91 46 43 3d e1 e9 8a bd
       0.12250816 -0.23419462 0.04767472 -0.0678289
0002d0 a7 82 85 3e 41 a1 91 3e 3d 43 10 3e b6 34 94 3d
       0.26076242 0.2844334 0.1408815 0.07236616
0002e0 81 1b 25 3e eb fe 78 3d 47 b6 38 3e f7 3a 44 bd
       0.16123773 0.060789984 0.18038283 -0.047907796
0002f0 98 99 a5 bd bc 4a 2c 3c 52 00 0d 3e 9d ee 1c 3d
       -0.08085936 0.010515865 0.13769653 0.038313497
000300 70 ac 58 be 81 b4 99 bc 99 30 96 3c e9 8c df bc
       -0.2115953 -0.018762829 0.01833372 -0.02728887
000310 1c c0 42 be 07 ee fe 3d 0a 95 96 3c 07 ac fc 3d
       -0.19018596 0.12447744 0.018381614 0.12337499
000320 25 0e 0c bc 11 4a 35 3e 7e 39 08 be b2 72 70 be
       -0.008548294 0.17704035 -0.13303182 -0.23481253
000330 e8 40 01 3e e3 f1 6f be fc 9c 14 be ff 6c 69 3e
       0.12622416 -0.23432116 -0.1451301 0.22795485
000340 1b 66 25 be f3 89 5c 3b e7 2f 49 3e d1 20 24 3e
       -0.16152231 0.003365156 0.1964718 0.16028143
000350 c3 6a 75 be d8 5e 29 3e e5 60 43 3d d3 51 5a be
       -0.23966508 0.16540086 0.047699828 -0.21320276
000360 cd d6 fe 3d 3c 65 88 bc f6 58 e0 bd 22 ff 03 3e
       0.12443314 -0.016649835 -0.10954468 0.12890294
000370 89 7c 58 bd 79 38 95 be 8f 91 f5 3d 14 74 4c be
       -0.05285314 -0.29144648 0.11990654 -0.19966155
000380 73 a2 8a bd 61 be 49 3d 4d 88 29 3e af 23 e9 bd
       -0.06769266 0.049253825 0.16555901 -0.11383759
000390 c1 c6 83 bd 4e 92 f9 3d c6 66 2a 3d 04 21 17 be
       -0.06434394 0.121861085 0.04160192 -0.14758688
0003a0 d2 c4 8e 3d cf 7b 2e be 28 d7 90 3d ab 4f c2 bc
       0.06971134 -0.17039417 0.07072288 -0.02371963
0003b0 f1 a9 07 3e ad 01 62 3e 9b ae b3 3d eb 6d 24 3d
       0.13248421 0.22070952 0.08773538 0.04014389
0003c0 69 1d 84 bd a0 64 2e 3e da 20 5e 3e b4 0e 33 bd
       -0.06450922 0.17030573 0.2169222 -0.043715194
0003d0 6b 97 22 be f1 36 78 bc 89 79 73 be 7b 9e 39 be
       -0.15878074 -0.015149818 -0.2377683 -0.18126862
0003e0 56 f2 29 3e 31 f6 b9 bd 29 75 32 3e 33 2f 86 bd
       0.1659635 -0.090801604 0.17427506 -0.06551971
0003f0 f2 03 97 3d 19 bb dc bd a7 58 02 3e 84 09 01 3e
       0.073737994 -0.107778735 0.1272913 0.12601286

network_body._body_endoder.seq_layers.0.bias f4 [128]
000000 1f 96 38 3c ad d5 f4 3a 7d 7e 11 bb e0 a7 1c bc
       0.01126626 0.0018679403 -0.0022200637 -0.009561509
000010 e1 5b 81 bc ba cc a1 3a 95 6b ba ba 7c c1 0b bc
       -0.015790882 0.0012344338 -0.0014222736 -0.008530017
000020 38 40 ac 3b 4d 3a 15 3b bc 3b 28 bc 05 b2 87 ba
       0.005256679 0.0022770346 -0.010268148 -0.0010352737
000030 d3 13 c9 3b 1a a4 74 3b ff aa 74 39 17 a1 f2 3b
       0.0061363964 0.0037329257 0.00023333354 0.0074044573
000040 16 54 85 ba c3 d6 05 bc e1 e4 f7 bb 95 15 e5 b9
       -0.0010172154 -0.008168879 -0.0075651263 -0.00043694364
000050 a7 c0 25 bc 51 e8 e6 bb e3 f6 68 ba 16 16 4c bc
       -0.010116733 -0.0070467372 -0.00088868866 -0.012456438
000060 b1 bf ff bb 69 b8 3d bc b6 cf ac bb 24 61 01 3c
       -0.007804834 -0.011579611 -0.0052737845 0.007896695
000070 51 fc 24 3b dc 64 41 bb 86 bc 21 bb 51 a8 84 ba
       0.0025174806 -0.002950958 -0.002467902 -0.0010120963
000080 32 44 d6 3b da ea 5c bc f8 57 00 bc 8c 11 29 bc
       0.0065388912 -0.013483727 -0.007833473 -0.010319125
000090 40 dc 97 3c fa 24 f9 bb c0 0a 34 3c 57 d6 a8 3a
       0.01853764 -0.007603285 0.010988891 0.0012881261
0000a0 97 32 91 bb f0 c7 d9 bb 6c 0f 49 bb 48 5f 41 3b
       -0.0044310796 -0.006646149 -0.0030679358 0.0029506255
0000b0 d6 7e 9e 3b 96 2f fc 3a cf 0c e0 3b 0f bd 1a 3c
       0.0048368974 0.0019240256 0.0068374644 0.009444489
0000c0 4e bb dc bb 73 43 a6 bb fb c4 90 bb 90 2e 14 3b
       -0.0067361956 -0.0050739585 -0.004418013 0.0022610761
0000d0 d7 29 8f 3c 11 19 66 3c fc 67 81 3b b1 a6 e9 ba
       0.017476005 0.014044062 0.0039491635 -0.0017826167
0000e0 da 02 ab bb bc 7f 5a bb 75 a5 5c 3b 74 42 28 bc
       -0.005218846 -0.0033340296 0.0033667956 -0.01026975
0000f0 36 af d0 3a af 6e 18 bc eb 66 5a 3c f9 77 dd bb
       0.0015921358 -0.009303733 0.013330202 -0.0067586866
000100 78 0c 2a bc 28 1a 00 bb 7b a1 85 ba 34 fd 31 3b
       -0.010378949 -0.001954684 -0.001019522 0.0027158977
000110 a8 a8 ae ba aa 0f 1b 3c 5b 66 b2 bb 15 9a 74 3c
       -0.001332541 0.009464184 -0.0054443306 0.014929314
000120 c4 35 4f 3b 53 f4 bc 3b 52 b0 33 3b ec cd 97 bb
       0.003161774 0.0057664304 0.0027418328 -0.004632702
000130 df 25 8b b9 2e 8a bf ba c5 a5 21 bc f9 45 cd 3b
       -0.00026540362 -0.0014613324 -0.009866183 0.006264445
000140 e2 e8 c5 3a ac c5 50 3b f6 22 44 3b 20 5f af 3b
       0.0015099312 0.0031856103 0.0029928065 0.005351916
000150 b2 54 2a 3c dc 33 4b 3c 3b 1e c9 bb be 67 bb bb
       0.0103961695 0.012402501 -0.006137637 -0.005719154
000160 94 75 a2 bb f5 e7 74 bb 78 e6 05 bc 56 63 9b bc
       -0.004957864 -0.0037369702 -0.008172624 -0.018968266
000170 e5 eb 4f b9 2b bf ec ba 0b 36 d4 ba f9 36 4b bb
       -0.00019828936 -0.0018062344 -0.0016190422 -0.0031008108
000180 41 80 fa 3b 9c d3 76 bc 0a 28 4a bb 28 a1 fe bb
       0.0076446836 -0.0150651 -0.003084662 -0.007770676
000190 4f 52 43 bb f3 16 44 3b 9f f1 39 bb d7 30 04 3a
       -0.0029803698 0.0029920905 -0.0028372777 0.0005042678
0001a0 a5 79 32 3c e3 a8 3d 3b e3 ed 3e bc 1d 84 1e bc
       0.01089326 0.0028939776 -0.011653396 -0.009675053
0001b0 72 5d 47 3c b5 ad c1 bb 9f 7f 97 3b 38 5b 43 3b
       0.012168275 -0.0059106 0.004623368 0.002980901
0001c0 14 cf e2 bb 1c ca 02 3a 89 65 3a bb 13 89 58 39
       -0.0069216583 0.0004989223 -0.0028441867 0.0002065043
0001d0 91 60 c6 bb 6b 34 57 39 20 ca ba b9 0c 2c 5e bb
       -0.006053992 0.00020523525 -0.0003562728 -0.0033900766
0001e0 cd bb e4 ba c5 c6 0f bc 18 31 aa 3a c9 d2 fb 3a
       -0.0017450989 -0.008775418 0.0012984602 0.0019212599
0001f0 e9 f0 b5 3c 9e c7 81 3b 3a c0 59 bb 27 16 b7 3a
       0.022209601 0.003960564 -0.0033226148 0.0013968394

network_body._body_endoder.seq_layers.2.weight f4 [128, 128]
000000 27 27 c6 bd 8e c1 90 bd 47 fd a5 3b 9c 75 e3 bd
       -0.096754365 -0.070681676 0.0050655934 -0.111064166
000010 56 3c f0 bd 8c 5a b1 bb 59 d7 d8 bb e7 c0 69 3d
       -0.11730258 -0.0054124054 -0.0066174683 0.05706873
000020 1f 46 ef 3d 2b 31 a9 3c 08 60 8f bd 37 f8 73 3c
       0.116832964 0.020653328 -0.070007384 0.014890722
000030 0d 37 d1 bd e7 5d ab 3c cf 47 31 3a d8 f2 a1 3d
       -0.10215578 0.0209188 0.00067627145 0.07907647
000040 2d 0e cd bc 49 bf 82 bd f2 d4 99 3c 63 a3 8f 3e
       -0.025031174 -0.06384141 0.018778298 0.28054342
000050 1f b0 29 bc 4f 65 b8 bb b2 ce 83 bd af 49 b4 3c
       -0.010356932 -0.0056273113 -0.064359084 0.022007791
000060 31 92 60 bd 5a 31 46 3c b8 fd 53 be 93 ad 4e bd
       -0.05482692 0.012096727 -0.20702255 -0.050458502
000070 41 83 b8 3c 55 1c 2c be db 09 29 3d b4 47 96 3d
       0.022523524 -0.16807683 0.041269165 0.07337895
000080 a9 29 9b 3d 17 0c dd 3c 40 6f 3e 3e a0 a6 ea 3c
       0.075763054 0.026983304 0.18597126 0.028643906
000090 a5 f9 df bd df 3a b9 3c 34 b8 dc bd ae 71 21 3c
       -0.10936288 0.02261108 -0.107773215 0.0098537635
0000a0 ff f4 3d 3d b0 7c d6 bc a2 fe 35 be b5 7a 77 bd
       0.046376225 -0.026182503 -0.17772916 -0.060419757
0000b0 14 04 76 3d 07 65 1a be f3 cd 73 bd 40 0a 9f 3b
       0.060062483 -0.15077601 -0.05952258 0.004853517
0000c0 11 6f 7e 3d 83 4e cd bd 4c 72 ee bd 61 43 bc bc
       0.06211764 -0.100247405 -0.11642894 -0.022981348
0000d0 6a 8f 18 3e ac 4f e8 bc db c6 b2 bd b1 ce 82 bc
       0.14898458 -0.028358303 -0.08729335 -0.015967699
0000e0 22 0a 85 bd a6 82 d0 bd 3b 61 0f ba 64 0f ce 3c
       -0.06496073 -0.10181169 -0.00054695056 0.025153823
0000f0 f9 5e fd bd 37 53 e5 bd 4a 3d 5d bd b5 db ae ba
       -0.1237163 -0.111975126 -0.054013528 -0.0013340624
000100 73 7c 90 bb 2f bf 7c 39 d7 fe 85 3c f0 eb 33 bd
       -0.0044093668 0.00024103814 0.016356869 -0.04392618
000110 cb d3 59 3c ac f4 3e 3c 0e cd b2 bc ab 14 86 3d
       0.013295124 0.011655014 -0.021826293 0.06546911
000120 c5 be 54 3d 78 26 bd bc 3a 4f 2a be 37 03 f1 bd
       0.051939745 -0.023089632 -0.16631785 -0.11768191
000130 33 06 c2 3d 40 86 75 3d f0 14 65 bd b3 4e e2 bc
       0.09473839 0.059942484 -0.05592817 -0.027625417
000140 ae fe 43 3d ba 13 43 3d 23 84 e2 bb b9 cc 25 3e
       0.047850303 0.047626235 -0.0069127246 0.16191377
000150 06 8f 95 bd d1 c6 08 3e 9f d4 02 bc 96 51 5f 3e
       -0.0730267 0.13357092 -0.007985263 0.21808466
000160 f9 ba 6e bc 8f 52 1a be a9 83 92 bd d0 8d c4 bd
       -0.014570945 -0.15070556 -0.071540184 -0.09597361
000170 1f 63 12 be 44 5f 22 3d 58 1b bc bc b0 64 a2 3d
       -0.14295624 0.039641634 -0.022962257 0.07929361
000180 34 2d 78 3d f4 37 bf 3c 70 2a 83 bd e2 9b 94 bc
       0.060589984 0.02334211 -0.06404579 -0.018140737
000190 e6 a1 54 bc ad 94 10 3e de 34 92 bd 65 9d 51 bb
       -0.012978053 0.14119215 -0.0713899 -0.0031984684
0001a0 4e bd 26 3d c0 1a 06 bc f0 bc 81 bd be 07 2c 3d
       0.04070788 -0.008185089 -0.06334865 0.04199957
0001b0 8f fc 9a 3d 7d 4c 05 bd 35 c6 8c bd be b0 5c bd
       0.07567703 -0.032543648 -0.068737425 -0.053879492
0001c0 ff 68 db bc b4 91 c3 bc a7 a7 91 bd a8 ee a0 bc
       -0.026783464 -0.023873188 -0.07112055 -0.01964505
0001d0 13 aa 2a 3d 41 11 83 be 84 4c c6 bc 96 64 80 bc
       0.0416661 -0.255991 -0.024206407 -0.015672963
0001e0 44 4c 7f bd e2 bf 38 be 3a b9 01 3e da b4 c9 bb
       -0.062328592 -0.18041947 0.12668315 -0.0061555924
0001f0 c9 d9 c1 bb 47 4b 2c bc 41 d8 28 3d c7 df 8b 3d
       -0.0059158546 -0.010515994 0.04122186 0.068297915
000200 2e a5 be 3d 33 e0 d1 3c a3 fc 9c 3c 06 ae d9 ba
       0.09308849 0.025619602 0.019163435 -0.0016607649
000210 dc 37 f8 3d 1b 73 d9 bd 31 f7 b8 3d 86 05 69 3d
       0.12120029 -0.10617658 0.09031523 0.056890033
000220 51 5e 41 3e 90 72 b0 3d 2f f1 0b 3d cc ea e0 3c
       0.18883635 0.08615601 0.034165557 0.02745571
000230 b1 92 61 bd f3 a4 2b bd db 4a c2 bd ca a9 c9 bd
       -0.055071536 -0.041905355 -0.09486934 -0.09846838
000240 db 3a 27 be b0 ed c7 3c 32 12 bd 3d 2c 09 25 3d
       -0.16331045 0.02440533 0.09231986 0.04029195
000250 a8 e0 f7 3d d2 db 99 3d 56 57 82 3d 6e 27 60 3d
       0.12103397 0.075126305 0.06364314 0.054725103
000260 78 17 fc bc 63 93 70 bd e9 95 3b be 0c 51 96 bd
       -0.03077291 -0.05873431 -0.18318905 -0.07339677
000270 d2 6b 00 be 66 ef 8b 3d c6 b7 99 bd c0 9f 1f 3e
       -0.1254113 0.06832771 -0.07505755 0.15588284
000280 fe ce 5c 3e 69 31 59 3d 87 7c 07 3d 9c b3 1a bd
       0.21563336 0.053025637 0.033077743 -0.037768945
000290 40 f0 b1 bd 14 4f 7a 3d 8f 0b 12 be bf 75 ef 3d
       -0.08688402 0.06111057 -0.14262222 0.1169238
0002a0 8e 19 13 bd 3f 3e 33 be 53 16 a2 3d 70 19 78 3d
       -0.035913043 -0.17504214 0.07914414 0.060571134
0002b0 7d 72 48 3d cb d3 f3 bc b5 75 14 bd af 20 e7 3d
       0.04893731 -0.029764077 -0.036245067 0.11285531
0002c0 99 5c 49 3d 00 86 6b bd 06 5c 22 3e 1d 4c 58 be
       0.049160574 -0.05750084 0.15855417 -0.21122785
0002d0 5e c4 80 bd 72 76 e4 bc 9d 20 60 bc d5 dd cb bd
       -0.06287454 -0.02788851 -0.013679651 -0.099544205
0002e0 bb 8a f0 3d e6 4a 74 bd 59 5b 11 be c8 52 30 3e
       0.11745211 -0.05964174 -0.14195003 0.17219079
0002f0 99 4e 69 3d ee da 1f be 00 6d 14 bd 1e 08 9a 3d
       0.056959722 -0.15610859 -0.036236763 0.075210795
000300 8d 32 14 3d 36 04 ff 3d 84 4a cc bd e2 92 94 3c
       0.03618102 0.12451975 -0.0997515 0.018136445
000310 9f 40 42 3d d2 c9 4d bd a4 d8 76 3d 22 fc a4 bd
       0.04742491 -0.0502413 0.0602652 -0.08055903
000320 5c 53 81 3d 73 86 42 bd a2 86 1d 3e 06 74 ee bd
       0.06314728 -0.047491502 0.1538339 -0.116432235
000330 c5 7b 86 3d 62 f5 e6 3c a8 75 f5 ba 10 34 b5 bb
       0.06566576 0.02819318 -0.0018727081 -0.005529888
000340 38 9f a5 3d 18 95 97 3d d3 5a 44 bd 0f 03 44 be
       0.08087009 0.07401484 -0.04793818 -0.19141792
000350 b2 61 50 3e 18 ac 26 bc 0c 45 60 bd cb 54 59 bd
       0.20349768 -0.010172866 -0.05475335 -0.05305938
000360 4b f2 d2 3d 67 9b ea 3d 6b 55 33 bd 94 2e 0d be
       0.1030012 0.11455422 -0.043782633 -0.137873
000370 6d 3a 65 bd 29 87 7a 3c af bb 3c bd cb d2 0e 3e
       -0.055963922 0.015291014 -0.046077427 0.13947599
000380 b4 84 82 bd 54 d5 aa bb a8 e2 98 3d 19 09 8c bd
       -0.06372967 -0.005213419 0.07465106 -0.06837673
000390 7d 7e 98 bd da 9f 42 3a 87 0c 8c 3d ed b5 85 3d
       -0.07446001 0.00074243324 0.06838327 0.0652884
0003a0 56 67 6c 3d cb e9 dd 3c 91 e4 68 3d eb 50 97 bd
       0.057715736 0.02708902 0.056858603 -0.07388481
0003b0 bf f2 49 3e 8c d9 99 3d 04 a5 42 3d 7e a0 71 3c
       0.19721507 0.07512197 0.047520652 0.014747737
0003c0 72 42 a8 bd 30 c3 3f be 67 67 2c 3e 67 f3 89 bc
       -0.082157984 -0.18726802 0.1683632 -0.016839696
0003d0 fb 0e ce bc 90 d8 00 be 0c 7c 92 3c 82 ab f7 bc
       -0.025153628 -0.12582612 0.017881416 -0.030233148
0003e0 dd e5 53 bd d0 32 af 3d a5 17 ce 3d 71 e2 8a 3d
       -0.051732887 0.085546136 0.100631036 0.067814715
0003f0 f4 22 54 bd 35 a9 df bd 1f d1 0b 3e 56 0a b4 bc
       -0.051791146 -0.109209456 0.13653992 -0.021977585

network_body._body_endoder.seq_layers.2.bias f4 [128]
000000 cc c2 72 3c 87 c1 00 bc 01 bf e4 3a da 0f e4 bb
       0.014816951 -0.0078586405 0.0017451943 -0.0069598975
000010 8d 36 93 bb 12 32 10 bb 40 68 64 bb 49 b6 81 3b
       -0.004492587 -0.00220025 -0.0034852177 0.0039584977
000020 4f f2 e6 3b f8 aa f4 bb fd 89 86 ba 80 04 87 3c
       0.0070479284 -0.00746667 -0.0010264512 0.016481638
000030 f5 59 e2 bb b0 a6 dd 3c e7 e1 80 bb c8 3b 15 38
       -0.0069076964 0.027057022 -0.0039331797 3.5580044e-05
000040 14 35 8d 3a 67 41 f7 bb 74 33 fb bb 22 de 1a bb
       0.0010773265 -0.0075456384 -0.007666046 -0.0023630937
000050 44 96 e3 bb 35 4d 86 3c be 24 4b 3b 7b d3 f5 bb
       -0.0069454033 0.016394237 0.0030997242 -0.007502017
000060 44 13 cb b9 41 9a 1b bc eb 40 1a bb 44 ba 04 3c
       -0.0003873353 -0.009497226 -0.002353723 0.00810105
000070 66 a7 f8 bb b0 d5 d8 3c 78 39 26 3b 82 de 0d bb
       -0.007588315 0.026469082 0.0025363844 -0.0021647518
000080 3a 48 db bb 2a c2 40 bb 86 c5 3e bb 6e 12 a7 3b
       -0.0066919597 -0.0029412606 -0.0029109432 0.0050986325
000090 0a 32 13 3c aa ef fc ba 59 16 7a bb 6c 63 66 38
       0.008984098 -0.00192975 -0.0038160293 5.4928867e-05
0000a0 15 43 56 3a 75 59 c7 bb cf 2a 70 3a 49 83 77 39
       0.0008173448 -0.006083662 0.00091616524 0.00023604663
0000b0 1c 9e 03 3c 5a 06 1c bb dc 00 bb 3b 2a 42 2e 3b
       0.008033302 -0.0023807497 0.0057068896 0.002658973
0000c0 1c ef 30 bb 5d 26 02 bc 17 17 60 3a 1e 41 97 bb
       -0.002699799 -0.007943717 0.00085483625 -0.004615917
0000d0 93 03 b4 bb ee fb f9 bb 94 d0 08 bc 8a e4 07 bc
       -0.00549359 -0.0076289093 -0.00835051 -0.008294234
0000e0 0e 20 1c bb 50 12 2a 3b f0 ce 0e 3c fc ca 60 bb
       -0.0023822817 0.0025950857 0.00871633 -0.0034300676
0000f0 06 e3 b6 bb c7 14 20 3c 7d 2a 83 3c 84 3b 92 bb
       -0.0055812625 0.009770579 0.01601147 -0.004462661
000100 83 0b 1c 3b bc aa 0b bc 2e 79 bc ba cd 57 db bb
       0.0023810572 -0.008524593 -0.0014379376 -0.0066938163
000110 34 7d 36 bb b9 60 12 bc b4 97 c1 b8 e7 f9 10 bc
       -0.0027845623 -0.008934193 -9.231214e-05 -0.008848644
000120 5b 68 d0 3b b8 87 f8 b9 89 49 e3 bb 04 7f 12 bc
       0.0063600964 -0.00047403364 -0.0069362563 -0.008941416
000130 b4 15 35 bc a4 ba 33 3b 83 55 06 bb a3 58 a2 3b
       -0.011052538 0.002742448 -0.0020497746 0.004954414
000140 c5 05 eb 3c 9e ce 49 bc b9 56 7c ba 75 6a a3 bb
       0.028689275 -0.012317328 -0.000962596 -0.004987056
000150 3d 1a 7e 3b 66 6f 42 3b ea 07 40 bc 89 8d b6 bb
       0.0038772963 0.002966845 -0.011720637 -0.0055710715
000160 61 65 d3 bb 36 3f 88 bb 72 c9 a4 3a 00 06 9d bb
       -0.0064512943 -0.004157926 0.0012572242 -0.004791975
000170 5b 38 e7 bb ad 6b 27 bc 2e 57 0f bc 9d 57 5e 3b
       -0.0070562786 -0.010218543 -0.008748813 0.0033926733
000180 eb dd 05 bc 83 af 81 ba 92 bc 91 3b 4d 09 9f 3c
       -0.008170585 -0.0009894226 0.004447528 0.019413615
000190 53 2f b3 3b dc 40 3a 3b 41 8d cb 3b e1 1b fa ba
       0.005468288 0.0028420007 0.006211907 -0.0019081795
0001a0 40 5a 49 bc bb 75 4f 3c cb a4 15 bc 0e 18 6c 3c
       -0.012289584 0.0126623465 -0.009133528 0.014410032
0001b0 81 8f 0f bc 0f ad 92 bc bf a7 9d 3b 8d 7b bf bb
       -0.008762241 -0.017904786 0.0048112567 -0.005843586
0001c0 b7 29 bb 3a b3 2c c7 bb 3d 0b 32 3b e3 c0 b7 ba
       0.00142794 -0.0060783266 0.0027167343 -0.0014019277
0001d0 4a d0 14 3b 7b 1a 3b bc 09 df e4 bb f9 da 07 bc
       0.0022707158 -0.011419888 -0.0069845957 -0.008291953
0001e0 9c 7f 7f 3b 78 86 e8 3b 3a 57 83 bb 4f db a2 bb
       0.0038985973 0.007096108 -0.004008201 -0.0049699913
0001f0 b5 0b 1a bc e2 ee d0 bb a1 c6 85 3b 53 5f 94 3a
       -0.009402205 -0.0063761333 0.0040825163 0.0011319913

action_model._continuous_distribution.log_sigma f4 [1, 5]
000000 8a 01 7d bc 54 5c 06 3b 5c 3f b2 3c be c0 cb bb
       -0.0154422615 0.002050181 0.021758728 -0.006218045
000010 32 9f 19 ba
       -0.0005860209

action_model._continuous_distribution.mu.weight f4 [5, 128]
000000 e9 f4 05 bc c1 5d 98 3c 15 93 f2 bb 85 e7 83 bc
       -0.008176067 0.018599393 -0.0074027875 -0.016101608
000010 db d4 f2 bc 7e 4a 5a 3c b2 40 b4 3c d3 0a 46 3b
       -0.029642513 0.013323424 0.022003505 0.0030218854
000020 39 05 92 bc 8b 01 bb ba 32 d8 20 bb 33 68 8b bc
       -0.017824756 -0.0014267428 -0.0024542925 -0.01701746
000030 af 67 2a 3b f9 6c 80 3c ff 61 3d 3b b5 18 bf 3b
       0.0026001742 0.015676962 0.0028897522 0.0058318027
000040 cd aa c4 bc 60 ba 29 bc db 3f fc 3a c1 91 ea bc
       -0.024007225 -0.010359377 0.0019245105 -0.028633954
000050 49 29 d8 3b c7 ed 17 bc a8 13 b9 bc 5d 08 5b 3b
       0.0065967184 -0.009272999 -0.02259238 0.0033421733
000060 8a 59 e0 bc bf 94 f5 3b a4 de 97 bb d4 79 c7 bb
       -0.027386446 0.0074945386 -0.004634695 -0.006087521
000070 bf 8b 20 bc e5 0f 47 3b e8 3b ac 3c b0 40 e7 bb
       -0.009798943 0.0030374464 0.02102466 -0.007057272
000080 5e 11 10 bd eb 9a 85 3c 0a a9 21 bc fd 5a cc 3b
       -0.035172813 0.016309222 -0.009866962 0.0062364326
000090 3c 84 b7 3c 14 83 b6 ba 0f 30 29 bc 24 52 32 3d
       0.022401921 -0.0013924562 -0.0103263995 0.043535367
0000a0 ce d5 98 bc 50 f9 01 3d 6f bf 87 bb 5a c3 92 3c
       -0.018656638 0.031731904 -0.0041426937 0.017915417
0000b0 f8 8a e4 bb e4 24 61 bc c4 84 ab 3b af b2 62 bc
       -0.006974574 -0.013741706 0.0052343328 -0.013836547
0000c0 70 e3 2e 3b 8f b3 ba bb 6a 92 1d bd c4 6e 39 3d
       0.0026685856 -0.0056976746 -0.03846971 0.04527165
0000d0 bf b2 08 bc ee b9 9d 3c 30 0d 30 3c c0 b1 37 bb
       -0.008343398 0.019253697 0.010745332 -0.0028029531
0000e0 7e 65 37 bc 31 4a 0c 3c 11 8a 21 3c 1b ac e3 3c
       -0.011193631 0.0085626105 0.009859578 0.027792027
0000f0 84 15 09 3d 3b aa 2c bc 73 92 44 39 c7 0c ae bc
       0.033467785 -0.010538633 0.00018746573 -0.021246327
000100 6e 5f 61 3c b2 26 b1 3c 0e c2 df 3b d8 d9 91 bb
       0.013755662 0.021624897 0.006828553 -0.004451018
000110 de ba 95 bb 37 ec 23 bc 66 c1 a8 3c 07 c9 b4 3b
       -0.0045693954 -0.0100050485 0.020600032 0.0055171284
000120 18 b8 94 3c 0a 74 ee bb c3 50 ec 3b 25 7d 00 3c
       0.018154189 -0.0072770165 0.007211776 0.007842337
000130 f9 31 28 3c 64 5d c4 bb e6 c5 6c bc fa 74 04 3c
       0.010265821 -0.0059925783 -0.01445148 0.00808453
000140 eb 81 47 bb 4d 9f 7a bc c0 89 1a 3c c6 1a a7 3a
       -0.0030442427 -0.015296769 0.009432256 0.0012749068
000150 32 21 60 3b 6a 4d b7 3a 81 91 3f 3c 1f cb 0c bd
       0.0034199473 0.0013984863 0.011692406 -0.0343734
000160 b2 16 a5 3c 13 d5 0f 3c 7b b0 7c 3c 17 d6 98 bc
       0.020152424 0.008778828 0.015422936 -0.018656773
000170 0d 0a 49 3b fd 2c 4a bc 60 c6 b5 bb 86 f2 7d bc
       0.0030676157 -0.012339828 -0.00554733 -0.015499717
000180 29 82 10 3a 8d fd 85 bb 10 0d 7f bb d0 81 a4 bc
       0.00055125594 -0.0040890635 -0.0038917698 -0.02008143
000190 46 65 f7 bb 7d 28 d9 3b 30 92 a0 bc 1f 03 11 bc
       -0.0075499145 0.006627141 -0.019600958 -0.008850842
0001a0 61 a5 df bb 89 a9 1c 3d eb 10 a9 3c d2 3c 11 3a
       -0.0068251346 0.03824762 0.02063795 0.0005540374
0001b0 54 f1 5c 3c cb d9 75 ba 05 3f 51 3c 0e dc b1 3c
       0.0134852715 -0.0009378462 0.012771373 0.021711376
0001c0 db ae 59 bc 6e 20 cd 3c 14 54 f4 3c 8e 93 7f 3b
       -0.013286318 0.025039878 0.029825248 0.0038997862
0001d0 d3 9b 93 bc 18 9e 8d bb 87 85 8d 3c 18 cf ae bc
       -0.018018639 -0.0043218248 0.017275585 -0.021338984
0001e0 f7 cc 75 bd dc b5 d7 bb 12 57 2c 3d d0 36 47 bb
       -0.060009923 -0.0065829586 0.042075224 -0.003039766
0001f0 c7 fa 0b 3d f7 49 cc bb a9 cc d0 bc fb 4b 9f bc
       0.034174707 -0.0062344032 -0.025488215 -0.01944541
000200 b0 73 4c 3c 2e ce 09 3d 52 2f e3 ba 09 17 ad 3c
       0.012478754 0.033643894 -0.0017332828 0.021129148
000210 6e 62 6a ba b4 ff 22 3d 25 f7 ac bc 54 5a 31 3c
       -0.0008941059 0.03979464 -0.021113941 0.010824759
000220 26 38 3a 3c ef 66 c4 3c ba 8d c9 bc b8 88 e5 3b
       0.011365926 0.023974864 -0.024603713 0.0070048235
000230 54 52 09 bc f3 d4 21 3b 07 1a bc 3b f1 41 d5 3c
       -0.008381445 0.0024693578 0.0057404074 0.02603242
000240 d9 0d c3 3c 91 68 0b 3c 16 fa 45 3c 78 6b 34 3c
       0.023810314 0.008508817 0.012083551 0.011011951
000250 31 2f c8 3b d9 97 dc bc 07 6b 63 bc 7c f4 f4 3c
       0.0061091413 -0.026927875 -0.013880498 0.029901735
000260 a1 ec e4 3c de 3e 34 b9 ce 71 fb bb 18 8e 30 bb
       0.027944865 -0.00017189558 -0.0076734787 -0.0026940163
000270 93 d6 6a bc aa 71 47 bc cf c4 0d bd 09 31 2a bd
       -0.014333385 -0.012173096 -0.03461152 -0.04155067
000280 b1 cc 61 3b 18 bd ef bb 65 bc 52 3b 03 da 3f bd
       0.003445428 -0.007316243 0.003215575 -0.04683877
000290 55 91 80 bc 2d 67 29 bc 52 7e 01 3c 8e 9e b2 3c
       -0.0156943 -0.01033954 0.007903652 0.02180412
0002a0 a6 0b 82 bc 9c a7 e7 3c 99 07 fb 3b d8 75 61 3c
       -0.015874695 0.028278165 0.007660818 0.013761006
0002b0 d4 8c 7d bc 33 96 f5 3b 16 06 c8 3b 1b 16 9c 3c
       -0.015475471 0.007494712 0.006104241 0.01905351
0002c0 23 10 16 bc d6 19 a5 3b 94 8f da 3b 84 73 3a 3c
       -0.009159121 0.0050384803 0.006669948 0.01138008
0002d0 61 4d c5 ba c2 dc 05 bc e3 90 13 3d 33 e9 6e 3c
       -0.0015052968 -0.008170309 0.036026847 0.014581966
0002e0 04 8e bc bc 76 f0 ce 3a e0 1a ac bc 1c e4 09 3c
       -0.023016937 0.0015788216 -0.021008909 0.008416202
0002f0 a3 d3 26 3c 0b b8 8d 3b 93 bb 14 3d 8c bd 8d 3c
       0.010182294 0.004324918 0.036311697 0.017302297
000300 8c 49 21 3c 37 95 4d bc d8 1f fa bc 90 2f 3d bb
       0.009844195 -0.012547783 -0.030532762 -0.002886746
000310 fd d1 49 bb 6a 84 ce bb e4 4c 46 3b 65 90 42 3c
       -0.0030795329 -0.006302406 0.0030258233 0.011875247
000320 1f 27 49 3c 7c de 00 bc d1 5d d4 3c 92 6a 5d bc
       0.012277394 -0.007865544 0.025923641 -0.013514178
000330 c6 38 63 bb c3 36 10 3c 63 11 e7 bc 6f 44 0c bd
       -0.003467129 0.008802119 -0.028206533 -0.03424495
000340 10 c1 d5 bc 20 b7 61 bc 51 a5 09 3c 0d 8b 65 bc
       -0.026093036 -0.013776571 0.008401231 -0.014010203
000350 df da be bc ec 4f a1 3c fc c2 69 ba 69 a3 b1 3c
       -0.023297725 0.01969143 -0.00089172996 0.021684365
000360 d8 a4 ac bc b4 ff 9e 3c 19 b8 d1 3b 01 33 1d b8
       -0.021074697 0.019409038 0.00640012 -3.7479218e-05
000370 88 b5 a4 bc 8d 97 98 bc b3 0f 00 3d 9c dd 5e 3c
       -0.020106092 -0.018626953 0.031264972 0.0136026405
000380 2d ad dc 3c 0e 39 9d bb 6b f7 d5 3a 61 5a 44 bc
       0.026938045 -0.004798061 0.0016324347 -0.011984439
000390 15 88 c4 bc f8 fa 9a bc 4e 8d 33 bc aa 52 10 3d
       -0.02399067 -0.0189185 -0.010958983 0.035235085
0003a0 c2 31 d6 3c 75 10 2e bd a7 b2 28 bc b2 3f 27 bd
       0.026146773 -0.042496163 -0.0102965 -0.04083223
0003b0 89 98 ae 3b 1d e9 09 3c c8 67 80 bc 09 71 e1 bc
       0.005328242 0.008417395 -0.015674487 -0.02751972
0003c0 59 fc 04 3d 52 6b c5 bb c5 e0 72 bb 38 a5 76 bd
       0.03246722 -0.0060247565 -0.0037060243 -0.06021616
0003d0 c6 18 10 3c 11 d3 06 3d 3e eb 39 3b f6 53 0c 3c
       0.008794969 0.032916132 0.0028368975 0.00856494
0003e0 06 25 21 bd 4b 0e b6 bc e3 8c a6 3c 00 31 83 3c
       -0.03934195 -0.022223612 0.020330852 0.016014576
0003f0 5f 07 50 3d da a6 72 3c 87 13 91 3c 8d a4 0c 3b
       0.05078828 0.014810288 0.017709507 0.0021460385

action_model._continuous_distribution.mu.bias f4 [5]
000000 de cf 4c bb f8 e6 b5 bb 52 08 c3 bb 3c b7 c4 bb
       -0.0031251828 -0.0055512153 -0.0059519196 -0.0060032886
000010 11 64 29 bb
       -0.0025846998

action_model._discrete_distribution.branches.0.weight f4 [5, 128]
000000 c2 df a1 3b d3 4a 1d 3c 0e 7d 50 3c 73 03 5b bb
       0.004940004 0.009600359 0.012725128 -0.0033418804
000010 2f c4 03 3c 83 46 d8 3b 90 f3 54 3c c2 e7 3e 3c
       0.008042379 0.0066002025 0.012997523 0.011651935
000020 6c c9 a0 bc 48 15 3c bc c4 f6 db bc 5a c3 02 bc
       -0.019627295 -0.011479683 -0.026851065 -0.007981146
000030 52 76 f8 b9 13 d8 2a 3c 56 29 f4 3b c7 2e d1 bc
       -0.00047390402 0.010427493 0.0074512167 -0.025535
000040 36 b1 47 bc c2 ce 53 bb ff 47 4b 3c f0 f6 2e 3a
       -0.0121882465 -0.0032319282 0.012407302 0.000667437
000050 5f dd 83 bc b8 65 1d 3c 5d 8b b4 bc 92 c3 ad bc
       -0.016096769 0.009606771 -0.02203911 -0.02121142
000060 df 19 71 bb 6d fe ab 3b 7b bf 4f bb 46 93 82 bc
       -0.0036789102 0.005248836 -0.0031699825 -0.015939366
000070 2c 70 6b b9 a9 39 0b ba ec a3 ff 3b b6 f9 ae 39
       -0.00022453134 -0.0005311021 0.0078015234 0.00033373915
000080 de 04 31 37 4b 6f e2 3b 4c 9a 02 bc 8f 1f e6 3c
       1.0551155e-05 0.00691024 -0.007971358 0.02809122
000090 10 ca cd 3b 0a 2b c5 3b 7a 7e c2 bb a3 2a 99 bc
       0.0062801912 0.0060170935 -0.0059354873 -0.018697089
0000a0 cc 6d 0a bc b1 d0 88 3c ec ab 09 3c fb 40 a6 bc
       -0.008449029 0.016701074 0.008402806 -0.020294657
0000b0 65 fd 4a 3c 3c 18 c9 3a d7 59 58 3c 3c 7a f0 bb
       0.0123895155 0.0015342305 0.013205013 -0.00733879
0000c0 29 91 15 bc 4e 84 ab ba 08 cf 90 bb 0a 1f e8 bb
       -0.009128847 -0.0013085695 -0.0044192113 -0.0070837783
0000d0 73 db db bb f2 9e 75 3c 88 a2 7f bb 80 f7 15 bc
       -0.00670951 0.014991509 -0.0039006788 -0.009153247
0000e0 90 bd a5 bb 8b d4 83 bc 59 57 30 3c 37 f6 df 3b
       -0.005057998 -0.01609256 0.010763013 0.006834771
0000f0 5e e6 1c bc 0d 4d 7f 3c c5 74 d3 bb 6b 31 a9 bc
       -0.009576408 0.015582335 -0.006453129 -0.020653447
000100 5e e4 79 bc 59 df e5 bb 48 4d 5a bc 68 71 b5 3a
       -0.015252201 -0.0070151505 -0.013324089 0.0013843002
000110 ed d7 a0 3b a9 77 ad bb a4 08 e3 bc 8d 5c e8 3b
       0.004908553 -0.0052938056 -0.027714081 0.007091111
000120 a2 f7 a6 3c 8f b2 02 ba 0e ae dc b9 f0 ef dc ba
       0.020381752 -0.0004985714 -0.0004209135 -0.0016856175
000130 b8 b0 9d bb 5f 92 09 bd 0e e7 23 bd bd a7 3f bb
       -0.0048123263 -0.033586856 -0.040015273 -0.0029244267
000140 1f f2 47 bc fb 30 d7 ba b2 ac b3 bb d8 32 1f bc
       -0.012203722 -0.0016417796 -0.0054832334 -0.009716712
000150 4b 8a 29 3c 27 0c 9f 3b 07 37 88 3b b5 3e 8a 3b
       0.010347913 0.0048537436 0.0041569504 0.004218901
000160 ed 7a 15 bb 9d 71 e8 3a d3 78 e0 3b 00 9f 39 3c
       -0.0022808865 0.0017734055 0.006850341 0.011329412
000170 de d5 df bc c3 8e b1 bb 96 bc 94 bb 88 80 48 3c
       -0.02732366 -0.00541863 -0.0045390828 0.0122376755
000180 52 2d 04 3b 9d 21 be 3b 3b 29 57 bb ed 3a 6d bb
       0.0020168615 0.005802347 -0.0032830972 -0.0036198453
000190 ac d3 1f bc d3 3f 3d 3b ea e2 87 bb c3 0e 97 3b
       -0.009755056 0.0028877154 -0.0041469233 0.004609914
0001a0 c9 3e c0 bb 0c 3b 2d bc 17 b4 cd 3a 5f 97 a7 3c
       -0.0058668596 -0.01057316 0.001569393 0.020457922
0001b0 2c 51 b0 bc 5e 80 c0 bb b0 e1 3c bc cb 81 8e bc
       -0.02152308 -0.0058746776 -0.0115284175 -0.017395874
0001c0 a3 cc c1 3c 8e 77 1a bc b3 e7 a1 3c a0 40 ef bb
       0.023657149 -0.009427918 0.019763803 -0.007301405
0001d0 c8 6a 17 3c 6d db ff 3b d0 5f 87 bc 75 40 97 3b
       0.009241767 0.00780814 -0.01652518 0.004615838
0001e0 fb 47 34 39 8e cb 7c 3c 20 48 4c bc df f6 9a bc
       0.00017192953 0.015429391 -0.012468368 -0.018916545
0001f0 0b c7 39 bb 39 4a 1f bb 70 c8 96 3a d5 80 fa bb
       -0.0028347399 -0.0024305715 0.0011503827 -0.0076447525
000200 e3 02 f5 3a 32 a9 1e bc 89 03 45 bc 76 33 22 bc
       0.0018692877 -0.009683894 -0.012024769 -0.009899965
000210 f4 a5 1e bb 17 be af bc 15 dc e3 ba 61 67 df 3a
       -0.0024207802 -0.021452947 -0.0017384315 0.0017044359
000220 97 79 05 3b f2 99 1e bc 34 8c ac bb 38 a9 d2 bb
       0.0020366663 -0.009680258 -0.005265737 -0.006428864
000230 bf 29 71 bc e4 3a 0d 3a c3 e7 b0 3b c3 6f 8d bc
       -0.014719426 0.00053874985 0.005398722 -0.017265206
000240 27 54 88 3c 07 d6 ee 3b f8 54 55 bc f2 1b 63 bb
       0.01664169 0.0072886976 -0.013020746 -0.0034654108
000250 ff 15 9a 3c b7 3a 88 3a f1 0a ec bb 33 1e 3c bc
       0.018809317 0.0010393475 -0.0072034528 -0.011481809
000260 46 36 35 bc 7e 96 97 bc 97 27 3f 3b 3b 45 d2 3a
       -0.011060303 -0.018504377 0.0029167884 0.0016042361
000270 25 21 e4 3b d9 0a e5 3c 0c b5 99 bb ee 2a bf bb
       0.006961959 0.027959274 -0.004690772 -0.005833975
000280 24 64 25 3b 12 75 47 3b 89 2c 30 bb 62 3f 28 bc
       0.002523669 0.003043477 -0.0026882014 -0.010269018
000290 93 4e ad bb 2b d2 c8 3b a5 a1 03 bc 1d fb 22 ba
       -0.005288908 0.0061285696 -0.0080341445 -0.00062172284
0002a0 ee a0 d3 bb cf 4a 0b bc c9 22 3e 3c a2 a5 01 3c
       -0.0064583933 -0.0085017225 0.011604973 0.007913025
0002b0 09 cf bb 3b 61 66 bc bc 6a 71 38 ba a2 52 6d bc
       0.0057314676 -0.022998037 -0.0007035943 -0.014485033
0002c0 2b bf 88 3c 56 64 ed ba 94 2e 04 3c 6d 81 3c 3c
       0.016692718 -0.0018111567 0.008067746 0.011505467
0002d0 a8 7a f7 bb f7 26 5b 3c ae 63 2c bc bf 9f 9f 3b
       -0.0075524636 0.013375989 -0.010521812 0.004871338
0002e0 20 19 1b 3c e9 79 37 3c bb c4 40 3c 5a 35 e9 3c
       0.0094664395 0.011198499 0.011765654 0.028467823
0002f0 9d d1 f7 bb ee 17 12 ba d6 f1 1f 3c b0 fb 17 bc
       -0.0075628296 -0.0005573024 0.009762248 -0.009276316
000300 5b 9d b4 bc a4 fc 81 3a d3 f9 7e 3c 48 cd a4 bb
       -0.02204769 0.0009917212 0.015562492 -0.0050293542
000310 1d 9f 59 3c 20 78 0e 3c 78 d9 34 3c 66 7f 50 3c
       0.0132825645 0.008695632 0.011038177 0.012725687
000320 82 31 9c 3b 31 6e 79 bc f9 80 14 3b f3 99 86 3c
       0.004766644 -0.015224026 0.0022659882 0.01643083
000330 42 5f bf 3b 32 61 be bb 73 8f 00 bc 39 45 6c bb
       0.005840213 -0.0058099264 -0.007846701 -0.0036052002
000340 f2 e6 b9 3c bf fa cb 3c d6 97 2a 3b 60 17 ae bb
       0.022693131 0.024899838 0.0026030443 -0.005312845
000350 2c a3 21 bc 51 ee 14 3c 8e ed 4f bc 6a 28 87 3b
       -0.009865563 0.009090022 -0.012690915 0.004124691
000360 ac 90 af ba 17 e1 19 bb 60 18 d5 3c a1 4e 28 bc
       -0.0013394556 -0.0023480111 0.0260126 -0.010272653
000370 68 09 dc 3a 53 03 6f 3b 29 45 24 3c 62 db 15 3c
       0.0016787471 0.0036470487 0.010026255 0.009146543
000380 7c de 91 bb 03 bd 83 bb fa ef 26 bb 5e 52 df bb
       -0.004451571 -0.0040203347 -0.0025472627 -0.006815239
000390 4a 98 98 3b 74 6d 92 3c 22 e7 68 3b 6f ef 20 bb
       0.004656826 0.017874457 0.0035538157 -0.0024556776
0003a0 d4 6e df bc 0e aa 39 bc 5b 09 3f bc 0f d2 3f 3c
       -0.027274527 -0.011332048 -0.011659945 0.011707797
0003b0 7a 99 d4 bc a7 e0 b2 ba 43 dd 08 3d bb ca 6c 3c
       -0.02595209 -0.0013647274 0.033414137 0.014452632
0003c0 f8 9a 65 3a 5a 97 fb 3b 6c 35 bb 3b 2f 02 55 3c
       0.0008758749 0.0076779546 0.0057131555 0.013001009
0003d0 05 59 b4 bb 9a 33 c6 39 8d cf b1 ba 10 22 55 3c
       -0.005503776 0.0003780395 -0.0013565883 0.013008609
0003e0 2e 68 a6 bb 1f dc 8a 3c 99 67 28 3c 99 c8 3c 3c
       -0.005078337 0.016950665 0.010278606 0.011522436
0003f0 6c 10 da 3b 93 82 16 38 53 35 15 bc aa 5b 0d bb
       0.0066547897 3.5884394e-05 -0.009106952 -0.0021569529

action_model._discrete_distribution.branches.0.bias f4 [5]
000000 6e 41 99 3c 15 55 7a 3a 83 37 1d 3c 3a a8 e9 3b
       0.018707957 0.00095494214 0.009595755 0.00713065
000010 b5 b9 21 bd
       -0.039483745

exp_avg f4 [128, 64]
000000 be b8 70 36 34 c4 19 b7 cf 72 cd b6 6b a7 8f 35
       3.587032e-06 -9.165193e-06 -6.1228416e-06 1.0703055e-06
000010 ab 3e 07 b7 70 0b 1e b6 31 83 e9 b6 dc 5a cc b5
       -8.061218e-06 -2.3550492e-06 -6.959214e-06 -1.5225628e-06
000020 d1 93 d9 b3 07 68 7d b5 e9 dd 10 36 e7 10 ba b6
       -1.01317376e-07 -9.4401224e-07 2.158684e-06 -5.5451997e-06
000030 de 41 0e b7 7b 1d a5 35 c7 0c 13 b7 71 f4 24 36
       -8.4791955e-06 1.2302038e-06 -8.764858e-06 2.4580188e-06
000040 05 d8 19 b7 06 05 92 b6 2f ec 87 35 c0 6d 91 36
       -9.169807e-06 -4.351724e-06 1.0127022e-06 4.3341133e-06
000050 ad 79 5a b6 07 af b0 b6 d3 b8 44 b6 22 1b 9d 35
       -3.2555356e-06 -5.2655846e-06 -2.9313858e-06 1.1705308e-06
000060 5a 46 08 36 8d 85 1a b7 79 f5 ae b6 62 da 19 37
       2.030653e-06 -9.21021e-06 -5.214181e-06 9.170357e-06
000070 54 f5 0f 34 e4 95 05 b7 eb b2 a8 36 db cc 4a b7
       1.3407163e-07 -7.962317e-06 5.027619e-06 -1.2087835e-05
000080 7f fb 98 b5 a2 ba 14 b6 eb 3e ff 36 95 18 8b b5
       -1.1398078e-06 -2.2162353e-06 7.606917e-06 -1.0363461e-06
000090 62 56 01 36 1f 61 a5 b6 64 83 9e b6 d3 87 cc b5
       1.927278e-06 -4.9286896e-06 -4.724063e-06 -1.5238714e-06
0000a0 c3 41 4e b6 65 b0 24 b7 d9 14 cc 36 c8 fa 6b 35
       -3.073467e-06 -9.816232e-06 6.0821008e-06 8.7909257e-07
0000b0 40 e0 f8 36 9c 32 ef 36 25 47 bf b7 66 5e 30 37
       7.417082e-06 7.1286468e-06 -2.2802104e-05 1.0512396e-05
0000c0 91 87 6b b5 49 7b f7 35 9c 32 ef 36 25 47 bf b7
       -8.7741597e-07 1.8438815e-06 7.1286468e-06 -2.2802104e-05
0000d0 66 5e 30 37 91 87 6b b5 63 7b f7 35 33 03 c1 ba
       1.0512396e-05 -8.7741597e-07 1.8438844e-06 -0.0014725685
0000e0 81 36 f8 38 f7 da 0a b4 80 1e 1d 39 2e b2 9a b7
       0.00011835714 -1.293191e-07 0.00014984049 -1.8441202e-05
0000f0 01 c5 d2 39 fc 75 2e b6 65 02 8a 37 77 fc 5b 36
       0.000402011 -2.5996696e-06 1.6451997e-05 3.2780497e-06
000100 80 39 cc 36 39 ee 2a b8 79 6f 09 36 6b 37 25 35
       6.0863676e-06 -4.075302e-05 2.0479476e-06 6.1547934e-07
000110 f7 95 c0 b7 80 3b 0f b7 63 a5 a0 b7 57 58 52 b6
       -2.2958016e-05 -8.537318e-06 -1.91505e-05 -3.134386e-06
000120 ef 5b 65 33 ef 80 de 35 79 47 af b5 09 33 90 b7
       5.340183e-08 1.6577814e-06 -1.3059317e-06 -1.7189903e-05
000130 84 1a 6d b7 c0 88 20 35 5d 3b b3 b3 f0 a7 ac b6
       -1.41324745e-05 5.980364e-07 -8.346135e-08 -5.14555e-06
000140 31 ce 35 b7 39 03 77 b7 7c bf a8 b4 6b 5d 79 36
       -1.0836448e-05 -1.4723098e-05 -3.1431762e-07 3.7158268e-06
000150 97 15 aa b6 2a c9 d7 b7 4e 69 de b5 9e aa 4a 35
       -5.068908e-06 -2.5723672e-05 -1.6570937e-06 7.5499145e-07
000160 08 cd f9 35 11 30 f3 b4 05 6a 12 b8 8f 82 54 36
       1.8611618e-06 -4.529725e-07 -3.490785e-05 3.1666457e-06
000170 02 9a 14 35 53 22 8c b5 66 fe 75 34 f8 f0 03 b8
       5.535841e-07 -1.0440802e-06 2.2909953e-07 -3.1457253e-05
000180 94 39 9a b5 b4 6d 23 35 50 32 6b 36 5c c7 25 36
       -1.1490652e-06 6.088187e-07 3.5047015e-06 2.4702958e-06
000190 c8 60 0f b8 7f ca 88 b4 64 cd 8e 34 7f 41 d8 b6
       -3.418399e-05 -2.547931e-07 2.6599002e-07 -6.4449264e-06
0001a0 be 80 19 b5 4c cd f0 b7 fc 1f 6e b6 44 c9 66 35
       -5.7184286e-07 -2.8705828e-05 -3.548338e-06 8.5974557e-07
0001b0 2b ec 1a b7 c6 65 88 b4 40 ed 0c b8 16 4c 01 36
       -9.234102e-06 -2.5406024e-07 -3.3599557e-05 1.9266786e-06
0001c0 74 23 e3 34 cc dc 6f b7 c6 65 88 b4 40 ed 0c b8
       4.230784e-07 -1.4296918e-05 -2.5406024e-07 -3.3599557e-05
0001d0 16 4c 01 36 74 23 e3 34 cb dc 6f b7 09 ef 9a 3a
       1.9266786e-06 4.230784e-07 -1.42969175e-05 0.0011820506
0001e0 ac fa bd 39 6d 07 44 b7 45 8a ec 38 a0 1e 93 b7
       0.00036235654 -1.1684239e-05 0.00011279112 -1.7538026e-05
0001f0 f7 a0 1a 39 7a 95 1f b7 1e 0d 59 37 1e 55 22 36
       0.00014746549 -9.511941e-06 1.2937262e-05 2.4189426e-06
000200 54 de 1a b4 5e 2f f4 b6 57 9f 0a b4 d5 49 27 33
       -1.442325e-07 -7.277281e-06 -1.2910219e-07 3.8949867e-08
000210 b6 95 c3 b6 95 89 74 b5 a3 bd fa b6 cd 79 2d 35
       -5.8288815e-06 -9.109729e-07 -7.472657e-06 6.4624766e-07
000220 c5 b5 07 32 4f 05 81 b6 f5 e7 14 b6 34 c2 3e b6
       7.899364e-09 -3.8451176e-06 -2.2188735e-06 -2.8425247e-06
000230 2c 69 2e b6 80 6d 53 b3 ed db 2d b6 a5 ca 56 35
       -2.5989239e-06 -4.9226855e-08 -2.5907023e-06 8.00161e-07
000240 e9 5c 12 b7 8b 82 30 34 62 8f 13 32 ef e3 42 b6
       -8.7239105e-06 1.6438769e-07 8.589128e-09 -2.9040928e-06
000250 be 76 62 b5 3b f0 cd b6 7b 87 4d b5 b8 49 95 b2
       -8.4364353e-07 -6.1374426e-06 -7.65656e-07 -1.7379406e-08
000260 cf e8 d4 b6 4d 1d dc 35 5d ab 31 b7 a6 83 14 b4
       -6.345195e-06 1.6399805e-06 -1.0589921e-05 -1.3831468e-07
000270 30 e4 4f 35 b2 79 25 36 9f ab cc b4 9b d1 f7 b6
       7.7445566e-07 2.4657752e-06 -3.8122832e-07 -7.385575e-06
000280 76 82 b7 b5 62 88 e1 35 3f 80 27 b5 02 76 de 35
       -1.3672532e-06 1.6803499e-06 -6.239897e-07 1.6574634e-06
000290 89 bb 3f b7 3c ea 4b 35 9f aa b1 35 c0 ed 89 36
       -1.1428151e-05 7.596425e-07 1.3237185e-06 4.110596e-06
0002a0 6f 2b 61 35 d3 00 20 b7 44 07 b9 b4 b1 dc f4 b2
       8.3882236e-07 -9.536935e-06 -3.4464222e-07 -2.8505697e-08
0002b0 d9 5a 2c 36 c1 d3 8c b5 dd 83 41 b7 03 82 7b 36
       2.5682878e-06 -1.0492441e-06 -1.1534398e-05 3.7477591e-06
0002c0 ff b8 1f b4 2f 07 4b 34 c1 d3 8c b5 dd 83 41 b7
       -1.487533e-07 1.8908462e-07 -1.0492441e-06 -1.1534398e-05
0002d0 03 82 7b 36 ff b8 1f b4 5b 07 4b 34 0d 8e 04 3a
       3.7477591e-06 -1.487533e-07 1.8908524e-07 0.00050565676
0002e0 3b 33 b1 b8 74 da 93 b6 15 05 6e b9 3d 30 bb b6
       -8.44956e-05 -4.4063727e-06 -0.00022699342 -5.57865e-06
0002f0 0c 3e cd b8 83 2b 1b b6 1f 4a 70 b7 fd d1 b5 b6
       -9.786719e-05 -2.3122127e-06 -1.4322372e-05 -5.418666e-06
000300 86 aa 4e 37 ad 4c 86 b6 f4 e5 24 36 60 c6 81 b5
       1.231826e-05 -4.0024374e-06 2.4571755e-06 -9.668984e-07
000310 81 2a a4 b6 55 3d 28 37 dd ce 94 35 f0 67 e3 b5
       -4.892529e-06 1.002786e-05 1.1087064e-06 -1.6943068e-06
000320 dd 16 e3 31 db 7d 1a 37 19 38 06 b5 a7 4c ae 36
       6.6091688e-09 9.208418e-06 -5.000052e-07 5.1945276e-06
000330 b7 67 f3 36 03 85 7b b5 a0 af 59 b5 7d d9 54 35
       7.2540383e-06 -9.3698344e-07 -8.109437e-07 7.929264e-07
000340 bd 02 a5 37 94 28 2d b7 65 93 e2 34 1a 69 d3 36
       1.9670808e-05 -1.0321051e-05 4.2203024e-07 6.3005255e-06
000350 f5 1f a4 b5 34 04 4a 37 6d 14 16 b5 31 ba 9c b4
       -1.2228253e-06 1.2041117e-05 -5.590908e-07 -2.9192736e-07
000360 4b 88 10 37 f3 8b fc b4 24 71 26 37 3b b6 ce 34
       8.614802e-06 -4.7040484e-07 9.920714e-06 3.850308e-07
000370 24 81 e8 34 79 ad 0a b5 4b ce 91 b5 e9 0b 6a 37
       4.330733e-07 -5.166144e-07 -1.0863381e-06 1.395026e-05
000380 59 af 2d b6 cc 74 ea b4 8f cc e8 36 1d 16 13 b6
       -2.5881075e-06 -4.3670877e-07 6.9379525e-06 -2.1917579e-06
000390 ec 81 7e 37 83 67 65 b6 01 09 2e 35 51 ff 76 36
       1.516983e-05 -3.418391e-06 6.4833154e-07 3.680547e-06
0003a0 20 37 b8 b3 55 43 5b 37 f0 b0 31 b6 24 2e 27 b4
       -8.578195e-08 1.3069094e-05 -2.6478046e-06 -1.5569873e-07
0003b0 1d d0 4b 36 65 58 87 33 c7 f5 13 37 f3 bb 25 34
       3.0370495e-06 6.302506e-08 8.819107e-06 1.5435198e-07
0003c0 32 24 86 34 d5 06 f7 36 65 58 87 33 c7 f5 13 37
       2.498578e-07 7.361969e-06 6.302506e-08 8.819107e-06
0003d0 f3 bb 25 34 32 24 86 34 d3 06 f7 36 7c 88 9c ba
       1.5435198e-07 2.498578e-07 7.361968e-06 -0.0011942531
0003e0 84 7b af b8 f6 e1 d2 36 ae a4 92 39 4b 39 3d 36
       -8.367657e-05 6.284793e-06 0.00027969986 2.8196544e-06
0003f0 9d d6 a4 b8 a2 7c 4d 36 89 37 4b b6 49 5d 9c b5
       -7.860104e-05 3.0619926e-06 -3.0281683e-06 -1.1650055e-06
