results/shortRays/Tank/Tank-3918.pt (torch, 215891 bytes, 14 tensors)

network_body._body_endoder.seq_layers.0.weight f4 [128, 66]
0.009814809 0.035850134 -0.11178645 -0.387202 0.06307402 0.017554594 0.12791297 -0.1155685
-0.11278146 0.16656093 0.07575744 0.034450613 -0.08665569 -0.0138450535 -0.06484471 -0.1377044
0.01403758 0.0059269695 0.028223969 0.0945831 -0.018225687 0.0037853324 -0.06833028 -0.08597487
0.098199084 -0.0695952 0.21524402 -0.055514783 -0.017583584 0.10746014 0.037090205 -0.2825735
0.17543142 0.016054263 -0.082232974 0.08618764 -0.040350173 0.018807648 0.019059675 -0.15635478
-0.14535259 -0.13427424 -0.027173178 -0.15125097 0.033570543 -0.21198814 0.052294392 -0.040458996
-0.08022791 -0.080873474 0.02037535 0.22438473 -0.120961905 0.19226773 -0.1882814 0.061590735
-0.17873546 0.04447976 -0.19295183 0.15031277 0.03507637 -0.06448468 -0.004859935 -0.17749359
0.08163525 0.16186109 -0.15453991 -0.025112556 0.10248703 -0.09994926 0.16550183 0.09429126
-0.049528137 0.17791927 0.08760564 -0.041296206 -0.09781347 0.3282264 -0.008898669 0.050631616
0.09416831 0.09212335 0.28170526 -0.06459286 -0.11423596 0.0696325 0.07034013 0.0707026
-0.0923197 0.10435541 0.003378819 -0.042306032 0.043051578 0.08014673 0.15594074 -0.19727483
-0.13528873 -0.116963536 0.18532178 -0.008021908 -0.123797715 0.09366848 -0.083440885 -0.1267749
-0.09638868 -0.09934772 0.018544905 0.07462162 -0.3355314 -0.091997996 0.10782774 0.09929747
-0.00057908584 0.043420766 0.018431198 0.18177584 -0.13107143 -0.024530191 0.21182725 0.025860788
-0.09813548 -0.11941599 -0.003382274 -0.016598994 -0.021361623 -0.043780044 0.29118198 0.14020798
-0.22487694 0.022070197 0.06585368 -0.084729895 0.022624183 0.24799758 -0.16105148 -0.22336909
0.11094536 0.0007938542 -0.04333203 0.14172933 -0.11883168 0.37384316 -0.19668166 -0.18159442
-0.119263455 -0.12110501 0.28751445 -0.07059013 -0.031500258 0.08155929 -0.13589169 -0.14350554
0.0215866 0.25081152 -0.11370211 -0.14469014 -0.18186446 -0.061385605 0.07382149 -0.075967
0.17839466 0.00068726146 0.10864909 -0.037652157 0.08116207 0.15271296 0.022345522 0.2913483
-0.17295142 0.088298835 0.012126156 0.084179886 0.08261917 -0.008017026 0.080057286 -0.07471794
0.12231394 0.054120395 -0.26415172 -0.12007712 0.028996965 -0.053348996 -0.117745504 -0.004154796
-0.21280013 0.015003811 -0.11674767 -0.07674641 0.06780215 -0.13188131 0.07968527 0.025214367
0.18566687 0.073259324 -0.079285935 0.22191472 -0.13840632 0.100757726 0.032540575 0.10389399
-0.012177165 -0.22113474 0.0758826 0.051081553 -0.1564948 0.21543854 -0.010529736 -0.010565593
0.28386495 -0.03961988 -0.14895825 0.004075929 0.026124211 -0.11608081 0.012257074 -0.050776407
-0.23914972 0.11643642 -0.16783032 0.11248252 -0.20671931 0.14558156 -0.062432464 0.030221626
0.120161064 -0.012712151 0.12782766 0.028969165 -0.060933862 -0.17831355 0.026232954 -0.13089417
0.07065558 0.047170825 -0.114727356 -0.20989172 -0.14444864 -0.0008567889 -0.118356556 0.13272065
0.2671105 0.071306914 -0.102043994 0.027455779 -0.019588469 -0.11110961 -0.06360477 0.09239044
0.063356996 0.07752762 -0.10031002 -0.06469592 -0.095315896 0.13440084 -0.11376678 -0.06155815
00000000: 4bce 203c 97d7 123d 4bf0 e4bd 573f c6be
00000010: f42c 813d a7ce 8f3c 9efb 023e 2daf ecbd
00000020: f7f9 e6bd f38e 2a3e b726 9b3d 161c 0d3d
00000030: 8a78 b1bd 5dd6 62bc 4ecd 84bd 6202 0dbe
00000040: e1fd 653c 0637 c23b f435 e73c c9b4 c13d
00000050: 094e 95bc 5713 783b bff0 8bbd 9813 b0bd
00000060: 9a1c c93d ee87 8ebd ee68 5c3e 7863 63bd
00000070: 730b 90bc 1014 dc3d e6eb 173d 79ad 90be
00000080: 4ba4 333e 3b84 833c c369 a8bd 2583 b03d
00000090: 3946 25bd 7f12 9a3c 0923 9c3c 781b 20be
000000a0: 4fd7 14be 307f 09be 499a debc 89e1 1abe
000000b0: 4481 093d 6b13 59be a532 563d 55b8 25bd
000000c0: 884e a4bd fea0 a5bd 35ea a63c 1cc5 653e
000000d0: e0ba f7bd d5e1 443e d7cc 40be 9146 7c3d
000000e0: 6e06 37be 6930 363d 2a95 45be 97eb 193e
000000f0: 3dac 0f3d 8b10 84bd 1740 9fbb e1c0 35be
00000100: 6230 a73d eabe 253e b63f 1ebe d9b8 cdbc
00000110: b8e4 d13d 33b2 ccbd 5079 293e c71b c13d
00000120: 04de 4abd 7830 363e 966a b33d 3626 29bd
00000130: 6e52 c8bd 4a0d a83e b9cb 11bc 1963 4f3d
00000140: 51db c03d 2bab bc3d ac3b 903e 4349 84bd
00000150: 8bf4 e9bd 7c9b 8e3d 7c0e 903d 86cc 903d
00000160: 1c12 bdbd 4ab8 d53d 2d6f 5d3b 1749 2dbd
00000170: da56 303d f823 a43d eeae 1f3e 6a02 4abe
00000180: 2189 0abe 948a efbd fec4 3d3e 526e 03bc
00000190: a889 fdbd 43d5 bf3d 0ee3 aabd 48d1 01be
000001a0: 6e67 c5bd d176 cbbd 7ceb 973c 38d3 983d
000001b0: c6ca abbe 7269 bcbd cad4 dc3d 795c cb3d
000001c0: cbcd 17ba f9d9 313d 06fd 963c 7223 3a3e
000001d0: 9737 06be 8af3 c8bc 3ee9 583e 01da d33c
000001e0: 41fb c8bd 5f90 f4bd 24a9 5dbb 9dfa 87bc
000001f0: 92fe aebc b452 33bd ce15 953e ae92 0f3e
00000200: 2446 66be 8fcc b43c 4bde 863d de86 adbd
00000210: 5a56 b93c 14f3 7d3e aeea 24be deba 64be
00000220: 5237 e33d a71a 503a ed7c 31bd 7e21 113e
00000230: 065e f3bd 5f68 bf3e eb66 49be e3f3 39be
00000240: 6640 f4bd e705 f8bd 1835 933e 8f91 90bd
00000250: 6a06 01bd 8f08 a73d 3127 0bbe 1ef3 12be
00000260: 62d6 b03c 5e6a 803e a7dc e8bd a729 14be
00000270: ad3a 3abe 796f 7bbd b92f 973d 9694 9bbd
00000280: 17ad 363e 5629 343a 6a83 de3d 2639 1abd
00000290: 4d38 a63d c960 1c3e f50d b73c 9b2b 953e
000002a0: 2d1a 31be 05d6 b43d c9ac 463c 8166 ac3d
000002b0: 3d34 a93d d859 03bc 13f5 a33d b805 99bd
000002c0: bb7f fa3d 59ad 5d3d e53e 87be feea f5bd
000002d0: 0b8b ed3c 7a84 5abd 8e24 f1bd f424 88bb
000002e0: 47e8 59be 8bd2 753c 6719 efbd 392d 9dbd
000002f0: dbdb 8a3d e50b 07be 0832 a33d 5c8e ce3c
00000300: 751f 3e3e fc08 963d aa60 a2bd 9d3d 633e
00000310: 63ba 0dbe 115a ce3d 4449 053d 5fc6 d43d
00000320: bb82 47bc 2571 62be 5668 9b3d e43a 513d
00000330: 2c40 20be ec9b 5c3e ea84 2cbc 4f1b 2dbc
00000340: bf56 913e 7548 22bd 8388 18be 5f8f 853b
00000350: 7102 d63c c7bb edbd e5d1 483c ecfa 4fbd
00000360: aae3 74be 3876 ee3d b6db 2bbe 3c5d e63d
00000370: 3aae 53be 5513 153e 2fb9 7fbd 5893 f73c
00000380: 0117 f63d a046 50bc 41e5 023e be50 ed3c
00000390: c995 79bd d497 36be 7ee6 d63c 1f09 06be
000003a0: dfb3 903d 3236 413d 2df6 eabd dbed 56be
000003b0: 58ea 13be 219a 60ba ec64 f2bd ece7 073e
000003c0: b5c2 883e 5c09 923d 71fc d0bd f1ea e03c
000003d0: ff77 a0bc 6f8d e3bd 3843 82bd 3337 bd3d
000003e0: 50c1 813d cdc6 9e3d 576f cdbd 4b7f 84bd
000003f0: fb34 c3bd 60a0 093e 8ffe e8bd 6624 7cbd

network_body._body_endoder.seq_layers.0.bias f4 [128]
0.0 0.0 0.0 0.0 0.0 0.0 0.0 0.0
0.0 0.0 0.0 0.0 0.0 0.0 0.0 0.0
0.0 0.0 0.0 0.0 0.0 0.0 0.0 0.0
0.0 0.0 0.0 0.0 0.0 0.0 0.0 0.0
0.0 0.0 0.0 0.0 0.0 0.0 0.0 0.0
0.0 0.0 0.0 0.0 0.0 0.0 0.0 0.0
0.0 0.0 0.0 0.0 0.0 0.0 0.0 0.0
0.0 0.0 0.0 0.0 0.0 0.0 0.0 0.0
0.0 0.0 0.0 0.0 0.0 0.0 0.0 0.0
0.0 0.0 0.0 0.0 0.0 0.0 0.0 0.0
0.0 0.0 0.0 0.0 0.0 0.0 0.0 0.0
0.0 0.0 0.0 0.0 0.0 0.0 0.0 0.0
0.0 0.0 0.0 0.0 0.0 0.0 0.0 0.0
0.0 0.0 0.0 0.0 0.0 0.0 0.0 0.0
0.0 0.0 0.0 0.0 0.0 0.0 0.0 0.0
0.0 0.0 0.0 0.0 0.0 0.0 0.0 0.0
00000000: 0000 0000 0000 0000 0000 0000 0000 0000
00000010: 0000 0000 0000 0000 0000 0000 0000 0000
00000020: 0000 0000 0000 0000 0000 0000 0000 0000
00000030: 0000 0000 0000 0000 0000 0000 0000 0000
00000040: 0000 0000 0000 0000 0000 0000 0000 0000
00000050: 0000 0000 0000 0000 0000 0000 0000 0000
00000060: 0000 0000 0000 0000 0000 0000 0000 0000
00000070: 0000 0000 0000 0000 0000 0000 0000 0000
00000080: 0000 0000 0000 0000 0000 0000 0000 0000
00000090: 0000 0000 0000 0000 0000 0000 0000 0000
000000a0: 0000 0000 0000 0000 0000 0000 0000 0000
000000b0: 0000 0000 0000 0000 0000 0000 0000 0000
000000c0: 0000 0000 0000 0000 0000 0000 0000 0000
000000d0: 0000 0000 0000 0000 0000 0000 0000 0000
000000e0: 0000 0000 0000 0000 0000 0000 0000 0000
000000f0: 0000 0000 0000 0000 0000 0000 0000 0000
00000100: 0000 0000 0000 0000 0000 0000 0000 0000
00000110: 0000 0000 0000 0000 0000 0000 0000 0000
00000120: 0000 0000 0000 0000 0000 0000 0000 0000
00000130: 0000 0000 0000 0000 0000 0000 0000 0000
00000140: 0000 0000 0000 0000 0000 0000 0000 0000
00000150: 0000 0000 0000 0000 0000 0000 0000 0000
00000160: 0000 0000 0000 0000 0000 0000 0000 0000
00000170: 0000 0000 0000 0000 0000 0000 0000 0000
00000180: 0000 0000 0000 0000 0000 0000 0000 0000
00000190: 0000 0000 0000 0000 0000 0000 0000 0000
000001a0: 0000 0000 0000 0000 0000 0000 0000 0000
000001b0: 0000 0000 0000 0000 0000 0000 0000 0000
000001c0: 0000 0000 0000 0000 0000 0000 0000 0000
000001d0: 0000 0000 0000 0000 0000 0000 0000 0000
000001e0: 0000 0000 0000 0000 0000 0000 0000 0000
000001f0: 0000 0000 0000 0000 0000 0000 0000 0000

network_body._body_endoder.seq_layers.2.weight f4 [128, 128]
0.037049815 0.10022471 0.100028455 0.012788287 0.02259598 -0.023527185 -0.0415315 0.0031939452
-0.03271306 0.025567073 0.04657965 0.008934139 0.0269418 -0.0591158 -0.09552697 0.08944737
0.15842493 -0.049845956 -0.12857153 -0.082151644 0.034388598 -0.12580682 0.07033858 -0.049400322
-0.052760012 0.13905506 0.06081078 -0.13801691 -0.019823568 -0.050374784 0.107964605 -0.02920474
-0.07401271 -0.102222584 0.023390232 0.11982767 -0.112679765 -0.057149336 0.1272039 0.1401762
-0.06361766 0.0783423 -0.121420614 -0.04404656 -0.0008426346 0.018071452 0.10295618 -0.091188386
0.07204501 0.02002005 0.06612641 0.10830773 0.13547376 0.05601036 0.008854459 -0.12814075
0.030737322 -0.028663335 0.016820008 0.081539676 0.29627928 0.16985859 -0.043437276 0.19362155
-0.03274782 0.115562096 0.07985967 -0.07598716 -0.006114143 0.006029597 -0.115978464 0.09865125
-0.17461672 0.0019111327 -0.080328576 0.0026198425 0.1927164 -0.10499829 0.037671916 -0.052234247
-0.010907863 0.20093696 -0.045647148 0.12190316 -0.03714501 -0.09518085 -0.154389 -0.033886615
-0.020937704 -0.022382958 -0.032043595 -0.117124826 -0.00031236798 0.052819066 -0.05182705 -0.09931529
0.057839695 -0.09741642 -0.018447526 -0.011952224 0.010828296 0.08719675 -0.040054213 0.06574309
0.0037965532 0.0023844608 -0.1264577 -0.15914953 -0.06645098 -0.046642445 -0.03612715 -0.02992886
0.0820087 0.035299554 0.05442168 -0.003934381 -0.1379784 -0.23484108 0.11287581 0.04391148
0.03370841 0.226366 0.013587934 -0.014217165 -0.12735765 -0.0477432 -0.032983374 -0.12312718
0.08183894 0.022235531 0.1236353 -0.03263844 0.05109104 0.02039951 0.09390054 -0.043888584
-0.038270038 -0.044185884 -0.04311206 -0.117648 0.112365015 -0.008444149 0.09302906 -0.0051422883
0.009910821 -0.0005316521 0.030719545 0.065923065 -0.07793996 -0.18070164 0.019820876 0.0051212376
-0.120941035 -0.10574456 0.07182993 -0.019351473 -0.0993844 0.0044175717 0.0040364005 0.03782483
0.0048756106 0.0015272037 -0.08366105 0.11624986 0.07011378 0.06675839 -0.16032654 -0.03065386
0.035658073 0.019621205 -0.017422726 0.026897075 0.13388836 -0.076187 0.0001339563 -0.1575611
0.086163156 -0.036047462 0.0026961665 -0.10969709 -0.067920305 0.0030854212 -0.14778534 -0.096704364
-0.026922695 0.11595703 -0.18670689 -0.13156028 -0.007118439 -0.23259556 0.15741012 0.0155236125
0.2024412 0.14303693 0.07823873 -0.072504625 -0.020967325 -0.018786045 0.096103065 -0.08390289
-0.22010903 0.0034573528 0.053560574 -0.08262054 0.014975352 0.034788065 -0.04771747 0.03490665
-0.09957096 -0.169436 -0.073699474 -0.033903092 0.058317862 0.06906966 -0.021857042 0.020418655
-0.04540737 0.011247591 0.11745682 0.05198907 -0.07372996 -0.004017416 0.029412754 -0.025542581
-0.07434646 0.18302485 -0.07179484 -0.04435803 -0.036408406 0.0055742827 0.039057538 0.018296387
0.09814081 -0.14689413 0.12608442 -0.0187959 0.040337805 -0.04272334 0.054078836 0.04284564
-0.016811235 0.011449348 -0.02686595 -0.15685073 -0.16837622 -0.028856477 -0.08389453 -0.07188744
-0.08868142 0.06693907 -0.07994859 -0.04188557 0.12878916 -0.0055551585 0.13951823 -0.21028093
00000000: 8cc1 173d 9d42 cd3d b8db cc3d f785 513c
00000010: 341b b93c 15bc c0bc ef1c 2abd 8251 513b
00000020: 21fe 05bd 0a72 d13c 4eca 3e3d 7f60 123c
00000030: 0db5 dc3c 6923 72bd a5a3 c3bd 2f30 b73d
00000040: 253a 223e 462b 4cbd 41a8 03be 1f3f a8bd
00000050: 0fdb 0c3d 81d3 00be ac0d 903d fe57 4abd
00000060: e21a 58bd 7364 0e3e b914 793d 4e54 0dbe
00000070: 0965 a2bc ca55 4ebd 8c1c dd3d c73e efbc
00000080: fa93 97bd 135a d1bd df9c bf3c 3668 f53d
00000090: a6c4 e6bd 6c15 6abd bd41 023e 5a8a 0f3e
000000a0: fa49 82bd ee71 a03d 5fab f8bd 2a6a 34bd
000000b0: 40e4 5cba 950a 943c b1da d23d fac0 babd
000000c0: 568c 933d 1701 a43c 496d 873d 71d0 dd3d
000000d0: a2b9 0a3e 1f6b 653d 4b12 113c 5437 03be
000000e0: d6cc fb3c 5fcf eabc 1dca 893c 46fe a63d
000000f0: ebb1 973e 69ef 2d3e 49eb 31bd ba44 463e
00000100: 9422 06bd d2ab ec3d 778d a33d 289f 9bbd
00000110: 2659 c8bb ed93 c53b 1e86 edbd ab09 ca3d
00000120: bace 32be f97e fa3a 4f83 a4bd aab1 2b3b
00000130: 7357 453e 5809 d7bd de4d 1a3d 94f3 55bd
00000140: e5b6 32bc 6bc2 4d3e 81f8 3abd 5da8 f93d
00000150: 5e25 18bd 2dee c2bd 2618 1ebe b1cc 0abd
00000160: 8c85 abbc 775c b7bc 2540 03bd 24df efbd
00000170: 52c5 a3b9 ce58 583d 9a48 54bd d165 cbbd
00000180: 51e9 6c3d 4382 c7bd 441f 97bc 43d3 43bc
00000190: 2a69 313c 3694 b23d e30f 24bd 50a4 863d
000001a0: 98cf 783b 9d44 1c3b 217e 01be 18f8 22be
000001b0: 7417 88bd 260c 3fbd 10fa 13bd 5e2d f5bc
000001c0: 2df4 a73d 4496 103d 44e9 5e3d fbeb 80bb
000001d0: 364a 0dbe 2e7a 70be 6f2b e73d 86dc 333d
000001e0: d411 0a3d 7dcc 673e ed9f 5e3c 1def 68bc
000001f0: 0b6a 02be 608e 43bd 9319 07bd 1a2a fcbd
00000200: 2d9b a73d 4a27 b63c 8134 fd3d e3af 05bd
00000210: d744 513d e01c a73c ed4e c03d 84c4 33bd
00000220: 0bc1 1cbd 42fc 34bd 4596 30bd 6ff1 f0bd
00000230: a11f e63d 5459 0abc 0586 be3d a480 a8bb
00000240: ff60 223c 925e 0bba 8ea7 fb3c ac02 873d
00000250: fc9e 9fbd da09 39be 645f a23c 0ed0 a73b
00000260: efaf f7bd 9b90 d8bd 921b 933d fb86 9ebc
00000270: 0c8a cbbd 47c1 903b c843 843b 35ee 1a3d
00000280: 96c3 9f3b 742c c83a 7c56 abbd 6814 ee3d
00000290: d097 8f3d 9fb8 883d a42c 24be ce1d fbbc
000002a0: 330e 123d a6bc a03c 1bba 8ebc 4157 dc3c
000002b0: 081a 093e ee07 9cbd 9f76 0c39 b257 21be
000002c0: 4f76 b03d 81a6 13bd 2bb2 303b dea8 e0bd
000002d0: cd19 8bbd c734 4a3b 0a55 17be f00c c6bd
000002e0: fc8c dcbc e17a ed3d 1730 3fbe bdb7 06be
000002f0: cb41 e9bb 882d 6ebe 1e30 213e c056 7e3c
00000300: bf4c 4f3e 4678 123e a13b a03d 4e7d 94bd
00000310: abc3 abbc 31e5 99bc afd1 c43d 47d5 abbd
00000320: 4364 61be c194 623b 5562 5b3d f534 a9bd
00000330: 2e5b 753c ee7d 0e3d 6573 43bd 47fa 0e3d
00000340: dceb cbbd a180 2dbe c0ef 96bd f8dd 0abd
00000350: b6de 6e3d 6574 8d3d 8a0d b3bc 0645 a73c
00000360: 14fd 39bd d147 383c 348d f03d 7ef2 543d
00000370: bcff 96bd 87a4 83bb 04f3 f03c ad3e d1bc
00000380: f542 98bd de6a 3b3e 2c09 93bd c4b0 35bd
00000390: fb20 15bd 79a8 b63b ccfa 1f3d 4ee2 953c
000003a0: 0dfe c83d 6a6b 16be 461c 013e dcf9 99bc
000003b0: 4139 253d abfe 2ebd c581 5d3d e97e 2f3d
000003c0: b7b7 89bc 0c96 3b3c fb15 dcbc 7a9d 20be
000003d0: d16a 2cbe 6b64 ecbc e5d0 abbd b939 93bd
000003e0: 9b9e b5bd 5a17 893d 16bc a3bd 3490 2bbd
000003f0: 4ee1 033e 0c08 b6bb dedd 0e3e e253 57be

network_body._body_endoder.seq_layers.2.bias f4 [128]
0.0 0.0 0.0 0.0 0.0 0.0 0.0 0.0
0.0 0.0 0.0 0.0 0.0 0.0 0.0 0.0
0.0 0.0 0.0 0.0 0.0 0.0 0.0 0.0
0.0 0.0 0.0 0.0 0.0 0.0 0.0 0.0
0.0 0.0 0.0 0.0 0.0 0.0 0.0 0.0
0.0 0.0 0.0 0.0 0.0 0.0 0.0 0.0
0.0 0.0 0.0 0.0 0.0 0.0 0.0 0.0
0.0 0.0 0.0 0.0 0.0 0.0 0.0 0.0
0.0 0.0 0.0 0.0 0.0 0.0 0.0 0.0
0.0 0.0 0.0 0.0 0.0 0.0 0.0 0.0
0.0 0.0 0.0 0.0 0.0 0.0 0.0 0.0
0.0 0.0 0.0 0.0 0.0 0.0 0.0 0.0
0.0 0.0 0.0 0.0 0.0 0.0 0.0 0.0
0.0 0.0 0.0 0.0 0.0 0.0 0.0 0.0
0.0 0.0 0.0 0.0 0.0 0.0 0.0 0.0
0.0 0.0 0.0 0.0 0.0 0.0 0.0 0.0
00000000: 0000 0000 0000 0000 0000 0000 0000 0000
00000010: 0000 0000 0000 0000 0000 0000 0000 0000
00000020: 0000 0000 0000 0000 0000 0000 0000 0000
00000030: 0000 0000 0000 0000 0000 0000 0000 0000
00000040: 0000 0000 0000 0000 0000 0000 0000 0000
00000050: 0000 0000 0000 0000 0000 0000 0000 0000
00000060: 0000 0000 0000 0000 0000 0000 0000 0000
00000070: 0000 0000 0000 0000 0000 0000 0000 0000
00000080: 0000 0000 0000 0000 0000 0000 0000 0000
00000090: 0000 0000 0000 0000 0000 0000 0000 0000
000000a0: 0000 0000 0000 0000 0000 0000 0000 0000
000000b0: 0000 0000 0000 0000 0000 0000 0000 0000
000000c0: 0000 0000 0000 0000 0000 0000 0000 0000
000000d0: 0000 0000 0000 0000 0000 0000 0000 0000
000000e0: 0000 0000 0000 0000 0000 0000 0000 0000
000000f0: 0000 0000 0000 0000 0000 0000 0000 0000
00000100: 0000 0000 0000 0000 0000 0000 0000 0000
00000110: 0000 0000 0000 0000 0000 0000 0000 0000
00000120: 0000 0000 0000 0000 0000 0000 0000 0000
00000130: 0000 0000 0000 0000 0000 0000 0000 0000
00000140: 0000 0000 0000 0000 0000 0000 0000 0000
00000150: 0000 0000 0000 0000 0000 0000 0000 0000
00000160: 0000 0000 0000 0000 0000 0000 0000 0000
00000170: 0000 0000 0000 0000 0000 0000 0000 0000
00000180: 0000 0000 0000 0000 0000 0000 0000 0000
00000190: 0000 0000 0000 0000 0000 0000 0000 0000
000001a0: 0000 0000 0000 0000 0000 0000 0000 0000
000001b0: 0000 0000 0000 0000 0000 0000 0000 0000
000001c0: 0000 0000 0000 0000 0000 0000 0000 0000
000001d0: 0000 0000 0000 0000 0000 0000 0000 0000
000001e0: 0000 0000 0000 0000 0000 0000 0000 0000
000001f0: 0000 0000 0000 0000 0000 0000 0000 0000

action_model._continuous_distribution.log_sigma f4 [1, 5]
0.0 0.0 0.0 0.0 0.0
00000000: 0000 0000 0000 0000 0000 0000 0000 0000
00000010: 0000 0000

action_model._continuous_distribution.mu.weight f4 [5, 128]
0.0006393878 -0.011525047 -0.020305738 -0.020547457 -0.0015521537 -0.007352568 0.021647492 0.013726759
-0.024421977 -0.0035103075 -0.03216623 -0.0357445 -0.016343862 -0.015852094 0.024370452 -0.00051904196
0.0035569866 0.006658026 -0.006861821 -0.008115964 0.0040894058 -0.011361088 0.009451529 -0.015258265
-0.0048060105 -0.029890204 0.0049148444 -0.03299118 0.0055841366 -0.0077797803 0.02820356 -0.007180627
0.0025927555 0.01538702 0.016999144 0.00033475042 -0.020252993 -0.012271694 0.008136975 0.002412463
0.0003070346 -0.01599261 -0.0029321401 0.012186474 -0.012186855 0.02219809 -0.0077969055 -0.0040046065
-0.01390622 -0.027923001 0.014463219 -0.010215423 0.03004123 -0.012746799 0.0053582317 -0.017404612
0.01566438 0.006554872 0.0097453445 0.024437426 0.0044330186 -0.02859068 -0.028090453 -0.012388374
-0.005382988 0.006093055 -0.01628424 -0.008068356 -0.0060153888 0.013159354 -0.0021036628 0.0019804023
-0.013249484 0.0043796864 0.0023648227 0.0065578907 -0.014481135 0.0382034 -0.009122033 0.0055160644
-0.01586912 -0.011809381 0.014195345 -0.022958381 -0.0042262427 0.009672419 -0.0061540576 0.016367456
0.0085165715 -0.037637267 -0.01011536 0.017541746 -0.0021242138 0.023342334 -0.037102606 -0.021491302
0.0075675487 -0.038675074 0.007401964 -0.008177412 0.030777548 -0.018517448 -0.0073131784 -0.005175219
-0.03013572 -0.00055952667 -0.009196099 -0.018165879 -0.01543673 -0.021641223 -0.005618813 -0.0027828475
-0.023045039 -0.01812067 -5.6141627e-05 -0.0083085 0.0026928224 -0.01353925 -0.017952893 0.05025634
0.0037247387 0.006604834 -0.028710926 -0.014602366 -0.0048080636 -0.0097473515 0.00656908 0.013663354
0.0143743185 0.008106866 0.009718745 -0.02088803 -0.013416982 -0.019602925 -0.006612003 0.0021916681
0.015455176 0.020213952 -0.013509929 -0.012338478 -0.016911047 -0.044868268 0.023563232 0.0052339733
0.03311953 -0.01791756 0.031761203 0.0006610708 0.017027674 0.020391414 0.034320377 -0.016962
0.023852043 0.021670876 -0.029867262 0.02681229 0.0013483769 -0.013926731 -0.014182493 -0.013291605
-0.017055834 0.027713189 0.02392367 -0.023681697 0.0056427917 -0.0034648837 0.012128166 0.023790156
-0.009107182 -0.009265814 0.0057660113 0.023221342 0.02222375 0.015204518 -0.0037024838 -0.00378062
0.011963613 -0.017289182 -0.022451071 0.025200589 0.0055454113 0.009996344 0.021358108 -0.00467078
0.02578865 -0.030401364 0.004048663 0.017051572 0.017391982 -0.021519462 -0.016906884 -0.013271737
-0.010188873 0.031682346 -0.007015807 -0.008014011 -0.012703763 0.012560067 -0.017145416 -0.0036496595
0.029029882 -0.01015109 0.009428393 -0.008300737 -0.017340844 -0.016209012 -0.020928968 -0.008692865
-0.009158648 0.010739269 -0.0097452225 -0.008653388 -0.021357065 -0.020736558 -0.0005867655 0.017884849
-0.009468692 0.011480775 0.013476257 0.008108532 -0.017482895 -0.008515451 -0.03441642 0.009547952
-0.0038872745 -0.019288523 -0.009043091 0.011815852 -0.040217303 0.037367523 0.012429398 0.015797623
0.008569124 0.023606 0.01622151 -0.00790116 -0.031870093 -0.0021771446 0.0017583596 0.004896085
0.0015461261 -0.019642288 -0.004749255 -0.029760996 0.013841443 0.0069417544 0.008363962 0.034472562
0.0130670285 0.00042165117 0.010425277 0.0010950826 0.013581435 -0.0042126365 0.019147608 -0.03553367
00000000: 979c 273a 8dd3 3cbc 3858 a6bc 2453 a8bc
00000010: a371 cbba d0ed f0bb 1556 b13c 33e6 603c
00000020: 9910 c8bc 300d 66bb bdc0 03bd d368 12bd
00000030: 90e3 85bc 40dc 81bc 8ba4 c73c 5110 08ba
00000040: 551c 693b 922b da3b 20d9 e0bb d2f8 04bc
00000050: 6c00 863b db23 3abc 96da 1a3c cdfd 79bc
00000060: bd7b 9dbb 4ddc f4bc b40c a13b c221 07bd
00000070: 22fb b63b 87ed febb 270b e73c 774b ebbb
00000080: 38eb 293b d719 7c3c ca41 8b3c 7181 af39
00000090: 9be9 a5bc 370f 49bc f250 053c 6a1a 1e3b
000000a0: 7df9 a039 ef02 83bc 2629 40bb c7a9 473c
000000b0: 60ab 47bc c5d8 b53c 2f7d ffbb 1339 83bb
000000c0: ead6 63bc c7be e4bc 23f7 6c3c 975e 27bc
000000d0: 0719 f63c f3d7 50bc 1b94 af3b 1e94 8ebc
000000e0: 9652 803c 40ca d63b f0aa 1f3c ff30 c83c
000000f0: db42 913b 0037 eabc f31d e6bc 9bf8 4abc
00000100: c763 b0bb 40a8 c73b 8766 85bc 2331 04bc
00000110: bd1c c5bb 559a 573c 9bdd 09bb a3c9 013b
00000120: 5d14 59bc 7983 8f3b 24fb 1a3b 93e3 d63b
00000130: 4842 6dbc 2b7b 1c3d 9474 15bc 1ac0 b43b
00000140: f5ff 81bc 227c 41bc 9893 683c 3713 bcbc
00000150: 4b7c 8abb 1179 1e3c faa7 c9bb 0b15 863c
00000160: 1789 0b3c 8929 1abd e5ba 25bc b5b3 8f3c
00000170: 6536 0bbb 6c38 bf3c e7f8 17bd 870e b0bc
00000180: 33f9 f73b c169 1ebd 2d8c f23b 8dfa 05bc
00000190: 3221 fc3c e7b1 97bc 63a3 efbb e294 a9bb
000001a0: 2fdf f6bc 33ad 12ba 3cab 16bc 9cd0 94bc
000001b0: 57ea 7cbc ef48 b1bc 051e b8bb 6f60 36bb
000001c0: f3c8 bcbc cd71 94bc 9d79 6bb8 6020 08bc
000001d0: 107a 303b bbd3 5dbc f211 93bc 98d9 4d3d
000001e0: bf1a 743b 5d6d d83b 2d33 ebbc c33e 6fbc
000001f0: f68c 9dbb 5bb3 1fbc 7041 d73b 43dc 5f3c
00000200: 4382 6b3c a9d2 043c 5f3b 1f3c 601d abbc
00000210: e7d2 5bbc 5096 a0bc 80a9 d8bb 17a2 0f3b
00000220: b537 7d3c bb97 a53c c058 5dbc 5427 4abc
00000230: 0989 8abc cac7 37bd ae07 c13c c081 ab3b
00000240: 58a8 073d d9c7 92bc 0918 023d b64b 2d3a
00000250: 9f7d 8b3c e50b a73c 8693 0c3d e4f3 8abc
00000260: 5c65 c33c 1f87 b13c 30ac f4bc 73a5 db3c
00000270: 05bc b03a f22c 64bc b05d 68bc 08c5 59bc
00000280: adb8 8bbc c506 e33c 93fb c33c 1e00 c2bc
00000290: 2be7 b83b 1a13 63bb 37b5 463c 93e3 c23c
000002a0: 4a36 15bc a4cf 17bc cff0 bc3b af3a be3c
000002b0: 950e b63c 5f1c 793c 5fa5 72bb 47c4 77bb
000002c0: 0803 443c 0ba2 8dbc 4feb b7bc 7771 ce3c
000002d0: 48b6 b53b b5c7 233c 33f7 ae3c 580d 99bb
000002e0: b842 d33c 480c f9bc a6aa 843b bdaf 8b3c
000002f0: a179 8e3c 9549 b0bc 4e80 8abc b371 59bc
00000300: 3bef 26bc 59c5 013d dbe4 e5bb 334d 03bc
00000310: 7223 50bc bdc8 4d3c 8b74 8cbc 202f 6fbb
00000320: 13d0 ed3c c250 26bc 8c79 1a3c d0ff 07bc
00000330: 630e 8ebc c3c8 84bc 3a73 abbc 856c 0ebc
00000340: 270e 16bc c2f3 2f3c 6daa 1fbc f1c6 0dbc
00000350: 03f5 aebc b7df a9bc 2bd1 19ba 3f83 923c
00000360: 9322 1bbc dc19 3c3c 85cb 5c3c a6d9 043c
00000370: 4a38 8fbc 6484 0bbc 3bf8 0cbd 036f 1c3c
00000380: a5c1 7ebb f702 9ebc 7929 14bc 4697 413c
00000390: e6ba 24bd b00e 193d aca4 4b3c 046a 813c
000003a0: 8365 0c3c 5f61 c13c f9e2 843c de73 01bc
000003b0: 378a 02bd 6dae 0ebb c278 e63a 566f a03b
000003c0: 62a7 ca3a dde8 a0bc a39f 9bbb 55cd f3bc
000003d0: 38c7 623c a877 e33b 0009 093c 1a33 0d3d
000003e0: 1717 563c 1011 dd39 c8ce 2a3c e088 8f3a
000003f0: ab84 5e3c 280a 8abb 72db 9c3c c18b 11bd

action_model._continuous_distribution.mu.bias f4 [5]
0.0 0.0 0.0 0.0 0.0
00000000: 0000 0000 0000 0000 0000 0000 0000 0000
00000010: 0000 0000

action_model._discrete_distribution.branches.0.weight f4 [5, 128]
0.0033014433 0.005812412 -0.0042908313 -0.009304247 -0.0005856934 0.0005557434 0.013745788 -0.0025549035
-0.018800508 0.00014334956 0.0014025781 0.015469149 -0.0055527883 -0.0075922734 0.0048916712 0.012805331
0.002944872 -0.007406468 -0.022788337 0.0019817264 -0.00070952275 0.0041799434 0.001023943 0.0028588863
0.0041468353 0.0011956145 -0.010586249 -0.0031733648 0.0041845045 0.025522662 -0.016797673 -0.0015179719
0.009670453 -0.0060537728 -0.012070056 -0.005752727 0.0057976595 0.015027347 -7.4588264e-05 -0.009824537
-0.0089778965 -0.0060830186 0.004618309 -0.0025869263 0.007152763 0.007525839 0.008968275 -0.0023536787
0.0028316858 0.008376568 -0.006692304 0.004550313 -0.007380698 0.0136402175 0.0076804473 -0.0009344268
-0.0059286207 -0.00018531783 -3.991282e-05 -0.0049541346 0.005849104 0.009848876 -0.008281289 -0.0015489026
0.0027234654 -0.009471816 0.009808644 -0.010397729 0.00920106 -0.01518893 0.009181381 -0.0027097033
-0.0025630638 0.0054641846 -0.009465222 0.011392891 0.01629524 0.0021357583 -0.0053364984 -0.00046737934
-0.0050714603 -0.0005056188 0.017464885 -0.0072723455 -0.005848686 -0.0010500735 -0.002302474 -0.0026736257
0.0018742991 0.001345648 0.008309997 0.00019874352 -0.01109518 -0.0048388517 0.0029616053 0.008378426
0.003726337 0.009018003 0.005143888 0.008305268 -5.9819413e-05 -0.0008310467 0.0005581504 0.009300469
-0.0010826744 0.008510123 0.0026986543 -0.008750989 -0.020406365 -0.012913083 0.0099687185 0.007738097
-0.006209792 -0.010638787 0.013893458 -0.00045629093 -0.0066211857 0.0052477485 0.0037480667 0.0040188483
0.0014644716 -0.0048019574 -0.00921719 -0.008130369 -0.0070488877 -0.019066807 0.00726294 0.01600386
-0.016687362 -0.0026722965 -0.0066050836 -0.004828652 -0.0060638236 0.00875354 -0.015506965 0.0010621283
0.0060062218 -0.0036294428 0.008446311 0.0019140274 -0.007721945 -0.0055967807 -0.00609239 0.005346592
0.0070435987 0.0185605 -0.021729592 -0.005671463 -0.013490294 -0.00088012184 -0.0045133107 -0.012553493
-0.017830303 -0.0041035125 -0.0017101433 0.0023250165 -0.0065024123 -0.007799475 -0.0081515815 0.0059541496
-0.013945729 -0.00090687285 -0.007757988 0.00037442756 -0.007410521 0.007501637 -0.004435213 0.0029936836
0.01243244 -0.0046320385 -0.0009824845 -0.0010317268 -0.0060496344 0.0077748704 0.00829729 0.0007666056
0.012624745 0.00592419 0.007870874 0.008194198 0.01798263 -0.0075991116 0.0010289861 -0.006056917
0.006655822 -0.0018575191 0.0028388656 -0.009817687 -0.020755164 -0.0038387943 0.00786922 0.0048523764
-0.012636426 -0.016683668 0.015100399 -0.009421094 0.0154225 -0.0032685932 0.00592352 0.014157389
-0.023173822 0.0033963125 0.0091852015 0.007426198 -0.00082656567 0.005899714 -0.011981432 -0.0034074124
0.00012708908 -0.0050716028 -0.01393711 -0.015551599 -0.0044930154 -0.013548541 0.0076710926 0.0018565332
-0.003410803 0.013735599 0.000544561 -0.007669521 0.0032792154 0.008786447 -0.0028389143 -0.008715219
-0.0039411196 0.008878115 0.0006210055 0.0050898157 0.015505825 0.0039019044 0.013467823 0.0014925556
0.00012752909 0.003443693 0.003548879 -0.002247801 -0.008569973 -0.026048705 0.004648247 0.004175359
0.0035802943 0.0050658905 -0.00793877 -0.008074435 -0.0013898583 -0.005883427 0.010199967 -0.008801173
0.002027977 -0.004062289 0.0024966255 -0.009890695 0.0013555583 0.0063146055 0.006141067 -0.0053838585
00000000: 075d 583b 0c76 be3b 1a9a 8cbb d770 18bc
00000010: 3889 19ba 4faf 113a 0336 613c 2b70 27bb
00000020: 8603 9abc 1b50 1639 b6d6 b73a 5072 7d3c
00000030: 2af4 b5bb 9bc8 f8bb 504a a03b 73cd 513c
00000040: c1fe 403b f5b1 f2bb 9bae babc dadf 013b
00000050: 44ff 39ba e8f7 883b d335 863a 275c 3b3b
00000060: 2de2 873b 2ab6 9c3a f271 2dbc 3af8 4fbb
00000070: 2b1e 893b e714 d13c 469b 89bc aff6 c6ba
00000080: d270 1e3c ba5e c6bb 7cc1 45bc 5f81 bcbb
00000090: 4bfa bd3b 4335 763c 456c 9cb8 18f7 20bc
000000a0: 0718 13bc 0f54 c7bb 2f55 973b 6c89 29bb
000000b0: ba61 ea3b 509b f63b acef 123c 2d40 1abb
000000c0: ce93 393b df3d 093c 1d4b dbbb cb1a 953b
000000d0: c8d9 f1bb 387b 5f3c 43ac fb3b 52f4 74ba
000000e0: e044 c2bb e051 42b9 1068 27b8 4b56 a2bb
000000f0: d7a9 bf3b 2e5d 213c 3eae 07bc 8c04 cbba
00000100: 2b7c 323b ad2f 1bbc 6fb4 203c 3d5b 2abc
00000110: 0bc0 163c fdda 78bc 816d 163c 4795 31bb
00000120: 13f9 27bb e70c b33b 0514 1bbc 40a9 3a3c
00000130: 987d 853c 14f8 0b3b cbdd aebb 980a f5b9
00000140: 7e2e a6bb 818b 04ba 8512 8f3c db4c eebb
00000150: 56a6 bfbb 9fa2 89ba 1be5 16bb ff37 2fbb
00000160: 0bab f53a 7460 b03a a726 083c cf65 5039
00000170: 8fc8 35bc 3b8f 9ebb 7e17 423b aa45 093c
00000180: 9035 743b 3fc0 133c 0f8e a83b d212 083c
00000190: 9be6 7ab8 9ada 59ba d750 123a ff60 183c
000001a0: 86e8 8dba 0b6e 0b3c e8db 303b 4f60 0fbc
000001b0: 402b a7bc 6591 53bc d653 233c dd8f fd3b
000001c0: 837b cbbb 4f4e 2ebc 63a1 633c 553a efb9
000001d0: 88f6 d8bb 4ef5 ab3b 20a2 753b 8bb0 833b
000001e0: 83f3 bf3a bd59 9dbb b203 17bc 3d35 05bc
000001f0: 5bfa e6bb fe31 9cbc f5fd ed3b 871a 833c
00000200: efb3 88bc b221 2fbb 756f d8bb ab39 9ebb
00000210: 0ab3 c6bb 026b 0f3c ed10 7ebc 1d37 8b3a
00000220: d7cf c43b f2db 6dbb 6562 0a3c 1ae0 fa3a
00000230: 5f08 fdbb 3365 b7bb aca2 c7bb 7732 af3b
00000240: fdcd e63b 310c 983c 4202 b2bc aed7 b9bb
00000250: 6506 5dbc fab7 66ba 65e4 93bb 2aad 4dbc
00000260: db10 92bc c276 86bb e326 e0ba 4e5f 183b
00000270: 3012 d5bb bd92 ffbb 368e 05bc 071b c33b
00000280: a07c 64bc 35bb 6dba b836 febb d14e c439
00000290: f5d3 f2bb 4bd0 f53b 4355 91bb ad31 443b
000002a0: 6fb1 4b3c 5bc8 97bb b6c6 80ba 023b 87ba
000002b0: 033c c6bb 57c4 fe3b 5bf1 073c 08f6 483a
000002c0: 05d8 4e3c b51f c23b d7f4 003c f540 063c
000002d0: 4f50 933c f801 f9bb 0bdf 863a 1a79 c6bb
000002e0: 1519 da3b 0078 f3ba 430c 3a3b 5dda 20bc
000002f0: bc06 aabc 4894 7bbb e7ed 003c af00 9f3b
00000300: 0309 4fbc 30ac 88bc aa67 773c ef5a 1abc
00000310: a7ae 7c3c e535 56bb 161a c23b 65f4 673c
00000320: 07d7 bdbc ab94 5e3b 877d 163c 7757 f33b
00000330: e2ad 58ba 6352 c13b c54d 44bc e54e 5fbb
00000340: 3743 0539 b02f a6bb 7a58 64bc 22cc 7ebc
00000350: 253a 93bb b3fa 5dbc ca5d fb3b eb56 f33a
00000360: c787 5fbb 470b 613c dfc0 0e3a 9b50 fbbb
00000370: 1be8 563b 08f5 0f3c 140d 3abb 47ca 0ebc
00000380: 8224 81bb 8375 113c f9ca 223a 78c8 a63b
00000390: 250c 7e3c 18b7 7f3b 25a8 5c3c dba1 c33a
000003a0: 54b9 0539 95af 613b 4f94 683b d84f 13bb
000003b0: 1269 0cbc 1864 d5bc 5250 983b 73d1 883b
000003c0: 5fa3 6a3b c5ff a53b 9d11 02bc a34a 04bc
000003d0: e82b b6ba c3c9 c0bb c31d 273c cc32 10bc
000003e0: cfe7 043b f31c 85bb 6d9e 233b 950c 22bc
000003f0: fdac b13a c0ea ce3b 013b c93b 146b b0bb

action_model._discrete_distribution.branches.0.bias f4 [5]
0.0 0.0 0.0 0.0 0.0
00000000: 0000 0000 0000 0000 0000 0000 0000 0000
00000010: 0000 0000

network_body._body_endoder.seq_layers.0.weight f4 [128, 66]
0.035207257 -0.117644645 0.14644948 0.06595182 -0.05454365 -0.005739022 0.10277751 -0.0093427785
0.13959648 -0.29081035 0.070948996 0.12999824 -0.041696984 0.21655172 0.26257977 -0.16633575
-0.030786578 -0.06261656 -0.059184346 0.111355744 0.0797683 -0.050978143 0.050842218 -0.13390808
0.0075757485 -0.06959775 -0.0031009128 -0.33409625 -0.0297016 -0.017389111 0.13079295 0.15834416
0.050885968 0.010486505 0.04463955 0.0099067725 0.008335191 -0.01781027 -0.11076599 -0.12816636
-0.0015184563 0.14733998 0.09497139 0.16695188 -0.019102965 -0.08652742 -0.052368492 0.06522363
-0.2460413 0.13033335 -0.009825686 -0.07930419 -0.2254752 0.07661164 0.22074191 -0.18968453
0.021035811 -0.004234431 0.05944272 0.18845567 0.123164475 -0.25852782 0.05714442 -0.005732307
-0.2341348 -0.023072073 -0.17389645 0.00030622786 0.09108923 -0.042062566 0.10609106 0.07411001
0.013189118 0.14128433 0.03547814 -0.20233949 0.26821437 -0.09960041 -0.106621094 0.09664397
-0.11602765 -0.047862504 -0.019661386 0.18466353 -0.04940079 0.040581286 0.118984886 0.06894413
0.061356816 -0.111105025 -0.2592052 0.002467505 0.008465596 -0.20143615 0.16751589 -0.2007011
-0.19570391 -0.080043435 0.008402325 0.20996696 0.009738741 0.16962688 0.070697635 0.13653453
0.037129525 0.13942407 -0.15678798 -0.05855743 -0.03609886 -0.14303894 -0.06498806 -0.13397598
-0.21464945 -0.024156624 0.002345498 0.13819839 -0.007866132 -0.036397025 0.010587901 -0.09675481
0.26587597 -0.09898984 -0.008069514 0.008823519 -0.011326655 -0.030419733 0.20435111 -0.030179787
0.008103023 0.024676468 0.062030833 -0.20337094 -0.00027688735 -0.20014802 -0.03825787 0.19001216
0.11254259 -0.1479942 -0.017260572 0.013657523 -0.105246864 0.03508301 0.18702947 -0.1499837
0.024549162 0.071029864 -0.01564598 -0.09938937 -0.025344847 0.0037134322 -0.0040230965 -0.054910954
-0.13678415 0.038280655 0.085543625 0.07358235 -0.012258046 0.12981823 -0.20759605 -0.022736296
0.0720681 -0.18004508 0.018472934 0.086355776 0.01918699 -0.11872832 -0.13786964 -0.08472854
0.041921195 0.029214075 -0.006692457 -0.044662125 0.090175115 0.06306468 0.15980774 0.07844506
-0.08145527 -0.04534373 0.08621262 0.18682887 -0.14704275 -0.0068959687 -0.086797565 0.023959622
0.03882696 -0.21980304 0.088458255 -0.008948148 0.03999558 0.008898443 -0.077224664 0.26321307
0.2982936 0.18932411 0.103996776 0.024796154 0.07466062 -0.20194262 0.043467473 0.02828217
-0.12197907 0.054941148 -0.22041121 0.038068444 0.04693439 0.17414135 0.0011017141 0.013035978
0.0045702653 0.097248666 0.110022336 0.05184995 0.27766705 -0.018028071 0.008259176 -0.006446443
-0.13711552 -0.1094497 -0.09718102 0.16529529 -0.06612645 -0.022262998 0.00486202 -0.081253834
-0.10826529 -0.018858606 0.0074490965 -0.1097725 -0.2536014 -0.26531717 -0.006198202 0.14241946
-0.12800959 -0.06747968 0.041051537 0.051599517 0.031065065 0.061192185 -0.05941518 0.123625495
0.21982387 0.106137715 -0.04449524 -0.06818141 0.23093866 0.12528372 0.060922865 0.10294454
-0.12522078 0.06680396 -0.010191655 0.10565317 0.039114285 -0.023514776 -0.051364608 0.024294652
00000000: 7c35 103d adef f0bd daf6 153e bf11 873d
00000010: 2a69 5fbd 680e bcbb 047d d23d 7412 19bc
00000020: 61f2 0e3e 18e5 94be b54d 913d 421e 053e
00000030: 75ca 2abd bcbf 5d3e db70 863e eb53 2abe
00000040: 2234 fcbc 1c3d 80bd 496b 72bd 7b0e e43d
00000050: 905d a33d 75ce 50bd ee3f 503d 331f 09be
00000060: fc3d f83b 4489 8ebd af38 4bbb aa0e abbe
00000070: c550 f3bc 9c73 8ebc 96ee 053e f924 223e
00000080: ce6d 503d 97cf 2b3c f6d7 363d 0450 223c
00000090: 5390 083c d8e6 91bc 48d9 e2bd 0b3e 03be
000000a0: f006 c7ba 4be0 163e 5c80 c23d 6ff5 2a3e
000000b0: d27d 9cbc 4a35 b1bd 5880 56bd f793 853d
000000c0: 40f2 7bbe 1b76 053e eafb 20bc 3c6a a2bd
000000d0: f9e2 66be 90e6 9c3d 2b0a 623e a93c 42be
000000e0: 4b53 ac3c fbc0 8abb 367a 733d 86fa 403e
000000f0: a83d fc3d c25d 84be 4410 6a3d 14d6 bbbb
00000100: 08c1 6fbe a501 bdbc e911 32be 358d a039
00000110: fd8c ba3d cc49 2cbd 4546 d93d fdc6 973d
00000120: 2c17 583c d7ac 103e 8751 113d 1532 4fbe
00000130: 6553 893e 4dfb cbbd 295c dabd 46ed c53d
00000140: e89f edbd 790b 44bd ea10 a1bc 7018 3d3e
00000150: 7c58 4abd 9038 263d 59ae f33d 9432 8d3d
00000160: 4951 7b3d 088b e3bd 8bb6 84be ddb5 213b
00000170: 48b3 0a3c 4745 4ebe 4989 2b3e 9784 4dbe
00000180: 9b66 48be d0ed a3bd e8a9 093c 9401 573e
00000190: 3e8f 1f3c abb2 2d3e ecc9 903d b5cf 0b3e
000001a0: 2115 183d 2fc5 0e3e 078d 20be ead9 6fbd
000001b0: 66dc 13bd cd78 12be 7618 85bd 0031 09be
000001c0: 11cd 5bbe 1de4 c5bc edb6 193b e183 0d3e
000001d0: f3e0 00bc 0c15 15bd e078 2d3c 6327 c6bd
000001e0: e520 883e 2fbb cabd ff35 04bc 8590 103c
000001f0: 6f93 39bc ce32 f9bc 6b41 513e 9a3b f7bc
00000200: 8bc2 043c 4e26 ca3c 0b14 7e3d 7940 50be
00000210: 312b 91b9 9af3 4cbe 49b4 1cbd 8c92 423e
00000220: bb7c e63d cb8b 17be 0b66 8dbc cec3 5f3c
00000230: ab8b d7bd 34b3 0f3d a784 3f3e 5495 19be
00000240: 531b c93c 1b78 913d 002c 80bc a78c cbbd
00000250: ff9f cfbc 0e5d 733b 2ed4 83bb 4fea 60bd
00000260: 2511 0cbe 2dcc 1c3d 7f31 af3d 58b2 963d
00000270: f9d5 48bc 12ef 043e 0f94 54be 7841 babc
00000280: 7198 933d bd5d 38be 8d54 973c 4cdb b03d
00000290: 092e 9d3c d527 f3bd b32d 0dbe 2886 adbd
000002a0: 8fb5 2b3d 5b52 ef3c 664c dbbb a2ef 36bd
000002b0: bbad b83d 0e28 813d a4a4 233e cea7 a03d
000002c0: 05d2 a6bd 59ba 39bd 3e90 b03d 1150 3f3e
000002d0: 6092 16be 94f7 e1bb ecc2 b1bd f846 c43c
000002e0: 0509 1f3d 0c14 61be 9a29 b53d 419b 12bc
000002f0: 68d2 233d c6ca 113c f727 9ebd ddc3 863e
00000300: f0b9 983e 2ede 413e 43fc d43d 4e21 cb3c
00000310: abe7 983d 0cca 4ebe f30a 323d 02b0 e73c
00000320: 2ad0 f9bd f809 613d 7ab3 61be a8ed 1b3d
00000330: 463e 403d 1c52 323e 6467 903a db94 553c
00000340: 2ac2 953b 4f2a c73d 6453 e13d 9d60 543d
00000350: 602a 8e3e 9baf 93bc 7f51 073c af3c d3bb
00000360: 0368 0cbe 2a27 e0bd d806 c7bd 2b43 293e
00000370: 4e6d 87bd e460 b6bc 9451 9f3b 6968 a6bd
00000380: 31ba ddbd 5d7d 9abc 8d17 f43b 68d0 e0bd
00000390: 0bd8 81be a7d7 87be 491a cbbb 68d6 113e
000003a0: f214 03be c932 8abd a825 283d 045a 533d
000003b0: 2a7c fe3c a8a4 7a3d 555d 73bd 5d2f fd3d
000003c0: 8219 613e bb5e d93d a440 36bd b2a2 8bbd
000003d0: 2f7b 6c3e 604a 003e 418a 793d 96d4 d23d
000003e0: e039 00be 84d0 883d e6fa 26bc b060 d83d
000003f0: 4d36 203d 0fa2 c0bc b263 52bd 9405 c73c

network_body._body_endoder.seq_layers.0.bias f4 [128]
0.0 0.0 0.0 0.0 0.0 0.0 0.0 0.0
0.0 0.0 0.0 0.0 0.0 0.0 0.0 0.0
0.0 0.0 0.0 0.0 0.0 0.0 0.0 0.0
0.0 0.0 0.0 0.0 0.0 0.0 0.0 0.0
0.0 0.0 0.0 0.0 0.0 0.0 0.0 0.0
0.0 0.0 0.0 0.0 0.0 0.0 0.0 0.0
0.0 0.0 0.0 0.0 0.0 0.0 0.0 0.0
0.0 0.0 0.0 0.0 0.0 0.0 0.0 0.0
0.0 0.0 0.0 0.0 0.0 0.0 0.0 0.0
0.0 0.0 0.0 0.0 0.0 0.0 0.0 0.0
0.0 0.0 0.0 0.0 0.0 0.0 0.0 0.0
0.0 0.0 0.0 0.0 0.0 0.0 0.0 0.0
0.0 0.0 0.0 0.0 0.0 0.0 0.0 0.0
0.0 0.0 0.0 0.0 0.0 0.0 0.0 0.0
0.0 0.0 0.0 0.0 0.0 0.0 0.0 0.0
0.0 0.0 0.0 0.0 0.0 0.0 0.0 0.0
00000000: 0000 0000 0000 0000 0000 0000 0000 0000
00000010: 0000 0000 0000 0000 0000 0000 0000 0000
00000020: 0000 0000 0000 0000 0000 0000 0000 0000
00000030: 0000 0000 0000 0000 0000 0000 0000 0000
00000040: 0000 0000 0000 0000 0000 0000 0000 0000
00000050: 0000 0000 0000 0000 0000 0000 0000 0000
00000060: 0000 0000 0000 0000 0000 0000 0000 0000
00000070: 0000 0000 0000 0000 0000 0000 0000 0000
00000080: 0000 0000 0000 0000 0000 0000 0000 0000
00000090: 0000 0000 0000 0000 0000 0000 0000 0000
000000a0: 0000 0000 0000 0000 0000 0000 0000 0000
000000b0: 0000 0000 0000 0000 0000 0000 0000 0000
000000c0: 0000 0000 0000 0000 0000 0000 0000 0000
000000d0: 0000 0000 0000 0000 0000 0000 0000 0000
000000e0: 0000 0000 0000 0000 0000 0000 0000 0000
000000f0: 0000 0000 0000 0000 0000 0000 0000 0000
00000100: 0000 0000 0000 0000 0000 0000 0000 0000
00000110: 0000 0000 0000 0000 0000 0000 0000 0000
00000120: 0000 0000 0000 0000 0000 0000 0000 0000
00000130: 0000 0000 0000 0000 0000 0000 0000 0000
00000140: 0000 0000 0000 0000 0000 0000 0000 0000
00000150: 0000 0000 0000 0000 0000 0000 0000 0000
00000160: 0000 0000 0000 0000 0000 0000 0000 0000
00000170: 0000 0000 0000 0000 0000 0000 0000 0000
00000180: 0000 0000 0000 0000 0000 0000 0000 0000
00000190: 0000 0000 0000 0000 0000 0000 0000 0000
000001a0: 0000 0000 0000 0000 0000 0000 0000 0000
000001b0: 0000 0000 0000 0000 0000 0000 0000 0000
000001c0: 0000 0000 0000 0000 0000 0000 0000 0000
000001d0: 0000 0000 0000 0000 0000 0000 0000 0000
000001e0: 0000 0000 0000 0000 0000 0000 0000 0000
000001f0: 0000 0000 0000 0000 0000 0000 0000 0000

network_body._body_endoder.seq_layers.2.weight f4 [128, 128]
-0.03696309 -0.047832478 -0.101909675 -0.07228948 -0.05609655 0.020490035 0.0694683 -0.16904464
-0.03422437 -0.0014190805 0.031944904 -0.111823544 -0.04540062 0.06172594 -0.031707726 0.09053986
-0.16420482 -0.04820252 -0.05559329 -0.09382273 0.029608695 -0.10121975 -0.07417703 -0.076858185
-0.022848666 0.03535988 0.023695035 -0.11461024 -0.018298347 -0.15735845 -0.12540975 -0.061240833
0.110405594 -0.10520462 -0.10821392 0.06484229 0.00844692 0.065654166 -0.05157804 0.07912413
0.107641146 -0.037897147 0.0128033105 -0.11458537 0.041100003 -0.034177758 -0.074449345 0.07577886
-0.24117151 0.11616917 -0.22883424 -0.0016681951 -0.025391253 0.039166506 -0.042862553 0.11610826
0.053816345 0.018459173 0.013864628 -0.0844999 -0.0432816 -0.112781495 -0.04857176 -0.0061092856
-0.009533637 -0.28910762 -0.016067345 0.13125491 -0.05483303 0.017988252 0.021406097 -0.046722762
-0.004070356 -0.015394849 0.015216863 0.021712331 0.017168684 -0.017382693 0.10576498 0.014761777
0.030625891 0.1183539 0.11889802 0.018518126 0.06540107 0.08742515 -0.10263048 -0.0616008
-0.009499044 0.023802567 0.05241142 0.021182494 0.08878223 -0.067980796 0.04723723 -0.03236794
0.0023888312 -0.008497528 -0.016225707 0.10822828 0.14437903 0.019683538 -0.014341953 0.23407541
-0.06359045 -0.013794285 0.13236089 -0.118408754 -0.012875329 0.047352754 -0.18599884 0.17606491
0.029960845 -0.032914337 0.0483683 0.0406009 -0.018266158 -0.016356274 0.14933577 0.06731003
0.0042986185 0.033913873 -0.058850087 -0.006728675 -0.12541421 -0.011314674 0.0052259765 -0.10286287
-0.15823229 0.08141934 0.19400372 -0.07294146 0.019909833 -0.047205657 -0.11378491 -0.14290553
-0.09721724 -0.022107739 -0.005576914 -0.013019151 0.014208152 -0.03637457 -0.120602414 -0.10343027
0.067219935 0.08508232 0.002891168 0.13736114 -0.06796976 0.1378416 -0.013225392 -0.03933897
-0.016896958 -0.051729772 0.06999649 -0.12560079 0.09645636 -0.030692257 -0.00033166265 0.02760206
0.008382005 0.0147537 -0.07717469 -0.20414636 -0.1421203 0.047881432 0.05938898 -0.12923022
0.11152732 0.0053050476 0.0021401134 -0.010527816 0.013535364 -0.050380655 0.07079861 0.011117619
0.0019754355 0.09615669 0.079063624 0.02909254 -0.18063591 0.01969603 -0.13124709 -0.011055789
-0.03598215 0.0062019625 0.020062659 0.041954074 0.09587551 0.057259865 0.087831415 -0.18469943
0.08042944 0.021332895 0.11894341 -0.10861127 0.0065013743 0.035036776 -0.042300243 -0.063979395
0.061619386 0.07711269 0.063431695 0.1765537 0.11645863 -0.11194947 -0.024244985 0.15711801
0.020651203 -0.028771773 0.10930524 0.044959348 -0.12756203 0.16144969 0.07472951 -0.10557806
0.096765324 -0.20859067 0.034437492 -0.14512728 -0.10553833 -0.032657858 -0.014767106 -0.023739597
0.056709606 0.028841112 0.12587884 0.048695583 0.07730687 0.018011408 0.07716268 0.08511304
0.057128355 -0.04278581 -0.093490474 -0.17698991 0.11736894 -0.1296756 -0.05413908 -0.012471003
0.092648 0.029767534 -0.075380325 -0.1389497 0.055861525 -0.05030946 -0.14698744 -0.10628143
-0.13059106 -0.14633836 0.05120326 0.0057756216 -0.00077621324 -0.17728479 -0.046148296 0.021258125
00000000: 9c66 17bd fdeb 43bd 05b6 d0bd 820c 94bd
00000010: 7fc5 65bd b8da a73c 6545 8e3d 0a1a 2dbe
00000020: da2e 0cbd 7100 baba a9d8 023d be03 e5bd
00000030: 00f6 39bd 57d4 7c3d f6df 01bd f66c b93d
00000040: 4f25 28be 0170 45bd cab5 63bd 2226 c0bd
00000050: ef8d f23c 4d4c cfbd 20ea 97bd d367 9dbd
00000060: 202d bbbc 86d5 103d 171c c23c c6b8 eabd
00000070: 6ae6 95bc 9322 21be 6a6b 00be abd7 7abd
00000080: 541c e23d 8575 d7bd 429f ddbd 09cc 843d
00000090: f364 0a3c b175 863d 7f43 53bd d50b a23d
000000a0: f672 dc3d 0a3a 1bbd fac4 513c bcab eabd
000000b0: 7a58 283d fafd 0bbd e678 98bd f231 9b3d
000000c0: aaf5 76be 1aea ed3d 8653 6abe 57a7 daba
000000d0: 5101 d0bc 0f6d 203d a590 2fbd 2bca ed3d
000000e0: 876e 5c3d b137 973c 7728 633c 490e adbd
000000f0: 0c48 31bd fcf9 e6bd 2ff3 46bd 6730 c8bb
00000100: f932 1cbc ea05 94be aa9f 83bc b067 063e
00000110: 9998 60bd 195c 933c d75b af3c 5e60 3fbd
00000120: 9f60 85bb ad3a 7cbc 2650 793c 0fde b13c
00000130: 57a5 8c3c 2666 8ebc 4f9b d83d 61db 713c
00000140: 26e3 fa3c 8863 f23d ce80 f33d 53b3 973c
00000150: fff0 853d f50b b33d ee2f d2bd 1f51 7cbd
00000160: e1a1 1bbc 9afd c23c 5bad 563d e986 ad3c
00000170: 75d3 b53d 8439 8bbd d37b 413d 3f94 04bd
00000180: f08d 1c3b 3739 0bbc c6eb 84bc caa6 dd3d
00000190: 19d8 133e 5f3f a13c 83fa 6abc 77b1 6f3e
000001a0: b63b 82bd 6d01 62bc 9d89 073e 4a80 f2bd
000001b0: 0bf3 52bc f6f4 413d 7b76 3ebe 5c4a 343e
000001c0: 7270 f53c 2fd1 06bd d71d 463d 214d 263d
000001d0: e9a2 95bc 98fd 85bc 7aeb 183e d7d9 893d
000001e0: 6ddb 8c3b 46e9 0a3d ca0c 71bd 387c dcbb
000001f0: 956c 00be 2f61 39bc ab3e ab3b c5a9 d2bd
00000200: a507 22be 2fbf a63d e9a8 463e 5562 95bd
00000210: f219 a33c b85a 41bd 1008 e9bd d455 12be
00000220: d519 c7bd 4a1b b5bc 8cbe b6bb 474e 55bc
00000230: 4fc9 683c 80fd 14bd 66fe f6bd 40d3 d3bd
00000240: 9baa 893d a43f ae3d c079 3d3b 66a8 0c3e
00000250: bb33 8bbd 5926 0d3e 51af 58bc e621 21bd
00000260: 7d6b 8abc 99e2 53bd 525a 8f3d 7e9d 00be
00000270: e98a c53d 546e fbbc 02e3 adb9 b71d e23c
00000280: ad54 093c 81b9 713c c40d 9ebd be0b 51be
00000290: fc87 11be 521f 443d dc41 733d ed54 04be
000002a0: 7068 e43d f7d5 ad3b 2541 0c3b dc7c 2cbc
000002b0: 6ec3 5d3c f25b 4ebd ddfe 903d ad26 363c
000002c0: 4f76 013b cced c43d 1cec a13d 7a53 ee3c
000002d0: 9ff8 38be 9259 a13c a365 06be 5723 35bc
000002e0: 0562 13bd d539 cb3b 725a a43c 09d8 2b3d
000002f0: 615a c43d 5289 6a3d f5e0 b33d d921 3dbe
00000300: 31b8 a43d 53c2 ae3c 9a98 f33d 966f debd
00000310: 7b09 d53b b982 0f3d 0543 2dbd a107 83bd
00000320: 9c64 7c3d 42ed 9d3d 7ae8 813d 7eca 343e
00000330: dd81 ee3d c445 e5bd 6b9d c6bc 8be3 203e
00000340: b62c a93c c8b2 ebbc 6ddb df3d 4b27 383d
00000350: 9f9f 02be 1153 253e c90b 993d 4f39 d8bd
00000360: e62c c63d cb98 55be 540e 0d3d 3f9c 14be
00000370: 7b24 d8bd 3fc4 05bd bbf1 71bc 8b79 c2bc
00000380: 5548 683d 3244 ec3c 62e6 003e 0575 473d
00000390: 1053 9e3d a98c 933c 7807 9e3d bf4f ae3d
000003a0: 6cff 693d 2c40 2fbd ef77 bfbd d83c 35be
000003b0: 205f f03d aec9 04be f1c0 5dbd 2e53 4cbc
000003c0: 3cbe bd3d 0bdb f33c 0061 9abd d548 0ebe
000003d0: 0ecf 643d 4b11 4ebd e083 16be 14aa d9bd
000003e0: aab9 05be b9d9 15be 82ba 513d 6d41 bd3b
000003f0: ca7a 4bba 258a 35be ff05 3dbd 8525 ae3c

network_body._body_endoder.seq_layers.2.bias f4 [128]
0.0 0.0 0.0 0.0 0.0 0.0 0.0 0.0
0.0 0.0 0.0 0.0 0.0 0.0 0.0 0.0
0.0 0.0 0.0 0.0 0.0 0.0 0.0 0.0
0.0 0.0 0.0 0.0 0.0 0.0 0.0 0.0
0.0 0.0 0.0 0.0 0.0 0.0 0.0 0.0
0.0 0.0 0.0 0.0 0.0 0.0 0.0 0.0
0.0 0.0 0.0 0.0 0.0 0.0 0.0 0.0
0.0 0.0 0.0 0.0 0.0 0.0 0.0 0.0
0.0 0.0 0.0 0.0 0.0 0.0 0.0 0.0
0.0 0.0 0.0 0.0 0.0 0.0 0.0 0.0
0.0 0.0 0.0 0.0 0.0 0.0 0.0 0.0
0.0 0.0 0.0 0.0 0.0 0.0 0.0 0.0
0.0 0.0 0.0 0.0 0.0 0.0 0.0 0.0
0.0 0.0 0.0 0.0 0.0 0.0 0.0 0.0
0.0 0.0 0.0 0.0 0.0 0.0 0.0 0.0
0.0 0.0 0.0 0.0 0.0 0.0 0.0 0.0
00000000: 0000 0000 0000 0000 0000 0000 0000 0000
00000010: 0000 0000 0000 0000 0000 0000 0000 0000
00000020: 0000 0000 0000 0000 0000 0000 0000 0000
00000030: 0000 0000 0000 0000 0000 0000 0000 0000
00000040: 0000 0000 0000 0000 0000 0000 0000 0000
00000050: 0000 0000 0000 0000 0000 0000 0000 0000
00000060: 0000 0000 0000 0000 0000 0000 0000 0000
00000070: 0000 0000 0000 0000 0000 0000 0000 0000
00000080: 0000 0000 0000 0000 0000 0000 0000 0000
00000090: 0000 0000 0000 0000 0000 0000 0000 0000
000000a0: 0000 0000 0000 0000 0000 0000 0000 0000
000000b0: 0000 0000 0000 0000 0000 0000 0000 0000
000000c0: 0000 0000 0000 0000 0000 0000 0000 0000
000000d0: 0000 0000 0000 0000 0000 0000 0000 0000
000000e0: 0000 0000 0000 0000 0000 0000 0000 0000
000000f0: 0000 0000 0000 0000 0000 0000 0000 0000
00000100: 0000 0000 0000 0000 0000 0000 0000 0000
00000110: 0000 0000 0000 0000 0000 0000 0000 0000
00000120: 0000 0000 0000 0000 0000 0000 0000 0000
00000130: 0000 0000 0000 0000 0000 0000 0000 0000
00000140: 0000 0000 0000 0000 0000 0000 0000 0000
00000150: 0000 0000 0000 0000 0000 0000 0000 0000
00000160: 0000 0000 0000 0000 0000 0000 0000 0000
00000170: 0000 0000 0000 0000 0000 0000 0000 0000
00000180: 0000 0000 0000 0000 0000 0000 0000 0000
00000190: 0000 0000 0000 0000 0000 0000 0000 0000
000001a0: 0000 0000 0000 0000 0000 0000 0000 0000
000001b0: 0000 0000 0000 0000 0000 0000 0000 0000
000001c0: 0000 0000 0000 0000 0000 0000 0000 0000
000001d0: 0000 0000 0000 0000 0000 0000 0000 0000
000001e0: 0000 0000 0000 0000 0000 0000 0000 0000
000001f0: 0000 0000 0000 0000 0000 0000 0000 0000

value_heads.value_heads.extrinsic.weight f4 [1, 128]
-0.14853545 0.06883832 0.13032122 -0.17892008 0.10986422 -0.12101813 0.17928848 -0.068732135
0.019699857 0.20909902 -0.21428399 0.015695602 0.09115798 -0.04568669 0.07469038 0.034310807
-0.20636095 -0.087769 -0.01831564 -0.124589495 0.1072503 0.054323856 -0.0031613486 -0.13950045
0.043623038 0.20000294 0.1370682 0.016516551 0.08729081 -0.12626176 0.21319738 -0.11250391
0.020749131 -0.107801065 0.10370249 0.16132617 -0.029227274 -0.18760622 -0.036766615 0.08845513
-0.06964155 0.08961321 0.19756378 -0.062174395 -0.06682634 0.096569054 0.068495095 0.210412
0.07416442 -0.022248654 0.15354618 -0.07579469 -0.05342859 0.07947491 -0.16259727 0.010425033
0.018552244 -0.10616479 -0.03184095 0.13878126 0.0030297425 0.07119049 0.10469878 0.038835317
0.12421523 -0.03342102 -0.021928458 0.18736625 0.017039275 0.03013201 -0.18935116 0.20241876
-0.17806163 -0.11499975 0.025147973 -0.17589751 0.004795023 -0.03066323 0.015177276 -0.21117091
-0.1664323 0.027460014 0.022598095 0.17771749 -0.16181976 -0.18265998 0.12105984 0.20272136
-0.085771784 -0.2084654 0.041652624 -0.15063713 -0.019798927 -0.21425015 -0.035580706 0.036942955
-0.17581621 0.059901547 -0.17195235 0.08187326 -0.009135234 0.016056817 -0.124047376 -0.14804102
-0.03690034 0.18213679 0.12055949 0.024068927 -0.17131576 0.13980171 -0.18500188 0.19521534
0.06265147 0.047790237 -0.0898204 -0.061186742 -0.21184453 -0.13938595 0.20574768 0.019660752
-0.15073471 -0.06303504 -0.105411045 -0.19139548 -0.045367673 0.16830072 0.12439943 0.081430726
00000000: ad19 18be 1bfb 8c3d ed72 053e d336 37be
00000010: 7e00 e13d 5ad8 f7bd 6697 373e 6fc3 8cbd
00000020: 9861 a13c 0e1e 563e 436d 5bbe 1094 803c
00000030: 09b1 ba3d f721 3bbd 45f7 983d 7d89 0c3d
00000040: 4950 53be 3cc0 b3bd ae0a 96bc c728 ffbd
00000050: 0ca6 db3d b182 5e3d a12e 4fbb 35d9 0ebe
00000060: 12ae 323d 92cd 4c3e 9b5b 0c3e b84d 873c
00000070: 86c5 b23d c34a 01be 6a50 5a3e 7368 e6bd
00000080: 15fa a93c cec6 dcbd f961 d43d b032 253e
00000090: 096e efbc d81b 40be 9798 16bd f727 b53d
000000a0: 3ba0 8ebd 2187 b73d 294e 4a3e 94aa 7ebd
000000b0: 40dc 88bd ffc5 c53d 2847 8c3d 3e76 573e
000000c0: 84e3 973d cf42 b6bc 363b 1d3e 3f3a 9bbd
000000d0: f0d7 5abd bec3 a23d e67f 26be c2cd 2a3c
000000e0: e0fa 973c ed6c d9bd a86b 02bd ad1c 0e3e
000000f0: a58e 463b 52cc 913d 506c d63d c811 1f3d
00000100: 8e64 fe3d 7be4 08bd 4fa3 b3bc f0dc 3f3e
00000110: f395 8b3c 68d7 f63c 45e5 41be dd46 4f3e
00000120: ca55 36be fd84 ebbd 1f03 ce3c 7a1e 34be
00000130: 911f 9d3b 7431 fbbc 1caa 783c 303d 58be
00000140: 3b6d 2abe d3f3 e03c a41f b93c 93fb 353e
00000150: 14b4 25be 380b 3bbe 39ee f73d 3096 4f3e
00000160: 1ea9 afbd f477 55be f19b 2a3d 9f40 1abe
00000170: 5c31 a2bc 6464 5bbe 13bd 11bd 7f51 173d
00000180: 2a09 34be 535b 753d 4714 30be 2bad a73d
00000190: f3ab 15bc 9689 833c 8d0c febd 1198 17be
000001a0: d024 17bd 1182 3a3e e5e7 f63d 332c c53c
000001b0: 666d 2fbe 2e28 0f3e 2271 3dbe 88e6 473e
000001c0: 6a4f 803d b2bf 433d c2f3 b7bd f39e 7abd
000001d0: c6ed 58be 31bb 0ebe 85af 523e 960f a13c
000001e0: 335a 1abe 8418 81bd bfe1 d7bd 2dfd 43be
000001f0: 74d3 39bd 0657 2c3e 21c5 fe3d 27c5 a63d
