results/shortRays/Tank/Tank-288472.onnx (onnx, 187360 bytes, 9 tensors)

network_body._body_endoder.seq_layers.0.weight f4 [128, 212]
000000 36 2b d7 3c a3 c6 83 bd 95 e1 1c bd de 26 99 bd
       0.026265722 -0.06434371 -0.03830107 -0.074781165
000010 81 20 00 be ae 48 03 bc f8 7b 43 bd 3d f9 69 3d
       -0.125124 -0.008012934 -0.047725648 0.057122458
000020 92 9b 67 bd 8f 98 3f bd c8 21 05 be 90 f8 76 3d
       -0.056544848 -0.04677635 -0.13001168 0.06029564
000030 a7 cd 0a 3e 73 3c c7 bd 9b 0e 94 bd 36 8c c2 3d
       0.13555013 -0.09728327 -0.07229348 0.09499399
000040 ce 16 29 bd 0d 9a a4 bd db 4b 80 3c 30 d9 04 bd
       -0.041281514 -0.08037195 0.01566117 -0.03243369
000050 fb da 8f 3c ed 46 34 3c f9 ee 48 3c 45 c4 9a 3d
       0.017560473 0.011003238 0.012264007 0.07556967
000060 b3 fb a0 bd da 15 03 3e cc 20 10 3e 18 55 35 bd
       -0.07860508 0.12801304 0.14075011 -0.044270605
000070 53 40 b7 bd cc 01 2b bc ca 06 fe bc aa ec 28 3d
       -0.08947816 -0.01043744 -0.031009097 0.041241325
000080 9a bd c5 3d 8a f3 99 bd 44 ae 27 3e 78 cf be 39
       0.09655304 -0.075171545 0.16375071 0.000363942
000090 06 f2 37 be 61 20 3b 3d 91 a9 25 3c 5a 26 33 bd
       -0.17963418 0.045685176 0.010111229 -0.043737747
0000a0 9a 1f 36 bc 0b 49 35 3c b1 dd a1 3d 08 c9 3f 3a
       -0.011115933 0.011064778 0.079036124 0.0007316028
0000b0 eb 70 45 3e 73 26 12 be 27 72 c2 3d 8f 3c b1 bc
       0.19281356 -0.1427248 0.09494429 -0.021635322
0000c0 96 40 f8 3c a7 00 5f bd 94 44 8d bd c9 13 27 3e
       0.030304234 -0.05444398 -0.06897846 0.16316141
0000d0 b1 73 6b 3d 6e 36 41 3b b9 8b ec 3c 99 83 05 bd
       0.05748338 0.0029481906 0.028875219 -0.032596204
0000e0 cd 59 47 bd fd 1c 81 bd e7 5e 88 bd 8d e3 2a bd
       -0.048669625 -0.06304357 -0.06658726 -0.041720916
0000f0 6a 96 cd bc 79 b1 b0 3d bf 1c 9c 3d d3 79 85 3d
       -0.025096137 0.086276 0.076226704 0.06517377
000100 75 e8 e0 3c d5 cc db 3d 66 8a c3 bc 19 4a de 3c
       0.027454594 0.10732428 -0.023869704 0.027134942
000110 28 a1 d8 bd 49 c5 9a 3d 95 1e a9 bd 40 10 c4 bb
       -0.10577613 0.075571604 -0.08257786 -0.0059833825
000120 07 17 ee bc 0a 85 ae bc 5c b9 2c bd 31 46 55 bd
       -0.029063715 -0.021303672 -0.04216896 -0.052068893
000130 c6 3c ee bc 07 77 e9 bc 23 77 ce bd 48 80 95 bb
       -0.029081713 -0.02849914 -0.10081317 -0.0045624115
000140 6b a0 0d 3c 83 48 f6 3d 72 45 c5 3d 9e 30 b1 bc
       0.008644204 0.12025549 0.09632386 -0.021629628
000150 24 1f 21 bd 42 f8 ab 3c b0 52 c9 3d 83 c2 b8 3d
       -0.03933634 0.020992402 0.098302245 0.09021475
000160 ef d8 88 bc 7a fc ab bc e8 e0 45 3d 7b bb 7a 3d
       -0.016705004 -0.020994414 0.04831019 0.06121395
000170 bf ef 1a bb 2c 7a ad bc 9b fb 8e bd df 46 a3 ba
       -0.0023641435 -0.02117642 -0.06981584 -0.0012457034
000180 50 92 24 bc 2a e6 d6 bc 45 23 20 3d 25 d7 bd bd
       -0.010044649 -0.026232798 0.039096136 -0.09269551
000190 3f 64 b2 3d 36 be bc 3c 69 15 77 bb af fe 74 3d
       0.08710527 0.023039918 -0.003770197 0.059813198
0001a0 5c f3 49 bb 83 93 19 be 05 b6 83 3d df 80 d4 bc
       -0.003081522 -0.14997678 0.06431202 -0.025940357
0001b0 fa 5d 7c bd 4c 49 5c 3b 94 15 34 3c 83 b8 83 3c
       -0.06161306 0.0033613024 0.010991473 0.016079193
0001c0 f6 de cd 3d 9c d0 36 3a d4 ba d7 bc 79 ad 24 bc
       0.10052292 0.0006973834 -0.026334204 -0.010051125
0001d0 2a 1d d5 bb 22 3a bb bc f0 4c 0e 3a 00 1c 42 3d
       -0.006503721 -0.022854868 0.00054283347 0.047389984
0001e0 ea 80 58 bb df c3 3e bd 42 1b 7c 3c a5 61 2e bc
       -0.0033035823 -0.046573516 0.015387358 -0.010643397
0001f0 da 83 19 bc 9f 0b 09 bd 1b f3 b3 3d 7f 74 03 bd
       -0.009369815 -0.03345835 0.08786603 -0.03209352
000200 81 90 3b be 7f 57 59 3d 3c c8 a2 bd 11 f4 78 bb
       -0.18316843 0.05306196 -0.07948348 -0.0037987272
000210 bf f1 8d 3c 3c de e4 bc 79 c6 76 bd a9 85 10 be
       0.017327188 -0.027938 -0.060247872 -0.14113487
000220 23 83 80 bd 50 cc 9e 3c 0d a3 26 3d 86 5d 96 bc
       -0.06275012 0.019384533 0.04068284 -0.018355142
000230 ad 07 4f bc 17 84 44 bd bf 96 3d 3d e2 ec a1 bc
       -0.012636107 -0.047977533 0.04628634 -0.019766275
000240 1c 2a 32 3d d0 45 3a 3a ae 3d 98 3b e6 98 de 3d
       0.04349719 0.000710574 0.0046460247 0.10869007
000250 64 54 9a 3c ee e0 7d 3d 65 13 58 3c 1b 75 11 bc
       0.018839069 0.061982088 0.013188218 -0.008878018
000260 7e de eb 3c 43 ba 93 bd 0c 6f 75 bc fa 4d 92 3c
       0.028792616 -0.07213261 -0.014980089 0.017859448
000270 ae 63 55 bc c7 8b c3 3d e5 65 d2 b7 f0 48 f2 bd
       -0.013024254 0.09548145 -2.50814e-05 -0.11830318
000280 6b a6 93 bc 88 62 47 3d 39 eb 95 3d 64 bc 83 bd
       -0.01802369 0.04867795 0.07320256 -0.06432417
000290 bd a3 ea 3b 94 23 24 3d f3 63 6e 3d 29 2c c2 3c
       0.0071606324 0.040072992 0.058200788 0.023702698
0002a0 1f 37 88 bc 71 93 17 3d 7e 04 78 3b e5 f7 f9 3b
       -0.016627846 0.037005845 0.0037844474 0.0076284283
0002b0 00 58 02 bc 15 6d 04 bd 48 74 36 bd 2b 37 55 bd
       -0.007955551 -0.03233059 -0.04454449 -0.052054565
0002c0 32 63 0a 3c 24 b3 16 3d 00 a8 a2 bc a8 76 66 3d
       0.008446502 0.036791936 -0.0198555 0.056265503
0002d0 45 f6 ae bd be 6b 2f 3e 1b 1b 22 bd a2 18 e1 bc
       -0.08543066 0.17130944 -0.03957663 -0.027477566
0002e0 a2 01 90 bd ce b9 0a 3e 79 52 05 bd 14 0d e8 bc
       -0.070315614 0.13547441 -0.032549355 -0.028326549
0002f0 ee d0 6a 3d ad 39 e1 3c 00 45 e1 bd 79 6b c9 3d
       0.057328157 0.027493322 -0.10999489 0.09834952
000300 ba ac 33 be 71 c8 ba 3c 9f a6 08 3e 2f 30 78 3d
       -0.17546359 0.022800656 0.13344811 0.060592826
000310 c1 5b 88 3c 96 5a d0 bd fa 84 2b bd 92 04 18 bd
       0.016645314 -0.10173528 -0.041874863 -0.037113734
000320 f4 e9 07 3d 04 0f c3 3c d1 41 7c 3d 00 b2 f4 3d
       0.0331821 0.023810871 0.061586205 0.11948013
000330 24 48 84 bd d2 23 e5 bd 13 69 c4 bd 73 02 4c 3d
       -0.06459072 -0.11188473 -0.09590354 0.049807023
000340 d1 95 00 3d d5 50 81 3d 96 1c 16 3e 29 32 a6 bd
       0.031392876 0.063142456 0.14659342 -0.08115036
000350 3a 95 45 bd 30 76 d0 3c 54 4d 00 be 5f 9a d3 3d
       -0.048238017 0.025446981 -0.12529498 0.10332178
000360 85 a0 92 bd f6 5f 1a 3d 3b ba 30 bd 28 d3 17 3d
       -0.07159523 0.03768917 -0.043146353 0.03706661
000370 19 91 48 bc 09 14 c6 bd ae 0d 98 bc ce 72 59 3c
       -0.012241625 -0.0967179 -0.01856121 0.0132720005
000380 33 10 39 bd ea bf 51 3d 78 86 22 be c3 05 cc bd
       -0.045181464 0.051208414 -0.15871608 -0.099620365
000390 c9 7a 8f bd fc 6d e1 3b e7 83 e2 3c 7f 8a 2e 3d
       -0.07005841 0.0068795662 0.027650787 0.04261255
0003a0 5a a7 d7 bc 8b 8b f9 bc 55 2e 9a 3d 2f 76 2a bd
       -0.026324917 -0.030462047 0.075283684 -0.041616615
0003b0 80 43 ac bd b7 ee 88 3d 66 d1 0e 3d 28 54 35 39
       -0.08411312 0.06686156 0.034867667 0.00017292856
0003c0 71 dc 47 3d e0 b5 30 3d 95 aa 47 3d 13 5c 64 3c
       0.048794214 0.0431422 0.048746664 0.013937968
0003d0 92 99 1b bd 89 fe b4 bd b9 5c c7 bd 1f 83 35 bd
       -0.037988253 -0.08837611 -0.09734482 -0.0443145
0003e0 ec 53 4a bc 59 92 9b 3d ed 64 8d bd 74 16 8a bd
       -0.01234911 0.07596273 -0.06904016 -0.06742564
0003f0 14 c0 45 bb 2d f4 d0 3d e3 88 01 3e 4f 0d db 3d
       -0.0030174302 0.10202823 0.12649874 0.10695898

network_body._body_endoder.seq_layers.0.bias f4 [128]
000000 91 95 83 b9 0d 97 1d b8 22 80 f2 ba aa 33 8b 3c
       -0.00025097703 -3.7572394e-05 -0.0018501321 0.016992409
000010 6f 6a d2 3c a5 1b 73 bb 04 7c 8c 3c 1b 33 14 bc
       0.025685517 -0.0037095335 0.017148979 -0.009045388
000020 2f 8b 63 bc 65 3b 25 3c 1c f7 66 3c 43 62 76 3b
       -0.013888164 0.010084962 0.014097001 0.003759519
000030 8b b1 2e 3b d7 0b 3b bb ae a7 94 3c 46 8d 9a 3c
       0.0026656117 -0.0028540993 0.018146362 0.018866193
000040 0e e3 a2 3b 33 83 ef bb 0e 62 f1 3b 09 55 07 ba
       0.0049709147 -0.0073093413 0.0073664254 -0.00051625125
000050 d1 b9 01 bc db 59 ee bb d4 9e 44 bb a4 99 9d bb
       -0.007917837 -0.007273895 -0.0030001896 -0.004809575
000060 fa ab 30 3c 54 1d f6 3c 08 7d 6b 3c 18 ea bf bb
       0.01078319 0.030043282 0.0143730715 -0.0058567636
000070 e6 78 15 bb 88 58 04 bc 5d 30 1c 3c ac 96 11 bb
       -0.0022807657 -0.008077748 0.009533015 -0.0022215052
000080 be 09 46 bb c8 a0 6f 3b b2 59 e3 3c 21 bc 1c 3c
       -0.003021821 0.003656434 0.027752731 0.009566338
000090 34 a0 b0 3c 67 72 82 bb 4e de 4c 3c a5 ae 80 bb
       0.021560766 -0.003980923 0.012504173 -0.0039270693
0000a0 ff b4 b7 3b 70 66 29 bb f2 ee ba 3b 3a f0 9d 3c
       0.005606293 -0.002584841 0.005704754 0.019279588
0000b0 5d 9c ed 3c ae f7 22 3b c5 f4 86 bb 6d 6d c0 bb
       0.029005224 0.0024866867 -0.0041185343 -0.0058724196
0000c0 55 47 d0 39 c3 79 28 bb 7c 41 09 3c 12 f2 3c 3c
       0.00039725998 -0.0025707341 0.008377429 0.011532323
0000d0 2c 26 5a 3c d1 9d 11 bb ca c1 07 bc 19 93 88 bc
       0.013314765 -0.002221931 -0.008285949 -0.016671704
0000e0 b2 3b 5f bc 8b a7 21 bc 7a 3c 92 3b dd 18 4b ba
       -0.013625072 -0.0098666055 0.004462776 -0.00077475404
0000f0 65 a1 11 3a 65 ff cc 3c a7 11 a6 3b 26 c2 72 3b
       0.00055553607 0.025024125 0.0050680223 0.003704199
000100 51 ed 68 3a 50 72 8d 3b af 79 94 bc e5 6f c8 3c
       0.00088854606 0.0043166056 -0.01812443 0.024467418
000110 a4 1e 46 bb 2b 05 46 3c d7 82 da bb ed e8 aa 39
       -0.0030230666 0.012086193 -0.0066684294 0.0003259847
000120 cc 4b 12 3a b9 1d 07 3c 57 a5 8c bc 0f e0 6a 3a
       0.00055807526 0.0082468325 -0.017168684 0.0008959779
000130 fb b6 fe 3a da e5 cf 3b 57 26 87 3b 45 b5 0c bc
       0.0019433195 0.006344539 0.0041244435 -0.00858814
000140 8c ec 8b 3c 67 16 2d 3b 16 93 8f 3c dd dc 8e 3c
       0.017080568 0.0026411058 0.01752619 0.0174393
000150 9a 6f 9e bb eb 9d 9e bb f6 cd 88 3c 31 11 0b bc
       -0.0048350813 -0.0048406026 0.016699772 -0.0084879855
000160 81 be 64 3a df a9 72 3c 7c 7f 46 3c f2 2b ef 3b
       0.0008725897 0.014811008 0.012115356 0.00729894
000170 89 b9 ee ba 1a a1 c0 3a d6 3d 32 3c 72 25 77 3c
       -0.0018213253 0.001469645 0.010879001 0.015084611
000180 83 b6 aa bb 71 b1 08 bc e0 fb 50 bb 03 20 75 bb
       -0.0052097454 -0.008343087 -0.003188841 -0.0037403114
000190 fa 3c a1 3b ee 28 00 bb fc 74 07 bb 35 1d 38 ba
       0.004920599 -0.0019555646 -0.0020669093 -0.0007023395
0001a0 22 9a 8d 3c 0f 27 29 bc 25 ae 36 3c 4d 07 84 bb
       0.01728541 -0.010324254 0.011149918 -0.0040291906
0001b0 d3 da df 3b c7 e7 37 3b a4 43 a2 bb 33 3e 09 3c
       0.006831506 0.0028061734 -0.004951911 0.008376646
0001c0 14 c1 a2 bb c1 08 29 bc 3d f3 9d 3b 45 a6 8b bb
       -0.0049668644 -0.0103170285 0.004820256 -0.004261764
0001d0 fa d5 a2 3b 07 f6 f9 ba 19 e2 95 3b f4 a2 3a 3c
       0.0049693557 -0.0019070514 0.004574072 0.01139139
0001e0 a5 ae 23 bc ee ab bf b8 cb dd 1f 3c 8a dd a7 ba
       -0.009990369 -9.139614e-05 0.009757469 -0.0012807113
0001f0 80 7e 45 bb 2c 2a 90 3b d4 7d d7 3a 8d ba b9 3c
       -0.0030135214 0.0043995585 0.0016440698 0.022671962

network_body._body_endoder.seq_layers.2.weight f4 [128, 128]
000000 17 3c b6 3c da 52 b5 3c f2 f0 e3 bd d9 ba 01 3e
       0.02224545 0.022134233 -0.11129941 0.12668933
000010 f8 88 fb 3c ee 84 70 3b 3e b6 ac bd c5 66 ba bd
       0.03070496 0.0036700326 -0.084331974 -0.09101633
000020 d8 dd 79 3c bc 19 0f be 73 7b 67 3c e8 6f 0c 3d
       0.015250646 -0.1397466 0.014128554 0.03428641
000030 0a e2 83 bd 0f 15 5f 3d a4 f0 be 3d 95 48 32 3d
       -0.06439598 0.054463442 0.09323242 0.04352625
000040 f6 98 e3 bb 33 19 89 3d 2f e7 50 bd 83 12 dd bc
       -0.0069457246 0.066942595 -0.051001724 -0.026986366
000050 53 26 c1 3d 66 fc 75 bd ae aa 1e be bc 52 f8 3c
       0.09431138 -0.06005516 -0.15494797 0.030312888
000060 b8 0d c5 bd f9 a4 de bd 56 62 77 bc 8b 59 87 bb
       -0.09621757 -0.1087131 -0.015099129 -0.0041305474
000070 e0 9b 91 bd b9 ce 96 bc 23 1e 38 be 92 99 bc 3d
       -0.07109809 -0.01840912 -0.17980246 0.09208979
000080 f3 bc 60 bd 9d 1b 88 3c 52 73 ec 3c 77 1b 03 bd
       -0.054867696 0.01661473 0.028863583 -0.032008614
000090 4f c4 15 bd 12 df 26 bd 6f 3b bc 3d c3 34 8c bd
       -0.036564168 -0.04074008 0.091910236 -0.06846001
0000a0 d6 da 13 3e aa c2 23 3c 56 da 92 bd a8 c9 00 3b
       0.14438948 0.009995142 -0.071705505 0.0019651446
0000b0 a0 7f 92 bc db 1d 40 3d 23 91 cd bc 3b 53 42 3e
       -0.017883122 0.046903472 -0.02509362 0.18977062
0000c0 20 16 d3 bd 38 5b 06 3e 90 c5 85 3c 48 d8 0f 3e
       -0.103069544 0.13120735 0.016329557 0.14047348
0000d0 7c 6d 3e be f5 b9 35 bd d7 6e 4b 3c 95 80 f0 3c
       -0.18596452 -0.044366796 0.012416563 0.029358188
0000e0 56 19 ce ba be 3c db bc 30 6c f7 bc af b4 1c 3d
       -0.0015724103 -0.026762363 -0.030202955 0.03825825
0000f0 33 3b cf 3d eb 12 a2 3d 33 59 c4 3d 9b 96 17 3e
       0.10118713 0.079137646 0.09587326 0.14803545
000100 f9 66 32 be a0 15 a0 3d 67 cb 30 3e c1 16 3b bc
       -0.17422093 0.07816625 0.17265092 -0.011418999
000110 ca 7e 09 3e 7e 7b c3 3c f5 5a 25 3e 91 62 71 bc
       0.13427272 0.023862597 0.16147979 -0.014732973
000120 da 2c 07 3d df c2 86 3c 41 3a 59 3c 0a 5a 49 bd
       0.03300176 0.016450344 0.013258518 -0.049158134
000130 4c e0 af bc 3e a0 a9 3d 44 2b e4 3c 1f 9e 80 bc
       -0.021469258 0.08282517 0.027852662 -0.015700398
000140 81 4e 84 3d 03 4a f9 bd e2 c6 64 3d a6 1c 0b 3e
       0.06460286 -0.1217232 0.055853732 0.13585147
000150 47 41 8e 3d 7a 63 bf 3d 0e 65 21 bd 61 0e d6 bc
       0.069460444 0.093451455 -0.039403014 -0.026129903
000160 c6 cd 06 3d a8 a7 d3 3c 54 88 24 3e 16 91 fd bd
       0.032911085 0.02583678 0.1606763 -0.123811886
000170 56 05 f2 3c 04 19 a4 3d 37 a5 f6 3d 05 83 1e bd
       0.02954356 0.08012584 0.12043231 -0.03869917
000180 bc 6d 77 3c 32 77 47 3a 8f 93 37 be 87 0c fd 3a
       0.015101846 0.0007609009 -0.17927383 0.0019306102
000190 b0 27 97 3d 48 10 8a bd 54 03 1c ba 0d b3 87 3b
       0.07380617 -0.06741387 -0.00059514237 0.0041412176
0001a0 3d 85 3b 3d bf dc f0 39 c3 45 ac bd 6f 79 f1 3c
       0.045781363 0.00045940836 -0.084117435 0.02947685
0001b0 51 4f c3 3b 95 35 6b 3c 71 b3 a5 bd ac 8a 2b bd
       0.005960383 0.014356037 -0.08090866 -0.041880295
0001c0 55 b6 05 3d 31 43 2d bd 2f f0 84 3d 12 b7 52 3e
       0.03264459 -0.042300407 0.06491124 0.20577648
0001d0 df 92 3e 3d fd 1e f4 3d 21 0a bc bd af 7b 02 be
       0.046526786 0.11919973 -0.091816194 -0.12742494
0001e0 6d 9b d3 bd 34 2d d4 3c 8e 48 ab bd 1a 1a ff bd
       -0.103323795 0.02590046 -0.08363448 -0.1245615
0001f0 17 d6 d7 3d d7 9d ce bd 8d db 6c 3d fe 0c 0f 3b
       0.10538881 -0.10088699 0.057826567 0.0021827812
000200 59 e0 f5 bc 67 cd 54 3c 24 88 1a be 6d 88 1d 3e
       -0.030014204 0.012988425 -0.15090996 0.15384074
000210 15 d1 86 3d c3 43 b3 bc a2 da 8b bd 20 a6 54 bb
       0.06582848 -0.021882897 -0.0682881 -0.003244765
000220 3d c0 b7 3b ad 0e 79 3c 71 dd 30 3e d1 50 88 3d
       0.0056076334 0.015201253 0.17271973 0.066560395
000230 8c 48 39 bc 3c 86 96 bd a1 40 1e 3d 71 bf b2 bd
       -0.0113088 -0.07349822 0.038635854 -0.08727921
000240 d1 e7 a2 bc 31 e1 2f 3d 63 37 c2 bb d0 20 f9 bd
       -0.01988593 0.04293937 -0.005927013 -0.121644616
000250 ba f5 4e 3d 93 48 0d bd e6 60 de bd 1e 36 b7 bc
       0.05052731 -0.03449304 -0.10858326 -0.022364672
000260 f6 05 c1 bd 2f 2e 2e be e2 85 9b bc 12 98 8a 3d
       -0.09424965 -0.17009805 -0.018984739 0.06767286
000270 7c a4 31 3d a6 92 bd 3c 17 11 28 bd bc e8 32 bd
       0.043369755 0.023141216 -0.041031923 -0.043678984
000280 0b 18 10 3e 56 d9 72 3d a9 5a 59 bd 6e f8 00 be
       0.14071672 0.0592893 -0.053064976 -0.12594768
000290 03 45 93 3d 5f 44 31 bd a3 d4 82 3d 40 a7 59 bc
       0.07190897 -0.043278094 0.063882135 -0.013284504
0002a0 5e d8 e2 3c d0 37 b2 bd e9 5d 30 3d b8 90 68 bd
       0.027691063 -0.08702052 0.04305831 -0.05677864
0002b0 21 86 54 3d 52 19 8a bd b3 df e9 3c 1c 5e 91 3d
       0.051885728 -0.06743111 0.02854905 0.07098028
0002c0 9c 7e 82 bd 51 43 19 be 41 72 e3 bd 4d 83 d8 3d
       -0.06371805 -0.14967085 -0.111057766 0.10571919
0002d0 eb 0c a0 3d 57 05 5d bd a5 57 0b bd a8 c2 1f bd
       0.07814964 -0.05396017 -0.03401913 -0.039003998
0002e0 b2 4f a0 bd 10 e7 66 bd 81 30 5a 3d 1b 3c 38 bd
       -0.07827701 -0.056372702 0.053268913 -0.044979196
0002f0 b6 40 08 bd f0 68 8a bd fa 75 3c bd 5e 31 df 3d
       -0.03326484 -0.067582965 -0.04601095 0.10898088
000300 0f 3f ed 3d 5d aa b2 bd 02 6e fa 3d f0 ca 1c 3d
       0.11584293 -0.087239005 0.122280136 0.038279474
000310 ae da 0b 3e 44 a0 12 bd c3 08 e5 ba 42 4b b6 bc
       0.13657638 -0.035797372 -0.0017473925 -0.022252683
000320 c8 5b 8c bd ef c4 22 be 49 77 94 3d d5 a7 50 3e
       -0.068534434 -0.15895437 0.07249314 0.20376523
000330 6a 55 10 bd 8e bf 91 3d c9 05 5b bd c7 55 a2 bc
       -0.035237707 0.07116614 -0.053472314 -0.019816292
000340 2c 00 a2 bd 8a 5b 1e bd 5d 07 0a bd f3 ed 83 3c
       -0.07910189 -0.038661517 -0.03369843 0.016104674
000350 f5 e8 ac 3d cf db 9f bd c0 b6 cd bd 44 22 c3 3c
       0.084428705 -0.07805597 -0.100446224 0.02382005
000360 9d c5 57 bc fc 1f 12 3e 04 e6 0f 3e 0a 2e af 3d
       -0.013169673 0.14270014 0.14052588 0.08553703
000370 cb 28 32 be 2a ab d9 bd 44 a0 f8 3c a0 83 53 be
       -0.17398374 -0.1062835 0.030349858 -0.2065568
000380 ce 16 10 be 83 84 7c 3d 74 33 91 bc d0 5d 5b bd
       -0.140712 0.06164981 -0.01772473 -0.053556263
000390 33 8e 8d 3d 3e d5 80 bd 0b e7 0e 3d c2 8e 23 3e
       0.06911888 -0.06290673 0.03488831 0.15972427
0003a0 f3 7f 2d bb 69 8c 94 bc 28 c4 99 bc 02 60 ce bc
       -0.0026473969 -0.018133359 -0.018770292 -0.025192264
0003b0 2a f2 b1 bc d7 63 62 3d 11 c9 87 3d 7a a5 c7 bd
       -0.021721918 0.055270996 0.06630147 -0.09748359
0003c0 f0 86 2c bd 3c 9b 51 be cf 22 09 be d7 00 5a bd
       -0.042120874 -0.20469373 -0.13392185 -0.053223457
0003d0 6d 42 0f 3d 05 7c 99 bd cc 49 07 be 28 d0 cd bd
       0.034975458 -0.07494358 -0.13211745 -0.10049468
0003e0 c8 a4 cd 3d e1 0e 33 3c b2 f3 f6 3d 6b 3d 92 bd
       0.10041195 0.01092884 0.120582 -0.07140621
0003f0 22 7d 20 bd ee 4f f4 bd bc e7 81 3e 5f 77 a8 bd
       -0.039181836 -0.11929308 0.25372112 -0.08225893

network_body._body_endoder.seq_layers.2.bias f4 [128]
000000 2b aa 1c bc 4c d9 d1 39 62 c3 2e bc 53 a3 01 3c
       -0.009562056 0.00040025485 -0.0106667 0.007912475
000010 95 1c 53 bc f5 e1 27 bc 23 f3 13 3c 4b 1d d3 3a
       -0.012885232 -0.010246743 0.009030136 0.0016106752
000020 f9 7c 96 3c f1 92 ac bb 42 c4 6f bc 2c 6b 6d 3c
       0.018370138 -0.00526654 -0.014634194 0.014490884
000030 ff 16 e0 3a d9 e4 13 bb 63 d3 10 3c 13 8f 15 3c
       0.0017096697 -0.0022566824 0.008839461 0.00912835
000040 f5 81 87 bc 6a 39 bb b9 e9 f4 00 ba 9f c7 16 bc
       -0.01654146 -0.00035710196 -0.0004919307 -0.009202867
000050 d0 aa d2 bb 0a b5 1e bc e0 c5 ed 3b eb dc ab 3c
       -0.006429054 -0.009686718 0.0072562546 0.020979365
000060 c3 68 17 3b f9 a1 a3 3c 75 7d 3a 3c c6 e5 44 3c
       0.0023103214 0.019974696 0.01138245 0.012017673
000070 28 79 fc 3c 23 f4 94 3c a8 43 b1 3c d8 eb 93 39
       0.03081949 0.01818282 0.021638706 0.00028213742
000080 19 5a 57 bc 82 12 ac bc f6 8c da bb 59 53 6c bc
       -0.01314404 -0.021004919 -0.006669636 -0.0144241685
000090 16 8d 2c 3c 37 03 99 bb 23 8a 9d bb ba 3f 2c 3b
       0.010531684 -0.0046695727 -0.004807727 0.0026283101
0000a0 bd 6b e0 3b 54 f6 81 3a be 9d 4b 3a f1 a2 45 3b
       0.006848781 0.000991533 0.0007767341 0.0030156935
0000b0 7b e0 5e bc 4a f3 19 bc dc 59 4a bc a0 8a 17 3c
       -0.013603325 -0.009396384 -0.012350526 0.009249359
0000c0 0d 73 04 bb 37 bc 31 bb ab c2 05 bc 9a 9a 34 3c
       -0.0020210177 -0.0027120241 -0.008164088 0.011023188
0000d0 7e b6 c8 bc 71 ef 03 bc 8b bf 1d 3c b4 dc 7d bb
       -0.024501082 -0.008052693 0.009628187 -0.0038736286
0000e0 41 69 81 bc 0f 26 d6 3b cb 0a 8f bb 3b 1e 04 3b
       -0.01579726 0.0065352987 -0.0043653003 0.002015962
0000f0 32 88 94 3b d3 58 a9 bc 78 3a 7f 3c d0 fd 90 bc
       0.0045328373 -0.020672238 0.015577905 -0.017699152
000100 58 2a 20 3b cb 26 98 3b 58 22 93 bc 1f cf 41 bc
       0.0024439301 0.0046432964 -0.017960712 -0.011829167
000110 c4 4b 23 bc 41 a8 ed 3c ae 7a 9b 3b b7 1f 94 bb
       -0.009966794 0.029010894 0.004744849 -0.0045203823
000120 58 ec 51 bc e1 bd 89 bb 26 ba a7 3c 9b f0 07 bc
       -0.012812696 -0.0042035435 0.020474505 -0.008297111
000130 61 ec 8e 3c a3 dd ae bb 78 e0 7c bc 0a b5 40 bc
       0.017446699 -0.0053364797 -0.015434377 -0.011761913
000140 64 5c 55 3c 41 ce 76 3a a0 83 8e bc df 98 86 3b
       0.013022516 0.00094148895 -0.017396748 0.004107579
000150 d0 42 e0 ba 62 ce 0d bc 49 f5 62 bc a1 42 f6 3a
       -0.0017109755 -0.0086551625 -0.013852426 0.0018788168
000160 2a 9e 14 bc 8a 52 06 bc 7e be 26 3c 04 a9 89 3b
       -0.009070912 -0.00819839 0.010177253 0.0042010564
000170 23 ca 0a bb 67 a8 bc b9 84 22 00 3c a7 33 2d bb
       -0.0021177612 -0.00035983624 0.007820729 -0.0026428492
000180 64 a2 bf bb 8c 08 d0 bc 5d 0e b8 3c eb 29 dc 3a
       -0.005848216 -0.0253947 0.022467786 0.001679716
000190 cf ac d4 bb 4b e8 d3 3a ab f5 d5 b7 d9 1f da bb
       -0.006490327 0.0016167251 -2.5505977e-05 -0.0066566286
0001a0 3f e7 be bc 7a 5c 0c 39 e6 bc 99 3b 8a 58 64 3c
       -0.023303626 0.0001338589 0.004691708 0.013937125
0001b0 cd 0d 20 ba 03 74 e6 3b 67 5b b3 bc 5e 30 cb bc
       -0.0006105572 0.0070328726 -0.02189417 -0.024803337
0001c0 c8 bc 23 bb 02 1b 4f 3c 0d b7 b6 3b ae 34 88 bc
       -0.0024984349 0.0126407165 0.0055760206 -0.016626682
0001d0 ed 92 ec bb c2 99 69 b5 e7 99 a2 3c e3 e9 09 3b
       -0.0072196634 -8.702301e-07 0.019848777 0.0021043948
0001e0 e8 60 38 bb c4 15 af 3b b7 c6 00 3c 6b f5 de 3c
       -0.0028133933 0.005343171 0.007859877 0.027216634
0001f0 54 41 db 39 c2 68 b6 bb 75 bf 3f 3c d6 43 68 bc
       0.00041819608 -0.0055666873 0.011703362 -0.01417633

action_model._continuous_distribution.log_sigma f4 [1, 5]
000000 34 97 5d 3b a0 c5 91 ba 8f 8f 6a bc c0 38 99 bb
       0.0033812048 -0.0011121519 -0.014316454 -0.0046759546
000010 2d 31 96 bb
       -0.004583499

action_model._continuous_distribution.mu.weight f4 [5, 128]
000000 de 18 26 bb cc 46 cd bc ba 44 52 3c 7b 9f f5 bb
       -0.0025344412 -0.025058173 0.0128337685 -0.007495818
000010 0c dd 9f bb d5 a1 2c bc df b4 02 bd 1c 92 04 bd
       -0.0048786458 -0.010536631 -0.031910773 -0.032365903
000020 62 49 00 bc 0c 3b f2 3c 83 24 17 3c a3 9c de 3c
       -0.007829996 0.029569171 0.009225014 0.0271743
000030 08 42 38 bc db cd 16 bb 00 ad 9d 3b 2d 4c 7c 3b
       -0.011246212 -0.0023010883 0.004811883 0.0038497553
000040 68 e4 84 bb 8e 38 e4 3c 07 74 b0 3a 25 6d e1 bb
       -0.0040555485 0.027858999 0.0013462313 -0.006879466
000050 da 3f 6d bc 18 b9 95 3b d0 ee 98 3c 4c 7a 5c bb
       -0.014480555 0.004569184 0.018668562 -0.003364223
000060 2d f2 8b 3b 1a 4e e9 3c ed 84 8f 3b 3c c9 30 bb
       0.004270813 0.028479625 0.0043798597 -0.0026975414
000070 c5 66 8d ba 5b 03 43 bc c1 22 ad bb 55 fd 60 bb
       -0.0010788074 -0.0119026555 -0.005283684 -0.0034330685
000080 78 24 25 3c 3e 96 17 bc dd e3 46 bc de 0b 15 3d
       0.010079496 -0.009252129 -0.012139288 0.03638827
000090 c0 e1 12 3d ce 89 9f bc 13 14 8b 3c ac bd 30 bc
       0.035859823 -0.01947489 0.016977346 -0.010787409
0000a0 18 ed b4 bc 3c 07 79 3c 86 bf b5 bc b2 b8 fe bb
       -0.022085711 0.015199479 -0.022186052 -0.0077734822
0000b0 f4 45 ea 3b 74 2f 3d 3a 03 1b 6f 3c 50 98 98 bb
       0.0071494523 0.0007216849 0.014593842 -0.004656829
0000c0 36 6c e8 bc 32 d0 05 3d 90 00 7d bb fc 5c 5e 3a
       -0.028371911 0.032669254 -0.0038605072 0.00084824837
0000d0 e0 68 85 3c de c8 95 bc 51 de ef bc 8f 71 1b bc
       0.01628536 -0.018284258 -0.029280813 -0.009487524
0000e0 83 38 f6 bb 28 fd 63 bc 67 92 ab 3c 68 68 00 3d
       -0.007514061 -0.013915338 0.020943834 0.03134957
0000f0 f0 e4 0c 3c 67 d8 fe bc 1b 1c 16 3b 24 da ef 3c
       0.008599505 -0.031109048 0.0022904936 0.029278822
000100 c4 04 6a bc 33 ed 4f bc 09 aa c9 3b 1c 35 ec bb
       -0.014283363 -0.01269083 0.006154303 -0.0072084796
000110 17 11 a1 bb 5b 80 f3 bb 85 a0 fd 3c 9b 5f c2 bb
       -0.0049153673 -0.0074310726 0.03096033 -0.005931807
000120 10 88 75 bc 60 0f a3 3c 54 7a 0c b9 82 dd 01 bd
       -0.014986053 0.019904792 -0.00013397011 -0.031705387
000130 5f 93 f8 bb 1a a0 93 bc 8e 37 86 3c 53 e7 ca bb
       -0.0075859274 -0.018020678 0.016383912 -0.006192127
000140 b9 0b 34 bb 9e a3 42 bb 28 ce 9b bb b2 e1 8a 3c
       -0.0027472808 -0.0029699574 -0.0047548003 0.016953323
000150 20 a1 3e 3b 92 e0 36 3c e7 5c 77 bb 10 5b 13 3c
       0.0029087737 0.01116194 -0.0037744583 0.008993879
000160 33 f6 4c 3c 71 c3 6c 3c bb bc 82 3c 74 dd 24 bc
       0.01250987 0.014450894 0.015959134 -0.010062564
000170 af cc 12 3b 82 24 c5 bc ea c1 ac 3b a4 a1 3f bd
       0.0022399833 -0.02406526 0.00527214 -0.046785012
000180 17 d6 80 bc a1 68 fe bb 4a 87 cf 3b cf 83 96 bc
       -0.015727086 -0.0077639376 0.0063332664 -0.018373398
000190 cc 2c fa 38 11 21 b3 3c 22 9a fe 38 2c 5f 74 39
       0.00011929273 0.021866353 0.00012140373 0.00023305108
0001a0 40 e2 ee bc a8 ab e3 3b c7 69 1a 3c ea 08 c7 3c
       -0.029160619 0.0069479533 0.009424633 0.024296243
0001b0 d3 5f f5 bc e6 b6 11 3c be ca 59 bc 02 ae 86 ba
       -0.02995292 0.008893704 -0.013292966 -0.0010275247
0001c0 c1 a7 55 3d a5 65 30 3d 39 a5 09 bc 04 d5 d4 3b
       0.052161936 0.043065686 -0.008401209 0.00649512
0001d0 95 df 53 bc 9c 20 2f bb 18 2c 1d 3c dd 47 4a bc
       -0.012931724 -0.0026722318 0.009593032 -0.012346235
0001e0 a1 e3 0b 3d e7 49 81 bc 18 6f 63 3b fc fd 47 3b
       0.03415263 -0.01578231 0.0034703668 0.0030516377
0001f0 9a 6e 1f 3c 6a fa ae 3c fb 7b c4 3c b8 68 2b 3c
       0.009730959 0.021359641 0.0239849 0.010461979
000200 52 c4 7b 3b 37 7c d6 3c ca c6 63 bb b8 99 3d bc
       0.0038416577 0.026182277 -0.0034755939 -0.011572294
000210 9f ff 59 3c 2a 87 df bb e6 9e 88 3c 3b 5e 33 bc
       0.013305574 -0.0068215327 0.016677331 -0.010947759
000220 10 9e 53 3b c7 9c 67 3c dc e0 ea bc 74 67 58 bb
       0.0032290258 0.0141365 -0.028671674 -0.0033020647
000230 2a 8e 96 bb 54 7a e3 3c e1 d5 d9 3c 2b b9 a7 bb
       -0.004594584 0.027768292 0.026591243 -0.0051185093
000240 e7 e2 65 3a d7 b5 91 39 dd bb 22 bc 27 4b 1a 3b
       0.0008769468 0.00027792036 -0.009932485 0.002354333
000250 bd cd c3 bb 03 01 82 bc 4f fe cc 3c fa 87 90 3b
       -0.0059754536 -0.015869623 0.025023608 0.004410741
000260 32 85 50 bd c0 c4 4a 3c 8a ea a6 3b 0d 02 30 bc
       -0.050908275 0.01237601 0.005093877 -0.010742676
000270 4a b7 c2 3c 81 3f 6c 39 00 cc 60 3b e7 03 d8 bb
       0.02376904 0.00022530371 0.003430128 -0.006592262
000280 f7 4a a9 ba f4 f6 f4 ba f2 67 03 3b 89 e3 b6 3b
       -0.0012916018 -0.001868932 0.002005097 0.0055813235
000290 91 8d 88 bb 53 79 61 bc 0a 76 c6 bc 2f 33 14 3b
       -0.0041672667 -0.013761836 -0.024226207 0.0022613516
0002a0 88 77 d8 bc 00 7a 0d bd 79 f4 04 3b b5 68 af bc
       -0.026424184 -0.034540176 0.0020287319 -0.021412233
0002b0 fc 2e 15 bc cc c2 fd 3a 8f 2f 94 bc 47 d9 5e 3c
       -0.00910544 0.0019360422 -0.018089084 0.013601608
0002c0 89 c7 63 bc 21 92 11 bb 0a 13 bf 3b 55 60 67 3c
       -0.013902553 -0.0022212344 0.005831127 0.014122088
0002d0 44 be 87 3c b9 e6 8e bb c6 8d 32 bc 6f 16 31 bd
       0.016570218 -0.0043610004 -0.010898059 -0.043234285
0002e0 50 45 d0 bb 72 fd 92 ba 8a a3 51 3c 4c 6b 93 b9
       -0.006355919 -0.0011214449 0.012795338 -0.00028117967
0002f0 04 16 92 bb f3 9d e4 3b e6 19 61 bb 17 4d 42 3c
       -0.004458191 0.006976837 -0.0034347712 0.0118592
000300 e2 55 59 3b 9e a4 11 bc 5e a3 00 bb a4 bc 19 3d
       0.0033162762 -0.008889345 -0.0019628624 0.037533417
000310 ab b8 3f 3d 16 0b a4 bb 24 44 e3 3c 73 b7 c2 bc
       0.046806972 -0.0050062044 0.027742453 -0.023769116
000320 bb 38 45 3c 9d f1 d5 3b 41 b3 5e bb 3d 69 88 3c
       0.012037451 0.0065290467 -0.0033981355 0.016651744
000330 02 30 98 3b 81 4c 2f 3c eb 22 b6 bc 0c 74 78 bc
       0.004644395 0.010699392 -0.022233447 -0.0151643865
000340 9c d4 18 3b 3b 48 8e 3c d4 8d 07 bd b5 32 28 bd
       0.0023320084 0.017368427 -0.033094242 -0.041063983
000350 ae 17 43 3c 7a 1e 2f bd 82 7f f4 bb 77 ca bf bc
       0.011907501 -0.042753674 -0.007461489 -0.023411972
000360 e0 7a 8a ba 5d f5 bd bc d6 76 33 bc 80 0c 84 3c
       -0.0010565184 -0.023188287 -0.010953626 0.016119242
000370 2f a9 07 3c 85 c8 f4 3c 14 77 18 3d 27 08 41 bc
       0.008280083 0.029880771 0.037222937 -0.011781729
000380 d7 09 f3 39 4e ba 21 bc 86 63 b3 3c 73 bd ec 3a
       0.00046355903 -0.009871079 0.021898042 0.0018061831
000390 e3 44 b3 bc 48 6e 19 3b 0d 97 c7 bc 6d de 1f bc
       -0.021883434 0.002341168 -0.024364019 -0.00975762
0003a0 f3 c8 4b 3d dc 2a a1 bc 0f 86 94 3c 89 b1 29 ba
       0.049752187 -0.019673757 0.01813033 -0.0006473293
0003b0 51 94 0c bd 8d 00 7a bc cc ef c7 3c e8 f6 4f 3b
       -0.034321133 -0.01525892 0.024406336 0.003173286
0003c0 60 f6 b4 3c cc c4 87 3c 8f ef f7 3b 36 df 0a bd
       0.022090137 0.016573332 0.0075663994 -0.033904277
0003d0 36 23 8f 3b 36 fb f8 bb 41 cc 5d 3c 77 f2 d4 3c
       0.004368211 -0.007598306 0.013537467 0.025994522
0003e0 21 a3 85 3c c0 eb 84 bc 58 24 a7 3b 2b 6b 2d 3c
       0.016313137 -0.016225696 0.005100768 0.010584633
0003f0 dd 31 3b 3b ba f7 a0 3c 64 48 93 bc 20 0b a5 3c
       0.0028563656 0.019649375 -0.017978854 0.020146906

action_model._continuous_distribution.mu.bias f4 [5]
000000 27 cc ec 3a bf c4 93 3a dc b9 8d ba 5d ff 2b bb
       0.0018066213 0.0011273845 -0.0010812837 -0.0026244738
000010 b2 d4 5b 3b
       0.0033543524

action_model._discrete_distribution.branches.0.weight f4 [5, 128]
000000 f3 29 94 bb 4e 46 a4 3b e2 81 8f bc b0 49 25 3c
       -0.0045216023 0.005013264 -0.017517988 0.010088369
000010 64 7d 73 bc 9d ee b0 bc ed 66 cb bb 3b 90 9c 3c
       -0.014861438 -0.021598155 -0.006207338 0.019111743
000020 c6 2b 02 3d e4 c1 2d 3a 74 cf fa bc 1d 82 92 ba
       0.031780027 0.0006628318 -0.0306165 -0.0011177693
000030 3e ab 2d 3c e3 65 43 bc 91 8e 93 3a 36 36 88 3c
       0.010599909 -0.011926147 0.0011257698 0.016627412
000040 d2 58 0b bd bf bb 5c bc 80 22 ca bc 7a d4 0a bb
       -0.034020253 -0.0134724965 -0.024674654 -0.0021183775
000050 7a 9c 34 bc 4b ee df bc 97 4c bc 3c eb 30 87 3c
       -0.011023635 -0.027335307 0.02298574 0.016502818
000060 c3 40 78 bc d7 a9 fd 3b ea 38 c1 3c a3 96 de 3c
       -0.015152159 0.0077411938 0.023586709 0.027171439
000070 39 4f bc 3c bd ee 14 bc 61 c0 17 3c 85 2a 9a 3c
       0.022986995 -0.009090123 0.009262175 0.018819103
000080 b4 fc 2d bc 43 3f e4 bc b6 e4 e0 bb 68 04 5f bc
       -0.010619331 -0.027862197 -0.006863202 -0.01361189
000090 9c 9f 46 3b bf 77 35 bc ab 9c 85 bc 5b c5 12 bc
       0.0030307537 -0.011075913 -0.016310057 -0.008958186
0000a0 bf 66 b1 3c ac 3c 15 3c 02 df 44 39 00 6f 98 bc
       0.021655438 0.009108704 0.00018775093 -0.018607616
0000b0 fc a3 94 bc 56 82 ab bc 34 75 06 bd 54 c5 8e 3c
       -0.0181446 -0.020936172 -0.032826617 0.017428078
0000c0 ec 35 ab bc f9 70 ec ba 83 70 86 bc 3e 02 5d 3b
       -0.020899735 -0.001803904 -0.016411072 0.003372326
0000d0 8b d4 fc bc ad 18 81 bc bc d6 13 bc ae 7b 8d 3c
       -0.030863067 -0.015758837 -0.009023365 0.01727089
0000e0 24 c8 05 3a 8c 7c 2f 3c 28 e4 e4 bc 30 d0 0d bb
       0.00051033706 0.010710847 -0.027940825 -0.0021638982
0000f0 13 ef b2 3c 37 04 d2 bc 30 45 b7 3c ba f2 9c bc
       0.021842515 -0.025636775 0.022371858 -0.01915871
000100 47 54 c5 bb 61 f8 12 bb df 1e 22 bd 0c 53 0c bd
       -0.0060220095 -0.0022425877 -0.039580222 -0.034258887
000110 b9 67 b3 bb e2 a6 a7 3c 13 d6 75 ba da 93 1c bc
       -0.005475011 0.020465318 -0.0009377908 -0.009556735
000120 0a 91 a1 bc e0 4c c3 bc 0b 4e 47 3c e9 48 ae ba
       -0.01972248 -0.023840368 0.012164603 -0.0013296875
000130 15 29 9b ba 92 a7 81 3b 16 30 13 bd 3a 05 e4 3b
       -0.0011837805 0.0039567435 -0.03593453 0.006958631
000140 b5 af 97 3c b9 72 64 bc 0d 8c a7 bc b6 63 45 bc
       0.0185164 -0.013943368 -0.020452524 -0.012047699
000150 42 d1 e6 3b ce a1 2f 3c 5c e8 14 bc e4 bc ae bb
       0.0070439884 0.01071973 -0.009088602 -0.005332576
000160 0c 02 07 bc ed 96 e8 bb 34 e1 97 38 b0 91 6f 3b
       -0.008240234 -0.00709807 7.2421884e-05 0.0036555342
000170 09 ec 96 bc 74 be 42 bc 74 93 70 3c 49 cc e5 bb
       -0.018423097 -0.011886228 0.014683593 -0.007012878
000180 16 c0 95 bb eb 87 de bc 92 86 26 3d 36 4e 36 bc
       -0.0045700176 -0.02716442 0.04065568 -0.011127045
000190 6d 05 9d 3c 74 2a 39 3a 15 a0 3d 3b f4 22 b8 bc
       0.019167626 0.0007063516 0.0028934528 -0.022477604
0001a0 59 6d c9 bb de aa 6b 3c af df a0 bb 92 ac 50 3c
       -0.0061470685 0.014384 -0.0049094777 0.0127364565
0001b0 22 d0 80 bc b1 05 8c 39 c2 75 e1 bc 61 47 01 bd
       -0.015724245 0.0002670712 -0.027521972 -0.031562213
0001c0 31 b5 f8 ba c3 88 ca 3c 63 a3 8d bc 40 01 b5 bc
       -0.0018974898 0.024723416 -0.017289823 -0.022095323
0001d0 b4 0c de 3b 08 d6 66 bc 6e 77 5f 3c ee c4 71 3b
       0.0067764167 -0.014089115 0.013639314 0.003689106
0001e0 82 67 e5 bc 50 7e 1c 3c 64 60 08 ba 94 82 21 3d
       -0.028003458 0.0095516 -0.00052023516 0.03943117
0001f0 4b af 7c 3b d6 5f e4 bc 8b 99 8f 3c bf 6e 24 bb
       0.0038556631 -0.02787773 0.01752927 -0.0025090424
000200 9f 3d dd 3b 09 33 e1 3b 50 fd 63 ba 7e f4 dd 3b
       0.0067517306 0.006872539 -0.00086971093 0.0067735305
000210 41 2e 88 bc 22 ae 8f 3b 68 f6 ea 3c 8c f2 51 3c
       -0.016623618 0.004384772 0.028681949 0.012814175
000220 98 b7 0f 3c 4a 3a ad bb 23 68 f3 bc a5 d0 fb 3b
       0.0087717995 -0.0052864896 -0.029712742 0.0076847845
000230 1b 1e 07 3c a4 e5 6d b9 0c 74 7e 3c 79 4c 4b 3b
       0.008246924 -0.00022687629 0.015530597 0.0031020923
000240 dc c7 15 bd 8f 21 ab b9 e5 aa 8c 3c 2e 84 e4 3a
       -0.036567554 -0.00032640665 0.017171333 0.0017434412
000250 e3 be ac bc 0f b4 33 3b c6 c5 07 ba d3 48 3b 3d
       -0.021087116 0.0027420556 -0.0005179312 0.045723747
000260 bc f3 35 3c 28 dc 91 3a c1 fd 86 3b 38 31 83 bc
       0.011105474 0.0011128234 0.0041196053 -0.01601468
000270 e4 5e 7a 3c c1 a1 18 3c 16 4f ed 3c 18 82 40 3b
       0.015281413 0.009315909 0.028968375 0.0029374417
000280 ab 09 f4 bc 37 04 fe bc 85 1b 32 bc f9 9b bd bc
       -0.029789766 -0.03100787 -0.010870819 -0.023145663
000290 df d7 80 3c b4 b8 65 bc 23 dc 14 bc 90 97 45 b9
       0.015727935 -0.014021087 -0.009085688 -0.00018843845
0002a0 28 b1 0f bb 9f b5 4b ba 90 4e c5 3c 31 e4 89 3c
       -0.0021925662 -0.0007770899 0.024085313 0.016832443
0002b0 4c 32 b8 bc 6d ed 17 bc 95 ba c2 bc af 28 c2 ba
       -0.02248492 -0.009272915 -0.02377061 -0.001481315
0002c0 6b 34 85 b8 67 bc f3 bb d6 d8 8d bc fd 56 2d 3c
       -6.351698e-05 -0.007438231 -0.01731531 0.010579822
0002d0 c4 46 19 bd 07 35 c4 bb 61 61 2a 3c e2 2b 12 bc
       -0.037421003 -0.0059877667 0.0103991935 -0.008921595
0002e0 18 81 a5 39 11 51 77 3a ba cd f6 bc b7 59 4a 3c
       0.00031567435 0.0009434382 -0.030127395 0.012350491
0002f0 2e 6d c3 3b 1c c5 ed bc a0 95 cf 3b 2e 67 01 bd
       0.005963943 -0.029024653 0.0063349754 -0.03159254
000300 e7 11 b1 bb 14 8a 33 3b b9 db 0d bd 72 92 69 bc
       -0.0054037455 0.0027395533 -0.034633372 -0.014256107
000310 3e 3d 9d bc c2 bd 14 3c 0d 32 76 bc 49 84 1b 3c
       -0.019194242 0.009078445 -0.0150265815 0.009491988
000320 f6 80 9d ba 0e 82 d4 bc 67 54 24 bb f4 94 fd 3a
       -0.0012016583 -0.025940921 -0.0025074722 0.001934676
000330 66 f1 54 3c 36 44 92 bb cf 1a c7 bc dd 5a 26 bc
       0.012997007 -0.004463698 -0.024304776 -0.010153499
000340 0e 23 80 3c 39 0a 42 bb c5 88 6e bc 7d cf 24 3d
       0.015641715 -0.0029608144 -0.014558976 0.04023694
000350 db d8 e0 3b b8 e6 4c bb 8e 70 42 bc e3 ab 18 3b
       0.0068617887 -0.0031265449 -0.011867655 0.0023295812
000360 12 b3 2a bc 06 52 ec 3b a4 50 21 3c 54 30 34 bb
       -0.01041867 0.0072119264 0.009845886 -0.0027494626
000370 7c bb d2 bc 22 a5 6f bc 75 7b ac 3c 45 41 58 3c
       -0.025724165 -0.014626773 0.021054963 0.013199155
000380 ed 83 0a 3c 92 72 1a bd 53 1c f3 3c 84 ad b2 bb
       0.008454305 -0.03770692 0.029676592 -0.0054528136
000390 eb 28 59 bc 06 22 a9 3c 01 80 ad bb 0a 49 7b ba
       -0.0132543845 0.020646106 -0.0052948003 -0.0009585774
0003a0 ed a8 b4 bc e5 23 d1 bb 51 2f 79 bb 90 21 43 bb
       -0.022053206 -0.006382453 -0.0038022588 -0.0029774643
0003b0 a6 e9 ce 3b b3 e9 6a 3b 83 ee 5d ba 5d 1b 5e bc
       0.006314474 0.0035844862 -0.0008466022 -0.013556329
0003c0 fa de d5 39 a5 6f e6 3a c6 0f 9b 3c 5f 70 51 3a
       0.00040792656 0.001758088 0.01892842 0.0007989462
0003d0 12 ca a2 ba 24 b1 eb 3b a4 df 87 3b 34 44 41 3b
       -0.0012419841 0.0071927477 0.004146533 0.0029490115
0003e0 84 47 b8 bc c4 6c e6 3b 31 b7 43 3c 42 0d d7 3c
       -0.022495039 0.007032009 0.011945532 0.026251439
0003f0 c3 7f 98 3b a6 7b a6 3b 0b f2 8a 3c 76 ad e1 bc
       0.0046539023 0.005080658 0.016961118 -0.027548533

action_model._discrete_distribution.branches.0.bias f4 [5]
000000 c1 12 b1 3c c2 b8 a9 3c 04 4d 34 3c fc 64 89 3c
       0.021615388 0.020717982 0.01100469 0.016771786
000010 1d a0 20 bd
       -0.039215196
