results/shortRays/Tank/Tank-368271.onnx (onnx, 111582 bytes, 9 tensors)

network_body._body_endoder.seq_layers.0.weight f4 [128, 64]
00000000: 8522 3bbe 718f a93e 7bb1 393d fe7a 843c
00000010: f064 113e 0fb3 c5bd df6d d93e 4f03 fc3d
00000020: 6081 333d 62d4 6e3d 0909 1b3d 8d11 3a3d
00000030: bb91 2a3e b907 6c3d 2ed5 5c3d 0e2d 88be
00000040: f56b 393c cc34 98bd 2aef 01be d5c8 10be
00000050: 5297 fcbc 008e 5b3c 66c7 87bd 2e2e 9dbd
00000060: efe2 85bd 6dff 7bbc d259 583e e97c 96bd
00000070: 2c08 b83c 65c9 56be a1fb 383e df66 ec3c
00000080: c4ea fcbd 5b02 413b 746a 2e3e 0d09 c3bd
00000090: 94db 9a3e 7eae 113d 2e1d 463e d559 7a3d
000000a0: 6b47 cd3d 5fea 3b3e 80e0 493e 848f 0b3e
000000b0: 2857 513e 74d2 f13d 30db 823c 3a63 3c3e
000000c0: 20d2 68bb 3b09 e7bd e20f 503c e572 0c3e
000000d0: 1540 50be d09c 943d 20aa 203e 9f8c d33d
000000e0: 7145 36be 7ed1 23be 0878 b4bd d38d 863e
000000f0: e135 f43d 32e3 e73d 53e6 843d 8465 063e
00000100: 2046 afbd 2ee3 813d de3a 1bbe 7fae 85bc
00000110: bfe3 673d aa13 0d3e 78b5 323e 4a8e debd
00000120: 2cad c83d 2a8c 23be db76 4d3d eb7c 8f3d
00000130: a6c8 123d 58ec 383e 7993 4fbe 6b87 7cbc
00000140: f529 2d3d 10f5 753e ca07 51bb 4946 473d
00000150: a0e1 a7bd 4c6d ba3d 75ce 3fbd 6b25 8c3d
00000160: 1873 843d 4a6a 27bd 336e 91bd 5c73 533e
00000170: f742 19be 5f92 8b3d 9da4 94bc fb87 03bc
00000180: 4fe0 f2bd 97c1 c2bc d52b debc e7ab 9e3c
00000190: fdb4 263e b7a7 dc3e 438e 27bd 6ab5 c0bd
000001a0: 01f6 5cbd aa4a 7d3d 0242 f13c ac45 d3bd
000001b0: 3e3d cfbd b123 cc3d 45b0 c93d 8b7f a7bd
000001c0: 1cb7 17bd 6420 0a3d 52f1 e9bd fb51 07be
000001d0: 3141 ed3c 4a70 c73c 4a41 f53d 7dee 9b3d
000001e0: 68b7 373e 83bf 1b3e 2afb ae3c 5fc5 e9bd
000001f0: 84c5 4e3c 8ed2 ee3c 5b1a a43d d984 a0bc
00000200: fdf3 003e fb39 163d 72e5 8c3b f75d c4bc
00000210: c927 1f3e 313e c83d a014 f6bd 9880 8cbe
00000220: 592a d4bb d5cb 1ebd 62dd 07be e100 03bd
00000230: 4b7c a738 25f0 893d 13e4 5bbe b9ce 2f3d
00000240: 400a 353e 82d1 14be cdc7 41be 41f8 073e
00000250: 8c28 81bd bdca 14be 9e2f cbbd cbd3 f03d
00000260: 81b5 69bd 802a 293e 2365 19bd a1be 833d
00000270: 63e7 1bbd 4ec5 33be d09c 8f3e a988 fbbd
00000280: 9428 163e 0a36 04bb 641f 6bbc dbbe 82bc
00000290: 1ddf 823c a89f 60bc 08b0 b9bc e2f6 273e
000002a0: 3f36 253c 41fe cf3d dc39 15bd 2611 ae3d
000002b0: 3e91 0d3e c100 9e3c 8081 123d 0007 ac3e
000002c0: 6598 bdbd b472 05be 227d ca3d 8d2c 063e
000002d0: 012d 063e d753 8ebc 8b90 2e3e 86be 7ebd
000002e0: 70a5 56bd 26bd c5bd fb6b 883d 8ba5 933d
000002f0: f8cd 22bd 24b0 5a3e 8501 933d 9117 84be
00000300: 8140 bfbd 3aa1 62bd 3dd4 51be 302d f83d
00000310: 86f6 103e 6e5c dd3d 1586 a9bc 62ed 4e3e
00000320: 87cf 053e 8f88 c43d 64fc b1bd fefb 353e
00000330: ff15 fbbd 95c0 29be e999 05be b3cd 0ebe
00000340: ed9a 9a3e 9b4b 5ebd 3817 3bbe 0577 443c
00000350: cda0 673c 6107 a23d 7353 913e 453f 30bd
00000360: 9ad5 8abd a13c 01bd 1ac5 50bd 9dcc 2cbd
00000370: b7c7 a6bd 4977 0abc 712e 00be 73a1 203e
00000380: 3bcc a43d 988a 9abc cd07 1abd d103 b83d
00000390: ea1a 02be 65d8 f73c 8230 b73d f6e6 973c
000003a0: ae0f 3f3d 831e 2d3d f516 14be ae12 14bd
000003b0: 965f 62bd 792a 323e 8f5e 57be 6464 cbbd
000003c0: 82ae eebd 5207 8c3c 5f1c 49bd 3f54 8a3b
000003d0: cdfb 283c cf91 803d 1a1f a6bd d7ed 5cbc
000003e0: 13e9 07be 706e e93d aea0 14bd f6d7 85be
000003f0: 0c5b cebc c9a8 44be 0907 2f3d 18bc 2b3d
-0.18274887 0.3311725 0.045335274 0.016171928 0.14198661 -0.09653293 0.42466637 0.123053186
0.043824553 0.058308013 0.037850413 0.045426894 0.16657154 0.057624552 0.05391424 -0.26596874
0.011317243 -0.07431945 -0.1268889 -0.14139111 -0.030833874 0.013400555 -0.06629829 -0.07674824
-0.06537425 -0.0153807225 0.21128014 -0.073480435 0.022464834 -0.20975263 0.18064739 0.028857647
-0.123494655 0.0029450867 0.17032796 -0.09523211 0.3024565 0.0355668 0.19347069 0.061120827
0.100233875 0.18351124 0.19714546 0.13628966 0.20443404 0.11807719 0.015973657 0.18397227
-0.0035525635 -0.112810574 0.012699099 0.13715704 -0.20336945 0.07256472 0.15689898 0.10329556
-0.17799927 -0.15997884 -0.08811957 0.26280078 0.11924339 0.11322631 0.06489243 0.13124663
-0.08558297 0.06342159 -0.15159175 -0.016318558 0.05661368 0.13777032 0.17452037 -0.10866983
0.09798655 -0.15971437 0.050162178 0.07006248 0.035835885 0.18058908 -0.202711 -0.015413146
0.04227634 0.24019265 -0.0031895512 0.048651014 -0.081973314 0.09102878 -0.046827752 0.068430744
0.06467265 -0.04087285 -0.07101097 0.20649475 -0.14966951 0.068150274 -0.0181449 -0.008028026
-0.1185919 -0.023773951 -0.02712051 0.019369079 0.16279979 0.43096706 -0.040907156 -0.09409602
-0.053945545 0.061838783 0.02945042 -0.10316023 -0.10119103 0.09967745 0.09848074 -0.08178624
-0.03703986 0.033722296 -0.11422981 -0.13214867 0.02896175 0.024345536 0.119753435 0.076138474
0.17941058 0.15209775 0.021359999 -0.11414599 0.012620334 0.029153135 0.080128394 -0.019594597
0.12593074 0.03667639 0.004299813 -0.023970587 0.1554252 0.09777487 -0.12015653 -0.2744186
-0.006474775 -0.038768608 -0.13268045 -0.03198326 7.986332e-05 0.06735257 -0.21473722 0.042921755
0.17679691 -0.14533046 -0.18923874 0.13278295 -0.06306562 -0.14530464 -0.09921192 0.11759146
-0.05705786 0.16520119 -0.037449967 0.06432844 -0.038062464 -0.17555735 0.28049326 -0.12281925
0.14663917 -0.0020173811 -0.014350746 -0.015960148 0.01597553 -0.01370994 -0.022666946 0.16402772
0.010083734 0.10155917 -0.036432132 0.084993646 0.13824937 0.019287469 0.035768032 0.3359909
-0.092575826 -0.13032037 0.098871484 0.13102932 0.13103105 -0.017373962 0.17047326 -0.062193416
-0.052403867 -0.09655218 0.06661221 0.07209309 -0.03974721 0.21356255 0.07178024 -0.2579923
-0.09338475 -0.05532954 -0.20491119 0.12117994 0.14156541 0.10808645 -0.020693818 0.20207742
0.13067447 0.09596359 -0.08690718 0.17771909 -0.12260055 -0.1657737 -0.13046993 -0.13945656
0.30196324 -0.05427132 -0.18270576 0.011991267 0.014137459 0.07911564 0.2838398 -0.04302909
-0.067790225 -0.03155196 -0.05096922 -0.042187322 -0.08143561 -0.008451291 -0.12517716 0.15686588
0.08046766 -0.018864915 -0.037605096 0.08985103 -0.1270558 0.030254552 0.08944799 0.018542748
0.046645813 0.042265426 -0.14461882 -0.036150627 -0.05526694 0.17399015 -0.21032165 -0.09931257
-0.116543785 0.017093334 -0.049099322 0.0042214687 0.01031394 0.06277811 -0.08111401 -0.01348444
-0.13272505 0.113980174 -0.03628605 -0.26141328 -0.025189899 -0.19205011 0.04273132 0.041927427

network_body._body_endoder.seq_layers.0.bias f4 [128]
00000000: 6cc5 6b3d c1d4 5f3c 8bdb e13c 8531 e73c
00000010: b8e5 5e3c b7c1 84bb 3344 523c f2b2 ab3c
00000020: 612a e93c b4d0 1dbb 2f80 c3bc 0d4c f33b
00000030: 3e28 b3bc ecd2 3a3b a98a 8a3c 8fe6 aa3b
00000040: b01a 863c 2315 213c 4bc5 893c 4550 f93c
00000050: 0cae 40bb 66e6 3cbc e359 3f3c 026a 0d3d
00000060: 954c d83c e4b7 1b3c f24a 4b3d 979e 243d
00000070: ee9b e23b 74fe 263d e02f 1f3d d9c9 3f3b
00000080: 1424 91bc c433 463c e885 f03c b3c2 b03b
00000090: 1f01 cdba 6f31 a53c f46e b43c 33ff 813c
000000a0: 4b9f 913b 61ee 073c e7fd c93c 7c06 603d
000000b0: efb2 613b 354a 553d 80af 783c 9c3d e8b8
000000c0: 0ac7 4f3a 26b2 f53c 509e 353c c2eb 353d
000000d0: 2d8a 4d3c 7d7f 09bd 47fa 033c d4a5 3bbc
000000e0: 0c9f 4d3d 640a 46bc f03d 1dbc d80b 0d3b
000000f0: 8322 0f3c ed78 14bd 1af4 5f3d c1cb 2d3d
00000100: c8bd 053b 2a49 43bc 13c2 69bc 25d9 ab3c
00000110: 1041 c8bb 100d 26bc 34ed 97bc ccbe 263d
00000120: 4479 873c c5da 1b3b da2e 9cbb 2351 a43c
00000130: 18d7 45bb b869 8db9 d1ed de3c daa8 643d
00000140: e911 763b 13b1 e13c b1d1 513c 8310 b7bb
00000150: 67e5 c93c 27ed d3ba 5d58 183d 2c5f 543d
00000160: a3cf 0c3c d4d5 313d 9c61 a23c d5a6 6dbb
00000170: 4e24 d3bc 67c9 123d 3d02 d2bb 1d45 f9bb
00000180: 5454 083c a83e b3bc 47a0 603d f9ee ad3c
00000190: 0518 6bba 1cfe a73b afe8 4c3d e4a0 c93c
000001a0: c991 d039 3e99 803b b356 b8bb 16c8 c33c
000001b0: e0de 6fbc aa96 e13c fecc 073c 7e50 143c
000001c0: 6cb1 173c bea6 783c 471c 963c ed71 aa3a
000001d0: f305 a43c 3a66 a53a a2e2 a5bc e8d1 daba
000001e0: dc0c dfbb 0a69 693a c0b7 bb3c fdc8 683b
000001f0: 6772 ac39 6a68 ee3c dc4e 9b3c ebc5 6939
0.057561323 0.013661564 0.027570507 0.028221855 0.013604574 -0.004051413 0.012833643 0.020959351
0.02846259 -0.0024080696 -0.023864834 0.0074248374 -0.021869775 0.0028507067 0.016911821 0.005215473
0.016370147 0.0098317 0.01681771 0.030433783 -0.0029400615 -0.011529541 0.0116791455 0.034524925
0.026403705 0.009504292 0.04963202 0.040190306 0.006915561 0.04077001 0.038864017 0.0029264598
-0.017717399 0.012097303 0.029360726 0.0053943037 -0.0015640593 0.020165173 0.022025563 0.015868759
0.004444038 0.00829658 0.024657203 0.054693684 0.0034438928 0.052072722 0.015178561 -0.00011074098
0.00079260825 0.029992174 0.011085108 0.04441429 0.012545151 -0.033568848 0.008055276 -0.011453111
0.050200507 -0.012087438 -0.009597287 0.0021521952 0.008736256 -0.036248136 0.054676153 0.042430643
0.0020407308 -0.011919299 -0.014267462 0.020977566 -0.0061112717 -0.01013495 -0.018545724 0.0407093
0.016537316 0.002378152 -0.0047663273 0.02005822 -0.003018802 -0.00026972382 0.02721301 0.055825092
0.0037547296 0.027550256 0.012806342 -0.005586685 0.02464552 -0.0016168699 0.037193645 0.051848575
0.008594426 0.043416813 0.019821934 -0.003626277 -0.025774147 0.035836603 -0.006408958 -0.007607116
0.008320887 -0.021880463 0.054840352 0.021232115 -0.0008968118 0.0051267277 0.050026592 0.024612851
0.0003978147 0.003924518 -0.0056255697 0.02389912 -0.01464054 0.027537663 0.00828862 0.009052394
0.009258609 0.015176473 0.01832403 0.0013003923 0.020022368 0.0012618967 -0.020249669 -0.0016694637
-0.006806953 0.00089038967 0.022914767 0.003552019 0.00032891633 0.029102523 0.018958502 0.00022294342

network_body._body_endoder.seq_layers.2.weight f4 [128, 128]
00000000: d8c7 25be 3b85 b2bc 9589 cfbb 6d51 12bd
00000010: ce71 18be 7c07 243c 1569 903d c808 2ebe
00000020: a61c ee3d f8d1 b6bd fd87 f53c 7642 06bd
00000030: aa41 983d a75b 533c 0ef8 2a3e a67e 133e
00000040: 8f56 b6bd 782f cebd d451 253d d3ba 8336
00000050: 7efe 7abd dda5 7c3d 8be3 02be 1766 f53c
00000060: bef5 eabc 3a65 c43c ff70 d83c 2ec0 fabd
00000070: d1bf b23c f49b 5bbd 54bf 193e 66e3 6b3c
00000080: 2a55 babc a1f1 603d 6720 3e3c 5386 28be
00000090: 1e4d 0cbd 273b 44bd 5b5a 45bd d5bc 1dbe
000000a0: 03a1 22bd 1614 f9bd be73 e2bd 31e1 293d
000000b0: d80d 66bd fc4a b93c b17c a6bc 567d a6bc
000000c0: e1a3 8b3d 7050 1b3e 4163 3cbd 73cf 69ba
000000d0: c062 863d bb4b 8bbd 6c8e d73c 194a 91bb
000000e0: 2f49 35bd 97f8 4b3d ffcf 553c 426b febd
000000f0: 720f e9bd 7a2f 863c 0d31 af3d ebf0 c63d
00000100: f9fb 86bd 1c58 333d 85cc 7bbd b2ba cb3d
00000110: 04ed d33d 6f76 a6bd 9e4a 2abe aec0 66be
00000120: 07c8 5abc a87b 0cbd f72a 4fbd 4176 f23c
00000130: 0c25 bcbd 982a 313d 8f6f aabd e8c2 bfbd
00000140: 8102 df3d 7a6b 9b3d a28c adbc fa86 893c
00000150: 67ca 6a3c 49d8 033e 3972 b0bd cf5e 9d3d
00000160: 3e27 16bc fe5b 253c f7be 2ebe b3f4 193d
00000170: 1475 05be 0670 0bbd e0b8 c43b 372c a1bb
00000180: 2c1d cfbd d994 79bd 733b 07be a17e 19bd
00000190: 6ba5 f03d 2cb3 7bbd d1b9 2b3e c8fd 8dbd
000001a0: b2b3 1e3e cda1 78bd 8541 babb e377 0ebe
000001b0: 51f2 6b3b 4a2f 70bd d14f 62bd e0f0 15be
000001c0: f682 753c 39ce e03b c249 013e aa11 093e
000001d0: 9b55 d9bc 0b92 e9bd 687b 61bd 25c5 c7bd
000001e0: e936 44bc e38c 19bd 0ec7 e53d bc87 3b3d
000001f0: bd56 7a3d 399f ca3d 0c10 133c 8757 d9bd
00000200: df2f bc3d 5dae e2bd cffa 80bd ca19 b53d
00000210: 8110 c93b ece2 26bd 24c8 d93d 7a75 04be
00000220: 4d68 0f3e d7bb 93bc 19e0 c33d b11f b6bd
00000230: a28a 8fbd 30f5 f93c 5137 4dbd 0b3d cfbc
00000240: 9b45 70bc 9d1e ecbd c9e8 ce3d 1ebf 933d
00000250: 7df5 273e 6d94 9f3b cd5e 1b3e aeb1 453d
00000260: 0aa8 8bbd 385c a1bd 99d8 d03d b767 d3bb
00000270: 0f86 cb3c fde2 cbbd d9f7 863c f52d 19bd
00000280: e1c5 39bc afa4 ce3b d059 93bd e191 833d
00000290: a6b9 89bd e89b 69bd 45d5 113d cd7d 0d3e
000002a0: 4d51 3bbd dc55 d53d dfb6 623c 1ec7 9dbd
000002b0: e1bd 223e d1df 00bd 6e8b e23d 4202 833d
000002c0: 8de6 b73d 77d6 af3d cc43 0abe fd01 64bd
000002d0: e140 49be 822d b63c 6acf 05bd 78d4 c2bb
000002e0: 8753 00bd 234f 073d 881b 053d fd1e 4bbe
000002f0: d36a fdbb 4cff 563d 4280 0ebd 7996 d83c
00000300: e3af b2bc cca8 873d 0c2b 0fbb 3e2c e63c
00000310: ab60 98bb bd8b 5dbc 16df d5bc 2dc6 d0bd
00000320: 40b1 98bd b4ca ef3c e788 74bd 3509 96bd
00000330: ec0a af3d c82a 68bc 363d 92bd 861a 3e3d
00000340: b385 a1bc 1b82 c53c 1cfd 80bc d801 9b3d
00000350: 7de1 93bd b5e4 24be 524c ca3d bf7c 0ebd
00000360: e253 1fbe 62f5 193e a2a0 89bd 2410 e13d
00000370: 862c 0ebc 7ab8 423d eda6 083e 1362 65bd
00000380: 2f00 093d 3def 13bd 015c 2fbd 9ca5 dd3d
00000390: bce8 4dbe 65f2 483e 8757 df3c 4e1c e0bd
000003a0: 0641 f8bb 6a87 72bd 3323 60b6 6598 1abe
000003b0: 3f81 91bd 1aec a6bd cecd be3b 1193 c6bc
000003c0: 880a 95bd 0c13 febd 9163 e8bc 162a c43d
000003d0: 73ad ed3c 25ba 403d 7684 e23d dc84 7e3d
000003e0: 2bac 693d ad12 1c3e 3376 35bb 0cd7 73bd
000003f0: 4df9 9e3d e0a0 a83c cb32 2bbd 7768 8c3c
-0.16189516 -0.021792045 -0.0063335397 -0.035722185 -0.14887163 0.01001155 0.07051293 -0.16995537
0.11626558 -0.08926767 0.02997207 -0.032778226 0.074343994 0.01290027 0.16696188 0.14403781
-0.089032285 -0.10067648 0.04036124 3.9258534e-06 -0.06127786 0.061681617 -0.12782113 0.029955907
-0.028681632 0.02397405 0.026421068 -0.122436866 0.02181998 -0.053615525 0.15014392 0.014397478
-0.022745688 0.054917935 0.011604405 -0.1645749 -0.034253232 -0.047907975 -0.048181873 -0.15404065
-0.039704334 -0.12162034 -0.11057232 0.041474525 -0.056165546 0.022618763 -0.02032313 -0.020323437
0.06818367 0.15167403 -0.045993093 -0.0008919157 0.06561804 -0.06801554 0.02631303 -0.004433882
-0.044259246 0.04979762 0.013050078 -0.124228016 -0.11379899 0.01638006 0.085542776 0.0971392
-0.06591029 0.0437852 -0.061474342 0.09947719 0.103479415 -0.08128058 -0.16630027 -0.22534439
-0.013353354 -0.034297615 -0.050578084 0.029597403 -0.09186754 0.04325351 -0.08322059 -0.09363347
0.108891495 0.07588859 -0.021185223 0.016787995 0.014330483 0.12875475 -0.08615536 0.07684099
-0.0091646295 0.010092733 -0.17065035 0.03758688 -0.13032943 -0.03404238 0.006003484 -0.004918601
-0.10112986 -0.060932968 -0.13206272 -0.03747428 0.11750301 -0.06145017 0.16770102 -0.069331706
0.15498236 -0.06070118 -0.00568408 -0.1391292 0.0036002586 -0.05863885 -0.0552519 -0.14642668
0.014984837 0.006860521 0.12625793 0.13385645 -0.026530078 -0.114048086 -0.05504933 -0.09754399
-0.011975982 -0.037487876 0.11219607 0.045783743 0.061117876 0.098936506 0.008975994 -0.10612398
0.09188818 -0.110684134 -0.06297838 0.088428095 0.0061360006 -0.040743753 0.10633877 -0.12935439
0.14004631 -0.018033905 0.095642276 -0.088927634 -0.07008864 0.030512422 -0.050101582 -0.025297662
-0.014665033 -0.115292765 0.10102994 0.07214187 0.1640224 0.0048699887 0.15172882 0.04826515
-0.0681916 -0.078789175 0.10197563 -0.0064515728 0.024844198 -0.09955404 0.016475605 -0.037397344
-0.011338682 0.006306253 -0.07194865 0.064243086 -0.06724863 -0.05703345 0.03560378 0.1381752
-0.04573183 0.10416767 0.013837545 -0.07703994 0.15892746 -0.031463448 0.1106175 0.06396915
0.08979521 0.08585828 -0.13502425 -0.05566596 -0.19653656 0.022238497 -0.03266851 -0.0059457384
-0.031329658 0.033034455 0.03249696 -0.1983604 -0.0077336817 0.052489564 -0.034790285 0.026438938
-0.021812385 0.06623992 -0.0021845726 0.028097268 -0.0046501956 -0.013522086 -0.026107352 -0.10194049
-0.07455683 0.029271461 -0.059700873 -0.07325975 0.08547005 -0.014170356 -0.07140581 0.046412013
-0.019717073 0.02410989 -0.015745692 0.07568711 -0.07220743 -0.1610287 0.09877838 -0.034786936
-0.15559343 0.15035012 -0.067200914 0.10989407 -0.008677607 0.04753921 0.13344927 -0.056001734
0.03344744 -0.036116827 -0.04281235 0.10822603 -0.20108312 0.19623716 0.027263416 -0.10942899
-0.007576111 -0.059211172 -3.339909e-06 -0.15097196 -0.0710473 -0.081505015 0.0058228737 -0.024240049
-0.07277399 -0.12405977 -0.02836779 0.0957834 0.029013371 0.04705252 0.11060421 0.062138423
0.057048958 0.15241499 -0.002768886 -0.059531257 0.07762394 0.020584524 -0.041796487 0.017139656

network_body._body_endoder.seq_layers.2.bias f4 [128]
00000000: 9787 20bd 2240 c9bb 7813 b93c 1908 48bb
00000010: 67e9 51bc 4442 223b 9618 233c 3b1a 513d
00000020: 566d 293c 7e9e 4a3c a9d0 fa3a 8e40 ef3a
00000030: e0d9 30ba 5fe2 443d 05df 4939 79cb 823c
00000040: 1124 103d 93b6 83bc b06f debc e3fa 473c
00000050: 5639 bc3c f6b7 15bc c5d9 6cbc 9377 57bc
00000060: 9826 f9ba 5966 15bc 16d4 40bb fbb3 023d
00000070: 343c 993c ee6e e53b 8f8d 983b 3519 043d
00000080: 3752 a93a 00f6 843c de86 c63c 8133 163d
00000090: b40a 0f3c 0731 5cbc e2af 393b 9aaf 8e3c
000000a0: 5812 d6bc 9ab0 91bc 82b9 1f3b b52b b6bc
000000b0: a24f 5bbc 87bb 1fbc 1684 bc3c 6d88 793b
000000c0: 5e41 903c 9aa7 68bb 800e ff3c e64a b4bc
000000d0: afa9 0d3d ecc7 b0bc c2af 483d 08fd c13b
000000e0: 6488 053d 0f79 073c 5316 fe3c c33e 0abc
000000f0: d674 ae3c a447 36bc 3d06 9cbb d4f6 95ba
00000100: 9cc5 ecbc cf75 6a3c 426b 913c 7c44 59bb
00000110: 9aaa a83a 78e8 c73b 4c5e fe3c 36ff 21bd
00000120: fc83 8ebb 9c1b 3d3c 429c 9d3c 3756 c8bb
00000130: b223 05bc 4284 533b ed70 9abb 67ab 123d
00000140: 7769 473d 44a6 2ebc 134e b8ba 3786 d5bb
00000150: 962b 503b f141 3c3d bd9e 473a 592a 19bb
00000160: 98e9 a4bc 5477 a7bc 46b9 243c ba8e b63c
00000170: 1bed 1bbc f2b6 21bc 984b 1fbc d883 c8bc
00000180: 3bdc fcbc b228 6ebc 9f9c 353d 7b30 073d
00000190: 4b5d fcbb 93a5 aabc 9f73 9dbc 8636 1c3c
000001a0: 8d10 d13c 8e3a ce3c 87b5 09bd 8eb1 c5bc
000001b0: fea8 42bc 2787 aa3b 0c84 d439 533d dfba
000001c0: 452c 2c3b 9292 803d a807 a3bc af3d 2c3c
000001d0: 565a 443c 61e0 4c3d b66c 273d 9c9c bd3c
000001e0: 2b29 e2bc 1c60 45bc 83ed 4e3c 7c68 a63c
000001f0: f769 fb3c 597c 02bc ae9f c03c c1ec 6f3c
-0.03919181 -0.0061416784 0.022592291 -0.0030522405 -0.012811995 0.0024758736 0.009954592 0.051050406
0.010341009 0.012366889 0.0019135672 0.0018253492 -0.0006746333 0.048067447 0.00019251935 0.015966164
0.035190646 -0.01607827 -0.027152866 0.012205812 0.022976559 -0.009138098 -0.014456217 -0.013151067
-0.0019008694 -0.00911864 -0.0029423288 0.031909924 0.018705465 0.0070017492 0.004655547 0.0322506
0.0012918179 0.016230583 0.024234232 0.03667021 0.008730579 -0.013439423 0.0028333594 0.017417718
-0.026131794 -0.017784405 0.0024372046 -0.022237638 -0.013385685 -0.0097493 0.023012202 0.00380757
0.017609295 -0.003550029 0.031134844 -0.02200837 0.03458565 -0.021579705 0.04899574 0.0059200563
0.032600775 0.008268609 0.031016504 -0.008437815 0.021295946 -0.011125479 -0.004761486 -0.0011441358
-0.028902821 0.014310314 0.01775134 -0.0033152392 0.0012868226 0.0061007105 0.031050824 -0.03955003
-0.00434923 0.011542227 0.019239549 -0.0061137932 -0.008126186 0.0032274877 -0.004713169 0.035807993
0.048684563 -0.010659758 -0.0014061354 -0.006516244 0.003176426 0.045961324 0.00076149014 -0.0023371188
-0.020130917 -0.020442642 0.010053938 0.022284854 -0.00951698 -0.009870278 -0.009722613 -0.02447693
-0.030866733 -0.01453607 0.04433882 0.03300522 -0.007701551 -0.020830905 -0.019220171 0.009534484
0.025520587 0.025174405 -0.033620384 -0.024132516 -0.011881111 0.0052040997 0.00040534174 -0.0017031826
0.0026271504 0.06277956 -0.019901112 0.010512753 0.011984428 0.050018672 0.04087516 0.023145966
-0.027607521 -0.01204684 0.012629869 0.020313494 0.030690176 -0.007964217 0.023513641 0.014643849

action_model._continuous_distribution.log_sigma f4 [1, 5]
00000000: e4df 423c 771c 5c3c 6b4a cc3b 5fbb 893b
00000010: 434d d23c
0.0118942 0.013434521 0.0062344573 0.0042032446 0.025671607

action_model._continuous_distribution.mu.weight f4 [5, 128]
00000000: 5cd0 033b 8a02 5c3c fe5b 06bb ef19 4b3c
00000010: f3b3 a8bc e8ff e2b9 5056 47ba faf8 e73b
00000020: 26a6 53bc c613 97bc 5f4b 10bd c478 c0bb
00000030: 14a5 7aba fb1b 89bb fa6d cb3b 3e67 3c3b
00000040: f238 2a3c c6a9 5b3a 8328 b43b ba15 fd3c
00000050: 091c 02bd 030c 95bc 62e3 cb3c 4830 053c
00000060: 03a7 1abc d291 393c 1bb3 6fbc 6a88 16bd
00000070: ae08 f23c 40af c03c ae9c 63bc 6042 153b
00000080: dde7 073d eb33 04bc aab5 a4bc 7c91 b43b
00000090: 309d 12bc 708c a0bc c66a 113c cee6 4e3b
000000a0: f9e2 dcba f70e 183d 4660 623b 4f11 393b
000000b0: bb2c 30bc 078f dfba f06e 153c ec14 ccbc
000000c0: 4939 1a3c 370c 88bb a2f9 fc3b dc70 0d3c
000000d0: 93dd f43b b574 a43a 9b4a a6ba bc2f e73c
000000e0: 1b88 46bc 5e2d 2f3c 224f 013c a978 c6bb
000000f0: 7599 003b d227 3f3b 5581 823c b913 bdbc
00000100: 2808 6e3c 43f2 2dbd 9773 8abc 988a 3f3c
00000110: 4b8d ed3a 1e22 cebc a420 7cbb 2943 fbbb
00000120: 09dc b73c 8881 263c 7e80 063c 418c 8abc
00000130: 84a5 b0bc 8c6a 8dbc 7b6f 993c 3883 583b
00000140: 2c33 ba3b 867d 90bb 2b12 9ebc 850b 3f3c
00000150: 65a1 1f3d e749 943c cf78 993b ccd5 85bb
00000160: 26f2 253d 8403 3d3d 5b3e 03bb 079c cdbc
00000170: 36ae c23c b8a8 5dbc 3938 283b 063e a53c
00000180: 5c4a eb3c afcd 3c3b 9be4 a73c c4cd 1ebb
00000190: f063 263c fe58 1a3d 576f d53c ce1d eb3c
000001a0: e3bc b1bc cc40 443c eb54 693c e948 543c
000001b0: 4ca5 c9ba c03f c53b 1bfd 70bc 60da 813c
000001c0: 6b3b 92bb 7dd7 07bc 9161 223c 5b85 933c
000001d0: dc0a cab9 52f7 a6bc b65b 2ebb f09d 51bc
000001e0: 4f51 fa3b a0ee ab3c 6714 72ba 4b88 0ebd
000001f0: ec98 fa3b b26b e33c 4c8b bfbc 8f7a a4bc
00000200: 7454 2abc bbc2 803c 8ab5 b73b 4e67 1b3b
00000210: a9e3 823c 050a 06bc cac7 59bc 0247 893c
00000220: 4ab4 bf3c 6ad4 0bbc 6ec8 133c 5b4a 173b
00000230: 035a 04bd d04c 973c 6ff9 13bd b07c 85ba
00000240: cfc8 56bc 6e03 423c be87 6a3c 625f e0bb
00000250: 0bfd 27bc da7f 47ba 30f1 5bbc e121 54bc
00000260: 369a 79bc f04b 90bb 4db2 c3bc c9db c03c
00000270: 78a7 8f3b 3047 6f3c d507 19bd dac8 9bbc
00000280: 91eb f9bb 6645 a23b 7704 2f3c fc3a f0ba
00000290: 0fd9 f33c 0066 cf3b 302d a83c f42f 52bb
000002a0: c15c 2ebc c1cf 373d fc47 ca3c 3e50 393c
000002b0: 88c7 0abc d5fd 4dbc 5a35 8c3c 42d1 0ebd
000002c0: be07 ebbb 3b91 a43b 990e b3bb 8787 163c
000002d0: 160b f03b e1bf 8a3b e044 4d3a c246 e7bc
000002e0: 2361 cb3a 2ddc 013d 9213 d5bc b495 57bc
000002f0: e2c5 d6bc c144 733c 0107 1abc ed94 7d3c
00000300: f477 7f3b 08f0 f13b 1b74 6d3d 5e20 d73c
00000310: 4ad6 0fb9 c79b 3e3c 6382 7dbb 0fc0 403c
00000320: b5c6 cdbc c8b3 39bc c733 c7bb 519e 6e3c
00000330: c478 f03c 008f f7bc bce8 83bc 5307 2dbc
00000340: 965a fd3b fdc2 0cbc 19d6 433c e51e cd3c
00000350: 1542 033c 3e4b 05bc 7c45 70bc b5dc 0ebc
00000360: 75ea 93bb 7c7b 1a3c 220a 5cbc caac 99bc
00000370: 32b3 843b 69bb d4ba 07bb c9bb e186 bbbb
00000380: 1609 5f3a 37c1 bcbc 9798 153c ff3f a1ba
00000390: 7003 ce3a 5fb2 853c bd20 133c 6c32 b53a
000003a0: c856 afbb b426 f03c 8d8d 28bc 8ab1 8bbb
000003b0: b26d 1d3d af31 b53b 2714 8fbc c2db dbbc
000003c0: 19bb fb3c c3db 98bc fa36 0abb bf3e e33b
000003d0: 5ec2 6ebc 977d d03b 2769 81bc 583d 9bbb
000003e0: e278 053d 47c9 0a3b 8a90 edbb 4370 bf3c
000003f0: c776 9abb 2a36 94bc 0d37 a13c d868 1b3c
0.0020113206 0.01342834 -0.002050161 0.01239632 -0.020593619 -0.00043296744 -0.0007604109 0.007079241
-0.012918031 -0.018442046 -0.03522813 -0.0058737714 -0.0009561342 -0.0041842437 0.0062081786 0.002874806
0.010389553 0.0008379485 0.0054979934 0.03089415 -0.031765018 -0.018194204 0.024888698 0.008129187
-0.009439233 0.01132627 -0.014630104 -0.03675119 0.029545154 0.023521066 -0.013892336 0.0022775158
0.033180106 -0.008069019 -0.020106155 0.005510507 -0.008948609 -0.019598216 0.008875554 0.0031570676
-0.0016852311 0.037123647 0.0034542247 0.0028239076 -0.010752852 -0.0017056175 0.009120688 -0.02491232
0.009413072 -0.0041518467 0.0077201882 0.008632865 0.007472703 0.0012546988 -0.0012687029 0.028221004
-0.012117411 0.010691969 0.007892402 -0.0060568643 0.0019622718 0.0029168022 0.015930811 -0.023080694
0.014528312 -0.042467367 -0.01690082 0.011690758 0.0018123774 -0.025162753 -0.0038471604 -0.007667918
0.022443788 0.010162719 0.008209346 -0.016912581 -0.021563299 -0.01726272 0.018729916 0.0033037197
0.0056823697 -0.004409495 -0.019295773 0.011660461 0.038972277 0.018101646 0.004683591 -0.0040843245
0.040514134 0.04614593 -0.002002618 -0.025098814 0.02376471 -0.013528995 0.0025668277 0.020171177
0.02872198 0.002880912 0.02049475 -0.0024231533 0.010155663 0.037682526 0.026054068 0.028700735
-0.021696514 0.011978339 0.014241437 0.012956836 -0.0015384345 0.0060195625 -0.014708783 0.0158512
-0.0044626496 -0.0082911225 0.009910957 0.018007925 -0.00038536533 -0.020381603 -0.0026604957 -0.012794003
0.0076390873 0.020987809 -0.00092346076 -0.034797948 0.0076476242 0.027761314 -0.023381852 -0.020077972
-0.010396112 0.015717855 0.005606358 0.0023712697 0.015977697 -0.0081811 -0.013292262 0.016757492
0.023401398 -0.00853453 0.009019954 0.002308509 -0.032312404 0.018469244 -0.03612655 -0.0010184254
-0.0131094 0.011841638 0.01431459 -0.006847308 -0.010253201 -0.0007610299 -0.013424203 -0.0129475305
-0.015234521 -0.0044035837 -0.023888731 0.023542302 0.0043839775 0.014604375 -0.037360985 -0.019016672
-0.0076269587 0.0049521206 0.010682217 -0.0018328126 0.029766588 0.006329298 0.02052936 -0.003207204
-0.010642231 0.044875864 0.024692528 0.011310635 -0.0084704235 -0.012572725 0.017115284 -0.034867533
-0.007172554 0.0050221956 -0.0054643867 0.009187586 0.0073255403 0.0042342995 0.00078303926 -0.028231982
0.001551662 0.031704117 -0.026010308 -0.013158251 -0.026217405 0.014847935 -0.009401084 0.015477401
0.003898141 0.0073833503 0.057972055 0.026260551 -0.00013717372 0.01163382 -0.0038682453 0.01176454
-0.025119165 -0.011334367 -0.0060791704 0.014564113 0.02935446 -0.030219555 -0.016102187 -0.010560828
0.007731746 -0.008591411 0.0119529 0.025039146 0.008011361 -0.008135615 -0.014665004 -0.008719613
-0.0045140334 0.009428855 -0.01343015 -0.01875915 0.004049682 -0.0016230169 -0.0061563286 -0.005722866
0.0008508129 -0.02304135 0.009130619 -0.0012302398 0.0015717577 0.016320406 0.008979973 0.0013824231
-0.0053509213 0.02931533 -0.010287655 -0.0042631077 0.03843469 0.0055296044 -0.017465664 -0.026838187
0.030728864 -0.018659478 -0.0021089897 0.00693497 -0.014572708 0.0063626277 -0.01579721 -0.0047375374
0.032585986 0.00211771 -0.0072498964 0.02336896 -0.0047138664 -0.018092234 0.01967957 0.009485446

action_model._continuous_distribution.mu.bias f4 [5]
00000000: 68dc d4bb 6f91 b53a cfb8 3fbb add1 dbbb
00000010: 183f a73b
-0.006496001 0.0013852547 -0.0029254442 -0.006708345 0.005103957

action_model._discrete_distribution.branches.0.weight f4 [5, 128]
00000000: 981e eebc 1dd4 023d 5b4d c23b 34ff 21bb
00000010: 2c77 6cbc 8e1f 14ba 0d0f f13b ea07 98bb
00000020: 110b e73b f223 833c 2596 623b 5c36 ee3b
00000030: ca94 2e3c 2d20 543c 3f80 713c 81fb 203d
00000040: a006 cc3c bc77 a9bb ec5b edbc b33f b43b
00000050: 78ce c03c 52cd 1b3c a40c 103b 511e 06bc
00000060: a070 9fbb f530 143b aefd 38ba 037d 4d3c
00000070: 6f90 b63c 00d0 26bc 0b26 ba3b 7a75 113c
00000080: 218b c5bb c3c2 04bd 89a2 e43b bbdd 573c
00000090: 41c5 8a3c 5bb2 25bc 7b00 80bc a64a cfba
000000a0: 317f a63c d982 8cbb 1131 1d3c d9b4 0dbc
000000b0: 9264 aaba 6f8e e93c 3211 373c a48a b2bb
000000c0: bf5a 423c 23b1 2f3c 2150 e539 2512 96bc
000000d0: 5d3b a73c 4a7d 373b 0eb1 f13c 5508 94bb
000000e0: 6227 293b 2ec4 0cbc 6b97 63bb 83db 00bc
000000f0: f6cd 6a3b 9e4a 89b9 90e9 763c 5ac1 d43b
00000100: 9545 90bb 54c6 1dbb 1759 0e3d c4b7 dab8
00000110: 3d8c 4e3b b80d 1f3c 40d6 843c 20bf 8bbc
00000120: 7dae 3d3a 6815 ae3c 2646 283c fa4a 1abc
00000130: 9183 8ebb bc90 573c f640 e93a 9dac 7c3c
00000140: a281 3e3c 09ea 3e3c f4b3 a6bb cc7f 4d3c
00000150: a12d 36bd ec3d 503c 4353 b93b 7c4a 2b3c
00000160: adc2 18bc 402a 9ebc 2479 193b 7f63 903c
00000170: 24b8 173c 462f 593c 3a50 743b 0d1d e4bc
00000180: 1dd0 02bd 3bf4 29bd 4e25 af3c 9c74 ee3b
00000190: 085f 183c 3fb3 d3bc 4022 54bc 8e3c 183c
000001a0: 6c80 dab8 7262 0b3c 71c2 f4bc 5215 00bd
000001b0: d672 b3bc f2af 7d3c ba83 163c 7aee 813b
000001c0: c698 ad3b e952 b23c 9d6a 053c e78a e73b
000001d0: 584e fbb9 6dd9 a93c 497f 003b 3e25 023c
000001e0: a304 97bc e467 7ebc 985a 0e3c bdc9 97bb
000001f0: ec17 323c 053e c63b d305 c83b 28d5 743c
00000200: a0b6 77bc 94fe 4f3b e784 dc3c bcce 81bb
00000210: 41c7 923b 7cb0 383c 939b 9e3b f011 ab3b
00000220: 05aa 603b 1ea5 263c 8d7a 72bb 2056 243b
00000230: 2f6a 1c3c b8ce e53c b6e8 843c 39c0 9e3c
00000240: f0fd a43c 74a2 983c e843 d2bb 917c 493a
00000250: 72b0 a43c 4837 883c f64a 9abc 99e0 81bb
00000260: 471c 813c 78d1 5438 3b49 583a 2fee 713c
00000270: f73d b53b 746d 1f3c f8b5 10bc e68e 14bc
00000280: 5511 693b 000d 0dbc 3d04 503a 0513 a83c
00000290: 12c9 473c 86a7 92bb c7e0 383c 5206 b03c
000002a0: 0440 a63c a375 61bc e6ee 033c bfc7 9a3c
000002b0: f35b 833c 0c75 603c bf17 9b3b 3499 f0bc
000002c0: 4720 2cbb edf6 57bb 928e 02ba 4cef ff39
000002d0: 16f8 a33b d265 973a 54d8 cd3b faf9 26bc
000002e0: 1439 c7bb 6151 d33b 5fc5 1c3c db1c debb
000002f0: c9ce 923b aef5 2bbc 2995 5e3b f6f7 253c
00000300: d53c 853c e410 c03c ca44 f0bb 697a b43b
00000310: c685 4b3c 7b2c aabb 9822 833c 8831 16bb
00000320: 1cb4 35bc 5bac 86bb 91cb e63b f1ce 8fbb
00000330: 10f8 343c 6791 7e3c 8394 15b9 dac2 9e3c
00000340: 98fc 053b f0d3 abbc 6cc7 133b 6d6e d73b
00000350: 7332 ddbc eb11 cb3c f317 393c 320b d13a
00000360: 70dd 903c 3780 09bc 5e4f 153b 617d 3c3c
00000370: 1072 973b d21e f03a 5453 d1bb cea6 88bc
00000380: f0a5 543c 11a8 b0bc 02fc 973c d14b be3b
00000390: 8e0e 63ba a996 1fbc 9594 b1bb 8c48 913c
000003a0: c41d 083b c9c4 533c 810c c5bc e483 043b
000003b0: 9fb2 7fbc 257f 0d3c a07d cc3b 9608 27bc
000003c0: 66d7 8939 efdc f53c 473b f0ba 12ac 4cbc
000003d0: 49df da3b c5ee c73c e0a1 8c3c ffc1 6cbc
000003e0: be85 8b3b 3e11 d1b9 6e6c 2a3c 885a 553c
000003f0: 3daa e03c 8eae a93b 8312 be3a 41ba 273b
-0.029067323 0.03194057 0.0059296316 -0.0024718763 -0.01443271 -0.0005650454 0.0073565305 -0.0046396153
0.0070508798 0.016008351 0.0034574356 0.0072696637 0.010655591 0.012947124 0.014740049 0.039302353
0.024905503 -0.005171744 -0.028974496 0.0055007576 0.023535952 0.009509401 0.002198019 -0.008185939
-0.004865721 0.0022612188 -0.0007056844 0.012542012 0.022285668 -0.010181427 0.0056808046 0.008878106
-0.0060285483 -0.0324123 0.0069773835 0.013175423 0.016939761 -0.010113324 -0.01562523 -0.0015815094
0.020324321 -0.004288059 0.009594218 -0.0086490745 -0.0012999943 0.0285103 0.011173533 -0.005448656
0.011862456 0.010723385 0.00043737984 -0.018319199 0.020414049 0.0027998262 0.029503372 -0.004517595
0.0025810828 -0.008591695 -0.0034727703 -0.007864836 0.0035828329 -0.0002618627 0.015070334 0.006492776
-0.004402826 -0.0024074512 0.03475293 -0.00010429279 0.0031516694 0.009707861 0.016215444 -0.017058909
0.00072357786 0.021250442 0.010270631 -0.00941729 -0.00434918 0.013157066 0.0017795849 0.015422014
0.011627587 0.011652478 -0.00508737 0.012542676 -0.04447711 0.012710076 0.0056556775 0.01045477
-0.009323758 -0.019307256 0.0023418153 0.017625568 0.009260211 0.0132559 0.0037279264 -0.027845884
-0.031936754 -0.041492682 0.021380093 0.0072770845 0.009300001 -0.025842307 -0.012947619 0.009291781
-0.000104189705 0.008507358 -0.029877873 -0.031270333 -0.021905344 0.015483843 0.0091866795 0.003965196
0.005297753 0.02176805 0.008143094 0.007066119 -0.0004793282 0.02073356 0.0019607118 0.00794345
-0.018434828 -0.015527699 0.008688591 -0.0046322034 0.010869961 0.006049874 0.00610421 0.014943399
-0.015119225 0.0031737434 0.026918842 -0.0039614122 0.0044793193 0.011272546 0.0048403232 0.005220644
0.0034281027 0.010171203 -0.0036999315 0.0025075749 0.0095468005 0.028052673 0.016224246 0.019378768
0.020140618 0.018632151 -0.0064167865 0.00076861033 0.020103667 0.016627923 -0.018834572 -0.0039635417
0.015760554 5.073982e-05 0.0008250658 0.01476626 0.0055310684 0.0097306855 -0.008832447 -0.009067273
0.003556331 -0.0086090565 0.0007935202 0.020516882 0.012193935 -0.0044755368 0.01128406 0.021487389
0.020294197 -0.013760957 0.008052563 0.018894074 0.016035056 0.013699781 0.0047330554 -0.029369928
-0.0026264356 -0.0032953576 -0.0004980351 0.0004881568 0.0050039394 0.001155073 0.006281892 -0.010191435
-0.0060798023 0.00644891 0.009568541 -0.006778342 0.004480217 -0.010495586 0.0033963418 0.010129919
0.016264359 0.023445554 -0.007332419 0.0055077565 0.012422031 -0.0051932908 0.016007707 -0.0022917707
-0.011090305 -0.004109902 0.00704331 -0.004388683 0.011045471 0.015537596 -0.00014265072 0.019380022
0.0020444747 -0.020975083 0.0022549285 0.006574443 -0.027001595 0.024788817 0.011297214 0.0015948771
0.017683715 -0.008392385 0.0022782902 0.011504502 0.0046217516 0.0018319732 -0.0063881073 -0.016681101
0.012979016 -0.021564515 0.018552784 0.005807378 -0.00086615316 -0.00974051 -0.0054193237 0.017734788
0.0020769695 0.012925335 -0.024053814 0.0020220215 -0.015606551 0.008636271 0.0062405616 -0.010194918
0.0002629116 0.030012576 -0.0018328213 -0.012492197 0.0066794497 0.024405846 0.017167032 -0.014450549
0.0042578867 -0.00039876433 0.010401828 0.013022073 0.027424926 0.0051782792 0.0014501367 0.0025593194

action_model._discrete_distribution.branches.0.bias f4 [5]
00000000: 71b1 c33c 4a02 343c 5e1a 0a3d 25c5 db3c
00000010: 41b6 5ebd
0.023888322 0.010986874 0.033716552 0.026827404 -0.05437303
