results/shortRays/Tank/Tank-277595.pt (torch, 635120 bytes, 42 tensors)

network_body._body_endoder.seq_layers.0.weight f4 [128, 64]
0.13906486 -0.028823538 -0.017417695 -0.046751715 -0.25148782 -0.07264867 -0.0019694418 -0.116787106
-0.012803879 -0.07275991 0.14488795 -0.06849134 -0.073428564 -0.0036583596 -0.09542966 -0.14567673
-0.08044953 0.04207114 0.1346661 -0.283381 0.12029751 -0.03025804 0.18752602 -0.03218015
0.018672999 -0.067316 -0.13120705 0.0005029824 0.028760334 -0.045544486 0.19571568 -0.14854342
0.08215832 -0.052342985 0.060645122 -0.22398698 -0.0011631834 0.08701793 0.015485532 -0.05633275
0.0011384377 0.12596823 -0.04410218 0.04349786 0.072086625 -0.18704937 -0.054302007 -0.17175388
0.11585818 0.1659566 0.1062011 -0.14872666 -0.14065999 0.20988204 -0.08526346 0.11754009
-0.020158932 -0.043199994 -0.014804269 0.036132257 0.02639643 0.006906062 0.06088515 -0.042877614
-0.06664965 0.03748225 0.082948536 -0.18413344 -0.08356168 0.06281034 0.036141165 0.1622221
0.055528443 -0.036295414 -0.104460694 -0.01836363 -0.016480343 -0.15059699 0.13867237 0.10588257
0.20085368 -0.0077968654 -0.039865717 0.008865222 0.009961411 0.062069513 -0.028251212 -0.06018187
0.06214446 -0.008682351 -0.10061225 0.1660875 -0.10272556 0.22128066 0.027202046 0.04531772
0.1405337 -0.138781 0.04014206 -0.074133664 -0.03181615 -0.0024682137 0.045385536 0.019978352
0.098198205 0.08314648 0.12703814 0.15733337 0.12547533 -0.101073176 -0.069449686 0.01849493
-0.0015090324 0.07964763 0.058758557 0.14747436 0.070109405 0.17228478 0.18802899 0.1033
0.09003246 0.19322358 -0.030326385 -0.118108414 -0.041764174 -0.15019296 0.14885822 0.04853186
0.049789127 0.14332023 0.027343726 0.17449798 0.00043842997 0.0003261572 0.041662067 -0.1134738
0.120430484 0.036634136 0.08750621 0.33350882 0.16874413 -0.022771347 -0.14481878 0.06510745
0.10930788 0.051269602 -0.14127187 0.074606426 -0.20109391 -0.19242698 -0.07068905 -0.27388003
-0.053190615 0.039806854 0.20325883 -0.086071715 -0.049886525 0.027605139 0.18417034 0.007697456
-0.13942888 -0.08014261 -0.15976661 -0.059035804 -0.12535018 -0.0651889 -0.02371456 0.2952146
0.33538416 -0.13931827 0.18156905 0.14150201 -0.047321536 -0.05797897 0.029336486 0.063663155
-0.10471953 -0.007328193 0.050403755 -0.0035164927 0.114023276 0.041710455 -0.4441204 -0.06717944
0.16153304 0.02354953 -0.03451262 0.10386538 -0.21175274 0.20223983 -0.03311034 -0.013908955
0.053807657 -0.2217951 -0.19105956 -0.1514237 0.18804626 0.06651649 -0.18227273 0.03878219
-0.3369029 0.10025681 0.017898737 0.009240179 -0.029436078 -0.060569324 -0.08737594 0.29082203
0.081291735 0.1374954 -0.16312127 -0.08522683 -0.12419783 0.0017889114 -0.015255628 0.20755494
-0.037154082 -0.05636026 0.006939515 0.13119586 0.09469026 -0.117724985 -0.07828498 -0.05845147
0.13004398 -0.091938265 -0.1291504 -0.11262029 0.07890895 0.09807458 -0.087313734 -0.022292936
-0.0036148583 -0.114781976 -0.17024517 -0.022427045 -0.020931246 0.056385595 -0.08574946 -0.10455982
0.07710957 0.09849929 0.10695825 -0.06692608 0.057712276 0.022837093 0.25774935 0.09208216
-0.010840811 -0.030928858 0.0026932866 0.05393715 0.09847276 -0.011762555 0.015885286 -0.013813448
00000000: 0567 0e3e 571f ecbc 8eaf 8ebc ba7e 3fbd
00000010: 03c3 80be d3c8 94bd c011 01bb 142e efbd
00000020: 5cc7 51bc 2603 95bd 825d 143e 3045 8cbd
00000030: b761 96bd 17c1 6fbb a070 c3bd 482c 15be
00000040: b9c2 a4bd ca52 2c3d e9e5 093e 5017 91be
00000050: 8a5e f63d b6df f7bc d206 403e 55cf 03bd
00000060: 1ef8 983c f9dc 89bd 245b 06be 94da 033a
00000070: cb9a eb3c db8c 3abd b169 483e c41b 18be
00000080: 9f42 a83d 9965 56bd 0567 783d d85c 65be
00000090: f575 98ba 7536 b23d 07b7 7d3c 2bbd 66bd
000000a0: a137 953a d1fd 003e 7da4 34bd d02a 323d
000000b0: 27a2 933d df89 3fbe c86b 5ebd 40e0 2fbe
000000c0: 0e47 ed3d 87f0 293e f67f d93d cd4b 18be
000000d0: 2c09 10be 51eb 563e 9c9e aebd dcb8 f03d
000000e0: 5824 a5bc 7af2 30bd 9b8d 72bc 6bff 133d
000000f0: 533d d83c 3f4c e23b b562 793d 70a0 2fbd
00000100: 9d7f 88bd fd86 193d ece0 a93d 7a8d 3cbe
00000110: 6322 abbd b5a2 803d c208 143d 8d1d 263e
00000120: cb71 633d 80aa 14bd 7def d5bd 536f 96bc
00000130: c901 87bc 1936 1abe 2100 0e3e f6d8 d83d
00000140: 96ac 4d3e d97c ffbb 3c4a 23bd 703f 113c
00000150: 3035 233c 9a3c 7e3d 166f e7bc 4481 76bd
00000160: 308b 7e3d 6b40 0ebc cc0d cebd d712 2a3e
00000170: c761 d2bd 6697 623e d3d6 de3c 139f 393d
00000180: 11e8 0f3e 9b1c 0ebe 006c 243d 64d3 97bd
00000190: a751 02bd c1c1 21bb 2fe6 393d a4a9 a33c
000001a0: 241c c93d b448 aa3d 4916 023e 001c 213e
000001b0: 9b7c 003e 74ff cebd a33b 8ebd ae82 973c
000001c0: baca c5ba 4c1e a33d d0ac 703d 8503 173e
000001d0: 8595 8f3d 6c6b 303e ac8a 403e f38e d33d
000001e0: f062 b83d 67dc 453e 0a6f f8bc d3e2 f1bd
000001f0: e910 2bbd 2fcc 19be 4a6e 183e 58c9 463d
00000200: afef 4b3d 8ac2 123e f3ff df3c 99af 323e
00000210: 13dd e539 1400 ab39 d8a5 2a3d f464 e8bd
00000220: 42a4 f63d ad0d 163d 7536 b33d abc1 aa3e
00000230: 43cb 2c3e fa8a babc 604b 14be 0e57 853d
00000240: cfdc df3d 1300 523d 93a9 10be 41cb 983d
00000250: 90eb 4dbe 940b 45be 6cc5 90bd 013a 8cbe
00000260: 67de 59bd 830c 233d 1523 503e 5e46 b0bd
00000270: d055 4cbd 2c24 e23c 2697 3c3e f13a fc3b
00000280: 72c6 0ebe cf21 a4bd dc99 23be 87cf 71bd
00000290: cc5b 00be c281 85bd 0945 c2bc 5e26 973e
000002a0: 79b7 ab3e 73a9 0ebe 3ded 393e e7e5 103e
000002b0: 3ad4 41bd 5b7b 6dbd 1253 f03c d461 823d
000002c0: 3177 d6bd 5721 f0bb 2b74 4e3d f574 66bb
000002d0: 0985 e93d 95d8 2a3d c063 e3be 6095 89bd
000002e0: eb68 253e f2ea c03c 1b5d 0dbd 5fb7 d43d
000002f0: b6d5 58be f517 4f3e b59e 07bd 63e2 63bc
00000300: 6b65 5c3d 411e 63be 1ea5 43be d00e 1bbe
00000310: 338f 403e cc39 883d b4a5 3abe 13da 1e3d
00000320: 897e acbe 7153 cd3d 5fa0 923c 1f64 173c
00000330: ee23 f1bc 8a17 78bd 28f2 b2bd a0e6 943e
00000340: 487c a63d 98cb 0c3e 4309 27be 678b aebd
00000350: 6f5b febd e879 ea3a bef2 79bc 4889 543e
00000360: e12e 18bd 04da 66bd df64 e33b 3558 063e
00000370: f8ec c13d cc19 f1bd e053 a0bd cf6a 6fbd
00000380: 402a 053e 214a bcbd 0140 04be 77a5 e6bd
00000390: 049b a13d 53db c83d 8bd1 b2bd ad9f b6bc
000003a0: 42e7 6cbb d012 ebbd c054 2ebe ecb8 b7bc
000003b0: 0178 abbc 95f4 663d 6a9d afbd 7523 d6bd
000003c0: 9feb 9d3d ffb9 c93d ed0c db3d 8a10 89bd
000003d0: b563 6c3d db14 bb3c b9f7 833e 9295 bc3d
000003e0: a89d 31bc 845e fdbc da81 303b 33ed 5c3d
000003f0: 16ac c93d bbb7 40bc dc21 823c cd51 62bc

network_body._body_endoder.seq_layers.0.bias f4 [128]
-0.005938376 0.018115753 0.015195819 -0.0022763258 0.03398838 -0.026391465 0.020825932 0.01209369
0.017838007 -0.013162724 -0.008460652 0.029864704 0.0062049683 0.017081767 0.005413951 0.010529777
-0.0010548403 0.011865759 0.010619715 -0.0016425624 0.031845205 0.050628945 0.058738768 0.027696071
-0.03710268 -0.001679883 -0.011952703 0.0167118 0.0092677 0.0101002045 0.035037614 0.040581096
0.0301931 -0.0037448292 0.03228385 0.019638946 0.044242658 0.0028816964 0.025886355 0.009517276
0.021702027 0.0059251944 0.02216802 0.014228866 -0.028220497 -0.02268372 0.027199503 -0.004653161
0.017111905 0.0094332695 -0.008605211 0.007878546 0.0149479 0.0024502792 -0.005569425 -0.0122591555
0.017360074 -0.0075916285 0.05898714 -0.004676127 0.046818644 0.012878667 -0.0025227298 0.0001810853
0.013299756 0.028897628 0.024347946 -0.031224877 0.022526218 0.039975826 -0.018477114 -0.0050330544
-0.006615501 -0.0007416691 0.0020554622 -0.018562034 0.03479513 0.0017374882 0.017054215 -0.029347144
0.00879549 0.012284436 0.023581116 0.05009608 -4.880825e-06 0.013203636 0.006465072 -0.015272274
-0.009858645 0.017137285 0.012923348 -0.00066823495 0.019132461 -0.0010829449 0.029334959 0.008164509
0.0055585955 0.022786181 0.0649628 0.015402356 0.024804825 -0.008931717 -0.022620367 0.010419657
0.008799522 0.007504665 0.0503857 0.024227351 -0.001128507 0.018721465 0.03340221 0.02737218
-0.0071719685 -0.007962938 -0.014386202 0.02042558 0.005059006 -0.017293336 0.027778924 -0.018348312
0.012560252 -0.010609297 -0.007141847 0.048050772 -0.004307317 -0.028497536 -0.0017838698 -0.0035981725
00000000: b596 c2bb 7d67 943c e2f7 783c 692e 15bb
00000010: 6637 0b3d ea32 d8bc 259b aa3c 9d24 463c
00000020: 0321 923c 77a8 57bc 8c9e 0abc d3a6 f43c
00000030: 0c53 cb3b 10ef 8b3c 8367 b13b 1685 2c3c
00000040: 9142 8aba 9a68 423c 50fe 2d3c 404b d7ba
00000050: 1e70 023d 4c60 4f3d 1098 703d dfe2 e23c
00000060: fbf8 17bd 852f dcba 45d5 43bc 2fe7 883c
00000070: 8dd7 173c 547b 253c 9a83 0f3d 5d38 263d
00000080: 8557 f73c cf6b 75bb 123c 043d dbe1 a03c
00000090: ca37 353d d8da 3c3b 9f0f d43c 59ee 1b3c
000000a0: 73c8 b13c 2228 c23b b599 b53c 3120 693c
000000b0: ac2e e7bc 35d3 b9bc 7ed1 de3c 8b79 98bb
000000c0: 442e 8c3c 008e 1a3c dffc 0cbc 0415 013c
000000d0: 09e8 743c dd94 203b b97f b6bb a0da 48bc
000000e0: b736 8e3c 32c3 f8bb 809c 713d 323a 99bb
000000f0: e8c4 3f3d 0b01 533c 6254 25bb b7e1 3d39
00000100: 38e7 593c b8ba ec3c 5875 c73c 50cb ffbc
00000110: e788 b83c b1bd 233d 515d 97bc 52ec a4bb
00000120: d8c6 d8bb 926c 42ba efb4 063b 680f 98bc
00000130: 5785 0e3d 6ebc e33a 48b5 8b3c 6c69 f0bc
00000140: f51a 103c a944 493c 2f2d c13c 8c31 4d3d
00000150: f8c5 a3b6 1054 583c f4d8 d33b 8f38 7abc
00000160: 2786 21bc 7e63 8c3c 73bc 533c 7d2c 2fba
00000170: aebb 9c3c 9af1 8dba de4f f03c 6fc4 053c
00000180: e124 b63b 16aa ba3c 370b 853d 2a5a 7c3c
00000190: 7d33 cb3c 5656 12bc 594e b9bc 36b7 2a3c
000001a0: df2b 103c b1e9 f53b 3c61 4e3d 7078 c63c
000001b0: 69ea 93ba c25d 993c c1d0 083d 9f3b e03c
000001c0: d502 ebbb fc76 02bc 1bb4 6bbc 8c53 a73c
000001d0: 05c6 a53b c1aa 8dbc a090 e33c 334f 96bc
000001e0: 84c9 4d3c 9ed2 2dbc 2806 eabb e3d0 443d
000001f0: 6524 8dbb aa73 e9bc bdd0 e9ba 51cf 6bbb

network_body._body_endoder.seq_layers.2.weight f4 [128, 128]
-0.020255689 0.07048605 0.08437385 0.07351635 0.08361149 0.010222064 0.16383651 0.12221338
-0.069696315 -0.07311518 0.015187344 -0.05841021 -0.17753547 -0.23315051 0.069201715 0.21914108
-0.14286742 0.10476193 0.15466735 0.09897426 0.025620501 -0.1216617 0.12591332 -0.058594506
0.02378974 0.039737925 0.16865876 -0.010314914 -0.03759694 -0.059696574 0.0050932146 -0.0954216
-0.13298348 -0.04405135 0.01991555 -0.104354054 0.017140944 0.037061516 0.0040720464 -0.013184492
-0.018352969 0.1363141 0.12528667 0.031087682 -0.13142172 -0.0077822953 0.09196609 -0.03305386
0.06328421 0.07952426 0.06580221 -0.09496545 -0.120618835 -0.083655074 -0.08054288 0.07509606
-0.14106901 -0.026438855 0.16680169 -0.08613237 0.053431455 -0.026722385 0.009354259 -0.06256851
-0.018648636 -0.038040344 -0.049733303 0.0059054177 0.0006627929 -0.07770319 -0.025362577 -0.046483263
-0.06324903 -0.029138414 0.03081736 0.046739582 -0.00644161 -0.011744293 -0.03507598 0.09878255
0.08317312 0.03822201 -0.120928645 0.000830863 0.116867945 -0.07629342 -0.015758162 0.04880073
0.030328972 0.026516004 0.0026664922 -0.02273926 -0.012823508 -0.021180866 0.041212752 -0.010169043
0.025350701 0.0039342693 0.025899427 -0.056180224 -0.05550772 0.0070391363 -0.073850125 0.056173332
-0.12058203 -0.04808471 0.10485501 -0.052195575 0.0075189755 0.030637205 -0.07261122 0.105575226
0.0026309546 -0.015281681 0.15340911 -0.030665698 -0.2166227 0.08623647 0.2071551 0.03534266
0.028750895 -0.075320624 -0.01642023 0.09686442 -0.0025834169 -0.0018637349 -0.0067320927 0.18111634
0.071769774 -0.10704784 -0.30276603 -0.04344174 -0.02226385 0.09471692 0.14927407 0.072833784
0.06219127 0.0060559614 -0.0344223 -0.117236264 0.14339544 -0.03658078 -0.016627401 0.08666423
0.013427431 0.10106906 0.07647494 -0.084182754 0.00965202 0.085756004 -0.069031976 0.1263494
-0.14195229 -0.14698376 -0.10187048 -0.012448339 0.100058466 0.04272305 0.06552561 0.15780094
-0.06370529 0.0014587173 0.109167576 0.026956452 0.21249087 0.075844616 0.048281156 0.018547256
-0.108758 0.02998945 -0.06261829 0.17168361 -0.09088231 -0.05340258 0.042439222 -0.11901697
0.0010874497 -0.22557606 -0.0108390665 -0.055536304 -0.10959661 -0.12943497 -0.16353229 0.12869863
-0.10350742 0.040469505 -0.0026455375 -0.11522546 0.075212374 -0.08988199 0.07130544 0.07141289
0.025826229 0.09306771 0.14136463 0.21630234 -0.06374757 0.053698055 -0.09043307 -0.08571434
0.08004445 0.04807392 0.111109965 0.05972326 -0.037076898 -0.042301405 -0.013830405 0.08863685
-0.026213175 0.10671526 -0.06266447 0.053718384 0.06578976 -0.023438219 0.021538444 -0.014256475
0.024458727 -0.09633731 0.16332978 0.035925146 0.11292494 0.00968837 0.15137473 0.020958323
0.082487494 0.016349973 0.08159557 -0.026874224 0.084811054 -0.027473316 -0.00010234358 0.14796183
0.12576316 -0.006906719 0.11806442 -0.19169122 -0.19692302 0.092905365 -0.15008238 0.021554356
-0.26767114 -0.034297984 0.0043665087 -0.0948118 -0.06484291 0.03784505 0.28204238 0.04154775
-0.040057797 0.014656033 -0.056962367 0.096712016 0.1032876 0.07682824 0.12271992 0.07007683
00000000: 42ef a5bc fd5a 903d 32cc ac3d bd8f 963d
00000010: 803c ab3d 727a 273c c2c4 273e 024b fa3d
00000020: f1bc 8ebd 69bd 95bd 56d4 783c 8b3f 6fbd
00000030: dccb 35be 02bf 6ebe a1b9 8d3d 8566 603e
00000040: d64b 12be 6c8d d63d 1e61 1e3e 04b3 ca3d
00000050: 16e2 d13c c529 f9bd 6cef 003e cb00 70bd
00000060: b3e2 c23c 3cc4 223d e2b4 2c3e e3ff 28bc
00000070: 40ff 19bd 6584 74bd fbe4 a63b 666c c3bd
00000080: d22c 08be 306f 34bd ef25 a33c 94b7 d5bd
00000090: 2a6b 8c3c d1cd 173d cd6e 853b c403 58bc
000000a0: f758 96bc ec95 0b3e 264b 003e 98ab fe3c
000000b0: 6a93 06be a002 ffbb b858 bc3d 7c63 07bd
000000c0: 279b 813d 9ddd a23d 4fc3 863d 3f7d c2bd
000000d0: 0207 f7bd 5a53 abbd aaf3 a4bd f7cb 993d
000000e0: 6574 10be 4c96 d8bc 10ce 2a3e 2b66 b0bd
000000f0: f1da 5a3d e7e8 dabc 9b42 193c eb23 80bd
00000100: 06c5 98bc 31d0 1bbd 26b5 4bbd 3c82 c13b
00000110: 47bf 2d3a da22 9fbd 2ec5 cfbc 3c65 3ebd
00000120: b588 81bd afb3 eebc b074 fc3c 0172 3f3d
00000130: 2414 d3bb 236b 40bc d5ab 0fbd 814e ca3d
00000140: ab56 aa3d af8e 1c3d 70a9 f7bd 46ce 593a
00000150: 7658 ef3d b93f 9cbd 4317 81bc 46e3 473d
00000160: 7774 f83c 1738 d93c 51c0 2e3b af47 babc
00000170: b119 52bc 7f83 adbc b4ce 283d 0f9c 26bc
00000180: 46ac cf3c 0beb 803b 092b d43c 3c1d 66bd
00000190: 105c 63bd 8ea8 e63b bc3e 97bd 0216 663d
000001a0: b6f3 f6bd 79f4 44bd 39be d63d 07cb 55bd
000001b0: bd61 f63b e0fa fa3c 31b5 94bd d337 d83d
000001c0: 186c 2c3b 0460 7abc 4717 1d3e a136 fbbc
000001d0: 57d2 5dbe bf9c b03d 7720 543e 77c3 103d
000001e0: ff86 eb3c b341 9abd b883 86bc da60 c63d
000001f0: 8b4e 29bb 9148 f4ba e398 dcbb 9076 393e
00000200: 08fc 923d e63b dbbd 2604 9bbe f7ef 31bd
00000210: ad62 b6bc f2fa c13d 4ddb 183e e129 953d
00000220: 46bc 7e3d 1671 c63b 66fe 0cbd 9119 f0bd
00000230: 41d6 123e bad5 15bd 3036 88bc 047d b13d
00000240: bafe 5b3c 4cfd ce3d e59e 9c3d 0268 acbd
00000250: 8223 1e3c d8a0 af3d a360 8dbd bd61 013e
00000260: f15b 11be e982 16be 78a1 d0bd 1ef4 4bbc
00000270: 74eb cc3d 5dfe 2e3d 4b32 863d 9296 213e
00000280: eb77 82bd 6e32 bf3a 4093 df3d c7d3 dc3c
00000290: 3597 593e 6c54 9b3d 76c2 453d 6af0 973c
000002a0: 84bc debd 6fac f53c 053e 80bd d4cd 2f3e
000002b0: 8120 babd aabc 5abd c0d4 2d3d 2bbf f3bd
000002c0: c288 8e3a 69fd 66be 5796 31bc 097a 63bd
000002d0: 3074 e0bd 9a8a 04be 0275 27be 93c9 033e
000002e0: b3fb d3bd 5ac3 253d c160 2dbb 53fb ebbd
000002f0: f208 9a3d 0c14 b8bd 9608 923d ec40 923d
00000300: 8791 d33c 499a be3d e4c1 103e 5c7e 5d3e
00000310: 168e 82bd 7ef2 5b3d f934 b9bd 008b afbd
00000320: 58ee a33d 29e9 443d 9f8d e33d 61a0 743d
00000330: f2dd 17bd 3d44 2dbd ec98 62bc 3d87 b53d
00000340: 03bd d6bc 888d da3d 3b56 80bd cf07 5c3d
00000350: c8bc 863d 8201 c0bc 6471 b03c fd93 69bc
00000360: ab5d c83c 7f4c c5bd ec3f 273e 3f26 133d
00000370: 3145 e73d f8bb 1e3c fa01 1b3e cab0 ab3c
00000380: 34ef a83d 61f0 853c 941b a73d 5527 dcbc
00000390: 6bb1 ad3d b80f e1bc 4ba1 d6b8 4e83 173e
000003a0: 0fc8 003e c251 e2bb c2cb f13d b44a 44be
000003b0: 30a6 49be 2b45 be3d 32af 19be c392 b03c
000003c0: 310c 89be 0b7c 0cbd ee14 8f3b b02c c2bd
000003d0: 5ccc 84bd 6903 1b3d dc67 903e f92d 2a3d
000003e0: a513 24bd dc1f 703c 5f51 69bd f310 c63d
000003f0: 7388 d33d 2058 9d3d 9554 fb3d 7184 8f3d

network_body._body_endoder.seq_layers.2.bias f4 [128]
0.0028765644 0.015490155 -0.025971156 0.014845996 -0.028541528 0.0049989745 0.03832003 0.008489114
0.015728861 -0.014488252 -0.0134649 0.0067123896 0.015368355 0.042570073 0.0021302558 0.027263135
0.0354038 0.013119873 0.02353144 -0.008779433 0.014440426 -0.010440125 -0.026589265 0.032283146
0.02470991 0.055551033 0.0007031488 -0.012118632 0.027594525 0.0068369447 0.023096796 -0.01734808
0.025225667 -0.0033213922 -0.021788463 -0.010923738 0.039156955 0.03057326 0.013041771 -0.0080827065
-0.00197453 0.00596358 0.016576882 0.038464054 -0.02759784 0.03328425 0.035270594 0.0040037683
0.028436434 -0.0061321207 0.012601506 -0.012303048 -0.011737476 -0.002226846 0.03630291 0.018344404
0.002957445 -0.022586469 0.003520323 0.030858675 -0.020908698 0.026025197 -0.0069371853 -0.020083448
0.012946538 -0.015516246 0.023729652 0.0016208914 0.021585466 0.041771483 -0.020767309 0.017827699
0.008650125 -0.01204896 -0.00881783 -0.010731659 -0.027474096 -0.004948034 -0.0105790235 0.006504781
0.034922913 0.03356305 -0.023413517 -0.0022215268 0.03551491 -0.014185674 0.0025190725 -0.010976981
0.011792255 0.032614917 -0.009667851 0.034342166 -0.0071864985 0.05084463 -0.014991612 -0.011940865
0.021880643 0.0101792095 0.010120564 -0.005169075 0.0296783 0.024962975 -0.0051200665 -0.007054494
-0.014077335 -0.0072385357 0.043597747 -0.021068383 0.055396322 -0.00032245732 -0.007557061 -0.028791867
-0.013267719 0.01779545 0.027409423 -0.032120105 -0.021770848 -0.020777186 -0.014692828 0.024432512
-0.0035164421 0.03590842 0.016661713 0.013111787 -0.0036663278 0.005107208 0.003020772 0.008115701
00000000: be84 3c3b 6bca 7d3c 76c1 d4bc 9f3c 733c
00000010: eccf e9bc 70ce a33b 77f5 1c3d ed15 0b3c
00000020: d0d9 803c 2260 6dbc e29b 5cbc 9bf3 db3b
00000030: 8ecb 7b3c f55d 2e3d c39b 0b3b f056 df3c
00000040: 9303 113d bcf4 563c 02c5 c03c 9cd7 0fbc
00000050: 8997 6c3c 0f0d 2bbc bbd1 d9bc 553b 043d
00000060: 706c ca3c 7b89 633d 8453 383a 3a8d 46bc
00000070: ea0d e23c 7308 e03b 7e35 bd3c 901d 8ebc
00000080: 0fa6 ce3c b7ab 59bb b87d b2bc 7af9 32bc
00000090: 0b63 203d c674 fa3c 27ad 553c 546d 04bc
000000a0: 1e67 01bb 236a c33b 3ecc 873c 7c8c 1d3d
000000b0: de14 e2bc 1155 083d e677 103d 0b32 833b
000000c0: 86f3 e83c f5ef c8bb 8c76 4e3c b992 49bc
000000d0: 8b4e 40bc 47f0 11bb 5cb2 143d 0147 963c
000000e0: b2d1 413b 4207 b9bc 38b5 663b 55cb fc3c
000000f0: b848 abbc cb32 d53c 5451 e3bb 0b86 a4bc
00000100: b71d 543c da37 7ebc b064 c23c 1774 d43a
00000110: 01d4 b03c 9318 2b3d 3420 aabc 650b 923c
00000120: 41b9 0d3c 0069 45bc a978 10bc d7d3 2fbc
00000130: 5b11 e1bc 1e23 a2bb a453 2dbc 0f26 d53b
00000140: 540b 0f3d 6979 093d b4cd bfbc 0997 11bb
00000150: 1578 113d 076b 68bc 0617 253b ccd8 33bc
00000160: 4d34 413c 3897 053d e865 1ebc 5faa 0c3d
00000170: b87c ebbb 7542 503d 619f 75bc 9ea3 43bc
00000180: 093f b33c b3c6 263c b9d0 253c 5861 a9bb
00000190: e81f f33c 277f cc3c 3bc6 a7bb 6329 e7bb
000001a0: 9fa4 66bc 3d31 edbb 8d93 323d 9a97 acbc
000001b0: 41e7 623d 7d0f a9b9 39a1 f7bb ecdc ebbc
000001c0: d960 59bc c3c7 913c ba89 e03c 5f90 03bd
000001d0: c758 b2bc eb34 aabc 30ba 70bc b126 c83c
000001e0: 1c74 66bb b514 133d 257e 883c d2d2 563c
000001f0: c646 70bb 5e5a a73b 25f8 453b b8f7 043c

action_model._continuous_distribution.log_sigma f4 [1, 5]
0.0096658645 -0.009487226 0.010011263 0.0034482756 0.014523521
00000000: 935d 1e3c 4f70 1bbc 4806 243c 77fc 613b
00000010: 10f4 6d3c

action_model._continuous_distribution.mu.weight f4 [5, 128]
-0.023334516 -0.008585981 -0.019352762 -0.0018753868 0.0006065158 0.0043647494 -0.0069349916 -0.00095123565
0.0019565446 0.02611661 0.0105571775 -0.0124014225 -0.0027598846 -0.0077560334 -0.023968449 0.012361958
-0.0047398377 0.006613921 0.023488995 -0.009424264 0.00360223 -0.0040366463 -0.0048083654 -0.0054091807
-0.030513281 -0.0032330316 0.001815262 -0.02217259 0.021454053 0.0013430873 0.020093549 -0.008499075
-0.012814258 -0.00010484465 -0.01505403 0.015396134 -0.027956903 0.011744597 0.022693062 -0.00092300295
-0.00930898 0.013153133 -0.023627033 -0.0078019914 0.025517652 0.004919707 -0.008541266 -0.0373603
-0.008391321 -0.040857118 0.006919027 -0.015739635 0.01677873 0.006480409 -0.005699396 0.0068831528
-0.0028037054 0.006859395 0.0069365865 -0.0066045052 -0.0066957553 -0.020708896 -0.0031756337 -0.015367778
-0.020850873 0.020398904 -0.0024889864 0.013280508 0.03649846 -0.0143836 0.026446909 0.008831924
-0.010848328 0.0091885375 -0.013662815 -0.020336661 -0.006922904 0.056005523 -0.007755794 0.0015805104
0.00026377325 -0.021099811 0.021386774 -0.027666418 0.002041709 -0.011588895 0.0043632044 0.022379858
0.00051629473 -0.021242984 0.015455212 0.019941011 -0.027299354 -0.0227898 0.037027057 0.006085592
-0.032018226 0.032212816 0.016451888 0.008962455 0.015626684 0.029353866 -0.0042734067 -0.016111268
0.017765848 0.02069845 0.03386979 -0.009881119 0.0074998196 -0.03211849 -0.014334802 -0.0013598275
0.0040748795 0.010300669 0.012699995 0.00090392976 0.018700264 -0.021229107 0.015927134 -0.011552118
-0.006009137 -0.013506069 -0.015163894 0.016366031 -0.012554103 -0.020610971 0.0015462931 -0.015842902
-0.011718602 0.006580188 -0.017368343 -0.020627687 -0.013428888 0.028045295 -0.0015004466 0.024985703
-0.00457835 -0.0031298355 -0.024229364 -0.028292822 0.005783721 0.011330381 0.013114677 -0.021885786
0.008266026 0.010785107 -0.005980407 -0.025726687 -0.027434269 0.026954617 -0.01275279 0.018070001
0.018969227 -0.0022239978 0.02273831 -0.024778146 -0.003127415 -0.03312815 -0.025831021 0.010326124
0.00207764 -0.0036381332 0.045175213 -0.01892691 -0.0034510577 0.002030787 0.0081362305 0.009087488
0.0003391469 -0.014474979 0.013020027 0.033988237 -0.013455799 -0.031334568 -0.018062195 -0.0052557234
-0.0119230235 -0.01172248 0.009672072 -0.02799871 0.006518657 -0.04094662 0.0045554964 0.01090451
-0.013073989 -0.004213806 -0.00797539 0.006449978 0.0015972469 -0.00037099532 0.0031464708 0.013897158
0.037362892 -0.016956193 0.012825221 0.03861172 -0.028557727 0.005962942 0.011068531 0.016803708
-0.007952161 0.017490314 0.0009165854 -0.008739229 -0.018261263 -0.0025749106 0.019968694 0.02881303
-0.02036095 0.016875092 -0.032403182 0.0016645334 0.0032937515 -0.020453654 0.00013002519 0.0002007364
0.0038035645 0.04101224 0.0030294906 0.0045801545 -0.018259678 0.017230192 0.0023612643 -0.0047305
0.026493626 -0.0042723953 0.009549025 -0.006045671 -0.010179772 0.02739761 -0.008075949 -0.016215103
0.024331326 -0.012221044 -0.033987418 -0.028816989 0.0058733886 0.018716017 0.0017148115 0.0026017514
-0.0073116175 -0.0046401443 -0.0047968007 -0.028154807 -0.03720225 -0.026783355 0.0052956757 -0.0061281426
-0.011567026 0.015180026 -0.028528782 -0.0085921055 0.010459762 0.01898517 0.024418892 0.0033422455
00000000: 0728 bfbc 37ac 0cbc af89 9ebc 8acf f5ba
00000010: 96fe 1e3a 2c06 8f3b ed3e e3bb 585c 79ba
00000020: 5f39 003b 80f2 d53c 03f8 2c3c 562f 4bbc
00000030: 2edf 34bb 5326 febb 7b59 c4bc cf89 4a3c
00000040: a450 9bbb 97b9 d83b fe6b c03c 3a68 1abc
00000050: 6413 6c3b d845 84bb 7e8f 9dbb 7f3f b1bb
00000060: fdf6 f9bc 45e1 53bb 16ee ed3a 4ba3 b5bc
00000070: 69c0 af3c 880a b03a 3a9b a43c b43f 0bbc
00000080: e5f2 51bc 0be0 dbb8 2ea5 76bc 1140 7c3c
00000090: e005 e5bc 696c 403c cde6 b93c aef5 71ba
000000a0: b184 18bc 3d80 573c 7b8d c1bc d9a7 ffbb
000000b0: 650a d13c 7e35 a13b abf0 0bbc 1d07 19bd
000000c0: c07b 09bc cb59 27bd 01b9 e23b 68f0 80bc
000000d0: 8c73 893c 9c59 d43b 00c2 babb 128c e13b
000000e0: 5fbe 37bb c7c4 e03b 4e4c e33b 9b6a d8bb
000000f0: 1168 dbbb b4a5 a9bc 4b1e 50bb 22c9 7bbc
00000100: 73cf aabc 9a1b a73c 431e 23bb 7d96 593c
00000110: 697f 153d 31a9 6bbc 30a7 d83c c6b3 103c
00000120: 2fbd 31bc 858b 163c 00da 5fbc 1299 a6bc
00000130: 87d9 e2bb 0c66 653d 5124 febb 2129 cf3a
00000140: 0c4b 8a39 83d9 acbc 5133 af3c afa4 e2bc
00000150: 31ce 053b 59df 3dbc 36f9 8e3b f755 b73c
00000160: f457 073a c405 aebc dc37 7d3c 555b a33c
00000170: e5a2 dfbc adb1 babc afa9 173d a569 c73b
00000180: 8b25 03bd 96f1 033d 1cc6 863c 43d7 123c
00000190: 8803 803c 8577 f03c ef07 8cbb c7fb 83bc
000001a0: af89 913c cc8f a93c 0dbb 0a3d 6be4 21bc
000001b0: 0cc1 f53b ae8e 03bd 84dc 6abc 3d3c b2ba
000001c0: 9186 853b 23c4 283c a413 503c b3f5 6c3a
000001d0: 4c31 993c aae8 adbc 9f79 823c 1845 3dbc
000001e0: 4be8 c4bb 8f48 5dbc fb71 78bc 0e12 863c
000001f0: b9af 4dbc 57d8 a8bc fdac ca3a f9c8 81bc
00000200: 61ff 3fbc 9e9e d73b 0e48 8ebc 65fb a8bc
00000210: d704 5cbc 3fbf e53c a2aa c4ba d1ae cc3c
00000220: fc05 96bb ed1d 4dbb a97c c6bc 59c6 e7bc
00000230: 5e85 bd3b 10a3 393c f1de 563c d249 b3bc
00000240: 3a6e 073c 04b4 303c 4af7 c3bb c6c0 d2bc
00000250: d5bd e0bc eecf dc3c 14f1 50bc 8a07 943c
00000260: 5a65 9b3c 7ec0 11bb b145 ba3c 8afb cabc
00000270: 51f5 4cbb 62b1 07bd 949b d3bc e72e 293c
00000280: 0429 083b bf6d 6ebb a509 393d 9b0c 9bbc
00000290: 242b 62bb f416 053b d34d 053c b0e3 143c
000002a0: 87cf b139 7628 6dbc f451 553c 4037 0b3d
000002b0: b675 5cbc ad58 00bd 2bf7 93bc 3438 acbb
000002c0: c958 43bc a50f 40bc 9c77 1e3c 8d5d e5bc
000002d0: 759a d53b a5b7 27bd 4646 953b d4a8 323c
000002e0: 4934 56bc f713 8abb 36ab 02bc 565a d33b
000002f0: b65a d13a 2682 c2b9 0535 4e3b e8b0 633c
00000300: d509 193d b7e7 8abc e020 523c 5327 1e3d
00000310: e5f1 e9bc c864 c33b c958 353c eea7 893c
00000320: c849 02bc d947 8f3c 0147 703a fc2e 0fbc
00000330: a598 95bc d5bf 28bb 6395 a33c 4e09 ec3c
00000340: 02cc a6bc a23d 8a3c 33b9 04bd 792c da3a
00000350: fbdb 573b 6c8e a7bc 5f57 0839 c47c 5239
00000360: 3945 793b 73fc 273d 6b8a 463b 1f15 963b
00000370: 5295 95bc 5526 8d3c 71bf 1a3b 4f02 9bbb
00000380: 2909 d93c 73ff 8bbb 8473 1c3c c41a c6bb
00000390: 0fc9 26bc f470 e03c fc50 04bc 89d5 84bc
000003a0: 7d52 c73c c63a 48bc 6436 0bbd 9b11 ecbc
000003b0: 8e75 c03b 5552 993c 87c3 e03a 2582 2a3b
000003c0: 4b96 efbb 5a0c 98bb 7b2e 9dbb e9a4 e6bc
000003d0: 6361 18bd c468 dbbc 5987 ad3b 96ce c8bb
000003e0: a083 3dbc a5b5 783c 31b5 e9bc e7c5 0cbc
000003f0: 6c5f 2b3c ca86 9b3c 210a c83c 9309 5b3b

action_model._continuous_distribution.mu.bias f4 [5]
0.000111416986 0.006281914 -0.0032464517 0.00445107 -0.0017417691
00000000: 8aa8 e938 84d8 cd3b 6cc2 54bb 48da 913b
00000010: 134c e4ba

action_model._discrete_distribution.branches.0.weight f4 [5, 128]
0.021630505 0.0052178646 -0.03259849 -0.0055964226 -0.024657963 0.010636792 -0.0010847518 0.012538105
-0.008561993 -0.023543468 -0.044871986 0.012912278 0.0028059974 0.0008666243 0.0050466447 0.029367868
0.012569512 0.0015029061 0.01989234 -0.0019605865 0.0069387658 -0.0062719467 -0.048528805 0.024061516
0.013617996 0.008196608 -0.0010535292 -0.0048086755 0.0035634316 0.008777258 0.008498584 -0.03175097
0.011371622 -0.044353034 -0.022585938 -0.02429029 0.0034826878 0.020910656 -0.0034617078 -0.017437086
0.0094365645 0.007417585 0.02087499 0.025905937 -0.039381783 0.024061605 0.02268974 -0.0036167945
-0.0022921732 -0.027357837 -0.0051310062 -0.03589685 -0.032924883 -0.0010038106 0.0057085394 0.0045064026
0.005496583 -0.01760239 0.0186905 0.005992225 -0.014803794 0.018827103 -0.010862611 -0.03456197
0.030362513 -0.039122704 0.0076978286 0.011042878 0.030397894 0.01467055 -0.04475331 0.0029618847
0.0089626685 -0.021130834 -0.012028976 -0.015392389 -0.02333397 0.011392024 -0.013265436 0.0010446027
0.018621288 -0.003941975 -0.03811233 0.0066813338 -0.0043527093 -0.014134425 0.0020413874 0.002269509
0.005801964 0.01358629 -0.0225359 0.038817476 -0.010208438 0.011691142 -0.021180151 -0.007214033
0.016815305 0.0015992579 -0.012979992 0.0042164116 0.01700078 0.022846458 -0.03803694 -0.037305176
-0.039327696 0.0012845173 0.031484656 -0.027990533 0.011250695 0.008824951 -0.014688382 -0.03020118
-0.007685581 0.010791756 0.0061443863 -0.016327305 -0.013272789 -0.008225901 -0.012073541 0.008118601
0.0008326686 0.032023292 0.011627976 0.0020263216 -0.013573358 -0.012342646 0.013658993 0.0010877423
-0.010226529 0.018614043 -0.020610405 0.0027472076 -0.020350756 0.0015683948 0.012814402 -0.0051495433
0.0120490845 0.0086884145 -0.012334277 0.014563613 0.005848096 0.0017133988 -0.009665132 0.030909238
0.012670606 0.03056298 -0.001377192 0.010640625 0.013398984 -0.01640732 -0.02311554 0.00021948227
0.015752496 0.026827246 -0.0027141331 0.01850779 0.026473602 0.0005607593 0.023829186 -0.027272299
0.017107083 -0.022183485 -0.007763547 0.009312498 0.006977556 0.019468175 0.026999552 -0.0033547743
0.00039717727 0.0060201064 0.017133258 0.029181786 -0.02127641 0.017406361 0.0031811758 0.015779091
-0.00386582 -0.031793527 0.01167341 -0.019303132 -0.034910668 0.014735357 0.0027921738 0.010794395
-0.02182329 0.0021996924 0.011434315 0.0020737702 -0.009288438 -0.0033232972 0.0032648926 -0.023799438
-0.0007312832 -0.021586793 -0.0027931023 -0.006167448 0.016858466 0.026163487 -0.018588958 0.005085341
0.026424684 0.0015884264 -0.0013821101 -0.0010502652 -0.03067509 0.00056105544 -8.985611e-05 0.017184108
0.018722776 0.013839082 -0.018201742 -0.00110243 0.021089682 -0.010109748 0.0032337208 0.010998086
0.010798278 0.017139599 -0.017687526 0.018941713 -0.009767696 0.024343263 -0.005896287 -0.015623656
0.019448042 0.015035696 0.023284338 -0.0042531914 -0.0003968441 0.012602673 -0.023784019 -0.031671997
-0.027169032 0.001939648 0.040966507 -0.01495284 0.02188187 0.0025070494 -0.00017070441 -0.016607959
-0.008302896 0.020885997 0.0113041485 -0.0025836332 -0.020283526 -0.01406496 0.02217243 0.019774288
-0.00091621757 0.024152214 0.011915264 0.025973266 0.0011619098 0.008312278 0.005152441 0.0115652755
00000000: 7532 b13c 9ffa aa3b ff85 05bd 3262 b7bb
00000010: 7fff c9bc f045 2e3c 3b2e 8eba a06c 4d3c
00000020: 9a47 0cbc 3bde c0bc b0cb 37bd 058e 533c
00000030: d3e4 373b 2c2e 633a 535e a53b e294 f03c
00000040: 5bf0 4d3c 29fd c43a 43f5 a23c 2f7d 00bb
00000050: 965e e33b e784 cdbb 24c6 46bd a81c c53c
00000060: 041e 5f3c 114b 063c 9316 8aba 1892 9dbb
00000070: 7688 693b 7dce 0f3c a53d 0b3c 4e0d 02bd
00000080: 0a50 3a3c 87ab 35bd 2506 b9bc 6efc c6bc
00000090: ce3d 643b d34c ab3c d2dd 62bb 38d8 8ebc
000000a0: d29b 1a3c 360f f33b 0702 ab3c b038 d43c
000000b0: cb4e 21bd d81c c53c d5df b93c be07 6dbb
000000c0: 4938 16bb 8b1d e0bc 0022 a8bb 9308 13bd
000000d0: 3edc 06bd 4b92 83ba b30e bb3b 72aa 933b
000000e0: ae1c b43b e332 90bc d21c 993c 6d5a c43b
000000f0: 9d8b 72bc 4c3b 9a3c 18f9 31bc da90 0dbd
00000100: ceba f83c 213f 20bd 113e fc3b 30ed 343c
00000110: 0105 f93c bf5c 703c 3f4f 37bd 2e1c 423b
00000120: 28d8 123c 921a adbc 2f15 45bc 5c30 7cbc
00000130: e226 bfbc 9da5 3a3c 4557 59bc 0deb 883a
00000140: ac8b 983c af2b 81bb ad1b 1cbd 17ef da3b
00000150: 2ca1 8ebb 1394 67bc ccc8 053b 0bbc 143b
00000160: 671e be3b 0899 5e3c 359d b8bc 13ff 1e3d
00000170: 4b41 27bc 348c 3f3c ff81 adbc b263 ecbb
00000180: 40c0 893c 319e d13a 08aa 54bc d329 8a3b
00000190: 3845 8b3c 7f28 bb3c 9fcc 1bbd 50cd 18bd
000001a0: 1416 21bd 405d a83a 0ef6 003d 674c e5bc
000001b0: d654 383c 8796 103c 8aa7 70bc 7768 f7bc
000001c0: 54d7 fbbb e8cf 303c d956 c93b d7c0 85bc
000001d0: 1d76 59bc eec5 06bc 1ad0 45bc e103 053c
000001e0: 7247 5a3a db2a 033d 4483 3e3c 09cc 043b
000001f0: ca62 5ebc cf38 4abc f8c9 5f3c 9392 8e3a
00000200: 2c8d 27bc 7a7c 983c 27d7 a8bc 7f0a 343b
00000210: a1b6 a6bc 9992 cd3a 7ff3 513c 80bd a8bb
00000220: 8669 453c da59 0e3c b515 4abc 389c 6e3c
00000230: 63a1 bf3b 2094 e03a 805a 1ebc 5f35 fd3c
00000240: 6098 4f3c 375f fa3c e582 b4ba 0456 2e3c
00000250: 6a87 5b3c a568 86bc cd5c bdbc d324 6639
00000260: 610b 813c d0c4 db3c 99df 31bb a69d 973c
00000270: 2bdf d83c ebff 123a 6d35 c33c 286a dfbc
00000280: 2724 8c3c 24ba b5bc 5a65 febb 7393 183c
00000290: fba3 e43b b97b 9f3c 2a2e dd3c c6db 5bbb
000002a0: 3b3c d039 5044 c53b 0c5b 8c3c a40e ef3c
000002b0: de4b aebc c997 8e3c 467b 503b 2743 813c
000002c0: b259 7dbb ee39 02bd d541 3f3c 9a21 9ebc
000002d0: 7dfe 0ebd 916c 713c e7fc 363b f9da 303c
000002e0: c2c6 b2bc b728 103b fe56 3b3c 17e8 073b
000002f0: 882e 18bc adcb 59bb cff7 553b 0af7 c2bc
00000300: 96b3 3fba c9d6 b0bc 7b0c 37bb 4e18 cabb
00000310: c41a 8a3c cf54 d63c df47 98bc efa2 a63b
00000320: 9478 d83c bf32 d03a eb27 b5ba 0da9 89ba
00000330: 544a fbbc cb13 133a 2271 bcb8 b0c5 8c3c
00000340: 8260 993c 51bd 623c d21b 95bc 6a7f 90ba
00000350: 45c4 ac3c 5ba3 25bc d5ec 533b 5131 343c
00000360: 43eb 303c 5868 8c3c 6ee5 90bc a72b 9b3c
00000370: b008 20bc 866b c73c a435 c1bb 5dfa 7fbc
00000380: 8051 9f3c 4858 763c ccbe be3c 5b5e 8bbb
00000390: 830f d0b9 717b 4e3c b4d6 c2bc 7fba 01bd
000003a0: 9791 debc c93b fe3a 7fcc 273d c2fc 74bc
000003b0: 9c41 b33c 4f4d 243b 1eff 32b9 6a0d 88bc
000003c0: df08 08bc 1c19 ab3c 0935 393c 2c52 29bb
000003d0: a329 a6bc b870 66bc f5a2 b53c b0fd a13c
000003e0: 522e 70ba ddda c53c 3d38 433c e3c5 d43c
000003f0: 394b 983a 3930 083c cfd5 a83b 487c 3d3c

action_model._discrete_distribution.branches.0.bias f4 [5]
0.032277565 0.028612677 0.029776853 0.017541867 -0.046950895
00000000: 7b35 043d 2265 ea3c 96ee f33c f6b3 8f3c
00000010: 954f 40bd

exp_avg f4 [128, 64]
-3.852226e-06 7.267009e-06 0.0 5.774466e-06 2.2502395e-06 3.1090906e-06 1.8792623e-06 1.3700813e-17
4.200898e-06 -1.5367439e-06 1.6770341e-06 -4.816828e-06 0.0 1.2329047e-05 5.8040896e-06 2.4561217e-07
4.815007e-06 1.3700813e-17 4.128627e-06 9.53342e-07 -8.998078e-07 7.001096e-06 0.0 3.0879607e-06
4.1385942e-06 6.16771e-07 1.2419594e-05 7.032499e-11 -3.847188e-06 2.9356484e-06 -3.3607098e-06 8.924972e-06
2.604e-42 3.624991e-06 4.6731225e-06 1.4296952e-06 1.4854415e-05 7.032499e-11 -7.0949263e-06 -3.7977748e-07
-2.7671679e-06 3.71456e-06 3.991e-42 8.2418555e-06 2.235962e-06 2.372847e-06 1.69922e-05 7.331294e-11
-1.0175868e-05 -9.5293257e-07 -5.612175e-07 1.2469687e-05 3.991e-42 -2.7192225e-06 2.8154045e-06 0.00042048554
5.1490344e-05 3.4832626e-06 0.00011359364 4.4032386e-06 2.9348541e-05 2.7567723e-06 -7.6989295e-07 6.8685085e-07
4.624413e-06 -4.8099787e-06 0.0 9.0667277e-07 2.8962536e-06 -1.1455144e-06 -1.442359e-06 2.197133e-17
3.308981e-06 6.128287e-07 -6.239303e-06 1.539822e-05 0.0 -8.437804e-06 -2.7787019e-07 3.6404404e-06
1.7455429e-06 2.197133e-17 -4.6648743e-06 2.4432084e-06 2.1651172e-06 4.144982e-06 0.0 -5.588991e-06
-3.4450764e-07 -1.2769763e-06 -4.763181e-06 2.6037525e-10 6.761009e-06 3.894618e-06 -2.5081486e-06 8.980994e-06
-2.759e-42 -5.751738e-06 -8.086418e-07 9.963229e-07 -3.5661749e-06 2.6037508e-10 3.290703e-06 3.0568144e-06
2.780267e-06 -4.053748e-06 1.5407e-41 1.9945899e-06 2.1797664e-06 3.384748e-06 -2.0472883e-06 1.1176894e-10
-6.1646347e-07 -7.19348e-07 -9.2543826e-07 -6.792379e-06 1.5407e-41 8.438916e-06 6.61884e-06 0.00045391524
0.00012585202 2.646989e-07 9.931065e-05 2.9503965e-07 2.1650949e-06 2.1633228e-07 2.2156932e-07 -4.94585e-07
-1.7398737e-07 3.85606e-06 0.0 -1.3400556e-06 -1.9675658e-06 -2.3083288e-07 2.690372e-06 -1.1768874e-17
-1.17521935e-07 -1.3609981e-06 -3.0652222e-07 3.5692851e-06 0.0 -9.2074583e-07 -2.0303364e-06 5.594108e-07
2.0130813e-06 -1.1768874e-17 -2.3047728e-07 -1.4497766e-06 -2.1165245e-07 3.6207387e-06 0.0 -1.0670695e-06
-2.0995476e-06 -1.6385856e-07 2.9052537e-06 1.03299105e-10 -3.994819e-07 -1.5958675e-06 6.217172e-07 2.0403459e-06
-9.0633e-41 -3.2004624e-07 -1.961188e-06 -1.1622845e-06 4.507801e-06 1.03299105e-10 -1.0036043e-06 -1.396115e-06
-7.90971e-08 1.2972257e-06 -9.6544e-41 1.1238895e-06 7.626209e-07 -1.0233239e-06 4.264493e-06 3.4998543e-10
-8.9950265e-07 -9.2473726e-07 3.0642088e-08 2.685078e-06 -9.6544e-41 -3.7370307e-07 -5.3978056e-07 -0.00022452585
5.3488993e-06 8.8442755e-07 2.3877978e-05 1.1481386e-06 7.504666e-06 7.0260444e-07 -4.3930957e-08 -3.9923765e-07
7.5080635e-07 1.897467e-05 0.0 -1.682088e-05 -3.3217777e-06 -6.309543e-07 7.0166566e-06 9.6963e-18
-3.4811096e-06 4.0287623e-06 -4.4029983e-07 2.486272e-05 0.0 -2.151782e-05 -8.791999e-06 -9.731726e-07
5.1226316e-06 9.6963e-18 -1.2448696e-06 7.502984e-06 3.6226445e-06 6.3920115e-06 0.0 -7.1100635e-06
-4.0903224e-06 2.7046276e-06 -4.517624e-06 3.044571e-10 4.71728e-06 4.5662546e-06 5.7025522e-06 -3.4130721e-06
-1.0486e-41 6.151091e-07 -4.5522493e-06 -1.2910523e-07 4.17192e-06 3.044571e-10 -1.1385232e-06 4.686442e-06
4.143855e-06 5.7122037e-07 -4.71e-41 -1.8104759e-06 1.8495615e-06 1.5650827e-06 -4.281851e-06 2.2388079e-10
5.6211393e-06 4.6385503e-06 3.391936e-06 -5.8321785e-07 -4.71e-41 9.58811e-08 6.819469e-07 0.00048766853
-6.330757e-05 1.0877211e-06 1.2600207e-05 1.3339653e-06 9.430182e-06 8.7137636e-07 1.4030796e-07 7.466992e-07
00000000: 5f42 81b6 22d7 f336 0000 0000 49c2 c136
00000010: d202 1736 c5a5 5036 f63a fc35 43bc 7c23
00000020: 70f5 8c36 1e42 ceb5 7416 e135 3da0 a1b6
00000030: 0000 0000 dbd8 4e37 c0c0 c236 aedc 8334
00000040: 9890 a136 43bc 7c23 a388 8a36 2ae9 7f35
00000050: 528a 71b5 f5ea ea36 0000 0000 c33a 4f36
00000060: 41de 8a36 2e90 2535 c05d 5037 73a5 9a2e
00000070: 1817 81b6 0e02 4536 8e88 61b6 76bc 1537
00000080: 4207 0000 df44 7336 d1cd 9c36 f4e3 bf35
00000090: 3a37 7937 73a5 9a2e f410 eeb6 38e4 cbb4
000000a0: 95b3 39b6 a847 7936 200b 0000 8046 0a37
000000b0: 890d 1636 333d 1f36 798a 8e37 8437 a12e
000000c0: 05b9 2ab7 07cd 7fb5 93a6 16b5 e634 5137
000000d0: 200b 0000 e37b 36b6 48f0 3c36 9d74 dc39
000000e0: 56f7 5738 ffc1 6936 1f39 ee38 88bf 9336
000000f0: 8331 f637 fd00 3936 a4aa 4eb5 0860 3835
00000100: 682b 9b36 6765 a1b6 0000 0000 1462 7335
00000110: 425d 4236 93bf 99b5 1497 c1b5 56a6 ca23
00000120: dc0f 5e36 4581 2435 345b d1b6 6d2b 8137
00000130: 0000 0000 1890 0db7 302e 95b4 4a4e 7436
00000140: 6648 ea35 56a6 ca23 f786 9cb6 00f6 2336
00000150: 6e4c 1136 2015 8b36 0000 0000 1189 bbb6
00000160: c5f4 b8b4 9264 abb5 6ad3 9fb6 8f24 8f2f
00000170: a0dc e236 84ae 8236 aa51 28b6 13ad 1637
00000180: b107 0080 0eff c0b6 7111 59b5 65b9 8535
00000190: 6b52 6fb6 8924 8f2f d9d5 5c36 ac23 4d36
000001a0: a094 3a36 6e05 88b6 f32a 0000 cbda 0536
000001b0: 1a48 1236 8725 6336 2564 09b6 52c8 f52e
000001c0: 0c7b 25b5 3819 41b5 a26b 78b5 17ea e3b6
000001d0: f32a 0000 de94 0d37 6717 de36 79fb ed39
000001e0: 25f7 0339 f11b 8e34 0045 d038 f165 9e34
000001f0: 0c4c 1136 f748 6834 83e8 6d34 9fc3 04b5
00000200: 49d1 3ab4 4e63 8136 0000 0000 f6db b3b5
00000210: 860a 04b6 dcda 77b4 3d8c 3436 f018 59a3
00000220: 5e60 fcb3 8aab b6b5 1890 a4b4 da87 6f36
00000230: 0000 0000 2c29 77b5 ea40 08b6 6b2a 1635
00000240: 7918 0736 f018 59a3 1d79 77b4 f295 c2b5
00000250: 9542 63b4 d1fb 7236 0000 0000 3b38 8fb5
00000260: f4e5 0cb6 19f1 2fb4 e1f7 4236 3a28 e32e
00000270: 6078 d6b4 9731 d6b5 15e4 2635 e0ec 0836
00000280: a6fc 0080 d2d2 abb4 f49c 03b6 cbff 9bb5
00000290: b741 9736 3a28 e32e 95b3 86b5 2562 bbb5
000002a0: 17dc a9b3 561c ae35 200d 0180 8dd8 9635
000002b0: e9b6 4c35 2459 89b5 b717 8f36 1268 c02f
000002c0: 5a75 71b5 763b 78b5 559b 0333 4a31 3436
000002d0: 200d 0180 5ca1 c8b4 70e5 10b5 b36e 6bb9
000002e0: b27a b336 6669 6d35 914d c837 be19 9a35
000002f0: 97d0 fb36 9c9a 3c35 99ae 3cb3 ce56 d6b4
00000300: 058b 4935 cb2b 9f37 0000 0000 911a 8db7
00000310: b5eb 5eb6 d95e 29b5 9f70 eb36 7bdd 3223
00000320: 029d 69b6 ce2e 8736 5962 ecb4 4990 d037
00000330: 0000 0000 2b81 b4b7 5981 13b7 f59d 82b5
00000340: 12e3 ab36 7bdd 3223 6515 a7b5 24c2 fb36
00000350: 8f1c 7336 f67a d636 0000 0000 fb92 eeb6
00000360: 9a3f 89b6 2681 3536 1896 97b6 8760 a72f
00000370: 2049 9e36 d437 9936 8d58 bf36 220c 65b6
00000380: 3b1d 0080 fa1d 2535 86bf 98b6 2da0 0ab4
00000390: 85fc 8b36 8760 a72f 5ccf 98b5 3b40 9d36
000003a0: 720b 8b36 f755 1935 4c83 0080 7aff f2b5
000003b0: 733e f835 d50f d235 d2ac 8fb6 d728 762f
000003c0: 389d bc36 d8a4 9b36 04a1 6336 6d8e 1cb5
000003d0: 4c83 0080 31e7 cd33 090f 3735 c3ad ff39
000003e0: fec3 84b8 d0fd 9135 7a65 5337 b30a b335
000003f0: 5336 1e37 87e8 6935 8fa7 1634 c770 4835

exp_avg_sq f4 [128, 64]
1.1405792e-10 5.2606643e-09 0.0 4.3774212e-10 1.947103e-09 8.0654206e-11 5.206653e-09 4.3116663e-13
4.3058748e-10 1.9582915e-09 1.0211941e-10 5.3204685e-09 0.0 4.292778e-10 2.0170259e-09 1.2091796e-10
5.0630273e-09 4.3116663e-13 4.2809936e-10 1.7789e-09 7.428096e-11 5.497224e-09 0.0 4.1640272e-10
2.0819015e-09 9.553029e-11 5.404326e-09 5.5464574e-13 3.861718e-10 1.679466e-09 5.662691e-11 5.221845e-09
4.2089192e-16 4.8978127e-10 2.228667e-09 5.365882e-11 5.425894e-09 1.2347908e-13 3.5749562e-10 1.7266303e-09
7.137215e-11 4.768791e-09 5.71069e-16 5.7897165e-10 2.3565776e-09 7.614175e-11 5.5413323e-09 1.2637222e-13
3.647306e-10 1.6368447e-09 3.6827076e-11 4.8661373e-09 5.71069e-16 7.019658e-10 2.4732008e-09 1.8527728e-05
2.5526475e-07 8.8204644e-10 9.848611e-07 1.5591999e-09 9.051701e-08 5.57222e-10 1.0394089e-12 3.0407222e-12
1.7114413e-10 5.1581077e-09 0.0 3.6999953e-10 2.1469215e-09 1.7766008e-10 5.326069e-09 1.0624933e-12
4.4802487e-10 2.1178006e-09 1.4202747e-10 5.519681e-09 0.0 3.6820474e-10 2.2293287e-09 2.1251122e-10
5.5212737e-09 1.0624933e-12 3.655604e-10 1.9676683e-09 1.02446496e-10 5.7051346e-09 0.0 4.2840476e-10
2.3322577e-09 1.6256732e-10 5.5521676e-09 4.672233e-12 3.7942693e-10 1.8566503e-09 7.790345e-11 5.5181015e-09
4.3341906e-16 4.1053433e-10 2.471303e-09 1.523846e-10 5.969315e-09 3.6097392e-12 2.7846409e-10 1.7191198e-09
1.1795119e-10 5.2503686e-09 3.651102e-14 6.111967e-10 2.6906308e-09 1.3987034e-10 5.8777556e-09 4.226879e-12
2.0195141e-10 1.6063235e-09 3.6819773e-11 5.1680265e-09 3.651102e-14 7.339128e-10 2.8641975e-09 1.9550325e-05
2.2315855e-07 9.259218e-10 1.0618753e-06 1.6455909e-09 1.0813229e-07 5.8245414e-10 5.596491e-13 7.0875803e-13
7.567373e-11 2.4481503e-09 0.0 8.089166e-11 4.0099046e-10 1.2755721e-10 2.3399587e-09 3.3261002e-13
1.1607029e-10 4.1473175e-10 6.0394495e-11 2.4235312e-09 0.0 7.512375e-11 4.062311e-10 1.5929971e-10
2.3006186e-09 3.3261002e-13 7.933118e-11 4.1511677e-10 8.8047465e-11 2.3657754e-09 0.0 7.286598e-11
4.027953e-10 1.13307155e-10 2.3244033e-09 1.2415678e-12 9.825381e-11 4.687652e-10 6.751864e-11 2.316578e-09
5.349541e-13 1.3262243e-10 4.9576354e-10 1.03717875e-10 2.498569e-09 9.08958e-13 4.492427e-11 3.7085537e-10
8.239321e-11 2.1588684e-09 5.3847405e-13 2.3764402e-10 6.45708e-10 7.8821866e-11 2.5266895e-09 3.768461e-12
5.342844e-11 3.1825412e-10 4.40508e-11 2.2821516e-09 5.3847405e-13 2.2666939e-10 7.246604e-10 3.4408934e-06
1.3395395e-07 3.726315e-10 2.0573827e-07 6.5441e-10 5.1209746e-08 2.357111e-10 8.69317e-12 1.4768702e-11
2.0267311e-10 8.514331e-09 0.0 6.09954e-10 3.1504606e-09 1.8365634e-10 8.235182e-09 2.773974e-13
6.1817984e-10 3.0521874e-09 1.2719857e-10 8.5112e-09 0.0 5.888607e-10 3.4085064e-09 2.7975136e-10
7.9946165e-09 2.773974e-13 5.670778e-10 3.0183207e-09 6.133698e-11 8.667992e-09 0.0 5.489774e-10
3.5581238e-09 1.9990799e-10 8.459607e-09 2.4489987e-12 5.3674687e-10 2.8634093e-09 6.989821e-11 7.9356655e-09
7.126673e-15 7.0665096e-10 3.7761327e-09 1.9863908e-10 8.8109475e-09 2.1716023e-12 3.7992867e-10 2.6677145e-09
1.1322493e-10 7.4338233e-09 1.3517333e-13 8.4050694e-10 4.085625e-09 1.2907546e-10 9.109418e-09 2.1777016e-12
2.6802593e-10 2.3559148e-09 3.8315597e-11 7.575426e-09 1.3517333e-13 9.639546e-10 4.3351953e-09 3.414153e-05
3.414554e-07 1.4114353e-09 1.837405e-06 2.49806e-09 1.5147607e-07 8.896376e-10 2.2000646e-12 2.6570213e-12
00000000: e7d0 fa2e 4bc1 b431 0000 0000 baa6 f02f
00000010: cccd 0531 485c b12e 34e6 b231 a9b9 f22a
00000020: cdb7 ec2f a192 0631 1e90 e02e 56cf b631
00000030: 0000 0000 7bff eb2f e59b 0a31 61f3 042f
00000040: dcf6 ad31 a9b9 f22a a159 eb2f 7b7d f430
00000050: 7758 a32e 18e2 bc31 0000 0000 79eb e42f
00000060: 3311 0f31 c612 d22e f4b0 b931 701e 1c2b
00000070: d94c d42f f5d2 e630 3c0c 792e d66b b331
00000080: afa0 f225 4ba1 0630 2027 1931 76fe 6b2e
00000090: ab6e ba31 6c06 0b2a 0989 c42f 674e ed30
000000a0: f3f2 9c2e bbda a331 7499 2426 8225 1f30
000000b0: 5af1 2131 ff6f a72e 1366 be31 5048 0e2a
000000c0: 4583 c82f 5af7 e030 9af7 212e ff32 a731
000000d0: 7499 2426 74f4 4030 02f5 2931 fe6b 9b37
000000e0: 520b 8934 8074 7230 922f 8435 784b d630
000000f0: 4162 c233 032b 1930 a748 922b c8f8 552c
00000100: ca2c 3c2f 323b b131 0000 0000 ce68 cb2f
00000110: 0b89 1331 de56 432f 9900 b731 5b88 952b
00000120: e54d f62f be88 1131 2e29 1c2f a1a7 bd31
00000130: 0000 0000 366c ca2f c432 1931 97a8 692f
00000140: a3b5 bd31 5b88 952b 0df8 c82f 9637 0731
00000150: 4048 e12e e506 c431 0000 0000 9c84 eb2f
00000160: 8345 2031 a2be 322f 62c5 be31 bc63 a42c
00000170: 9897 d02f 132d ff30 be4f ab2e bc99 bd31
00000180: 5dd9 f925 92b1 e12f 9fd3 2931 748c 272f
00000190: a61a cd31 4803 7e2c 5616 992f 2746 ec30
000001a0: 4fb0 012f bb66 b431 576e 2429 2501 2830
000001b0: 14e6 3831 00ca 192f 49f5 c931 57b8 942c
000001c0: 450c 5e2f 7cc5 dc30 61ef 212e 7192 b131
000001d0: 576e 2429 86bc 4930 7fd3 4431 0100 a437
000001e0: 5b9d 6f34 f483 7e30 c285 8e35 152b e230
000001f0: 5b36 e833 911a 2030 f886 1d2b 667f 472b
00000200: 8668 a62e 513c 2831 0000 0000 f5e1 b12e
00000210: 6472 dc2f 2a40 0c2f fdcc 2031 283e bb2a
00000220: c43d ff2e 4e00 e42f 14cf 842e 368b 2631
00000230: 0000 0000 e932 a52e f253 df2f e226 2f2f
00000240: e918 1e31 283e bb2a 7c73 ae2e 7e36 e42f
00000250: 519e c12e 2993 2231 0000 0000 e63b a02e
00000260: 6670 dd2f 422a f92e 56bb 1f31 32bc ae2b
00000270: fa0f d82e 6bda 0030 9e79 942e ac31 1f31
00000280: 8193 162b e5d1 112f 4246 0830 f913 e42e
00000290: 4ab3 2b31 54d9 7f2b 3b94 452e 41e1 cb2f
000002a0: 412f b52e 375b 1431 2591 172b 6ca5 822f
000002b0: a97d 3130 c454 ad2e fea1 2d31 4797 842c
000002c0: 13fb 6a2e 49f6 ae2f cbbc 412e 09d4 1c31
000002d0: 2591 172b c339 792f 7131 4730 19ea 6636
000002e0: fbd4 0f34 39db cc2f e8e8 5c34 03e2 3330
000002f0: b6f1 5b33 6395 812f 8fee 182d 29e8 812d
00000300: 69d7 5e2f 6c46 1232 0000 0000 b2a9 2730
00000310: 7d7f 5831 aaee 492f b77a 0d32 2e29 9c2a
00000320: 8aec 2930 a6be 5131 37db 0b2f a738 1232
00000330: 0000 0000 63dd 2130 143b 6a31 81cb 992f
00000340: b258 0932 2e29 9c2a 8de0 1b30 dc6a 4f31
00000350: a6e1 862e 3bea 1432 0000 0000 dae6 1630
00000360: 2d83 7431 19cd 5b2f bf55 1132 3d55 2c2c
00000370: 348a 1330 a1c5 4431 32b5 992e 6d55 0832
00000380: fa61 0028 243e 4230 37bf 8131 ee67 5a2f
00000390: f55e 1732 1cd0 182c 35de d02f ee52 3731
000003a0: f8fb f82e 9a6c ff31 0f31 182a 6b09 6730
000003b0: 8a61 8c31 83eb 0d2f a57f 1c32 fc3d 192c
000003c0: 4c59 932f b1e5 2131 8783 282e 1325 0232
000003d0: 0f31 182a 237c 8430 c8f4 9431 3033 0f38
000003e0: 4651 b734 77fc c130 c19c f635 56aa 2b31
000003f0: 6da5 2234 ae8a 7430 d7d0 1a2c a4f8 3a2c

exp_avg f4 [128]
9.189245e-06 7.211105e-07 2.3420153e-06 2.9045914e-06 -7.2525996e-05 3.1430902e-06 1.0927328e-05 -7.442358e-06
4.544991e-08 -4.0613093e-05 -7.5883254e-06 -1.0142819e-05 1.7906415e-05 2.279886e-05 9.942227e-06 -2.1852047e-05
1.7137623e-05 -2.5153784e-05 -1.3709529e-05 -4.5648823e-05 -1.5022313e-05 4.022698e-05 -5.1407013e-05 -1.5636447e-06
1.0888806e-06 -2.4475391e-06 -1.7139073e-05 -3.0105786e-05 2.4691702e-05 1.4700123e-06 -7.974999e-05 -3.4988552e-05
2.307997e-05 4.1735706e-07 1.1560243e-05 2.1700162e-05 -3.1747877e-06 -2.7154167e-05 -4.6209796e-05 -1.3456863e-05
3.574008e-05 8.947098e-06 3.416742e-06 -2.0340272e-05 8.181378e-08 4.115549e-06 -3.95439e-05 7.1711297e-06
-1.7921533e-05 -3.8125887e-05 -1.2847903e-05 -9.071119e-06 2.3887436e-05 7.08103e-06 2.5572337e-05 1.645045e-05
-1.9646928e-05 -7.204256e-06 -7.629969e-05 -3.338878e-06 5.084736e-06 1.3032789e-05 1.2244662e-05 -2.8903109e-05
-3.686067e-06 -2.1199016e-06 -2.4915029e-05 1.6056625e-05 3.6590463e-05 2.8410968e-06 1.6127485e-06 -3.065155e-05
-3.0982105e-06 9.7100365e-06 -2.716249e-07 -1.265296e-05 -3.409165e-05 -4.2092684e-05 -1.6939923e-05 -8.586241e-06
-4.032097e-06 -4.178766e-05 -2.855331e-05 -4.625398e-05 5.716545e-06 2.349911e-05 -1.611224e-05 -1.3857914e-05
-2.0817583e-06 -8.467389e-06 -1.8778653e-06 -6.508946e-06 -1.13241695e-05 6.0379506e-07 6.7906667e-06 -3.2037045e-05
3.4991376e-06 -2.2020553e-05 -5.7725843e-05 5.8290757e-06 -8.744333e-06 1.2425341e-05 1.520023e-05 3.7748812e-06
2.1610656e-06 1.3433538e-05 -1.4332172e-05 -1.9514324e-05 -1.015738e-05 -4.8756785e-05 -3.7293154e-05 -8.822668e-06
-4.214278e-06 2.6046223e-06 3.435119e-06 1.4812497e-05 1.3205662e-05 -3.2405316e-07 -2.763848e-05 -1.8939936e-06
1.759466e-05 -3.294898e-06 -6.247716e-06 -9.4163624e-05 2.952159e-06 -2.8151987e-06 -2.0862213e-05 -5.6597887e-06
00000000: 822b 1a37 5692 4135 842b 1d36 80ec 4236
00000010: 1919 98b8 e1ed 5236 8454 3737 5eb9 f9b6
00000020: b434 4333 fa57 2ab8 389f feb6 132b 2ab7
00000030: bc35 9637 2e40 bf37 8acd 2637 ea4e b7b7
00000040: c4c2 8f37 5701 d3b7 fb01 66b7 0d77 3fb8
00000050: 5808 7cb7 64b9 2838 dc9d 57b8 6cde d1b5
00000060: a725 9235 6740 24b6 e1c5 8fb7 af8b fcb7
00000070: 0721 cf37 3d4d c535 733f a7b8 acc0 12b8
00000080: dc9b c137 1e11 e034 def2 4137 be08 b637
00000090: 700e 55b6 21c9 e3b7 64d1 41b8 c9c4 61b7
000000a0: 9ee7 1538 7e1b 1637 2e4b 6536 67a0 aab7
000000b0: 9ab1 af33 4c18 8a36 f0db 25b8 899f f036
000000c0: 3356 96b7 5ce9 1fb8 538d 57b7 2930 18b7
000000d0: e161 c837 9699 ed36 2d84 d637 13ff 8937
000000e0: 75cf a4b7 16bc f1b6 1603 a0b8 7d11 60b6
000000f0: 8d9d aa36 67a7 5a37 6c6e 4d37 f474 f2b7
00000100: 265e 77b6 a243 0eb6 9e00 d1b7 57b1 8637
00000110: b678 1938 aca9 3e36 9e75 d835 da8f 00b8
00000120: daea 4fb6 4ae8 2237 d8d3 91b4 0d48 54b7
00000130: a1fd 0eb8 ad8c 30b8 351a 8eb7 a00d 10b7
00000140: 734b 87b6 2945 2fb8 c485 efb7 d500 42b8
00000150: bfd0 bf36 f41f c537 c628 87b7 4a7f 68b7
00000160: 56b4 0bb6 290f 0eb7 f60a fcb5 6c67 dab6
00000170: f0fc 3db7 7b14 2235 62db e336 845f 06b8
00000180: bad2 6a36 c7b8 b8b7 a71e 72b8 6197 c336
00000190: a0b4 12b7 6f76 5037 7e04 7f37 f753 7d36
000001a0: d306 1136 9b60 6137 3674 70b7 b1b2 a3b7
000001b0: 9d69 2ab7 3380 4cb8 386b 1cb8 1205 14b7
000001c0: 5f68 8db6 12cb 2e36 e586 6636 3183 7837
000001d0: e38d 5d37 87f9 adb4 2fd9 e7b7 2035 feb5
000001e0: 3f98 9337 eb1d 5db6 79a3 d1b6 b679 c5b8
000001f0: b51d 4636 bfec 3cb6 4301 afb7 37e9 bdb6
