results/shortRays/Tank/Tank-500026.onnx (onnx, 111582 bytes, 9 tensors)

network_body._body_endoder.seq_layers.0.weight f4 [128, 64]
-0.035047844 0.09413373 0.025247687 0.18207137 -0.038817164 -0.058175527 -0.0053419145 -0.18385322
0.19866103 0.06426089 0.06850727 0.14913155 -0.046031527 -0.06744242 0.14506681 -0.16837911
0.16713914 0.035422657 0.13875277 0.24445109 -0.20288534 -0.22086814 -0.070009544 0.1433893
-0.020925224 0.025039773 -0.11633913 -0.11095954 0.15519561 0.05894619 0.10125965 0.012358665
0.04845955 0.10277517 0.13798587 0.08500997 0.06067948 0.11477532 0.046137862 -0.06669323
-0.13105963 0.031862646 -0.124376096 -0.07765158 -0.0584487 -0.03737775 0.21253231 0.08050072
0.007540854 0.07578043 0.02046869 0.229146 0.010198906 0.12330892 0.048857708 0.031264026
-0.0013738179 -0.068704374 -0.23026305 0.26445305 -0.07755179 0.11289979 -0.23552689 -0.16740118
-0.24002644 0.06815815 0.00024771114 -0.09752732 0.12809965 0.15026362 -0.011422955 -0.2883881
0.09122728 -0.05908184 0.25603193 -0.102141455 -0.12827258 0.08111793 0.19242685 0.04025577
-0.08197582 0.086661436 -0.020132456 0.012683722 -0.18932888 0.047864288 -0.047970813 -0.3200662
-0.11798568 -0.029769003 0.16859981 -0.11915565 0.019687135 -0.00397249 -0.18029287 -0.031251214
-0.052078146 0.24311687 0.10775995 -0.16979428 -0.07826787 -0.007007324 -0.0028636209 -0.04117189
-0.06281432 -0.06678805 0.059235774 -0.17687267 0.3018863 -0.050088257 0.15250495 0.26199877
-0.1484763 0.044576462 -0.05107619 -0.1179239 0.057034083 0.14786324 -0.1298224 0.051380504
-0.027279971 0.14782539 0.032559164 -0.08689908 -0.121197745 0.12626779 -0.10691267 0.1823511
0.018905457 -0.0632623 -0.059962206 0.082710505 0.042813223 0.014943837 0.08772939 0.020435084
-0.05110934 -0.20149243 -0.08533151 -0.07799753 0.18434396 0.08494055 0.14631587 0.07143049
0.06046067 0.3536436 0.051216483 -0.091359116 0.07937735 0.13398716 0.16653371 -0.042518746
-0.077124156 -0.036498588 0.1020114 0.027791945 -0.16565609 0.16958314 -0.045232397 0.07860724
-0.07941026 -0.17161146 -0.100783184 -0.13397822 0.123128735 -0.20456977 -0.28958407 -0.02542641
0.13752578 0.08926612 0.09947926 0.19351423 -0.09998711 0.05912242 -0.106130406 -0.032012325
0.2659938 0.15129241 0.060219564 0.036794133 0.015921758 -0.0636599 0.030307448 0.08658156
0.009203958 0.14229214 0.03665863 -0.18256414 0.0013283686 0.0749378 -0.0073808255 -0.05705869
-0.0019654497 -0.007094391 0.059420895 -0.040589556 -0.051596496 -0.2204139 -0.098030925 -0.17722769
0.011244776 -0.01706392 -0.19870502 -0.1380525 -0.0025592411 0.11699588 0.056815937 -0.15041317
-0.13855267 -0.12834617 -0.2500332 0.12723725 -0.012325985 -0.09111066 0.119483635 0.056251626
0.11902828 -0.17414522 0.024700157 0.28515097 -0.013679587 -0.103829406 0.028961506 0.09055227
0.2180261 -0.011547384 -0.23411673 0.012572583 -0.056755245 -0.04072913 -0.15696576 0.22318554
0.14508277 0.20211391 0.20446882 -0.01661942 -0.02449604 -0.06417317 0.018432517 0.047169026
-0.14828953 0.023602521 0.0057929005 -0.012583944 -0.09144464 -0.30544934 0.20234835 -0.029647233
-0.0033896272 0.011027561 0.2615923 0.12974872 -0.08530907 -0.080832385 -0.09277877 -0.03241718
00000000: 548e 0fbd 2fc9 c03d 3dd4 ce3c eb70 3a3e
00000010: bffe 1ebd 7649 6ebd 3a0b afbb 0544 3cbe
00000020: cc6d 4b3e 379b 833d 8a4d 8c3d f1b5 183e
00000030: 8e8b 3cbd 401f 8abd 658c 143e 936b 2cbe
00000040: 8626 2b3e 5917 113d 3515 0e3e 6351 7a3e
00000050: 2dc1 4fbe 422b 62be 2a61 8fbd a5d4 123e
00000060: 606b abbc 3620 cd3c 3643 eebd c13e e3bd
00000070: 99eb 1e3e 8f71 713d 3861 cf3d ff7b 4a3c
00000080: 857d 463d ca7b d23d 2b4c 0d3e b519 ae3d
00000090: 0c8b 783d 530f eb3d 0efb 3c3d 7696 88bd
000000a0: 7f34 06be 6882 023d e5b8 febd cb07 9fbd
000000b0: e767 6fbd 6919 19bd 12a2 593e 90dd a43d
000000c0: 4519 f73b c532 9b3d f4ad a73c 40a5 6a3e
000000d0: 5019 273c 6389 fc3d 051f 483d b50e 003d
000000e0: ae11 b4ba e1b4 8cbd 14ca 6bbe 6466 873e
000000f0: 79d3 9ebd 0138 e73d f62d 71be 376b 2bbe
00000100: 7ec9 75be 8096 8b3d 3adf 8139 67bc c7bd
00000110: 8e2c 033e b5de 193e 5927 3bbc 9ba7 93be
00000120: 5ed5 ba3d cdff 71bd 9e16 833e 8a2f d1bd
00000130: e359 03be 2821 a63d 8b0b 453e 3ce3 243d
00000140: f0e2 a7bd 8d7b b13d d2ec a4bc 63cf 4f3c
00000150: 6edf 41be 580d 443d 0b7d 44bd b8df a3be
00000160: 7aa2 f1bd 20de f3bc 6ea5 2c3e e107 f4bd
00000170: ea46 a13c a92b 82bb b29e 38be 4601 00bd
00000180: e54f 55bd a1f3 783e 40b1 dc3d 8dde 2dbe
00000190: e84a a0bd b29d e5bb 96ab 3bbb dba3 28bd
000001a0: cba4 80bd 2cc8 88bd 36a1 723d 1c1e 35be
000001b0: d790 9a3e 5829 4dbd 422a 1c3e b424 863e
000001c0: 2c0a 18be cf95 363d 4435 51bd 1682 f1bd
000001d0: 929c 693d 7669 173e 2af0 04be 5d74 523d
000001e0: 3f7a dfbc 8a5f 173e c25c 053d 25f8 b1bd
000001f0: 8636 f8bd 584c 013e 08f5 dabd 3fba 3a3e
00000200: 9edf 9a3c aa8f 81bd ee9a 75bd 2064 a93d
00000210: eb5c 2f3d ffd6 743c 77ab b33d 7a67 a73c
00000220: 0758 51bd 0854 4ebe 49c2 aebd 2bbd 9fbd
00000230: aac4 3c3e 50f5 ad3d d4d3 153e 264a 923d
00000240: 9ca5 773d c610 b53e 60c8 513d 7d1a bbbd
00000250: 9890 a23d ee33 093e d087 2a3e 2328 2ebd
00000260: 45f3 9dbd 8b7f 15bd 5aeb d03d efab e33c
00000270: c0a1 29be 34a7 2d3e 9b45 39bd d5fc a03d
00000280: d9a1 a2bd eaba 2fbe 6a67 cebd 9631 09be
00000290: eb2a fc3d bd7a 51be 5d44 94be 0c4b d0bc
000002a0: 8fd3 0c3e 28d1 b63d c8bb cb3d 9828 463e
000002b0: 0bc6 ccbd 5a2a 723d e65a d9bd 5b1f 03bd
000002c0: 5730 883e 66ec 1a3e caa8 763d 72b5 163d
000002d0: 596e 823c 1f60 82bd 5347 f83c ac51 b13d
000002e0: 33cc 163c 08b5 113e 5c27 163d 18f2 3abe
000002f0: a71c ae3a fd78 993d dada f1bb 5fb6 69bd
00000300: c6ce 00bb 1178 e8bb 5363 733d 3c41 26bd
00000310: d956 53bd 2eb4 61be 70c4 c8bd 2d7b 35be
00000320: 023c 383c a2c9 8bbc 5479 4bbe a25d 0dbe
00000330: f1b8 27bb 899b ef3d d4b7 683d e905 1abe
00000340: c0e0 0dbe 2e6d 03be 5a04 80be 7b4a 023e
00000350: eef2 49bc 3a98 babd d6b3 f43d 1b68 663d
00000360: 19c5 f33d 2053 32be fc57 ca3c 4fff 913e
00000370: 5920 60bc 83a4 d4bd ae40 ed3c 7873 b93d
00000380: 3c42 5f3e 3d31 3dbc 4cbc 6fbe 3cfd 4d3c
00000390: 3078 68bd 97d3 26bd a2bb 20be c08a 643e
000003a0: 9490 143e f3f6 4e3e 4660 513e 7325 88bc
000003b0: ebab c8bc 396d 83bd caff 963c 4f34 413d
000003c0: 36d9 17be 135a c13c 5fd2 bd3b e32c 4ebc
000003d0: 5447 bbbd db63 9cbe 6834 4f3e c1de f2bc
000003e0: 8224 5ebb f1ac 343c 6def 853e d9dc 043e
000003f0: 86b6 aebd 738b a5bd cc02 bebd e0c7 04bd

network_body._body_endoder.seq_layers.0.bias f4 [128]
0.008762912 0.0073232464 0.01586369 0.015175404 0.0048839664 0.004598715 0.021118514 0.025152449
-0.014484405 0.010139768 0.015753651 0.015128392 0.02398587 0.011782804 -0.002003141 0.012258312
0.03040818 0.0032790396 0.008743316 -0.007309931 0.024499232 0.008717859 0.013998087 0.020766402
0.0029877825 0.011780246 0.0046813497 0.003110366 0.010444088 0.0009864055 0.004183657 0.005657684
0.001225433 -0.019160753 0.006399493 0.00936276 0.0015184169 0.0077615688 0.0035632087 0.01748584
-0.0058391276 -0.0007333083 0.005019628 0.0031639952 0.0021090384 0.007801777 0.028753256 0.0005066343
-0.0006504762 -0.01243111 0.0022909045 0.007790877 -0.004118465 -0.0051774704 0.0048850537 0.010041061
0.015133786 0.004742543 0.007061685 0.013298028 0.021834604 0.0079175895 0.0033522455 -0.009176516
-0.011620048 0.029384514 -0.0034125007 -0.00778314 -0.008730134 0.0066795438 0.0028544809 0.0069323718
0.0045441054 0.0073009445 0.019909676 -0.007221771 0.005730923 -0.018148452 0.00953868 -0.017602406
-0.011241672 0.009163863 0.0023063296 -0.00052362453 -0.010505334 0.008699378 0.011866448 0.006707114
0.0114287995 0.0053758374 0.007256346 0.001511111 0.052339267 0.00056746765 -0.0015076358 0.00017867907
0.007240558 0.0083132535 0.0007079101 -0.0011686408 0.01997431 0.016885191 -0.01078407 0.011878081
-0.0050474005 -0.0022619343 -0.00032659576 -0.0044549983 0.012352384 0.0049632285 0.0029640628 -0.004731046
-0.0011755591 0.0038082767 0.006843873 0.012626418 -0.001235101 -0.005167907 0.005942116 0.00028572202
0.00929669 0.0009514701 0.0029561026 -0.009691 0.006318017 -0.0038251923 0.0038952155 0.014726998
00000000: 5192 0f3c d8f7 ef3b 92f4 813c 42a2 783c
00000010: ae09 a03b d1b0 963b bc00 ad3c 820c ce3c
00000020: ff4f 6dbc 4521 263c cd0d 813c 13dd 773c
00000030: 047e c43c a90c 413c 2147 03bb 16d7 483c
00000040: 931a f93c 28e5 563b 2040 0f3c 2588 efbb
00000050: 9db2 c83c 5ad5 0e3c 3b58 653c 4d1e aa3c
00000060: acce 433b ef01 413c 0266 993b 48d7 4b3b
00000070: ae1d 2b3c 474a 813a 0f17 893b 1864 b93b
00000080: b59e a03a 03f7 9cbc d7b2 d13b 4366 193c
00000090: 9e05 c73a c254 fe3b b984 693b 773e 8f3c
000000a0: 2756 bfbb 7d3b 40ba b17b a43b 085b 4f3b
000000b0: cb37 0a3b 0da6 ff3b f38b eb3c a7cf 043a
000000c0: b884 2aba dbab 4bbc 0023 163b 9d4a ff3b
000000d0: 30f4 86bb c5a7 a9bb cd12 a03b 4383 243c
000000e0: b3f3 773c 5667 9b3b b565 e73b f9df 593c
000000f0: 7cde b23c c7b8 013c 59b1 5b3b 1959 16bc
00000100: 0462 3ebc cbb7 f03c 43a4 5fbb b609 ffbb
00000110: d608 0fbc 13e0 da3b 3e12 3b3b f328 e33b
00000120: b8e6 943b c33c ef3b 9e19 a33c 9ba4 ecbb
00000130: 77ca bb3b 10ac 94bc 2048 1c3c ec32 90bc
00000140: fd2e 38bc 0724 163c ca25 173b d943 09ba
00000150: 901e 2cbc d687 0e3c 7e6b 423c 5ac7 db3b
00000160: dc3f 3b3c cb27 b03b a4c6 ed3b 7910 c63a
00000170: b361 563d 1cc2 143a dd9b c5ba cc5b 3b39
00000180: 3442 ed3b 5034 083c 0b93 393a 142d 99ba
00000190: 2aa1 a33c d052 8a3c abaf 30bc 489c 423c
000001a0: aa64 a5bb f63c 14bb f13a abb9 3cfb 91bb
000001b0: a761 4a3c 94a2 a23b b940 423b e406 9bbb
000001c0: 3815 9aba 4894 793b 9142 e03b 09df 4e3c
000001d0: 1de3 a1ba 8c57 a9bb 15b6 c23b f6cc 9539
000001e0: 2551 183c 146c 793a 2cbb 413b 00c7 1ebc
000001f0: 5e07 cf3b 14b0 7abb df46 7f3b 8249 713c

network_body._body_endoder.seq_layers.2.weight f4 [128, 128]
0.16624133 0.031134596 -0.034872614 -0.024138704 0.030135946 -0.07743842 0.06562138 -0.11652159
0.093867786 0.13581026 -0.07698828 0.23764272 -0.01489795 0.023034506 -0.0018577797 0.023773832
0.05236644 -0.011442967 -0.037160087 0.08643159 0.022568101 -0.029266011 0.065433644 0.056208458
0.09807116 0.1482003 -0.0067939316 0.07250158 -0.1727743 -0.00068630616 -0.06356727 0.10452248
-0.036248352 0.09031247 -0.15415204 0.14460869 -0.0037149093 -0.01003905 -0.06709208 -0.00096271397
-0.117317006 0.052722093 0.0050662644 0.061982058 0.07496206 0.0644737 0.055732474 0.10338708
-0.032600902 0.021013428 0.08436344 0.058689117 -0.0987004 0.026078943 -0.018917859 -0.015720263
-0.096344605 0.08296612 0.08503835 0.21396114 -0.025378425 -0.018592123 0.07040325 -0.058996584
-0.00997571 -0.21070601 0.021069262 0.118697606 0.027167257 -0.08300835 -0.083492726 0.040455557
-0.0034805413 -0.043702755 0.1095329 0.040818598 0.106517896 -0.1258002 -0.114811525 -0.07335918
-0.015211203 -0.0077963094 0.026821533 0.013515387 -0.093096696 0.0083429925 0.1126354 0.21280837
0.2031667 -0.013979084 0.004139308 0.20231491 -0.015028534 -0.115981594 -0.0014944387 0.17193629
0.10662253 -0.020367308 0.060461473 0.026277456 -0.027893085 -0.009465786 -0.006164732 -0.06984512
-0.025473116 -0.11668657 0.06754809 0.09930119 0.09663 0.21841417 0.10494888 0.10200827
-0.20054963 0.021565631 -0.13607496 0.04003899 -0.100986 0.107640296 0.045376368 0.042914897
-0.07568438 -0.01596879 -0.05052012 0.012322052 -0.17376798 0.03158258 0.04612887 0.1127309
-0.045713402 0.04033019 0.073880896 -0.088890806 0.15935358 0.091488525 -0.04912643 0.065376036
0.027581925 -0.1905633 -0.09509812 -0.20622942 0.13202177 -0.10425857 -0.15635955 -0.048654918
0.029679986 -0.12552325 -0.116740145 -0.07123004 -0.043875422 0.036318637 0.0046587605 0.07655096
0.029523436 0.14532487 0.0044810153 -0.07163725 0.2216024 -0.027386049 -0.056505397 0.09685251
-0.14592385 0.06109612 -0.023077324 0.0011671034 -0.0047038672 -0.18357298 -0.055744328 0.049396425
0.00909331 0.034405872 0.10916001 -0.0087646255 -0.15757719 0.005021588 0.023845565 0.15751784
-0.24301225 0.11013073 -0.040532622 0.08786443 -0.07736666 -0.086508565 -0.09347065 -0.04390898
0.07255862 0.013377991 -0.09494615 -0.054535784 -0.0753934 0.062424358 0.015244144 -0.08298494
-0.0324972 0.0058182226 -0.033281717 -0.07265253 -0.022882236 0.0017578867 0.03306366 0.03419074
-0.10317865 0.017271362 -0.08211449 -0.028527094 -0.05284608 -0.08327621 -0.12842548 -0.054037277
0.015670994 0.14008878 0.086184174 -0.0018406385 -0.15276024 0.02912526 -0.0899825 -0.1359669
-0.05284655 0.07522717 0.02450086 0.17892334 0.07487805 0.14935139 -0.16448353 0.057118908
-0.09758285 0.039313704 -0.12573521 0.043632887 0.019180136 -0.03578839 0.008201145 -0.10396692
-0.08092495 0.21710134 -0.08945048 0.112627886 0.014143981 -0.12405066 -0.076604754 0.030546144
0.12502444 -0.03702896 0.17557374 0.04700689 0.107432835 -0.06587513 -0.05341544 -0.0028165586
-0.0059562586 -0.04362082 0.035864897 -0.046649706 0.047519382 0.06066154 0.025624055 0.050964586
00000000: 2b3b 2a3e fb0d ff3c 96d6 0ebd 88be c5bc
00000010: a9df f63c 0998 9ebd 8164 863d dfa2 eebd
00000020: c13d c03d d811 0b3e 08ac 9dbd 9d58 733e
00000030: 8816 74bc dcb2 bc3c be80 f3ba 57c1 c23c
00000040: 317e 563d 487b 3bbc 2d35 18bd 0c03 b13d
00000050: bde0 b83c 46bf efbc 1302 863d d73a 663d
00000060: 88d9 c83d d2c1 173e a19f debb b57b 943d
00000070: bfeb 30be 3ae9 33ba 8f2f 82bd e20f d63d
00000080: 2779 14bd bff5 b83d 08da 1dbe 4d14 143e
00000090: d675 73bb d47a 24bc 9367 89bd a45e 7cba
000000a0: e643 f0bd 1ff3 573d e802 a63b e6e0 7d3d
000000b0: b585 993d ca0a 843d bc47 643d 9bbc d33d
000000c0: 8688 05bd 5a24 ac3c bdc6 ac3d 0064 703d
000000d0: 6f23 cabd 82a3 d53c a0f9 9abc c8c7 80bc
000000e0: 5250 c5bd 24ea a93d 9628 ae3d a118 5b3e
000000f0: 6ae6 cfbc 824e 98bc 942f 903d 67a6 71bd
00000100: 2971 23bc 51c3 57be 7299 ac3c bb17 f33d
00000110: de8d de3c 4800 aabd 3cfe aabd bab4 253d
00000120: cb19 64bb a901 33bd c952 e03d 6731 273d
00000130: 0e26 da3d c5d1 00be 4e22 ebbd 563d 96bd
00000140: 6938 79bc 2f78 ffbb d5b8 db3c a46f 5d3c
00000150: 7ba9 bebd 0cb1 083c 63ad e63d 70ea 593e
00000160: ee0a 503e 8708 65bc 08a3 873b a42b 4f3e
00000170: 3e3a 76bc c287 edbd 0be1 c3ba 1110 303e
00000180: ea5c da3d 57d9 a6bc 73a6 773d d243 d73c
00000190: 0a80 e4bc 6216 1bbc 8501 cabb f50a 8fbd
000001a0: ffac d0bc 5ef9 eebd a756 8a3d 6c5e cb3d
000001b0: f3e5 c53d f7a7 5f3e 70ef d63d b6e9 d03d
000001c0: e25c 4dbe 68aa b03c 3c57 0bbe edff 233d
000001d0: bfd1 cebd 8472 dc3d 92dc 393d 88c7 2f3d
000001e0: 6a00 9bbd fbd0 82bc 2fee 4ebd 6fe2 493c
000001f0: 3cf0 31be bc5c 013d a0f1 3c3d 75df e63d
00000200: fa3d 3bbd 4531 253d de4e 973d 620c b6bd
00000210: 962d 233e 565e bb3d cc38 49bd dfe3 853d
00000220: 7df3 e13c 0723 43be cec2 c2bd ce2d 53be
00000230: b730 073e 8485 d5bd b81c 20be 614a 47bd
00000240: 7123 f33c 2b89 00be 7515 efbd 0ee1 91bd
00000250: b7b6 33bd dac2 143d 84a8 983b c0c6 9c3d
00000260: 22db f13c 0bd0 143e 7bd5 923b 8db6 92bd
00000270: bdeb 623e b558 e0bc 3472 67bd 9c5a c63d
00000280: 106d 15be ed3f 7a3d a80c bdbc 7ef9 983a
00000290: e622 9abb 8efa 3bbe 2a54 64bd e853 4a3d
000002a0: 1bfc 143c 2ced 0c3d 498f df3d 8199 0fbc
000002b0: ea5b 21be 228c a43b c657 c33c 5b4c 213e
000002c0: 34d8 78be 388c e13d 8905 26bd 44f2 b33d
000002d0: 6972 9ebd 672b b1bd 8a6d bfbd e7d9 33bd
000002e0: 9d99 943d 5c2f 5b3c 2173 c2bd ea60 5fbd
000002f0: db67 9abd afb0 7f3d 93c2 793c 02f4 a9bd
00000300: c91b 05bd caa6 be3b 6952 08bd daca 94bd
00000310: 8773 bbbc e468 e63a c36d 073d 970b 0c3d
00000320: 544f d3bd ac7c 8d3c a42b a8bd a7b1 e9bc
00000330: 2275 58bd b88c aabd f881 03be 3156 5dbd
00000340: 7560 803c 6f73 0f3e 5481 b03d 9441 f1ba
00000350: 2e6d 1cbe 1998 ee3c bf48 b8bd e83a 0bbe
00000360: a075 58bd b410 9a3d 07b6 c83c ae37 373e
00000370: aa59 993d 92ef 183e 5f6e 28be 84f5 693d
00000380: 84d9 c7bd 6807 213d bbc0 00be 66b8 323d
00000390: a91f 9d3c d996 12bd 185e 063c 9cec d4bd
000003a0: fbbb a5bd d04f 5e3e d031 b7bd 73a9 e63d
000003b0: 28bc 673c 460e febd f4e2 9cbd e83b fa3c
000003c0: 6806 003e aeab 17bd 9ac9 333e 4c8a 403d
000003d0: bf05 dc3d 8ae9 86bd 26ca 5abd 0396 38bb
000003e0: b82c c3bb bfab 32bd 12e7 123d c313 3fbd
000003f0: afa3 423d 3c78 783d 8ae9 d13c 3ec0 503d

network_body._body_endoder.seq_layers.2.bias f4 [128]
0.007693705 -0.0043942193 0.00043418902 0.01864798 -0.0022641725 0.0028284744 0.015194104 0.011486037
-0.011197673 0.014163982 -0.0019963032 -0.0050742426 -0.003831799 -0.011996915 0.020846447 0.020470103
0.008300746 0.0142696705 -0.0039491043 0.01230283 0.015709665 0.0012751693 0.007574829 -0.0047835745
-0.014513334 0.0007627522 0.010495064 -0.0009952976 0.0023915162 0.0057778494 -0.019533485 0.011619201
-0.008411473 -0.00854236 0.005299051 0.014930748 -0.0072194543 0.025533292 0.014245712 0.015823118
0.0038832633 -0.02223502 0.0027257493 0.008978957 -0.002753957 0.004307625 -0.008570043 -0.0007144739
0.008739689 0.0025749868 0.00016405975 0.032099463 0.020402784 0.003379902 0.0050687445 0.0032885598
0.00906291 0.009128546 0.00771792 -0.010033274 -0.011272851 0.0031940287 0.0069155064 -0.0038936536
-0.0013628594 0.02909034 0.017931191 -0.0058004796 -0.012128218 -0.0044493964 -0.00416427 0.0023301686
-0.01372965 -0.028214104 -0.027997674 0.0044677374 -0.005240566 0.020693265 0.009861098 0.024122456
0.0013486141 0.012108157 -0.002764247 0.022457251 0.04389853 0.009744194 -0.021018934 0.02203991
-0.00060428074 0.005265744 -0.0028506399 0.0082167825 0.0056620254 0.0052702893 0.021322042 0.0039421967
0.010774439 0.03270156 0.0064796484 0.042170975 0.0056390283 0.003004707 0.0035349494 0.0077856225
0.0029508364 0.0037759324 -0.0027764614 0.0036635809 -0.004170941 -0.012049846 0.030956807 0.010748093
0.009902308 0.004405525 0.018934483 -0.0057724933 0.00077886187 0.01839016 0.03976201 0.00019164881
-0.012991558 -0.0067129615 0.0057115653 0.0037079742 0.0024075825 -0.0057647587 0.0073771835 0.0046412717
00000000: 7a1b fc3b 62fd 8fbb dda3 e339 a6c3 983c
00000010: 8362 14bb ed5d 393b b1f0 783c ee2f 3c3c
00000020: 7276 37bc 0c10 683c 69d4 02bb d545 a6bb
00000030: eb1e 7bbb b58e 44bc 2bc6 aa3c ebb0 a73c
00000040: daff 073c 56cb 693c 7d67 81bb cf91 493c
00000050: 8eb1 803c 9523 a73a 4536 f83b 88bf 9cbb
00000060: 56c9 6dbc 6ff3 473a 7df3 2b3c a574 82ba
00000070: fcba 1c3b 1d54 bd3b b004 a0bc 765e 3e3c
00000080: 46d0 09bc 41f5 0bbc a9a3 ad3b 19a0 743c
00000090: 2c91 ecbb 322b d13c d966 693c 7c9f 813c
000000a0: 597e 7e3b 3726 b6bc 7ca2 323b 7a1c 133c
000000b0: bb7b 34bb fa26 8d3b 5e69 0cbc 884b 3bba
000000c0: ea30 0f3c 1cc1 283b 7407 2c39 ba7a 033d
000000d0: bd23 a73c 5981 5d3b b617 a63b e184 573b
000000e0: 9a7c 143c e68f 153c 9be6 fc3b 9a62 24bc
000000f0: c4b1 38bc e952 513b 799b e23b ab2c 7fbb
00000100: f9a1 b2ba dd4e ee3c 6fe4 923c f311 bebb
00000110: 6fb5 46bc 3ecc 91bb 6e74 88bb beb5 183b
00000120: 53f2 60bc 4421 e7bc 615b e5bc 1966 923b
00000130: 0eb9 abbb ec84 a93c 7190 213c 759c c53c
00000140: fbc3 b03a 4b61 463c 5e28 35bb 45f8 b73c
00000150: f2ce 333d 1da6 1f3c e62f acbc 0b8d b43c
00000160: 9868 1eba 438c ac3b cdd1 3abb af9f 063c
00000170: 8388 b93b 64b2 ac3b 90ab ae3c 8b2d 813b
00000180: 4687 303c 12f2 053d 3b53 d43b 79bb 2c3d
00000190: 99c7 b83b 9eea 443b 9caa 673b 891e ff3b
000001a0: d262 413b a275 773b 4bf5 35bb b018 703b
000001b0: 64ac 88bb b86c 45bc 2199 fd3c c518 303c
000001c0: 4a3d 223c 395c 903b 7d1c 9b3c 2f27 bdbb
000001d0: 892c 4c3a f6a6 963c 7ddd 223d 56f5 4839
000001e0: 8bda 54bc 67f8 dbbb 1528 bb3b 7c01 733b
000001f0: 88c8 1d3b 4de6 bcbb 4dbc f13b cf15 983b

action_model._continuous_distribution.log_sigma f4 [1, 5]
-0.010973341 -0.002652223 -0.020369751 0.0123408 -0.0024009757
00000000: 87c9 33bc ebd0 2dbb 77de a6bc 1131 4a3c
00000010: b059 1dbb

action_model._continuous_distribution.mu.weight f4 [5, 128]
0.0063248794 -0.0073612095 0.015593329 -0.017749969 0.013623139 0.00047713745 -0.007419544 0.003798135
-0.0011130804 0.015940178 0.034648795 -0.00849684 -0.026024928 0.02543671 -0.026507204 0.0015968451
0.0101144435 -0.004152526 0.02113739 -0.03946619 0.024183659 0.026705785 -0.047127407 0.015955409
-0.00797221 -0.0014481433 -0.034482706 0.0010581369 -0.020287704 0.009413699 0.013858392 0.010443112
-0.0065677254 0.0031494065 -0.02096402 -0.013916611 0.020660566 0.004819047 -0.026600642 0.012675148
0.00059933437 0.011790807 -0.0042496305 -0.004292052 0.0047945348 -0.007124105 0.015617483 -0.014791326
-0.025740858 0.0028148484 0.0069278134 -0.008552553 -0.009266341 0.023229368 0.020528372 -0.025940591
-0.023721091 -0.0252902 -0.004602676 0.05721691 -0.005238086 0.0064986586 -0.021925656 -0.008265013
-0.018683705 0.0034912478 -0.025147464 0.005452148 -0.016403906 0.027193109 0.009428754 -0.012436743
0.0032663487 0.00854995 0.034908064 0.0433661 0.01635298 0.009498329 -0.032301474 -0.025967736
-0.008268445 -0.019753182 0.006197928 -0.0076350574 0.030275278 -0.00017228677 0.016490016 -0.011426016
0.050121825 0.012204725 -0.029643077 0.005696335 0.010979078 0.03363893 0.0035334756 0.019257748
0.0100261895 0.0035164957 6.820149e-05 -0.009539758 -0.031077433 -0.030617645 -0.025259158 -0.0053942204
-0.0021593794 0.03191763 -0.029965362 -0.0019069668 0.02427905 0.006966333 -0.03200383 -0.0038876669
-0.014929002 -0.0030393065 -0.01389478 -0.0107628675 0.0025449255 0.008902154 -0.018856779 -0.00900569
0.020175418 -0.009584212 -0.023668505 -0.024614606 0.029808983 -0.019083086 0.026646636 -0.017025547
0.006483045 -0.02230631 -0.010265817 -0.008919303 0.006771799 -0.005113591 0.0007218537 0.0031546466
0.045918822 0.015951727 -0.0031725115 -0.041664433 -0.013914031 -0.020734388 0.009968658 -0.010406362
0.009254071 0.016599504 0.023628915 0.0019358685 -0.02163899 0.0045433766 0.031873822 0.037718777
-0.012027062 -0.004819022 0.0059713987 0.015328188 0.008484663 0.0003842902 0.014996069 -0.0018074433
-0.0035806235 -0.041492917 0.00023294661 -0.0021118778 -0.0038799667 0.004262814 0.0040600263 0.02627002
-0.008323663 -0.0049192915 -0.0005117481 0.029864414 0.012345682 0.013051023 -0.00284258 0.0049602343
0.012891231 0.01195845 -0.007447829 -0.0040292027 0.009776498 -0.010928074 -0.018286405 0.0010440856
-0.0010227006 -0.028303856 0.033398062 0.049299512 -0.021803701 -0.019216448 0.008538287 0.0340742
0.0013656239 0.007219218 -0.008904086 0.034901246 -0.017896079 -0.013255491 0.019787721 0.008055201
-0.012839042 0.017155316 -0.0026155207 0.022404758 0.015245344 0.0135332225 0.0021624519 0.03201613
-0.026234139 -0.0021908204 0.0021152983 0.0023650837 -0.010888099 0.011710416 0.01771006 0.013265198
-0.0087935785 -0.029548328 -0.023233766 0.008154425 0.019750487 -0.030785294 0.014107938 0.013271238
0.030933572 -0.0071844687 0.022391375 0.023314739 0.015383738 0.0030547595 -0.0050383364 -0.014254798
0.008387974 -0.011561868 0.0019827115 -0.0120537765 -0.0076349583 -0.035609107 0.00944253 0.013742255
0.009307255 0.00270351 -0.010446651 -0.008792812 -0.010549714 -0.0096551925 0.007460109 0.010077116
-0.045848418 -0.029713366 0.011070386 -0.0067910273 -0.0009394799 1.7069038e-05 -0.008330785 -0.0022059942
00000000: ef40 cf3b 4d36 f1bb 2a7b 7f3c 6268 91bc
00000010: 9633 5f3c 4e28 fa39 a51f f3bb 22ea 783b
00000020: c8e4 91ba fa94 823c e5eb 0d3d 5436 0bbc
00000030: 3b32 d5bc a660 d03c a325 d9bc 3b4d d13a
00000040: 0db7 253c ea11 88bb 5228 ad3c 4da7 21bd
00000050: cf1c c63c 17c6 da3c ab08 41bd ebb4 823c
00000060: df9d 02bc a0cf bdba bd3d 0dbd 2fb1 8a3a
00000070: 6632 a6bc ea3b 1a3c 4f0e 633c 9619 2b3c
00000080: 1336 d7bb 4666 4e3b bdbc abbc 7f02 64bc
00000090: 5940 a93c 19e9 9d3b 97e9 d9bc 6dab 4f3c
000000a0: a61c 1d3a 3b2e 413c 7c40 8bbb 57a4 8cbb
000000b0: 791b 9d3b 5371 e9bb 79e0 7f3c 5157 72bc
000000c0: 7ede d2bc 5279 383b b602 e33b 0220 0cbc
000000d0: dad1 17bc 844b be3c 1e2b a83c 5d81 d4bc
000000e0: bc52 c2bc 652d cfbc 0bd2 96bb 475c 6a3d
000000f0: 40a4 abbb b3f2 d43b 6f9d b3bc fa69 07bc
00000100: 920e 99bc 6bcd 643b 0e02 cebc efa7 b23b
00000110: 7c61 86bc 15c4 de3c 107b 1a3c 7bc3 4bbc
00000120: 3d10 563b 1715 0c3c c2fb 0e3d a7a0 313d
00000130: aff6 853c e19e 1b3c 8d4e 04bd 4aba d4bc
00000140: 5f78 07bc 6dd1 a1bc fd17 cb3b 812f fabb
00000150: dc03 f83c e1a7 34b9 1216 873c 2f34 3bbc
00000160: 8b4c 4d3d 54f6 473c 0ad6 f2bc 52a8 ba3b
00000170: 97e1 333c fac8 093d e291 673b 6dc2 9d3c
00000180: e344 243c 0275 663b 6507 8f38 a54c 1cbc
00000190: 1a96 febc dbd1 fabc 4bec cebc 00c2 b0bb
000001a0: 6084 0dbb 10bc 023d eb79 f5bc 30f3 f9ba
000001b0: dce4 c63c d645 e43b 7316 03bd 3ac8 7ebb
000001c0: c698 74bc 1a2f 47bb eea6 63bc bd56 30bc
000001d0: c4c8 263b 57da 113c 8879 9abc 9a8c 13bc
000001e0: eb46 a53c 1907 1dbc 74e4 c1bc 92a4 c9bc
000001f0: f831 f43c 2254 9cbc 0c4a da3c 2979 8bbc
00000200: b96f d43b b9bb b6bc f531 28bc 4522 12bc
00000210: f8e5 dd3b e98f a7bb c83a 3d3a 30be 4e3b
00000220: 6015 3c3d 32ad 823c e9e9 4fbb 53a8 2abd
00000230: adf7 63bc 2adb a9bc 9553 233c 727f 2abc
00000240: 639e 173c affb 873c 6d91 c13c f8bc fd3a
00000250: 4044 b1bc 9be0 943b 208e 023d 017f 1a3d
00000260: 270d 45bc e3e8 9dbb b9ab c33b 1523 7b3c
00000270: 4203 0b3c 8f7a c939 12b2 753c bce7 ecba
00000280: e5a8 6abb 7af4 29bd 2143 7439 6e67 0abb
00000290: 0a47 7ebb 13af 8b3b f809 853b 3a34 d73c
000002a0: f95f 08bc 0232 a1bb d526 06ba 37a6 f43c
000002b0: 8b45 4a3c f5d3 553c 944a 3abb 7689 a23b
000002c0: be35 533c 60ed 433c eb0c f4bb 6707 84bb
000002d0: 9b2d 203c aa0b 33bc 5fcd 95bc b3d9 883a
000002e0: 230c 86ba 7ddd e7bc 68cc 083d 49ee 493d
000002f0: ad9d b2bc d06b 9dbc 2ce4 0b3c 6391 0b3d
00000300: bcfe b23a 318f ec3b 72e2 11bc 9cf4 0e3d
00000310: cc9a 92bc 8f2d 59bc dc19 a23c f6f9 033c
00000320: d85a 52bc 4e89 8c3c 2869 2bbb 2f8a b73c
00000330: 9bc7 793c 73ba 5d3c ecb7 0d3b 5823 033d
00000340: fae8 d6bc de93 0fbb d1a0 0a3b 85ff 1a3b
00000350: ff63 32bc 0bdd 3f3c b014 913c 4656 593c
00000360: f112 10bc 560f f2bc bd54 bebc 239a 053c
00000370: c6cb a13c 7131 fcbc fb24 673c 9b6f 593c
00000380: 6768 fd3c b16b ebbb 1e6e b73c 8dfe be3c
00000390: 130c 7c3c 5c32 483b a118 a5bb f58c 69bc
000003a0: b76d 093c fd6d 3dbc 61f0 013b 347d 45bc
000003b0: ac2e fabb dbda 11bd d7b4 1a3c 3227 613c
000003c0: 757d 183c 5f2d 313b 6e28 2bbc ba0f 10bc
000003d0: b5d8 2cbc d030 1ebc ee73 f43b 7d1a 253c
000003e0: 8dcb 3bbd 7269 f3bc 9060 353c 4487 debb
000003f0: 6e47 76ba 7b2f 8f37 d87d 08bc 7192 10bb

action_model._continuous_distribution.mu.bias f4 [5]
-0.0040164506 0.001964248 -0.0012658214 -0.002486498 -0.006522604
00000000: 6e9c 83bb 9dba 003b ebe9 a5ba 84f4 22bb
00000010: 91bb d5bb

action_model._discrete_distribution.branches.0.weight f4 [5, 128]
-0.00922957 -0.0070296507 -0.0063063065 0.0104619395 -0.0031665615 0.0022783913 0.0036041741 0.00096264837
-0.04024966 0.01068628 -0.002267913 0.0072163017 -0.029175503 -0.016218957 0.014593887 0.017531259
0.01863677 0.0062402776 -0.004377799 0.006490061 0.009120601 -0.0104485005 0.013729551 0.0010504666
0.0049044495 -0.013892967 0.016565455 -0.007402643 0.011898825 -0.0029000477 -0.016394258 0.018231153
-0.024865115 -0.011714689 -0.021148518 -0.0040512653 0.0012662729 0.0006650069 0.015696282 -0.00012073571
0.0022256603 -0.02814224 -0.015943127 0.0026251238 -0.007707874 -0.0012066765 -0.002037107 -0.008267166
-0.0035068279 -0.0006174914 -0.0012622543 -0.008717706 8.8998866e-05 0.0001965032 0.0061394842 0.022235258
0.0058611347 0.0061376025 -0.012637109 -0.004997665 -0.0011522712 -0.0040887524 0.005813577 0.024110446
0.0062515293 0.0127527295 0.0049505634 -0.025159558 -0.012946681 0.015804565 0.005474108 -0.013682151
-0.0049165185 -0.0026094227 -0.029295659 0.01203067 -0.012173478 0.004863687 -0.0042444603 0.02731642
0.0045552053 0.00412237 -0.014062196 0.018744519 0.02992517 0.010030655 0.00043446373 0.00032110655
-0.011508534 0.013775527 -0.021432977 0.0035616683 0.00078635407 -0.008674245 -0.005219977 0.017268857
0.00013617355 0.004580757 0.016275607 0.02998084 0.01407679 -0.0017441739 -0.009174598 -0.0014092207
0.011328458 0.0077050924 -0.011098073 0.008982146 -0.011727173 -0.01940185 0.026353339 0.017811326
0.030089004 0.006194552 0.012171436 0.011355678 0.007154442 -0.00010347357 0.020522567 0.01053873
-0.020888543 0.015624937 -0.0009591233 0.016856834 0.0010431783 -0.0067706984 0.0008127653 -0.00073946273
-0.005388727 -0.0063730157 0.01950011 -0.0019551727 0.011478935 0.0009906869 -0.007656629 0.011865509
-0.013079537 -0.009224193 0.015781948 -0.022900285 0.0066004284 -0.0077375635 0.010020875 0.0029067826
0.010768438 0.01473423 0.01499145 0.018367607 0.0100757545 0.016379228 0.015974678 -0.012332407
-0.0026624175 -0.029954974 0.008860167 0.02141206 -0.0027804086 -0.004582929 0.010265764 0.016410764
-0.010196742 0.017365973 -0.0052220565 0.009032501 0.017889258 0.0006520052 -0.023926802 0.0044615944
0.008030173 0.0010942956 0.0009543525 0.0053184466 -0.0031094253 0.00026731167 0.00025409306 0.009396479
0.0005049973 0.0073874933 0.008295285 0.033933192 0.017427279 0.0099627925 0.02463153 -0.0102989655
-0.011189691 -0.0062834006 0.021054965 -0.026198938 -0.021648409 0.013340429 0.014811505 0.002935088
-0.0031769497 0.009673899 0.025191046 -0.02137362 -0.013127938 0.0023223078 0.016681422 -0.013637646
-0.006748345 -0.0039566066 -0.007411731 0.015115312 0.00025962226 0.008621725 -0.010295073 0.009388737
0.016768545 -0.0010305151 -0.011822172 0.009238989 0.034460828 0.007912016 0.00523912 0.006065403
0.0019091733 0.005837369 0.009260504 -0.036852356 0.011904656 0.010435875 0.009176466 0.00312023
0.01558638 0.025454875 0.018345997 0.018138142 -0.01622312 0.0065733907 -0.0027363037 0.020202605
0.007073407 -0.0021271429 0.014494675 -0.004312582 0.01299915 -0.010009697 -0.014569214 0.00477471
-0.011875044 -0.008233412 -0.0027368588 0.0011374872 0.013876194 -0.010363665 0.026729362 -0.0025231298
-0.022474483 -0.0011096629 0.012968078 0.004962097 0.01677402 -0.028336048 0.005561739 0.010001241
00000000: 9f37 17bc fc58 e6bb 22a5 cebb 8e68 2b3c
00000010: 1686 4fbb 1051 153b 0234 6c3b 3d5a 7c3a
00000020: d4dc 24bd 8215 2f3c 44a1 14bb ba76 ec3b
00000030: 7701 efbc 9edd 84bc 331b 6f3c b79d 8f3c
00000040: 24ac 983c 3e7b cc3b a473 8fbb 94aa d43b
00000050: 936e 153c 3030 2bbc e9f1 603c cfaf 893a
00000060: 81b5 a03b 549f 63bc 47b4 873c df91 f2bb
00000070: 4af3 423c ba0e 3ebb 404d 86bc 8059 953c
00000080: edb1 cbbc f8ee 3fbc a83f adbc 7ac0 84bb
00000090: 11f9 a53a dc53 2e3a 7d95 803c 7e33 fdb8
000000a0: 62dc 113b 8e8a e6bc 299b 82bc 450a 2c3b
000000b0: 5592 fcbb 5829 9eba fc80 05bb 0273 07bc
000000c0: cfd2 65bb 25df 21ba 3a72 a5ba b6d4 0ebc
000000d0: e7a4 ba38 6d0c 4e39 ba2d c93b b726 b63c
000000e0: c30e c03b f11d c93b e00b 4fbc 74c3 a3bb
000000f0: ce07 97ba f1fa 85bb d27f be3b 4583 c53c
00000100: a1d9 cc3b d3f0 503c 5638 a23b 6b1b cebc
00000110: 511e 54bc 9378 813c 2560 b33b 1a2b 60bc
00000120: bf1a a1bb d902 2bbb 73fd efbc 4a1c 453c
00000130: 4473 47bc 905f 9f3b 1d15 8bbb afc6 df3c
00000140: d543 953b f214 873b 2065 66bc 1b8e 993c
00000150: a125 f53c 9e57 243c bcc8 e339 315a a839
00000160: 4a8e 3cbc bfb2 613c 3694 afbc e16a 693b
00000170: 5423 4e3a 6c1e 0ebc 570c abbb 6b77 8d3c
00000180: cfc9 0e39 2d1a 963b 6c54 853c 619a f53c
00000190: 56a2 663c c49c e4ba 0e51 16bc 9ab5 b8ba
000001a0: ff9a 393c 007b fc3b b1d4 35bc da29 133c
000001b0: 5423 40bc a1f0 9ebc f5e2 d73c 0fe9 913c
000001c0: 377d f63c abfb ca3b b46a 473c 2a0d 3a3c
000001d0: cf6f ea3b f3ff d8b8 f11e a83c a3aa 2c3c
000001e0: 731e abbc bcff 7f3c ad6d 7bba 5817 8a3c
000001f0: 41bb 883a bcdc ddbb c20f 553a 81d8 41ba
00000200: eb93 b0bb bbd4 d0bb b2be 9f3c 5b22 00bb
00000210: 2512 3c3c f0d9 813a 76e4 fabb 8d67 423c
00000220: 8e4b 56bc 1221 17bc 2549 813c 6199 bbbc
00000230: 6848 d83b 638b fdbb 992e 243c b87f 3e3b
00000240: 1a6e 303c d767 713c b39e 753c aa77 963c
00000250: c714 253c bb2d 863c 54dd 823c dd0d 4abc
00000260: f47b 2ebb 2264 f5bc 3c2a 113c 5868 af3c
00000270: 8437 36bb 652c 96bb bc31 283c de6f 863c
00000280: 3c10 27bc 1643 8e3c c91d abbb 0efd 133c
00000290: 7e8c 923c 54eb 2a3a 2402 c4bc 9132 923b
000002a0: fd90 033c 786e 8f3a 832d 7a3a 5d46 ae3b
000002b0: 80c7 4bbb f725 8c39 cb37 8539 b1f3 193c
000002c0: cc61 043a c912 f23b f2e8 073c 88fd 0a3d
000002d0: a7c3 8e3c fb3a 233c 10c8 c93c febc 28bc
000002e0: f754 37bc fce4 cdbb 767b ac3c 289f d6bc
000002f0: 0158 b1bc d191 5a3c f4ab 723c 9b5a 403b
00000300: 5f34 50bb 467f 1e3c 745d ce3c bb17 afbc
00000310: 9016 57bc dc31 183b 7aa7 883c 6f70 5fbc
00000320: 3921 ddbb 6ca6 81bb 1bde f2bb 37a6 773c
00000330: e91d 8839 2342 0d3c aaac 28bc 38d3 193c
00000340: 305e 893c 5912 87ba c9b1 41bc 215f 173c
00000350: cc26 0d3d 66a1 013c edac ab3b 4ac0 c63b
00000360: 3a3d fa3a 6647 bf3b 5eb9 173c 7ff2 16bd
00000370: bf0b 433c 3bfb 2a3c e358 163c c67c 4c3b
00000380: 045e 7f3c be86 d03c 584a 963c 7196 943c
00000390: 59e6 84bc 9965 d73b 8f53 33bb ef7f a53c
000003a0: 0ac8 e73b 8967 0bbb 137b 6d3c 8f50 8dbb
000003b0: 63fa 543c b6ff 23bc b6b3 6ebc 2c75 9c3b
000003c0: 8b8f 42bc 6fe5 06bc df5c 33bb bd17 953a
000003d0: fa58 633c 5dcc 29bc 89f7 da3c 185b 25bb
000003e0: 681c b8bc 1c72 91ba 1078 543c 1699 a23b
000003f0: ab69 893c 0021 e8bc 403f b63b 3fdc 233c

action_model._discrete_distribution.branches.0.bias f4 [5]
0.019684369 0.010500842 0.021595493 0.019522682 -0.055313367
00000000: 1d41 a13c b90b 2c3c 08e9 b03c 08ee 9f3c
00000010: 4590 62bd
