results/shortRays/Tank/Tank-288246.pt (torch, 635120 bytes, 42 tensors)

network_body._body_endoder.seq_layers.0.weight f4 [128, 64]
0.23676413 0.1463199 0.06867355 -0.022698287 0.024257677 0.015228329 0.17049554 0.14433281
0.0259863 -0.20738617 -0.14882202 0.10411805 0.08342318 -0.012257061 -0.012035357 -0.03182776
0.10586612 -0.01772116 0.1889966 0.14399894 -0.050565455 0.0019058737 0.006758179 0.044250254
0.12910129 0.026353855 0.117638685 0.06766956 0.08621164 -0.17325637 -0.16118385 0.056435924
0.20069098 0.052090734 0.113478206 0.023305109 -0.07367095 0.14219683 0.07974353 -0.11119817
0.10453301 -0.06913201 -0.11137703 0.039078504 -0.053678617 -0.0042661396 0.020980861 -0.07796043
-0.011890506 0.12862182 -0.09782717 -0.06367033 -0.09722866 0.06024811 -0.041454848 -0.013930112
0.17392917 0.039487343 0.0017363456 0.2031386 -0.0049783294 0.07031927 -0.046340916 0.06091963
0.107263006 0.1508103 0.1600438 -0.074390315 -0.06884412 0.10189442 0.153774 0.016602378
-0.03734683 -0.09492212 -0.056846205 0.10808969 -0.2658823 -0.12604529 0.20983428 0.083057344
-0.035605557 0.0020440177 0.0070988317 0.0232344 0.036892407 0.066981345 0.07194439 -0.0442458
-0.004592804 -0.09515644 0.17953494 -0.09253272 -0.008472476 -0.06764454 0.14784393 0.0024022255
-0.0144300535 0.08752575 0.09626321 -0.03782223 -0.13436893 0.015957976 -0.09090863 -0.02555652
0.20840299 0.17056294 0.026635345 -0.017687703 -0.124353796 0.16823287 -0.02264388 0.10570545
-0.08243396 -0.064161114 -0.048902575 -0.18439308 0.05303667 -0.13875 0.068188414 -0.005558375
-0.20459108 -0.13472313 0.01115151 0.13073878 -0.25706166 -0.18807983 -0.073680274 0.018282682
0.020035693 0.09801039 -0.09780361 0.13701859 -0.05874524 -0.022065036 0.013264959 -0.058938023
-0.06089171 -0.023652544 -0.038506627 -0.054049924 0.05605103 -0.11891677 0.24343061 0.14704503
-0.0073313615 0.09052024 -0.3210921 -0.005936191 0.0408053 0.09875503 -0.18688764 0.21660736
-0.08722933 -0.048482858 -0.05924724 -0.17384422 -0.023836242 0.07019331 0.023888536 0.066915385
-0.10400489 0.13113452 0.0090239355 -0.07272917 -0.14026329 -0.07296553 -0.02405426 0.05103903
-0.12483491 0.072481364 0.26985344 -0.050621387 -0.04949378 0.12510914 -0.02876047 0.11794433
-0.077354275 0.012719011 0.03183748 0.08801485 -0.261549 -0.21867733 -0.010132801 0.03077163
-0.0047793626 -0.16837625 0.018632235 0.06748197 -0.04588631 -0.096154295 -0.109297946 0.014330343
-0.09978556 0.053666513 0.09999618 -0.004419315 0.33394688 0.0721353 -0.057999 -0.25866246
-0.06981615 0.012711231 0.191777 -0.118882194 0.017377844 -0.12780531 0.12995784 -0.013544005
-0.018057745 0.14470091 -0.14191787 0.22138341 -0.1270654 0.062019248 0.010376951 0.13657704
0.10432129 0.0029689192 0.17701562 -0.008240351 -0.10039818 -0.21740425 0.016237872 -0.13017456
-0.06167767 -0.059597578 -0.102062955 0.009991696 -0.114901535 0.09861083 0.009871218 -0.01729804
0.05392839 -0.045355145 -0.10371871 -0.09937048 0.048160966 0.042792026 0.139 0.1530174
0.028761493 -0.07567711 0.0143116005 0.027875472 0.02353268 0.18516035 0.1675379 0.034975696
0.04407526 -0.12849972 0.17786767 -0.00088577403 0.15494715 0.10560908 0.051254652 -0.05202311
00000000: 4c72 723e e2d4 153e b8a4 8c3d c2f1 b9bc
00000010: 09b8 c63c 3e80 793c 6296 2e3e fbcb 133e
00000020: 39e1 d43c 0a5d 54be cd64 18be d83b d53d
00000030: c6d9 aa3d d7d1 48bc f22f 45bc d35d 02bd
00000040: 56d0 d83d f72b 91bc 5388 413e 7574 133e
00000050: b91d 4fbd 82ce f93a b773 dd3b c13f 353d
00000060: 2133 043e 0ae4 d73c 8dec f03d 5796 8a3d
00000070: ba8f b03d 1e6a 31be 610d 25be 5b29 673d
00000080: f081 4d3e 185d 553d 4367 e83d 5bea be3c
00000090: cce0 96bd 0c9c 113e 9350 a33d debb e3bd
000000a0: 6715 d63d 1595 8dbd a419 e4bd c810 203d
000000b0: 1cde 5bbd f9ca 8bbb 0ee0 ab3c b8a9 9fbd
000000c0: 66d0 42bc 70b5 033e 9c59 c8bd 9765 82bd
000000d0: d21f c7bd b9c6 763d 8fcc 29bd 203b 64bc
000000e0: 7d1a 323e 7bbd 213d 1796 e33a 9103 503e
000000f0: 4121 a3bb 8d03 903d f9cf 3dbd dd86 793d
00000100: b5ac db3d 046e 1a3e 86e2 233e f359 98bd
00000110: 25fe 8cbd 06ae d03d ee76 1d3e b601 883c
00000120: fdf8 18bd 8766 c2bd 91d7 68bd 215e dd3d
00000130: ba21 88be 0412 01be ccde 563e f819 aa3d
00000140: 22d7 11bd edf4 053b 519d e83b 1256 be3c
00000150: 7e1c 173d 842d 893d 9557 933d 153b 35bd
00000160: 3b7f 96bb 61e1 c2bd 02d8 373e cb81 bdbd
00000170: 24d0 0abc 3889 8abd 6664 173e a86e 1d3b
00000180: 086c 6cbc b340 b33d a525 c53d 7ceb 1abd
00000190: 0298 09be 4dba 823c 4e2e babd e85b d1bc
000001a0: 9867 553e 0da8 2e3e 5e32 da3c cde5 90bc
000001b0: 34ad febd 3d45 2c3e a97f b9bc 197c d83d
000001c0: 23d3 a8bd e766 83bd 114e 48bd 8ad1 3cbe
000001d0: fb3c 593d 7b14 0ebe 5ea6 8b3d 0723 b6bb
000001e0: 5380 51be dcf4 09be d3b4 363c 63e0 053e
000001f0: 969d 83be 0098 40be afe5 96bd 90c5 953c
00000200: e521 a43c acb9 c83d 424d c8bd 9a4e 0c3e
00000210: d99e 70bd bcc1 b4bc 4555 593c ff68 71bd
00000220: 9669 79bd fbc2 c1bc 20b9 1dbd 7463 5dbd
00000230: c495 653d a38a f3bd e045 793e f992 163e
00000240: eb3b f0bb ad62 b93d 2f66 a4be 6184 c2bb
00000250: 7523 273d 1440 ca3d 795f 3fbe 52ce 5d3e
00000260: 4aa5 b2bd f695 46bd 3cad 72bd 3804 32be
00000270: 3944 c3bc 83c1 8f3d e4b1 c33c ef0a 893d
00000280: 8400 d5bd 2148 063e 21d9 133c 08f3 94bd
00000290: 2ea1 0fbe f46e 95bd 710d c5bc 4d0e 513d
000002a0: 72a9 ffbd 1c71 943d 3b2a 8a3e 5f58 4fbd
000002b0: fdb9 4abd 9c1c 003e 149b ebbc cc8c f13d
000002c0: eb6b 9ebd 6663 503c 0468 023d 2141 b43d
000002d0: c0e9 85be f3ec 5fbe 0c04 26bc c914 fc3c
000002e0: 339c 9cbb d36a 2cbe a1a2 983c fd33 8a3d
000002f0: 49f3 3bbd 8bec c4bd 9ad7 dfbd d1c9 6a3c
00000300: 5f5c ccbd 6bd1 5b3d ccca cc3d e7cf 90bb
00000310: 16fb aa3e acbb 933d 5c90 6dbd 686f 84be
00000320: c5fb 8ebd c442 503c 3161 443e 8278 f3bd
00000330: fb5b 8e3c 65df 02be ab13 053e ade7 5dbc
00000340: d6ed 93bc 7a2c 143e eb52 11be 55b2 623e
00000350: 6f1d 02be e507 7e3d 1604 2a3c dada 0b3e
00000360: 67a6 d53d 3392 423b 9543 353e 8a02 07bc
00000370: 909d cdbd 389f 5ebe 4905 853c 7b4c 05be
00000380: b9a1 7cbd 971c 74bd 6206 d1bd 36b4 233c
00000390: 7f51 ebbd 7af4 c93d e4ba 213c 9fb4 8dbc
000003a0: 04e4 5c3d 51c6 39bd 7a6a d4bd c082 cbbd
000003b0: 6f44 453d b146 2f3d 0456 0e3e 98b0 1c3e
000003c0: 399d eb3c 9afc 9abd 347b 6a3c 1a5b e43c
000003d0: 9bc7 c03c ad9a 3d3e 0e8f 2b3e ad42 0f3d
000003e0: 4388 343d 6e95 03be f122 363e 4a33 68ba
000003f0: 77aa 1e3e 9349 d83d 66f0 513d 2f16 55bd

network_body._body_endoder.seq_layers.0.bias f4 [128]
0.020824486 0.005192351 0.0013925874 0.0025809107 -0.00047252403 0.028727124 -0.008150863 -0.0013576986
-0.0047042556 -0.0031232755 0.003685099 0.023815215 0.00686097 0.0028852231 0.005122514 0.019924734
0.03447639 -0.0011821351 -0.009852435 -0.005382508 -0.015331896 -0.002973212 -0.0070540314 0.0015544066
0.005701576 -0.007409789 0.00405718 -0.0074822325 -0.015213433 -0.012661931 -0.0018053931 0.01140222
0.005202152 0.0033172623 0.015864698 0.014608039 0.0038129955 0.018279215 0.00498152 -0.0075796554
-0.009626282 -0.0039475444 -0.0046144743 -0.0030398045 -0.017119613 -0.013372732 -0.0034398711 -0.006509446
0.00033650122 0.0011022898 0.0025606463 -0.0073887003 0.0028680684 -0.0081044035 -0.0006256402 0.0159674
-0.011003419 -0.0034575018 0.008074896 0.0065394235 -0.0016256586 0.007941793 0.0040572123 0.01546378
-0.0017733016 -0.020957032 -0.0018874456 -0.0056471527 -0.0039409325 0.0012074444 -0.0039153164 -0.0062848344
-0.00070175284 0.010627938 -0.018085208 0.021145739 0.017670471 -0.0049681724 -0.0016636536 0.0019342109
-0.018683186 0.013839534 -0.0043509966 0.00069242035 0.006997422 -0.003070203 -0.016931755 0.01644908
0.005451217 0.0066946778 0.0068483106 0.008171214 -0.0064684744 -0.017159697 0.008529177 -0.014259899
-0.0033686878 0.00089692423 0.0018396756 0.02450183 0.0037084694 -0.0029817976 -0.008930772 0.008149574
-0.0042437967 0.013369256 -0.0013438427 -0.0111454865 -0.01038973 0.0041319686 0.0020226755 -0.006710941
0.0066315425 -0.0065132505 0.0075099207 -0.015196117 -0.009432868 -0.009571806 0.0054730605 0.0069716987
0.007068734 0.016677763 -0.0011673676 -0.0030347882 0.0015497778 -0.00931844 -0.007028243 -0.0004615834
00000000: 1d98 aa3c 9924 aa3b 7b87 b63a 7f24 293b
00000010: 1abd f7b9 2555 eb3c 338b 05bc cef4 b1ba
00000020: 2826 9abb deaf 4cbb b481 713b 2018 c33c
00000030: fdd1 e03b 0316 3d3b c3da a73b 3239 a33c
00000040: 1d37 0d3d dff1 9aba 1c6c 21bc c05f b0bb
00000050: a232 7bbc 38da 42bb 8125 e7bb 3bbd cb3a
00000060: 49d4 ba3b d1cd f2bb 18f2 843b 842d f5bb
00000070: c341 79bc fd73 4fbc f1a2 ecba 61d0 3a3c
00000080: d076 aa3b 6d66 593b aff6 813c 8e56 6f3c
00000090: 73e3 793b 4bbe 953c 053c a33b c25e f8bb
000000a0: 8eb7 1dbc 675a 81bb 0435 97bb 7537 47bb
000000b0: 6e3e 8cbc 4e19 5bbc 766f 61bb 314d d5bb
000000c0: 6e6c b039 b57a 903a 84d0 273b e91c f2bb
000000d0: 34f6 3b3b 55c8 04bc 0102 24ba 11ce 823c
000000e0: af47 34bc 4197 62bb 924c 043c a948 d63b
000000f0: 0d14 d5ba 4b1e 023c 5df2 843b cb5b 7d3c
00000100: 216e e8ba 15ae abbc 2a64 f7ba c00b b9bb
00000110: f022 81bb 1c43 9e3a 0e4c 80bb 03f1 cdbb
00000120: d6f5 37ba ce20 2e3c 6e27 94bc d439 ad3c
00000130: aac1 903c 0dcc a2bb f40e daba 5985 fd3a
00000140: 7b0d 99bc 36bf 623c ce92 8ebb 8b83 353a
00000150: a14a e53b 7535 49bb 77b4 8abc 39c0 863c
00000160: 1fa0 b23b 075f db3b cb67 e03b 8ee0 053c
00000170: 7ff5 d3bb 7e92 8cbc f6bd 0b3c 5aa2 69bc
00000180: 34c5 5cbb 911f 6b3a 4521 f13a 10b8 c83c
00000190: cb09 733b 436a 43bb 5f52 12bc ca85 053c
000001a0: 8c0f 8bbb b90a 5b3c e123 b0ba 8f9b 36bc
000001b0: b039 2abc 7765 873b dd8e 043b 74e7 dbbb
000001c0: 694d d93b 1b6d d5bb c815 f63b 22f9 78bc
000001d0: 518c 1abc 10d3 1cbc 5c57 b33b d972 e43b
000001e0: d7a0 e73b ce9f 883c 5b02 99ba 4ce3 46bb
000001f0: ea21 cb3a 5fac 18bc 2d4d e6bb ad00 f2b9

network_body._body_endoder.seq_layers.2.weight f4 [128, 128]
-0.08429304 0.048783947 -0.19876444 0.033499498 0.11406299 0.046649132 -0.05806938 -0.17147171
0.08940645 0.013916938 0.032984555 0.19486032 -0.007903188 -0.18893677 0.097151324 0.19981521
0.13199562 0.10001059 -0.041796282 0.06396187 0.001542504 0.007509364 0.0037904247 -0.018185306
0.0732377 -0.08491755 -0.07032458 0.08984404 0.049378514 -0.076747715 -0.08211019 -0.09279218
-0.11912665 -0.045079924 0.04380674 0.004856341 -0.037335277 0.11312835 0.1297833 -0.113488376
-0.1057662 -0.090812065 0.027278306 0.13518709 -0.19605727 -0.018884853 0.011316695 -0.23955679
0.08538794 -0.08460807 -0.047736134 0.07130652 0.05839372 0.05940574 -0.028435284 -0.0405344
-0.09890173 0.026724765 0.12226074 0.11686453 0.0649223 -0.054679815 0.119919725 0.0043916097
-0.01495607 -0.013027776 -0.007556117 0.0080231065 0.14745092 -0.15351446 -0.02836574 0.07601765
0.109779716 0.12096045 -0.0064897873 0.04903829 0.06728971 0.033637144 0.06792091 -0.0983095
0.019208543 0.037094668 -0.17222056 -0.003747769 -0.007141601 0.0039509693 0.11119879 0.10633202
-0.11943813 -0.07638977 0.048061326 -0.008405605 0.03195474 -0.027727263 0.014516015 -0.07356126
-0.0463316 -0.10632683 -0.049028236 -0.076582305 -0.11545156 -0.05553727 -0.026235266 0.030148856
-0.043602 -0.010000447 0.046292417 0.004537027 -0.06991351 -0.1164956 -0.07046675 -0.123369426
0.01377682 0.0638939 -0.019913673 -0.17739832 0.0033423852 0.021145152 -0.090017594 0.14185955
0.1020639 0.0117971385 -0.17676297 0.06178081 0.074709244 -0.07805372 -0.04614739 -0.16618457
0.023601951 0.09557736 -0.073078565 -0.00073826825 -0.03728806 0.06765057 0.0892312 -0.034990385
0.029890448 0.21935768 -0.18442693 -0.08678675 0.12012597 -0.037517708 -0.0055423514 -0.09125031
-0.089689754 -0.041490763 0.0054551424 0.059042007 -0.06340295 -0.05024831 0.08650304 0.12717178
-0.1361317 -0.01329751 0.09857399 -0.0013783906 0.029890936 0.047729407 0.061463863 0.19940169
-0.20542136 0.09610394 -0.11105477 0.04396873 0.036719657 0.07841356 -0.049994655 -0.07841866
0.13847141 -0.10584481 -0.034453526 0.091981456 0.060188603 -0.085427545 0.081557475 -0.08073294
0.16276005 0.22127444 -0.051122043 0.034435637 0.06489485 -0.002128533 0.02289506 0.023441141
0.03422923 -0.059420407 0.057427935 0.26559615 -0.026471414 -0.07868193 -0.03734638 0.040292434
0.112053566 -0.0060126605 0.020618618 -0.19537416 -0.06479005 -0.13628855 -0.06270866 -0.054657415
-0.019344296 -0.03990386 -0.07767153 -0.1721217 0.19765286 -0.16215527 -0.04795484 0.0905395
-0.03744058 -0.13743931 0.009405011 -0.0074260817 -0.062501736 0.16916957 -0.072459556 -0.029438857
0.08519116 0.037165817 -0.052972216 0.0066282507 0.022275273 0.042787585 0.15975074 0.13265848
0.05354493 -0.13943636 0.05147009 0.16872957 -0.05653198 -0.042843897 -0.069827236 -0.0044524022
0.18990834 0.023935528 0.12038165 0.12364333 0.09767525 0.09605411 0.1308441 -0.074332945
-0.05243396 -0.06555011 0.021420836 0.0317021 0.076317914 -0.18955569 -0.14624608 -0.027897371
-0.098998375 0.17823952 0.010142052 -0.0074927616 0.065622576 0.08656207 0.20388836 -0.073110655
00000000: d4a1 acbd add1 473d e888 4bbe c536 093d
00000010: db99 e93d 2913 3f3d 28da 6dbd 4896 2fbe
00000020: bb1a b73d de03 643c d01a 073d 7789 473e
00000030: 5f7c 01bc a478 41be 46f7 c63d 5c9c 4c3e
00000040: dc29 073e 5ad2 cc3d 9432 2bbd 71fe 823d
00000050: d82d ca3a 1c11 f63b c668 783b 5af9 94bc
00000060: a6fd 953d 41e9 adbd 5506 90bd 2700 b83d
00000070: 2041 4a3d e82d 9dbd 6329 a8bd d409 bebd
00000080: acf8 f3bd baa5 38bd b26e 333d f121 9f3b
00000090: e0ec 18bd d6af e73d eae5 043e 986c e8bd
000000a0: f39b d8bd adfb b9bd c176 df3c 7c6e 0a3e
000000b0: 3dc3 48be 68b4 9abc a969 393c 604e 75be
000000c0: dfdf ae3d ff46 adbd f786 43bd 2709 923d
000000d0: 412e 6f3d 6f53 733d 1df1 e8bc 6607 26bd
000000e0: fd8c cabd e5ed da3c d763 fa3d ac56 ef3d
000000f0: fcf5 843d f1f7 5fbd 7998 f53d 7ee7 8f3b
00000100: 4e0a 75bc 7472 55bc 4e99 f7bb 5973 033c
00000110: 60fd 163e e532 1dbe 455f e8bc 24af 9b3d
00000120: 30d4 e03d 1dba f73d 48a8 d4bb 60dc 483d
00000130: 30cf 893d 1ac7 093d 1e1a 8b3d 7e56 c9bd
00000140: 3c5b 9d3c 94f0 173d 965a 30be 219d 75bb
00000150: 1704 eabb 2277 813b 31bc e33d 9ac4 d93d
00000160: fa9b f4bd 3d72 9cbd f4db 443d aab7 09bc
00000170: f9e2 023d 4924 e3bc 94d4 6d3c 49a7 96bd
00000180: 34c6 3dbd e2c1 d9bd d5d1 48bd 2fd7 9cbd
00000190: de71 ecbd 0c7b 63bd 57eb d6bc bcfa f63c
000001a0: 0398 32bd ead8 23bc 1e9d 3d3d 57ab 943b
000001b0: d02e 8fbd 3f95 eebd df50 90bd 1ca9 fcbd
000001c0: 2cb8 613c ceda 823d 0022 a3bc e8a7 35be
000001d0: eb0b 5b3b 9938 ad3c 255b b8bd a143 113e
000001e0: e106 d13d c948 413c 5a01 35be e00d 7d3d
000001f0: 2901 993d a1da 9fbd 0c05 3dbd 4a2c 2abe
00000200: e158 c13c 10be c33d 37aa 95bd 5888 41ba
00000210: 5dbb 18bd 628c 8a3d d9be b63d 1452 0fbd
00000220: d0dc f43c 4d9f 603e 6ada 3cbe 40bd b1bd
00000230: 9b04 f63d 2bac 19bd 9d9c b5bb 71e1 babd
00000240: 43af b7bd 38f2 29bd 0dc1 b23b 08d6 713d
00000250: 68d9 81bd 2cd1 4dbd 8128 b13d 5239 023e
00000260: 1c66 0bbe cddd 59bc 29e1 c93d 1dab b4ba
00000270: d6dd f43c e97f 433d 88c1 7b3d f52f 4c3e
00000280: fa59 52be 24d2 c43d af70 e3bd 8e18 343d
00000290: 5a67 163d 4a97 a03d 32c7 4cbd f699 a0bd
000002a0: 73cb 0d3e 2ac5 d8bd 241f 0dbd c660 bc3d
000002b0: 5388 763d a3f4 aebd 9b07 a73d 5057 a5bd
000002c0: 92aa 263e c495 623e 5965 51bd 620c 0d3d
000002d0: 97e7 843d dc7e 0bbb 6c8e bb3c a307 c03c
000002e0: f333 0c3d d062 73bd 8e39 6b3d 38fc 873e
000002f0: 94da d8bc fe23 a1bd 85f8 18bd ae09 253d
00000300: 577c e53d da05 c5bb 60e8 a83c 2a10 48be
00000310: a5b0 84bd 3a8f 0bbe 666d 80bd 74e0 5fbd
00000320: ee77 9ebc 3b72 23bd 4012 9fbd ac40 30be
00000330: 8365 4a3e 080c 26be 4b6c 44bd c66c b93d
00000340: 4b5b 19bd e4bc 0cbe 7a17 1a3c 7d56 f3bb
00000350: e900 80bd ca3a 2d3e ad65 94bd c229 f1bc
00000360: b478 ae3d 2f3b 183d 65f9 58bd cc31 d93b
00000370: a27a b63c 0942 2f3d b395 233e a0d7 073e
00000380: ee51 5b3d 68c8 0ebe 4dd2 523d 72c7 2c3e
00000390: 148e 67bd 157d 2fbd 9501 8fbd 75e5 91bb
000003a0: 5577 423e 7114 c43c a88a f63d b738 fd3d
000003b0: f609 c83d 04b8 c43d fffb 053e df3b 98bd
000003c0: fec4 56bd 233f 86bd c07a af3c 10da 013d
000003d0: 914c 9c3d e31a 42be 88c1 15be 0789 e4bc
000003e0: a9bf cabd 6c84 363e d92a 263c d785 f5bb
000003f0: 2165 863d 7447 b13d 1cc8 503e 0abb 95bd

network_body._body_endoder.seq_layers.2.bias f4 [128]
0.041320454 0.0031796135 0.0028042148 0.0043878183 0.0056432243 0.020349223 0.009882719 0.005960365
0.00706143 -0.0021270472 0.0012981646 -0.012793785 0.0028088724 0.0029787887 -0.009232605 0.0012905335
0.0013143496 -0.008485875 0.0025212562 -0.0011806148 0.0020223449 -0.009934823 0.0032052444 -0.009357296
-0.002606904 -0.0022086315 -0.005084705 0.0010811818 -0.0030606748 -0.017236792 -0.00026053088 -0.00023772352
-0.004607095 -0.007060709 -0.004584747 0.008836786 -0.0016964535 0.02390672 0.0054579703 -0.0061985976
-0.0073849675 -0.005011274 0.0072682085 -0.008191388 -0.0035802177 -0.009770807 -0.0057396223 0.011895699
0.00020354553 0.024402004 -0.0067748516 -0.010705636 -0.0068758777 -0.004479119 0.002689983 -0.0068847053
-0.0014709326 0.017707512 0.0036802527 0.00927414 -0.0048172064 0.002494348 0.033766977 0.001840126
0.0042348667 0.008112749 0.0006788256 -0.004479075 0.026312258 -0.0051957755 -0.006466209 -0.001375152
0.0009811227 -0.0007966771 0.0054038316 -0.001035666 -0.007178187 0.0023742174 0.02871802 -0.0026630913
0.012057869 0.0031820817 0.009589519 0.0010264907 0.0028515803 0.004713763 -0.0030043607 0.0008613891
-0.0070237727 -0.0028112428 0.0044109155 -0.0053334087 -0.0054081175 0.003916158 0.0024840531 -0.011244936
-0.008063565 0.0014647074 0.0184191 0.028040687 -0.0033688464 -0.0070954957 0.0062505794 -0.0022581145
0.006407961 0.0033721165 0.001219094 -0.006949347 0.0044548656 0.008160794 -0.0003663726 0.028056227
0.014105441 0.0064014182 -0.008022641 0.00064394926 -0.00036049887 -0.000627144 0.010538245 -0.005396381
-0.0048810197 0.0071638664 0.008972488 -0.000562683 -0.0063341786 0.0036155125 0.0019053234 -0.0041847085
00000000: a33f 293d 1061 503b ebc6 373b b0c7 8f3b
00000010: ccea b83b 6ab3 a63c 21eb 213c 2a4f c33b
00000020: 9163 e73b ee65 0bbb 2d27 aa3a 069d 51bc
00000030: 0f15 383b c837 433b 5a44 17bc 1e27 a93a
00000040: 4146 ac3a 5708 0bbc a93b 253b dcbe 9aba
00000050: 5189 043b abc5 22bc 140f 523b 584f 19bc
00000060: 97d8 2abb b0be 10bb 999d a6bb 71b6 8d3a
00000070: 9a95 48bb 2c34 8dbc dd97 88b9 6c45 79b9
00000080: 1df7 96bb 855d e7bb a53b 96bb 2bc8 103c
00000090: 895b deba 07d8 c33c c6d8 b23b 9b1d cbbb
000000a0: 99fd f1bb 9d35 a4bb 272a ee3b 2c35 06bc
000000b0: 16a2 6abb bc15 20bc 7113 bcbb 2ee6 423c
000000c0: d66e 5539 b6e6 c73c 93ff ddbb b166 2fbc
000000d0: 0b4f e1bb 93c5 92bb 6d4a 303b 1899 e1bb
000000e0: 4fcc c0ba 580f 913c 6530 713b 90f2 173c
000000f0: a8d9 9dbb 3778 233b 3e4f 0a3d 6230 f13a
00000100: a3c4 8a3b 56eb 043c 37f3 313a 34c5 92bb
00000110: ce8c d73c 5341 aabb 7ee2 d3bb 723e b4ba
00000120: 0499 803a 18d8 50ba a012 b13b 2fbf 87ba
00000130: ff36 ebbb c298 1b3b 0e42 eb3c 4287 2ebb
00000140: 5e8e 453c 798a 503b 5c1d 1d3c 508b 863a
00000150: 94e1 3a3b e975 9a3b cfe4 44bb d8ce 613a
00000160: ad27 e6bb d43c 38bb 7189 903b e0c3 aebb
00000170: 9436 b1bb 1d53 803b 7fcb 223b ae3c 38bc
00000180: 0b1d 04bc 6dfb bf3a a7e3 963c 95b5 e53c
00000190: ddc7 5cbb 5581 e8bb a9d1 cc3b e0fc 13bb
000001a0: dff9 d13b bafe 5c3b 02ca 9f3a 59b7 e3bb
000001b0: 1ffa 913b dab4 053c b315 c0b9 2cd6 e53c
000001c0: 821a 673c fdc2 d13b 6571 03bc b4ce 283a
000001d0: 5701 bdb9 ec66 24ba 9aa8 2c3c 20d4 b0bb
000001e0: f6f0 9fbb debe ea3b 5801 133c 0481 13ba
000001f0: f18e cfbb 3cf2 6c3b 0bbc f93a e11f 89bb

action_model._continuous_distribution.log_sigma f4 [1, 5]
0.0069041476 -0.006274115 -0.002859815 -0.0033481144 -0.0032365157
00000000: 303c e23b 1797 cdbb bc6b 3bbb 0a6c 5bbb
00000010: b91b 54bb

action_model._continuous_distribution.mu.weight f4 [5, 128]
-0.0075676325 -0.05204855 0.02060504 -0.0039899326 0.0003835608 0.0056023295 -0.0012004069 0.023250101
0.008684562 0.0121177435 -0.059848875 -0.027779864 0.025370322 -0.020610614 0.0152386 0.0042912834
-0.018359564 -0.0074977083 -0.0051545603 -0.008359879 -0.010079809 -0.03473738 -0.010178225 -0.010285781
-0.01758105 0.007853913 -0.0025346528 -0.011669585 0.005753146 8.4822736e-05 -0.0010662794 -0.011691256
-0.008404863 -0.022027032 0.025922937 -0.0042513506 0.035042077 0.011660037 -0.0103860125 0.0036021674
0.0041754902 0.009443884 -0.016368115 0.00080059294 -0.020975962 0.030856673 0.0065341224 0.001124409
-0.00092171755 0.0136164315 0.03043196 0.003108642 -0.0007287435 0.017230038 -0.01185903 -0.028134316
-0.020160183 0.006962378 0.012571811 -0.017142063 0.0012238146 0.004038724 -0.028278481 0.011087713
-0.00613186 -0.023332417 0.0066151726 -0.014471739 0.012463611 -0.0071107433 -0.0216442 -0.013917325
0.017320918 0.022824058 0.032054342 0.022624223 0.018852703 -0.016457904 0.028449263 -0.017969647
0.014418886 0.02883656 0.016951062 -0.0014809676 0.012949643 -0.01068072 0.028541377 -0.020507576
0.004797525 -0.002777165 -0.0040072566 0.019524042 0.002420823 -0.0073829726 -0.010058527 -0.00027594544
0.038599655 0.006906524 -0.010345794 0.017242111 0.01899198 0.016565766 -0.025770955 0.009662925
-0.02237644 0.02982574 -0.027553037 0.005305591 0.0051844106 -0.008025613 0.018410169 -0.006959891
0.024918223 -0.0044251014 0.0054574977 0.020613374 0.012113958 -0.019921657 -0.027580522 0.018218998
0.009312184 -0.021599041 -0.014727225 0.009728212 0.012370881 -0.001668883 0.010232867 -0.007085006
0.0024263232 -0.017908925 -0.020661438 -0.0039463886 0.0067481035 -0.005968186 -0.0051321005 -0.0036147549
-0.009761826 -0.011571362 -0.0043832855 0.017415702 0.0056903996 -0.010895637 0.013817372 -0.02143504
-0.008017876 -0.011313056 0.025137661 0.008970488 0.002863456 0.009057006 0.012701286 0.011763812
-0.016538553 0.006234334 -0.008771499 0.01885071 -0.0031739052 0.0076146238 0.00035294096 0.013623802
-0.00550898 -0.013058628 -0.014991175 -0.00032183185 0.015787395 0.011209415 -0.017843643 0.0020673815
-0.026345303 0.0018602337 -0.013377762 0.010172383 0.002793783 0.005155476 -0.006665512 -0.006414261
-0.0059302035 0.010192316 -0.008566717 -0.0028611843 -0.010040297 -0.021183865 -0.01371046 0.02219092
0.018652748 -0.018361636 0.027606655 0.013030646 0.015560543 -0.020442836 0.007206638 0.0010610902
-0.008285271 0.009192836 -0.00072395644 -0.029680211 0.0060901963 -0.011719095 -0.0011398912 0.018815825
0.0050156587 -0.025712622 -0.0038268066 -0.0040336773 0.016165175 0.0128359 0.0026488835 -0.025482686
0.01636524 0.005910731 -0.014530383 -0.010346954 -0.0056479247 0.031799026 0.0063848067 0.0024905384
0.015145487 0.013742587 0.011438668 -0.002763716 0.017923677 0.008682085 -0.008549546 0.001138611
-0.020585006 0.009990524 -0.0030561204 0.0088357935 -0.0060720714 -0.02435947 0.014955622 0.005699566
-0.0049104807 -0.018406006 0.023121918 -0.018689826 -0.025135996 0.008261934 -0.013445074 -0.010264523
-0.014351691 0.0025556292 0.012655304 0.0136199165 -0.030462919 0.00591492 0.00040366335 0.015121202
-0.0048065884 0.023722518 0.027697977 0.0014471643 -0.012809654 -0.023461808 -0.025680643 -0.012336398
00000000: e7f9 f7bb dc30 55bd e7cb a83c fbbd 82bb
00000010: a918 c939 bf93 b73b f956 9dba ff76 be3c
00000020: b149 0e3c 8089 463c 1824 75bd 9992 e3bc
00000030: 6cd5 cf3c 97d7 a8bc 52ab 793c e59d 8c3b
00000040: cc66 96bc 56af f5bb 96e7 a8bb e0f7 08bc
00000050: c925 25bc c848 0ebd 92c2 26bc b185 28bc
00000060: 2206 90bc b3ad 003c 6b1c 26bb c931 3fbc
00000070: e384 bc3b dce2 b138 66c2 8bba af8c 3fbc
00000080: 8db4 09bc 0972 b4bc 575c d43c ea4e 8bbb
00000090: 4888 0f3d bd09 3f3c 182a 2abc 5712 6c3b
000000a0: 8dd2 883b 85ba 1a3c 6d16 86bc e2de 513a
000000b0: c8d5 abbc 22c7 fc3c 311c d63b e860 933a
000000c0: 6b9f 71ba 7417 5f3c 724c f93c 5cba 4b3b
000000d0: 2609 3fba 0226 8d3c 614c 42bc f079 e6bc
000000e0: f826 a5bc a924 e43b fff9 4d3c 836d 8cbc
000000f0: 6768 a03a 4657 843b 46a8 e7bc 3da9 353c
00000100: c5ed c8bb a023 bfbc 17c4 d83b df1a 6dbc
00000110: 2c34 4c3c 3d01 e9bb 2d4f b1bc 7e05 64bc
00000120: 99e4 8d3c 85f9 ba3c 6a4b 033d 6f56 b93c
00000130: fc70 9a3c bad2 86bc 6e0e e93c 1535 93bc
00000140: 313d 6c3c a63a ec3c f4dc 8a3c 071d c2ba
00000150: bd2a 543c 30fe 2ebc 9bcf e93c 81ff a7bc
00000160: 8e34 9d3b 1901 36bb 4e4f 83bb e2f0 9f3c
00000170: aca6 1e3b ddec f1bb 85cc 24bc c5ac 90b9
00000180: ac1a 1e3d 1f50 e23b 6881 29bc 543f 8d3c
00000190: 1295 9b3c eeb4 873c 9c1d d3bc 3f51 1e3c
000001a0: cc4e b7bc 1c55 f43c e8b6 e1bc 86da ad3b
000001b0: fde1 a93b dc7d 03bc ecd0 963c cc0f e4bb
000001c0: 4d21 cc3c 7100 91bb cfd4 b23b 61dd a83c
000001d0: 9f79 463c be32 a3bc 8cf0 e1bc 0240 953c
000001e0: 2192 183c 79f0 b0bc 754a 71bc 1463 1f3c
000001f0: 3caf 4a3c 6cbe daba c1a7 273c 5729 e8bb
00000200: f302 1f3b bdb5 92bc 2d42 a9bc b550 81bb
00000210: 321f dd3b c690 c3bb 2e2b a8bb 86e5 6cbb
00000220: 11f0 1fbc cf95 3dbc aaa1 8fbb 60ab 8e3c
00000230: 8876 ba3b 9d83 32bc 4262 623c 8998 afbc
00000240: 695d 03bc 655a 39bc 7fed cd3c f4f8 123c
00000250: d2a8 3b3b d663 143c 0e19 503c 01bd 403c
00000260: dc7b 87bc 6249 cc3b 55b6 0fbc ce6c 9a3c
00000270: 4b01 50bb 1884 f93b ef0a b939 5e36 5f3c
00000280: ac84 b4bb dbf3 55bc 8c9d 75bc 8abb a8b9
00000290: 9154 813c b2a7 373c d52c 92bc e87c 073b
000002a0: 1bd2 d7bc 16d3 f33a 672e 5bbc 11aa 263c
000002b0: e717 373b 44ef a83b 5e6a dabb b92e d2bb
000002c0: 2752 c2bb acfd 263c 6a5b 0cbc b582 3bbb
000002d0: 0f80 24bc c989 adbc d6a1 60bc bbc9 b53c
000002e0: a6cd 983c 246b 96bc 5a27 e23c 7e7e 553c
000002f0: a6f1 7e3c bc77 a7bc a925 ec3b 4714 8b3a
00000300: f2be 07bc 8c9d 163c e5c7 3dba ea23 f3bc
00000310: 4590 c73b 7201 40bc 6768 95ba a523 9a3c
00000320: 655a a43b 47a3 d2bc 29cb 7abb f02c 84bb
00000330: d46c 843c ab4d 523c e498 2d3b 11c1 d0bc
00000340: 6510 863c ceae c13b d810 6ebc 4586 29bc
00000350: 3a12 b9bb b23f 023d a437 d13b 4d38 233b
00000360: c724 783c 9628 613c 4069 3b3c 761f 35bb
00000370: add4 923c 4e3f 0e3c 6513 0cbc 723d 953a
00000380: e3a1 a8bc 4baf 233c 3149 48bb 01c4 103c
00000390: 3af8 c6bb 838d c7bc 6d08 753c 6dc3 ba3b
000003a0: 19e8 a0bb 31c8 96bc 2d6a bd3c 681b 99bc
000003b0: 01ea cdbc 105d 073c ba48 5cbc 882c 28bc
000003c0: 5b23 6bbc 587c 273b 3158 4f3c 1226 5f3c
000003d0: 5f8d f9bc f2d1 c13b c7a2 d339 ebbe 773c
000003e0: 9680 9dbb ba55 c23c dee6 e23c c7ae bd3a
000003f0: 95df 51bc fa32 c0bc 3660 d2bc 9a1e 4abc

action_model._continuous_distribution.mu.bias f4 [5]
-0.0035830282 -0.003020491 0.006399652 0.003826852 0.0012005215
00000000: 3dd1 6abb 6ef3 45bb 2cb4 d13b eccb 7a3b
00000010: d15a 9d3a

action_model._discrete_distribution.branches.0.weight f4 [5, 128]
-0.035270758 -0.0020124011 -0.00584089 0.005521486 0.019690653 0.013895307 -0.00781537 0.010620706
0.0022973802 0.007202617 0.025802052 0.024848204 0.023528153 -0.01107545 0.003389677 0.022426302
0.019379474 0.009087557 0.0005856288 0.0139736375 -0.0016839915 -0.0075979037 0.018900463 0.038307708
0.015359206 0.008713639 0.008060543 -0.0036351276 0.026140012 0.011717955 0.0094730705 -0.0014250581
0.013050496 0.0009376455 0.0153585365 0.024672074 0.0056610494 -0.008617222 0.0040677693 0.018537689
0.0013465808 0.019206475 -0.008781049 -0.007382181 0.0072110496 0.0015130121 0.0028537146 -0.00095977593
0.0042585204 -0.0050192326 0.009405552 0.00046501844 0.0080201235 0.014426309 0.0054236795 0.0038550005
-0.0027283381 -0.014804172 0.0013532937 -0.021288024 0.024948116 -0.009573282 -0.033979088 0.004431639
0.015258425 0.0064256336 -0.012803079 -0.0016539642 -0.0136048 -0.0021757234 0.006991999 -0.0032986528
0.008774766 0.011853897 0.013385433 0.0016819806 0.009885927 -0.006214925 -0.011320585 0.0037567543
-0.0077998526 -0.009888126 0.027480138 0.0019789094 0.004177445 0.0047237393 -0.00020829735 0.02662983
0.0054924325 0.0050369194 -0.0060023 0.0022411463 0.028756654 0.0069853836 0.0030638014 -0.0051633106
-0.0072682393 0.018397084 0.0041979006 -0.020786952 0.0040357714 -0.0039476957 0.0129246535 -0.0034054748
0.010339018 0.027694723 -0.023879152 0.0037279362 0.010592514 -0.022290599 -0.0019369008 -0.03709649
0.004314977 -0.008990839 -0.0072052404 0.0066353157 -0.0022447773 -0.005873594 0.011432841 -2.0186679e-05
0.011128841 -0.016415548 0.01115098 -0.02322287 -0.010737973 0.026236398 0.008728739 -0.0004310525
-0.028456924 0.008315568 -0.009021577 -0.016191173 -0.0081078615 -0.0062964773 -0.010092652 0.037545014
-0.014809262 -0.0040541734 0.005108155 0.0053864284 0.012129127 -0.019511484 0.017801197 0.030579882
-0.0008066868 0.005144275 0.0011190543 0.01171074 0.005691373 0.015796678 0.00989019 0.006109392
-0.009298943 -0.0040412555 0.02088876 -0.00716173 0.008589543 -0.007309624 -0.00836843 0.014739559
0.0048143417 0.01860122 0.010074834 0.013434113 -0.0044633676 -0.008607231 0.0030199226 -0.0039171563
-0.004481811 0.00772661 0.008829475 -0.0008233675 -0.00030887767 -0.014328092 -0.0011406152 -0.016787529
-0.0037555292 -0.009800373 0.012292588 0.02357202 0.00090957934 0.0045799823 -0.0035757448 0.003107264
0.0077690925 0.004317283 0.009779379 0.0022822614 0.03229656 -0.007523754 -0.030630259 -0.0032970815
0.0027901735 -0.000992638 -0.0038051384 0.010257329 -0.028903965 -0.0074852114 0.0060085487 -0.007543382
0.008565431 0.024327535 -0.004546682 0.009916518 -0.009565585 -0.005837996 -0.017576069 -0.0076733357
0.042484358 0.0016545615 0.029992964 0.016954498 -0.0043994593 0.052337747 0.0042816084 0.006837541
0.0027239432 0.00057584175 0.022950305 -0.0051835333 -0.0042704465 -0.004174701 0.0065555396 -0.02358963
-0.0027833832 0.013479401 -0.011019621 -0.02889598 0.0052174907 0.0205945 -0.0027238114 0.01611056
-0.014275288 0.016296567 0.010736943 -0.0047988757 0.001702608 -0.0055142115 -0.0036842965 -0.0027013791
0.007666684 -0.001436196 0.012063057 -0.01594726 0.017306685 -0.0044367407 -0.010409699 -0.009645735
-0.010197356 -0.009546809 -0.023039212 0.012034844 0.010804145 -0.03436196 -0.016521927 -0.010325031
00000000: 1278 10bd 7de2 03bb f064 bfbb 95ed b43b
00000010: 4b4e a13c 24a9 633c 0a0c 00bc 7802 2e3c
00000020: a58f 163b ee03 ec3b d35e d33c 768e cb3c
00000030: 1dbe c03c ce75 35bc 5825 5e3b 5db7 b73c
00000040: b4c1 9e3c fae3 143c e284 193a aff1 643c
00000050: 61b9 dcba d6f7 f8bb 25d5 9a3c 8be8 1c3d
00000060: 2ea5 7b3c a7c3 0e3c 5e10 043c 523b 6ebb
00000070: 9423 d63c aafc 3f3c f034 1b3c 04c9 baba
00000080: bfd1 553c 53cc 753a 5fa2 7b3c 171d ca3c
00000090: 5380 b93b 402f 0dbc ec4a 853b 5adc 973c
000000a0: c17f b03a e656 9d3c 64de 0fbc 39e6 f1bb
000000b0: ab4a ec3b 4350 c63a 6305 3b3b 7999 7bba
000000c0: 0f8b 8b3b 6078 a4bb bf19 1a3c b8cd f339
000000d0: d666 033c 535c 6c3c 1fb9 b13b 2da4 7c3b
000000e0: ebcd 32bb 338d 72bc 0061 b13a 3964 aebc
000000f0: fe5f cc3c 41d9 1cbc a82d 0bbd 4837 913b
00000100: 79fe 793c 1f8e d23b 01c4 51bc d4c9 d8ba
00000110: abe6 5ebc 9596 0ebb 241d e53b 362e 58bb
00000120: 09c4 0f3c d936 423c 934e 5b3c e775 dc3a
00000130: 95f8 213c 92a6 cbbb fa79 39bc e133 763b
00000140: e895 ffbb ce01 22bc 071e e13c 97b0 013b
00000150: f3e2 883b 99c9 9a3b 656a 5ab9 cd26 da3c
00000160: ddf9 b33b be0c a53b f1ae c4bb 32e0 123b
00000170: 1393 eb3c a5e5 e43b 0fca 483b fd30 a9bb
00000180: 692a eebb 7bb5 963c 8b8e 893b 6649 aabc
00000190: 813e 843b ac5b 81bb edc1 533c 632e 5fbb
000001a0: fc64 293c 0be0 e23c 369e c3bc 6450 743b
000001b0: 398c 2d3c c69a b6bc 9bdf fdba 7df2 17bd
000001c0: a764 8d3b 504e 13bc f019 ecbb 106d d93b
000001d0: 1d1d 13bb 4777 c0bb d050 3b3c 9056 a9b7
000001e0: be55 363c e679 86bc 9ab2 363c e33d bebc
000001f0: 53ee 2fbc b7ed d63c fc02 0f3c e3fe e1b9
00000200: 7f1e e9bc 053e 083c 3dcf 13bc 5aa3 84bc
00000210: d6d6 04bc ae52 cebb a75b 25bc cdc8 193d
00000220: 8ca2 72bc dfd8 84bb 4f62 a73b a380 b03b
00000230: 3fb9 463c 8cd6 9fbc d1d3 913c a982 fa3c
00000240: d677 53ba 4e91 a83b 3bad 923a 67de 3f3c
00000250: b27e ba3b 0968 813c 770a 223c 4b31 c83b
00000260: 985a 18bc 826c 84bb e81e ab3c f2ac eabb
00000270: 28bb 0c3c 9285 efbb bd1b 09bc 317e 713c
00000280: a0c1 9d3b 9661 983c eb10 253c c11a 5c3c
00000290: 7141 92bb 5805 0dbc e5e9 453b 7d5b 80bb
000002a0: 28dc 92bb 812f fd3b 81a9 103c 42d7 57ba
000002b0: dcf0 a1b9 60c0 6abc b280 95ba 0086 89bc
000002c0: 531f 76bb be91 20bc da66 493c 1c1a c13c
000002d0: d670 6e3a ad13 963b 0b57 6abb 3da3 4b3b
000002e0: df93 fe3b ff77 8d3b b039 203c fe91 153b
000002f0: 6649 043d d389 f6bb 4fec fabc d913 58bb
00000300: 58db 363b 671b 82ba a15f 79bb 5b0e 283c
00000310: 02c8 ecbc 8146 f5bb 5ce3 c43b 792e f7bb
00000320: 0656 0c3c 8a4a c73c 55fc 94bb e478 223c
00000330: f9b8 1cbc a94c bfbb b0fb 8fbc 9b70 fbbb
00000340: 1404 2e3d dfdd d83a ceb3 f53c 29e4 8a3c
00000350: 5729 90bb 1b60 563d bc4c 8c3b 730d e03b
00000360: 2f84 323b 16f4 163a 4702 bc3c a1da a9bb
00000370: 1aef 8bbb eecb 88bb dacf d63b 0a3f c1bc
00000380: 6c69 36bb b5d8 5c3c a48b 34bc 43b7 ecbc
00000390: 7cf7 aa3b ccb5 a83c f981 32bb 4bfa 833c
000003a0: e6e2 69bc 6180 853c 01ea 2f3c e33f 9dbb
000003b0: 0b2a df3a 8fb0 b4bb 3d74 71bb 9f09 31bb
000003c0: cf38 fb3b be3e bcba 21a4 453c d4a3 82bc
000003d0: c0c6 8d3c 1462 91bb 718d 2abc 2509 1ebc
000003e0: d012 27bc 386a 1cbc bbbc bcbc cb2d 453c
000003f0: de03 313c 20bf 0cbd fe58 87bc 522a 29bc

action_model._discrete_distribution.branches.0.bias f4 [5]
-0.009838114 -0.014206559 -0.013162655 -0.017287923 0.043068778
00000000: 0a30 21bc a1c2 68bc 2da8 57bc 679f 8dbc
00000010: e368 303d

exp_avg f4 [128, 64]
-2.2456536e-06 -5.413025e-06 -4.571625e-06 -4.5013022e-07 -5.873874e-06 6.7628145e-07 -1.3484877e-05 1.6278657e-06
-1.9650767e-07 -5.745158e-06 -6.4822007e-07 -5.617619e-06 -4.123098e-06 2.1873939e-08 -5.1566763e-06 5.064755e-07
-1.2472519e-05 7.095804e-07 -3.4788707e-07 -3.6599015e-06 -8.8637364e-07 -8.560055e-06 -7.360234e-07 2.5723867e-07
-3.0865438e-06 2.4265944e-07 -1.689924e-05 4.374813e-06 4.1693948e-08 -9.443251e-08 5.2469466e-07 -1.2260375e-05
1.0034721e-06 -1.14884e-06 -4.230361e-06 -2.6064754e-06 -5.793621e-06 -2.7052054e-06 -1.6719095e-07 1.6028926e-06
-3.1570772e-07 -6.4448595e-06 -3.5281448e-06 -8.55606e-07 -3.7090214e-07 -1.4024022e-06 -9.1609745e-06 -3.1710975e-08
2.0615369e-07 8.910636e-07 -1.4024022e-06 -9.1609745e-06 -3.1710975e-08 2.0615369e-07 8.9106254e-07 0.0004974635
0.00011613464 -3.3819451e-06 -6.609242e-05 -5.111202e-06 1.5212843e-06 -3.211467e-06 -2.51766e-06 -7.1884295e-07
-1.2860824e-06 -9.0751775e-05 -5.805035e-06 5.8056817e-06 -2.6397476e-05 -3.758735e-07 -2.5927313e-05 -6.3599335e-05
-4.964384e-06 -6.3269717e-06 -1.834307e-05 -3.2915643e-05 -4.0429022e-05 7.350528e-07 -1.813651e-05 -1.3413048e-05
-6.531662e-05 -1.02400245e-05 -2.2053323e-06 -1.0547586e-05 -8.421611e-06 -8.225765e-05 -7.396018e-06 -4.265396e-07
-1.988352e-05 -1.821583e-07 -9.361742e-05 4.6135524e-06 -5.0991594e-06 -2.4460463e-05 -3.904793e-06 -0.00011494502
2.038781e-05 2.4361077e-06 -2.5145564e-05 5.9373074e-06 -9.814518e-05 -4.0904024e-06 -1.0872626e-06 -2.0200827e-05
-6.257055e-06 -0.00012609446 3.7614205e-05 2.6221496e-06 -1.0493572e-05 -1.6257269e-05 -0.00010646424 2.695321e-05
6.475275e-06 -1.941064e-05 -1.6257269e-05 -0.00010646424 2.695321e-05 6.475275e-06 -1.9410649e-05 1.10199635e-05
0.0011695944 -3.3018696e-05 -0.0001250455 -6.0631166e-05 -7.717224e-06 -2.8475626e-05 -5.6198596e-06 6.9979455e-06
-4.6017103e-06 -5.0615006e-05 3.519191e-06 -4.672161e-07 -5.834138e-06 -2.7257497e-06 -2.9917708e-05 -2.1196649e-05
6.0880734e-07 -7.86004e-06 2.7464037e-06 -4.6698962e-05 -7.7298455e-06 4.0105087e-06 -4.041158e-06 7.3070635e-07
-5.1397834e-05 1.4231882e-06 -1.8983864e-06 -1.6194004e-05 -1.2254491e-06 -3.710186e-05 -1.2731389e-05 3.192925e-06
-5.9958247e-06 -7.759781e-07 -3.6662015e-05 -1.3276784e-05 -1.1463006e-06 -1.6794667e-05 -2.3736893e-06 -4.4733868e-05
-4.0678037e-06 4.52031e-06 3.3219223e-06 1.3825099e-06 -3.882262e-05 -1.8849623e-05 8.2906865e-07 -1.9878045e-05
-2.6526536e-06 -7.652613e-05 3.1058145e-05 1.7041769e-07 -7.85411e-06 2.8962384e-06 -6.009057e-05 5.750028e-06
3.4461088e-06 -2.8297377e-06 2.8962384e-06 -6.009057e-05 5.750028e-06 3.4461088e-06 -2.829739e-06 -0.002636763
0.0006091901 -1.7386106e-05 2.4529718e-05 -3.3864908e-05 -7.2864554e-05 -1.4788057e-05 5.2689506e-07 -9.154256e-06
4.1212516e-07 3.4734847e-05 2.0000256e-05 -4.34139e-07 1.3260764e-05 -1.9732538e-06 4.2349424e-05 1.750607e-05
3.7192012e-06 1.9224351e-05 -1.5399352e-06 6.542111e-05 -5.379892e-06 1.3524472e-06 1.4523981e-05 -4.940399e-07
5.2460597e-05 7.955544e-06 3.0581332e-06 1.9495978e-05 -1.9828972e-06 6.9271984e-05 -5.665205e-06 2.7100266e-06
1.2720709e-05 1.1157504e-06 7.217327e-05 -1.1403631e-05 -2.2214583e-06 2.0179843e-05 3.6171066e-06 4.6649835e-05
1.3538831e-05 -2.359535e-06 5.1054576e-06 -3.037349e-06 5.357352e-05 1.04981245e-05 8.270509e-07 2.4867999e-05
-2.916516e-06 5.3922093e-05 1.136117e-05 2.3438529e-06 1.3414152e-05 9.704759e-06 4.302983e-05 9.270368e-06
-2.1034548e-07 1.1173453e-05 9.704759e-06 4.302983e-05 9.270368e-06 -2.1034548e-07 1.1173453e-05 0.0035175357
-0.000691349 2.3886052e-05 0.00011054078 3.7181104e-05 3.7044832e-05 1.8719682e-05 3.1241814e-06 -1.2435985e-06
00000000: 09b4 16b6 88a1 b5b6 f665 99b6 6da9 f1b4
00000010: 3218 c5b6 b589 3535 1b3d 62b7 0a7d da35
00000020: 9eff 52b4 88c6 c0b6 5801 2eb5 fb7e bcb6
00000030: 2459 8ab6 4de5 bb32 8307 adb6 bbf4 0735
00000040: 1041 51b7 fe79 3e35 3cc5 bab4 a19c 75b6
00000050: 22ef 6db5 289d 0fb7 2593 45b5 9d1a 8a34
00000060: 6b22 4fb6 dc46 8234 d7c2 8db7 5ccb 9236
00000070: fb12 3333 d2ca cab3 bed8 0c35 e9b1 4db7
00000080: 0aaf 8635 d831 9ab5 86f2 8db6 e8ea 2eb6
00000090: d366 c2b6 138b 35b6 1985 33b4 f822 d735
000000a0: 8a7e a9b4 ec40 d8b6 11c5 6cb6 ccac 65b5
000000b0: 6720 c7b4 2c3a bcb5 16b2 19b7 9632 08b3
000000c0: 185b 5d34 6d31 6f35 2c3a bcb5 16b2 19b7
000000d0: 9632 08b3 185b 5d34 5a31 6f35 3668 023a
000000e0: 4f8d f338 60f5 62b6 199b 8ab8 e480 abb6
000000f0: ee2e cc35 9584 57b6 12f5 28b6 83f6 40b5
00000100: 749d acb5 fd51 beb8 dfc8 c2b6 6dce c236
00000110: 2670 ddb7 a9cb c9b4 7b7e d9b7 a260 85b8
00000120: bc93 a6b6 464c d4b6 71df 99b7 e70e 0ab8
00000130: 5592 29b8 7250 4535 dc23 98b7 9a08 61b7
00000140: 98fa 88b8 92cc 2bb7 52ff 13b6 89f5 30b7
00000150: 8b4a 0db7 bd81 acb8 502b f8b6 28ff e4b4
00000160: 89cb a6b7 4b97 43b4 7854 c4b8 1dce 9a36
00000170: 7219 abb6 7230 cdb7 eb05 83b6 a30e f1b8
00000180: 7d06 ab37 037c 2336 b0ef d2b7 1539 c736
00000190: 4bd3 cdb8 4a40 89b6 0fee 91b5 f274 a9b7
000001a0: b1f3 d1b6 3938 04b9 f2c3 1d38 30f8 2f36
000001b0: 8c0d 30b7 3860 88b7 8e45 dfb8 9419 e237
000001c0: 3046 d936 08d4 a2b7 3860 88b7 8e45 dfb8
000001d0: 9419 e237 3046 d936 0dd4 a2b7 62e2 3837
000001e0: 134d 993a 8e7d 0ab8 a51e 03b9 384e 7eb8
000001f0: 3a79 01b7 f1de eeb7 3a92 bcb6 e5cf ea36
00000200: 6468 9ab6 734b 54b8 3e2b 6c36 b1d5 fab4
00000210: ddc2 c3b6 06ec 36b6 caf7 fab7 75cf b1b7
00000220: ec6c 2335 9dde 03b7 db4e 3836 a1de 43b8
00000230: 6faf 01b7 0292 8636 4899 87b6 c225 4435
00000240: 0194 57b8 6004 bf35 0fcc feb5 5cd8 87b7
00000250: 1c7a a4b5 d29d 1bb8 e698 55b7 0946 5636
00000260: be2f c9b6 cf4c 50b5 8ac5 19b8 5abf 5eb7
00000270: 97da 99b5 46e2 8cb7 ac4b 1fb6 a0a0 3bb8
00000280: 2b7e 88b6 2bad 9736 31ee 5e36 ae8e b935
00000290: 79d5 22b8 421f 9eb7 2a8d 5e35 c7bf a6b7
000002a0: 3e04 32b6 a77c a0b8 6e44 0238 0ffc 3634
000002b0: 25c5 03b7 ff5c 4236 c209 7cb8 5df0 c036
000002c0: b343 6736 86e6 3db6 ff5c 4236 c209 7cb8
000002d0: 5df0 c036 b343 6736 8ce6 3db6 8bcd 2cbb
000002e0: 0eb2 1f3a 61d8 91b7 2bc5 cd37 2b0a 0eb8
000002f0: dcce 98b8 391a 78b7 f46f 0d35 3b95 19b7
00000300: 0d42 dd34 42b0 1138 39c6 a737 9c13 e9b4
00000310: 8c7a 5e37 3e6c 04b6 59a0 3138 00da 9237
00000320: 6497 7936 fb43 a137 c5af ceb5 b132 8938
00000330: ec84 b4b6 bb85 b535 06ac 7337 2a9e 04b5
00000340: 2309 5c38 cd78 0537 543a 4d36 4b8b a337
00000350: ea11 05b6 1d46 9138 be17 beb6 e7dd 3536
00000360: 076b 5537 e4c0 9535 bb5b 9738 3952 3fb7
00000370: 5d14 15b6 e247 a937 6bbd 7236 e1a9 4338
00000380: d624 6337 8158 1eb6 8c4f ab36 42d5 4bb6
00000390: 21b4 6038 1a21 3037 8102 5e35 9f9b d037
000003a0: 5db9 43b6 682a 6238 db9b 3e37 164b 1d36
000003b0: 580d 6137 9fd1 2237 ee7a 3438 ed87 1b37
000003c0: 53db 61b4 9d75 3b37 9fd1 2237 ee7a 3438
000003d0: ed87 1b37 53db 61b4 9d75 3b37 7586 663b
000003e0: a53b 35ba e85e c837 21d2 e738 e8f2 1b38
000003f0: 9660 1b38 3608 9d37 07a9 5136 b8e9 a6b5

exp_avg_sq f4 [128, 64]
9.233908e-12 3.555836e-10 3.7776095e-11 9.0076346e-13 3.1087608e-11 6.303661e-12 3.2343767e-10 4.8851954e-11
8.2147743e-13 2.4701133e-11 2.2594955e-12 3.386502e-10 5.005604e-11 3.4165789e-12 2.8462125e-11 4.4292204e-12
3.5450237e-10 3.7069348e-11 7.8654406e-13 2.7042231e-11 3.9049987e-12 3.5487296e-10 3.8419337e-11 3.9369103e-12
2.9584196e-11 4.1523343e-12 3.590211e-10 4.8480164e-11 3.3640083e-12 2.649033e-11 1.9066116e-12 3.328803e-10
5.11448e-11 6.4249257e-12 2.6975058e-11 3.6761046e-12 3.1020772e-10 6.519979e-11 4.232851e-12 2.4485775e-11
7.340019e-12 3.5699835e-10 3.456962e-11 7.05237e-12 2.586198e-11 3.2159017e-12 3.706944e-10 2.398117e-11
7.3263695e-12 3.1942574e-11 3.2159017e-12 3.706944e-10 2.398117e-11 7.3263695e-12 3.194257e-11 2.929067e-06
5.071771e-08 5.4379095e-11 1.7937944e-08 1.5433779e-10 5.890925e-09 3.7066038e-11 8.201187e-12 6.968607e-12
3.7583783e-10 1.96532e-08 1.9701758e-09 1.016957e-10 1.4075137e-09 4.8155147e-10 1.9541687e-08 2.2674824e-09
1.3717133e-10 1.3498116e-09 3.432205e-10 1.9936687e-08 1.9780044e-09 1.1609356e-10 1.4334438e-09 3.880291e-10
1.8043373e-08 2.2912223e-09 1.13348254e-10 1.4565537e-09 2.813074e-10 1.9784107e-08 2.2238922e-09 1.2061865e-10
1.4051524e-09 4.2222426e-10 1.8064343e-08 2.1325721e-09 9.11763e-11 1.5841773e-09 2.949801e-10 1.8971082e-08
2.3562443e-09 7.5702174e-11 1.3841971e-09 3.769305e-10 1.8400849e-08 2.4961562e-09 9.131628e-11 1.5148967e-09
3.88598e-10 1.9275141e-08 2.0765776e-09 8.426055e-11 1.4748704e-09 3.1947933e-10 1.9434797e-08 2.2311235e-09
7.738174e-11 1.5865985e-09 3.1947933e-10 1.9434797e-08 2.2311235e-09 7.738174e-11 1.5865986e-09 5.3057716e-05
3.1423149e-06 3.1214131e-09 9.82135e-07 8.603116e-09 3.0892838e-07 2.0886624e-09 7.2643347e-10 9.294353e-10
1.3112267e-10 1.10721805e-08 7.2383033e-10 4.946093e-11 7.1490586e-10 1.8702485e-10 1.1359971e-08 7.6132606e-10
4.948978e-11 6.8234446e-10 1.7146642e-10 1.1080662e-08 8.924778e-10 4.5165063e-11 8.603122e-10 1.7886903e-10
1.0274017e-08 1.132797e-09 2.8845476e-11 6.4200806e-10 1.2981069e-10 1.0733048e-08 1.1894387e-09 3.0232743e-11
8.930814e-10 2.4174077e-10 1.0048111e-08 1.1738961e-09 3.807338e-11 8.61604e-10 2.3642022e-10 1.0344689e-08
1.3094259e-09 4.7602026e-11 9.335249e-10 2.1939554e-10 1.0182638e-08 1.223935e-09 5.848724e-11 9.1432334e-10
1.9699917e-10 9.759345e-09 1.4890198e-09 3.6441464e-11 9.031251e-10 2.7414856e-10 1.0195338e-08 1.351632e-09
4.565167e-11 9.592339e-10 2.7414856e-10 1.0195338e-08 1.351632e-09 4.565167e-11 9.59234e-10 3.4158278e-05
1.5798854e-06 1.7120889e-09 5.5452045e-07 4.7153854e-09 1.8476868e-07 1.098535e-09 2.724067e-10 5.8614896e-10
2.7613271e-11 5.698693e-09 3.192812e-10 3.2819723e-11 4.3250234e-10 4.1133184e-11 5.588223e-09 3.6118414e-10
5.3502123e-11 4.1590298e-10 6.0294e-11 5.813942e-09 4.5641024e-10 2.8343723e-11 4.353092e-10 2.5097197e-11
5.641776e-09 4.671606e-10 1.7356618e-11 4.144702e-10 4.2434257e-11 5.563539e-09 6.433836e-10 2.0754308e-11
4.847111e-10 4.7211048e-11 5.6249694e-09 5.169484e-10 1.2538481e-11 4.616768e-10 9.264554e-11 5.1071853e-09
7.565954e-10 1.8259165e-11 4.8155807e-10 7.914493e-11 5.506579e-09 5.7818755e-10 3.576644e-11 5.0128685e-10
8.908407e-11 5.2003424e-09 5.941872e-10 9.8306025e-12 5.3513327e-10 7.746548e-11 5.207751e-09 5.390038e-10
1.5209164e-11 5.0036203e-10 7.746548e-11 5.207751e-09 5.390038e-10 1.5209164e-11 5.0036203e-10 1.7648774e-05
7.926837e-07 8.763861e-10 2.7244212e-07 2.247728e-09 1.0259812e-07 5.667448e-10 2.2151746e-10 5.204987e-10
00000000: d371 222d f17b c32f 1a24 262e d98a 7d2b
00000010: 89b9 082e 55ca dd2c cecf b12f 69da 562e
00000020: b039 672b 0246 d92d 74ff 1e2c c72c ba2f
00000030: 1726 5c2e 9d6b 702c 025b fa2d dfd6 9b2c
00000040: c6e3 c22f 6008 232e 7964 5d2b b1dd ed2d
00000050: 1a65 892c ee17 c32f 54f8 282e 8984 8a2c
00000060: d81c 022e e718 922c ba5f c52f d037 552e
00000070: 96b8 6c2c ec02 e92d 762a 062c bd00 b72f
00000080: edef 602e 960e e22c 6e46 ed2d 6857 812c
00000090: db89 aa2f 3860 8f2e 22ee 942c 1061 d72d
000000a0: 8220 012d 0d43 c42f ef09 182e 1a22 f82c
000000b0: 007c e32d 894c 622c 99ca cb2f cbf0 d22d
000000c0: 09e3 002d 247c 0c2e 894c 622c 99ca cb2f
000000d0: cbf0 d22d 09e3 002d 237c 0c2e fd90 4436
000000e0: b6d4 5933 6b29 6f2e f515 9a32 3ab2 292f
000000f0: 2069 ca31 a604 232e dd46 102d a22f f52c
00000100: 799e ce2f d8d1 a832 b363 0731 97a1 df2e
00000110: 7c72 c130 2c5e 0430 a0dc a732 f9d1 1b31
00000120: 4cd2 162f 4684 b930 feaf bc2f 3d41 ab32
00000130: 6ced 0731 dd4a ff2e d202 c530 3e52 d52f
00000140: ccfd 9a32 9c73 1d31 6541 f92e ed2f c830
00000150: 7fa6 9a2f b6f1 a932 20d3 1831 229f 042f
00000160: 681f c130 c81e e82f e92b 9b32 9b8c 1231
00000170: b27f c82e 49ba d930 c22a a22f daf5 a232
00000180: 7deb 2131 8978 a62e 1b3e be30 4038 cf2f
00000190: e50f 9e32 d888 2b31 7fce c82e b034 d030
000001a0: 4ea2 d52f 7c92 a532 8ab3 0e31 794a b92e
000001b0: 64b4 ca30 b8a2 af2f 92f1 a632 5752 1931
000001c0: 0c2a aa2e 790f da30 b8a2 af2f 92f1 a632
000001d0: 5752 1931 0c2a aa2e 7a0f da30 4a8a 5e38
000001e0: 8fe0 5236 7b80 5631 e7d1 8335 e8cc 1332
000001f0: cbda a534 2388 0f31 36ae 4730 327b 7f30
00000200: c02b 102f f737 3e32 08f7 4630 0e88 592e
00000210: 0783 4430 d1a2 4d2f ae29 4332 8f45 5130
00000220: 8aa8 592e b98f 3b30 8287 3c2f 445d 3e32
00000230: 8b52 7530 57a3 462e 177b 6c30 28ab 442f
00000240: 9b81 3032 c0b0 9b30 3dba fd2d 4d79 3030
00000250: 76ba 0e2f 7264 3832 a779 a330 0bf7 042e
00000260: 047d 7530 fde5 842f 0fa0 2c32 cc56 a130
00000270: d172 272e fed5 6c30 30f9 812f 6cb8 3132
00000280: 54f7 b330 1e5b 512e 7d4d 8030 5b3a 712f
00000290: b7ef 2e32 6237 a830 649d 802e c953 7b30
000002a0: 569a 582f 0eaa 2732 3aa6 cc30 7145 202e
000002b0: c73f 7830 fbb6 962f 9227 2f32 53c4 b930
000002c0: 36c7 482e 0bd6 8330 fbb6 962f 9227 2f32
000002d0: 53c4 b930 36c7 482e 0cd6 8330 2c45 0f38
000002e0: 730c d435 c64e eb30 5bda 1435 f804 a231
000002f0: d464 4634 44fb 9630 d6c1 952f 911e 2130
00000300: 8fe3 f22d 3cce c331 d686 af2f b957 102e
00000310: 4bc5 ed2f d9e7 342e 8802 c031 2690 c62f
00000320: 094e 6b2e 24a5 e42f 8196 842e fac3 c731
00000330: 08ea fa2f 6450 f92d 5350 ef2f ddc1 dc2d
00000340: 96d9 c131 8169 0030 a1ab 982d 7fdb e32f
00000350: baa0 3a2e 6829 bf31 19da 3030 8c8e b62d
00000360: 833c 0530 eaa2 4f2e c145 c131 0219 0e30
00000370: 4c94 5c2d 3ccf fd2f cdba cb2e 477b af31
00000380: abf8 4f30 fc9b a02d a35e 0430 a20a ae2e
00000390: 6234 bd31 55ee 1e30 6e4d 1d2e edca 0930
000003a0: e0e5 c32e b2ae b231 3554 2330 19f1 2c2d
000003b0: a818 1330 3059 aa2e ddef b231 0529 1430
000003c0: fec7 852d d989 0930 3059 aa2e ddef b231
000003d0: 0529 1430 fec7 852d d989 0930 740c 9437
000003e0: cfc8 5435 30e6 7030 2944 9234 7376 1a31
000003f0: ea53 dc33 1fc9 1b30 9f8f 732f d712 0f30

exp_avg f4 [128]
-1.070489e-05 -9.491878e-05 -4.929352e-05 6.239893e-05 -5.6274994e-06 -5.6539142e-05 3.632558e-05 -9.1074685e-07
2.423002e-05 1.0386755e-06 -4.78035e-07 -5.8701855e-05 -3.27527e-05 2.5058087e-06 -1.932785e-05 -0.000110189896
-3.3650293e-05 2.9936808e-05 1.4022303e-06 1.23678665e-05 9.377836e-06 -4.7884572e-05 2.1809808e-05 8.462616e-06
-2.8224511e-05 3.3676177e-05 3.8823993e-07 1.0637581e-05 -4.908114e-06 9.207111e-06 -2.5862691e-06 2.4060362e-06
-2.1267608e-05 -6.2420863e-06 -9.438989e-05 -1.645785e-05 -5.4143784e-06 -4.252796e-05 -9.673358e-06 -2.2832024e-05
3.0197358e-05 -1.5705204e-05 3.3694156e-05 3.0221432e-05 -1.7005937e-05 2.5985104e-05 -8.681993e-07 -3.4332785e-05
8.809874e-06 -5.868915e-07 9.21919e-06 2.3928931e-05 4.2270374e-05 -1.6859494e-05 2.2085238e-05 2.4645415e-06
4.6011046e-05 -4.339969e-06 4.862543e-05 -2.1726053e-06 -2.2556165e-05 -7.163656e-05 -1.9266423e-05 -4.4018027e-05
-2.0001917e-07 -7.87564e-06 3.8481332e-05 -2.5891086e-05 9.535673e-06 1.5842131e-06 1.8777057e-05 2.4292367e-05
5.003633e-05 -3.302878e-05 -2.3598412e-05 7.463385e-06 -2.620805e-05 -5.8920346e-06 1.6898903e-05 -6.8121635e-06
7.8664925e-06 2.3077286e-05 2.596302e-05 1.2330132e-05 -4.9189537e-05 -4.016169e-06 2.6194675e-05 -4.7804504e-05
9.9919325e-06 7.5370244e-06 -2.8935992e-05 9.585089e-06 8.5569645e-06 4.392711e-06 5.0858534e-07 2.7052132e-05
3.801858e-06 -8.38257e-06 1.4207044e-06 -4.3303797e-05 1.7447857e-05 1.4357174e-05 4.071709e-05 -2.2703061e-05
2.2201297e-05 1.0535513e-05 2.6264743e-05 1.1273796e-05 -3.6192382e-06 -1.0086338e-05 3.212775e-05 3.202835e-05
-1.8802706e-05 -2.2419219e-05 -4.6454356e-06 -5.7335506e-06 6.609712e-05 4.5754737e-06 -1.4509401e-05 -1.7101818e-05
-1.0468072e-05 8.387699e-06 -3.6572274e-05 1.8707817e-05 1.6819695e-05 2.576343e-05 5.6943777e-06 1.6280037e-05
00000000: 2799 33b7 220f c7b8 84c0 4eb8 2cdc 8238
00000010: dad3 bcb6 7124 6db8 4b5c 1838 0c7a 74b5
00000020: 9241 cb37 9e68 8b35 5152 00b5 a336 76b8
00000030: f25f 09b8 7729 2836 3e22 a2b7 c015 e7b8
00000040: ba23 0db8 ce20 fb37 4434 bc35 957f 4f37
00000050: 8055 1d37 abd7 48b8 35f4 b637 a9fa 0d37
00000060: adc3 ecb7 853f 0d38 4a6f d034 1078 3237
00000070: 61b0 a4b6 3e78 1a37 c48f 2db6 6377 2136
00000080: d767 b2b7 1d73 d1b6 30f3 c5b8 f70e 8ab7
00000090: 28ad b5b6 0d60 32b8 c24a 22b7 6687 bfb7
000000a0: 5550 fd37 abbe 83b7 d352 0d38 0884 fd37
000000b0: f9a7 8eb7 96fa d937 340e 69b5 8c00 10b8
000000c0: 1fce 1337 e08a 1db5 1fac 1a37 fdba c837
000000d0: 784b 3138 7d6d 8db7 b043 b937 8064 2536
000000e0: fcfb 4038 0da0 91b6 28f3 4b38 13cd 11b6
000000f0: ff36 bdb7 963b 96b8 549e a1b7 ff9f 38b8
00000100: dac4 56b4 9e21 04b7 0467 2138 af30 d9b7
00000110: 67fb 1f37 26a1 d435 6c83 9d37 76c7 cb37
00000120: 1ade 5138 6288 0ab8 34f5 c5b7 fd6d fa36
00000130: 5cd9 dbb7 31b4 c5b6 1ec2 8d37 0a94 e4b6
00000140: 54fa 0337 1896 c137 29cb d937 84dd 4e37
00000150: dd50 4eb8 a1c2 86b6 a3bc db37 b281 48b8
00000160: 06a3 2737 8ce6 fc36 92bb f2b7 a5cf 2037
00000170: e28f 0f37 1a65 9336 b885 0835 03ee e237
00000180: 6c23 7f36 dda2 0cb7 08af be35 19a1 35b8
00000190: fd5c 9237 98df 7037 a4c7 2a38 7472 beb7
000001a0: ec3c ba37 afc1 3037 1b53 dc37 9624 3d37
000001b0: 0ae2 72b6 7e38 29b7 e9c0 0638 2e56 0638
000001c0: 81ba 9db7 e810 bcb7 fddf 9bb6 d362 c0b6
000001d0: 9f9d 8a38 0587 9936 676d 73b7 e075 8fb7
000001e0: 07a0 2fb7 e5b8 0c37 2e65 19b8 bbee 9c37
000001f0: 0518 8d37 8b1e d837 5512 bf36 1d91 8837
