results/shortRays/Tank/Tank-467935.pt (torch, 632048 bytes, 42 tensors)

network_body._body_endoder.seq_layers.0.weight f4 [128, 63]
0	0xbd37c41d	-0.044864763
1	0xbdf6b47a	-0.12046142
2	0x3daf2a8c	0.08553037
3	0xbd996ded	-0.0749167
4	0x3e74e7a8	0.23916495
5	0x3bade239	0.005306509
6	0xbe8b8e32	-0.27256924
7	0xbdbd67cc	-0.09248313
8	0x3d822b14	0.06355873
9	0x3e66d5d0	0.225425
10	0xbd9f1248	-0.07767159
11	0x3df280a8	0.118409455
12	0xbe42f754	-0.1903966
13	0x3e12490e	0.1428568
14	0x3d80c61b	0.062877856
15	0x3e519409	0.20466627
16	0xbe4e30f9	-0.20135869
17	0xbe067d2b	-0.13133685
18	0x3dfef73d	0.12449501
19	0x3d80c214	0.062870175
20	0x3e3cf8b9	0.18454255
21	0xbddc7315	-0.10764138
22	0xbc238d3d	-0.009982404
23	0xbc8379ea	-0.016049344
24	0xbe4a4711	-0.19753672
25	0x3c895e32	0.016768549
26	0xbce27a11	-0.027646096
27	0x3d65b55f	0.056081172
28	0xbe282ae4	-0.16422611
29	0x3d5224d9	0.051304672
30	0xbe2dc97e	-0.16971394
31	0x3d890094	0.066895634
32	0x3eb7cc72	0.35898167
33	0x3e5b8e32	0.21440962
34	0xbdf12c7c	-0.11776063
35	0xbd88e875	-0.06684963
36	0x3e29eed2	0.16595009
37	0x3e0831f0	0.133003
38	0x3dc655a4	0.096843034
39	0x3bbe3948	0.0058051683
40	0x3e8306de	0.25591177
41	0x3e372670	0.17885756
42	0xbe6854fb	-0.22688667
43	0x3d3229a9	0.04349676
44	0xbc1c043e	-0.009522496
45	0x3c8f4826	0.017490458
46	0x3d71464f	0.058904942
47	0xbea34fec	-0.31896913
48	0x3c8b368a	0.01699378
49	0xbc416028	-0.011802711
50	0xbe628d91	-0.22124316
51	0x3d4293c7	0.047504213
52	0x3dc0a850	0.09407103
53	0x3e2d25aa	0.16908899
54	0xbe9d30d0	-0.30701303
55	0xbe5c9510	-0.21541238
56	0x3df28ec6	0.11843638
57	0xbe08203d	-0.13293548
58	0x3deeae8a	0.116543844
59	0x3d466d82	0.04844428
60	0xbe4c3728	-0.19942915
61	0x3e466fbc	0.19378561
62	0x3dcfb9b7	0.10142844
63	0x3bcd0525	0.006256717
64	0x3dda5f74	0.106627375
65	0xbddd461c	-0.10804388
66	0xbe22fe4d	-0.1591732
67	0xbd014f2e	-0.031569652
68	0x3cb197c9	0.021678822
69	0xbc65d598	-0.0140279755
70	0x3d204037	0.03912374
71	0x3e1dd1b5	0.15412028
72	0x3caa6d53	0.020804083
73	0x3d4f02df	0.050539847
74	0x3cf2e4cf	0.02965012
75	0x3da1b816	0.0789644
76	0x3d092c42	0.033489473
77	0x3ddc9b13	0.107717656
78	0x3c1722f2	0.00922464
79	0x3cd864bf	0.026415227
80	0x3d238ab8	0.039927214
81	0x3e1a8a1c	0.15091747
82	0xbc8c6f27	-0.017142845
83	0xbd8150dc	-0.06314251
84	0x3e07e4d1	0.1327088
85	0x3d7fbc1c	0.062435254
86	0x3dec2ad6	0.11531608
87	0xbcb1fdce	-0.021727469
88	0x3e4625d2	0.19350365
89	0x3da2ebd5	0.07955138
90	0xbdd151ab	-0.10220655
91	0xbd8460d7	-0.06463783
92	0x3e089e22	0.13341573
93	0xbc124441	-0.008927406
94	0x3caaeafd	0.020864004
95	0x3e9d45fd	0.3071746
96	0xbe0b68e1	-0.13614227
97	0xbd55eb99	-0.052226637
98	0x3dbd8d1c	0.0925543
99	0x3d879d20	0.06621766
100	0xb7a4cb7f	-1.9645084e-05
101	0x3d64165e	0.055685394
102	0x3d61b915	0.05510815
103	0xbc0cfc1a	-0.008605028
104	0x3c4da719	0.012552046
105	0x3e9bf83d	0.30462828
106	0x3ea9cf04	0.33165753
107	0x3e172c6d	0.14763041
108	0xbd27a154	-0.04092534
109	0xbdd3ad04	-0.103357345
110	0x3da1477c	0.07874963
111	0x3ea6ad50	0.32554102
112	0xbd2f636a	-0.042819418
113	0xbcd4fc4f	-0.025999216
114	0x3dd72ac2	0.10506202
115	0x3d2e8eef	0.04261678
116	0x3e1520da	0.14563313
117	0x3db36d1d	0.08761046
118	0x3dbb936d	0.091589786
119	0xbdc041c3	-0.09387543
120	0x3e64df4c	0.22350806
121	0xbe2a0359	-0.1660284
122	0x3e343036	0.17596516
123	0xbe2e2305	-0.17005546
124	0x3c230e79	0.009952181
125	0x3d55af6d	0.052169252
126	0xbe188d9d	-0.14897771
127	0x3de04d48	0.1095224
128	0xbce9dc52	-0.02854744
129	0x3c8b3b61	0.016996088
130	0xbd95fe25	-0.07323865
131	0x3e4647b3	0.19363289
132	0x3c661f6f	0.01404558
133	0xbd45a82a	-0.048256077
134	0xbda90ea0	-0.082547426
135	0x3e221abc	0.15830511
136	0xbdebcaa8	-0.11513263
137	0xbc2fc442	-0.010727944
138	0xbdbf2c98	-0.093346775
139	0xbd08069d	-0.033209432
140	0x3dae90af	0.0852369
141	0xbc7d853a	-0.015473658
142	0xbbc4b040	-0.006002456
143	0xbe105d22	-0.14098027
144	0x3db21b51	0.086966164
145	0x3d6454a1	0.05574477
146	0x3db3e941	0.08784724
147	0x3dcfab2d	0.10140071
148	0x3de87385	0.113501586
149	0x3d8760ff	0.066102974
150	0x3d86028b	0.06543454
151	0xbd880cf5	-0.06643096
152	0x3dc8dd11	0.0980779
153	0x3e120831	0.14260937
154	0xbde7f1d1	-0.1132542
155	0x3dda3098	0.106538
156	0xbe157df3	-0.14598827
157	0x3d67a777	0.05655619
158	0x3d765c9f	0.060146924
159	0xbdbd43f2	-0.09241475
160	0xbd81c1c4	-0.06335786
161	0xbd6c02e0	-0.05761993
162	0xbe5533dd	-0.20820566
163	0x3d83197f	0.06401347
164	0xbd22cc26	-0.039745472
165	0xbd89ff47	-0.067381434
166	0xbe288ced	-0.16460009
167	0x3e5a32d2	0.21308449
168	0xbe459a4b	-0.1929714
169	0x3c47a318	0.012184881
170	0x3e4b9a8c	0.19883174
171	0xbdbd4d39	-0.09243245
172	0x3c3c3705	0.011487727
173	0x3e318cf5	0.17338927
174	0x3e19d7b1	0.15023686
175	0xbe090d1e	-0.1338391
176	0x3e0a0182	0.13477138
177	0xbe240978	-0.16019237
178	0xbda666ce	-0.08125077
179	0xbd32c922	-0.043648846
180	0xbb45e3cd	-0.0030195594
181	0x3c9d5b2b	0.019208511
182	0x3cc5c9b0	0.024144024
183	0x3c131662	0.008977504
184	0xbd7cfeb0	-0.061766326
185	0x3d7b48ab	0.0613486
186	0xbdf2412f	-0.11828839
187	0xbd8838f9	-0.06651492
188	0x3e1805e1	0.14845993
189	0x3db3f810	0.087875485
190	0x3dfe341e	0.12412284
191	0xbe9dfc90	-0.30856752
192	0xbd91aa62	-0.07112576
193	0x3e3eb268	0.18622744
194	0xbd00b4ff	-0.03142261
195	0xbd989e53	-0.07452073
196	0x3de2f90b	0.110826574
197	0x3c03eb0a	0.008051643
198	0xbe5f0f96	-0.2178329
199	0xbd15ba9e	-0.036554925
200	0x3d9849c6	0.07435946
201	0x3e854e2f	0.26036212
202	0xbea6b60a	-0.3256076
203	0xbe383f5b	-0.17992918
204	0x3db817ab	0.08988889
205	0x3de7b105	0.11313061
206	0x3db11aa9	0.08647663
207	0x3dfc2b89	0.12312991
208	0xbe411b54	-0.18858081
209	0x3e1a35ec	0.15059632
210	0x3cc69b36	0.024243932
211	0xbe276936	-0.16348729
212	0x3d303b73	0.043025445
213	0x3d0bc35e	0.034121864
214	0xbe1fd9d1	-0.15610434
215	0x3e1e9134	0.15485078
216	0x3e4ba337	0.1988648
217	0x3d66ea46	0.056375764
218	0x3e6cbf69	0.23119892
219	0x3d8fc17e	0.070193276
220	0x3dd791fc	0.10525891
221	0x3eae9684	0.3409921
222	0xbc821019	-0.015876817
223	0xbdd3bfa6	-0.103392884
224	0xbd1d1ae6	-0.03835573
225	0xbc9f11a3	-0.01941759
226	0xbd7e54db	-0.062092643
227	0xbdd28514	-0.10279289
228	0x3da93496	0.08261983
229	0x3d275221	0.04084981
230	0x3e4c7e7a	0.19970122
231	0xbcb880af	-0.022522299
232	0xbdedb9eb	-0.11607727
233	0x3e040c97	0.12895428
234	0x3d1fe942	0.03904081
235	0xbb60662a	-0.0034240582
236	0x3e15a81f	0.14614914
237	0x3d03e638	0.032201976
238	0x3dcc7844	0.09983876
239	0x3dc348c2	0.09535362
240	0xbc9ed156	-0.019386929
241	0xbe3279a7	-0.17429219
242	0x3e297d43	0.1655169
243	0xbe8d2cb5	-0.2757317
244	0x3d88039d	0.06641314
245	0x3e54daf0	0.20786643
246	0x3d825adf	0.063649885
247	0x3dafb85a	0.08580084
248	0x3d206fc7	0.0391691
249	0xbc93e433	-0.01805315
250	0x3dc92144	0.09820798
251	0x3dceff07	0.10107236
252	0xbd7110d2	-0.05885393
253	0x3e9462fd	0.28981772
254	0xbd1d6ea2	-0.038435586
255	0x3c7d2c7e	0.015452502

network_body._body_endoder.seq_layers.0.bias f4 [128]
0	0x3cf5c711	0.030002149
1	0x3acc3601	0.0015580059
2	0x3c05412d	0.008133215
3	0x3d2d3cd2	0.04229433
4	0x3ce19135	0.02753506
5	0xbcafc51e	-0.021456297
6	0x3d52a449	0.051426206
7	0xbc749c96	-0.014929911
8	0xbd23f339	-0.040026877
9	0x3c6df430	0.014523551
10	0xbcd797d8	-0.026317522
11	0x3c30cf6d	0.010791642
12	0xbca27398	-0.01983051
13	0x3d43fcd9	0.047848556
14	0x3d4a0f40	0.04933095
15	0x3d52f931	0.05150718
16	0xbd251b1d	-0.04030906
17	0xbcb7ebe9	-0.022451358
18	0x3d526648	0.051367074
19	0x3bb67636	0.005568291
20	0x3bc7036e	0.006073407
21	0x3d50c9ae	0.050973587
22	0x3d68e748	0.056861192
23	0xbbf7431a	-0.007545841
24	0xbd2b7f05	-0.041869182
25	0x3d000d20	0.031262517
26	0x3d12abf0	0.035808504
27	0x3bca9816	0.006182681
28	0x3d01a6db	0.031653266
29	0xbccfa75f	-0.025348363
30	0xbc53a7eb	-0.012918453
31	0x3d1763a9	0.036960278
32	0x3c961bda	0.018323828
33	0x3b87d3e4	0.0041451324
34	0xbc8be085	-0.017074833
35	0x3b82bee6	0.003990042
36	0xbb03ca85	-0.0020109725
37	0xbcb836bf	-0.022487042
38	0xbd1cc3d5	-0.038272697
39	0xbc1c7ba1	-0.00955096
40	0xbc4093c6	-0.011753982
41	0x3d71a0b9	0.058991168
42	0x3d04db9c	0.032436
43	0x3d53404c	0.05157499
44	0xbb05538e	-0.0020343992
45	0x3ccd3316	0.025048774
46	0xbc8a586e	-0.01688787
47	0xbcc61e41	-0.024184348
48	0x3d4fc025	0.050720353
49	0x3d0bcdd3	0.034131836
50	0x3d216ea5	0.03941216
51	0x3d592007	0.05300906
52	0xbabfb2df	-0.0014625451
53	0xbcb5bb25	-0.022183964
54	0x3ccee556	0.02525584
55	0xb9c5cc95	-0.00037727194
56	0x3d31b682	0.043386944
57	0x3d741ad3	0.059595894
58	0x3d37778a	0.044791736
59	0x3cefbba3	0.029264277
60	0x3d260f71	0.04054207
61	0x3cc6be45	0.02426065
62	0x3d68729c	0.056749925
63	0xb9734b07	-0.00023202236
64	0x3d25eca3	0.040508877
65	0xbcf67c23	-0.03008849
66	0x3d3ea5b3	0.04654474
67	0x3cdb138b	0.026742717
68	0x3d002d74	0.031293347
69	0x3d2f0872	0.042732663
70	0xbaaee454	-0.0013343194
71	0x3d6292e5	0.05531587
72	0x3c84fb93	0.016233241
73	0xbc5591d7	-0.013035259
74	0x3d321426	0.043476246
75	0x3d43374d	0.04766016
76	0x3d1f17e3	0.03884114
77	0x3b92e873	0.0044832765
78	0x3bfb2b94	0.007665107
79	0xbd02d406	-0.031940483
80	0xbcc8aea8	-0.024497345
81	0x3d740d2f	0.059582885
82	0x3c9ab72e	0.018886175
83	0x3ce524f3	0.02797172
84	0x3d5083a0	0.050906777
85	0x3cde2a7d	0.02711987
86	0xbae35919	-0.0017345279
87	0x3d41c754	0.047309235
88	0x3cf1b667	0.029505922
89	0x3bd6e30c	0.006557828
90	0x3ceefa89	0.029172199
91	0xbd44daa1	-0.048060063
92	0x3c13626b	0.008995633
93	0xbd2e3c4d	-0.042537976
94	0x3d5076b8	0.05089447
95	0x3c366d88	0.011134513
96	0xbc6b393c	-0.014356907
97	0x3cea2d37	0.028586013
98	0x3c8b34a3	0.016992873
99	0x3d24fd8f	0.040280875
100	0x3d4a0f14	0.049330786
101	0x3cdadf25	0.026717732
102	0x3c750c63	0.0149565665
103	0x3c8a093a	0.016850103
104	0x3d016157	0.03158697
105	0xbd21cffa	-0.039504983
106	0xbce73f37	-0.028228385
107	0x3d782038	0.0605776
108	0x3d633fb8	0.05548069
109	0x3bc37085	0.005964341
110	0x3cae3d0a	0.02126934
111	0xbc0289a0	-0.007967383
112	0x3d529803	0.0514145
113	0x3d182c8e	0.037151866
114	0xbcd5e3fd	-0.02610969
115	0xbcd109c9	-0.025517361
116	0xbcd549b2	-0.026036117
117	0xbce620c9	-0.028091805
118	0x3d3fdcd3	0.046841454
119	0x3cd2e0a9	0.025741892
120	0x3d152d7a	0.036420323
121	0x3c21806c	0.009857278
122	0xbc833087	-0.01601435
123	0xbcd07a93	-0.025449073
124	0xbb83759f	-0.0040118243
125	0xbd4320f7	-0.04763886
126	0x3d05cffc	0.032669052
127	0x3ca7cb60	0.020482719

network_body._body_endoder.seq_layers.2.weight f4 [128, 128]
0	0xbcdcc883	-0.02695108
1	0xbdc35056	-0.09536807
2	0x3e064113	0.13110761
3	0xbc1b5f30	-0.009483144
4	0xbcb81529	-0.022471027
5	0xbdb24341	-0.08704234
6	0xbd6c4fec	-0.057693407
7	0x3d50eb09	0.051005397
8	0x3c91a717	0.01777987
9	0xbe471fda	-0.19445744
10	0x3d5ed6cd	0.05440407
11	0x3dc80921	0.09767366
12	0x3ca386cb	0.019961735
13	0xbcd9d986	-0.026592981
14	0x3c4c347d	0.012463686
15	0xbcc9cac7	-0.024632825
16	0xbe2fb515	-0.17158921
17	0x3d1b30f6	0.03788849
18	0x3da05e89	0.07830531
19	0x3d5de524	0.054173604
20	0x3da2a841	0.07942248
21	0xbdbbe917	-0.09175318
22	0x3bbb58e1	0.0057173823
23	0x3d828762	0.063734785
24	0xbdde17e6	-0.10844402
25	0xbdd6886f	-0.104752414
26	0xbdf08f30	-0.11746061
27	0x3e2db976	0.16965279
28	0x3dd55781	0.10417081
29	0x3da349cc	0.0797306
30	0xbda7b7c8	-0.0818935
31	0xbc85592f	-0.016277878
32	0xbd082dca	-0.033246793
33	0xbdd9e846	-0.10640006
34	0x3c6329ca	0.013864944
35	0xbd31247f	-0.043247696
36	0x3d2b837f	0.04187345
37	0xbd9ac2cf	-0.07556688
38	0xbe99fa9d	-0.30074015
39	0xbc5772d4	-0.013149936
40	0x3c614db0	0.013751432
41	0x3d557b51	0.052119557
42	0xbe01853a	-0.12648478
43	0x3d24c330	0.040225208
44	0x3db60280	0.088871956
45	0x3ca62377	0.020280583
46	0x3daf95ec	0.08573517
47	0xbd955227	-0.0729106
48	0xbd869ef9	-0.065732904
49	0x3bb92db0	0.0056511983
50	0xbe24a7e0	-0.16079664
51	0x3d88e9fa	0.066852525
52	0x3e0c0867	0.1367508
53	0x3e14364d	0.14473839
54	0xbdb5e9cc	-0.08882484
55	0xbc92c2f3	-0.017915225
56	0x3d95da26	0.07316999
57	0x3e1ffc59	0.15623607
58	0xbdc4a7b4	-0.09602299
59	0x3e1bcb75	0.15214331
60	0x3d3b9b89	0.045802627
61	0x3dada179	0.08478064
62	0xbc5bb64d	-0.013410163
63	0x3ced0ddf	0.028937278
64	0x3dc7f609	0.09763724
65	0xbd388494	-0.04504831
66	0x3d94ee1e	0.0727198
67	0xbc27215e	-0.010200826
68	0xbc5950df	-0.01326391
69	0x3da05351	0.07828391
70	0x3d02707e	0.031845562
71	0xbdf1affa	-0.11801143
72	0xbbe860a8	-0.0070916004
73	0xbadfb2cf	-0.0017066839
74	0x3d7f5f04	0.062346473
75	0x3e341350	0.17585492
76	0x3d9e70e4	0.07736376
77	0x3d1b3cd9	0.037899826
78	0xbdddba0d	-0.10826502
79	0xbd65c972	-0.056100316
80	0x3daf0f79	0.08547873
81	0x3d5c4bff	0.053783413
82	0xbdb3d6a7	-0.08781176
83	0x3d7ddb27	0.061976578
84	0x3e1759b3	0.14780311
85	0x3c1200bb	0.008911307
86	0xbc71a95d	-0.014749852
87	0xbd0573f1	-0.032581273
88	0x3cde7e44	0.027159818
89	0xbd364bc6	-0.044505857
90	0xbd701774	-0.058616117
91	0x3e3e4905	0.18582542
92	0xbdcc9592	-0.09989466
93	0x3e13e8a8	0.1444422
94	0x3d35e277	0.044405427
95	0x3b0aed6b	0.002119864
96	0x3d9a1565	0.07523612
97	0xbe043184	-0.12909514
98	0x3d0e1138	0.03468439
99	0xbd1c1b33	-0.038111877
100	0xbd47df29	-0.048796806
101	0xbcc244e7	-0.023714496
102	0x3d171b71	0.036891405
103	0x3e43e96b	0.1913201
104	0xbd57e53b	-0.052708846
105	0x3d4aa23f	0.049471136
106	0x3d9f7345	0.07785658
107	0x3db119e7	0.086475186
108	0xbd619a0f	-0.055078562
109	0xbdc605b8	-0.096690595
110	0x3c4ae4f7	0.012383691
111	0xbc07d6de	-0.008290974
112	0xbe327ec8	-0.17431176
113	0xbe1ae963	-0.15128092
114	0x3dd1681a	0.10224934
115	0x3deab903	0.114610694
116	0x3d852ce4	0.06502703
117	0x3c30a39e	0.010781197
118	0x3d8b6749	0.068068095
119	0xbdd1eca1	-0.102502115
120	0x3cf44d1f	0.02982193
121	0xbe41b93d	-0.18918319
122	0xbdec0b5b	-0.115256034
123	0x3d1b2034	0.03787251
124	0x3d109f3d	0.03530811
125	0xbc859928	-0.016308382
126	0xbd286921	-0.041115884
127	0xbddfb71b	-0.109235965
128	0xbdd4a51d	-0.10383055
129	0xbc8f4222	-0.01748759
130	0x3dcb95f1	0.099407084
131	0x3d6d5c6b	0.057949465
132	0x3d9cbb6a	0.07652934
133	0x3d7d2196	0.06179961
134	0x3dc7403c	0.097290486
135	0xbe133e70	-0.14379287
136	0x3e536ad5	0.20646222
137	0x3e113381	0.14179803
138	0xbe12cc29	-0.14335693
139	0xbe6cf20f	-0.23139213
140	0xbdc5aa16	-0.09651582
141	0x3bb2ef19	0.0054606316
142	0x3dc15763	0.09440496
143	0xbd8c4412	-0.06848921
144	0xbe46da2d	-0.19419165
145	0xbcb9f284	-0.022698648
146	0x3d8530d4	0.06503454
147	0x3de931b3	0.113864325
148	0x3c102bc7	0.0087995
149	0x3e3cb7ed	0.18429537
150	0xbe51a663	-0.20473628
151	0xbd322956	-0.043496452
152	0x3d6fba0c	0.058527038
153	0x3e2415e7	0.1602398
154	0xbd90eb19	-0.07076091
155	0xbd4f4508	-0.050602943
156	0xbc3cedac	-0.011531275
157	0xbd5bbacd	-0.053644944
158	0xbd6f1839	-0.05837271
159	0x3dfe8834	0.124283224
160	0xbd454e75	-0.048170526
161	0xbc2406ed	-0.010011417
162	0x3d6b04eb	0.057377737
163	0x3da75460	0.0817039
164	0xbaffe87a	-0.001952424
165	0x3d0b72ef	0.034045156
166	0xbc3d8d51	-0.011569337
167	0xbdb9f9b4	-0.0908083
168	0x3cef0175	0.0291755
169	0xbd5d0768	-0.05396214
170	0x3d2c3a70	0.042047918
171	0x3cf0818f	0.029358653
172	0xbd9ab5cf	-0.075542085
173	0x3b1828f5	0.0023217772
174	0x3dc195f9	0.09452433
175	0x3b9fc3ea	0.0048756497
176	0x3d073ef2	0.033019014
177	0x3d8c4f51	0.06851066
178	0xbd351702	-0.044211395
179	0x3da6efe9	0.08151228
180	0x3e055832	0.13021925
181	0x3d0a6c1b	0.033794504
182	0xbdecf583	-0.11570265
183	0x3a8d4dbe	0.0010780615
184	0xbc633815	-0.0138683515
185	0x3dcf873e	0.10133217
186	0x3cdeedec	0.02721306
187	0xbe141bd0	-0.14463735
188	0xbd9df3f1	-0.07712544
189	0xbe395701	-0.18099596
190	0xbdfb212a	-0.12262185
191	0xbd06510a	-0.03279213
192	0xbe8f3cb5	-0.27976003
193	0xbd35b3e6	-0.044361018
194	0x3c926bd1	0.017873676
195	0xbc5ff0ae	-0.013668222
196	0xbe33a35a	-0.17542782
197	0xbdb79652	-0.08964218
198	0x3de3e431	0.111275084
199	0xbd4ed179	-0.050492737
200	0x3b085157	0.0020800435
201	0xbe15b47a	-0.14619628
202	0xbd949ecb	-0.0725685
203	0xbdb334ca	-0.08750303
204	0x3da7a959	0.081865974
205	0x3ea14089	0.3149455
206	0xbd4e8d25	-0.050427575
207	0x3df36f16	0.11886422
208	0x3d89aa52	0.06721939
209	0x3df76909	0.12080581
210	0x3dcfe4c8	0.101510584
211	0x3da47589	0.080302306
212	0xbe046629	-0.12929596
213	0xbd8e564e	-0.06950055
214	0xbd9159e5	-0.07097224
215	0xbda411f5	-0.080112375
216	0x3d772ca4	0.060345307
217	0xbc1d39ea	-0.009596327
218	0x3de5360a	0.11191948
219	0x3d8ed4bd	0.0697417
220	0x3d0affeb	0.03393547
221	0x3d650305	0.055911083
222	0x3dadebeb	0.084922634
223	0xbdc3447f	-0.09534549
224	0xbe0721ea	-0.13196531
225	0x3ceac691	0.028659137
226	0x3deb9495	0.11502949
227	0xbdc365ec	-0.095409244
228	0x3ddb0eeb	0.10696205
229	0x3c079178	0.008274429
230	0x3dbaf080	0.09127903
231	0xbc72da3c	-0.014822539
232	0x3e25c5f2	0.16188791
233	0x3df95045	0.12173513
234	0x3d9e01a0	0.07715154
235	0x3e6e2b66	0.23258743
236	0x3dc7250a	0.097238615
237	0x3de7e415	0.113228
238	0xbd8fea13	-0.07027068
239	0xbde3fb36	-0.11131899
240	0xbd9b32df	-0.07578062
241	0x3dc3557d	0.0953779
242	0xbe3056c9	-0.17220606
243	0xbdfff663	-0.124981664
244	0x3c4a7161	0.012356133
245	0xba5d66c5	-0.0008445795
246	0xbdac9b41	-0.0842805
247	0x3dd2879c	0.10279772
248	0xbb9e9f59	-0.004840773
249	0xbe1cbfa5	-0.15307482
250	0xbd9392eb	-0.07205757
251	0x3d21bcd9	0.03948674
252	0xbc664a1f	-0.014055758
253	0xbdffe0ef	-0.124940746
254	0xbb106605	-0.0022033465
255	0x3e0c1725	0.13680704

network_body._body_endoder.seq_layers.2.bias f4 [128]
0	0xbb1e9f77	-0.0024203935
1	0xbc5ce6da	-0.013482774
2	0xbb33b482	-0.0027420823
3	0x3cba452f	0.022738067
4	0x3ccbab49	0.024861949
5	0xbcede75e	-0.029040989
6	0x3c2004c8	0.009766765
7	0xbb87850e	-0.0041357344
8	0xbc6fd1a3	-0.014637384
9	0x3d03741c	0.032093152
10	0x3d1971fa	0.037462212
11	0xbb09a993	-0.0021005615
12	0xbce5c57e	-0.028048273
13	0x3c5e2b4f	0.01356013
14	0xbc9dc681	-0.019259693
15	0xbbc34292	-0.0059588635
16	0xbc6b841a	-0.014374757
17	0xbc801e56	-0.015639465
18	0x3c86e4bb	0.016466489
19	0xbc9d5f7a	-0.019210566
20	0xbc036ec7	-0.008022017
21	0x3d0d3ccf	0.03448182
22	0x3d266816	0.040626608
23	0xbbfb0724	-0.0076607633
24	0xbce04ca9	-0.027380304
25	0xbcd652d7	-0.026162548
26	0xbbe8daa3	-0.0071061417
27	0x3cfaeb9e	0.03062993
28	0x3c66ce72	0.014087306
29	0x3cc916dd	0.024547035
30	0x3d082822	0.0332414
31	0xbc93319c	-0.017967992
32	0x3cb81dc6	0.022475135
33	0x3b7bbc74	0.0038411887
34	0x3d6b760a	0.057485618
35	0x3d027d82	0.031857975
36	0x3d0bb6b4	0.034109786
37	0x3cc6cdb7	0.024268014
38	0x3bc6bf67	0.0060652974
39	0x3d1d508c	0.038406894
40	0xbd049cc5	-0.03237607
41	0x3d0aecfa	0.033917405
42	0xbc498f61	-0.012302251
43	0x3cdbcac0	0.026830077
44	0x3b95dc18	0.0045733564
45	0xbc655d79	-0.013999336
46	0x3c5aeb4f	0.013361766
47	0x3cb7139c	0.022348218
48	0x3cd9a253	0.02656666
49	0x3d043b4d	0.032283116
50	0x3d012cde	0.03153693
51	0x3d36808c	0.044556186
52	0x3b712993	0.0036798462
53	0x3abf1c0f	0.0014580506
54	0x3b664d32	0.0035141227
55	0xbcfd8f88	-0.03095223
56	0xbad33219	-0.0016112953
57	0x3d274e15	0.04084595
58	0x3bd7ace1	0.006581888
59	0xbb96268e	-0.004582233
60	0xb8dd0daf	-0.0001054065
61	0xbba91991	-0.0051605185
62	0xbc026043	-0.007957521
63	0x3cf07148	0.029350892
64	0x3c5cd340	0.0134781
65	0xbbeba434	-0.0071912054
66	0x3ce99451	0.028513106
67	0x3d254f04	0.04035856
68	0x3c6a0f12	0.01428582
69	0xbbe7c9ca	-0.0070736157
70	0x3ccf1a9e	0.025281247
71	0x3c038320	0.008026868
72	0xbd0cd2e9	-0.034380827
73	0xbc71a236	-0.014748147
74	0x3cd45853	0.025921023
75	0xbc78a215	-0.015175362
76	0x3d182653	0.037145924
77	0x3ce5b21c	0.02803903
78	0x3d644463	0.05572928
79	0xbb4977a5	-0.003074148
80	0x3cb830b6	0.022484165
81	0x3d0daa28	0.0345861
82	0xbcb234bf	-0.021753667
83	0x3c7e5660	0.015523523
84	0x3cc27a72	0.023740027
85	0xbd0ca284	-0.034334674
86	0x3c371a9b	0.011175777
87	0x3d42bb04	0.047541633
88	0xbd103e27	-0.035215523
89	0x3cff217b	0.031143894
90	0x3c55c4f7	0.013047448
91	0x3d2da473	0.04239316
92	0x3cd15ea8	0.02555783
93	0xbc99f8ef	-0.018795459
94	0x3bda6cd8	0.006665807
95	0x3ced0ff4	0.028938271
96	0xbd09a631	-0.033605758
97	0x3d006042	0.0313418
98	0x3c70d2cf	0.014698698
99	0x3c68b0d8	0.014202319
100	0xbc9139e4	-0.0177278
101	0x3d1f16f3	0.038840245
102	0xba04495b	-0.0005046331
103	0x3d193f7a	0.03741405
104	0xbc634832	-0.013872193
105	0xbce78d5b	-0.028265646
106	0xbd0be0d6	-0.034149967
107	0x3cd0f85c	0.025509052
108	0x3d17183a	0.03688834
109	0xbcc34815	-0.023838082
110	0xbc9027b0	-0.01759705
111	0x3b4ae4c8	0.0030959118
112	0xbd06f2c7	-0.032946374
113	0xbc84802c	-0.016174398
114	0xbca39257	-0.019967241
115	0xbd0dc93e	-0.034615748
116	0xbbf07e05	-0.0073392414
117	0x3c8d4a8e	0.017247465
118	0x3cf02f8f	0.029319553
119	0xbca47374	-0.020074584
120	0xbcb049b7	-0.021519525
121	0x3cdcc7be	0.026950713
122	0x3cfbc6e6	0.03073449
123	0x3d482e0d	0.048872042
124	0x3c79d538	0.015248589
125	0x3d13fcf7	0.036129918
126	0xbca091a5	-0.019600699
127	0x3ccdb46f	0.025110452

action_model._continuous_distribution.log_sigma f4 [1, 5]
0	0xbc5bcbcc	-0.013415288
1	0xbd2f9d06	-0.04287436
2	0x3a835b1a	0.0010021657
3	0xbbe879ec	-0.0070946123
4	0xba6a807f	-0.0008945539

action_model._continuous_distribution.mu.weight f4 [5, 128]
0	0x3d0319c9	0.032007013
1	0xbc05c5bd	-0.00816482
2	0x3b8f0dd8	0.004365664
3	0x3c811cc1	0.015760781
4	0x3c96c3a8	0.018403843
5	0xbb869207	-0.0041067633
6	0x3d35cae3	0.04438294
7	0x3a2a7429	0.00065022946
8	0x3bba79b8	0.0056907795
9	0x3a9c078e	0.0011904107
10	0xbc98996e	-0.018627848
11	0xbc78909d	-0.015171197
12	0xbd131e94	-0.035917833
13	0xbc1c8c62	-0.009554954
14	0x3c39acb5	0.0113326805
15	0xbc65a907	-0.01401735
16	0xbcfbf0a9	-0.030754404
17	0x3bb23fbf	0.005439728
18	0xbd1411b9	-0.036149714
19	0xbc7cf8a4	-0.01544014
20	0x3b309cb7	0.0026948878
21	0xbc14217a	-0.009041185
22	0x3a2e7bda	0.00066560286
23	0x3d162e0d	0.03666501
24	0x3cbd21ea	0.02308746
25	0x3ba4116e	0.0050069606
26	0xbba379b3	-0.004988873
27	0x3b0b12df	0.0021220965
28	0x3d497086	0.049179576
29	0xbae47ab5	-0.0017431589
30	0xbbca3bcb	-0.0061716787
31	0xbb837584	-0.0040118117
32	0xbd1ebfb7	-0.038757052
33	0x3b91766d	0.0044391663
34	0x3b862245	0.0040934407
35	0x3afddd70	0.0019368362
36	0x3bdfb6ab	0.0068271956
37	0xbac4180c	-0.001496078
38	0xbca88182	-0.020569567
39	0xbc7be497	-0.015374324
40	0x3cfcd49b	0.030863097
41	0x3c5b8752	0.013398962
42	0x3b5e2f18	0.0033902582
43	0xbc15af63	-0.009136054
44	0x3c9e01d4	0.019287981
45	0x3a8d3cb1	0.0010775534
46	0xbc669d99	-0.01407566
47	0x3c9121e9	0.017716365
48	0x3cc19097	0.023628516
49	0xbc802de8	-0.01564689
50	0xba68a50e	-0.0008874693
51	0xbc962028	-0.01832588
52	0xbb93f68f	-0.004515476
53	0xbac8de1c	-0.0015324983
54	0x3c14a0a7	0.009071506
55	0xbc4bcce3	-0.0124389855
56	0xbcea70f2	-0.02861831
57	0x3c3ce010	0.01152803
58	0x3bdc4f5e	0.0067233285
59	0x3aae8fb9	0.0013317979
60	0x3c805ea1	0.015670123
61	0x3cbd8775	0.02313588
62	0xbc5a1a12	-0.01331188
63	0xbcf4a569	-0.02986403
64	0xbc8c8b66	-0.017156314
65	0xbb65154e	-0.0034955326
66	0xbc0185bb	-0.007905419
67	0x3bc15d0b	0.005900984
68	0xbb9bb6fa	-0.004752037
69	0x3c49df3b	0.012321289
70	0xbd2236a8	-0.039602906
71	0x3b9dfb6a	0.0048212307
72	0xbbfbfa64	-0.007689761
73	0xbb3f3d39	-0.0029180779
74	0xbbec728a	-0.0072158026
75	0xbcad9b27	-0.021192146
76	0xbc80f3db	-0.01574128
77	0xbcac366e	-0.021022048
78	0xbbf07e44	-0.007339271
79	0x3c77930a	0.01511074
80	0x3c095996	0.008383175
81	0x3c9c183f	0.01905453
82	0x3c16ce5e	0.009204475
83	0x3bcadc48	0.0061908104
84	0x3c8341e6	0.016022634
85	0x3cb5190b	0.022106668
86	0xbb7f8e17	-0.0038994604
87	0x3b525a2d	0.0032097206
88	0x3bbaea59	0.005704206
89	0xba315eac	-0.00067661214
90	0xbba751c2	-0.005106182
91	0xbc83463c	-0.016024701
92	0xbc326719	-0.010888838
93	0xbc34b540	-0.0110295415
94	0xbc849654	-0.016184963
95	0xbb2e9b6b	-0.002664293
96	0x3bb144c4	0.005409809
97	0xbb6364cf	-0.0034697538
98	0xbbc20853	-0.0059214025
99	0xbc1c1adc	-0.009527888
100	0xbc79bd25	-0.0152428495
101	0x3c8e9668	0.017405704
102	0xbc965d24	-0.01835496
103	0xbc064d1a	-0.008197093
104	0xbc0e07f7	-0.008668891
105	0x3c8fa479	0.017534481
106	0x3bb9aec1	0.0056665842
107	0xbc692ed7	-0.014232359
108	0xbcd69d5f	-0.026198087
109	0x3ccf79f4	0.025326706
110	0x3c06c8fe	0.008226631
111	0x3a7f4d4d	0.0009738997
112	0x3bcb6052	0.0062065506
113	0xbc553cd6	-0.013014993
114	0x3ca9a539	0.020708667
115	0xbb4edd9f	-0.0031565202
116	0x3b33633c	0.002737238
117	0xbd08015a	-0.033204414
118	0x3ccc5e47	0.024947299
119	0x3c6b1127	0.014347351
120	0xbd0d400e	-0.034484915
121	0x3c1d9aab	0.009619395
122	0xbc9c3dd4	-0.01907245
123	0x3b755078	0.0037431996
124	0xbb8d0c31	-0.004304432
125	0x3c5fffaa	0.013671795
126	0x3cdb270a	0.026752014
127	0x3b2db7b9	0.0026507212
128	0x3c08adef	0.00834225
129	0x3c2cf6db	0.010556902
130	0x3c5b719d	0.013393787
131	0xbccfb2c0	-0.02535379
132	0x3d4221da	0.047395565
133	0x3af6a868	0.00188185
134	0xb92bd9fe	-0.00016389039
135	0x3c46c9fe	0.01213312
136	0x3bab5120	0.0052281767
137	0x39459bd3	0.00018845433
138	0x3c3ae51b	0.011407162
139	0x3ca46aea	0.020070512
140	0xba8f0cbb	-0.0010913828
141	0xbca7b3c8	-0.020471469
142	0xbcd840bd	-0.026398057
143	0x3affbe17	0.0019511607
144	0x3c1e9e48	0.009681292
145	0xbc339d03	-0.0109627275
146	0xbb4b4fbb	-0.0031022865
147	0xbb3877a6	-0.0028147488
148	0xbccc2305	-0.024919042
149	0xbc59427e	-0.013260482
150	0x3c38dd29	0.011283197
151	0xbc55faf9	-0.013060325
152	0xbca8860e	-0.020571735
153	0xbbc85fc1	-0.0061149304
154	0xbd2722be	-0.040804617
155	0xbb81076e	-0.0039376533
156	0x3c4d764b	0.01254041
157	0x3c84e044	0.01622022
158	0x3c1a9dc6	0.00943703
159	0xbbff5c66	-0.007792997
160	0x3c5d9413	0.013524073
161	0xbbb1d461	-0.005426929
162	0xbb20feb2	-0.0024565873
163	0xbac4f3a7	-0.0015026227
164	0x3bf00dd0	0.0073258653
165	0x3b58b41e	0.0033066343
166	0xbb02af20	-0.0019940808
167	0x3c9cff23	0.019164627
168	0xbc95e666	-0.01829834
169	0xba808d46	-0.0009807728
170	0x3cf388b7	0.029728277
171	0xbced8914	-0.028996028
172	0xbd2d6a45	-0.042337675
173	0x3c3315e8	0.010930516
174	0x3b217d27	0.0024641247
175	0x3c3ed524	0.011647496
176	0x3b43bf9a	0.0029868842
177	0x3b842269	0.0040324223
178	0xbb92d02d	-0.004480383
179	0xb94bef71	-0.00019448787
180	0x3cd0e941	0.02550185
181	0x3d161bc3	0.03664757
182	0xbd096527	-0.033543732
183	0xbbfcaedd	-0.007711275
184	0x3b42f138	0.0029745828
185	0x3c690614	0.014222641
186	0xbd42847d	-0.047489632
187	0xbc954cef	-0.018225161
188	0xbc9e84a0	-0.01935035
189	0xbaff8fe4	-0.0019497839
190	0x3c397820	0.011320144
191	0x3ca01857	0.019542856
192	0xbccac827	-0.024753643
193	0x3bb21ed5	0.0054358044
194	0x3d080fe2	0.033218272
195	0x3c5bf9bb	0.01342624
196	0x3cbd5c57	0.02311532
197	0xbc997abf	-0.018735288
198	0x3d1ee2e6	0.038790606
199	0x3d0b9ba0	0.034083962
200	0xbc549705	-0.012975459
201	0xbae57a08	-0.0017507682
202	0x3b0a8f8c	0.002114269
203	0x3c829397	0.015939517
204	0xbc196f1b	-0.0093648685
205	0x3c502251	0.012703494
206	0x3c4c4636	0.0124679115
207	0xbca251fd	-0.019814486
208	0x3d145fc1	0.03622413
209	0xbc33f5a2	-0.010983856
210	0xbd4e58c8	-0.050377637
211	0x3b3d6a0f	0.0028902327
212	0xbc98e87f	-0.01866555
213	0xbbe915ff	-0.007113218
214	0xbd0e29eb	-0.034707945
215	0x3d04ce83	0.032423507
216	0xba7b2c89	-0.00095815264
217	0xbc59c3b6	-0.01329129
218	0xbc1f37d1	-0.0097178975
219	0x3c9f12ba	0.01941811
220	0x3cf1619e	0.029465493
221	0xbc653945	-0.013990705
222	0xbbafcf6c	-0.005365303
223	0x3bbf4167	0.005836654
224	0xbcdb4430	-0.026765913
225	0x3d40723d	0.046983946
226	0xbc91801a	-0.017761279
227	0xbc32537a	-0.01088416
228	0xbc55882f	-0.013032957
229	0x3b579114	0.003289287
230	0x3b893663	0.0041873916
231	0xbc80745e	-0.015680488
232	0xbc26ba29	-0.01017622
233	0xbd2fad6f	-0.04289001
234	0xbc43ad01	-0.011943103
235	0x3ce31083	0.027717834
236	0x3c1633fc	0.0091676675
237	0xba79c988	-0.00095286267
238	0xbc369d76	-0.01114594
239	0x3aa6f499	0.0012737691
240	0xbc849642	-0.01618493
241	0x3befd6ba	0.0073192986
242	0xbc8d61ba	-0.017258514
243	0xbc672981	-0.014109016
244	0x3c847de2	0.016173307
245	0x3ccd24a7	0.025041891
246	0x3d648646	0.055792116
247	0x3c960232	0.018311594
248	0x3b53419b	0.0032235149
249	0xbbfd84af	-0.0077367644
250	0x3c194b4d	0.009356332
251	0x3c6b0764	0.014345024
252	0x3d406a67	0.046976473
253	0x3c84f107	0.016228212
254	0x3b11cfb0	0.0022249036
255	0xba9e7565	-0.001208943

action_model._continuous_distribution.mu.bias f4 [5]
0	0xbb78ea2f	-0.0037981381
1	0x3c2783e1	0.0102243135
2	0x3abee71c	0.0014564726
3	0x3aa1ce05	0.0012344724
4	0xbb7cb934	-0.0038562538

action_model._discrete_distribution.branches.0.weight f4 [5, 128]
0	0xbc4dbdd7	-0.012557468
1	0xbb5c51d2	-0.0033618105
2	0x3bedbe47	0.007255349
3	0x3c0044fc	0.007828947
4	0x3d24fd06	0.040280364
5	0xbcd1b640	-0.025599599
6	0x3c2985cc	0.010346841
7	0xbc8adc03	-0.016950613
8	0xbd1bec29	-0.038067017
9	0x3c011366	0.00787816
10	0x3c4d0cbc	0.012515243
11	0x3c91e0f3	0.01780746
12	0xbc8817d1	-0.016612919
13	0x3cdf5d41	0.027266147
14	0x3b4a6acc	0.003088641
15	0xbc8a9549	-0.016916888
16	0xbb4f7bff	-0.00316596
17	0xbcbc72ff	-0.023004053
18	0x3b6714bc	0.0035260161
19	0xbca9e86e	-0.020740714
20	0xbcad4dd8	-0.021155283
21	0x3ce2fda1	0.02770883
22	0x3b4ff153	0.0031729534
23	0x3bb8a56e	0.005634955
24	0xbccdf544	-0.025141366
25	0xbd11ba68	-0.03557816
26	0x3cb4c8d3	0.022068417
27	0x3c8ea4e3	0.017412608
28	0x3be4c0fa	0.0069810124
29	0x3a05bb7d	0.00051014853
30	0x3c7b3a38	0.015333705
31	0xbd0bea17	-0.034158792
32	0x3caafeaf	0.020873396
33	0x3b9d5912	0.004801878
34	0x3c719a1f	0.014746218
35	0x3c35dab8	0.01109951
36	0x3922ded1	0.0001553253
37	0x3c265143	0.01015121
38	0x3b250763	0.0025181405
39	0x3c771157	0.015079818
40	0xbc2e39bd	-0.010633883
41	0x3c9200ca	0.017822642
42	0xbcfad0e7	-0.03061719
43	0x3c801476	0.015634757
44	0x3c94a825	0.018146584
45	0xbcd86859	-0.026416944
46	0x3ce0eb1e	0.027455863
47	0x3bf02810	0.0073289946
48	0x3cbd8e57	0.023139162
49	0x3baa7dbc	0.005202977
50	0xba66b61f	-0.0008800942
51	0x3d004924	0.031319752
52	0xbcdeb36f	-0.02718517
53	0x3bc4c77e	0.0060052266
54	0x3b5a8b96	0.003334736
55	0xbcbe54e1	-0.023233833
56	0x3cc20469	0.023683744
57	0x3ca22433	0.019792652
58	0x3b2451cd	0.002507317
59	0x3c372c12	0.011179941
60	0x3c14070a	0.009034881
61	0x3cd1d32a	0.025613386
62	0xbcdf528c	-0.027261041
63	0x3ca9a0d9	0.020706581
64	0x3cf406b9	0.029788362
65	0x3c2a6ad9	0.010401451
66	0x3cd9f5d2	0.026606474
67	0x3c9c31df	0.01906675
68	0x3c6c34ae	0.014416857
69	0x3cc15a22	0.023602549
70	0x39418ebd	0.00018459088
71	0xbc3824e1	-0.011239261
72	0xbcbeddf9	-0.023299204
73	0xbd3216bc	-0.043478712
74	0x3c58a2c2	0.013222398
75	0xbc8900f3	-0.016724085
76	0x3c4071dd	0.011745897
77	0x3c9419e0	0.018078744
78	0x3c9fd57b	0.019510975
79	0xbcc35685	-0.023844967
80	0x3c899bda	0.016797949
81	0x3cea6c62	0.028616134
82	0xbd2ddfa5	-0.042449612
83	0xbbc609bd	-0.0060436414
84	0x3c93ce1f	0.018042622
85	0xbc955250	-0.018227726
86	0x3c801d10	0.015638858
87	0x3d253b41	0.040339712
88	0xbcbb96eb	-0.022899112
89	0x3cebd296	0.028786939
90	0x3c5b1588	0.013371833
91	0x3ceabd37	0.028654678
92	0xbb531324	-0.0032207454
93	0xbc9abed2	-0.018889818
94	0x3c3d5832	0.011556672
95	0x3c7620b0	0.015022442
96	0xbc77492a	-0.015093127
97	0x3d1cd416	0.0382882
98	0x3c985f3d	0.0186001
99	0x3bbad2af	0.005701385
100	0xbcd49e35	-0.025954345
101	0x3cc733a0	0.024316609
102	0xbaa17819	-0.0012319117
103	0x3cb439a5	0.022000143
104	0xbcb16744	-0.021655686
105	0xbcc3777e	-0.02386069
106	0xbc81da34	-0.015851118
107	0x3cb65a8a	0.02225997
108	0x3c4fcc08	0.012682922
109	0xbc28dcb9	-0.010306531
110	0xbc584462	-0.0131998975
111	0x3c879e4f	0.01655498
112	0xbcf20c1a	-0.029546786
113	0xbc5dc7fb	-0.013536449
114	0xbc117b2c	-0.008879464
115	0xbcecd12c	-0.028908335
116	0xbbc2a70c	-0.0059403237
117	0x3810bf77	3.451059e-05
118	0x3c2d5156	0.010578474
119	0xbd1956e7	-0.037436392
120	0xbca713b2	-0.020395134
121	0x3c912129	0.017716007
122	0x3cd84013	0.02639774
123	0x3c4c87a4	0.012483511
124	0x3cbd79ab	0.023129305
125	0x3cbbcff3	0.022926306
126	0xbcc87c28	-0.024473265
127	0x3c9278fe	0.01787996
128	0x3c11d2ca	0.008900354
129	0x3b80cca5	0.0039306455
130	0x3ba1f031	0.004941963
131	0x3c7169bd	0.014734683
132	0x3cce5595	0.025187293
133	0xbcdd7698	-0.027034089
134	0xbb86001a	-0.0040893676
135	0xbbc05203	-0.0058691516
136	0xbcd18d06	-0.02557994
137	0x3c86ec7e	0.01647019
138	0x3d0feeeb	0.03513996
139	0xb9dc2b85	-0.00041994094
140	0xbd05d6fb	-0.032675724
141	0x3c7b383c	0.015333232
142	0xbb4aa50a	-0.0030921125
143	0xbcbb2043	-0.022842532
144	0x3b01022d	0.0019685135
145	0xbc893f42	-0.016753796
146	0x3d075c74	0.033047155
147	0xbc135b0a	-0.008993873
148	0xbc88cca9	-0.016699152
149	0x3b980797	0.0046395767
150	0x3cd7d58f	0.02634695
151	0x3c8a9ded	0.016921008
152	0xbca701da	-0.020386625
153	0xbccd8de0	-0.025092065
154	0xbc36e040	-0.011161864
155	0x3bc58dac	0.0060288515
156	0xba35f9d3	-0.0006941829
157	0x3c5e217d	0.013557789
158	0x3cc6624c	0.024216793
159	0xbcc1eb1d	-0.023671681
160	0x3cbe6c77	0.02324508
161	0x3c474be9	0.0121640945
162	0x3d1aa74c	0.037757203
163	0x3ce2821d	0.027649933
164	0x3d170369	0.036868487
165	0x3cb7a43b	0.022417178
166	0xba7590a8	-0.0009367564
167	0x3d0a84cf	0.033818062
168	0xbc4f4788	-0.012651332
169	0x3c3bf888	0.011472829
170	0xbd052b8a	-0.032512225
171	0x3d55ac8e	0.052166514
172	0xbbe7332c	-0.0070556607
173	0xbc60281f	-0.013681441
174	0xbb19c000	-0.0023460388
175	0x3c05eb79	0.008173817
176	0x3cbaadf3	0.022788024
177	0x3cec53db	0.02884858
178	0x3c8f8b3d	0.017522449
179	0x3c8a9d7e	0.016920801
180	0x39589fff	0.00020658968
181	0xb9aa785c	-0.00032514601
182	0xb774f5f5	-1.46008e-05
183	0xbba8da32	-0.005152964
184	0x3c3a67ff	0.011377334
185	0x3ccbd126	0.024880003
186	0x3ca06964	0.019581504
187	0x3c675c0e	0.014121069
188	0xbbd8c876	-0.0066156937
189	0x3c7d67e2	0.015466662
190	0xbd000273	-0.031252336
191	0x3cd09dc7	0.02546586
192	0x3c9990b4	0.018745758
193	0xbc1ee0c8	-0.009697147
194	0x3ce4a6fd	0.027911657
195	0x3c00764e	0.007840706
196	0x3c2b4bbf	0.010455071
197	0x3c8d0cd9	0.01721804
198	0x3ca2aec9	0.019858735
199	0xbc95e140	-0.018295884
200	0xbd1d7a84	-0.038446918
201	0xbca13fb9	-0.019683706
202	0x3c143965	0.009046887
203	0x3a9e4495	0.0012074882
204	0x3bd51985	0.0065032863
205	0x3c308875	0.010774721
206	0x3cf03e92	0.02932671
207	0xbcb89560	-0.022532165
208	0x3cc0421b	0.023469022
209	0x3cae3118	0.021263644
210	0xbd184d32	-0.037182994
211	0x3ca8cfc9	0.020606892
212	0x3c347769	0.011014798
213	0xbce0b69c	-0.027430825
214	0x3cfb8fe1	0.030708255
215	0x3cebb4d4	0.028772749
216	0xbcaee6dd	-0.021350319
217	0x3cd8cf0e	0.026465919
218	0x3c362cf0	0.011119112
219	0x3cce0091	0.025146754
220	0x3c516b29	0.012781897
221	0xbceaa515	-0.02864317
222	0x3c588d7f	0.013217329
223	0x3c7eb480	0.015545964
224	0xbcb72b88	-0.022359625
225	0x3c9c6cc4	0.019094832
226	0x3cfb9b66	0.030713748
227	0x3cb6f5b5	0.02233396
228	0x3c065a46	0.008200234
229	0x3c5b57d5	0.01338764
230	0x3c725647	0.014791078
231	0x3cb4c26b	0.022065362
232	0xbcb45caf	-0.022016851
233	0xbc81b862	-0.01583499
234	0xbd23a4a5	-0.03995194
235	0x3cda273c	0.026630037
236	0x3ca024a6	0.019548725
237	0xbd110b85	-0.035411377
238	0xbc587f15	-0.0132138925
239	0x3bf4c8bd	0.007470219
240	0xbcc69922	-0.024242941
241	0xbabd0569	-0.0014421168
242	0xbc250062	-0.010070892
243	0xbd1e687e	-0.03867387
244	0x3b6669de	0.0035158317
245	0x3c22f55e	0.009946195
246	0x3cd5797d	0.026058907
247	0xbd03d6ad	-0.032187153
248	0xbcb9ea3a	-0.022694696
249	0x3d2468ab	0.04013888
250	0x3c9dd73a	0.019267667
251	0x3c312fe7	0.010814643
252	0x3c822cb7	0.015890462
253	0x3cd28f1b	0.025703004
254	0xbd1f9669	-0.0389618
255	0x3c73e338	0.014885716

action_model._discrete_distribution.branches.0.bias f4 [5]
0	0x3ce225aa	0.02760585
1	0x3cd15756	0.02555434
2	0x3cc8681b	0.024463704
3	0x3ccc6ee5	0.024955222
4	0xbd17664e	-0.0369628

exp_avg f4 [128, 63]
0	0x3112e7c1	2.1377533e-09
1	0x381e2d10	3.7712103e-05
2	0x80000004	-6e-45
3	0xb530ba42	-6.583615e-07
4	0xb59fddd5	-1.1910985e-06
5	0x310fb167	2.091008e-09
6	0x382a8c51	4.066184e-05
7	0x80000004	-6e-45
8	0xb6722200	-3.60806e-06
9	0xb5a6c904	-1.2426467e-06
10	0x3112eeb0	2.1381474e-09
11	0x381eaa96	3.7829006e-05
12	0x00000000	0.0
13	0xb5501c17	-7.7526914e-07
14	0xb5966c4c	-1.120739e-06
15	0x3065dbf8	8.362231e-10
16	0x3829cfd8	4.048631e-05
17	0x80000004	-6e-45
18	0xb66644dc	-3.4312752e-06
19	0xb576a0e6	-9.187628e-07
20	0x3119358a	2.2294864e-09
21	0x381df3d5	3.7658803e-05
22	0x00000000	0.0
23	0xb5227222	-6.051579e-07
24	0xb58f555f	-1.0679177e-06
25	0xaf587179	-1.9685399e-10
26	0x382a0d73	4.0543684e-05
27	0x80000004	-6e-45
28	0xb66a0cd7	-3.487619e-06
29	0xb5777bbc	-9.219473e-07
30	0x3065dd46	8.3624163e-10
31	0x381df566	3.7660262e-05
32	0x00000000	0.0
33	0xb52276d4	-6.052262e-07
34	0xb5895f74	-1.0235076e-06
35	0xb1981f3c	-4.427333e-09
36	0x382ba021	4.091871e-05
37	0x80000004	-6e-45
38	0xb6817773	-3.8584053e-06
39	0xb5d5b224	-1.5921582e-06
40	0x2e9a0863	7.004599e-11
41	0x3827d999	4.0018556e-05
42	0x00000000	0.0
43	0xb646d3d6	-2.9627604e-06
44	0xb596c0f0	-1.1232023e-06
45	0x00000916	3.26e-42
46	0x385f0219	5.3169297e-05
47	0x00000004	6e-45
48	0xb7872b4b	-1.6113414e-05
49	0xb77e2886	-1.5149015e-05
50	0x343a7d1c	1.7368114e-07
51	0x3825cb31	3.9528302e-05
52	0x00000000	0.0
53	0xb63193e1	-2.6461132e-06
54	0xb4e95cbd	-4.3467108e-07
55	0xb998e482	-0.0002916195
56	0x376aee72	1.4003004e-05
57	0xb92e88ce	-0.00016644897
58	0x379b083a	1.848127e-05
59	0xb7a71fdf	-1.9922792e-05
60	0x373a8222	1.1116763e-05
61	0xb621d93f	-2.4117323e-06
62	0x35f175e1	1.7990207e-06
63	0x319aeb99	4.5087742e-09
64	0xb6d40f5c	-6.3198804e-06
65	0x00000004	6e-45
66	0x36202732	2.3864673e-06
67	0x369a7f27	4.60436e-06
68	0x3241a87a	1.1272386e-08
69	0xb6cd891f	-6.125439e-06
70	0x80000004	-6e-45
71	0x3612a68c	2.1852638e-06
72	0x36a6b5ec	4.968364e-06
73	0x318649a7	3.9082866e-09
74	0xb6a22fff	-4.8335637e-06
75	0x00000000	0.0
76	0x3571cb20	9.007508e-07
77	0x3691f3f0	4.349735e-06
78	0x32fe07ff	2.9573128e-08
79	0xb6f493a0	-7.2889525e-06
80	0x80000004	-6e-45
81	0x365f8127	3.3304766e-06
82	0x36bc0914	5.6038934e-06
83	0x31a1a8c0	4.7049014e-09
84	0xb66fff9c	-3.576256e-06
85	0x00000000	0.0
86	0xb4bfda63	-3.573542e-07
87	0x368bec88	4.1700587e-06
88	0x32a5e25b	1.9311463e-08
89	0xb6ff511b	-7.609034e-06
90	0x80000004	-6e-45
91	0x3675ac63	3.6608187e-06
92	0x36ce5ef2	6.1503315e-06
93	0x32fe07ff	2.9573128e-08
94	0xb66f737a	-3.5680991e-06
95	0x00000000	0.0
96	0xb4d1953b	-3.9037863e-07
97	0x36898200	4.098052e-06
98	0xb2a47250	-1.9144096e-08
99	0xb70e7059	-8.4900175e-06
100	0x80000004	-6e-45
101	0x3699b01a	4.5802562e-06
102	0x36c85cee	5.971283e-06
103	0x32b897ce	2.1489452e-08
104	0xb6c980fc	-6.0052826e-06
105	0x00000000	0.0
106	0x3609e6be	2.05489e-06
107	0x368dc886	4.2254715e-06
108	0x00000a12	3.613e-42
109	0xb76ff648	-1.4302852e-05
110	0x00000004	6e-45
111	0x372e0bc1	1.0373945e-05
112	0x37301f16	1.0497655e-05
113	0xb3b1a41d	-8.272057e-08
114	0xb6d33450	-6.29438e-06
115	0x00000000	0.0
116	0x36244bba	2.4481983e-06
117	0x36952855	4.4452413e-06
118	0x38c12e5f	9.2115944e-05
119	0xb5c87334	-1.493469e-06
120	0x3887ff98	6.48491e-05
121	0xb6034079	-1.955805e-06
122	0xb883eb4a	-6.290393e-05
123	0xb59e32d7	-1.1786714e-06
124	0x36f30492	7.2424964e-06
125	0xb59c0578	-1.1624497e-06
126	0xb29f5ce7	-1.8552283e-08
127	0xb6dc1a10	-6.559545e-06
128	0x80000004	-6e-45
129	0x35d06275	1.5525862e-06
130	0x365e5e24	3.3135375e-06
131	0xb25d50c0	-1.28822535e-08
132	0xb704d01b	-7.916266e-06
133	0x80000004	-6e-45
134	0x3642dc61	2.903653e-06
135	0x366586dd	3.420216e-06
136	0xb2a667ce	-1.9372148e-08
137	0xb6ad210f	-5.1596503e-06
138	0x00000000	0.0
139	0x3424d656	1.5351665e-07
140	0x3650b234	3.1098143e-06
141	0xb20e2169	-8.273084e-09
142	0xb70415fb	-7.872931e-06
143	0x80000004	-6e-45
144	0x363fa484	2.8556979e-06
145	0x366e2808	3.5488065e-06
146	0xb29db926	-1.8361401e-08
147	0xb6a4bbc9	-4.909442e-06
148	0x00000000	0.0
149	0xb3d1ced9	-9.769946e-08
150	0x3649a79b	3.0048893e-06
151	0xb28faa12	-1.672473e-08
152	0xb712381c	-8.715342e-06
153	0x80000004	-6e-45
154	0x3678be56	3.706567e-06
155	0x368954f4	4.092808e-06
156	0xb20e2164	-8.27308e-09
157	0xb6a4e3c0	-4.9140945e-06
158	0x00000000	0.0
159	0xb3dd7d41	-1.0313898e-07
160	0x36485636	2.9852504e-06
161	0xb2840d8e	-1.5372986e-08
162	0xb70cbfe3	-8.389327e-06
163	0x80000004	-6e-45
164	0x3662c5fa	3.3791862e-06
165	0x362c09f9	2.5635802e-06
166	0xb2877fe6	-1.577423e-08
167	0xb6f9888c	-7.4366744e-06
168	0x00000000	0.0
169	0x3622de98	2.4269448e-06
170	0x365cd77d	3.2907985e-06
171	0x800004ad	-1.677e-42
172	0xb7871320	-1.610216e-05
173	0x00000004	6e-45
174	0x3739d5bc	1.1076623e-05
175	0x373939d7	1.1040326e-05
176	0x354fe395	7.7444685e-07
177	0xb70e14d8	-8.468713e-06
178	0x00000000	0.0
179	0x363318d9	2.6687542e-06
180	0x36766984	3.6718275e-06
181	0x398102ad	0.0002460679
182	0xb5fed31e	-1.8985918e-06
183	0x355becd6	8.19285e-07
184	0xb627d243	-2.5007328e-06
185	0xb8be26ec	-9.067156e-05
186	0xb5ca5a8b	-1.5076524e-06
187	0x366e9fac	3.5557705e-06
188	0xb60a21f1	-2.058336e-06
189	0xb3a0d10b	-7.488605e-08
190	0x3627b4d0	2.4990186e-06
191	0x00000004	6e-45
192	0xb5836761	-9.790348e-07
193	0xb6b63ba3	-5.4309653e-06
194	0xb3a5ab50	-7.714573e-08
195	0xb5c5e6ca	-1.4744812e-06
196	0x00000004	6e-45
197	0x36491b4b	2.996722e-06
198	0xb6d59435	-6.3651482e-06
199	0xb3a0c433	-7.486269e-08
200	0x359399e0	1.0997137e-06
201	0x00000000	0.0
202	0x34e19dd8	4.2024362e-07
203	0xb6a7ee40	-5.004724e-06
204	0xb3b9fc6d	-8.66065e-08
205	0x34e68599	4.2938044e-07
206	0x00000004	6e-45
207	0x3593f3a3	1.1023261e-06
208	0xb709f23d	-8.222237e-06
209	0xb3a279ef	-7.5658924e-08
210	0x35435f0d	7.278148e-07
211	0x00000000	0.0
212	0x3554da41	7.9293756e-07
213	0xb69f3923	-4.745221e-06
214	0xb38b4451	-6.4851186e-08
215	0x365b171b	3.2646992e-06
216	0x80000004	-6e-45
217	0xb5eb84c9	-1.754751e-06
218	0xb7520f46	-1.25205315e-05
219	0xb3b9fc6d	-8.66065e-08
220	0x353ce5ed	7.0370044e-07
221	0x00000000	0.0
222	0x355e43fb	8.280037e-07
223	0xb69b9bb0	-4.6374844e-06
224	0xb292d89c	-1.709514e-08
225	0x36837f37	3.918914e-06
226	0x80000004	-6e-45
227	0xb624dde7	-2.4567069e-06
228	0xb77349d2	-1.4501116e-05
229	0xb396fe81	-7.031213e-08
230	0xb3c3766a	-9.1019345e-08
231	0x00000000	0.0
232	0x35d79c98	1.6064323e-06
233	0xb69985a2	-4.5753122e-06
234	0x00000110	3.81e-43
235	0x379bfdb2	1.8595576e-05
236	0x80000004	-6e-45
237	0xb78fde5d	-1.7150474e-05
238	0xb7bf31c5	-2.279215e-05
239	0xb606a26f	-2.0062105e-06
240	0x363cfd42	2.8161598e-06
241	0x00000000	0.0
242	0x352a7f2d	6.3515e-07
243	0xb6e0aebb	-6.6960615e-06
244	0xb98488b0	-0.00025278842
245	0x3515a1ef	5.574247e-07
246	0x37728483	1.4455177e-05
247	0x353d2aa0	7.0470014e-07
248	0x392f6be3	0.00016729491
249	0x34e8c104	4.3353805e-07
250	0xb74f1bc2	-1.2344624e-05
251	0xb6371ee6	-2.728711e-06
252	0x32441f23	1.1415781e-08
253	0x380fcb7a	3.428336e-05
254	0x80000004	-6e-45
255	0xb6fb7b10	-7.4947093e-06

exp_avg_sq f4 [128, 63]
0	0x2d63d02e	1.2949681e-11
1	0x31d22674	6.116176e-09
2	0x28eb2573	2.6106482e-14
3	0x2f8f2c10	2.6042857e-10
4	0x2fb54d52	3.2978648e-10
5	0x2d39c4e3	1.055975e-11
6	0x31d25844	6.121839e-09
7	0x2a2593a0	1.4706162e-13
8	0x2f9cad2e	2.8499286e-10
9	0x2fc0eaa3	3.5091316e-10
10	0x2d71f0e9	1.3752757e-11
11	0x31d35dc0	6.1515664e-09
12	0x00000000	0.0
13	0x2f721776	2.2018107e-10
14	0x2fac3ea2	3.133112e-10
15	0x2d1f926a	9.070614e-12
16	0x31d2546f	6.1214034e-09
17	0x29c07056	8.546e-14
18	0x2fae69e4	3.1725655e-10
19	0x2fc4d122	3.580079e-10
20	0x2d75bb44	1.3968219e-11
21	0x31d3fc7a	6.1696115e-09
22	0x00000000	0.0
23	0x2f6fcc5a	2.1809524e-10
24	0x2fa1b504	2.941435e-10
25	0x2d2474f6	9.348291e-12
26	0x31d1cad2	6.1057586e-09
27	0x29988914	6.773935e-14
28	0x2fa4be06	2.9966446e-10
29	0x2fc60572	3.601986e-10
30	0x2d5ccc52	1.255092e-11
31	0x31d3fd28	6.1696888e-09
32	0x00000000	0.0
33	0x2f65ac0c	2.0888552e-10
34	0x2fa318fa	2.9667274e-10
35	0x2d20bc16	9.1367105e-12
36	0x31d0c7db	6.0763177e-09
37	0x29988914	6.773935e-14
38	0x2fa705ab	3.038115e-10
39	0x2fcffaad	3.7831197e-10
40	0x2db07d76	2.00646e-11
41	0x31d1f00e	6.1099916e-09
42	0x00000000	0.0
43	0x2f6b592c	2.1404806e-10
44	0x2fbc1bd0	3.4216763e-10
45	0x2ce5475d	6.5164944e-12
46	0x31c939ff	5.8564633e-09
47	0x29226c49	3.606515e-14
48	0x30117799	5.292065e-10
49	0x302b7b27	6.238445e-10
50	0x2f0c4deb	1.2760608e-10
51	0x31c8b450	5.8412652e-09
52	0x00000000	0.0
53	0x2fb1a430	3.2312775e-10
54	0x301c7df5	5.6931465e-10
55	0x34c2a362	3.6254193e-07
56	0x307ecfa1	9.269972e-10
57	0x3571b4fc	9.0042863e-07
58	0x30df98b9	1.6268792e-09
59	0x3400cd7c	1.1995684e-07
60	0x3020d4e2	5.8510186e-10
61	0x2eb83718	8.377138e-11
62	0x2e924efd	6.6533425e-11
63	0x2f9ad76d	2.8165506e-10
64	0x30cc1d30	1.4851249e-09
65	0x25d4203d	3.6797983e-16
66	0x300fdb19	5.2334453e-10
67	0x302edf2a	6.3617966e-10
68	0x2f488fb9	1.8240955e-10
69	0x30d71b52	1.5651074e-09
70	0x26fdc55e	1.7608898e-15
71	0x301171a4	5.2912186e-10
72	0x30326ad5	6.490784e-10
73	0x2fa3f7de	2.9825648e-10
74	0x30d0cd24	1.5192296e-09
75	0x00000000	0.0
76	0x30167596	5.473678e-10
77	0x30310a64	6.440699e-10
78	0x2f1eca8f	1.444198e-10
79	0x30db66ab	1.5963527e-09
80	0x28533548	1.17244064e-14
81	0x300da11a	5.152444e-10
82	0x3031c59f	6.467306e-10
83	0x2f8e15a0	2.5845015e-10
84	0x30d1f4fd	1.5276381e-09
85	0x00000000	0.0
86	0x30127cea	5.3292004e-10
87	0x3036d28e	6.651043e-10
88	0x2f26599f	1.5129452e-10
89	0x30da9ba1	1.590582e-09
90	0x286ec1f7	1.3253713e-14
91	0x30140232	5.3845206e-10
92	0x30354f97	6.596052e-10
93	0x2f4238b1	1.7664338e-10
94	0x30d29b23	1.5323603e-09
95	0x00000000	0.0
96	0x301fc41d	5.8122557e-10
97	0x3046158b	7.2062595e-10
98	0x2eaf1e25	7.9634334e-11
99	0x30e12e7d	1.6384117e-09
100	0x286ec1f7	1.3253713e-14
101	0x30132c1f	5.354099e-10
102	0x303b36ec	6.810825e-10
103	0x2f3e7708	1.7322688e-10
104	0x30d5bbbd	1.5551148e-09
105	0x00000000	0.0
106	0x3026583c	6.0515837e-10
107	0x304b5fab	7.398692e-10
108	0x2df006d9	2.7287882e-11
109	0x30e3b506	1.6567874e-09
110	0x2889ead6	1.53119e-14
111	0x302f2576	6.3717864e-10
112	0x305470d4	7.728549e-10
113	0x2ea7d4a6	7.632055e-11
114	0x30d0bc49	1.5187506e-09
115	0x00000000	0.0
116	0x30376359	6.6716194e-10
117	0x30720f4d	8.806083e-10
118	0x335d9111	5.158751e-08
119	0x2fbf7ee0	3.4832848e-10
120	0x334508f5	4.5875783e-08
121	0x302678df	6.0562216e-10
122	0x334e5b62	4.8046225e-08
123	0x2f7042de	2.1851629e-10
124	0x2daea831	1.9856202e-11
125	0x2d33176d	1.01801735e-11
126	0x2ecfc66c	9.448517e-11
127	0x321d00a7	9.138751e-09
128	0x285a0618	1.2102752e-14
129	0x306ce3c1	8.617996e-10
130	0x30907716	1.0511225e-09
131	0x2e9e4c56	7.198568e-11
132	0x321d48c2	9.155146e-09
133	0x29b49ae6	8.0204764e-14
134	0x3076d5aa	8.9797914e-10
135	0x30973294	1.1001071e-09
136	0x2ef58e25	1.116656e-10
137	0x321df39e	9.193995e-09
138	0x00000000	0.0
139	0x30565ac9	7.798176e-10
140	0x308e5255	1.035526e-09
141	0x2e23bf7b	3.7231978e-11
142	0x321cba7a	9.122795e-09
143	0x2985594a	5.921876e-14
144	0x3086390e	9.765999e-10
145	0x309c69d5	1.1380573e-09
146	0x2ec7ef65	9.091997e-11
147	0x321f6c09	9.279582e-09
148	0x00000000	0.0
149	0x30394586	6.7401407e-10
150	0x308b5bce	1.0139674e-09
151	0x2e406db5	4.3753185e-11
152	0x321bbd3c	9.065214e-09
153	0x29e2d3f5	1.0073185e-13
154	0x30833ce2	9.548808e-10
155	0x309d2385	1.1433349e-09
156	0x2e690e2a	5.2990647e-11
157	0x321eddd4	9.247248e-09
158	0x00000000	0.0
159	0x304069eb	6.999971e-10
160	0x30959256	1.0882768e-09
161	0x2e5ead0a	5.0630646e-11
162	0x321b219c	9.029829e-09
163	0x29e2d3f5	1.0073185e-13
164	0x308109d0	9.388774e-10
165	0x30a67bea	1.2113308e-09
166	0x2e914b11	6.607171e-11
167	0x321f04dc	9.256123e-09
168	0x00000000	0.0
169	0x3055bb26	7.77549e-10
170	0x30a8ffdf	1.2296332e-09
171	0x2e109c25	3.2880493e-11
172	0x3215a760	8.710998e-09
173	0x296357e0	5.0480345e-14
174	0x30ade6fb	1.2653055e-09
175	0x30d68511	1.5608369e-09
176	0x2f9ed1de	2.8889152e-10
177	0x321397f8	8.59108e-09
178	0x00000000	0.0
179	0x30894702	9.988244e-10
180	0x30dadede	1.592493e-09
181	0x3505796e	4.9723064e-07
182	0x30c8e54d	1.4617086e-09
183	0x3588c0d6	1.0188912e-06
184	0x312fe0ab	2.559356e-09
185	0x345fd056	2.0844286e-07
186	0x307d8ffe	9.224549e-10
187	0x2f068404	1.223413e-10
188	0x2efac575	1.1403759e-10
189	0x305fc9e9	8.141386e-10
190	0x323b83b9	1.0914783e-08
191	0x259f90d6	2.7680248e-16
192	0x305cf8ef	8.038929e-10
193	0x309493f3	1.0810467e-09
194	0x3013d0ad	5.3774835e-10
195	0x3239f4ad	1.082405e-08
196	0x281304b3	8.161158e-15
197	0x307080e0	8.7494634e-10
198	0x30ab25c5	1.2452622e-09
199	0x3075e613	8.9457436e-10
200	0x323aa078	1.0863111e-08
201	0x00000000	0.0
202	0x303cc755	6.867727e-10
203	0x308d6288	1.0287105e-09
204	0x2fe3c9b4	4.1434378e-10
205	0x323b19c5	1.0890692e-08
206	0x27c2517b	5.393416e-15
207	0x30875247	9.845927e-10
208	0x30b39336	1.3065804e-09
209	0x3056f31c	7.8198226e-10
210	0x323ba562	1.0922436e-08
211	0x00000000	0.0
212	0x3018145b	5.5326205e-10
213	0x3093112b	1.0700537e-09
214	0x2fcb6016	3.6993758e-10
215	0x323a0a04	1.0828902e-08
216	0x280a4bbc	7.676961e-15
217	0x308ce800	1.0252279e-09
218	0x30bddf42	1.3815014e-09
219	0x300b7945	5.074024e-10
220	0x323dd7fd	1.1050358e-08
221	0x00000000	0.0
222	0x30341d70	6.552545e-10
223	0x30a7c142	1.2205776e-09
224	0x2f57b832	1.9619575e-10
225	0x3238caa5	1.0756286e-08
226	0x280a4bbc	7.676961e-15
227	0x30965a54	1.0939609e-09
228	0x30db533b	1.5958003e-09
229	0x2ffd7d46	4.6109444e-10
230	0x323d3dcb	1.1015298e-08
231	0x00000000	0.0
232	0x3048394a	7.284099e-10
233	0x30acffc3	1.2587339e-09
234	0x2dacc0d7	1.9639774e-11
235	0x32378320	1.0681816e-08
236	0x27fc7bdb	7.0078335e-15
237	0x30d85d41	1.5742573e-09
238	0x311ad721	2.2532236e-09
239	0x2f9f9f4c	2.903512e-10
240	0x32384cce	1.0727673e-08
241	0x00000000	0.0
242	0x30a53da1	1.2022846e-09
243	0x30febca8	1.8534552e-09
244	0x34956010	2.7823307e-07
245	0x30fe8a7d	1.8520293e-09
246	0x3510c4ee	5.393075e-07
247	0x315e47f1	3.2346146e-09
248	0x34767d71	2.295617e-07
249	0x30a07b68	1.1676606e-09
250	0x2f1ed1a4	1.4444496e-10
251	0x2ecaa7d7	9.215711e-11
252	0x2ef92129	1.13290995e-10
253	0x329cc869	1.8251926e-08
254	0x25652946	1.9876568e-16
255	0x3091a9eb	1.0598432e-09
