results/shortRays/Tank/Tank-438618.pt (torch, 635120 bytes, 42 tensors)

network_body._body_endoder.seq_layers.0.weight f4 [128, 64]
00000000: d904 663e 0354 37bd eb0c e53d 1c5a 323d
00000010: b41f 20bd ed20 3a3e 74fd 283d 1c09 6d3e
00000020: 279a e9bd 791d 6cbc 9ee2 0b3e d32a 923d
00000030: f312 b53d c748 f73a 978d 203d f7ba 7d3d
00000040: da49 45bd c1eb 2ebd 277e 1fbe c7a1 41bd
00000050: c005 993d a685 87be 38a1 1d3e db13 1d3e
00000060: 9864 be3c a9bb fabc d54e 23bd 175f 14bd
00000070: e948 98bd 0bbc 5d3d 367a 59bd 4c20 5dbe
00000080: 969c 063d dc04 34be f817 75bd 79c4 853d
00000090: d8f1 a2bd 6791 acbd d0ca 8c3e 24c1 4d3e
000000a0: 41c4 193e 2273 8a3d 517e abbd c084 613e
000000b0: 2adf 30be 66c5 d13d 5860 853d 6be6 a8bc
000000c0: 3a7f 4c3d 4597 d1bd c20f 1d3e 77f9 653c
000000d0: 44e9 ddbb 156c 49bd 3ea2 a5bd d095 43bd
000000e0: 452d 8cbd 5fe6 84bd 411d 14be 7a88 693e
000000f0: 4624 84bd 024a c8bc 03ae a1be 7ef4 123d
00000100: dbf3 2c3d 776b 393d b248 cc3d dfbb d63d
00000110: b9ee 323e 66b7 dfbc d630 a0bc 0e04 8a3e
00000120: ebac 173e d0a2 a4be 447b 693e 778f b0bd
00000130: 289e f8bd a025 b73d bd36 e7bd 5579 013e
00000140: f210 213e 5214 b33d 49a0 63bd d2ea 483e
00000150: 8709 1fbe 7138 01be 3a24 df3d a929 9a3d
00000160: b01e 46be 4c63 4d3d 1a01 50bd c930 f43d
00000170: e57d 58bd c1e7 0dbd 87f8 89bd a83e 65bc
00000180: 4d4f d1bd ceeb 0bbe 2ea9 a03e 41e2 b53d
00000190: 2716 b83d a670 9bbd 0e85 8abd 0bfe b6bd
000001a0: f30b 83bd a71b 30bd 14ce 3d3c e40f f33d
000001b0: 178b 243d bfb4 4bbd 4051 82bd 039c 90be
000001c0: c502 0c3d defd 1c3d ad1f eabc 7a3f c1bd
000001d0: 6cc6 463d ef3c 1aba 54f3 62bd 46a8 27be
000001e0: c8ef 233e 8714 d9bd 39ff 0e3d 833d b0bc
000001f0: 08d0 8e3c 4b87 39ba b386 05be 8ee9 2eba
00000200: c439 293d ef26 d43d cb38 0d3e e96e ccbd
00000210: 48b9 18be 93f7 833d 2587 1bbd 06a1 dcbc
00000220: a1e3 3a3d 2fb5 463d 4b44 063e 87e6 30be
00000230: 2111 a93c 61d9 1cbe 29d4 0d3e 8d16 9a3e
00000240: d307 bcbd d3a3 04bd 85d3 a33d ad6e aa3e
00000250: 5197 603e 9f53 6abd a24d eb3c 9489 083e
00000260: abfe 973d 2622 983d 98d8 c33e 78fc 383d
00000270: 0db1 dcbd 9459 05bd 8215 2dbd a4f4 35bd
00000280: 35f6 b3bc 37c7 123b b704 76bd a02c 553d
00000290: 6e07 703e e040 5e3e d267 39bc 1dc1 04bd
000002a0: 3927 5a3e 3b37 e1bd 9a1f 613d 89d3 a23c
000002b0: 4770 f9bd 38b2 d3bd 5868 38be 6efb b8bd
000002c0: 0bc8 e3ba 747b 103e 9ef7 283e 6cab fabd
000002d0: f754 c03c b0bf b5bd 2878 11be 98d2 c83d
000002e0: 9cfe e3bd 87d6 dfbc 1043 9d3c b8f2 413e
000002f0: 3a7f 123d 8414 74be a6b1 88be 6f8d b13d
00000300: e490 85bd 9006 52be 72cc ff3d 3f5b df3c
00000310: c895 37be 140e 593b e61d a0be e489 9f3d
00000320: 1d89 413d 7ff5 ff3d b1e1 653e 8a42 86bd
00000330: 3c69 3abd 6ea4 463d f334 a4be 0455 8cbd
00000340: 7ed2 18be 36e1 98bd 1d83 8d3e 0af3 93b9
00000350: 098d 253d 9965 d6bd cbc3 00bd e1c7 88bb
00000360: c837 fa3c 3489 adbd 8ad0 c7bb 902f 613e
00000370: 98d6 93bd 3aab 853e e84d 193e 74c5 da3d
00000380: 6924 3a3d 3c10 9d3e 960f e83c 9078 bc3a
00000390: ca8d efbb ac9c 643e 28e1 29bc 7538 083d
000003a0: ac5f 9abc 7077 a63a 6a49 e33c a2ab d73d
000003b0: ac52 98be e1d6 ea3c 58dc 19be e10c 093d
000003c0: 5108 fd3c b536 34bd 3592 193e c132 f8bd
000003d0: 098f d23e bdde 11bd ce7f 86bd ddff 39be
000003e0: 0c71 a23d 3dae c8bd 37a4 293e f3c0 2dbe
000003f0: 3162 70be fff4 8b3e 6718 9f3d 5fbe 28bd
0.22462787 -0.044757854 0.111841045 0.043542966 -0.039092734 0.18176623 0.041257337 0.23148006
-0.11406355 -0.014411324 0.13660666 0.07137074 0.08841505 0.0018866294 0.03919753 0.06194588
-0.048166133 -0.0427053 -0.15575467 -0.047273424 0.074718 -0.26469153 0.15393531 0.15339606
0.023241326 -0.030607061 -0.039870102 -0.036223497 -0.074357815 0.05413441 -0.053095065 -0.21594352
0.032864176 -0.17579979 -0.05983731 0.06531615 -0.07956284 -0.08426171 0.27498484 0.20093209
0.15016271 0.06760241 -0.08373702 0.22023296 -0.1727263 0.10242729 0.06512517 -0.020617684
0.04992602 -0.102339305 0.15338042 0.014036528 -0.006772192 -0.04917534 -0.08087586 -0.047750294
-0.06844572 -0.06489252 -0.14464284 0.22805968 -0.06452231 -0.024449352 -0.31578073 0.035877697
0.042224746 0.045268502 0.09974803 0.10485052 0.17473878 -0.02730913 -0.019554537 0.26956218
0.14812057 -0.32155466 0.22800928 -0.08621114 -0.12139541 0.08942723 -0.112897374 0.12643941
0.1572912 0.0874411 -0.05557278 0.19620827 -0.15530978 -0.12619187 0.108955815 0.07527477
-0.19347644 0.050143525 -0.0507823 0.119233675 -0.052854437 -0.034644846 -0.06736856 -0.013991989
-0.102202035 -0.13664171 0.31379074 0.08881045 0.089886 -0.07589845 -0.067636594 -0.089351736
-0.063987635 -0.04299512 0.011584777 0.11868265 0.04017171 -0.04973292 -0.063631535 -0.28244027
0.03418233 0.038328044 -0.028579557 -0.09435935 0.048529074 -0.00058837136 -0.055407837 -0.16372785
0.16009438 -0.105996184 0.034911368 -0.021513706 0.017433181 -0.000707735 -0.13039665 -0.00066723756
0.041314855 0.103589885 0.13791196 -0.09982092 -0.14914429 0.064437054 -0.03797068 -0.02693225
0.04562724 0.048512634 0.13111989 -0.17275439 0.02063805 -0.15317298 0.13850464 0.3009533
-0.0918118 -0.032382797 0.079993285 0.33287564 0.21932723 -0.057208654 0.028723542 0.13333732
0.07421621 0.07428388 0.38251185 0.045162648 -0.10775957 -0.03255613 -0.04225684 -0.04442276
-0.021967987 0.0022396573 -0.06006309 0.05204451 0.23440334 0.21704435 -0.011316257 -0.03241073
0.21304025 -0.109968625 0.05496178 0.019876258 -0.12179618 -0.10336727 -0.18008554 -0.090323314
-0.0017378343 0.14109594 0.16500708 -0.122397274 0.023478014 -0.08874452 -0.14205992 0.098057926
-0.11132547 -0.027323974 0.019197017 0.18940246 0.035765864 -0.23835951 -0.26698035 0.086695544
-0.06521776 -0.20510316 0.12490167 0.02726519 -0.17928231 0.0033119963 -0.3127281 0.077899724
0.047249902 0.124979965 0.22449376 -0.0655566 -0.045510516 0.048496656 -0.32071647 -0.06852153
-0.14924046 -0.074648306 0.27639094 -0.00028219103 0.040417705 -0.10468597 -0.031436723 -0.004174218
0.030544177 -0.08473435 -0.006097858 0.219908 -0.07218665 0.26107198 0.14971125 0.106821924
0.04544488 0.30676448 0.028327744 0.0014379192 -0.0073106037 0.2232539 -0.010368623 0.033256967
-0.018844448 0.001270039 0.027744967 0.10530783 -0.29750574 0.028666915 -0.1502546 0.033459548
0.030887755 -0.043997485 0.1499718 -0.121190555 0.41124752 -0.03561281 -0.065673456 -0.1816401
0.07931718 -0.09798858 0.16566549 -0.16968136 -0.23474957 0.27335355 0.07768326 -0.041197177

network_body._body_endoder.seq_layers.0.bias f4 [128]
00000000: e37f a039 4c58 77bc ab2f a1bb a319 f1bb
00000010: 2fb3 d33b f6b8 a1bc b356 a63c 7cf5 0e3b
00000020: e7b0 86bc a97e 723a cf4d bebc b798 0e3c
00000030: 4e40 213c 59f5 1f3d 3dc9 ed3a f5cb ae3c
00000040: 477a 273c 970d 9b3b 81e2 cb3b 96ae d63a
00000050: df37 f3bb d3e7 0ebc 3a63 ecba 1dab bd3c
00000060: 2310 eabb 2dcd 8b3b b30c 4f3c 3049 12bc
00000070: ab64 a23b 0214 92bc f59a 993b dc19 073c
00000080: 8c6f 333b 2d12 bc3b ca46 1d3d dde3 ba3c
00000090: 9d00 9e3c d498 46bc 412f 1438 57c5 883c
000000a0: 2d9e a7bb 58b1 4d3c 9126 dbbb e6c6 243d
000000b0: ee48 833b 4f86 a4bb d028 b63b 976a 5cbc
000000c0: c854 0bbc eca3 103c 8274 08bc 3eb2 f53b
000000d0: 736d c83a eac2 313c f22d 403c 10ac dfbb
000000e0: 2652 93ba dfc2 81ba 5d58 173c a153 643c
000000f0: 39c4 c2bb 8de4 ab3c d128 203c 4dc6 b8bb
00000100: 0ffd d73c a4aa a53c 0382 d23b 9f23 abbc
00000110: 5bdb 0a3d f5f9 043b 103a ea3c 8fdc 0b3d
00000120: d895 b0bc 1853 f1bb 6270 6d3a dedf 203c
00000130: 6b78 4f3b 4152 89ba 70d2 c73b 672b 02bc
00000140: b559 273d 22b1 eebb 86f1 9b3c 10a0 013c
00000150: e4ec 4fb9 7fb2 c8bc 3a4c 08bc 2d71 a83a
00000160: 5bef a8bb b4e4 073c 7f4e f7ba 5240 2abd
00000170: edb4 50bc 518a 173d e7ba 23bb 093c 143b
00000180: 0ee3 043d 6448 0abc bb4c 87bc 8728 c43a
00000190: 6603 743c ec47 45bc 4289 47bc d76c 083c
000001a0: 02c4 30ba 9f43 84bc ecd1 bbbb 580c 17bc
000001b0: 16cf a93c 760d a53b 15e9 69bb 3446 b93c
000001c0: 6c02 29b7 c062 343b 0706 393a 4914 53ba
000001d0: 5cc5 8abb 13d2 023d 9bce ca3b c0d9 b53c
000001e0: 36bf 2abb e9ed 7ebc fc85 923c 4bb1 20bc
000001f0: 2a4a adba 545e 293c a00c 4abc acf0 5cbc
0.0003061286 -0.015096735 -0.0049190125 -0.0073577925 0.0064605693 -0.019741517 0.020305013 0.00218138
-0.016441775 0.0009250441 -0.023230461 0.008703402 0.009841992 0.03905234 0.0018141639 0.021337489
0.010222024 0.0047318446 0.0062220697 0.0016378935 -0.007422432 -0.008722263 -0.0018034943 0.023152882
-0.007143037 0.004266402 0.012637305 -0.008928582 0.004955848 -0.017831806 0.004687662 0.008245911
0.002737972 0.0057394714 0.038397588 0.022813732 0.019287402 -0.012121398 3.532996e-05 0.016695661
-0.0051152916 0.012554489 -0.006687947 0.040228747 0.0040064966 -0.0050208936 0.0055590644 -0.013453147
-0.0085041 0.0088281445 -0.008328559 0.0074980548 0.0015291407 0.010849694 0.011729704 -0.0068259314
-0.0011239692 -0.0009899995 0.009237376 0.013935954 -0.0059438017 0.020983005 0.009775356 -0.0056388737
0.026365785 0.02022297 0.00642419 -0.020891009 0.0339006 0.0020290588 0.02859214 0.034145888
-0.021555826 -0.007364642 0.0009057579 0.009818999 0.0031657468 -0.0010476784 0.006098084 -0.007944918
0.040857036 -0.0072842995 0.019036066 0.007911697 -0.00019829307 -0.024499176 -0.008318955 0.0012851112
-0.0051554865 0.008294273 -0.0018867998 -0.041565247 -0.012738449 0.036997143 -0.0024983229 0.0022618792
0.0324431 -0.008440111 -0.01651608 0.0014965691 0.014893388 -0.012041073 -0.012178721 0.008326731
-0.00067430746 -0.016145526 -0.0057318117 -0.009219252 0.02072863 0.005037005 -0.0035691906 0.022616483
-1.0073749e-05 0.002752468 0.0007058088 -0.0008052034 -0.004234953 0.031938624 0.00618918 0.022198558
-0.0026053912 -0.015559652 0.017886154 -0.009807895 -0.0013220955 0.010337431 -0.012332112 -0.013485115

network_body._body_endoder.seq_layers.2.weight f4 [128, 128]
00000000: 76b9 1fbe 4d1f b43d 931c 1c3d 97e4 b73b
00000010: 7cce e7bd 520b 753b d5a2 3e3d 2dff f4bd
00000020: 327d b4bc 92cd e4bc 2377 c23d 084f 233c
00000030: e924 513d ed70 eb3a 0f68 3dbc 4d5e 89bd
00000040: 156b 1f3d 6670 903c 4bf5 f93c 1e0a 1fbe
00000050: da15 fabd 19e3 893c 0785 73bc 94fc b73d
00000060: 47e4 323d a2d3 15be d10b 3aba 7aea 8ebc
00000070: e692 5eb9 590b 2fbd d1b7 dfbd 81b0 89bb
00000080: e5cb 9b3d 1f22 d73d 76a7 0a3c c6bc b83c
00000090: 9fed a53d 5538 b0bd 0ad9 babd 39e7 27bc
000000a0: 62a2 cebc fee2 eb3c 4e26 16bc 6451 dd3d
000000b0: 2c52 a7bd ddfb 0b3e 6283 183e a725 efbd
000000c0: f991 e0bd d5e7 a43d 3f74 aebd 597c 893d
000000d0: 95ba ffbd cdee a8bd 18fb 9dbd a154 c2bd
000000e0: 5d66 28bc 7207 b63d c0a9 ecbd 30ec e3bc
000000f0: dc83 093d 14f2 cebd eb67 233d 1744 d8bd
00000100: bbc7 6abe b15c 57bd 8e17 0abd 9839 1ab9
00000110: 908d a7bc 9c4f 63bd 89e0 b13d f731 3ebd
00000120: c359 b8bd f20d 44bd f1f3 e9bc d50a 37bd
00000130: 4a81 ec3d 52cf b13c 25f4 453d b696 dfbc
00000140: 0354 aa3c 04ca 8dbc 08b3 12be 360c 153d
00000150: cfd3 55bd 910b 5c3c 89ca 993d ea24 23ba
00000160: ff79 e03d d150 3b3c 0c3a e6bc 8c20 a23d
00000170: 213b 213c 227f acbc 1fb2 e7ba 9a9c 1ebd
00000180: fcf9 49bd 1b3c 85bc 73d3 2cbd 8965 82bd
00000190: cfab 973c b243 ebbb 4ce3 22bd 750c b03d
000001a0: 8de7 5c3d 9455 9ebd 03ff 413d 6af0 5c3d
000001b0: 48c8 34bd c67a 11be 84ff 893d 82bd 32bd
000001c0: c999 5a3e f32b 8e3d 9162 9e3c a7fa 12bd
000001d0: 4b0e 8cbe 82f2 933d 2762 0b3d 32c1 38bc
000001e0: 05f6 0e3d 274a a1bd f95c e43d e519 e3bd
000001f0: 6dbf 22bd 8b4d 35bd 7255 c53d d3ad ab3d
00000200: bbc0 25bd 9940 983b 46f7 5ebb 8e9e 09bd
00000210: 025d 8dbc 559d 8ebd 1ada de3d f44d 7abd
00000220: b1d3 c7bd 354b be3c cc28 18bd 47ee 77bc
00000230: 5c47 6a3e 7873 273d 8e99 d5bd 1e04 c03c
00000240: fe25 cb3d 6565 19be 7a3d b13d b023 1a3e
00000250: 6536 36bd 79fe 143d bbbe bebc 719b ad3d
00000260: d3bd 0dbe 21e0 1cbd c8e4 a93d e91a 803c
00000270: fce5 08be bf23 f9bd 133c adbd 5693 afbc
00000280: e7cd 75bd 58ba 3ebe a49d f83d 382a bbbc
00000290: 0ab2 073e f0d1 26be 1e8d cf3d ab47 4d3d
000002a0: 7b44 0fbd 8b96 e13d a506 363d a8dd 7abd
000002b0: 8de4 83bd fb1f e8ba dbdd 953d 9e61 4cbe
000002c0: b90d 57bd ef4a 33bd 25f6 c83d 2b89 513e
000002d0: 2cae 52be 6d11 2c3d a0ed 09be 7af9 b0bd
000002e0: ad16 40bd 7634 8f3d 7124 1d3e 22a6 093e
000002f0: fee0 913b 5b12 0e3d 4ccc cabb d636 a4bd
00000300: 64cf b2bd 63eb 3b3d a4a3 e73c b3d2 da3c
00000310: 87a3 eabc 20d5 2b3d 771c c73d ae8e 5f3d
00000320: 9242 05bd e30f 7bbd 2aa9 4dbd e95b f23b
00000330: 838b f8bc 345d 033e fa93 f2bc 8b5e a1bd
00000340: bb66 db3d 5d73 1b3c bde6 3a3d eae0 5a3d
00000350: 1fdf df3d 8632 44be 682b afbd aa36 243e
00000360: 61f7 d1bc f97c e63c f19d 36be a1c0 cbbd
00000370: a1d6 36be 4df2 d03d 6612 913d 41d4 89bd
00000380: 80c8 863d f810 23bd ee11 20be c69c bb3c
00000390: 3d7d 55bd 4397 66bd a0ae 463d fe52 1f3d
000003a0: 933c babc 5b90 e4bd 6d1b a5bc d298 1fbd
000003b0: db31 01be 4d7f ccbc 4f3e bc3d 8cc5 6ebd
000003c0: 50aa 28bc 6e29 f6bd 574c 04bd 573c 9f3d
000003d0: f082 093d 2415 303d 5ca9 f73c 40a4 963d
000003e0: 66c9 283e 2c73 0abe eb1f 4d3c 1e40 133e
000003f0: b539 fdbc d045 693c 659b f4bb 241c 7e3d
-0.15598091 0.08795033 0.038113188 0.005611967 -0.11318681 0.003739078 0.046542007 -0.119627334
-0.022032354 -0.027930055 0.0949538 0.009967573 0.05106059 0.0017962732 -0.011560454 -0.067074396
0.03892048 0.01763172 0.030512473 -0.15531203 -0.12211199 0.016831921 -0.014863259 0.08983722
0.043674733 -0.14631513 -0.00070970977 -0.017445792 -0.00021226294 -0.04273543 -0.10923732 -0.004201949
0.07607249 0.10504555 0.008462777 0.022550952 0.08101963 -0.086044945 -0.09123428 -0.010247999
-0.025223915 0.028794762 -0.009164406 0.1080654 -0.0816997 0.13670297 0.14893869 -0.116771035
-0.10965342 0.08052031 -0.08518266 0.067131706 -0.124867596 -0.08248673 -0.07713908 -0.09488798
-0.010278312 0.08888139 -0.11555815 -0.027822584 0.033573017 -0.101047665 0.039894026 -0.10559862
-0.22927754 -0.05257863 -0.03371387 -0.0001470804 -0.020453244 -0.055495843 0.08685405 -0.04643437
-0.09001496 -0.04786486 -0.028558703 -0.044688065 0.115480974 0.021705303 0.048328537 -0.027293544
0.020792013 -0.017308243 -0.14326108 0.0363886 -0.05220395 0.013430492 0.07509334 -0.0006223457
0.10960769 0.011432842 -0.02810385 0.07916364 0.009840758 -0.021056715 -0.0017676986 -0.038723566
-0.04931067 -0.016264012 -0.04219384 -0.063670225 0.018514542 -0.007179701 -0.03976755 0.08596126
0.05393176 -0.077311665 0.04736234 0.053940214 -0.044136316 -0.1420699 0.06738189 -0.04363776
0.21347727 0.069419764 0.01933411 -0.035883572 -0.27354655 0.07223989 0.034029152 -0.01127653
0.03490259 -0.078754716 0.111505456 -0.11088923 -0.03973334 -0.044263404 0.09635438 0.08382764
-0.040467005 0.0046463725 -0.0034021898 -0.033598475 -0.017256264 -0.069636025 0.10881443 -0.0611095
-0.09757174 0.02322922 -0.037148282 -0.015132493 0.22878784 0.040881604 -0.10429679 0.023439463
0.09919356 -0.14980085 0.08654304 0.15052676 -0.04448547 0.036375497 -0.023284307 0.08476914
-0.13841943 -0.038299683 0.0829559 0.015637832 -0.13368982 -0.12165021 -0.08458724 -0.02143256
-0.060010817 -0.18625772 0.121394426 -0.02284728 0.1325151 -0.16291022 0.10134338 0.050117176
-0.034977417 0.11015042 0.04443993 -0.061246544 -0.06440077 -0.0017709726 0.07317706 -0.19959113
-0.05250332 -0.043772634 0.09812573 0.20462482 -0.20574254 0.042008806 -0.13469553 -0.08641334
-0.046896625 0.06992428 0.15345933 0.13442281 0.00445187 0.034685474 -0.006188905 -0.080182716
-0.08730963 0.04587878 0.028276272 0.026711797 -0.028642429 0.0419513 0.09722226 0.05457943
-0.03253419 -0.061294448 -0.050210156 0.0073962105 -0.030339962 0.12828523 -0.029611576 -0.07879361
0.10712954 0.009487954 0.045630205 0.05343715 0.10931229 -0.19159898 -0.08553201 0.16036478
-0.025630655 0.028135763 -0.17833687 -0.099488504 -0.17855312 0.10202465 0.07083587 -0.06729937
0.06581211 -0.039811105 -0.1563184 0.022901904 -0.05212139 -0.0562966 0.04850638 0.038897507
-0.022733962 -0.11160346 -0.02015468 -0.0389641 -0.12616675 -0.024963045 0.09191572 -0.058293864
-0.010294512 -0.12019621 -0.032299366 0.07775181 0.033572137 0.04298891 0.030232124 0.07355547
0.16483077 -0.13520497 0.012519817 0.14379928 -0.030911306 0.014237836 -0.0074648135 0.062038556

network_body._body_endoder.seq_layers.2.bias f4 [128]
00000000: 3252 29bd 54b1 2b3d e8c7 3b3b 3c8c 5bbb
00000010: 88cc bbbc 2e68 27bc c481 a03b 5e8e a7bb
00000020: 378e 2dbb 02a9 483c 42f3 d6bc 6e5a f2ba
00000030: 08ce 1e3d 17b2 c5bc bcd3 51bb c16f a2bc
00000040: 3bde b43b 1a8a 64ba a28d 63bc dd7b 67bc
00000050: a889 64bc 9432 e13b f834 5d3c fe84 1bbc
00000060: 7cb0 3f3c 4e4c 4abc 1216 45bc bcbc 1bbd
00000070: cb5c 393d 9cd0 943b ab56 05bd 452f 793c
00000080: 4e57 203b 757f e23b 33bb c8bc 9637 a33c
00000090: 2882 a13b 72fd 723a 0001 3dbc bd80 1fbc
000000a0: d9e0 78bc 9677 c7bc 766d 1bbc ad08 e3bb
000000b0: c279 7bbc 0ad4 313c e633 3fbc 90b2 b7ba
000000c0: 9e2e f5bb c6c3 7a3c b3ef f4bb 8d9f 12bc
000000d0: 2706 da3a ba33 51bb 1805 0c39 4072 bdbb
000000e0: 1f06 46bc 6f17 ba3c 040f bd3b 63be e93b
000000f0: a6a4 54bc 8f01 c83b 595a c6bc 93f9 cabc
00000100: 0934 4b3d cd97 813a 5020 913c e0dc 02bd
00000110: 2d9e df3a d06f 09bd 9b87 81bb 5a24 aebb
00000120: eabc 263c ee15 0d3d 596f f53b 0da7 ce3c
00000130: 02b1 bdbb a9e1 1c3c bf4e f4bb e240 ad3c
00000140: aa4a 73bc 3891 debc e16c 8ebc f0c9 e0bc
00000150: e987 5ebc f1a5 62bc af02 c2bc 6e6a 4ebc
00000160: 6484 813b 249b 873c 103f 1c38 f5a0 3bbb
00000170: 6854 1fbc 531a da3c f956 5e3d d3da 96bc
00000180: 60c2 be3b edc0 e939 077a 453b d710 9e3b
00000190: 858b 813a 9964 503a df69 23bb 331f bc3b
000001a0: c4df e5bb 7f3f 29bc d878 5f3c 0209 8e3d
000001b0: a642 21bb edd9 debc 2a9e b43b 31a6 c43c
000001c0: 8908 093d 854e 5c3c f167 073d c740 5839
000001d0: 78ea 29bd b648 173c c95f 083c 8e1d 04bd
000001e0: 8f3f 4c3c 9a7e 6bbc 5970 bfba 9970 b5ba
000001f0: 7952 d1bc 5e01 81bc 0286 093b 9c96 ef39
-0.041338153 0.04191716 0.002865309 -0.0033500334 -0.022924677 -0.0102177095 0.004898282 -0.005113407
-0.0026482472 0.012247326 -0.026239041 -0.0018490085 0.038770705 -0.024132771 -0.0032017073 -0.019828679
0.005519656 -0.00087180885 -0.013888748 -0.014128652 -0.013948835 0.0068724845 0.013501398 -0.009492157
0.011699792 -0.012347294 -0.012029188 -0.038021788 0.04525451 0.0045414697 -0.032553356 0.015209024
0.00244661 0.0069121667 -0.024503326 0.019923966 0.004928846 0.00092693337 -0.011535883 -0.009735283
-0.015190327 -0.024349015 -0.009486547 -0.0069285245 -0.015348854 0.010853777 -0.011670088 -0.0014015008
-0.007482364 0.015305465 -0.0074748634 -0.008949173 0.0016633914 -0.00319217 0.00013353338 -0.005781442
-0.01208642 0.022716252 0.0057696123 0.0071332916 -0.012978708 0.0061037014 -0.024213003 -0.02477721
0.04961017 0.0009887159 0.017715603 -0.031948924 0.001706069 -0.0335539 -0.003952933 -0.005314392
0.010176877 0.034444742 0.0074900803 0.02522614 -0.0057889232 0.009575286 -0.0074556763 0.021149103
-0.014849344 -0.027168855 -0.017385902 -0.027440041 -0.013582208 -0.013833509 -0.02368292 -0.012598617
0.00395255 0.016553469 3.725203e-05 -0.0028629873 -0.009724714 0.02662388 0.054282162 -0.01841489
0.005821511 0.00044584964 0.0030132548 0.004823785 0.0009883499 0.00079495605 -0.002493493 0.005741024
-0.0070152003 -0.01033008 0.013639651 0.06935312 -0.0024606376 -0.027203524 0.0055120187 0.024005027
0.033455405 0.013446455 0.03305811 0.00020623497 -0.041483372 0.009233644 0.008323618 -0.032254748
0.012466325 -0.014373446 -0.0014605626 -0.0013842761 -0.025552021 -0.015747722 0.0020984416 0.00045697845

action_model._continuous_distribution.log_sigma f4 [1, 5]
00000000: 3e40 2dbc 69ce 693a c66d ca3b 87a3 963b
00000010: c83b 3fbc
-0.010574399 0.0008919002 0.006177637 0.0045971307 -0.011671968

action_model._continuous_distribution.mu.weight f4 [5, 128]
00000000: 1b3b 42bc 8486 a5bc 6113 80bc a456 2cbb
00000010: 7ebd e6bc 3b09 033c 58b3 ff3b 50e8 d3bb
00000020: e9c1 203b 27df c7bc 67e3 6c3b ea33 003c
00000030: 642a a53b e228 e13b 72c9 0c3d ebba 453a
00000040: 1ec9 143c cff5 dcbc f3ca e43c 1ed0 363c
00000050: 905d 983b 995c 01bd 9345 26bc ddf2 cfbc
00000060: 8127 cd3c fc85 bb3b e1f8 d43c e181 89bc
00000070: 0af7 e2bc 0a83 123c b8f1 e7bc 6674 3d3a
00000080: 78e5 993c 4e7b 2839 b285 8bbb 853d f73b
00000090: b19f 323d b624 823c 62af 96bb 7893 443c
000000a0: 90b2 f13b f750 b5bc 356d 0f3d 47fe 013d
000000b0: c694 18bd 0699 5ebc 43fc 7cbb cdcf 0bbc
000000c0: d83e a43c ccd4 db3b 0051 e83c c27c d23b
000000d0: 1bdf 6b3b c346 35bd 30be 8bbb 11c9 363d
000000e0: 002d 023c da97 6a3c 1632 b9bc 2e39 38bc
000000f0: 0624 b2bc 5af3 bbbb 9745 4ebc 0b4f a7bb
00000100: 1d46 113c a9cb 3a3c d5a7 813c f5f5 8dbc
00000110: 2ac1 febb 63c6 ae3b 5ad6 02bb a662 55bc
00000120: 9047 913c a27c 77bc 542a f6bc a46c adba
00000130: a61c f8bc afb4 8a3a 3338 ec39 a377 f63b
00000140: 51c7 48bc a774 3f3c 2661 c73b 9942 e7ba
00000150: 29ee 9ebc 0688 41bc 3044 74b9 9c0a 3abc
00000160: 9257 afbc 0037 11bd 46d9 163d 7ec7 e0bc
00000170: f126 9ebb 116c bcbb 832a b0bb be48 e53b
00000180: 3b4c 7c3c 1782 45bc 39bb c63c 5bb2 553b
00000190: 842f 18bd 8cdb bb3b 2ef1 2b3c 3a05 e3bc
000001a0: c854 373c 85bc 20bd 234c e8bc 8107 33ba
000001b0: 226a ef3c adc1 703c 39c8 43bd 1f27 4dbc
000001c0: d4b8 25bc 7ab8 b1bc 12a0 643c da6f 2e3d
000001d0: 4265 053b 1fad fbbb 4f19 1abc 4fd4 94bb
000001e0: a6a5 a63c edfc b93b 65ef 1a3b ff03 333d
000001f0: a906 b93b 4929 0bbc ae3f 33bb 4d48 46bc
00000200: 5cfb 08bd c2b0 f43a 7875 9e3c 7d9a d63c
00000210: 2053 923c 09bb e5bb c3b6 e4bc fc58 a43c
00000220: aaef d1bb 185e 85bb f76c c23c 95be 0b3d
00000230: 2ccd 5a3c 748f 47bc 4010 debc 7297 63bc
00000240: 324e fabb f292 9dbb 8a55 583c 22d1 d1bc
00000250: d929 abbc 8974 a0bc 6ca1 ac3c f648 6d3c
00000260: e1eb aabc ed32 0cbc 33be 11bd fa71 30bd
00000270: f77a eaba f1e5 363d 99be 5abc 1e30 23bc
00000280: f390 3b3b 1549 a9bb 278c 66bc e487 763b
00000290: db22 5f3a f262 b9bc 1440 91bc 2f81 673c
000002a0: 9adb ce3c d879 43bc 3668 2ebd d28a 903c
000002b0: b17d ee3c 2dcb cbbc b7ca 933b a435 fcbb
000002c0: 165c 523c 2949 273c 734f 543d 819b 90bc
000002d0: 0062 3e3d 17fb 25bc 0470 643c b9d6 003b
000002e0: f317 03bd 3d7f c4bb 63c7 94bb 2c15 893a
000002f0: 6636 4fbd eda7 a03c 4446 1abc 3d8e 8abb
00000300: 939a 59bc 52fb ae3c 0109 fdbc d846 783a
00000310: dcce de3c 9a3c debc f021 b7bc 3d18 5d3c
00000320: e325 8b3c c1a8 0ebb 11b1 a53b c1f7 37bc
00000330: 798a 4e3b 8265 e4bc 458a 963c 01f8 acbc
00000340: d681 14bc f78e 2cbc f402 e2bc a3dc ccba
00000350: b33a 0ebd 306f 9d3b 26fd 433c ee91 9f3c
00000360: 1f32 7bbc ab06 54bc da65 c2ba 8566 69b9
00000370: ef1d 07bb 58b9 643c cdec 213b 1daa cebb
00000380: 459f 493c 3269 e1bb bd46 10bb 7939 84bc
00000390: 9777 a03b 3b2d 9bbc 84de 8cbc 63c6 043d
000003a0: f3a8 823a 80ea 643c af7a bf3b 3f45 bd3b
000003b0: 2bfc 07bc 4e5f a93c e52b dfbc bafe b8bb
000003c0: 5c61 37bb 3f84 b7bb 293f 193d 301c 5b3b
000003d0: eb3c f3bb b1b3 c33c 157e 2cbc 290e e2bc
000003e0: 6cb8 af3b 7aa8 cebb 0b49 143d 8be5 043c
000003f0: 0bf7 b4bc f1e5 09bc 9dfa 52bc 4710 7dbc
-0.011854912 -0.020205744 -0.01563424 -0.002629676 -0.028166529 0.007997806 0.007803362 -0.006466903
0.0024529642 -0.0243984 0.0036146285 0.007824877 0.0050404537 0.0068713287 0.0343718 0.00075428066
0.009081153 -0.02697268 0.027928805 0.011158017 0.0046498254 -0.03158245 -0.010148424 -0.02538436
0.025043251 0.0057227593 0.025997581 -0.016785564 -0.027705688 0.008942375 -0.028313503 0.00072271226
0.018786177 0.00016067663 -0.004257881 0.0075451755 0.043609325 0.015886646 -0.004598544 0.01199805
0.0073760226 -0.022133334 0.035016257 0.03173664 -0.037251256 -0.013586288 -0.0038602508 -0.00853343
0.020049497 0.006708717 0.028358936 0.0064235637 0.0035991136 -0.044256937 -0.0042646155 0.044625346
0.007945299 0.014318431 -0.02260689 -0.011244101 -0.021745693 -0.005735797 -0.012589834 -0.005105858
0.008866814 0.011401095 0.015827099 -0.017329196 -0.007774492 0.005333708 -0.001996419 -0.013024008
0.017734319 -0.015105398 -0.03004948 -0.001323123 -0.030287098 0.0010582412 0.000450553 0.007521586
-0.012254552 0.011685527 0.006084579 -0.0017643749 -0.019400673 -0.011812216 -0.00023295055 -0.011355069
-0.021404061 -0.035452843 0.0368283 -0.027438875 -0.0048264195 -0.005750187 -0.0053761615 0.006997197
0.015399034 -0.012054942 0.024259197 0.003260753 -0.03715469 0.005732959 0.010494513 -0.027712453
0.011189647 -0.039242286 -0.028356617 -0.0006829426 0.029225413 0.014694613 -0.04779837 -0.012521534
-0.010114867 -0.02169441 0.013954179 0.04258714 0.0020354544 -0.0076805498 -0.009405448 -0.0045419107
0.02034266 0.005675903 0.0023641225 0.043704983 0.005646546 -0.00849373 -0.0027351188 -0.012102199
-0.03344284 0.0018668401 0.019343123 0.026196713 0.017861903 -0.0070108217 -0.027919179 0.020061962
-0.006406744 -0.0040700547 0.0237336 0.0341173 0.013354581 -0.012180198 -0.027107358 -0.013891088
-0.007638716 -0.004808777 0.013203988 -0.025612418 -0.020893978 -0.019586818 0.021073066 0.014482727
-0.020864429 -0.0085570635 -0.03558178 -0.043077447 -0.001788943 0.044652883 -0.013351106 -0.0099602025
0.0028620332 -0.0051661828 -0.014071501 0.0037617618 0.0008511969 -0.022630189 -0.01773075 0.014129921
0.025251199 -0.011930905 -0.042579852 0.01764432 0.029112669 -0.024877155 0.0045102495 -0.007696824
0.012839338 0.010210314 0.05183358 -0.017652275 0.04648018 -0.010130665 0.013942722 0.0019659235
-0.03200526 -0.0059966133 -0.0045403703 0.001045858 -0.050588988 0.019611323 -0.009416167 -0.004228382
-0.013281482 0.021360073 -0.030888082 0.0009471006 0.027198248 -0.027128506 -0.02235505 0.013494548
0.01698584 -0.0021768066 0.0050565084 -0.011228503 0.0031515642 -0.027880434 0.018376479 -0.021114351
-0.009064158 -0.010532132 -0.027589299 -0.001562972 -0.03472395 0.0048045143 0.011962211 0.019478764
-0.015331774 -0.012941043 -0.001483138 -0.00022258803 -0.0020617207 0.013960205 0.0024707795 -0.0063069
0.012306039 -0.0068789953 -0.002201482 -0.016140686 0.0048970687 -0.018942466 -0.017195947 0.03241576
0.0009968564 0.013971925 0.0058434824 0.005776077 -0.008299868 0.020675328 -0.02724261 -0.0056456
-0.0027981615 -0.0056004818 0.03741375 0.003343355 -0.0074230335 0.023889394 -0.010528107 -0.027594643
0.005362561 -0.006306705 0.03620247 0.008111368 -0.022090456 -0.008416639 -0.012877134 -0.015445775

action_model._continuous_distribution.mu.bias f4 [5]
00000000: c2df 0fba 5d52 403b e202 673b cb96 42bb
00000010: 0c87 853b
-0.00054883596 0.0029345967 0.003524952 -0.002969193 0.0040749367

action_model._discrete_distribution.branches.0.weight f4 [5, 128]
00000000: 5f4e debc 6df8 ca3c 3471 8cbb 4eea b9bc
00000010: bd9e 5bbc 57bc f239 860d 8b3c 4cb0 cb3b
00000020: 3150 a2bc a27f 963b 9e6c 06bd 3a9f 7139
00000030: 03f4 af3b 0d4c bbbb 0a5a 03bd 8d32 3dbd
00000040: 048d 483c 5898 9dbb 1078 2cbc 0c69 493c
00000050: 119e fe3a 35c1 f7bb 3382 9d3b 6501 26bc
00000060: b40b eb3b 1188 21bc 8d9b ebbc 171f 36bd
00000070: 6a29 ca3b 4bf7 26bc c3b9 a1bc 824d aa3a
00000080: faeb 98bb ea94 483b a945 57bd a436 6d3c
00000090: 7e75 873a 454d c83b f301 a4bc 9953 41bb
000000a0: 64a9 72bb 141d 07bc fa70 02bc f8b6 10bd
000000b0: c95d 8dbc c574 26bb d225 1cbc b8db 743b
000000c0: 9229 5d3c 0cb1 2bbb ccd4 bcbc b39f 513c
000000d0: e681 8f3c 398d cd3b 6240 6e3b 81bc 40bc
000000e0: 7b99 3abd 575d 55bb f210 2037 17e8 06bb
000000f0: 897d 57bd 6866 7c3c 1163 acbc 1e9b 26bd
00000100: 3de2 b43c bd92 5fbc 838e 5dbc 460c f8bc
00000110: 9fe8 473c f74f d3bc 378a 56bc f0a3 543c
00000120: b116 a2bb ab31 d43c c623 883b dbf2 673c
00000130: c4a0 713c 6326 8db9 7dba 9bbb aa25 6438
00000140: 01dd 88bc b1f4 9fbb a82c 563c 800c 63bd
00000150: add7 01bd d150 8fbc f40a d3bc c2c0 47bc
00000160: eb10 f538 367a 07bb de81 4b3c f23b a0bb
00000170: f304 4f3c aabf 0bbc 0b0d 883c 8776 c63a
00000180: cc1d 8cbc 30e2 efbb 8913 0fbc 566b 843c
00000190: cf60 8cbb ad72 863a 6692 f1b9 d530 073a
000001a0: 1326 7f3c e3ef 5a3c b0f4 ddba 5b0f dd3c
000001b0: 0342 94bc 2d2a 0dbd dede 583c 9922 3d3c
000001c0: f4f1 e23c 16c1 50bc c7c4 dc3c efb6 453b
000001d0: 1deb 19bd 8c6d a73c 5c8f bc3b a595 a6bc
000001e0: 6aa8 713c d078 ea39 e966 85b7 afa2 1db8
000001f0: 50a6 0ebd a7d7 34bc 27dc e1b8 ca86 23bb
00000200: 0960 29bd 995d dd3c a11e 0c3b c4c1 2fbc
00000210: 7e57 1cbd d6b5 edbb 3eb4 aebc f5c7 1fbb
00000220: 01ce 7c3c 2a97 2d3c 616b 17bd f7be a4bb
00000230: 83fd cc3b a64e fcbc 5550 2cbd 2182 2fbd
00000240: 919f 503c 77e4 a13b 0ec5 1e3c 1b71 7e3a
00000250: 9dd7 09bc 07f2 0b3c aa28 7dba ba4c 58bc
00000260: c194 663c 761b d239 8732 39bd dff6 2ebd
00000270: 244d 013d 7c14 2c3a 93b1 71bc 65c9 1e3c
00000280: be82 5e3c 5616 8f3b 6226 0bbd 6f27 8d3a
00000290: 756e f1b9 77fb 6ebc 5d7c 16bc b3fe 3cbc
000002a0: 664c 05bc 8aac 8bbc ef2c 1cbc 8e56 41bd
000002b0: df79 f5bc 622f 193c 07f9 263b 56d7 30bb
000002c0: 23f2 043c d6fc 143a 0899 c1bc d278 c8bb
000002d0: 5a44 2f3c 10dc f73a 0481 19bb e5e5 46bc
000002e0: b160 3abd fa2c 5cbb bc77 403a 4cfa 8a3b
000002f0: 9526 0ebd 7773 7f3c 59e7 6bbd 44b4 0dbd
00000300: b934 153c 6822 353c ef3f 44bc d6c6 93bc
00000310: 0ef7 34bb bfc5 2fbd 5230 d1bb 3249 b2bb
00000320: 775d 61bb b5c3 2d3c fe63 913c 4389 413c
00000330: b60a 16bb e427 6d3c 6baa 0d3b eed8 a93b
00000340: 7d30 fdbc d7c7 11bc 0635 53bc 8727 01bd
00000350: fc01 11ba 4a87 f2bc 32d1 fabc 19f3 dbbb
00000360: e2de a5bb a323 78bc 4755 2d3b 6fc2 4abc
00000370: 1a0a 413b 90e6 58bc c58f fe3c 824c f4ba
00000380: 684d b83b a92c a03c f277 253b 4b99 5a3c
00000390: 6ba6 74bb e2bf 013c c8a7 1fbc fc70 78bc
000003a0: 08d8 b53b 6223 05bc 8a54 653c efe5 113d
000003b0: a492 55bc 1427 9bbc 1bc9 053c d9a8 683b
000003c0: 47c6 903c 8670 6d3c 4052 b33c e3d1 4abb
000003d0: 2c44 77bd 90ab e5ba 7032 f5ba f978 afbc
000003e0: f6fe a9ba 8b3a 3fbc f9f5 c7bb e4f7 5abc
000003f0: 2874 75bd bb38 4cbc 8d13 633c 9432 083c
-0.02713698 0.024776662 -0.004285956 -0.022694733 -0.013404545 0.0004629816 0.016974222 0.0062160846
-0.019813629 0.0045928517 -0.03281843 0.00023042868 0.0053696646 -0.005715853 -0.03206829 -0.046190787
0.012240652 -0.0048094206 -0.010526672 0.0122931115 0.001942577 -0.007560874 0.0048067807 -0.010132168
0.007173026 -0.009859101 -0.028760696 -0.044463243 0.0061694877 -0.010190795 -0.019741898 0.001299307
-0.0046668025 0.0030606338 -0.052556667 0.014478359 0.0010334698 0.006112727 -0.02002046 -0.002949929
-0.0037027234 -0.008246679 -0.007961506 -0.035330743 -0.017256634 -0.002539919 -0.009530501 0.0037362408
0.013498681 -0.0026198057 -0.023050688 0.012794423 0.017517995 0.0062729386 0.0036354293 -0.011763693
-0.045556527 -0.0032556856 9.540689e-06 -0.0020585114 -0.052609954 0.015405275 -0.021043332 -0.040675275
0.022080535 -0.013645825 -0.013522747 -0.03027929 0.012201457 -0.025794966 -0.013094476 0.012978539
-0.0049465527 0.02590259 0.004154655 0.014157022 0.014747802 -0.00026922216 -0.0047524557 5.4394513e-05
-0.016706945 -0.0048814644 0.01307217 -0.055431843 -0.031699825 -0.017494591 -0.025762059 -0.012191953
0.000116856616 -0.0020672209 0.0124210995 -0.0048899585 0.012635457 -0.008529583 0.016607782 0.0015141525
-0.017104052 -0.007320665 -0.008732685 0.016164463 -0.0042840014 0.0010257565 -0.00046076177 0.0005157118
0.015573042 0.0133628575 -0.0016933884 0.026984861 -0.018097883 -0.03446405 0.013236729 0.011543893
0.027703263 -0.012741348 0.0269493 0.0030168851 -0.037577737 0.020437978 0.0057543945 -0.020335028
0.014749626 0.0004472197 -1.5902757e-05 -3.7583228e-05 -0.034826577 -0.011037744 -0.000107698426 -0.0024952167
-0.041351352 0.02702217 0.002138056 -0.01072735 -0.038169377 -0.0072543425 -0.02132618 -0.0024380658
0.0154299745 0.010595122 -0.03696764 -0.0050276476 0.006255807 -0.030799221 -0.042068798 -0.04284871
0.012733356 0.004940565 0.009690536 0.0009706185 -0.008413223 0.0085415905 -0.00096572435 -0.013201887
0.014073552 0.0004007478 -0.045214202 -0.042715903 0.031567708 0.00065643317 -0.01475181 0.009691571
0.013580976 0.0043666763 -0.03397215 0.0010769198 -0.000460494 -0.014586321 -0.009184924 -0.011535334
-0.008135891 -0.017050046 -0.009532197 -0.047201686 -0.02996534 0.009349676 0.0025478022 -0.002698382
0.0081143705 0.00056834274 -0.023632541 -0.0061179185 0.010697449 0.0018910188 -0.0023422847 -0.012139772
-0.04550237 -0.0033596144 0.00073420606 0.0042412635 -0.034704763 0.015591494 -0.057593677 -0.034595743
0.009106808 0.011055566 -0.011978134 -0.018039148 -0.0027613076 -0.042913195 -0.006383934 -0.0054408545
-0.0034387985 0.010605742 0.017747875 0.011812511 -0.0022894568 0.014474843 0.002161647 0.0051833307
-0.03090691 -0.008897743 -0.01289106 -0.031531837 -0.0005531607 -0.029605526 -0.03061733 -0.006712329
-0.00506197 -0.015145215 0.0026448534 -0.012375458 0.0029455484 -0.013238564 0.031074414 -0.0018638524
0.005624462 0.019552546 0.0025248495 0.013342212 -0.0037330638 0.007919284 -0.009744592 -0.015163656
0.0055494346 -0.008126112 0.013997206 0.035619672 -0.01303545 -0.018939532 0.008165623 0.0035501032
0.017672671 0.01449216 0.021889806 -0.0030947856 -0.06036775 -0.0017522443 -0.0018707048 -0.021419989
-0.0012969661 -0.011671673 -0.0061023203 -0.013364766 -0.05992523 -0.0124646975 0.013859642 0.00831284

action_model._discrete_distribution.branches.0.bias f4 [5]
00000000: 071a c73c b5af f83c ba27 c83c 82be d73c
00000010: 6eb6 97bd
0.024304403 0.030357221 0.024433006 0.026335958 -0.074078426

exp_avg f4 [128, 64]
00000000: b8aa 1db5 7b9e 4d37 07cb 6db5 317f adb6
00000010: d57f 88b7 ea37 61b6 b6f2 9837 5f44 c4b4
00000020: 4f29 17b7 b6c0 83b7 261b ef34 dd28 b137
00000030: e26b 95b4 db7b 83b7 4b04 88b7 d1a3 af35
00000040: ab0d 8837 df98 27b5 3e4a 3fb7 a1d3 72b7
00000050: dea9 b1b5 a95b b137 4a8c 34b4 7188 6bb7
00000060: f8b4 4eb7 1f7f c035 977b 9a37 587a 44b5
00000070: 7073 64b7 f46b 52b7 9a12 82b5 c56f 8e37
00000080: 505c ff35 bc21 50b7 23d9 55b7 9224 8035
00000090: e3b0 d037 f4ed fe34 f688 aeb7 6051 23b7
000000a0: 2c4f 93b5 898a 8037 9160 ce35 7684 2bb7
000000b0: 1897 31b7 928e f036 3af3 4037 6c12 f135
000000c0: f410 7bb7 c238 36b7 3e80 91b6 aabf 1137
000000d0: 4a37 81b5 a368 1036 1a0a c3b6 6ecb b8b9
000000e0: 2be2 e6b7 f98f c236 a23d 5438 e571 8836
000000f0: e5d5 3637 999b dd35 4e5d f2b4 a623 beb4
00000100: 6736 1836 36b4 8db7 bb4c 99b4 3e54 3b37
00000110: 5c14 3f37 3d22 8336 196b bab7 a266 41b5
00000120: c04e 8037 07f2 6337 9763 41b6 1e7d b4b7
00000130: 8461 b734 8f63 aa37 1848 5d37 2377 9034
00000140: d1a6 a5b7 114e 5fb5 6700 8b37 93e4 5237
00000150: a5ef 5d33 22bc 8bb7 bde8 83b4 a3e8 5b37
00000160: a2a1 8b36 eb0b 8634 9fb8 acb7 d9e7 7435
00000170: 2f9a 8337 e99b 2937 af85 e833 196a 24b7
00000180: 0b69 a335 6bbb 9c36 051c 4136 8c16 d235
00000190: f956 cfb7 aa23 6b33 2861 a237 46f2 0e37
000001a0: 9a90 4a35 9ae2 1ab7 4470 0736 7d35 3236
000001b0: e717 8235 0e64 0336 89e1 94b7 69c8 03b5
000001c0: e968 5237 36ef f136 c9d0 8b36 2d64 16b6
000001d0: 08cb 1632 548a c0b6 a092 03b6 836b 203a
000001e0: ae33 1037 90dd 97b6 295e a2b8 cb96 28b6
000001f0: c181 9cb7 d024 99b5 5672 db34 c0da 21b5
00000200: 610d dc35 b5f6 6b38 cd55 4235 02c9 54b8
00000210: f746 9fb7 ed3b 14b6 4719 4738 bbe3 e835
00000220: dfae 22b8 058e 8fb7 9c89 d234 1499 3338
00000230: fc4b 8e35 1599 18b8 a4dd 35b7 4817 1ab6
00000240: 4290 5138 5bef a235 7e98 2ab8 3d1a 78b7
00000250: 16f6 0833 5267 0938 95fb bdb2 bdb4 d0b7
00000260: 2dec 48b6 b5b3 1bb6 bdb2 1f38 dded 1136
00000270: 3151 f9b7 90ec 2db7 a917 2134 c2cf 9937
00000280: ad9e f8b2 abfd 2bb7 81e3 ad36 172f 08b6
00000290: 5154 4b38 eb81 9235 81ec 24b8 1d40 69b7
000002a0: 6d13 b333 bf5f d7b3 0cab 72b4 9ee8 be36
000002b0: c394 8437 63b1 93b6 d3b0 4738 86d5 0d36
000002c0: 119f 1bb8 4cb8 35b7 2f8a 5534 b2c4 59b7
000002d0: bd82 e1b3 4dc9 9937 2ba1 d437 2788 5f39
000002e0: b7d8 5337 411b 3837 0243 2539 0e7b 9636
000002f0: 3d49 8b39 f08d 2636 62c8 8233 2e47 f034
00000300: 53ad 00b5 93c0 7cb6 a232 9435 8a39 b7b7
00000310: ccc6 beb7 83c6 2236 f5cb c3b6 b657 b235
00000320: 401f c0b7 26ff b0b7 c848 6bb5 3ab6 8b35
00000330: 180b ecb3 ef08 d2b7 d8b2 ddb7 663d 8235
00000340: acc9 01b6 f4f3 4e35 32f6 cfb7 f4f4 b8b7
00000350: 574a 0a35 0863 4936 0eff 9934 907a f1b7
00000360: d8a9 f9b7 3c1e 8c35 6c3f 95b6 4736 f735
00000370: 5e79 c4b7 001d a4b7 6927 1db4 985e 96b6
00000380: fa12 42b6 da45 90b7 cb4e c8b7 606e 7f35
00000390: b81c abb7 6e4c 4a35 b717 d3b6 0180 94b7
000003a0: bb2b 3ab3 deb0 6936 d04b 3eb6 5167 d4b7
000003b0: b229 deb7 8d56 d8b4 477f bfb7 9e3e 85b5
000003c0: 4208 4cb5 456a 4bb7 89ea d8b6 bf6f 6e36
000003d0: fe4a 3f35 72e5 bcb7 e091 dbb7 3673 f239
000003e0: 86c3 6139 344f 15b7 c617 4e38 1727 57b7
000003f0: d57e 8438 7c6e f8b6 8fde 41b3 d9b6 0135
-5.8735486e-07 1.2255851e-05 -8.8584824e-07 -5.170609e-06 -1.627199e-05 -3.356016e-06 1.8232833e-05 -3.6557591e-07
-9.009919e-06 -1.5706155e-05 4.4536972e-07 2.1119073e-05 -2.7831908e-07 -1.5674092e-05 -1.6214462e-05 1.3086193e-06
1.6218828e-05 -6.2434805e-07 -1.1401773e-05 -1.4473598e-05 -1.3236966e-06 2.1142727e-05 -1.6814843e-07 -1.4038859e-05
-1.2320692e-05 1.4342112e-06 1.8415782e-05 -7.3193723e-07 -1.3616736e-05 -1.254211e-05 -9.691169e-07 1.6979766e-05
1.9025847e-06 -1.24056205e-05 -1.2746345e-05 9.547387e-07 2.4877902e-05 4.748432e-07 -2.0806194e-05 -9.734504e-06
-1.0975396e-06 1.53233e-05 1.53763e-06 -1.0223235e-05 -1.0585201e-05 7.1691547e-06 1.1500722e-05 1.7961261e-06
-1.4964713e-05 -1.086126e-05 -4.336266e-06 8.687299e-06 -9.62734e-07 2.1518579e-06 -5.812629e-06 -0.00035246782
-2.7523454e-05 5.798411e-06 5.060214e-05 4.066375e-06 1.0897847e-05 1.6511068e-06 -4.51439e-07 -3.5416195e-07
2.2681431e-06 -1.6892427e-05 -2.85543e-07 1.1165683e-05 1.1389227e-05 3.90809e-06 -2.2222799e-05 -7.2047453e-07
1.529546e-05 1.3586606e-05 -2.881721e-06 -2.1515934e-05 3.4157358e-07 2.031194e-05 1.3189412e-05 2.6908774e-07
-1.9747213e-05 -8.3187575e-07 1.6570279e-05 1.25701945e-05 5.1673528e-08 -1.6657697e-05 -2.456999e-07 1.3107582e-05
4.1613393e-06 2.4968116e-07 -2.0589969e-05 9.1234466e-07 1.5688214e-05 1.0109486e-05 1.0827659e-07 -9.7998645e-06
1.2175018e-06 4.6709806e-06 2.877555e-06 1.5652781e-06 -2.4716823e-05 5.4747638e-08 1.9357147e-05 8.520268e-06
7.5461287e-07 -9.231875e-06 2.0181915e-06 2.6555201e-06 9.692711e-07 1.957876e-06 -1.7747998e-05 -4.909294e-07
1.2541402e-05 7.2102075e-06 4.1668286e-06 -2.2410052e-06 8.777313e-09 -5.7381494e-06 -1.9605868e-06 0.0006119536
8.5951015e-06 -4.525944e-06 -7.742301e-05 -2.5121724e-06 -1.865707e-05 -1.1410102e-06 4.087512e-07 -6.0295497e-07
1.6395171e-06 5.625813e-05 7.239549e-07 -5.0731942e-05 -1.8987323e-05 -2.20886e-06 4.746884e-05 1.7351625e-06
-3.878667e-05 -1.7113061e-05 3.9215672e-07 4.281949e-05 1.0601939e-06 -3.6382193e-05 -1.0840045e-05 -2.296134e-06
4.9963834e-05 1.2139602e-06 -4.0673178e-05 -1.4788061e-05 3.188878e-08 3.275957e-05 -2.2116902e-08 -2.4879695e-05
-2.9939795e-06 -2.3201403e-06 3.8075017e-05 2.1745138e-06 -2.972092e-05 -1.0366683e-05 1.5002901e-07 1.8335766e-05
-2.8943157e-08 -1.0251456e-05 5.1822867e-06 -2.029299e-06 4.8477497e-05 1.0915659e-06 -3.932091e-05 -1.390281e-05
8.3388706e-08 -1.0029134e-07 -2.2600233e-07 5.6895215e-06 1.5804899e-05 -4.401592e-06 4.7609978e-05 2.1134924e-06
-3.7103022e-05 -1.0831351e-05 1.9887442e-07 -1.2980005e-05 -1.050116e-07 1.833276e-05 2.5347419e-05 0.00021317658
1.2627038e-05 1.09736e-05 0.00015760589 4.484674e-06 0.00026566713 2.4818546e-06 6.090046e-08 4.4755274e-07
-4.7935936e-07 -3.766302e-06 1.1041595e-06 -2.1842094e-05 -2.2742337e-05 2.425543e-06 -5.8351966e-06 1.3287561e-06
-2.2902736e-05 -2.1099648e-05 -8.765023e-07 1.0409342e-06 -1.0991624e-07 -2.503811e-05 -2.6428534e-05 9.703624e-07
-1.9339886e-06 7.709598e-07 -2.4790967e-05 -2.2048574e-05 5.1517185e-07 3.0008978e-06 2.8684047e-07 -2.8786511e-05
-2.9762203e-05 1.0439612e-06 -4.4479293e-06 1.8418731e-06 -2.3421537e-05 -1.9563828e-05 -1.4636102e-07 -4.4813605e-06
-2.8919299e-06 -1.7198665e-05 -2.3878549e-05 9.515552e-07 -2.0398162e-05 7.5362084e-07 -6.291051e-06 -1.7702581e-05
-4.3346272e-08 3.4822656e-06 -2.8356335e-06 -2.532048e-05 -2.6483878e-05 -4.029611e-07 -2.2828242e-05 -9.927496e-07
-7.600794e-07 -1.2124486e-05 -6.464605e-06 3.5529808e-06 7.126217e-07 -2.251819e-05 -2.6174763e-05 0.00046243676
0.0002153051 -8.899533e-06 4.9136368e-05 -1.28241e-05 6.317875e-05 -7.403838e-06 -4.513873e-08 4.8322323e-07

exp_avg_sq f4 [128, 64]
00000000: fac0 c32e 7eaf 6431 4bbe 7f2d 736f 5031
00000010: f0d4 8031 5c45 d02e 6955 5e31 825b d52d
00000020: 3931 5231 0df0 7f31 be1c 892e bee3 6a31
00000030: 57d1 942d 68f6 4e31 da9d 7e31 7362 bc2e
00000040: b36a 6431 790e f72d 9679 4c31 ec55 7f31
00000050: 3d0f 7d2e 7160 7531 7a89 8b2d 306f 4c31
00000060: cd12 8131 15e6 a52e e9b3 7731 8a0c a02d
00000070: d1fd 4731 eddc 7931 d314 9d2e 5f50 6e31
00000080: 6a31 a82d a77d 4c31 1231 8131 b220 a52e
00000090: 66d7 7931 3be9 862d 30a3 4b31 2c6c 7b31
000000a0: fa72 b52e e697 6531 b262 6e2d b35f 5231
000000b0: a4da 8231 2d0c 8b2e c7cc 8231 6f11 6e2d
000000c0: cae1 4431 50cb 7a31 9470 bc2e c2e6 5d31
000000d0: 49e2 3d2d c171 5c31 5abb 8531 105b 8837
000000e0: 2c0e 6735 552c 8630 0e3d f534 016e 3b31
000000f0: 7bb1 ff33 0fb9 2830 8b23 bc2d 2b53 ac2d
00000100: e281 d82d 37e7 2531 9b00 2a2d fed0 0031
00000110: 384e 2231 c298 6d2e d30b 2431 e34f d72d
00000120: 3fe4 0231 013b 2131 e027 d02d d47b 2431
00000130: aef5 5e2d 3df9 0431 cbd7 2331 fc08 502e
00000140: da03 2831 b7c5 ea2d 69ba 0431 365b 2031
00000150: 9a44 dc2d 4e06 2f31 e195 2a2d 6d03 f130
00000160: 464a 2131 1c88 be2d b815 2631 184e ae2d
00000170: 4407 0331 a623 1f31 81f2 d02d c764 2d31
00000180: 148c 532d b68d f530 e205 2031 0ca6 c52d
00000190: b75a 2d31 c302 c22d 2c3c 0331 4d77 2031
000001a0: 5c7d a92d 7971 2d31 314c 2a2d cc63 f330
000001b0: a35d 1e31 af81 cc2d 8ab9 2831 1099 832d
000001c0: 34f1 0231 fbfd 2031 e5f4 bf2d 7861 2931
000001d0: 17c0 042d 1c15 0031 0a01 2431 0286 8237
000001e0: 82ae 1235 4f7f 2e30 7431 9034 9c88 f130
000001f0: 8c6c aa33 9eee e32f 642b 892d 94f9 b32d
00000200: 0f3e f02e adb4 9e31 1c3c 012e 07d6 6831
00000210: bd4d 9331 fbc9 f52e 0bdf 9e31 fd49 0c2e
00000220: 6104 7331 c982 9431 1681 c02e 3c96 9b31
00000230: 973a 212e 5441 6131 8859 9431 5de4 b92e
00000240: ee17 9f31 e15f e82d bccb 6d31 b3c6 9431
00000250: 1f09 b92e 3a92 9d31 a8d8 172e 4b33 5631
00000260: d441 9131 5d80 da2e 537b a331 7b4f a92d
00000270: 6a2f 5e31 4e25 9231 0b50 9b2e e9d9 9531
00000280: 4d7a 242e 57ea 6131 db5e 9431 8e57 cd2e
00000290: ee88 a831 fef7 b92d 420f 4d31 0e89 8c31
000002a0: d7b7 812e 287c 8c31 617d 1f2e 87b0 6831
000002b0: 2dbb 9a31 50e5 ce2e 4e11 a031 1d78 952d
000002c0: ceda 4b31 2605 8d31 f95d 592e 137e 8c31
000002d0: 702c 862e 94b9 6531 f4c0 9d31 3c1b a437
000002e0: 0286 9935 666f a330 cd3b e234 c279 7231
000002f0: 8517 1534 1820 5030 e861 712e 50ef 672e
00000300: d910 1c2e 17c0 6031 e177 892d 7a9b 4d31
00000310: 4709 7d31 a870 5a2e f513 6a31 b6fb a22d
00000320: 1c15 4c31 a60e 7931 338e cc2d aec5 5e31
00000330: 9b4a ab2d 023e 4b31 7218 7b31 ab2f 382e
00000340: c0ea 6f31 afea d52d c48b 4b31 890c 7731
00000350: 42b7 e52d 7f69 6a31 7b03 4c2d 8571 4031
00000360: d048 7431 fb24 102e 929e 6e31 9f06 ac2d
00000370: abe3 4a31 e63a 7231 b16e c82d 4cee 6931
00000380: 20ba 622d 36bc 4131 5070 7431 b291 fc2d
00000390: 7202 6e31 76cd af2d 10c4 4231 184a 6c31
000003a0: 021a be2d 7c2f 6b31 154f 412d 8af6 4131
000003b0: 153d 7631 2319 b82d 74c0 6c31 0bb8 862d
000003c0: 7b51 3731 d665 6831 fdf6 d92d 06ba 6a31
000003d0: a0ce 4a2d 026b 4231 a706 7931 2764 9b37
000003e0: 5be1 5835 e77e 6f30 f405 f734 45bd 1f31
000003f0: e104 f933 c64c 2030 cca7 ba2d 3d62 262e
8.901853e-11 3.3278122e-09 1.4537325e-11 3.0331335e-09 3.7494985e-09 9.4710656e-11 3.2353802e-09 2.4255934e-11
3.0587002e-09 3.7243837e-09 6.235144e-11 3.4180938e-09 1.6918618e-11 3.011701e-09 3.7051593e-09 8.566738e-11
3.3239018e-09 2.8087076e-11 2.975502e-09 3.7156225e-09 5.7539074e-11 3.5707013e-09 1.5863522e-11 2.974911e-09
3.7565315e-09 7.544202e-11 3.6045498e-09 1.8195462e-11 2.910259e-09 3.635985e-09 7.1432325e-11 3.4679244e-09
1.9121333e-11 2.9757332e-09 3.7599728e-09 7.509139e-11 3.6356709e-09 1.5337611e-11 2.963315e-09 3.6586796e-09
8.251351e-11 3.341023e-09 1.35506485e-11 3.061342e-09 3.8083545e-09 6.323151e-11 3.8067784e-09 1.3532605e-11
2.86501e-09 3.6495358e-09 8.569248e-11 3.2290903e-09 1.07936516e-11 3.2078875e-09 3.892109e-09 1.6254868e-05
8.607483e-07 9.762383e-10 4.567923e-07 2.7274611e-09 1.1906646e-07 6.138103e-10 2.138891e-11 1.959107e-11
2.4614037e-11 2.414209e-09 9.663516e-12 1.874525e-09 2.3618565e-09 5.4023237e-11 2.3871862e-09 2.4478147e-11
1.9047233e-09 2.3462123e-09 2.366457e-11 2.393553e-09 1.2673791e-11 1.9350204e-09 2.3842286e-09 4.7301704e-11
2.4449407e-09 2.6690523e-11 1.931449e-09 2.3334912e-09 2.504157e-11 2.5469435e-09 9.696661e-12 1.7536032e-09
2.3470803e-09 2.1660944e-11 2.4168525e-09 1.981619e-11 1.906714e-09 2.315781e-09 2.3754556e-11 2.5232099e-09
1.2025065e-11 1.7866373e-09 2.3286408e-09 2.2470047e-11 2.5226379e-09 2.2056473e-11 1.9097213e-09 2.335088e-09
1.9268746e-11 2.5239315e-09 9.680299e-12 1.7708941e-09 2.3045252e-09 2.3249706e-11 2.4552684e-09 1.496095e-11
1.9054598e-09 2.3427436e-09 2.1822941e-11 2.4648141e-09 7.545984e-12 1.863845e-09 2.3865732e-09 1.555961e-05
5.464318e-07 6.348175e-10 2.6858072e-07 1.7573885e-09 7.9359864e-08 4.1460607e-10 1.5594366e-11 2.0460779e-11
1.092496e-10 4.6189457e-09 2.9384592e-11 3.3882104e-09 4.287101e-09 1.1177189e-10 4.6237623e-09 3.189803e-11
3.5363643e-09 4.3222355e-09 8.7540794e-11 4.5281734e-09 3.66592e-11 3.2778944e-09 4.3175454e-09 8.4533915e-11
4.6302295e-09 2.6417925e-11 3.4603849e-09 4.3299564e-09 8.414446e-11 4.5859254e-09 3.4525854e-11 3.1170255e-09
4.227539e-09 9.936294e-11 4.7579447e-09 1.9248372e-11 3.2332204e-09 4.2534003e-09 7.0628024e-11 4.3612443e-09
3.7397908e-11 3.2875016e-09 4.3181507e-09 9.3378735e-11 4.9050106e-09 2.1142196e-11 2.98401e-09 4.0901176e-09
5.898897e-11 4.088651e-09 3.6263773e-11 3.3860788e-09 4.5032693e-09 9.4085295e-11 4.65858e-09 1.699268e-11
2.9664764e-09 4.1042254e-09 4.9423552e-11 4.0888692e-09 6.101508e-11 3.3429375e-09 4.5912376e-09 1.9563005e-05
1.143839e-06 1.1891472e-09 4.213929e-07 3.5284846e-09 1.3885263e-07 7.5715567e-10 5.4884014e-11 5.273587e-11
3.5485257e-11 3.270548e-09 1.5628334e-11 2.9919804e-09 3.682162e-09 4.966752e-11 3.4062826e-09 1.852905e-11
2.9697906e-09 3.6242596e-09 2.3255264e-11 3.241762e-09 1.947358e-11 2.9575635e-09 3.6539203e-09 4.1879094e-11
3.4912517e-09 2.4319517e-11 2.9619835e-09 3.5950356e-09 2.6115669e-11 3.411145e-09 1.159683e-11 2.8004206e-09
3.5548062e-09 3.2774655e-11 3.4723695e-09 1.9557076e-11 2.9524283e-09 3.5249115e-09 2.2786524e-11 3.4041419e-09
1.2887941e-11 2.8192182e-09 3.5570515e-09 2.8713785e-11 3.4634948e-09 1.998644e-11 2.8342164e-09 3.4384637e-09
2.1612049e-11 3.4223993e-09 1.098834e-11 2.8225338e-09 3.5832433e-09 2.0929541e-11 3.4451917e-09 1.5315768e-11
2.6676321e-09 3.381833e-09 2.4779729e-11 3.4157224e-09 1.1528251e-11 2.8291542e-09 3.623805e-09 1.8524077e-05
8.0794206e-07 8.712803e-10 4.6011667e-07 2.3245132e-09 1.15958535e-07 5.831676e-10 2.1220269e-11 3.7831283e-11

exp_avg f4 [128]
00000000: 3dac b836 633d 7fb6 a0cb 0a37 ba06 cfb7
00000010: 39e1 3b37 d8b7 9ab5 7faf 4cb7 d49f 06b7
00000020: bcb7 d5b7 eec9 7ab6 5170 06b7 80c8 3638
00000030: a96f 1d35 b196 24b8 e967 12b8 0733 f937
00000040: 289c 82b7 ed10 3e38 4956 de37 0781 9f35
00000050: c7b2 2c37 9634 2fb7 77aa 8cb7 14fe 0637
00000060: 9015 2fb7 4ad1 35b7 4670 edb7 c6a5 0ab8
00000070: ab03 1438 7c16 a7b4 e1a4 96b6 eb9b c1b7
00000080: f1cf 1d37 f29e c937 c519 1638 2236 86b7
00000090: 600e b2b7 d597 3e37 17ab 8636 c3d7 8537
000000a0: 6543 34b7 10ca 4536 b142 94b7 62b1 2336
000000b0: 1525 83b8 53da dab7 2f67 de37 dbe5 c3b7
000000c0: 70b0 8cb7 4693 a937 4c9d df35 0ab3 38b8
000000d0: 45aa b4b7 4b84 0b38 ff6a f037 1727 b5b6
000000e0: 8a0e 1237 4873 c335 9a5b ef37 8453 51b6
000000f0: 4fa1 30b7 1d94 0a37 4b34 7437 60bb 2db8
00000100: 702e 8635 5209 57b7 22df 2737 0922 0138
00000110: 2830 7936 ceb7 cab6 f741 06b6 4ad1 81b6
00000120: 1f98 50b5 9f57 8ab7 6c29 3cb6 1957 8737
00000130: b5e7 1137 d780 d537 aebf 8db7 9d12 f535
00000140: f4d5 a937 bcce 0db6 2711 c737 4d1d 7636
00000150: 04b5 0338 2c5d 66b6 fa44 7c37 9857 0bb8
00000160: 9b60 4ab7 7a2e dd36 50c7 1838 08fa 45b7
00000170: 35d9 8736 051c 7bb7 3cd0 50b7 b846 4037
00000180: f423 0b36 4ced e637 36df 30b8 723e c5b6
00000190: 1f6e 1738 39a8 13b8 5480 10b8 098d dbb7
000001a0: 2ade 1f38 c35c 23b8 8482 48b4 34e4 8036
000001b0: 38f0 a8b7 60c4 cb36 6f98 be36 ddb2 b237
000001c0: 21c8 0a38 808d 7b37 527e 2437 02ea df37
000001d0: f4cb c0b6 6aeb ca37 4bcb 2638 f0ef c1b7
000001e0: 46bc b737 e356 f1b7 af8c ce36 80c1 e1b6
000001f0: 0cf7 24b7 c273 c0b6 b66a 2db7 ed1c 4437
5.5036785e-06 -3.8033693e-06 8.272851e-06 -2.4679455e-05 1.1198507e-05 -1.15274e-06 -1.2200208e-05 -8.024235e-06
-2.5477137e-05 -3.7370442e-06 -8.013173e-06 4.357891e-05 5.8649545e-07 -3.924099e-05 -3.4905886e-05 2.9706875e-05
-1.5569924e-05 4.5315293e-05 2.6504642e-05 1.1883975e-06 1.0293624e-05 -1.0443056e-05 -1.676868e-05 8.04618e-06
-1.0435833e-05 -1.083717e-05 -2.8304883e-05 -3.3056152e-05 3.5289366e-05 -3.1122534e-07 -4.489543e-06 -2.3079998e-05
9.406344e-06 2.4035082e-05 3.5786787e-05 -1.5999252e-05 -2.1225947e-05 1.1360234e-05 4.0134287e-06 1.5955307e-05
-1.0744528e-05 2.9472903e-06 -1.767403e-05 2.4392143e-06 -6.253474e-05 -2.608929e-05 2.651251e-05 -2.3352846e-05
-1.677146e-05 2.021495e-05 1.6660574e-06 -4.403576e-05 -2.153696e-05 3.326339e-05 2.8660053e-05 -5.398771e-06
8.705663e-06 1.4562183e-06 2.8533676e-05 -3.119204e-06 -1.0527975e-05 8.259926e-06 1.4555709e-05 -4.142092e-05
9.997293e-07 -1.2817169e-05 1.0005928e-05 3.0787694e-05 3.7131922e-06 -6.041467e-06 -2.0005953e-06 -3.868864e-06
-7.7707404e-07 -1.6491684e-05 -2.8038294e-06 1.6133812e-05 8.696622e-06 2.5451574e-05 -1.6897768e-05 1.825934e-06
2.0246e-05 -2.1130973e-06 2.3730636e-05 3.6673912e-06 3.1401418e-05 -3.4326904e-06 1.503643e-05 -3.322176e-05
-1.2062631e-05 6.591724e-06 3.642525e-05 -1.180033e-05 4.0485997e-06 -1.496729e-05 -1.24462495e-05 1.1460557e-05
2.0733542e-06 2.7528637e-05 -4.216955e-05 -5.878327e-06 3.6103764e-05 -3.52042e-05 -3.445179e-05 -2.6172509e-05
3.811546e-05 -3.894862e-05 -1.8673933e-07 3.8412636e-06 -2.0139021e-05 6.0727325e-06 5.680187e-06 2.1302543e-05
3.308815e-05 1.4993711e-05 9.804573e-06 2.669264e-05 -5.745789e-06 2.41899e-05 3.9766815e-05 -2.3119122e-05
2.1902972e-05 -2.8769899e-05 6.155656e-06 -6.728049e-06 -9.832682e-06 -5.735522e-06 -1.0336449e-05 1.1689245e-05
