Assets/Model/TankBrain/TankBrainML/TankBrainML-133632.pt (torch, 522323 bytes, 36 tensors)

network_body._body_endoder.seq_layers.0.weight f4 [128, 32]
00000000: 992d 2abe 122d b9be da0d 9abd 68ac 963d
00000010: 9aaf 813e 2d38 bfbd 7e5b 6bbe e137 98bc
00000020: 8f52 e7bd 9a76 993e 8141 d5bc b8e8 d73d
00000030: 3fbf cd3d 2344 873e e7ca b5be 04f4 c5bd
00000040: 4ffa 0f3e d3ac 003e f19f 84bd e3e1 843d
00000050: 847e 04be a778 e33e aea4 2f3e d32e 00be
00000060: cf72 093e c98d 5cbe ba39 d23c 7bf8 b7bc
00000070: 6b91 1b3e f1c5 a23e ee14 883b e037 b53e
00000080: 1224 b9bc 810a 36be 4e8f 87bd c16e d93c
00000090: da1c ddbd cfa2 4dbd 90b8 203e c368 133e
000000a0: ec1a b9be 6cf4 3c3e 7fd6 35be 3d4f 4c3e
000000b0: 54dc 73bd 9fb1 8dbe 6ea5 913e 4d33 f93d
000000c0: df09 353e 8108 7a3e cfec 8e3e 2ae7 a43d
000000d0: 14ea 25bc 5bf5 cd3d 60c2 3cbe 4a8e 18bd
000000e0: aaca 23bc caff 2bbe 67d1 23bd 4799 11ba
000000f0: 6136 be3d fba6 843e fb37 f5bd 8831 32be
00000100: ff93 1ebe 6101 5c3e 37f4 16be 7a1d 863e
00000110: bffa 1d3e 1fd4 f43d 7e97 673d 849c 833e
00000120: 8e37 ea3a ab15 583e 4615 6cbe 49ac 6d3c
00000130: fde5 e1bc 7a0a 17bd ab23 46bc e6e4 ed3d
00000140: b50d 99be a820 673e 9864 933e 09e9 f13d
00000150: 57b1 343e ebba 683e f46a 74bd a923 c2bd
00000160: d5fe 9abd 4c94 17bd 4ef8 b8bd 7bef 143c
00000170: 53b3 5a3e b50a 28be f098 13be 9774 c2bd
00000180: 0e8d 80be 94fc 80bd e03e 8bbd 4687 12be
00000190: 2401 b43b 1253 6dbd e6ec 563b 3615 3f3e
000001a0: 66ec d83b 8043 73be e33e 5f3e e95f 3a3e
000001b0: 73e3 b2bc 1c43 1d3e 6f5c 0c3e ce44 933e
000001c0: b2db 47bd 5190 2e3e 2099 56be 06f4 df3d
000001d0: af36 cb3e 687a b9bc 8934 fcbd 5109 85bd
000001e0: 9745 37be c00a 003d 8d92 dcbd 76b7 f23c
000001f0: c0b4 ab3e 7d3e cb3d 8669 93be 5d80 bc3d
00000200: 3251 4abe 58db 28be 3e15 6abe 1cc7 51bb
00000210: 0dda 3c3e 4875 403d 7cde 893e 067d 19be
00000220: fd7b 9e3e 2a0c 803e d842 27be 910b 5d3e
00000230: 1a2b a1bd 4668 61bd f7b9 1dbd 0392 8dbe
00000240: 41eb 3ebd 63a9 253e 5d23 4abd e928 a0be
00000250: abd3 ce3d 6517 88bd 272f 21be 4390 ffbc
00000260: 33b5 943e 9eb3 253d 3150 933e 1a1c 7bbd
00000270: 52d9 67be 292e 483e d81d 97bd b529 d63d
00000280: 8293 763e c013 9cbd 7447 8bbc 1405 78be
00000290: 6b19 75be e5c0 c63d 2ec3 48be ea52 2dbe
000002a0: d8a1 03be 1adb bf3d e4d4 b3bd c104 06be
000002b0: 2010 cfbc e95c 79bd dd51 e13d 9782 5bbc
000002c0: 6a11 d6bd 7a4e 3f3d f2ce 91be d62b 11be
000002d0: f4d1 483e 6254 853e 7427 91bc 606c 513e
000002e0: 0d38 2cbd 6da0 163e bd0a ae3c 662a 98bc
000002f0: 4ad5 c43d ed86 793e c773 0f3a 170f 0f3e
00000300: 7a75 31be 31bc 89be 26bd 233e 6edb 9a3b
00000310: 4fa4 12be 01eb ab3e 4727 253e 3ba5 143e
00000320: 663d 10be edb4 323e 8587 043e d399 b3bc
00000330: fc3d 66bc a963 c23d a737 e63d 20c2 a43d
00000340: 4554 16be a0b4 97ba c51d 02bd 7912 8dbc
00000350: ca5a 943d 95a9 25bd f169 df3e ecce debd
00000360: 06d2 fdbd 5423 af3d 616c 66bd a79b 40bd
00000370: 1329 1fbe badb 703e 2329 8dbd 6525 7cbe
00000380: 2d65 70bd 2ac0 be3c 62b3 f23d 1ed6 82be
00000390: f168 643e 4758 6bbe c8a9 073c 3ae7 c03d
000003a0: b372 6fbe f523 573d ed4c 3ebe cf64 913a
000003b0: e43d 903d d00a 4b3d b2ce dc3c 12b6 6bbe
000003c0: 2d86 1dbd 4042 a63e 8dad 4cbe 5ead 23be
000003d0: 3a2f 063e 9bab 34be 5abe e13d 91e8 93bd
000003e0: f213 6e3d bdc0 e63d be24 d0be 6b80 a7be
000003f0: 2951 9b3d 9f14 733e 0caa c2bc 83c8 bf3c
-0.16618957 -0.36167198 -0.07522173 0.07357103 0.25329286 -0.093368866 -0.2298412 -0.018581333
-0.11295044 0.29973298 -0.026032211 0.105424345 0.10046243 0.26419172 -0.35506365 -0.09665683
0.14060329 0.12565927 -0.06475819 0.06488397 -0.12938887 0.44427988 0.17152664 -0.12517862
0.13422702 -0.21538462 0.025662292 -0.022457352 0.15192191 0.31791642 0.0041528856 0.35394192
-0.022600207 -0.17777444 -0.0661913 0.02654207 -0.107965186 -0.050204094 0.15695405 0.14395432
-0.36153352 0.18452615 -0.17757605 0.19952102 -0.059536293 -0.27674577 0.28446525 0.12167988
0.17679547 0.24417306 0.27915046 0.080519035 -0.010126609 0.100565635 -0.18433523 -0.037245072
-0.009997049 -0.16796795 -0.039994624 -0.0005554151 0.09287716 0.25908646 -0.11973568 -0.17401707
-0.15486144 0.21484901 -0.14741598 0.26194364 0.15427683 0.119545214 0.05654096 0.2570535
0.001786934 0.21102016 -0.2305499 0.014506408 -0.027575487 -0.036875226 -0.012093465 0.116159245
-0.2989327 0.22571051 0.28787684 0.11812026 0.17645775 0.22727554 -0.05967231 -0.09479458
-0.075681366 -0.03700666 -0.09031735 0.0090903 0.2135747 -0.16410334 -0.1441381 -0.09494894
-0.25107616 -0.062981755 -0.06799102 -0.14309415 0.0054933 -0.05794055 0.003279501 0.18660435
0.0066199778 -0.23756218 0.21801333 0.1820065 -0.021836972 0.15357631 0.13707136 0.2876343
-0.048793502 0.1704724 -0.2095685 0.10935216 0.39690158 -0.022641376 -0.12314708 -0.064959176
-0.1789764 0.031260252 -0.1077014 0.029628497 0.3353634 0.09924028 -0.28791445 0.09204171
-0.19757536 -0.16489923 -0.22859666 -0.0032009548 0.18442555 0.046986848 0.26927555 -0.14989099
0.3095397 0.2500928 -0.16334093 0.21586443 -0.07869549 -0.055031084 -0.038507428 -0.2765046
-0.046611074 0.16177897 -0.04935013 -0.31281212 0.10098966 -0.06645087 -0.15740643 -0.031196719
0.29044494 0.0404545 0.2877212 -0.061306097 -0.22641495 0.19548859 -0.07378739 0.10457174
0.24079707 -0.076209545 -0.017001845 -0.24220687 -0.23935477 0.097047605 -0.19605705 -0.1692616
-0.12854707 0.09367962 -0.0878084 -0.13087751 -0.025276244 -0.06087962 0.11001942 -0.013397834
-0.1045254 0.0467057 -0.284782 -0.14176878 0.19611341 0.2604094 -0.017719008 0.20451498
-0.04204564 0.14709635 0.021245355 -0.018574905 0.09610994 0.24367876 0.0005472269 0.139706
-0.1732997 -0.2690139 0.15990123 0.004725865 -0.14320491 0.3357773 0.16128264 0.14516155
-0.14085922 0.1745183 0.12942322 -0.021923935 -0.014052864 0.09491665 0.112410836 0.08044839
-0.14680584 -0.0011574216 -0.03176667 -0.017220723 0.07243879 -0.04044493 0.43635514 -0.10879311
-0.123935744 0.0855166 -0.056255702 -0.04702344 -0.15543012 0.23521319 -0.06892612 -0.2462364
-0.05869024 0.02328499 0.11850621 -0.25553983 0.22305657 -0.22982894 0.008280225 0.09419103
-0.23383598 0.052524526 -0.18584032 0.0011092665 0.07043055 0.04957086 0.026954029 -0.23018673
-0.038458038 0.3247242 -0.1998808 -0.15984103 0.13103953 -0.17643587 0.11022635 -0.07222093
0.05812449 0.11267231 -0.40653032 -0.32715163 0.075838394 0.23738335 -0.023762725 0.023411041

network_body._body_endoder.seq_layers.0.bias f4 [128]
00000000: 7c13 fdba 4ffa 11bb b17e 51bb 4110 203a
00000010: 2206 0abb cb4f 06ba 9c97 31bc 8c4e 993b
00000020: 3079 07bc 7ccf 8cbb f093 613b 0d09 edbb
00000030: 3901 2abb e6c8 e0bb bba1 e03a 1b2d 3dbc
00000040: bd1f f8ba 4287 973b b341 a93c bee7 01bc
00000050: 6227 b4b9 430c 1cbc a4ea 57bc f66d e33b
00000060: c78e 4dbb 8f12 19bb 6e84 7b3b c021 913b
00000070: d543 e6ba 9ab6 98bb 563c aabb 3087 d63a
00000080: 0ebb 743b ad2d 183b 2a8d b9bb c351 81bb
00000090: 08f3 303b 3fff 9dbb b33e 8c3b b2a7 1ebb
000000a0: 8040 3bbb 1b60 103a 41ee 473b 593c b7bb
000000b0: 61d9 f438 2286 a2bb 3031 99ba bc02 e9ba
000000c0: 9e2e ddba 7d27 553b f0f8 4ebb 4700 eabc
000000d0: 785e e1bb 3ed6 afbc 7df8 cdba bc9e e9bb
000000e0: 0f2b 283b b5a1 0abc acf5 3d3b 59fc 13bb
000000f0: 8344 88ba 001a efbb f6f9 de39 fb1c 61bc
00000100: 3457 42b9 687e 57bc 2a20 9d3a 6de4 61bc
00000110: 0212 47bc e67b c53c 1a90 d73a ca95 beba
00000120: 5856 abbb 9746 b4bc f433 433b 56dc a2bb
00000130: 5943 1dbb d63d 52bc 7ac3 f9bb 3218 07bb
00000140: 39e3 97ba f1da 2fbc dc88 823a e7c6 6f3b
00000150: bed6 6cbc 9c85 f3ba a95c babb 4bbf 92ba
00000160: 6aa0 923a 01cf 19bb 469f 09ba 6a3f 68bc
00000170: 3550 1d3a 3d8e 88bb b0f5 38bc 7220 73bb
00000180: 6504 1fbb cf86 51bb 30e2 7bbb f70b f1bb
00000190: f23d 1cbb 934f 1ebc bb08 26b9 6bfc 1bbb
000001a0: f4ac f73a 05c0 bb3a 0ef4 07ba 60f8 87bc
000001b0: 77c7 baba edac 87bc fb1d ebbb 3ebb 0fbb
000001c0: 6d24 5a3b beda 96bc a596 bb3b f34b 4dbb
000001d0: 11d9 0dbc 6d08 0fbc 2a6b afbc d092 a2bc
000001e0: c117 41ba bd5b 92bc 77eb 1fbc 2932 f9bb
000001f0: 59d0 a33a 544a 53bc c128 93bc f57c 583b
-0.0019308175 -0.002227444 -0.0031966383 0.00061059376 -0.0021060784 -0.00051235844 -0.010839369 0.004678553
-0.008268639 -0.004297195 0.0034420453 -0.007233745 -0.002594067 -0.0068598865 0.0017138043 -0.0115463985
-0.0018930357 0.0046242783 0.02066121 -0.007928787 -0.00034361618 -0.009524408 -0.013178501 0.0069405986
-0.003136562 -0.002335701 0.0038378495 0.004429072 -0.0017567823 -0.0046604397 -0.005195181 0.0016367193
0.0037342939 0.0023220584 -0.00566258 -0.0039465143 0.0027000327 -0.0048216875 0.0042799353 -0.002420884
-0.002857238 0.0005507485 0.0030507 -0.005591911 0.00011675317 -0.0049598375 -0.0011687633 -0.0017777304
-0.0016874855 0.0032524758 -0.0031581484 -0.028564585 -0.0068777166 -0.021464463 -0.0015714314 -0.0071295183
0.002566043 -0.0084614055 0.0028985543 -0.002258083 -0.0010396395 -0.0072968006 0.00042529375 -0.01373982
-0.00018533767 -0.013152696 0.0011987735 -0.013787371 -0.0121502895 0.024106931 0.0016446144 -0.001454049
-0.005228799 -0.022006316 0.0029785605 -0.0049701137 -0.002399644 -0.012832126 -0.0076221796 -0.0020613787
-0.0011588103 -0.010733352 0.0009959 0.003658706 -0.014455495 -0.0018579247 -0.0056873155 -0.0011195926
0.0011186723 -0.0023469331 -0.0005249869 -0.014175275 0.00060010265 -0.0041673467 -0.011289045 -0.0037098196
-0.0024264094 -0.0031971221 -0.0038434379 -0.0073561626 -0.0023840633 -0.009662527 -0.00015834246 -0.0023801576
0.0018896149 0.0014324194 -0.0005186208 -0.016597927 -0.0014250119 -0.01656195 -0.007175205 -0.0021931673
0.0033285872 -0.018414851 0.0057247453 -0.0031325787 -0.00865771 -0.008730036 -0.021413404 -0.019845396
-0.00073659053 -0.01786601 -0.009760729 -0.0076048565 0.0012498006 -0.012896139 -0.017963769 0.0033033465

network_body._body_endoder.seq_layers.2.weight f4 [128, 128]
00000000: 510a c43d a657 023e 18df b0bd a5cb 533d
00000010: 6475 a4bc 265c b43d 5f55 f83d 1b02 e6bc
00000020: 368d d5bc 6ecb 2ebd 6a79 3c3c 650e 0c3b
00000030: 29dd b4bd df75 053d 38b3 4f3d 1164 cabc
00000040: a830 a73d 429a 033d 0b1c cdbd 4686 45bd
00000050: c130 cdbd 9607 a93d fa87 673b 0118 023e
00000060: 5ab8 00be 5ebd 513d 3353 f3bc 03ee f93c
00000070: b5d8 4cbc 7438 d03d b111 5e3d f1f8 d8bc
00000080: 94d2 efbd 9d5f b2bb a753 d6bc 90bd ee3d
00000090: 0231 e1bd 53b8 8bbb 788e e4bd e555 f9bc
000000a0: f28e 053e 429c 883c 7721 aebd 40bd fdbd
000000b0: e852 953d f30a 1f3e 4301 743d 7286 b73d
000000c0: dcc5 89bd 0aee 243c 8a28 db3d 22a0 bdbd
000000d0: 8702 993d 4185 3a3d 74ca 753b 31c2 c13d
000000e0: 24e1 f13d 3d51 2d3e a19c b1bd c699 0dbe
000000f0: 1816 c4bc 4988 bbbc 1426 323d ace6 2abe
00000100: f64a 093e 0d8f 313d 997b 17be 8d64 acbd
00000110: 5aef 263e f8d9 dc3d d241 cb3d 919a 15bd
00000120: 5310 29bc 2dde d03d 82a9 4cbe 0ab5 29bc
00000130: dfe7 a5bd 6159 a8bd b7c6 d8bd 0827 2ebd
00000140: 10e9 95bc 49e9 6ebd 3d1f 28bd 868e 33bd
00000150: a1ba 63bd 63e5 cbbc efa3 dabd 4ae2 1b3c
00000160: a5b8 443e 08b3 593d c6e4 523d 20e1 3fbd
00000170: edea d3bd ff37 c6ba 0577 a33c 6201 70bd
00000180: 6735 49bb f28f cb3d 3111 b9bc 6b07 633d
00000190: 9843 8cbd faff a53d 96bf 36bd fa4a 25bd
000001a0: 91ea 803a f41e 0fbd 8825 0c3c 9921 f7bd
000001b0: d2ea 533c d43e 373b d74c 19bd 3805 143e
000001c0: 8c9f ca3d 80c0 a83b 498d bf3c 04a4 d1bc
000001d0: 91b7 02be 4dae a23c 9cec 983e 05c4 ad3d
000001e0: 0342 07bc 138b d0bc 78da 143b c8f9 1cbd
000001f0: 8722 3cbb c590 24bd 9b7f a1bd 100e aa3d
00000200: fd82 483d 46cc 05bc 52bd 8bbc 22d8 523d
00000210: fa74 d4bc c16b f33d d90f 5f3d 3ea0 b43c
00000220: e8da a63e 8f3a 29bd 7b7c 0e3e 4dcc 093e
00000230: 98f8 9f3c 9474 183d 2217 d83d 7a60 e43b
00000240: 7814 643d 166d e53d e3c5 903d 1b35 2ebe
00000250: 9c10 a6bd de51 7d3c c145 e1bb fffd c1bb
00000260: b7d0 663c 042f a5bd 8116 0cbd ccd6 17be
00000270: 54fe 153c 8fae 11be 650d 32bd 29d0 e23b
00000280: 7ea0 b93d e010 29be ae5d d13d e7d7 11be
00000290: 2377 073e aad5 f53a 6d13 0abe cc0d e9bc
000002a0: d5eb 333d 9687 17bd d0ec 49bd 8c20 fa3d
000002b0: 295a 353a 3924 653d 1992 89bb f3c0 a63d
000002c0: 81f8 083e f878 e13c 362e a53c a9c2 f0bb
000002d0: 85f6 323d 7810 753d 17ce 833d 2bfc e5bd
000002e0: 6683 85bd 6b21 ee3c 489b 60bd ae21 1bbc
000002f0: 7ebc 4bbc e0d7 73bd b373 b03d 8e5e adbd
00000300: 5147 1dbe 9bb1 d03d 659f 3a3d 372c 90bb
00000310: e203 02bd da05 33bd fe20 95bd f3fc 0abe
00000320: 8b18 09bd c5f7 04be aac1 d5bd a6af 60bd
00000330: 28fe 92bd 0699 14be fe26 b13d 8191 c33d
00000340: 686a b23d d477 083d 7245 c53d 4fc5 4b3d
00000350: cf39 f43c 6fff 873d 060a ecbd 37a4 5abc
00000360: cf83 4e3d dc7a 0ebe ff28 e23d d3ec fcbc
00000370: 0577 9e3c dff8 afba 25df 2b3d 7b69 b03d
00000380: e050 93bd c3ff 21be cff7 e9bc 2539 29be
00000390: 3581 bb3d 3240 843d f575 003d 47f4 403d
000003a0: 0daf cc3d 0102 f33d 9969 03be a64d 30bd
000003b0: e954 92bd a3eb 5b3d 20d8 eebc 2a48 cd3d
000003c0: 4821 1dbe 3dd4 82bd ded6 dcbd 6a37 a7bd
000003d0: 3c2b b23d 3892 093c cf7f ce3c f0ce 503d
000003e0: 9f24 7ebd e24b 38bd f952 c13c 4ca6 93bd
000003f0: bec8 833d 7a8d d43d 5693 d53d a1aa 7e3d
0.0957228 0.12728748 -0.08636302 0.051707882 -0.020075507 0.088066384 0.12125658 -0.028077176
-0.026068311 -0.042674474 0.011503557 0.0021370884 -0.088312455 0.032583114 0.050708026 -0.024705919
0.08163577 0.032129534 -0.100151144 -0.048223756 -0.10019065 0.082534 0.003532885 0.1270447
-0.12570325 0.051205985 -0.029702758 0.030509 -0.012502839 0.101670176 0.05421609 -0.026485892
-0.117100865 -0.005443527 -0.026162935 0.1165725 -0.109956756 -0.0042639165 -0.11159986 -0.030436466
0.1304281 0.016676072 -0.08502477 -0.12389612 0.07291204 0.1553152 0.059571516 0.0896119
-0.06727192 0.010066519 0.107010916 -0.092590585 0.07471185 0.045537237 0.0037504705 0.09460867
0.1181052 0.16925521 -0.08672453 -0.13828191 -0.023936316 -0.022892134 0.043493345 -0.16689557
0.13407502 0.043349314 -0.14793243 -0.08417616 0.16302243 0.10783762 0.099246636 -0.03652436
-0.010318833 0.10198627 -0.19986537 -0.0103581045 -0.081008665 -0.08220173 -0.10584777 -0.04251769
-0.01829961 -0.058327947 -0.041045416 -0.043837093 -0.055597905 -0.024889654 -0.10675799 0.009514401
0.19211061 0.053149253 0.051487707 -0.046845555 -0.10347543 -0.0015122889 0.019954214 -0.05859507
-0.0030701996 0.09939565 -0.022591205 0.055426996 -0.0684883 0.08105464 -0.044616304 -0.040354706
0.0009835531 -0.03494163 0.00855387 -0.12066955 0.0129344035 0.0027961032 -0.037426796 0.14455116
0.098937124 0.005149901 0.0233828 -0.025590904 -0.12765338 0.019858504 0.2986802 0.084846534
-0.0082554845 -0.02545694 0.0022713225 -0.038324147 -0.0028707103 -0.040177125 -0.07885667 0.083034635
0.048953045 -0.008166378 -0.017058048 0.05147565 -0.025934685 0.11885787 0.054458473 0.022049066
0.32588887 -0.04131561 0.13914673 0.13456841 0.019527718 0.037220553 0.10551287 0.0069695087
0.055683583 0.11202447 0.07068994 -0.17012446 -0.08108637 0.015461413 -0.0068747704 -0.0059201713
0.014087847 -0.08065608 -0.03420115 -0.14828032 0.009154875 -0.14226745 -0.043469805 0.0069217873
0.090638146 -0.16510344 0.10222946 -0.14242516 0.13229041 0.0018755693 -0.13483973 -0.028448962
0.04392608 -0.03699454 -0.049298108 0.12213239 0.0006918037 0.055942748 -0.0041983244 0.08142271
0.13376047 0.027523503 0.020163637 -0.007347424 0.04369213 0.05983016 0.06435793 -0.11229738
-0.06519203 0.02906867 -0.054835588 -0.009468479 -0.012435077 -0.059532046 0.08615818 -0.084653005
-0.15359236 0.101901256 0.045562167 -0.004399802 -0.031741984 -0.043706752 -0.072816834 -0.13573055
-0.03347067 -0.12985142 -0.10437329 -0.05485501 -0.07177383 -0.14511499 0.08650015 0.09549237
0.08711702 0.033317402 0.09632386 0.049748715 0.029812722 0.06640517 -0.11525349 -0.013344816
0.05041867 -0.13914055 0.11042976 -0.030874645 0.019343862 -0.001342561 0.041960854 0.08613869
-0.0719316 -0.15820222 -0.028560547 -0.16525705 0.09155504 0.06457557 0.031362493 0.04710796
0.09994326 0.118656166 -0.12833251 -0.0430428 -0.071451016 0.053691518 -0.02915579 0.1002353
-0.15344727 -0.063881375 -0.1078317 -0.08164866 0.086996526 0.008396678 0.025207428 0.0509786
-0.062046643 -0.044994242 0.023599135 -0.07209453 0.06434773 0.10378547 0.10428493 0.062174443

network_body._body_endoder.seq_layers.2.bias f4 [128]
00000000: 903d 9bbb 4542 963b 9e44 b3bb 872e c3ba
00000010: 6f94 d6b9 5b2f 17b9 c780 0bbc d597 8f38
00000020: f6a5 1ebb 48f5 63ba d563 98ba 9e14 5bbc
00000030: bdfe be39 08aa 10bc c4b5 b33b 5226 3f3a
00000040: 75af c9ba 4141 49ba 31f6 fab9 5de0 2538
00000050: 9ef6 d33b c634 3abc f725 80bb 91b1 10bc
00000060: 766f d339 773e 93ba a3f8 abbb 6b82 083b
00000070: 525d 613b ece8 6cbc 1a77 b9ba ec4e c2bb
00000080: 2db3 62bc 9ee9 e0bb b661 693a e339 bebb
00000090: f118 ae3b 54e1 f8ba 7220 e23b cac3 413b
000000a0: e7b0 6c3b d919 42bc 32c0 d3bb 9e85 bfbb
000000b0: 4d28 b73a fb9b 493b 0263 45bb 69a8 93bb
000000c0: aba3 de39 ef49 aeba 5d96 033b d5f6 f33a
000000d0: 88b9 c3ba ac20 13bb 2c35 653b d649 a3bb
000000e0: 85d9 4fbb fcd9 e3ba a0d4 9e3b 8a97 6eba
000000f0: 25ee f4bb 14f0 34bb 49d9 023c 6afe 23bb
00000100: fb54 30bc 648c 66bc dbda a0ba bee5 16bc
00000110: 0b2b 9aba c033 89ba 80c6 dbbb d962 413b
00000120: 400b 96bb 81ee acba 2630 a1bb ac14 87bb
00000130: 0b07 57b9 67f9 c2bb e21c 9bba 67f0 37bb
00000140: cecd e3bb 5735 9cba f4bd 22bc c5c4 783c
00000150: ae3b 573b f96f b1b9 f553 9d3b 52d3 ebbb
00000160: c6cb ecbb 2078 adbb c48d 08bb bb59 95b9
00000170: fdef a53b beb1 1eb9 09b1 103c 23b0 90bb
00000180: 5b6c 7dbb a87e 81bb 6fa8 2c3b a63e b4bb
00000190: 79c4 89b9 de90 cebb bc1f db3b f992 53bc
000001a0: 9730 efba 3284 29bc 8149 92bb 6714 8b3b
000001b0: 270b bb3b 73ba 3cbb c253 e93b 5540 063c
000001c0: 1a71 873a 97ec 293b e443 d9bb c2fd 0abc
000001d0: 449e 33bb 3420 fcbb 1583 38bc 9e2e dab7
000001e0: e674 50bb d0d8 043b f7f8 0cbc a3e7 483b
000001f0: 2df4 843b 33e5 20bb f54f 71bb ea08 26bc
-0.0047375634 0.0045855367 -0.0054708263 -0.0014891186 -0.00040927852 -0.00014418123 -0.00851459 6.847052e-05
-0.0024207807 -0.00086959125 -0.0011626432 -0.013371615 0.0003642942 -0.008829601 0.0054843146 0.0007291782
-0.0015387373 -0.0007677265 -0.00047867143 3.954802e-05 0.006468608 -0.011365121 -0.0039107758 -0.008831398
0.000403281 -0.0011233826 -0.0052481457 0.0020829688 0.0034387899 -0.01445983 -0.0014149875 -0.0059298184
-0.013836664 -0.006863787 0.00089028047 -0.0058052405 0.005313032 -0.0018988051 0.0069008404 0.0029566162
0.0036116184 -0.011846983 -0.0064621205 -0.005844786 0.0013973803 0.0030763138 -0.0030118828 -0.00450616
0.00042465082 -0.001329718 0.0020078637 0.001861299 -0.0014932612 -0.0022449894 0.003497432 -0.004983167
-0.0031715345 -0.001738369 0.004847124 -0.00091015606 -0.007474678 -0.0027608918 0.007986375 -0.0025023469
-0.010762448 -0.014071558 -0.0012272255 -0.009210048 -0.0011762095 -0.0010467693 -0.0067070127 0.002950838
-0.004578978 -0.0013193638 -0.00491907 -0.0041223373 -0.00020506622 -0.005950141 -0.0011834169 -0.0028066875
-0.006952024 -0.0011917752 -0.009932984 0.015183632 0.0032841968 -0.00033843497 0.004801268 -0.007196822
-0.00722644 -0.005293861 -0.0020836452 -0.0002848635 0.005064009 -0.00015134268 0.008831271 -0.0044155284
-0.0038669321 -0.003951866 0.0026345511 -0.0055006323 -0.0002627706 -0.0063038906 0.0066871326 -0.012913459
-0.0018248734 -0.010346459 -0.0044643288 0.0042443755 0.0057081166 -0.0028797656 0.0071205804 0.008194049
0.001033339 0.0025928372 -0.0066304076 -0.008483352 -0.0027407566 -0.0076942686 -0.011261721 -2.6009333e-05
-0.0031807958 0.0020270832 -0.00860428 0.0030655644 0.0040574283 -0.0024550676 -0.003682134 -0.010133961

action_model._continuous_distribution.log_sigma f4 [1, 2]
00000000: 6f06 ddb9 f647 203c
-0.00042157198 0.009782782

action_model._continuous_distribution.mu.weight f4 [2, 128]
00000000: feb8 2bbc 0acf 44bb becf f7bb cc04 c5bc
00000010: ef75 db3b 13ab a1bc 992e d7bc 1460 05bd
00000020: b283 113b f6e8 0c3c b04d fd3b 5ba3 84bb
00000030: a4e2 8a3c dbf9 aebc 8f4d b53c d680 ca3c
00000040: 0757 fd3b 243d 29bc 7497 733c 6976 833c
00000050: cdc4 483c 7c73 0a3a ba11 26bb d072 cabc
00000060: 5906 df3b 5c75 7c3c 9019 8739 64c7 d83c
00000070: 6bc8 2d3c 2c87 54bc c2eb 4fbd ef07 98bb
00000080: 8e53 03bc 867d b7bb 9e85 a83c 9dd3 8abc
00000090: c5c2 603c 26bc 3b3c 60a5 96ba 1851 b1bc
000000a0: 0fd7 093d 3f4e a2bc cbbd abbc 645d 22bc
000000b0: 0e71 c53c 1692 153d 747f 2b3c 7c47 e4bb
000000c0: 8c82 dcbb 3403 053c 5624 bf3c facf 843c
000000d0: e2b3 073d 9729 baba 5faa c339 95c4 e0b9
000000e0: 21f2 943c 330e da3b b86f e53c 1d54 20bc
000000f0: 594e febc 44d3 583c 5284 7f3c eae1 9f3a
00000100: 74e9 32bc 5d50 02bc 550b fc3c 00b5 153b
00000110: be5d c43b b2a3 d43c 11e2 85bc f713 b5bb
00000120: c4c2 0bbc 14db 453b 5fd6 bdbc 1e58 d6bb
00000130: 2393 003d bfe5 20bc 0cba e83a d609 8f3c
00000140: 2ce4 c9bb 092c 953c 9eb7 99bc ab46 1e3d
00000150: 6206 b33c 06ad 533c f00c 733c dea2 87bc
00000160: 50ea 1abb cd18 31bb dcdf f239 d3bf b53c
00000170: b19a 183c 1fca 203c 41fd e83c 4cc0 06bc
00000180: 57c8 57bd dec1 d1bb d1e0 e6bb 43ac 1dbd
00000190: 979c 0c3d 02d2 2dbc 68ec 693c 8112 9f3a
000001a0: 904f 103d 0252 5abc 9bc8 ec38 1450 2d3c
000001b0: 91c3 c83b db5d c1bc 94bb 2c3c b040 033d
000001c0: bfb3 783c 3260 bb3c 9b0b 01bd f25a babc
000001d0: a356 61bc 89ca 39bc 5af6 bfbc 7405 863c
000001e0: 5142 8b3b 3648 c43c 2fd8 67bc dbe1 2eba
000001f0: ad63 b0bb 3e10 b5bc 686e fc3b 83b9 a7bc
00000200: 6ca3 cdbc f40d 363c c3e5 e23c f5f6 283c
00000210: 0305 103d c9b3 3c3c 0fa7 373c 7f4d 3a3c
00000220: c109 09bd 2616 2c3d 083e bdbc 1433 8e3b
00000230: a468 18bc 619a 243c d16c 04bd cf35 823c
00000240: 63e8 b03c fb8e b13b b1b4 8739 d47e dd3b
00000250: b7b3 c23c e5c1 f13b 3c29 f33c dfc4 ebbb
00000260: 60ad 293d 9fe0 c9bb 254c c33c f8ab 113d
00000270: bafd b63c 4a43 00bc 4311 c33b 41da 77bc
00000280: b87c 103c e8e1 903c 20ba c2bc e2f4 8dbc
00000290: 0c7f bb3c dc3b 903c a49c 223b 45f9 dd3c
000002a0: bf09 1fbc 5d97 b43c af46 c0bb 0272 07b9
000002b0: 0042 caba 0448 383d 6bb3 ba3b 28ef 0ebc
000002c0: a900 7a3c 46fe d93c a5a9 86ba 84de 9e3a
000002d0: c6d2 3ebc a9fc bcbc 3a67 e43c 0ba7 19bd
000002e0: 82fe ecbc 0125 17bd ef11 c03b 920c e33b
000002f0: 2cd5 3c3c 74bc 943c b623 a93b dbb4 b93c
00000300: b041 343c 9172 b53b 483c 2ebd 0e49 25bc
00000310: e43e 5dbb 0684 38bc 241d fe3c c718 8a3c
00000320: 40bb e0bc dd7b 253d 94d0 033d 4c56 eb3c
00000330: dcf9 c6bc 7b14 6cbb 6d2c 38bd 710b 15bc
00000340: 827a b43c db56 8e3c d991 963b 6fd3 a83c
00000350: d5ef 3ebd 075c d63c a8e2 1b3d 2128 593c
00000360: 1a04 bfbb cff0 8cbc 296a ef3c d53b 0abd
00000370: 5a6c c33b 2da0 013d aa9e f43c ea47 e8bc
00000380: 0e15 8739 6dd7 143b e19d 1b3d f750 a43c
00000390: f598 e13c a88a 7cbc 03fb 013d ef23 e83b
000003a0: 554b 0b3d ae1f 53bb d9c3 b0bc 7395 ed3c
000003b0: 59bc 3f3c b79c febc 10e9 8b3c 3eec 3c3d
000003c0: 33be b23c 2a36 a13c 6d98 923c 496c f2bc
000003d0: 313c 2d3c 692c 33bc 0653 f83b 17a4 d33c
000003e0: d496 ebba f287 003d 103e 333c 9b32 2b3d
000003f0: 7e53 843c 71df 28bc ea6d b13c 0a21 91bb
-0.010481117 -0.0030030631 -0.0075626066 -0.024050139 0.0066974084 -0.019734895 -0.026267337 -0.03256233
0.002220374 0.008600464 0.0077302083 -0.004047794 0.016953774 -0.021359375 0.02213171 0.024719637
0.0077313217 -0.0103295185 0.014867652 0.016047673 0.012253952 0.0005281491 -0.0025340156 -0.02471295
0.0068061766 0.01540884 0.00025768252 0.026462264 0.010606865 -0.012971681 -0.050761946 -0.0046396176
-0.008015526 -0.0055996804 0.020571526 -0.016946608 0.013718312 0.011458432 -0.0011493377 -0.021645114
0.03365236 -0.019812701 -0.020964524 -0.009909961 0.02410176 0.03651627 0.010467399 -0.0069665294
-0.0067294296 0.0081184395 0.023332756 0.016212452 0.033130534 -0.0014203069 0.00037320235 -0.00042871074
0.018181862 0.0066545247 0.028007373 -0.009785679 -0.031043218 0.013233963 0.015595512 0.0012198065
-0.010919917 -0.00795373 0.030767122 0.002284348 0.0059926203 0.025956962 -0.016343148 -0.0055260616
-0.008530322 0.0030190395 -0.02317351 -0.006541266 0.03139032 -0.009820401 0.0017755642 0.017460745
-0.0061612334 0.018209474 -0.018764313 0.038641613 0.02185363 0.01291967 0.0148346275 -0.016557153
-0.0023638196 -0.002702284 0.00046324625 0.022186195 0.009314225 0.009813814 0.028441073 -0.008224558
-0.052681293 -0.0064012846 -0.007045843 -0.03849436 0.034329023 -0.010609152 0.014277555 0.0012136252
0.035232127 -0.013325216 0.000112907226 0.010578174 0.006126829 -0.023604324 0.010542769 0.032044113
0.015179574 0.022873018 -0.03150521 -0.022748444 -0.013753566 -0.011339792 -0.0234329 0.016360022
0.004249849 0.023960214 -0.014150663 -0.00066712283 -0.005382976 -0.022102471 0.007703591 -0.020474201
-0.02510234 0.011111725 0.02769745 0.010312785 0.03516103 0.0115174735 0.0112092635 0.011371016
-0.033456568 0.04201331 -0.023100868 0.004339585 -0.009302292 0.010046572 -0.032330338 0.015894799
0.021595186 0.005418656 0.00025883832 0.006759504 0.023767335 0.0073778504 0.029682748 -0.0071950997
0.04142511 -0.00616081 0.02384002 0.035564393 0.022337783 -0.007828543 0.0059529855 -0.015127719
0.008818798 0.017685845 -0.023770392 -0.017328683 0.02288773 0.017606668 0.0024812603 0.0270964
-0.0097069135 0.022044832 -0.005867801 -0.00012917074 -0.0015431046 0.044990554 0.005697658 -0.0087240115
0.015258946 0.026610505 -0.0010273947 0.0012120758 -0.011646932 -0.023069697 0.027881254 -0.03751282
-0.028929953 -0.036900524 0.005861513 0.0069289887 0.0115254335 0.018156268 0.005161728 0.022669246
0.011001989 0.005537339 -0.042537957 -0.010088218 -0.003375941 -0.011261946 0.031019755 0.016857518
-0.027433038 0.04040133 0.032181337 0.028727673 -0.024289064 -0.003602295 -0.044964243 -0.009096966
0.022031073 0.0173754 0.004595023 0.020608632 -0.04661544 0.026166929 0.038057953 0.013254196
-0.0058293464 -0.01720467 0.029225426 -0.033748467 0.0059638442 0.031646896 0.029860813 -0.028354604
0.00025764894 0.0022711412 0.037992362 0.020058138 0.027538756 -0.015413918 0.031733524 0.0070843617
0.03400739 -0.0032214927 -0.021577762 0.029001927 0.01170262 -0.031080587 0.017078906 0.046123736
0.02181921 0.019679148 0.017894948 -0.02959265 0.010573433 -0.010935881 0.0075782565 0.02583508
-0.0017974027 0.031379648 0.01094009 0.041796308 0.016153093 -0.010307179 0.021658856 -0.0044289874

action_model._continuous_distribution.mu.bias f4 [2]
00000000: 93a9 9b3b 50b8 ce35
0.0047504394 1.5401838e-06

exp_avg f4 [128, 32]
00000000: 0000 0000 58b3 e034 a42c 04b5 f47f 31b5
00000010: 0000 0000 a5ff f9b5 d725 fd35 0795 62b5
00000020: 0000 0000 9f17 95b6 0abf 8936 61b9 4fb4
00000030: 0000 0000 c329 54b6 5c48 5b36 05f3 b7b5
00000040: 0000 0000 7207 81b6 7f77 5d36 5829 2335
00000050: 0000 0000 23fd a136 52d7 a8b6 058d 19b6
00000060: 0000 0000 bc8b 9db6 5d53 8436 ab1e 3835
00000070: 4136 5534 ad30 3034 79f9 8436 870b 9eb4
00000080: 0000 0000 a9a4 4734 9e46 b5b6 d2d9 b3b6
00000090: 0000 0000 b0ce b035 b2e5 dbb6 550d b7b6
000000a0: 0000 0000 b060 1936 e944 f9b6 ed41 b9b6
000000b0: 0000 0000 45be dc35 78ff e7b6 869d b5b6
000000c0: 0000 0000 743a 6735 2708 c7b6 3ed9 c2b6
000000d0: 0000 0000 767a 6eb6 7669 dfb5 fd4e 9db6
000000e0: 0000 0000 dcfa 0f36 344a f1b6 707a c7b6
000000f0: e26b 2b37 8ce5 5436 5696 5ab7 4e4c 3ab6
00000100: 0000 0000 9cb4 9b34 b41e 7b3a 4a32 7b3a
00000110: 0000 0000 f2c4 0ab4 e239 7b3a eb74 7b3a
00000120: 0000 0000 4441 4c36 f245 7a3a 3001 7b3a
00000130: 0000 0000 c064 a635 005a 7b3a e3ef 7b3a
00000140: 0000 0000 1d05 8936 a236 7a3a 9603 7b3a
00000150: 0000 0000 8015 7bb5 7e85 7b3a e4c0 7b3a
00000160: 0000 0000 50b3 a036 812b 7a3a 9622 7b3a
00000170: 4ef1 163e 6d6e dac0 2cc4 2a3b 0b5a 0a3a
00000180: 0000 0000 c79d efb3 4bf1 93b5 0611 91b5
00000190: 0000 0000 2a1b 9734 543a cbb5 3b5f 99b5
000001a0: 0000 0000 614b c134 b01d c2b5 72e3 93b5
000001b0: 0000 0000 3926 fc34 94e1 e6b5 d6ba 97b5
000001c0: 0000 0000 f44e d633 c67b 9cb5 e26c 9db5
000001d0: 0000 0000 91f9 90b4 8e8a 73b5 f4e3 8fb5
000001e0: 0000 0000 d5d7 5a34 1d6f a0b5 ee03 97b5
000001f0: dd9c c5b6 d3d2 3438 e9b8 8eb6 b83e 2db5
00000200: 0000 0000 f6c4 2eb4 e1e6 2436 89d2 2136
00000210: 0000 0000 974b c3b5 f2c2 7d36 e7cb 3936
00000220: 0000 0000 3fac 9ab5 7a75 6336 7181 2636
00000230: 0000 0000 e1ee b1b5 9a1c 7336 5456 4536
00000240: 0000 0000 8eca fd34 36d2 e435 f39e 2936
00000250: 0000 0000 e9a7 2735 a64a e335 a8a3 3136
00000260: 0000 0000 0b04 e2b3 b8bc 1e36 26f5 2d36
00000270: f748 75b6 fe63 de35 2087 e136 b10a a535
00000280: 0000 0000 cf44 35b4 f49b 89b5 d42e 8db5
00000290: 0000 0000 70b0 c5b4 9c96 51b5 8edf 95b5
000002a0: 0000 0000 ed38 4cb5 137f 07b5 466e 84b5
000002b0: 0000 0000 9de3 bfb4 798f 3bb5 6760 9eb5
000002c0: 0000 0000 ac7e 89b5 3098 a5b4 1407 6cb5
000002d0: 0000 0000 3710 2a34 6f1b a7b5 96dd a6b5
000002e0: 0000 0000 d5b0 8fb5 5678 acb4 45a6 6eb5
000002f0: a0cb 3934 6ff1 0135 6f07 30b6 ecc4 41b5
00000300: 0000 0000 d4de 8a33 172b 2eb6 0591 2cb6
00000310: 0000 0000 fcac 0eb5 c05f 06b6 f0a8 1fb6
00000320: 0000 0000 5188 d234 4148 43b6 8bf5 2eb6
00000330: 0000 0000 1676 c0b4 267e 0eb6 a4a6 14b6
00000340: 0000 0000 bae5 f0b3 72d6 21b6 baa7 30b6
00000350: 0000 0000 564b c4b5 20fc 8db5 ede1 05b6
00000360: 0000 0000 285f d234 2f25 44b6 77e0 35b6
00000370: 1be6 8736 1e37 3836 b73d a6b6 2652 b9b5
00000380: 0000 0000 f566 14b4 37e0 05b6 b663 08b6
00000390: 0000 0000 e912 6cb5 d635 9db5 3162 fab5
000003a0: 0000 0000 fc82 84b5 eee6 a5b5 d865 03b6
000003b0: 0000 0000 e366 3ab5 aae1 a3b5 090f f1b5
000003c0: 0000 0000 d94b b1b5 b98f 7bb5 4880 f2b5
000003d0: 0000 0000 f567 54b4 34e2 ecb5 cf70 f5b5
000003e0: 0000 0000 0fab bcb5 5773 7fb5 8f35 f7b5
000003f0: 1d8b 2e36 8a87 3836 81b9 b3b6 6937 a7b5
0.0 4.185374e-07 -4.923879e-07 -6.6123835e-07 0.0 -1.8626348e-06 1.8860982e-06 -8.4408424e-07
0.0 -4.443296e-06 4.105158e-06 -1.9345818e-07 0.0 -3.161477e-06 3.2675662e-06 -1.370529e-06
0.0 -3.8453663e-06 3.3001122e-06 6.0782395e-07 0.0 4.827643e-06 -5.0318567e-06 -2.288086e-06
0.0 -4.695232e-06 3.9436113e-06 6.858997e-07 1.9856908e-07 1.6408985e-07 3.962949e-06 -2.943818e-07
0.0 1.8593222e-07 -5.4024413e-06 -5.3599733e-06 0.0 1.3173176e-06 -6.5534487e-06 -5.455377e-06
0.0 2.2855056e-06 -7.4288005e-06 -5.5211044e-06 0.0 1.6446653e-06 -6.914077e-06 -5.4125585e-06
0.0 8.6139266e-07 -5.931611e-06 -5.806941e-06 0.0 -3.5536045e-06 -1.6645488e-06 -4.68816e-06
0.0 2.145468e-06 -7.190998e-06 -5.9449158e-06 1.0217513e-05 3.1724076e-06 -1.3028815e-05 -2.7760575e-06
0.0 2.900241e-07 0.0009579465 0.0009582384 0.0 -1.29239e-07 0.00095835153 0.0009592312
0.0 3.0436358e-06 0.0009547166 0.0009575067 0.0 1.2397286e-06 0.0009588301 0.0009610636
0.0 4.0835134e-06 0.0009544884 0.00095754245 0.0 -9.3536073e-07 0.0009594782 0.0009603633
0.0 4.7892463e-06 0.0009543226 0.0009580044 0.14740488 -6.8259797 0.002605687 0.00052776997
0.0 -1.1158004e-07 -1.1022579e-06 -1.0808296e-06 0.0 2.8145706e-07 -1.5141654e-06 -1.1427104e-06
0.0 3.6003897e-07 -1.4462767e-06 -1.1018549e-06 0.0 4.6966468e-07 -1.7201987e-06 -1.1304753e-06
0.0 9.979513e-08 -1.1658929e-06 -1.1729101e-06 0.0 -2.7003674e-07 -9.072618e-07 -1.0720673e-06
0.0 2.0381351e-07 -1.1953267e-06 -1.125152e-06 -5.889319e-06 4.311169e-05 -4.253456e-06 -6.453879e-07
0.0 -1.6276667e-07 2.4572294e-06 2.4113417e-06 0.0 -1.4550632e-06 3.781341e-06 2.7685835e-06
0.0 -1.1524024e-06 3.3894016e-06 2.4811272e-06 0.0 -1.325705e-06 3.622647e-06 2.9405537e-06
0.0 4.72723e-07 1.7048503e-06 2.5275483e-06 0.0 6.245669e-07 1.6934544e-06 2.6470316e-06
0.0 -1.05246805e-07 2.3653683e-06 2.5921704e-06 -3.6550316e-06 1.656939e-06 6.721253e-06 1.229657e-06
0.0 -1.6881971e-07 -1.0252684e-06 -1.0518947e-06 0.0 -3.6822485e-07 -7.807773e-07 -1.1166428e-06
0.0 -7.607876e-07 -5.0476336e-07 -9.86686e-07 0.0 -3.5742133e-07 -6.987171e-07 -1.1799974e-06
0.0 -1.0244162e-06 -3.0844376e-07 -8.792715e-07 0.0 1.5838383e-07 -1.2450454e-06 -1.2432454e-06
0.0 -1.0705795e-06 -3.2125052e-07 -8.8903863e-07 1.7303546e-07 4.8407577e-07 -2.623037e-06 -7.218466e-07
0.0 6.466658e-08 -2.5953102e-06 -2.571441e-06 0.0 -5.315085e-07 -2.002329e-06 -2.379118e-06
0.0 3.921473e-07 -2.9099322e-06 -2.6070945e-06 0.0 -3.5848706e-07 -2.1233077e-06 -2.2150716e-06
0.0 -1.1217658e-07 -2.4115693e-06 -2.6323673e-06 0.0 -1.4625064e-06 -1.0578697e-06 -1.995005e-06
0.0 3.9184783e-07 -2.922792e-06 -2.7101757e-06 4.0501013e-06 2.745022e-06 -4.95437e-06 -1.3807482e-06
0.0 -1.382103e-07 -1.9949055e-06 -2.0323619e-06 0.0 -8.794437e-07 -1.171308e-06 -1.8655029e-06
0.0 -9.872888e-07 -1.2360667e-06 -1.9579802e-06 0.0 -6.944012e-07 -1.2210123e-06 -1.7960275e-06
0.0 -1.3209602e-06 -9.371393e-07 -1.806774e-06 0.0 -1.9781858e-07 -1.7649204e-06 -1.8286754e-06
0.0 -1.4056876e-06 -9.5162744e-07 -1.8418522e-06 2.6008995e-06 2.749703e-06 -5.356211e-06 -1.2458596e-06

exp_avg_sq f4 [128, 32]
00000000: 0000 0000 11e4 4a32 62a4 9a2f c30c 9d30
00000010: 0000 0000 b355 3b32 9589 602f aef1 7830
00000020: 0000 0000 07a3 4532 116e 492f d08b a530
00000030: 0000 0000 3137 3532 7e2f 482f 358c 9d30
00000040: 0000 0000 4c46 2332 8f57 d92f c744 0131
00000050: 0000 0000 7337 2332 144d 1f30 111f 1a31
00000060: 0000 0000 e2d1 e131 ff2f e530 9fac 7a31
00000070: f3c5 c633 452e 2f2f 6de3 af33 92a2 8031
00000080: 0000 0000 e7c4 502f 0446 542e 917d 9b2e
00000090: 0000 0000 d32c 312f e7bc 532e c450 952e
000000a0: 0000 0000 c02e 592f 2bb4 fe2d 1fc7 502e
000000b0: 0000 0000 c6e6 092f 317f 962e 4bd9 9d2e
000000c0: 0000 0000 60db 3a2f cef8 262e ee86 6a2e
000000d0: 0000 0000 0894 002f b100 8c2e e47b ae2e
000000e0: 0000 0000 64fe 272f c921 5a2e fbaf 9c2e
000000f0: 6302 1d31 11fe b72d e460 c830 fd87 992e
00000100: 0000 0000 6b9b b631 7c3f 8033 c154 8133
00000110: 0000 0000 eea4 b131 ce6a 7f33 baff 8033
00000120: 0000 0000 7f11 ae31 79e1 7f33 771a 8133
00000130: 0000 0000 b1de a831 2a03 8033 6b65 8133
00000140: 0000 0000 2a43 a431 0788 7f33 ff4d 8133
00000150: 0000 0000 b42c a031 09ed 8033 22b0 8233
00000160: 0000 0000 4cdf 6231 d5bd 8033 bf2f 8333
00000170: 735b c53a 089c a844 6771 f734 6dd0 aa32
00000180: 0000 0000 f542 5730 3306 2a2e c0e2 9f2e
00000190: 0000 0000 467f 5d30 fae0 172e dc51 8d2e
000001a0: 0000 0000 80cd 4f30 5903 182e 3660 932e
000001b0: 0000 0000 185d 5a30 13ea 0b2e 7436 b12e
000001c0: 0000 0000 6131 3630 7cc7 af2d cf43 aa2e
000001d0: 0000 0000 0133 5030 daa4 502e 89b8 292f
000001e0: 0000 0000 c66a 0c30 4f37 4f2e e989 222f
000001f0: 249e 8e32 6ef8 2331 d469 9d31 eb0b 862f
00000200: 0000 0000 ef3a 0331 1c0b ae2d 0a93 562f
00000210: 0000 0000 8aa0 e430 0af4 9f2d c350 1d2f
00000220: 0000 0000 54e8 0131 4e11 692d 953e 662f
00000230: 0000 0000 9352 de30 3e17 292e c48e 3d2f
00000240: 0000 0000 81f8 dd30 ee30 042f 5896 cb2f
00000250: 0000 0000 66d1 c330 0556 ed2e 3bce b32f
00000260: 0000 0000 40b0 b530 bab1 d22f 95cb 2c30
00000270: eded 1733 fb7e 2a2e ab57 8032 0b09 2630
00000280: 0000 0000 c33d 3230 c75c d62b c1e8 042e
00000290: 0000 0000 3483 3330 efd0 bd2b 4ed5 ee2d
000002a0: 0000 0000 ee6f 2330 c24e 8a2b 51bb 082e
000002b0: 0000 0000 7535 2c30 5564 582c 8d15 2f2e
000002c0: 0000 0000 0851 1730 160e b82b 26e4 572e
000002d0: 0000 0000 fd97 1e30 66e8 352d a603 d12e
000002e0: 0000 0000 2aeb be2f 8612 012e 79c0 192f
000002f0: fe95 5432 0e4d 372d 30c1 8531 b410 5c2f
00000300: 0000 0000 24c7 4330 907c 862e 0c71 412f
00000310: 0000 0000 24db 2b30 fc77 8a2e 7ec8 352f
00000320: 0000 0000 6ffc 4930 56d5 142e acd2 142f
00000330: 0000 0000 7745 0f30 3d33 cb2e 82dd 4e2f
00000340: 0000 0000 49e9 2a30 3afc 8b2e f9f7 512f
00000350: 0000 0000 463c ec2f 92b2 0d2f 3686 922f
00000360: 0000 0000 e138 0930 5f2f 2b2f ed06 a42f
00000370: 6610 ef31 5600 1d2e 4e6a c131 2f1a 8b2f
00000380: 0000 0000 3ede a72f 2e30 362d ebb6 c62d
00000390: 0000 0000 6365 9f2f 8d26 332d 1469 cf2d
000003a0: 0000 0000 85ef b12f a1fd 1e2b 1b93 102d
000003b0: 0000 0000 aa26 8d2f 79dd 922d 6d4c 082e
000003c0: 0000 0000 3618 b02f c366 002b cee3 082d
000003d0: 0000 0000 ce47 7d2f f8d6 0f2e d1bf 652e
000003e0: 0000 0000 a723 a22f c847 3b2c 5a75 b52d
000003f0: d798 a031 c860 9e2d 5149 2431 104f e02e
0.0 1.1809804e-08 2.8129238e-10 1.142688e-09 0.0 1.0904318e-08 2.042156e-10 9.056532e-10
0.0 1.1503977e-08 1.8319947e-10 1.2045067e-09 0.0 1.0548136e-08 1.8206767e-10 1.1463103e-09
0.0 9.503832e-09 3.9534284e-10 1.8811066e-09 0.0 9.500456e-09 5.79534e-10 2.2427609e-09
0.0 6.5722228e-09 1.6675584e-09 3.6477912e-09 9.2561e-08 1.5932596e-10 8.190441e-08 3.7437724e-09
0.0 1.8987444e-10 4.8265406e-11 7.070889e-11 0.0 1.6113981e-10 4.8143625e-11 6.7900824e-11
0.0 1.9752644e-10 2.8956467e-11 4.747058e-11 0.0 1.2542065e-10 6.843804e-11 7.1781324e-11
0.0 1.6994539e-10 3.7965013e-11 5.332528e-11 0.0 1.1694123e-10 6.366586e-11 7.934611e-11
0.0 1.5278939e-10 4.959747e-11 7.125319e-11 2.2847864e-09 2.091752e-11 1.4579453e-09 6.981791e-11
0.0 5.314566e-09 5.972012e-08 6.022447e-08 0.0 5.1701283e-09 5.9468952e-08 6.006981e-08
0.0 5.0660556e-09 5.957688e-08 6.0118445e-08 0.0 4.9147606e-09 5.96104e-08 6.0254784e-08
0.0 4.780664e-09 5.949553e-08 6.021218e-08 0.0 4.661695e-09 6.003581e-08 6.085635e-08
0.0 3.3014258e-09 5.994995e-08 6.108848e-08 0.0015057161 1348.876 4.6089846e-07 1.9885386e-08
0.0 7.8311696e-10 3.865903e-11 7.270762e-11 0.0 8.05802e-10 3.4533244e-11 6.426479e-11
0.0 7.5598194e-10 3.4563772e-11 6.7018766e-11 0.0 7.944023e-10 3.181284e-11 8.058701e-11
0.0 6.6281386e-10 1.9983785e-11 7.74275e-11 0.0 7.574244e-10 4.7440142e-11 1.543602e-10
0.0 5.108344e-10 4.7115475e-11 1.478281e-10 1.660289e-08 2.3860838e-09 4.5813326e-09 2.4382926e-10
0.0 1.9096509e-09 1.9786443e-11 1.9515425e-10 0.0 1.6634811e-09 1.8184582e-11 1.4307759e-10
0.0 1.8904034e-09 1.3248359e-11 2.0940612e-10 0.0 1.6176095e-09 3.8446794e-11 1.724017e-10
0.0 1.6150495e-09 1.2022713e-10 3.703231e-10 0.0 1.4247632e-09 1.07927924e-10 3.2706446e-10
0.0 1.3219577e-09 3.832506e-10 6.2862543e-10 3.537382e-08 3.8766306e-11 1.4941028e-08 6.04033e-10
0.0 6.484379e-10 1.5231365e-12 3.0220052e-11 0.0 6.530627e-10 1.3487248e-12 2.7152194e-11
0.0 5.9458116e-10 9.827349e-13 3.108919e-11 0.0 6.26492e-10 3.0751142e-12 3.9809534e-11
0.0 5.504863e-10 1.3077896e-12 4.9087977e-11 0.0 5.7696053e-10 1.0340262e-11 9.504868e-11
0.0 3.4727893e-10 2.9347656e-11 1.3983649e-10 1.2374128e-08 1.0419455e-11 3.8927723e-09 2.0014818e-10
0.0 7.122358e-10 6.115741e-11 1.759341e-10 0.0 6.2520855e-10 6.296827e-11 1.6533083e-10
0.0 7.3482104e-10 3.3840784e-11 1.3535367e-10 0.0 5.212181e-10 9.240473e-11 1.8814286e-10
0.0 6.217716e-10 6.3657926e-11 1.9096537e-10 0.0 4.2970977e-10 1.2887316e-10 2.6652608e-10
0.0 4.992114e-10 1.5569189e-10 2.9836347e-10 6.9576798e-09 3.5697965e-11 5.6291247e-09 2.5302557e-10
0.0 3.0535036e-10 1.03562e-11 2.2591226e-11 0.0 2.899397e-10 1.0183532e-11 2.357984e-11
0.0 3.23663e-10 5.6484857e-13 8.218116e-12 0.0 2.5675223e-10 1.6696632e-11 3.09907e-11
0.0 3.2031416e-10 4.5617346e-13 7.781288e-12 0.0 2.3035726e-10 3.2705366e-11 5.223894e-11
0.0 2.949296e-10 2.6614145e-12 2.0629432e-11 4.6739888e-09 1.80055e-11 2.3906817e-09 1.0200385e-10

exp_avg f4 [128]
00000000: 48ad 0fb5 a45c a9b6 708c 7b3a d57e 9db5
00000010: b909 1636 5f27 b0b5 3b79 28b6 d403 18b6
00000020: 9744 40b7 9a22 2a3a ba0d 8034 1e2c 843a
00000030: daf9 0b3a a112 923a 7580 96b3 5a5d 9f3a
00000040: 04d8 99b1 19dd 9f37 04ee 00ba 852e 953a
00000050: 287b 0036 fc05 173a 79a9 053a 7760 0137
00000060: 34dd 5d39 1ab8 f934 44ed f036 d7c8 7a36
00000070: b1cf a8b6 c247 31b7 f754 50b5 978d feb6
00000080: f1d9 8136 aab5 7135 dd9e b935 f228 08b6
00000090: e818 5cb5 fda8 d4b6 1c0b c735 c482 91b5
000000a0: b2f4 31b6 695d 62b9 55e5 83b9 0ba4 b738
000000b0: 5568 00b7 466b 9536 1198 12b7 bab3 4e36
000000c0: 8170 0535 57aa 4fb9 b10c 8ab6 8be3 8539
000000d0: 9e18 4cb7 934c 7d3a 358a 0936 b43a 7739
000000e0: 9706 1fb8 7eee 6b3a 8fd6 ebb5 3487 643a
000000f0: 7bb1 dc39 566e 283a 5c21 3c3a d0d9 933a
00000100: 1349 fe34 1b72 b1b5 6584 8936 6582 a539
00000110: 4a93 c939 93e5 01ba b003 d7b7 1819 ddb9
00000120: abcb 763a 9dd4 223a ba3b de35 d6fc ae3a
00000130: 9717 0339 dbb9 0039 994f 2b3a 4756 5036
00000140: d192 afb6 f024 083a 64db 95b4 4d22 2736
00000150: 01dd bd39 bc29 1637 1c90 1d3a 242f e737
00000160: 0704 43b7 ad8e 2937 203c 39b8 ac60 093a
00000170: fb79 123a 018a 913a 8bc3 8f39 342c 8cb5
00000180: 7670 3a3a 2e8e 79b6 a0f5 c837 2aac ceb7
00000190: f987 4b37 2c59 8639 f854 643a 4b16 b1b5
000001a0: aecf b436 69c1 393a 90c6 8eb8 8a6b 8139
000001b0: 421b 11b7 9953 183a 65f4 e539 5b31 40b9
000001c0: 08b2 0737 0ea5 ad39 1ecd 1336 5fa8 8c3a
000001d0: f161 deb8 e362 1d3a 42d1 0f3a 065f 8b3a
000001e0: e797 2eb6 0095 1e3a 1d60 3b3a eb6e 833a
000001f0: 3cd6 4e35 b781 883a a2f9 3a3a 51de 243a
-5.352381e-07 -5.0473773e-06 0.0009595817 -1.1734325e-06 2.23574e-06 -1.312448e-06 -2.5104516e-06 -2.2651993e-06
-1.1460062e-05 0.00064901414 2.3851845e-07 0.0010083949 0.000533966 0.0011144468 -7.0082855e-08 0.0012158558
-4.477444e-09 1.9057234e-05 -0.00049182796 0.0011381662 1.9145173e-06 0.00057610846 0.0005098801 7.711459e-06
0.00021158607 4.6513816e-07 7.1801787e-06 3.7369807e-06 -5.0309686e-06 -1.05667295e-05 -7.760968e-07 -7.586273e-06
3.8698713e-06 9.004385e-07 1.3829809e-06 -2.0289413e-06 -8.199263e-07 -6.337765e-06 1.4829889e-06 -1.08414e-06
-2.6517487e-06 -0.00021587838 -0.00025157133 8.7566754e-05 -7.653686e-06 4.4530343e-06 -8.737684e-06 3.0801007e-06
4.9710076e-07 -0.00019804515 -4.114198e-06 0.0002553727 -1.2165079e-05 0.00096625945 2.0495038e-06 0.00023577624
-3.791469e-05 0.00090000767 -1.7571309e-06 0.00087176566 0.00042093903 0.0006425133 0.0007176602 0.0011280123
4.7364355e-07 -1.3220737e-06 4.098331e-06 0.00031568404 0.00038447446 -0.00049551687 -2.5631714e-05 -0.000421711
0.0009414504 0.00062114914 1.6557672e-06 0.0013350497 0.00012501921 0.00012276268 0.00065349933 3.1044635e-06
-5.232498e-06 0.00051934924 -2.791304e-07 2.4904905e-06 0.0003621355 8.950414e-06 0.00060105487 2.7559297e-05
-1.1623843e-05 1.0106404e-05 -4.4163433e-05 0.00052405405 0.00055876345 0.001110375 0.00027420776 -1.0443678e-06
0.0007112095 -3.718665e-06 2.3956236e-05 -2.4637284e-05 1.21314015e-05 0.0002562491 0.0008710171 -1.3194016e-06
5.388595e-06 0.00070860103 -6.808073e-05 0.0002468492 -8.64902e-06 0.0005810797 0.00043860372 -0.00018328933
8.088078e-06 0.00033120107 2.20241e-06 0.0010731331 -0.00010604028 0.000600381 0.0005486199 0.0010633178
-2.601644e-06 0.00060494244 0.0007147806 0.0010027563 7.705273e-07 0.0010414635 0.0007132535 0.0006289231

exp_avg_sq f4 [128]
00000000: b79e 5432 3fc5 7d2f 322b 8d33 7890 5d30
00000010: 2538 0931 32df 3530 beeb 6530 1161 b92f
00000020: 9c6e d830 9b55 1633 422b 1630 2e5e ac33
00000030: 695e ee32 2ff3 ac33 ac61 8330 d6f2 c733
00000040: 226a bf2f 7584 3e31 3b8b 7c32 0b1c b033
00000050: fe13 2332 9d77 bf32 765e bc32 f393 a230
00000060: c11a 1632 fecf 3d2f ea32 ff30 e5c5 7b30
00000070: efbf ff30 3f0e c731 cdb6 8a2f 7a01 f931
00000080: 1d43 0531 c601 0c2f d22e d630 393a e92e
00000090: 6181 3531 21a0 3c31 51dd ed2f 9d51 a42f
000000a0: 6949 af30 036a b331 5f7c 0d32 32f6 9e31
000000b0: 525d f330 f2e7 ab2f e204 1731 de52 d62e
000000c0: 47f5 f730 f164 9b31 f403 3331 3104 9f31
000000d0: 1220 a231 ef90 6733 ea79 1830 2b2b 1633
000000e0: 9991 ca30 5e06 6a33 19f8 7d31 f75c 9833
000000f0: ba8e a632 06fd f232 a1d9 2f33 55a0 b133
00000100: 29e6 c030 ef5c ae2e edb6 d42f e723 6832
00000110: de52 4a32 6990 e431 a0b1 0e33 30f2 b932
00000120: 3fbe e533 48bd db32 119c 9c30 cbde 0434
00000130: 59fb cd32 8e09 2b31 1bba 0233 2720 2430
00000140: d0b9 0b31 f7a0 8a32 f2c4 7e31 d28c 9f2f
00000150: 05d8 7732 7f0a f631 9f9c d332 cbe4 f131
00000160: 0a2e 0a32 89db e42f f79b 0a31 226c c932
00000170: 6b29 ce32 8c60 ae33 7427 2332 4e66 f22f
00000180: 2763 6133 c076 0331 ec1b 2d32 cada 9331
00000190: 0b82 b530 f7db 0132 b116 6133 f279 a731
000001a0: 475b 9532 914c 1033 5964 9632 374a ba31
000001b0: c53f 0b30 a3f5 b632 975d ad32 bf08 dd32
000001c0: 90df 1430 79a0 2532 405a 3e2f 60e9 b233
000001d0: 5f34 ae31 18df d332 8896 9332 e0c8 8e33
000001e0: f703 1b30 ea48 a932 b152 2d33 713d 8f33
000001f0: c23d f630 8ae7 9a33 eb8a 0933 848a 4233
1.2376112e-08 2.3080292e-10 6.573681e-08 8.0604634e-10 1.9968038e-09 6.6164596e-10 8.3644724e-10 3.3720274e-10
1.5747506e-09 3.5002454e-08 5.4631155e-10 8.026505e-08 2.774978e-08 8.053609e-08 9.559264e-10 9.310831e-08
3.481811e-10 2.7723932e-09 1.4699988e-08 8.2007396e-08 9.492394e-09 2.228972e-08 2.1929036e-08 1.1829101e-09
8.737232e-09 1.7263344e-10 1.8568163e-09 9.1594493e-10 1.8608243e-09 5.793282e-09 2.5231942e-10 7.2470216e-09
1.9392197e-09 1.2733556e-10 1.5583856e-09 1.0605956e-10 2.641251e-09 2.7448623e-09 4.3267304e-10 2.9889416e-10
1.275379e-09 5.221638e-09 8.235559e-09 4.6263944e-09 1.77071e-09 3.1269526e-10 2.1976168e-09 9.7463135e-11
1.8041327e-09 4.5225694e-09 2.6050175e-09 4.6279856e-09 4.7184665e-09 5.3915695e-08 5.547053e-10 3.4963858e-08
1.4738816e-09 5.448816e-08 3.6957373e-09 7.094962e-08 1.9389848e-08 2.828757e-08 4.0943295e-08 8.271369e-08
1.4035254e-09 7.929112e-11 3.8692552e-10 1.3512341e-08 1.1776789e-08 6.652091e-09 3.32235e-08 2.1646969e-08
1.0698249e-07 2.558103e-08 1.1394851e-09 1.237451e-07 2.397944e-08 2.4889206e-09 3.0437246e-08 5.9708544e-10
2.0332784e-09 1.6138513e-08 3.7073815e-09 2.902199e-10 1.4426409e-08 7.1607356e-09 2.4634856e-08 7.040034e-09
8.043125e-09 4.1628948e-10 2.0170299e-09 2.3448653e-08 2.4000391e-08 8.120068e-08 9.496819e-09 4.4092235e-10
5.2477073e-08 1.913051e-09 1.0076274e-08 4.3031365e-09 1.3206444e-09 7.5588025e-09 5.2407533e-08 4.8742033e-09
1.7387391e-08 3.359725e-08 1.7507931e-08 5.4217497e-09 5.065853e-10 2.1299291e-08 2.018241e-08 2.5731763e-08
5.415979e-10 9.640751e-09 1.7312463e-10 8.3312216e-08 5.0700204e-09 2.4665084e-08 1.7181506e-08 6.648929e-08
5.6394306e-10 1.9707347e-08 4.035491e-08 6.6701325e-08 1.7916408e-09 7.2133005e-08 3.2024143e-08 4.5295124e-08
