Assets/Model/TankBrain/TankBrainML/TankBrainML-1067.pt (torch, 180271 bytes, 12 tensors)

network_body._body_endoder.seq_layers.0.weight f4 [128, 36]
0	0x3e31e318	0.17371786
1	0xbe2814b5	-0.16414149
2	0x3dc8eb97	0.0981056
3	0xbe15f168	-0.1464287
4	0x3e7dd962	0.24789956
5	0x3dac4590	0.084117055
6	0x3e243b39	0.16038217
7	0xbe140044	-0.14453226
8	0xbde13468	-0.10996324
9	0xbe4644ac	-0.19362134
10	0x3d98e39b	0.07465287
11	0xbc6dd4e2	-0.014516087
12	0xbbec7290	-0.0072158054
13	0x3ecbba4f	0.3979058
14	0xbe4b1844	-0.19833475
15	0x3d0cab57	0.03434309
16	0x3e3cd72b	0.18441455
17	0x3dddd440	0.10831499
18	0xbdaa6312	-0.083196774
19	0x3e8f66ea	0.28008205
20	0xbdde69ee	-0.10860048
21	0xbe5852bf	-0.21125315
22	0x3dc31a2c	0.09526476
23	0xbd4479b7	-0.04796764
24	0x3caa786e	0.020809378
25	0x3e9450a9	0.2896779
26	0xbb9a4bd0	-0.0047087446
27	0xbe21bc3e	-0.15794465
28	0x3e96f8d2	0.2948671
29	0xbe9761d3	-0.2956682
30	0xbe09335f	-0.13398503
31	0x3e485e2a	0.1956717
32	0xbeb1e797	-0.34747002
33	0x3cadc2ee	0.021211114
34	0xbdbd5142	-0.09244014
35	0x3e095b4c	0.13413733
36	0x3d2049ea	0.03913299
37	0xbcb71f4f	-0.022353796
38	0x3ea860b6	0.32886285
39	0x3d3f1c4c	0.046657845
40	0xbe7293a3	-0.23689131
41	0xbce2c32b	-0.027680954
42	0xbdf8545a	-0.12125464
43	0xbe913ce8	-0.2836678
44	0x3e197484	0.14985853
45	0x3e027618	0.12740362
46	0xbd64d1ca	-0.055864133
47	0xbcf4a5ea	-0.02986427
48	0xbdc267ca	-0.094924524
49	0xbd8c14ca	-0.06839903
50	0x3dad2152	0.08453621
51	0x3d0b262a	0.033971943
52	0xbe688f53	-0.22710924
53	0x3d59d013	0.05317695
54	0x3e5dbd62	0.21654275
55	0xbe597e5e	-0.21239612
56	0xbda31151	-0.07962287
57	0x3cc95952	0.024578724
58	0xbcc49488	-0.023996606
59	0x3d5b7696	0.05357989
60	0xbc949102	-0.018135551
61	0xbc1c01a8	-0.009521879
62	0x3e8dbb98	0.27682185
63	0xbe9b512e	-0.30335373
64	0x3e0c5e97	0.13707958
65	0xbe3876fb	-0.18014137
66	0x3e22ff90	0.15917802
67	0x3e1de530	0.1541946
68	0xbe5ce07a	-0.21570006
69	0xbe071d84	-0.13194853
70	0xbb1d7ff6	-0.002403257
71	0xbe3a0ec6	-0.18169698
72	0x3c0c8f6c	0.008579116
73	0x3e920350	0.28518152
74	0xbd90fcb7	-0.070794515
75	0x3e48f270	0.19623733
76	0x3dc7e5ce	0.09760629
77	0xbe3d27f2	-0.18472269
78	0xbea3d680	-0.31999588
79	0x3d092381	0.033481125
80	0x3e1bacd8	0.15202653
81	0x3e692433	0.22767715
82	0xbd93e255	-0.07220904
83	0xba02285b	-0.000496512
84	0xbb854e5b	-0.0040681786
85	0xbcdebc80	-0.027189493
86	0x3e1d590e	0.15366003
87	0xbe6429b4	-0.22281533
88	0xbdbeeef3	-0.0932292
89	0xbe48b7f4	-0.19601423
90	0x3e0840b0	0.13305926
91	0x3da93df9	0.082637735
92	0x3cf65683	0.030070549
93	0xbdce5a7e	-0.10075854
94	0x3e43d3ce	0.19123766
95	0xbe88e3d8	-0.2673633
96	0x3d320a52	0.043466873
97	0x3e006b86	0.12541017
98	0x3dd68a23	0.10475566
99	0x3dae70a2	0.08517577
100	0x3e69f57e	0.22847554
101	0x3de63276	0.112400934
102	0xbc140c79	-0.009036177
103	0xbe747b8f	-0.23875259
104	0x3ddd267f	0.10798358
105	0x3e8cc684	0.27495205
106	0xbe5e33fe	-0.21699521
107	0x3e8c78ba	0.27435857
108	0x3df5ae30	0.11996114
109	0xbe46b35b	-0.19404356
110	0x3d2f08d2	0.04273302
111	0xbd471cfc	-0.048611626
112	0xbd347f40	-0.044066668
113	0xbe167d4c	-0.14696234
114	0x3e83800c	0.2568363
115	0xbe076f50	-0.13226056
116	0x3dacf71a	0.084455684
117	0x3ec862a7	0.39137766
118	0x3e0837e1	0.13302566
119	0xbc2f685e	-0.010706035
120	0xbc93d2ff	-0.018044947
121	0x3e31a45e	0.17347857
122	0x3ce5bc3c	0.028043859
123	0xbe44c126	-0.19214305
124	0xbcfa170e	-0.030528571
125	0x3d2b63c7	0.041843202
126	0xbe07b172	-0.13251284
127	0x3e4f3e7c	0.2023868
128	0x3ea39f5c	0.3195752
129	0x3e3b2518	0.18275869
130	0xbc9c6ac9	-0.019093888
131	0xbe4d1d58	-0.20030725
132	0xbcb6907c	-0.022285692
133	0x3b91e8b2	0.0044527883
134	0x3dea2f34	0.114347845
135	0x3d756546	0.059911035
136	0x3e0ee3c8	0.13954079
137	0x3dd06e32	0.10177268
138	0xbdb1b2f4	-0.08676711
139	0xbe38d376	-0.18049416
140	0x3c9bc799	0.019016074
141	0x3e7fb8d0	0.24972844
142	0x3d4dcce4	0.050244227
143	0xbdd65b8e	-0.104666814
144	0x3cb0e9a0	0.021595776
145	0xbe86955d	-0.2628583
146	0x3e024bbe	0.12724206
147	0x3daefa78	0.08543867
148	0x3d446c0b	0.0479546
149	0x3cde081e	0.02710348
150	0xbea088a1	-0.3135424
151	0xbe9209af	-0.28523013
152	0x3e146adb	0.14493887
153	0xbe05b9e6	-0.13059196
154	0x3dbf380a	0.093368605
155	0x3e28c458	0.16481149
156	0xbe4c0332	-0.19923094
157	0xbe2a6c30	-0.16642833
158	0xbe418fcc	-0.1890251
159	0x3f04548e	0.5169152
160	0x3e7cf5be	0.24703118
161	0xbea0b952	-0.31391388
162	0x3e553e36	0.20824513
163	0xbe241cd3	-0.1602662
164	0xbe0fabbe	-0.14030358
165	0xbe22449e	-0.15846488
166	0x3c95a2bd	0.018266076
167	0xbe2a0880	-0.16604805
168	0x3e1b53f2	0.15168741
169	0x3e2e6fe0	0.17034864
170	0xbe84f7ea	-0.25970393
171	0xbe6529ce	-0.22379228
172	0x3db7d0ea	0.08975394
173	0x3d658226	0.056032322
174	0xbd471746	-0.04860618
175	0xbda5e15a	-0.08099623
176	0xbd1bb328	-0.038012654
177	0xbd20b8ef	-0.039238866
178	0x3e80a7d7	0.25128052
179	0x3cc48d6c	0.023993216
180	0xbe89d9c6	-0.2692396
181	0xbec231f6	-0.37928742
182	0xbe960ef8	-0.29308295
183	0xbd93c45f	-0.07215189
184	0x3ceafb0e	0.028684165
185	0x3e0385dd	0.12844034
186	0xbbfd8dd8	-0.0077378564
187	0x3ea8a272	0.32936436
188	0x3e8a7b40	0.27047157
189	0xbe1428ff	-0.14468764
190	0x3dffa8ba	0.12483354
191	0xbe8a6f32	-0.2703796
192	0x3e055130	0.13019252
193	0x3dc7454f	0.097300164
194	0xbdeb9673	-0.11503305
195	0xbce89db0	-0.028395504
196	0x3e847e1c	0.25877464
197	0x3e5e2756	0.21694693
198	0x3e2a5b71	0.16636445
199	0xbe653734	-0.2238434
200	0x3bd303bc	0.006439654
201	0x3dbe1322	0.09280993
202	0x3cc34c30	0.02384004
203	0xbd43f0a8	-0.04783693
204	0xbdbe2cc4	-0.09285882
205	0xbe900d78	-0.28135276
206	0x3dd727de	0.10505651
207	0xbca68292	-0.020325933
208	0x3e16a6ca	0.14712062
209	0x3d7281df	0.059205886
210	0xbe17b0ed	-0.14813586
211	0x3ee9b1c4	0.45643437
212	0x3db240a2	0.08703734
213	0x3d1e77bc	0.038688406
214	0xbd37d4f6	-0.04488083
215	0xbec39a18	-0.38203502
216	0xbe544f5b	-0.20733397
217	0xbdfbd777	-0.12296956
218	0xbd6be0cf	-0.05758744
219	0x3d658e60	0.056043983
220	0x3eb3d8b2	0.35126263
221	0x3eb7a2aa	0.3586629
222	0x3e492dde	0.19646403
223	0xbe2e3342	-0.17011741
224	0xbd3ddf24	-0.04635538
225	0xbd87122d	-0.06595264
226	0x3decc5df	0.115611784
227	0xbdd5a6b3	-0.10432186
228	0x3d3cc744	0.046088472
229	0xbd5f48ab	-0.05451266
230	0x3d90306e	0.07040487
231	0xbe1cbc28	-0.15306151
232	0xbc5ecc6b	-0.013598542
233	0x3d8bd50e	0.06827746
234	0x3dcf1d62	0.10113026
235	0x3ca93a3f	0.020657657
236	0x3dbdb4cc	0.09263
237	0x3dc3ad88	0.09554583
238	0x3e288717	0.16457783
239	0xbda38fec	-0.07986435
240	0x3ce7c064	0.028289981
241	0xbddc4cc4	-0.107568294
242	0xbc63d32f	-0.013905331
243	0xbd0e6d42	-0.034772165
244	0xbe00f2f7	-0.12592684
245	0xbe88f933	-0.26752624
246	0xbe3063ec	-0.17225617
247	0x3b5187df	0.0031971855
248	0xbda859ff	-0.082202904
249	0x3e12b1b0	0.14325595
250	0x3e55e703	0.20888905
251	0x3e27631c	0.16346401
252	0xbcb0d42e	-0.02158555
253	0x3d44a17a	0.04800556
254	0x3e8754a6	0.2643177
255	0xbd401a23	-0.046899926

network_body._body_endoder.seq_layers.0.bias f4 [128]
0	0x00000000	0.0
1	0x00000000	0.0
2	0x00000000	0.0
3	0x00000000	0.0
4	0x00000000	0.0
5	0x00000000	0.0
6	0x00000000	0.0
7	0x00000000	0.0
8	0x00000000	0.0
9	0x00000000	0.0
10	0x00000000	0.0
11	0x00000000	0.0
12	0x00000000	0.0
13	0x00000000	0.0
14	0x00000000	0.0
15	0x00000000	0.0
16	0x00000000	0.0
17	0x00000000	0.0
18	0x00000000	0.0
19	0x00000000	0.0
20	0x00000000	0.0
21	0x00000000	0.0
22	0x00000000	0.0
23	0x00000000	0.0
24	0x00000000	0.0
25	0x00000000	0.0
26	0x00000000	0.0
27	0x00000000	0.0
28	0x00000000	0.0
29	0x00000000	0.0
30	0x00000000	0.0
31	0x00000000	0.0
32	0x00000000	0.0
33	0x00000000	0.0
34	0x00000000	0.0
35	0x00000000	0.0
36	0x00000000	0.0
37	0x00000000	0.0
38	0x00000000	0.0
39	0x00000000	0.0
40	0x00000000	0.0
41	0x00000000	0.0
42	0x00000000	0.0
43	0x00000000	0.0
44	0x00000000	0.0
45	0x00000000	0.0
46	0x00000000	0.0
47	0x00000000	0.0
48	0x00000000	0.0
49	0x00000000	0.0
50	0x00000000	0.0
51	0x00000000	0.0
52	0x00000000	0.0
53	0x00000000	0.0
54	0x00000000	0.0
55	0x00000000	0.0
56	0x00000000	0.0
57	0x00000000	0.0
58	0x00000000	0.0
59	0x00000000	0.0
60	0x00000000	0.0
61	0x00000000	0.0
62	0x00000000	0.0
63	0x00000000	0.0
64	0x00000000	0.0
65	0x00000000	0.0
66	0x00000000	0.0
67	0x00000000	0.0
68	0x00000000	0.0
69	0x00000000	0.0
70	0x00000000	0.0
71	0x00000000	0.0
72	0x00000000	0.0
73	0x00000000	0.0
74	0x00000000	0.0
75	0x00000000	0.0
76	0x00000000	0.0
77	0x00000000	0.0
78	0x00000000	0.0
79	0x00000000	0.0
80	0x00000000	0.0
81	0x00000000	0.0
82	0x00000000	0.0
83	0x00000000	0.0
84	0x00000000	0.0
85	0x00000000	0.0
86	0x00000000	0.0
87	0x00000000	0.0
88	0x00000000	0.0
89	0x00000000	0.0
90	0x00000000	0.0
91	0x00000000	0.0
92	0x00000000	0.0
93	0x00000000	0.0
94	0x00000000	0.0
95	0x00000000	0.0
96	0x00000000	0.0
97	0x00000000	0.0
98	0x00000000	0.0
99	0x00000000	0.0
100	0x00000000	0.0
101	0x00000000	0.0
102	0x00000000	0.0
103	0x00000000	0.0
104	0x00000000	0.0
105	0x00000000	0.0
106	0x00000000	0.0
107	0x00000000	0.0
108	0x00000000	0.0
109	0x00000000	0.0
110	0x00000000	0.0
111	0x00000000	0.0
112	0x00000000	0.0
113	0x00000000	0.0
114	0x00000000	0.0
115	0x00000000	0.0
116	0x00000000	0.0
117	0x00000000	0.0
118	0x00000000	0.0
119	0x00000000	0.0
120	0x00000000	0.0
121	0x00000000	0.0
122	0x00000000	0.0
123	0x00000000	0.0
124	0x00000000	0.0
125	0x00000000	0.0
126	0x00000000	0.0
127	0x00000000	0.0

network_body._body_endoder.seq_layers.2.weight f4 [128, 128]
0	0xbd411b74	-0.047145322
1	0x3c097f76	0.008392205
2	0xbdc531ea	-0.09628661
3	0xbe32a610	-0.1744616
4	0xbe590a9b	-0.21195452
5	0xbd419850	-0.047264397
6	0xbd40448c	-0.04694037
7	0xbd3f67e6	-0.046729945
8	0x3dfec434	0.124397665
9	0x3d505950	0.050866425
10	0xbdd71f41	-0.10504008
11	0x3dcf0789	0.10108859
12	0xbdedfdc8	-0.116206706
13	0xbc388ce1	-0.011264057
14	0xbd9a2353	-0.07526269
15	0x3d8eea0b	0.06978234
16	0xbc6c76ed	-0.014432651
17	0x3e1c127b	0.15241425
18	0xbcf1c8eb	-0.02951475
19	0xbd2b187e	-0.041771404
20	0xbc2befa6	-0.010494148
21	0xbc0a3800	-0.008436203
22	0xbe54ba86	-0.20774278
23	0x3a3f46e1	0.00072966336
24	0x3d8c4bf0	0.068504214
25	0x3d59d940	0.0531857
26	0x3def75b6	0.116923735
27	0x3c80d4de	0.015726503
28	0xbd878540	-0.06617212
29	0xbe0b6dfd	-0.13616176
30	0x3d7353ed	0.05940621
31	0x3d34d734	0.044150546
32	0x3ccff231	0.02538404
33	0xbd1f0c76	-0.038830243
34	0x3e6492d2	0.22321633
35	0x3e402f9f	0.18768166
36	0xbd0e6545	-0.034764547
37	0x3d4833e8	0.048877627
38	0xbd431f52	-0.04763729
39	0xbd4a41e3	-0.04937924
40	0xbdd1c8c5	-0.10243372
41	0x3e1289a3	0.14310317
42	0x3cafbc63	0.021452134
43	0x3d30d812	0.04317481
44	0xbc1cb7a8	-0.009565271
45	0x3d91c3df	0.071174376
46	0xbc9fdeea	-0.019515473
47	0x3d97c8c5	0.074113406
48	0x3d90735f	0.07053255
49	0xbc923e70	-0.017852038
50	0x3c37c12c	0.011215489
51	0xbdd61630	-0.10453451
52	0xbb0ea44e	-0.0021765414
53	0x3d8b687c	0.06807038
54	0x3dc3aceb	0.09554466
55	0xbb4c8054	-0.003120442
56	0x3cb68ea7	0.022284819
57	0x3c81ac1d	0.01582914
58	0x3d33b827	0.043876793
59	0x3bca5ebb	0.0061758435
60	0x3e09ebb8	0.13468826
61	0xbd65db4a	-0.056117333
62	0xbe137388	-0.1439954
63	0xbe1c005e	-0.15234515
64	0x3df32d4c	0.11873874
65	0xbe31a4bb	-0.17347996
66	0xbd43e993	-0.047830176
67	0xbd4087e6	-0.047004603
68	0xbdd9b71c	-0.106306285
69	0x3d8890a8	0.06668216
70	0xbd8c3f2d	-0.06847987
71	0x3dc4a5c7	0.09601932
72	0x3ccff51d	0.025385434
73	0xbc94b8e4	-0.018154569
74	0xbdfd4c07	-0.12368017
75	0xbd30e185	-0.043183822
76	0x3df160df	0.11786055
77	0xbd7d0da3	-0.061780583
78	0xbaa54954	-0.0012610354
79	0x3e1bc6a3	0.15212493
80	0x3dd92a16	0.106037304
81	0x3d3908e5	0.045174498
82	0x3c8d5716	0.01725344
83	0x3b8c1b91	0.004275747
84	0x3e6ffe3f	0.23436831
85	0x3d997d1b	0.07494565
86	0xbdac41cd	-0.08410988
87	0xbcacc80e	-0.021091487
88	0x3d96bd78	0.07360357
89	0x3d49d754	0.04927762
90	0xbe04e84a	-0.12979236
91	0x3d1c0685	0.038092155
92	0xba33b90a	-0.0006855881
93	0x3d2c40d4	0.042054012
94	0x3da2e4a1	0.07953764
95	0xbe31b82c	-0.17355412
96	0xbd190556	-0.037358604
97	0xbcf51b84	-0.029920347
98	0x3e54f752	0.2079747
99	0x3dba2ee7	0.09090977
100	0x3d0bbeb7	0.034117427
101	0x3e0e44eb	0.13893478
102	0x3d66027d	0.056154717
103	0x3d89f353	0.067358635
104	0x3dca2892	0.098710194
105	0xbe0e860a	-0.1391832
106	0x3df508dc	0.119645804
107	0xbdb8c8c2	-0.090226665
108	0xbddb365c	-0.107037276
109	0x3c9b02f5	0.018922308
110	0x3cc1fbfb	0.023679724
111	0xbdda9bd4	-0.10674253
112	0x3e4e4e4a	0.20147052
113	0x3ceb0606	0.028689396
114	0xbe801e20	-0.25022984
115	0x3dc2093b	0.09474417
116	0xbe17af1d	-0.14812894
117	0xbd830aa9	-0.06398518
118	0xbce66253	-0.028123057
119	0xbd1da602	-0.038488396
120	0x3c01b4de	0.007916657
121	0x3d4ce0fd	0.050019253
122	0x3d005817	0.03133401
123	0xbdb20133	-0.08691635
124	0x3d69ea61	0.057108287
125	0xbd4a2c6e	-0.049358778
126	0xbe535fba	-0.20641986
127	0xbdf92251	-0.121647485
128	0xbdec3cd6	-0.11535041
129	0x3caa833c	0.02081453
130	0x3e1844f5	0.14870055
131	0xbc121dd1	-0.008918242
132	0xbd65990f	-0.05605417
133	0xbbc5d94c	-0.0060378667
134	0x3c9e9f24	0.019362994
135	0xbda3e232	-0.08002128
136	0xbd1af684	-0.037832752
137	0xbdd1df56	-0.10247676
138	0xbd6cae58	-0.057783455
139	0xbde1ef9b	-0.11032029
140	0xbd550a8b	-0.052012008
141	0xbd52009d	-0.051270116
142	0xbdac6bb8	-0.08418983
143	0x3d2da985	0.042397995
144	0x3da49202	0.08035661
145	0x3befe81d	0.007321371
146	0x3c0997a2	0.0083979685
147	0x3c0b9027	0.008518255
148	0xbc393199	-0.011303329
149	0x3d2e3b7d	0.0425372
150	0x3d6d2d1d	0.05790435
151	0xbce7a18e	-0.028275277
152	0x3c208f64	0.009799812
153	0xbd4a39ca	-0.04937152
154	0x3cdb050f	0.02673581
155	0xbd99187f	-0.074753754
156	0x3dee3f5a	0.11633177
157	0x3d9072b4	0.07053128
158	0xbd4a78ed	-0.04943173
159	0xbd1e5b7b	-0.03866146
160	0x3bac89f6	0.0052654697
161	0xbbd94d43	-0.006631525
162	0xbda79817	-0.08183306
163	0xbde028b7	-0.10945266
164	0xbd8f8d24	-0.07009342
165	0xbdb9602f	-0.09051549
166	0xbdb7ceae	-0.08974968
167	0xbe3c6e90	-0.18401551
168	0x3c48357b	0.012219782
169	0x3b598396	0.0033190004
170	0x3de0c0ed	0.10974298
171	0xbdb48065	-0.08813552
172	0x3e2f385a	0.1711134
173	0xbc219f33	-0.009864616
174	0xbd4d8b64	-0.05018176
175	0xbd8cc184	-0.06872848
176	0x3da818d3	0.0820786
177	0x3d8c07bb	0.06837412
178	0x3e0a1e65	0.13488157
179	0xbdfcf4d5	-0.123513855
180	0xbd29dd8d	-0.041471053
181	0xbc291aa3	-0.010321292
182	0xbe06b45f	-0.13154744
183	0xbdc27250	-0.0949446
184	0xbd2e3cd8	-0.042538494
185	0xbd4a371b	-0.04936896
186	0xbb78f180	-0.0037985742
187	0x3dabab24	0.08382252
188	0x3d9365a0	0.07197118
189	0x3e1efdb0	0.15526462
190	0x3d13dab4	0.036097243
191	0x3e3bb95d	0.18332429
192	0xbcbddfd6	-0.023178022
193	0xbe2c98af	-0.16855119
194	0x3ca7986f	0.020458428
195	0x3df930bf	0.12167501
196	0xbdfd03cc	-0.1235424
197	0x3e0a89d6	0.13529143
198	0xbdb331d7	-0.087497406
199	0x3e313074	0.1730364
200	0xbd9c6646	-0.076366946
201	0xbdc95be4	-0.0983198
202	0xbc857ee4	-0.016295858
203	0xbd269a26	-0.04067435
204	0x3d175aa6	0.036951683
205	0x3e4709b7	0.194373
206	0x3e265bce	0.16245958
207	0x3ccce92b	0.025013527
208	0x3d5185a1	0.05115283
209	0x3d9a84b3	0.075448416
210	0xbdb25847	-0.08708244
211	0xbcf05f99	-0.02934246
212	0xbda6e899	-0.08149833
213	0xbc082dc1	-0.00831169
214	0xbc77c696	-0.01512303
215	0x3dd38c1d	0.10329459
216	0x3dfa4096	0.1221935
217	0x3ddac304	0.106817275
218	0xbde7f2ce	-0.11325608
219	0x3d75c2f9	0.060000394
220	0x3e0b434d	0.13599892
221	0xbdc0dc32	-0.09416999
222	0x3e07ae81	0.13250162
223	0xbd989a2c	-0.07451281
224	0x3daae535	0.08344499
225	0x3c990645	0.018679747
226	0x3d2b4288	0.041811496
227	0xbcb892fc	-0.022531025
228	0xbd16e54e	-0.036839776
229	0x3dbdefcb	0.092742525
230	0x3b336807	0.0027375238
231	0xbdba8bc2	-0.09108688
232	0xbcfdb5f9	-0.03097056
233	0xbd7227fd	-0.059120167
234	0xbd8129c0	-0.06306791
235	0x3d0b115b	0.0339521
236	0x3d3070e8	0.043076426
237	0x3dbb9ad3	0.0916039
238	0xbdb94112	-0.09045614
239	0x3afd317d	0.0019317117
240	0x3b1a174b	0.002351242
241	0x3d3bb322	0.04582513
242	0xbce4adc9	-0.027914898
243	0x3c9b4e7a	0.018958319
244	0xbcf2f4d2	-0.029657755
245	0x3e372f65	0.17889173
246	0xbde6099f	-0.11232304
247	0x3dc2c0f2	0.09509458
248	0xbdcddd8f	-0.100520246
249	0x3e136a93	0.14396124
250	0x3d5de06e	0.05416911
251	0xbe035859	-0.1282667
252	0xbc9fbfea	-0.019500691
253	0x3c7cc15d	0.015426961
254	0x3d399507	0.04530814
255	0x3c390a5f	0.011293977

network_body._body_endoder.seq_layers.2.bias f4 [128]
0	0x00000000	0.0
1	0x00000000	0.0
2	0x00000000	0.0
3	0x00000000	0.0
4	0x00000000	0.0
5	0x00000000	0.0
6	0x00000000	0.0
7	0x00000000	0.0
8	0x00000000	0.0
9	0x00000000	0.0
10	0x00000000	0.0
11	0x00000000	0.0
12	0x00000000	0.0
13	0x00000000	0.0
14	0x00000000	0.0
15	0x00000000	0.0
16	0x00000000	0.0
17	0x00000000	0.0
18	0x00000000	0.0
19	0x00000000	0.0
20	0x00000000	0.0
21	0x00000000	0.0
22	0x00000000	0.0
23	0x00000000	0.0
24	0x00000000	0.0
25	0x00000000	0.0
26	0x00000000	0.0
27	0x00000000	0.0
28	0x00000000	0.0
29	0x00000000	0.0
30	0x00000000	0.0
31	0x00000000	0.0
32	0x00000000	0.0
33	0x00000000	0.0
34	0x00000000	0.0
35	0x00000000	0.0
36	0x00000000	0.0
37	0x00000000	0.0
38	0x00000000	0.0
39	0x00000000	0.0
40	0x00000000	0.0
41	0x00000000	0.0
42	0x00000000	0.0
43	0x00000000	0.0
44	0x00000000	0.0
45	0x00000000	0.0
46	0x00000000	0.0
47	0x00000000	0.0
48	0x00000000	0.0
49	0x00000000	0.0
50	0x00000000	0.0
51	0x00000000	0.0
52	0x00000000	0.0
53	0x00000000	0.0
54	0x00000000	0.0
55	0x00000000	0.0
56	0x00000000	0.0
57	0x00000000	0.0
58	0x00000000	0.0
59	0x00000000	0.0
60	0x00000000	0.0
61	0x00000000	0.0
62	0x00000000	0.0
63	0x00000000	0.0
64	0x00000000	0.0
65	0x00000000	0.0
66	0x00000000	0.0
67	0x00000000	0.0
68	0x00000000	0.0
69	0x00000000	0.0
70	0x00000000	0.0
71	0x00000000	0.0
72	0x00000000	0.0
73	0x00000000	0.0
74	0x00000000	0.0
75	0x00000000	0.0
76	0x00000000	0.0
77	0x00000000	0.0
78	0x00000000	0.0
79	0x00000000	0.0
80	0x00000000	0.0
81	0x00000000	0.0
82	0x00000000	0.0
83	0x00000000	0.0
84	0x00000000	0.0
85	0x00000000	0.0
86	0x00000000	0.0
87	0x00000000	0.0
88	0x00000000	0.0
89	0x00000000	0.0
90	0x00000000	0.0
91	0x00000000	0.0
92	0x00000000	0.0
93	0x00000000	0.0
94	0x00000000	0.0
95	0x00000000	0.0
96	0x00000000	0.0
97	0x00000000	0.0
98	0x00000000	0.0
99	0x00000000	0.0
100	0x00000000	0.0
101	0x00000000	0.0
102	0x00000000	0.0
103	0x00000000	0.0
104	0x00000000	0.0
105	0x00000000	0.0
106	0x00000000	0.0
107	0x00000000	0.0
108	0x00000000	0.0
109	0x00000000	0.0
110	0x00000000	0.0
111	0x00000000	0.0
112	0x00000000	0.0
113	0x00000000	0.0
114	0x00000000	0.0
115	0x00000000	0.0
116	0x00000000	0.0
117	0x00000000	0.0
118	0x00000000	0.0
119	0x00000000	0.0
120	0x00000000	0.0
121	0x00000000	0.0
122	0x00000000	0.0
123	0x00000000	0.0
124	0x00000000	0.0
125	0x00000000	0.0
126	0x00000000	0.0
127	0x00000000	0.0

action_model._continuous_distribution.log_sigma f4 [1, 2]
0	0x00000000	0.0
1	0x00000000	0.0

action_model._continuous_distribution.mu.weight f4 [2, 128]
0	0x3a10654f	0.000550826
1	0xbd00ff6d	-0.031493593
2	0x3bf0b34d	0.007345593
3	0x3c40db43	0.011771026
4	0x3c0adfef	0.0084762415
5	0xbd248b93	-0.04017217
6	0xbd07771a	-0.03307257
7	0xbb64e76a	-0.0034927973
8	0x3c480673	0.012208569
9	0xbcbc7c57	-0.023008509
10	0xbcf5a715	-0.029986897
11	0xbbef75bf	-0.0073077376
12	0xbcb0dc2e	-0.021589365
13	0x3b82bdcf	0.003989912
14	0xbca57d04	-0.020201214
15	0xbcbcda3d	-0.023053283
16	0x3ced9b43	0.029004699
17	0x3c7e405b	0.015518273
18	0x3d218d11	0.039441172
19	0xbc9d4ef0	-0.01920268
20	0xba2af0e2	-0.00065208797
21	0x3bc09914	0.0058776233
22	0xbbfe4190	-0.0077592805
23	0x3af41377	0.0018621524
24	0x3cbde6ec	0.023181401
25	0x3d2e470c	0.042548224
26	0x3cda0bb8	0.026616916
27	0xbb07090b	-0.0020604755
28	0x3c9494b3	0.018137312
29	0xbcbf54ed	-0.023355925
30	0x3ca6ef34	0.020377733
31	0x3c8fb0d3	0.017540371
32	0xbb625ad5	-0.0034539003
33	0x3c8f57e4	0.017497964
34	0xbc4c67e8	-0.012475945
35	0x3c917e5b	0.017760446
36	0xbcb2ab33	-0.02181015
37	0x3c9462a8	0.01811345
38	0x3d243d73	0.040097665
39	0xbb324f52	-0.0027207923
40	0x3c64d000	0.013965607
41	0xbb87363c	-0.0041263383
42	0x3c11de1f	0.008903055
43	0x39fdec80	0.00048432127
44	0x3c8f5719	0.017497586
45	0xbb889efb	-0.0041693426
46	0x3cc5294f	0.024067549
47	0xbcaeabdf	-0.021322189
48	0x3c3a8d44	0.011386219
49	0xbac4f0b7	-0.0015025352
50	0x3bad2b30	0.0052846894
51	0xbc998bf0	-0.018743485
52	0xbcfde177	-0.0309913
53	0xbc3b4f00	-0.011432409
54	0xbc91e6e6	-0.017810296
55	0xbbafc4af	-0.0053640227
56	0x3aea430f	0.0017872768
57	0xbc7db02a	-0.015483895
58	0x3c8c9254	0.017159618
59	0xbc424d1a	-0.011859203
60	0x3c28883a	0.010286385
61	0x3a8a2dbf	0.0010542198
62	0xbc24b5dd	-0.010053125
63	0xbb23ab9b	-0.002497411
64	0xbd05e612	-0.032690115
65	0xbb8c5025	-0.004282015
66	0x3c1e7dbd	0.009673533
67	0x3d05df5d	0.03268372
68	0xbc8f4bd4	-0.017492212
69	0x3c05aed5	0.008159359
70	0x39859bd9	0.00025483852
71	0x3cffe72b	0.03123816
72	0x3b545eb7	0.0032405087
73	0x3c50f382	0.012753369
74	0xbc0c0e67	-0.008548356
75	0xbba1fb03	-0.004943253
76	0xbc3eedba	-0.011653358
77	0xbbaf6061	-0.0053520654
78	0xbc8ef863	-0.017452424
79	0x3cc0427f	0.023469208
80	0x3ca9c387	0.020723118
81	0xbcaa34ef	-0.020777194
82	0x3bb7a1b1	0.005603992
83	0xbb739dcb	-0.003717291
84	0x3bcd2ed5	0.0062616863
85	0xbc238810	-0.00998117
86	0x3c11e803	0.008905414
87	0x3c8540c7	0.01626624
88	0x3b08b077	0.0020857134
89	0xbc767f50	-0.015045002
90	0xbb8653e9	-0.0040993583
91	0x3c95d47a	0.018289793
92	0x3c925a9a	0.017865468
93	0xbd30c065	-0.04315223
94	0xbafce6f2	-0.0019294901
95	0x3d14a64f	0.036291417
96	0x3ba3489a	0.00498302
97	0xbb4b1b69	-0.003099168
98	0xba862d0e	-0.0010236816
99	0x3bf0819f	0.007339671
100	0x3aaa95cf	0.0013014617
101	0x3c931637	0.017954929
102	0xbc2c40c4	-0.010513488
103	0x3cbfbf58	0.02340667
104	0xbc9c9db9	-0.019118177
105	0xbc8fd680	-0.017558336
106	0x3b24ff62	0.0025176634
107	0x3c55f63f	0.013059198
108	0x3aca02fd	0.0015412268
109	0x3c2f4eef	0.010699972
110	0xbd11f0d3	-0.03563006
111	0xbcc15dcc	-0.023604296
112	0xba5f906a	-0.0008528294
113	0xbcff19f8	-0.031140313
114	0x3c1ed3d4	0.009694058
115	0xbbbab233	-0.0056975125
116	0x3b346647	0.0027526782
117	0xbc1f0c9b	-0.009707595
118	0xbd12d7dc	-0.03585039
119	0xbbe75c32	-0.007060551
120	0xbd1203ef	-0.035648283
121	0xba3d4837	-0.00072205387
122	0x3c954204	0.018219955
123	0x3d12e7f9	0.035865758
124	0x3c6a90ea	0.014316777
125	0x3c01dd9b	0.00792637
126	0xbc529253	-0.012852269
127	0xbccb0145	-0.024780879
128	0x3c8578d6	0.01629297
129	0xbba9b7cb	-0.0051793805
130	0x3d0c3513	0.034230303
131	0xbb5e115f	-0.0033884866
132	0xbd006c3f	-0.03135323
133	0xbc2d845f	-0.010590642
134	0x3c9642a4	0.018342324
135	0x3c47461b	0.012162711
136	0xbba7b8e3	-0.0051184758
137	0x3d0e36df	0.034720298
138	0x3c276cca	0.010218808
139	0xbcebc1dd	-0.028778965
140	0xbcdb9de2	-0.026808683
141	0xbb0fbe5a	-0.0021933527
142	0x3c40e1f1	0.011772619
143	0x3c991763	0.01868791
144	0xba03eb9e	-0.0005032363
145	0x3a288717	0.00064288214
146	0x3c2dbe13	0.010604399
147	0xbc14d6fd	-0.00908446
148	0xbbe01e8d	-0.0068395794
149	0xbc2fed29	-0.010737696
150	0x3d1aabb7	0.037761416
151	0x3c80bf11	0.015716108
152	0xbcb0d1e1	-0.021584453
153	0xbc99cacb	-0.018773457
154	0xbafb89cd	-0.0019190848
155	0x3cb59c2f	0.0221692
156	0x3cedb80f	0.02901843
157	0x3b0b4bba	0.0021254853
158	0x3b821d20	0.003970757
159	0xbc9efd9d	-0.019408042
160	0xba7e31a7	-0.000969673
161	0xbbbb0229	-0.0057070446
162	0x3b4fe955	0.003172477
163	0xbbda5575	-0.0066630193
164	0x3d1b516f	0.037919458
165	0x3a95c4ee	0.0011426487
166	0x3c87edfb	0.01659297
167	0xbb47b480	-0.0030472577
168	0x3b0789d4	0.0020681517
169	0x3c99b696	0.018763822
170	0xbbf99252	-0.0076163197
171	0x3c1a924b	0.009434293
172	0x3ba8475b	0.0051354594
173	0xbb43adfb	-0.002985834
174	0xbba6edbd	-0.0050942586
175	0x3ca8c87d	0.020603413
176	0x3c0b1b93	0.008490461
177	0xbb862c2f	-0.0040946226
178	0x3b94c1f6	0.0045397235
179	0x38eeba30	0.000113834045
180	0x3c7e2f3d	0.015514192
181	0x3b1e6781	0.002417058
182	0x3d0307a7	0.03198972
183	0xbd0566f3	-0.032568883
184	0x3c31f1d4	0.010860879
185	0xbb446c2e	-0.0029971707
186	0xbbd5c213	-0.0065233796
187	0x3b5fa077	0.0034122744
188	0x3ce06f6a	0.027396876
189	0x3a965267	0.001146865
190	0xbb834df3	-0.004007095
191	0xbd0538eb	-0.032524984
192	0x3a8fa5d7	0.0010959458
193	0xbc72c5ea	-0.014817694
194	0x3adf8870	0.0017054211
195	0x3bdcb6ab	0.006735643
196	0xbc98b463	-0.018640703
197	0xbbcf3d92	-0.0063244784
198	0xbcce8ad5	-0.025212685
199	0x3c19830a	0.009369621
200	0x3a80c1c2	0.0009823369
201	0x3bafd6c6	0.005366179
202	0x3c6a81a8	0.014313139
203	0xbce29342	-0.027658109
204	0xbcffe8eb	-0.031238994
205	0xbc9d102f	-0.019172756
206	0xbc22e514	-0.009942312
207	0x3bbb274d	0.005711472
208	0xbc1410db	-0.009037222
209	0x3bb347df	0.005471214
210	0xbc0c8caa	-0.008578459
211	0x3bf4bb02	0.007468582
212	0x3c80dcfc	0.015730374
213	0x3cfd78ed	0.030941451
214	0xbc3f7ad6	-0.011687001
215	0x3c8653e4	0.016397424
216	0xbc9eae40	-0.019370198
217	0x3b66c453	0.0035212233
218	0xbbed8db7	-0.0072495597
219	0x3b2e911b	0.0026636783
220	0xbcd3456a	-0.025789935
221	0x3b94ea39	0.004544523
222	0xbc8b548c	-0.017008089
223	0x3c1244d9	0.008927547
224	0x3ca13bc7	0.019681824
225	0xbbfcf6f8	-0.0077198707
226	0x3c4a49ff	0.012346744
227	0x3c5cc712	0.013475196
228	0xbc57eb95	-0.013178726
229	0xbb65f420	-0.0035088137
230	0xbb8b7742	-0.00425616
231	0x3c1fc8fb	0.009752507
232	0x3be2592b	0.0069076023
233	0xbccac931	-0.024754139
234	0x3d2b8947	0.041878965
235	0xbc86985b	-0.01643007
236	0xbc91ccfc	-0.01779794
237	0xbc9420d2	-0.018082056
238	0x3cce31e3	0.025170272
239	0x3cb290e0	0.021797597
240	0x3bd783b7	0.006576981
241	0xbd07f4ba	-0.033192374
242	0x3cb4e58f	0.022082118
243	0xba7a0e4b	-0.0009538873
244	0xbca2114d	-0.01978364
245	0x3a8e28b7	0.0010845874
246	0xbb834763	-0.0040063127
247	0x3cb001e4	0.021485277
248	0x3c4d0025	0.0125122415
249	0xbb7c9003	-0.0038537986
250	0x3b0e10cd	0.0021677495
251	0x3c6f78d3	0.014616209
252	0x3c196eaa	0.009364763
253	0xbb4fb63a	-0.003169431
254	0xbc8857bb	-0.016643396
255	0xbce0569d	-0.02738505

action_model._continuous_distribution.mu.bias f4 [2]
0	0x00000000	0.0
1	0x00000000	0.0

network_body._body_endoder.seq_layers.0.weight f4 [128, 36]
0	0xbbb50bec	-0.005525103
1	0x3d27a77a	0.040931202
2	0x3e0cfb7c	0.13767809
3	0x3d75f274	0.060045674
4	0x3d543f3b	0.051818114
5	0x3cb94e0a	0.02262022
6	0x3e1ea3fd	0.15492244
7	0x3d744ca8	0.059643418
8	0xbcc8913a	-0.024483312
9	0x3d8a87ca	0.06764181
10	0xbd001c62	-0.031277068
11	0x3d8c8763	0.068617605
12	0xbc8eafbc	-0.017417781
13	0x3ebc373f	0.367609
14	0xbd36f1a7	-0.04466405
15	0xbd4d5b17	-0.0501357
16	0xbe43497c	-0.19071001
17	0xbdd764f0	-0.10517299
18	0x3db9a04f	0.090637796
19	0x3c8b1fa8	0.016982868
20	0xbd80f9ba	-0.062976316
21	0xbdd2d3ce	-0.10294305
22	0x3e8829dc	0.26594436
23	0xbe374202	-0.17896274
24	0xbe600aec	-0.21879166
25	0xbcf9db88	-0.030500188
26	0xbc6cb8fc	-0.014448401
27	0x3d8fc2de	0.0701959
28	0x3e63b9a4	0.22238785
29	0x3dc53102	0.09628488
30	0xbd9ec63f	-0.07752656
31	0xbe6d7088	-0.23187459
32	0x3e26d587	0.16292392
33	0xbcbd54e7	-0.023111774
34	0x3c5faf58	0.013652645
35	0x3dd720bf	0.10504293
36	0x3d8b19b0	0.06792009
37	0x3e0e7dac	0.13915128
38	0xbdf6bace	-0.12047349
39	0xbe81800b	-0.25293002
40	0x3e82a5c5	0.25517097
41	0x3e3198d0	0.1734345
42	0x3d886ae6	0.06661014
43	0x3ccecc1f	0.025243817
44	0x3da3cc2b	0.07997926
45	0x3d40b3b0	0.047046363
46	0x3bd6fd6c	0.006560972
47	0x3d60a0bc	0.05484079
48	0x3cf82478	0.030290827
49	0x3e87e8ce	0.26544803
50	0xbe958832	-0.2920547
51	0x3e05c446	0.13063154
52	0x3e912d80	0.28355026
53	0x3e2cf6fc	0.16891092
54	0x3e60dfb6	0.21960339
55	0x3de6d786	0.112715766
56	0xbe2d9a74	-0.1695345
57	0xbec3de43	-0.3825551
58	0x3e2383a1	0.15968181
59	0xbe376df7	-0.17913042
60	0xbdce0123	-0.100588106
61	0x3dff13c3	0.12454941
62	0x3e233192	0.15936878
63	0xbd8fe755	-0.07026545
64	0x3bb0e547	0.0053984257
65	0x3de25a07	0.110523276
66	0x3d97d716	0.07414071
67	0x3da50a18	0.08058566
68	0x3daf4a2a	0.085590675
69	0x3d93523d	0.0719342
70	0x3e8e485a	0.27789575
71	0xbe8ad396	-0.27114552
72	0xbe2e5fef	-0.17028783
73	0xbe541093	-0.20709448
74	0x3d829ffa	0.06378169
75	0x3dfa7236	0.12228815
76	0xbe7e0d4f	-0.24809764
77	0xbd6b1413	-0.05739219
78	0x3d873a16	0.06602876
79	0xbd2b873f	-0.041877028
80	0x3df2153a	0.11820455
81	0x3d107348	0.03526619
82	0xbd2c595a	-0.0420774
83	0xbea962bb	-0.33083138
84	0x3af2b0ca	0.0018515822
85	0x3d353c87	0.044247176
86	0x3e0b95ab	0.13631313
87	0x3d17ddd2	0.03707678
88	0x3e8dfac9	0.27730396
89	0x3c8d521b	0.017251065
90	0xbdedf692	-0.11619295
91	0x3ecf1328	0.40444303
92	0xbd93c8e4	-0.07216051
93	0xbddbd8c3	-0.107347034
94	0xbe622f60	-0.22088385
95	0xbe0a4612	-0.13503292
96	0xbd0748c5	-0.033028383
97	0xbe4e2c36	-0.20134053
98	0x3e49fe92	0.19726017
99	0xbd513607	-0.051076915
100	0x3d62d423	0.05537809
101	0x3e100e62	0.14067987
102	0x3db849e7	0.08998471
103	0xbdabb4bb	-0.08384081
104	0xbd2089b5	-0.039193828
105	0x3ba17e68	0.004928399
106	0x3daff8a8	0.08592349
107	0x3e1c3a13	0.15256529
108	0x3e9dd6bc	0.30827892
109	0xbded0ca2	-0.11574675
110	0xbd883f2e	-0.066526756
111	0xbe8b0511	-0.27152303
112	0x3e146282	0.14490703
113	0x3db73fea	0.089477375
114	0x3d418c1b	0.047252756
115	0xbd65cee7	-0.05610552
116	0xbe35de3b	-0.17760555
117	0xbe33e18f	-0.17566513
118	0x3cff6264	0.031174846
119	0x3d873774	0.06602374
120	0xbdb034a0	-0.086037874
121	0xbdd3c8f8	-0.10341066
122	0xbe46c6cc	-0.19411772
123	0x3ec7811e	0.38965696
124	0xbc7890b7	-0.015171221
125	0xbc5533e8	-0.013012864
126	0xbdd5fc1b	-0.10448476
127	0x3db5d417	0.088783436
128	0xbe20d0e0	-0.1570468
129	0x3e3c56f6	0.18392548
130	0x3dbd8386	0.09253602
131	0x3d044740	0.03229451
132	0xbe1b7f22	-0.15185216
133	0xbc5116ea	-0.012761811
134	0xbd9adf24	-0.07562092
135	0xbe33f70b	-0.17574708
136	0xbe533bc4	-0.20628268
137	0x3d7c8913	0.06165416
138	0xbca3f6c0	-0.02001512
139	0x3e49098f	0.19632553
140	0x3de999f2	0.11406316
141	0x3f04b585	0.51839477
142	0xbad8561b	-0.0016505154
143	0xbdc7f84a	-0.09764154
144	0xbcfa0657	-0.030520601
145	0xb9f0108a	-0.0004578869
146	0x3e033bda	0.128158
147	0xbd935407	-0.07193761
148	0x3c67b403	0.014142039
149	0x3e91f042	0.28503615
150	0xbe529930	-0.20566249
151	0xbe141e76	-0.14464745
152	0x3e63d54f	0.2224934
153	0x3db94c4a	0.09047754
154	0xbe35a3f8	-0.1773833
155	0xbd0757be	-0.03304266
156	0xbcab4374	-0.020906188
157	0xbbd29e83	-0.0064275875
158	0xbe2fb546	-0.17158994
159	0xbd349192	-0.04408414
160	0x3db779a2	0.089587465
161	0x3e7e4a77	0.24833094
162	0xbe41f344	-0.18940455
163	0xbcf2873e	-0.029605504
164	0x3bf26316	0.007397066
165	0x3e01b10c	0.12665194
166	0x3e51b8b8	0.20480621
167	0xbdb3d692	-0.087811604
168	0x3e5eb8a2	0.2175012
169	0xbdfbae9a	-0.12289162
170	0x3c8e0dfe	0.017340656
171	0xbdf342df	-0.11877989
172	0x3e2c84b2	0.16847494
173	0x3ce3b8bc	0.02779805
174	0xbd8fb121	-0.070162065
175	0xbe264cf6	-0.16240296
176	0xbe1699f0	-0.1470716
177	0xbc0d509e	-0.008625178
178	0xbd02e89b	-0.03196011
179	0x3d2d48d8	0.042305797
180	0xbda8c4ef	-0.08240687
181	0x3dfcd9df	0.12346243
182	0xbe07443c	-0.13209623
183	0xbda6692c	-0.08125529
184	0x3dce59c0	0.10075712
185	0xbd72aa44	-0.05924441
186	0x3de838ab	0.113389336
187	0x3e5d345b	0.21602003
188	0x3e804f8a	0.25060683
189	0x3d0618aa	0.032738365
190	0x3db7af58	0.08968991
191	0x3e3d1a2f	0.1846702
192	0xbe651480	-0.22371101
193	0xbd73f4f0	-0.059559762
194	0xbec64687	-0.38725683
195	0xbbc28046	-0.0059357015
196	0x3ece8972	0.40339237
197	0xbc4fa16f	-0.012672766
198	0x3e84308e	0.25818294
199	0xbdfc2640	-0.12311983
200	0x3d80fc50	0.06298125
201	0xbdd3f75f	-0.10349917
202	0x3e6065c8	0.21913826
203	0xbd5fc638	-0.054632396
204	0xbe28b97c	-0.16477007
205	0xba86d0da	-0.0010285631
206	0x3c1bb19d	0.0095027955
207	0xbe5388dc	-0.20657676
208	0xbecd615a	-0.40113336
209	0xbdc18998	-0.09450072
210	0x3df9d996	0.12199704
211	0xbc663f60	-0.014053196
212	0x3e4699ef	0.19394659
213	0xbdeaf540	-0.11472559
214	0x3e63ae70	0.22234511
215	0x3e3e2076	0.1856707
216	0xbdf728ae	-0.12068306
217	0xbe357398	-0.17719877
218	0xb995090e	-0.0002842624
219	0xbda737aa	-0.08164914
220	0x3d79dec2	0.061003454
221	0x3e9b72c8	0.3036101
222	0xbcf7e64c	-0.030261181
223	0x3df4fbfe	0.11962126
224	0xbe0fdae6	-0.14048347
225	0x3e12bf2d	0.1433074
226	0x3db53506	0.08848004
227	0xbd3daac6	-0.04630544
228	0x3e60e0f0	0.21960807
229	0xbc06bfb8	-0.00822442
230	0x3de010b4	0.10940686
231	0x3e15bd56	0.14623007
232	0x3db89ebb	0.090146504
233	0x3ebbe9ea	0.367019
234	0x3d804c06	0.062645
235	0x3e9707d3	0.29498157
236	0x3ea014a6	0.31265754
237	0xbec952f6	-0.39321107
238	0xbda5e67a	-0.081006005
239	0xbe2a46b2	-0.1662853
240	0x3dc6bb58	0.09703702
241	0x3dfc5bc7	0.12322193
242	0xbdaecb53	-0.08534875
243	0x3e01ae07	0.12664042
244	0x3cea0daa	0.028570969
245	0x3e70d412	0.23518398
246	0xbdda4916	-0.10658471
247	0x3e48e734	0.19619447
248	0x3eaaf128	0.33387113
249	0x3e1e7b26	0.15476665
250	0xbe5302f7	-0.206066
251	0xbe3b4c5f	-0.18290852
252	0x3d97cbbc	0.07411906
253	0xbeb43236	-0.35194558
254	0xbd8ceb56	-0.06880824
255	0x3c20a7d8	0.009805642

network_body._body_endoder.seq_layers.0.bias f4 [128]
0	0x00000000	0.0
1	0x00000000	0.0
2	0x00000000	0.0
3	0x00000000	0.0
4	0x00000000	0.0
5	0x00000000	0.0
6	0x00000000	0.0
7	0x00000000	0.0
8	0x00000000	0.0
9	0x00000000	0.0
10	0x00000000	0.0
11	0x00000000	0.0
12	0x00000000	0.0
13	0x00000000	0.0
14	0x00000000	0.0
15	0x00000000	0.0
16	0x00000000	0.0
17	0x00000000	0.0
18	0x00000000	0.0
19	0x00000000	0.0
20	0x00000000	0.0
21	0x00000000	0.0
22	0x00000000	0.0
23	0x00000000	0.0
24	0x00000000	0.0
25	0x00000000	0.0
26	0x00000000	0.0
27	0x00000000	0.0
28	0x00000000	0.0
29	0x00000000	0.0
30	0x00000000	0.0
31	0x00000000	0.0
32	0x00000000	0.0
33	0x00000000	0.0
34	0x00000000	0.0
35	0x00000000	0.0
36	0x00000000	0.0
37	0x00000000	0.0
38	0x00000000	0.0
39	0x00000000	0.0
40	0x00000000	0.0
41	0x00000000	0.0
42	0x00000000	0.0
43	0x00000000	0.0
44	0x00000000	0.0
45	0x00000000	0.0
46	0x00000000	0.0
47	0x00000000	0.0
48	0x00000000	0.0
49	0x00000000	0.0
50	0x00000000	0.0
51	0x00000000	0.0
52	0x00000000	0.0
53	0x00000000	0.0
54	0x00000000	0.0
55	0x00000000	0.0
56	0x00000000	0.0
57	0x00000000	0.0
58	0x00000000	0.0
59	0x00000000	0.0
60	0x00000000	0.0
61	0x00000000	0.0
62	0x00000000	0.0
63	0x00000000	0.0
64	0x00000000	0.0
65	0x00000000	0.0
66	0x00000000	0.0
67	0x00000000	0.0
68	0x00000000	0.0
69	0x00000000	0.0
70	0x00000000	0.0
71	0x00000000	0.0
72	0x00000000	0.0
73	0x00000000	0.0
74	0x00000000	0.0
75	0x00000000	0.0
76	0x00000000	0.0
77	0x00000000	0.0
78	0x00000000	0.0
79	0x00000000	0.0
80	0x00000000	0.0
81	0x00000000	0.0
82	0x00000000	0.0
83	0x00000000	0.0
84	0x00000000	0.0
85	0x00000000	0.0
86	0x00000000	0.0
87	0x00000000	0.0
88	0x00000000	0.0
89	0x00000000	0.0
90	0x00000000	0.0
91	0x00000000	0.0
92	0x00000000	0.0
93	0x00000000	0.0
94	0x00000000	0.0
95	0x00000000	0.0
96	0x00000000	0.0
97	0x00000000	0.0
98	0x00000000	0.0
99	0x00000000	0.0
100	0x00000000	0.0
101	0x00000000	0.0
102	0x00000000	0.0
103	0x00000000	0.0
104	0x00000000	0.0
105	0x00000000	0.0
106	0x00000000	0.0
107	0x00000000	0.0
108	0x00000000	0.0
109	0x00000000	0.0
110	0x00000000	0.0
111	0x00000000	0.0
112	0x00000000	0.0
113	0x00000000	0.0
114	0x00000000	0.0
115	0x00000000	0.0
116	0x00000000	0.0
117	0x00000000	0.0
118	0x00000000	0.0
119	0x00000000	0.0
120	0x00000000	0.0
121	0x00000000	0.0
122	0x00000000	0.0
123	0x00000000	0.0
124	0x00000000	0.0
125	0x00000000	0.0
126	0x00000000	0.0
127	0x00000000	0.0

network_body._body_endoder.seq_layers.2.weight f4 [128, 128]
0	0xbe06acb6	-0.13151821
1	0x3deea977	0.116534166
2	0xbdd7b6e2	-0.10532929
3	0xbdc82547	-0.09772735
4	0xbda0853f	-0.07837915
5	0x3cca54c4	0.024698623
6	0xb9fb22ef	-0.00047900478
7	0xbd93d01e	-0.072174296
8	0xbd912c53	-0.07088532
9	0xbd28292f	-0.0410549
10	0xbd951001	-0.07278443
11	0xbd817d66	-0.06322746
12	0x3d2968f7	0.041359868
13	0x3d84d610	0.06486142
14	0xbd265f0a	-0.04061798
15	0xbdfa1dc8	-0.122127116
16	0xbd247202	-0.04014779
17	0xbcbb40eb	-0.022858104
18	0x3d92f5aa	0.07175763
19	0x3e20a8e5	0.15689428
20	0xbc9d8cff	-0.019232271
21	0x3dcebd9b	0.10094758
22	0x3e0ec059	0.13940562
23	0x3ddd66de	0.10810636
24	0x3c0bd8a3	0.008535537
25	0xbdf71198	-0.120639026
26	0x3df85267	0.12125092
27	0x3c846e03	0.016165739
28	0xbda7b158	-0.081881225
29	0x3dd69b43	0.104788326
30	0x3dd98758	0.10621518
31	0x3ca8e8e8	0.02061887
32	0x3e6d3858	0.23166025
33	0x3d904882	0.0704508
34	0x3d38a6ef	0.045081075
35	0xbd16455b	-0.036687236
36	0xbda8f4e7	-0.082498364
37	0xbe0e8d07	-0.13920985
38	0x3d216579	0.039403412
39	0x3cf734d9	0.030176567
40	0xbc8b0f9d	-0.016975218
41	0xbda396bf	-0.07987737
42	0x3d76e423	0.060276162
43	0x3d4f1e48	0.050565988
44	0x3df62ec6	0.1202064
45	0xbe49b3c0	-0.19697475
46	0x3dd719e7	0.10502987
47	0xb9cd546c	-0.00039163546
48	0x3c0a2fc1	0.008434237
49	0x3dc70463	0.097176336
50	0xbd84f49c	-0.06491968
51	0xbda13e64	-0.07873228
52	0x3c6cb6ab	0.014447848
53	0x3c9676a9	0.018367128
54	0xbe7e64a5	-0.2484308
55	0xbcba9ca7	-0.022779776
56	0x3c775f22	0.015098365
57	0x3dc52d16	0.0962774
58	0x3dd1fdf1	0.102535136
59	0x3e233069	0.15936436
60	0xbd9e0487	-0.07715707
61	0x3cabef0a	0.020988006
62	0x3d8098f2	0.06279172
63	0x3d096325	0.033541817
64	0xbd9affa0	-0.07568288
65	0xbbfaa4d9	-0.007649046
66	0xbdb35426	-0.087562844
67	0x3c77e02e	0.015129132
68	0x3d159780	0.036521435
69	0x3dd14ece	0.10220109
70	0x3d895165	0.06704978
71	0xbbbbea1c	-0.005734695
72	0xbe0c84d6	-0.13722548
73	0x3d9a466a	0.07532962
74	0xb99606ab	-0.00028615198
75	0x3d86fa7e	0.06590746
76	0xbc70300a	-0.014659891
77	0x3d3e2f87	0.046432044
78	0x3cb02092	0.021499906
79	0xbcbc6c78	-0.02300094
80	0x3dac8070	0.08422935
81	0xbe10c63b	-0.14138119
82	0x3e7fe4f9	0.2498969
83	0x3e08ff55	0.13378651
84	0xbde86127	-0.11346655
85	0xbcd2f7e0	-0.025752962
86	0x3c90510c	0.017616771
87	0x3de4c324	0.111700326
88	0x3d9f66ef	0.07783305
89	0xbc619e45	-0.013770645
90	0x3cae2144	0.021256097
91	0xbe13d01e	-0.14434859
92	0x3d2ca758	0.04215178
93	0x3dd4d7dc	0.103927344
94	0xbdd0253f	-0.10163354
95	0xbdb1a0fa	-0.08673282
96	0x3bc86661	0.00611572
97	0xbdee43e4	-0.11634043
98	0xbda82eee	-0.08212076
99	0xbccf221a	-0.025284816
100	0xb81754bd	-3.6080124e-05
101	0xbd6a300c	-0.057174727
102	0xbd1253a6	-0.035724305
103	0x3e1ed36f	0.15510343
104	0x3dadf3ec	0.0849379
105	0x3de90ce3	0.11379411
106	0xbb2f9091	-0.002678905
107	0xbd9b112c	-0.07571635
108	0x3d0a8ab9	0.033823702
109	0x3b82a837	0.003987338
110	0x3b544488	0.003238948
111	0xbcdceea9	-0.02696927
112	0xbb8e8b8a	-0.0043501304
113	0xbd2786bc	-0.040899977
114	0x3d20b582	0.0392356
115	0x3cc282d1	0.023744019
116	0x3d0c1339	0.03419802
117	0xbc2f0295	-0.010681768
118	0xbcbd5253	-0.023110544
119	0x3d968a54	0.07350603
120	0xbe141db9	-0.14464463
121	0x3d23ea2c	0.040018246
122	0xbd177c65	-0.036983866
123	0x3e0cc319	0.13746299
124	0xbe1ef6c2	-0.15523818
125	0x3dd3f104	0.103487045
126	0xbd8163a5	-0.06317834
127	0xbdb2077f	-0.08692836
128	0xbd1afc13	-0.037838053
129	0xbc573db1	-0.013137267
130	0x3cc16338	0.023606881
131	0x3d7a5c65	0.06112327
132	0xbc06fd63	-0.008239123
133	0x3db2b793	0.0872642
134	0xbe0749d4	-0.13211757
135	0x3e15552d	0.14583273
136	0x3c891aef	0.016736476
137	0xbe11b1bd	-0.14227958
138	0x3d25ebbd	0.04050802
139	0x3db90003	0.09033205
140	0xbbac95f1	-0.005266898
141	0x3d022768	0.031775862
142	0x3dc9d90f	0.09855854
143	0x3d2ac721	0.04169381
144	0xbcc61662	-0.024180595
145	0x3d60873b	0.054816466
146	0x3be42137	0.0069619673
147	0xbd8dda5e	-0.06926416
148	0xbd26ee9a	-0.040754892
149	0xbda53158	-0.08066052
150	0x3d88af8a	0.066741064
151	0x3db9bceb	0.09069236
152	0xbd3c4c61	-0.045971278
153	0xbd2376e3	-0.0399083
154	0x3dd3909a	0.10330315
155	0x3c393da4	0.0113062
156	0xbd61654e	-0.055028252
157	0x3da58107	0.08081251
158	0x3b94fbcf	0.0045466195
159	0x3da551e6	0.080722615
160	0xbbd3c9c2	-0.0064632604
161	0x3d71a44f	0.058994588
162	0xbc76d2c9	-0.015064904
163	0x3dbd0135	0.09228746
164	0xbd9a23f2	-0.07526387
165	0x3d3b9de4	0.045804873
166	0xbd95188e	-0.07280074
167	0x3cd8a46b	0.026445588
168	0x3d82188a	0.06352337
169	0xbd31ce58	-0.043409675
170	0x3d930445	0.07178549
171	0xbda09162	-0.078402296
172	0x3cebaf78	0.028770193
173	0xbc89bf2f	-0.016814796
174	0xbdf0137e	-0.11722468
175	0xbca5a7a7	-0.020221544
176	0xbd1e685a	-0.038673736
177	0x3e84b77a	0.25921232
178	0xbcdd35f9	-0.027003275
179	0x3da9a046	0.08282523
180	0xbdcb05b1	-0.09913195
181	0x3d3bcf10	0.045851767
182	0xbd928f6b	-0.07156261
183	0x3e16073a	0.14651194
184	0xbd8d9855	-0.06913821
185	0x3c5784c9	0.013154217
186	0xbd20e622	-0.03928197
187	0xbde82430	-0.11335027
188	0xbdb32025	-0.087463655
189	0xbcc6762c	-0.02422627
190	0x3dabad02	0.08382608
191	0xbd3e4222	-0.046449788
192	0x3d13ca61	0.036081675
193	0x3d7333a5	0.059375424
194	0x3deb9c79	0.11504454
195	0xbbbd57f1	-0.0057783057
196	0xbb79997d	-0.003808587
197	0xbd3b1604	-0.045675293
198	0x3dfc96f7	0.12333482
199	0xbda0a481	-0.07843877
200	0x3d9cc7e4	0.076553136
201	0x3dc64b5c	0.096823424
202	0xbe0b2ca2	-0.13591245
203	0xbc57387f	-0.013136028
204	0xbe0be0f9	-0.13660039
205	0x3d9fc0d3	0.0780045
206	0xbdc90a6a	-0.098164394
207	0xbd16aec6	-0.03678777
208	0x3cc049bf	0.023472665
209	0xbda179d0	-0.07884562
210	0xbe0d4637	-0.13796316
211	0xbd977337	-0.07395022
212	0x3e9e3db9	0.30906466
213	0x3e7609e9	0.24027218
214	0x3c66a36a	0.014077047
215	0xbdbaee90	-0.091275334
216	0xbe467825	-0.19381769
217	0xbd523638	-0.05132124
218	0xbde23a01	-0.110462196
219	0x3d1a8a83	0.03772975
220	0x3d831609	0.06400687
221	0x3c57b27e	0.013165114
222	0x3d181046	0.037124895
223	0xbd2814a7	-0.04103532
224	0xbda5d6a7	-0.08097582
225	0xbdff07a6	-0.12452631
226	0xbd5bb80d	-0.05364232
227	0x3d126b7f	0.035747048
228	0x3cfb6ce7	0.030691577
229	0xbd32bbb1	-0.043636028
230	0xbdacbbd4	-0.08434263
231	0x3dcdb1fd	0.10043714
232	0x3d42a047	0.047516134
233	0xbd74b0e6	-0.059739016
234	0xba671de6	-0.0008816406
235	0x3dbf92fd	0.09354208
236	0x3dd3800a	0.10327156
237	0xbe251838	-0.1612252
238	0xbce8a0d0	-0.028396994
239	0xbd925591	-0.07145227
240	0x3dede307	0.11615568
241	0xbd21bca7	-0.039486554
242	0xbd7591d9	-0.059953544
243	0xbcc690e5	-0.024239013
244	0xbc6692e3	-0.014073106
245	0xbded1285	-0.11575798
246	0xbd362ba6	-0.04447522
247	0x3d251829	0.040306244
248	0x3e2d005d	0.1689467
249	0x3e1bbfb5	0.15209849
250	0x3da457da	0.08024569
251	0x3d660c55	0.056164104
252	0x3d1b8ead	0.037977863
253	0xbdf43484	-0.11924079
254	0x3e1692e0	0.14704466
255	0x3d3214cf	0.043476876

network_body._body_endoder.seq_layers.2.bias f4 [128]
0	0x00000000	0.0
1	0x00000000	0.0
2	0x00000000	0.0
3	0x00000000	0.0
4	0x00000000	0.0
5	0x00000000	0.0
6	0x00000000	0.0
7	0x00000000	0.0
8	0x00000000	0.0
9	0x00000000	0.0
10	0x00000000	0.0
11	0x00000000	0.0
12	0x00000000	0.0
13	0x00000000	0.0
14	0x00000000	0.0
15	0x00000000	0.0
16	0x00000000	0.0
17	0x00000000	0.0
18	0x00000000	0.0
19	0x00000000	0.0
20	0x00000000	0.0
21	0x00000000	0.0
22	0x00000000	0.0
23	0x00000000	0.0
24	0x00000000	0.0
25	0x00000000	0.0
26	0x00000000	0.0
27	0x00000000	0.0
28	0x00000000	0.0
29	0x00000000	0.0
30	0x00000000	0.0
31	0x00000000	0.0
32	0x00000000	0.0
33	0x00000000	0.0
34	0x00000000	0.0
35	0x00000000	0.0
36	0x00000000	0.0
37	0x00000000	0.0
38	0x00000000	0.0
39	0x00000000	0.0
40	0x00000000	0.0
41	0x00000000	0.0
42	0x00000000	0.0
43	0x00000000	0.0
44	0x00000000	0.0
45	0x00000000	0.0
46	0x00000000	0.0
47	0x00000000	0.0
48	0x00000000	0.0
49	0x00000000	0.0
50	0x00000000	0.0
51	0x00000000	0.0
52	0x00000000	0.0
53	0x00000000	0.0
54	0x00000000	0.0
55	0x00000000	0.0
56	0x00000000	0.0
57	0x00000000	0.0
58	0x00000000	0.0
59	0x00000000	0.0
60	0x00000000	0.0
61	0x00000000	0.0
62	0x00000000	0.0
63	0x00000000	0.0
64	0x00000000	0.0
65	0x00000000	0.0
66	0x00000000	0.0
67	0x00000000	0.0
68	0x00000000	0.0
69	0x00000000	0.0
70	0x00000000	0.0
71	0x00000000	0.0
72	0x00000000	0.0
73	0x00000000	0.0
74	0x00000000	0.0
75	0x00000000	0.0
76	0x00000000	0.0
77	0x00000000	0.0
78	0x00000000	0.0
79	0x00000000	0.0
80	0x00000000	0.0
81	0x00000000	0.0
82	0x00000000	0.0
83	0x00000000	0.0
84	0x00000000	0.0
85	0x00000000	0.0
86	0x00000000	0.0
87	0x00000000	0.0
88	0x00000000	0.0
89	0x00000000	0.0
90	0x00000000	0.0
91	0x00000000	0.0
92	0x00000000	0.0
93	0x00000000	0.0
94	0x00000000	0.0
95	0x00000000	0.0
96	0x00000000	0.0
97	0x00000000	0.0
98	0x00000000	0.0
99	0x00000000	0.0
100	0x00000000	0.0
101	0x00000000	0.0
102	0x00000000	0.0
103	0x00000000	0.0
104	0x00000000	0.0
105	0x00000000	0.0
106	0x00000000	0.0
107	0x00000000	0.0
108	0x00000000	0.0
109	0x00000000	0.0
110	0x00000000	0.0
111	0x00000000	0.0
112	0x00000000	0.0
113	0x00000000	0.0
114	0x00000000	0.0
115	0x00000000	0.0
116	0x00000000	0.0
117	0x00000000	0.0
118	0x00000000	0.0
119	0x00000000	0.0
120	0x00000000	0.0
121	0x00000000	0.0
122	0x00000000	0.0
123	0x00000000	0.0
124	0x00000000	0.0
125	0x00000000	0.0
126	0x00000000	0.0
127	0x00000000	0.0

value_heads.value_heads.extrinsic.weight f4 [1, 128]
0	0xbcf6d2da	-0.030129839
1	0xbe4706a5	-0.19436128
2	0x3e547c74	0.207506
3	0xbddbf3ae	-0.107398376
4	0x3e31f1fa	0.17377463
5	0xbc8eafec	-0.01741787
6	0x3e037d51	0.12840773
7	0x3d40947f	0.047016617
8	0xbe5c4fac	-0.21514767
9	0x3dd0abab	0.10188993
10	0x3e1b95fd	0.15193935
11	0x3e5a36a1	0.21309902
12	0x3cb228e5	0.021748016
13	0xbdf2d164	-0.11856344
14	0x3d3dcd2e	0.046338253
15	0x3e25ca2f	0.16190408
16	0x3e183e1d	0.14867444
17	0xbca790be	-0.02045476
18	0xbd9cb91e	-0.07652496
19	0x3c236fc3	0.009975377
20	0xbcfeefa8	-0.031120136
21	0x3c5c7be1	0.013457269
22	0x3cc20fb1	0.023689123
23	0x3e09d1ac	0.1345889
24	0xbd3d24fd	-0.046177853
25	0xbd50808d	-0.050903846
26	0xbe2f07ba	-0.17092791
27	0xbe3aa525	-0.1822706
28	0xbdc5ae33	-0.096523665
29	0x3d805b8f	0.062674634
30	0x3db860cb	0.09002837
31	0xbe459b7e	-0.19297597
32	0xbdfd740a	-0.12375648
33	0xbe25f7fe	-0.16207883
34	0x3d9d6a94	0.07686344
35	0xbd8f0f8e	-0.06985389
36	0x3e3cb27d	0.18427463
37	0xbdad953f	-0.08475732
38	0xbde2891d	-0.110613085
39	0xbcd816d5	-0.026378075
40	0xbe5b6451	-0.21424986
41	0xbe1b1c84	-0.15147597
42	0x3dde648a	0.1085902
43	0xbdc810d4	-0.09768835
44	0x3db00a1b	0.085956775
45	0xbe5932de	-0.2121081
46	0xbe243abf	-0.16038035
47	0xbe4a5a47	-0.19761
48	0x3e35c371	0.17750336
49	0xbd6e5fb3	-0.058196735
50	0xbe4eafa9	-0.20184197
51	0xbcbfcf38	-0.02341424
52	0xbe550a8c	-0.20804805
53	0x3e51edfd	0.20500942
54	0xbe19770a	-0.14986816
55	0x3e43c784	0.19119078
56	0x3c9bafa4	0.01900465
57	0x3d973aa9	0.073842354
58	0xbe56a712	-0.2096217
59	0x3de3d5d1	0.111247666
60	0x3cdb8613	0.02679733
61	0x3e27cbcb	0.16386335
62	0xbdbe7a3d	-0.09300659
63	0xbdc1b6c0	-0.09458685
64	0xbe1595a7	-0.14607869
65	0x3db88ce9	0.090112515
66	0x3b7f6ff3	0.003897664
67	0x3e0c558c	0.13704509
68	0x3bf20a70	0.007386498
69	0x3e469034	0.19390947
70	0xbe014fa8	-0.12628043
71	0x3ddef4a1	0.10886503
72	0xbe0624ff	-0.1310005
73	0x3e54162c	0.20711583
74	0x3e14f686	0.14547166
75	0xbe1b5182	-0.15167812
76	0x3e092b7d	0.13395496
77	0x3d6f4501	0.058415417
78	0xbe2854b6	-0.16438565
79	0x3dfe945d	0.12430642
80	0x3e00f262	0.12592462
81	0x3e12d5af	0.14339326
82	0xbe23900a	-0.15972915
83	0x3d4598a7	0.048241284
84	0x3d7ab999	0.061212156
85	0xbe020a90	-0.12699342
86	0x3e563065	0.20916899
87	0x3e015c29	0.12632813
88	0x3e31219c	0.17297977
89	0xbe51c5a4	-0.2048555
90	0x3dd92842	0.10603382
91	0x3dcb17a4	0.099166185
92	0xbe51ece2	-0.2050052
93	0xbd5548d8	-0.052071422
94	0xbd9cf603	-0.076641105
95	0xbda603dd	-0.081062056
96	0xbdb226d6	-0.086988136
97	0x3de2d82e	0.11076389
98	0x3e5318de	0.20614955
99	0x3dc6f60e	0.097149
100	0x3da8302f	0.08212315
101	0xbc9c37c1	-0.019069554
102	0xbd5148fc	-0.051094994
103	0xbe339eb2	-0.17541006
104	0x3bbe9ceb	0.005817046
105	0xba904a55	-0.0011008481
106	0x3dd17a4a	0.10228403
107	0x3d260223	0.04052938
108	0x3c48e96e	0.012262685
109	0xbe45ce38	-0.19316947
110	0xbda63974	-0.08116427
111	0xbde188ea	-0.110124424
112	0x3a5fadcb	0.0008532672
113	0xbe008851	-0.12552
114	0xbe18612b	-0.14880817
115	0x3d786d6d	0.06065123
116	0xbdbd2f96	-0.09237592
117	0xbcf088e2	-0.029362146
118	0xbc9123ce	-0.017717268
119	0xbc989c7d	-0.018629307
120	0xbd8c8e3f	-0.06863069
121	0x3d16106c	0.036636755
122	0xbe2d5dd0	-0.16930318
123	0x3e42cce7	0.19023477
124	0xbd83fbf0	-0.06444538
125	0x3d7cf829	0.0617601
126	0xbe404aad	-0.18778487
127	0xbd48d32d	-0.049029518
