Assets/Model/TankBrain/TankBrainML/TankBrainML-104832.pt (torch, 522323 bytes, 36 tensors)

network_body._body_endoder.seq_layers.0.weight f4 [128, 32]
-0.16618957 -0.36170635 -0.0754074 0.07286359 0.25329286 -0.0933485 -0.22992145 -0.019635655
-0.11295044 0.29938212 -0.025618374 0.104979984 0.10046243 0.26416752 -0.3541393 -0.097984314
0.14060329 0.12513381 -0.064527154 0.064658135 -0.12938887 0.4443618 0.17040046 -0.12651259
0.13422702 -0.21648394 0.026518602 -0.0227461 0.15134262 0.31644213 0.003836441 0.35358623
-0.022600207 -0.17634341 -0.06858263 0.025269944 -0.107965186 -0.048777953 0.15462713 0.14310597
-0.36153352 0.18653646 -0.18107721 0.19756316 -0.059536293 -0.27481338 0.282211 0.12125615
0.17679547 0.2466579 0.27667508 0.078400634 -0.010126609 0.10160142 -0.18467896 -0.036864176
-0.009997049 -0.16456288 -0.043818474 -0.002274083 0.09545386 0.2601854 -0.119179614 -0.17279023
-0.15486144 0.21503384 -0.13520977 0.27303156 0.15427683 0.119569026 0.06890473 0.2684504
0.001786934 0.21145317 -0.21804376 0.025775032 -0.027575487 -0.036842536 -0.00026652185 0.12721445
-0.2989327 0.22664714 0.2999402 0.12903167 0.17645775 0.2274441 -0.048107058 -0.0845818
-0.075681366 -0.035133906 -0.07940653 0.019120153 0.21744768 -0.16416334 -0.13633923 -0.08694734
-0.25107616 -0.062997356 -0.065725446 -0.14103825 0.0054933 -0.058100086 0.0056544794 0.18865176
0.0066199778 -0.23713987 0.22024342 0.1842699 -0.021836972 0.15346807 0.13917789 0.28959173
-0.048793502 0.1709591 -0.20667705 0.111118056 0.39690158 -0.022611612 -0.12076033 -0.063463904
-0.1789764 0.032154977 -0.10682488 0.031221347 0.33599332 0.09509549 -0.28753155 0.09254087
-0.19757536 -0.16554382 -0.22695303 -0.003454575 0.18442555 0.046251267 0.2714262 -0.15032497
0.3095397 0.24926805 -0.16043639 0.21590392 -0.07869549 -0.055937048 -0.037300702 -0.277541
-0.046611074 0.16077085 -0.04883403 -0.31272122 0.10098966 -0.066855036 -0.15800376 -0.03294529
0.29044494 0.039614256 0.2881004 -0.061224125 -0.22596765 0.19721869 -0.07431996 0.10387292
0.24079707 -0.07683753 -0.0180231 -0.24300441 -0.23935477 0.096573144 -0.19748741 -0.17056169
-0.12854707 0.092778064 -0.08864514 -0.13143857 -0.025276244 -0.0612312 0.109791964 -0.01460243
-0.1045254 0.045416217 -0.28424877 -0.14211337 0.19611341 0.2600765 -0.01876464 0.20341688
-0.04204564 0.14508225 0.022178546 -0.018989043 0.09455016 0.24334578 -0.00020898954 0.13866661
-0.1732997 -0.26837802 0.1590636 0.004653104 -0.14320491 0.33629876 0.16075858 0.14517538
-0.14085922 0.17521997 0.12794365 -0.022286177 -0.014052864 0.095717415 0.112166725 0.08079181
-0.14680584 -0.0004943187 -0.0326503 -0.017577196 0.07243879 -0.039774545 0.4362652 -0.1082905
-0.123935744 0.08641895 -0.057283584 -0.04732987 -0.15615423 0.23813148 -0.06849254 -0.24582376
-0.05869024 0.022774223 0.11765317 -0.2566772 0.22305657 -0.229992 0.0076339482 0.0931044
-0.23383598 0.051471584 -0.18999372 -0.0006226939 0.07043055 0.049855154 0.027304344 -0.23065814
-0.038458038 0.3234086 -0.20195918 -0.1618853 0.13103953 -0.17647287 0.110445045 -0.07250449
0.05812449 0.11087612 -0.40731415 -0.32941663 0.072731994 0.23487024 -0.024684735 0.022156931
00000000: 992d 2abe 9331 b9be 326f 9abd 8239 953d
00000010: 9aaf 813e 802d bfbd 8770 6bbe f4da a0bc
00000020: 8f52 e7bd 9d48 993e a0dd d1bc bfff d63d
00000030: 3fbf cd3d f740 873e bf51 b5be 00ac c8bd
00000040: 4ffa 0f3e 1423 003e d026 84bd 7c6b 843d
00000050: 847e 04be 6483 e33e 757d 2e3e 848c 01be
00000060: cf72 093e f7ad 5dbe 8a3d d93c 0756 babc
00000070: 8ff9 1a3e b404 a23e cd6c 7b3b 4109 b53e
00000080: 1224 b9bc 5e93 34be 0d75 8cbd ea02 cf3c
00000090: da1c ddbd 64cb 47bd 9356 1e3e 5f8a 123e
000000a0: ec1a b9be 6a03 3f3e 4e6c 39be ff4d 4a3e
000000b0: 54dc 73bd 57b4 8cbe f67d 903e 2555 f83d
000000c0: df09 353e e393 7c3e 5ba8 8d3e 8390 a03d
000000d0: 14ea 25bc 6814 d03d 7b1c 3dbe e4fe 16bd
000000e0: aaca 23bc 2c83 28be 007b 33bd c808 15bb
000000f0: 507d c33d 0537 853e 7114 f4bd ecef 30be
00000100: ff93 1ebe d531 5c3e 6e74 0abe cbca 8b3e
00000110: bffa 1d3e 9be0 f43d ec1d 8d3d 5572 893e
00000120: 8e37 ea3a 2e87 583e dd46 5fbe 2926 d33c
00000130: fde5 e1bc 33e8 16bd f5bb 8bb9 8144 023e
00000140: b50d 99be 3016 683e c391 993e e120 043e
00000150: 57b1 343e 1be7 683e e80b 45bd 3939 adbd
00000160: d5fe 9abd 92e8 0fbd e49f a2bd dea1 9c3c
00000170: 9baa 5e3e 6f1a 28be 839c 0bbe 7211 b2bd
00000180: 0e8d 80be c204 81bd 109b 86bd 556c 10be
00000190: 2401 b43b 5bfa 6dbd 3649 b93b ed2d 413e
000001a0: 66ec d83b cbd4 72be 7e87 613e 40b1 3c3e
000001b0: 73e3 b2bc bc26 1d3e a684 0e3e 5e45 943e
000001c0: b2db 47bd e70f 2f3e 26a3 53be dd91 e33d
000001d0: af36 cb3e fd3b b9bc 3151 f7bd 5df9 81bd
000001e0: 9745 37be f0b4 033d 01c7 dabd e9c3 ff3c
000001f0: 5107 ac3e 6dc1 c23d 5637 93be 1186 bd3d
00000200: 3251 4abe 5284 29be 6066 68be 2766 62bb
00000210: 0dda 3c3e f871 3d3d 60f8 8a3e caee 19be
00000220: fd7b 9e3e 2040 7f3e 7049 24be eb15 5d3e
00000230: 1a2b a1bd 3f1e 65bd 9fc8 18bd db19 8ebe
00000240: 41eb 3ebd 1da1 243e 3106 48bd ff1c a0be
00000250: abd3 ce3d 4beb 88bd bdcb 21be a4f1 06bd
00000260: 33b5 943e 8f42 223d e581 933e 26c6 7abd
00000270: 1064 67be b2f3 493e 1035 98bd 53bb d43d
00000280: 8293 763e ff5c 9dbd 2ea5 93bc 26d6 78be
00000290: 6b19 75be 24c8 c53d 243a 4abe b9a7 2ebe
000002a0: d8a1 03be 6d02 be3d 958b b5bd d597 06be
000002b0: 2010 cfbc 91cd 7abd 9cda e03d 083f 6fbc
000002c0: 6a11 d6bd 5b06 3a3d 0e89 91be 2b86 11be
000002d0: f4d1 483e bf28 853e 4db8 99bc 844c 503e
000002e0: 0d38 2cbd 7190 143e c8af b53c e98e 9bbc
000002f0: 84a3 c13d a32f 793e 3424 5bb9 9ffe 0d3e
00000300: 7a75 31be d868 89be 91e1 223e 1179 983b
00000310: 4fa4 12be 5a2f ac3e e69d 243e dba8 143e
00000320: 663d 10be dd6c 333e a903 033e 8091 b6bc
00000330: fc3d 66bc 7e07 c43d abb7 e53d 2d76 a53d
00000340: 4554 16be 2b95 01ba 52bc 05bd 0dfe 8fbc
00000350: ca5a 943d a2ea 22bd 275e df3e 69c7 ddbd
00000360: 06d2 fdbd 6bfc b03d 31a2 6abd f7dc 41bd
00000370: e5e6 1fbe bdd8 733e d145 8cbd 39b9 7bbe
00000380: 2d65 70bd 0291 ba3c 25f4 f03d 326b 83be
00000390: f168 643e 0683 6bbe 3326 fa3b 85ad be3d
000003a0: b372 6fbe ded3 523d b78d 42be 483c 23ba
000003b0: e43d 903d eb34 4c3d 5cad df3c a631 6cbe
000003c0: 2d86 1dbd d095 a53e 63ce 4ebe 43c5 25be
000003d0: 3a2f 063e 4eb5 34be 0331 e23d 3c7d 94bd
000003e0: f213 6e3d 0513 e33d 7b8b d0be 4ca9 a8be
000003f0: 83f4 943d d381 703e a437 cabc 7482 b53c

network_body._body_endoder.seq_layers.0.bias f4 [128]
-0.0022864596 -0.0010002613 0.004805188 0.0011098371 -0.0028049552 -0.001551894 -0.010426637 0.0034241502
-0.00790873 0.0033166246 0.0035948989 -0.000602868 0.0034174854 0.0023458106 0.0024841363 -0.001209718
-0.0031141648 0.0047253217 0.0034809161 0.00073871715 -0.0012063537 -0.0049253833 -0.0037757405 0.0065470026
-0.0002702392 -0.0034233332 0.0043535954 0.0051533403 -0.0013431467 -0.003961762 -0.0047845924 0.002130972
0.003333583 0.0025942598 -0.0009544567 -0.0048386487 0.0008473616 -0.0041140504 0.004395842 -0.0022316829
-0.0017406092 -0.007953061 -0.0026007905 -0.0034266177 0.00068602216 -0.004165592 -0.0007688826 -0.0015089562
-0.0020363107 -0.0037040357 -0.0028278711 -0.020031387 -0.006964793 -0.006173585 -0.0013931957 -0.004744948
0.0008761639 -0.00016131485 0.0030030059 0.0023872221 0.0025883128 0.0012935582 0.0073522096 -0.004118974
-0.000339135 -0.013265308 0.0010324647 -0.0070119123 -0.0026353828 0.003998296 0.0015977129 -0.0070320796
-0.0005597169 -0.014255827 0.003432908 0.0020051538 -0.0009389218 -0.006368804 0.0028637869 -0.0021411972
-0.0003666229 -0.00029022625 0.0014425635 0.0052733836 -0.0077869412 -0.0021851289 4.482747e-05 -0.001205728
0.0018985578 -0.0014040038 -0.0032600202 -0.0062472993 0.0053698784 0.0028830492 -0.0037702697 -0.005549886
0.0024299445 -0.0021793596 -0.00035097857 -0.004877075 -0.0030714131 -0.0030708858 0.0071567027 -0.0026581069
0.0019527656 0.0085523855 -0.00068661594 -0.005466418 -0.0033547904 -0.0071780686 -0.0025525407 -0.004934062
0.0036586649 -0.01227499 0.0063686753 0.0047769905 -0.009035369 -0.000345462 -0.008645483 -0.0059604947
0.00014682251 -0.0009246462 -0.0033665719 0.0023769313 0.0012561658 -0.004429086 -0.007356014 0.00842902
00000000: 6dd8 15bb 331b 83ba d774 9d3b f477 913a
00000010: 57d3 37bb ec68 cbba 7cd4 2abc b567 603b
00000020: 9e93 01bc ba5b 593b 6598 6b3b c909 1eba
00000030: e4f7 5f3b 2cbc 193b e4cc 223b 668f 9eba
00000040: 0417 4cbb dfd6 9a3b 1520 643b 78a6 413a
00000050: 831e 9eba 1c65 a1bb 6a72 77bb 3d88 d63b
00000060: e4ae 8db9 005a 60bb 9ba8 8e3b 5add a83b
00000070: 860c b0ba abd1 81bb 12c8 9cbb c7a7 0b3b
00000080: 3e78 5a3b 7504 2a3b 8134 7aba 878d 9ebb
00000090: 7921 5e3a 28cf 86bb ff0a 903b 6d41 12bb
000000a0: 2725 e4ba 8e4d 02bc 0672 2abb 1b91 60bb
000000b0: 2bd6 333a 857f 88bb d68e 49ba 2bc8 c5ba
000000c0: a073 05bb 68bf 72bb ce53 39bb dd18 a4bc
000000d0: eb38 e4bb c94b cabb e49b b6ba 827b 9bbb
000000e0: 5dae 653a a026 29b9 14ce 443b f172 1c3b
000000f0: afa0 293b 9c8c a93a ceea f03b 75f8 86bb
00000100: eecd b1b9 bc56 59bc c453 873a 2fc4 e5bb
00000110: 63b6 2cbb 2304 833b 596a d13a 5c6d e6bb
00000120: f7b9 12ba 4691 69bc a4fa 603b e668 033b
00000130: fa21 76ba 66b1 d0bb 5fae 3b3b 5453 0cbb
00000140: 4b37 c0b9 8229 98b9 6614 bd3a 59cc ac3b
00000150: 9929 ffbb 6134 0fbb 2105 3c38 8509 9eba
00000160: 07d9 f83a 8d06 b8ba 10a6 55bb 25b6 ccbb
00000170: cef5 af3b 8af1 3c3b a116 77bb d1db b5bb
00000180: b43f 1f3b 96d3 0ebb 8c03 b8b9 dfcf 9fbb
00000190: c349 49bb ea40 49bb c682 ea3b a233 2ebb
000001a0: f1f3 ff3a 4e1f 0c3c 04fe 33ba a31f b3bb
000001b0: 0bdc 5bbb 0136 ebbb 8748 27bb e9ad a1bb
000001c0: 36c6 6f3b 0a1d 49bc 52b0 d03b 4d88 9c3b
000001d0: 1609 14bc 201f b5b9 c9a5 0dbc 4150 c3bb
000001e0: 5ef4 1939 f563 72ba b4a1 5cbb 4ac6 1b3b
000001f0: eea5 a43a de21 91bb b80a f1bb df19 0a3c

network_body._body_endoder.seq_layers.2.weight f4 [128, 128]
0.09603074 0.12576796 -0.08626649 0.05072751 -0.01893977 0.08944236 0.12163257 -0.028283736
-0.025477814 -0.043027952 0.011030091 0.0028884944 -0.08829177 0.031486265 0.050445598 -0.025262095
0.080618896 0.032680668 -0.101130314 -0.04665441 -0.09895621 0.08172526 0.0026862433 0.12670882
-0.12416761 0.051461738 -0.02910488 0.029647326 -0.012089779 0.102037765 0.053763386 -0.026721098
-0.118106864 -0.0062299715 -0.025836004 0.11574126 -0.10951604 -0.0059057334 -0.112472154 -0.0325735
0.13011311 0.016606184 -0.085880935 -0.123831406 0.072019674 0.15547118 0.060409997 0.08863428
-0.06674601 0.009064174 0.10793537 -0.09310935 0.07403784 0.044729143 0.0024307997 0.09513607
0.11923671 0.16981813 -0.08674379 -0.13749243 -0.023654614 -0.02288098 0.042528834 -0.16638294
0.13530743 0.042428527 -0.15068634 -0.085266784 0.1619259 0.10658037 0.09849121 -0.03739459
-0.009576746 0.10295192 -0.20182072 -0.0090802815 -0.08094784 -0.082040876 -0.1060236 -0.044574607
-0.017671745 -0.055912513 -0.040849686 -0.04464356 -0.05617473 -0.02551764 -0.10612433 0.008269902
0.19289519 0.05296994 0.05044738 -0.04722599 -0.10300156 -0.00032551037 0.018821957 -0.05943884
-0.0023476481 0.09941219 -0.02323025 0.056296565 -0.06797555 0.08295584 -0.044652298 -0.040587496
0.0013976357 -0.03413528 0.007747891 -0.11877828 0.011709063 0.002483832 -0.036241695 0.14571953
0.09819582 0.006043968 0.022531936 -0.026356615 -0.12847006 0.020687465 0.29797593 0.08551041
-0.007625414 -0.026403327 0.003415213 -0.03771456 -0.0015689733 -0.039578076 -0.07979568 0.0824481
0.049352407 -0.00693109 -0.016292185 0.05279106 -0.027107283 0.11951745 0.054048575 0.023783593
0.32483593 -0.041029774 0.13911687 0.13400307 0.019543888 0.037136998 0.106498644 0.008263895
0.055988904 0.11127375 0.07117869 -0.17109253 -0.08191343 0.016979137 -0.006234711 -0.0063827573
0.012348996 -0.08153501 -0.034931384 -0.14748706 0.008315721 -0.14253001 -0.04256268 0.007174635
0.09147382 -0.16448225 0.1016951 -0.14227156 0.13304983 0.0028209507 -0.13354497 -0.027406087
0.04378744 -0.036140636 -0.04804477 0.12236429 0.0010665933 0.055398885 -0.0050153024 0.08194343
0.1328532 0.028143508 0.019166537 -0.0064764307 0.04355382 0.06066855 0.06691103 -0.1128443
-0.066320695 0.028770935 -0.055513453 -0.010397067 -0.01278556 -0.059866212 0.08722954 -0.083828054
-0.1534542 0.10298923 0.047796953 -0.0036674077 -0.030918814 -0.042978406 -0.071660064 -0.13402876
-0.033225365 -0.13081722 -0.102664456 -0.056049347 -0.07110808 -0.14427686 0.08648096 0.09709375
0.08653668 0.03309841 0.09570704 0.05091563 0.031912684 0.06714688 -0.114927486 -0.011898951
0.050014865 -0.13885441 0.1111829 -0.029450268 0.01887112 -0.0024870334 0.042081617 0.08626619
-0.071845986 -0.15849242 -0.027507951 -0.16608903 0.09106266 0.06357392 0.03181632 0.047548898
0.10069079 0.11736535 -0.12637803 -0.04454127 -0.070448935 0.05376853 -0.02906394 0.099100366
-0.15237547 -0.064785235 -0.10723588 -0.08161408 0.088119924 0.0075315745 0.026409809 0.05043404
-0.06296527 -0.043840706 0.022428177 -0.072901286 0.06322258 0.10310186 0.10597358 0.06261164
00000000: c4ab c43d 51c9 003e 7cac b0bd a6c7 4f3d
00000010: 9427 9bbc 8e2d b73d 7f1a f93d 4bb3 e7bc
00000020: d9b6 d0bc 143e 30bd 8eb7 343c e54c 3d3b
00000030: 51d2 b4bd bef7 003d 0ba0 4e3d 74f2 cebc
00000040: 851b a53d 2adc 053d 691d cfbd b218 3fbd
00000050: 8ea9 cabd 935f a73d af0b 303b f5bf 013e
00000060: 974b febd 8bc9 523d 5b6d eebc f3de f23c
00000070: 3514 46bc 2df9 d03d ff36 5c3d 34e6 dabc
00000080: 03e2 f1bd ca24 ccbb 07a6 d3bc c109 ed3d
00000090: f249 e0bd e284 c1bb cd57 e6bd ca6b 05bd
000000a0: 5f3c 053e b109 883c 58e2 afbd 529b fdbd
000000b0: 0d7f 933d d633 1f3e 7970 773d e485 b53d
000000c0: 22b2 88bd e781 143c 380d dd3d 1db0 bebd
000000d0: 27a1 973d e835 373d 0d4e 1f3b b3d6 c23d
000000e0: 6032 f43d cee4 2d3e baa6 b1bd d1ca 0cbe
000000f0: 52c7 c1bc e570 bbbc b732 2e3d 4a60 2abe
00000100: 088e 0a3e 89c9 2d3d 854d 1abe 5aa0 aebd
00000110: e7cf 253e cf46 da3d c2b5 c93d 122b 19bd
00000120: c9e7 1cbc 75d8 d23d 17aa 4ebe 76c5 14bc
00000130: fbc7 a5bd 0c05 a8bd e722 d9bd dd93 36bd
00000140: 56c4 90bc 8504 65bd 0052 27bd 2adc 36bd
00000150: 7917 66bd 5f0a d1bc b657 d9bd 7c7e 073c
00000160: 5186 453e 02f7 583d e9a1 4e3d 0a70 41bd
00000170: 7bf2 d2bd 43a9 aab9 8130 9a3c 2476 73bd
00000180: 00db 19bb 9e98 cb3d 5e4d bebc 3a97 663d
00000190: c436 8bbd c0e4 a93d 54e5 36bd 133f 26bd
000001a0: df30 b73a 6fd1 0bbd 05e2 fd3b 0742 f3bd
000001b0: 5fd7 3f3c c9c7 223b 2c72 14bd 8037 153e
000001c0: e41a c93d 7a0c c63b e594 b83c d4e9 d7bc
000001d0: a88d 03be c278 a93c 4d90 983e 1520 af3d
000001e0: 9cde f9bb ca4b d8bc c4d1 5f3b 957a 1abd
000001f0: 02a6 cdba 9f1c 22bd eb6b a3bd 8dda a83d
00000200: c025 4a3d 321e e3bb 3077 85bc 703b 583d
00000210: 1810 debc 91c5 f43d 0a62 5d3d cfd5 c23c
00000220: e550 a63e d60e 28bd a774 0e3e 1a38 093e
00000230: 811a a03c f71c 183d f61b da3d 4a65 073c
00000240: 9f54 653d 7ee3 e33d 22c6 913d e132 2fbe
00000250: 3ac2 a7bd d517 8b3c 8c4c ccbb 7326 d1bb
00000260: 7153 4a3c d4fb a6bd 3614 0fbd d906 17be
00000270: a93e 083c 63f3 11be 3456 2ebd 3319 eb3b
00000280: a056 bb3d 096e 28be 8545 d03d a3af 11be
00000290: 373e 083e b3df 383b 03c0 08be bb82 e0bc
000002a0: 755a 333d 3408 14bd 98ca 44bd 219a fa3d
000002b0: efcc 8b3a f1e9 623d 6857 a4bb f5d1 a73d
000002c0: ab0a 083e 378d e63c 2403 9d3c 3d38 d4bb
000002d0: 7e65 323d 967f 783d a608 893d ea1a e7bd
000002e0: 25d3 87bd 06b1 eb3c 1362 63bd 7658 2abc
000002f0: 877a 51bc 4636 75bd 67a5 b23d 0bae abbd
00000300: 1923 1dbe 04ec d23d bdc6 433d e458 70bb
00000310: 7449 fdbc 200a 30bd 83c2 92bd d63e 09be
00000320: 5217 08bd f3f4 05be be41 d2bd 0094 65bd
00000330: 1da1 91bd 50bd 13be ee1c b13d 17d9 c63d
00000340: 253a b13d 3392 073d 0d02 c43d e88c 503d
00000350: e0b6 023d 4e84 893d 1a5f ebbd d1f3 42bc
00000360: 63dc 4c3d da2f 0ebe dcb3 e33d b041 f1bc
00000370: 9b97 9a3c 7ffd 22bb c65d 2c3d 54ac b03d
00000380: fd23 93bd d64b 22be 5b58 e1bc 3e13 2abe
00000390: 0f7f ba3d 0b33 823d d451 023d a2c2 423d
000003a0: f936 ce3d 3f5d f03d 3e69 01be e870 36bd
000003b0: 8847 90bd 643c 5c3d 8017 eebc 22f5 ca3d
000003c0: 5108 1cbe 1fae 84bd 7c9e dbbd 4825 a7bd
000003d0: 3878 b43d 6dcb f63b 6259 d83c ed93 4e3d
000003e0: eff3 80bd 5092 33bd 4cbb b73c 454d 95bd
000003f0: d77a 813d 1127 d33d ad08 d93d 883a 803d

network_body._body_endoder.seq_layers.2.bias f4 [128]
-0.0040186406 0.004458604 0.003267386 -0.00094402215 0.0045044865 0.00023611607 -0.0019472894 0.0002320788
-0.002292274 0.00531648 -0.0011201174 -0.0075441864 -0.00020378124 -0.0021940153 -0.0030576305 0.0011974134
0.0030973852 -0.00022886306 -0.0008184151 -0.0010630385 0.006185519 -0.005142851 0.0029887196 -0.010660816
0.0077897036 -0.0040947776 0.003019614 0.0055141486 0.0029013457 -0.008555595 -0.0014302972 -0.0053865686
-0.005939158 0.0008657949 0.00052352797 -0.0054375394 0.0052378452 0.0024310278 0.007049725 0.0029901883
0.0032465716 -0.003219036 -0.0039195907 -0.0054026097 -0.003210644 0.006925119 -0.002978527 -0.008007208
0.000562703 0.0052190605 0.0011626617 -0.0013776252 -0.0016693067 -0.0018370796 0.0039932868 -0.0045704865
-0.0033373823 -0.0016088362 0.0045142104 -0.00039997895 -0.0018507794 0.00093178946 0.007048465 0.003942468
-0.002757909 -0.0077503957 -0.001265951 -0.008723357 -0.0015758537 -0.0014860143 0.0025012086 0.0029911646
-0.0038005232 0.005005935 0.0020293572 0.004594232 -0.00067089027 -0.0045103645 -0.0005433193 -0.0031806557
0.0015721367 0.00089444383 -0.005353497 0.014138932 -0.00324857 0.0061182105 0.004411559 -0.000896271
-0.0067737023 -0.005814748 0.003508766 -0.000560972 0.004769849 0.005754194 0.008461714 -0.0049220305
0.0005373497 -0.0036727411 0.0026142823 -0.00013335921 0.0037539145 -0.006310682 0.006980153 -0.0064909663
0.0004790508 -0.008004559 -0.004136841 0.004199856 0.0053695356 -0.0016470595 0.006266472 0.008101233
0.0055456758 0.005296049 -0.0005079785 -0.00782159 0.0006433027 -0.0065194084 -0.0047352584 0.004022014
-0.003333759 0.0051510134 -0.0013540918 0.0031068604 0.004440684 -0.0014973403 0.002302687 -0.006973689
00000000: cdae 83bb 7b19 923b a421 563b 4178 77ba
00000010: 5f9a 933b ed95 7739 313c ffba 2e5a 7339
00000020: fa39 16bb de35 ae3b e7d0 92ba 3935 f7bb
00000030: 1cae 55b9 78c9 0fbb 8762 48bb 87f2 9c3a
00000040: 80fd 4a3b f6fa 6fb9 e88a 56ba a755 8bba
00000050: e5af ca3b 5c85 a8bb 65de 433b b4aa 2ebc
00000060: c540 ff3b 7c2d 86bb b7e4 453b 08b0 b43b
00000070: 8124 3e3b c42c 0cbc cf78 bbba d081 b0bb
00000080: 459d c2bb 83f6 623a 5e3d 093a 632d b2bb
00000090: 3ba2 ab3b e151 1f3b 6101 e73b 09f7 433b
000000a0: 6fc4 543b 76f6 52bb e96f 80bb 6008 b1bb
000000b0: ab69 52bb 1cec e23b 6433 43bb aa30 03bc
000000c0: 5c82 133a a704 ab3b 7464 983a 6e91 b4ba
000000d0: a3cc daba 2aca f0ba 1eda 823b 05c4 95bb
000000e0: fcb7 5abb 96df d2ba f1eb 933b 44b4 d1b9
000000f0: da95 f2ba 5543 743a cff6 e63b d22f 813b
00000100: 09be 34bb 08f7 fdbb 44ee a5ba 69ec 0ebc
00000110: e08c ceba 5ec6 c2ba 51eb 233b 6a07 443b
00000120: 3312 79bb d408 a43b f7fe 043b 368b 963b
00000130: afde 2fba aecb 93bb 8a6d 0eba 8c72 50bb
00000140: 2710 ce3a 1c79 6a3a 636c afbb fba6 673c
00000150: f6e5 54bb 457b c83b d78e 903b bbf3 6aba
00000160: eff5 ddbb a489 bebb 53f3 653b 320e 13ba
00000170: 654c 9c3b ae8d bc3b 00a3 0a3c fc48 a1bb
00000180: eedc 0c3a 5fb2 70bb 6154 2b3b 57d6 0bb9
00000190: 3c04 763b d6c9 cebb c4b9 e43b 2cb2 d4bb
000001a0: 1c29 fb39 8e25 03bc 568e 87bb f29e 893b
000001b0: eef2 af3b 25e2 d7ba fa56 cd3b 09bb 043c
000001c0: 80b8 b53b 7b8a ad3b dc29 05ba 2026 00bc
000001d0: 50a3 283a c3a0 d5bb 3a2a 9bbb 19cb 833b
000001e0: 327b 5abb d5c9 a83b c87b b1ba 789c 4b3b
000001f0: 2883 913b 6742 c4ba ade8 163b 8b83 e4bb

action_model._continuous_distribution.log_sigma f4 [1, 2]
-0.003021061 0.004931949
00000000: fefc 45bb 309c a13b

action_model._continuous_distribution.mu.weight f4 [2, 128]
-0.010774745 -0.0010077547 -0.007273704 -0.02385082 0.006951218 -0.020155083 -0.025935149 -0.031809136
0.002779369 0.008842825 0.008336834 -0.0038038644 0.016616099 -0.020852035 0.022142319 0.024882898
0.007956696 -0.009916055 0.015020292 0.016242128 0.012402181 0.00071154453 -0.0022772378 -0.024712535
0.0070799543 0.006587887 0.0005315836 0.026673533 0.010249623 -0.012987325 -0.0507617 -0.004688518
-0.0073340074 -0.005300013 0.021887476 -0.016944552 0.0134965535 0.011653774 -0.0011387112 -0.02202341
0.034766164 -0.0195413 -0.020632047 -0.009551438 0.024182428 0.036726724 0.010641713 -0.0068097445
-0.0073515405 0.008354943 0.022226071 0.016387498 0.03313268 -0.00234055 0.00034387058 -0.0004994871
0.01818229 0.007138231 0.02861526 -0.010909356 -0.030680643 0.013438404 0.015342826 0.0014766593
-0.0105794035 -0.007666699 0.031238146 0.002284249 0.0059911846 0.025963692 -0.016040958 -0.0050888862
-0.009257636 0.0032949075 -0.02289446 -0.0062409644 0.031372465 -0.009820875 0.0010951323 0.01745136
-0.0058667776 0.018376451 -0.018273547 0.038889453 0.021850288 0.013139977 0.013999281 -0.015907658
-0.0028091115 -0.0017116736 0.0007521708 0.022568284 0.010272157 0.010049398 0.028699158 -0.0073588095
-0.05232048 -0.006401145 -0.0076115592 -0.03803369 0.014346306 -0.010608566 0.015065064 0.0014026959
0.035424404 -0.013325203 -0.00040670158 0.011020857 0.005965181 -0.023226924 0.0104990965 0.0319811
0.015392632 0.023043422 -0.03117876 -0.023537539 -0.009147195 -0.011403822 -0.02312911 0.01657466
0.0039606798 0.024170348 -0.013815014 -0.00041327355 -0.004583554 -0.022715906 0.007924972 -0.017541239
-0.025782205 0.011401449 0.027739227 0.0113283135 0.03519893 0.011913104 0.011250341 0.011969896
-0.034013897 0.04204381 -0.023377812 0.0043788305 -0.009158374 0.010119382 -0.03230769 0.015907686
0.021622628 0.005630528 0.00025321203 0.0067713903 0.024408983 0.007438008 0.029716194 -0.007195195
0.041477565 -0.0028852737 0.02388532 0.035589658 0.021698508 -0.007819786 0.0059529226 -0.015469159
0.008941144 0.017731493 -0.022619478 -0.017328916 0.024193827 0.017638085 0.002799373 0.025877796
-0.009749949 0.02207895 -0.005834614 0.00051995 -0.0015659939 0.0450161 0.005708631 -0.008736222
0.014773938 0.026644267 -0.0012587762 0.0012208167 -0.0116460025 -0.023534598 0.027372373 -0.03781179
-0.028930118 -0.03729287 0.007047444 0.0068736346 0.011569556 0.01817681 0.0056967908 0.022708464
0.011049897 0.0055764527 -0.043065216 -0.010088382 -0.003417764 -0.01126755 0.031062718 0.016935129
-0.028714472 0.04044916 0.03221663 0.02877456 -0.024377597 -0.0036024384 -0.045939486 -0.00911819
0.02207624 0.017388571 0.0046571763 0.020852247 -0.04661423 0.026189733 0.03773117 0.01335309
-0.006118342 -0.016426617 0.029275497 -0.033564698 0.0076545128 0.031682786 0.030352829 -0.02717705
0.00030444912 0.0022709998 0.03776342 0.020131443 0.031511124 -0.0154140275 0.032846212 0.007104413
0.03402165 -0.0032218648 -0.022619298 0.029832829 0.011940048 -0.03128115 0.017077465 0.047045667
0.021842739 0.019692652 0.017938359 -0.029812064 0.011379619 -0.010873805 0.007615165 0.025860088
-0.002623262 0.03140204 0.010985453 0.042385742 0.016736502 -0.010630834 0.021699358 -0.0034597286
00000000: 8e88 30bc a316 84ba 4058 eebb cb62 c3bc
00000010: 0bc7 e33b 461c a5bc f375 d4bc 4c4a 02bd
00000020: 1326 363b 7fe1 103c 3797 083c 414a 79bb
00000030: 7c1e 883c e3d1 aabc cf63 b53c 38d7 cb3c
00000040: cd5c 023c f376 22bc ac17 763c 360e 853c
00000050: 8432 4b3c f286 3a3a b63d 15bb f171 cabc
00000060: f6fe e73b 34df d73b f959 0b3a 7482 da3c
00000070: 09ee 273c cac8 54bc 80eb 4fbd 24a2 99bb
00000080: 1d52 f0bb bbab adbb 5d4d b33c 4dcf 8abc
00000090: a620 5d3c 79ef 3e3c cf40 95ba 706a b4bc
000000a0: f766 0e3d 1415 a0bc 8a04 a9bc a27d 1cbc
000000b0: 3a1a c63c c36e 163d 945a 2e3c 4724 dfbb
000000c0: 31e5 f0bb 2ce3 083c 7313 b63c 133f 863c
000000d0: 22b6 073d ea63 19bb 8749 b439 03f0 02ba
000000e0: 07f3 943c d2e7 e93b 8d6a ea3c 28bd 32bc
000000f0: f955 fbbc c02c 5c3c 7a60 7b3c 778c c13a
00000100: 3c55 2dbc ef38 fbbb 24e7 ff3c 57b3 153b
00000110: b351 c43b cfb1 d43c 5468 83bc acc0 a6bb
00000120: 57ad 17bc 60ef 573b 2a8d bbbc 0181 ccbb
00000130: 6a80 003d bce7 20bc 8b8a 8f3a 28f6 8e3c
00000140: 193e c0bb 368a 963c 68b2 95bc 8c4a 1f3d
00000150: 60ff b23c 0f49 573c 3e5d 653c c750 82bc
00000160: 1219 38bb 3c5a e0ba 542d 453a 1fe1 b83c
00000170: 8d4c 283c 3ba6 243c 7f1a eb3c 2b22 f1bb
00000180: 004e 56bd b2c0 d1bb 636a f9bb 37c9 1bbd
00000190: c50c 6b3c 8dcf 2dbc 75d3 763c aada b73a
000001a0: 2e19 113d f451 5abc 903a d5b9 d390 343c
000001b0: 9177 c33b 6446 bebc 6704 2c3c 9dfe 023d
000001c0: 6131 7c3c 8fc5 bc3c 996a ffbc ccd1 c0bc
000001d0: 1ede 15bc 19d7 3abc 4279 bdbc 95c7 873c
000001e0: 97c8 813b e500 c63c 5e58 62bc a3ac d8b9
000001f0: a331 96bb b516 babc bed7 013c a5b2 8fbc
00000200: 3435 d3bc 25cd 3a3c 603d e33c 649a 393c
00000210: c12c 103d 2e2f 433c 5a53 383c 621d 443c
00000220: 2852 0bbd 2136 2c3d d382 bfbc 4b7c 8f3b
00000230: 010d 16bc c4cb 253c 1155 04bd d650 823c
00000240: f021 b13c 4b80 b83b 8bc1 8439 8ae2 dd3b
00000250: 59f5 c73c 89ba f33b 606f f33c acc5 ebbb
00000260: 61e4 293d dc16 3dbb 26ab c33c 76c6 113d
00000270: 12c1 b13c 8f1e 00bc bc10 c33b 5b72 7dbc
00000280: e07d 123c a341 913c 7c4c b9bc 5ff5 8dbc
00000290: 2232 c63c bf7d 903c af75 373b acfd d33c
000002a0: 40be 1fbc eade b43c 4a30 bfbb 414d 083a
000002b0: 0942 cdba cd62 383d 780f bb3b 5f22 0fbc
000002c0: 630e 723c 1445 da3c 85fd a4ba d003 a03a
000002d0: e0ce 3ebc a1cb c0bc 073c e03c 89e0 1abd
000002e0: dbfe ecbc 69c0 18bd 3fee e63b 3a3c e13b
000002f0: 3c8e 3d3c 89e7 943c 25ac ba3b 1a07 ba3c
00000300: a10a 353c adba b63b 2765 30bd be49 25bc
00000310: 91fc 5fbb 889b 38bc 3e77 fe3c 8abb 8a3c
00000320: 9d3a ebbc 05ae 253d 96f5 033d a0b8 eb3c
00000330: 87b3 c7bc e316 6cbb 0b2b 3cbd 7664 15bc
00000340: 3bd9 b43c 7a72 8e3c 3a9b 983b 55d2 aa3c
00000350: 90ee 3ebd da8b d63c 008c 1a3d ebc6 5a3c
00000360: 5f7c c8bb 1d91 86bc 2bd3 ef3c 237b 09bd
00000370: b5d2 fa3b cfc5 013d 7fa6 f83c 68a2 debc
00000380: 789e 9f39 0ed5 143b d1ad 1a3d b2ea a43c
00000390: cf11 013d 1e8b 7cbc c089 063d 23cc e83b
000003a0: 495a 0b3d ec25 53bb 1b4c b9bc fa63 f43c
000003b0: 31a0 433c aa20 00bd 0ae6 8b3c f5b2 403d
000003c0: 8bef b23c 7c52 a13c 77f3 923c 6e38 f4bc
000003d0: 9571 3a3c 0b28 32bc a288 f93b 89d8 d33c
000003e0: 08eb 2bbb 6d9f 003d 54fc 333c ac9c 2d3d
000003f0: fd1a 893c f32c 2ebc dac2 b13c 9dbc 62bb

action_model._continuous_distribution.mu.bias f4 [2]
0.0015616618 0.0045466917
00000000: adb0 cc3a 6afc 943b

exp_avg f4 [128, 32]
0.0 -2.0776306e-05 3.414858e-07 -3.4850016e-06 0.0 -2.4273932e-05 -1.0364272e-07 -4.2146885e-06
0.0 -2.4625184e-05 1.0417066e-06 -6.5615e-07 0.0 -1.4585016e-05 -1.1874462e-06 -5.18984e-06
0.0 -2.5578516e-05 1.0418702e-06 -1.9341744e-06 0.0 -1.783344e-05 -6.9164076e-07 -7.4726154e-06
0.0 -2.5939626e-05 1.6794258e-06 -8.226619e-06 4.679432e-05 -3.7234322e-06 -5.869989e-05 -1.1900214e-05
0.0 3.3402298e-06 -8.6369374e-07 3.5537295e-07 0.0 4.122259e-06 -6.7523155e-07 4.989491e-07
0.0 4.969389e-06 -8.551927e-07 -4.4374804e-07 0.0 2.6945552e-06 4.7334035e-07 9.388177e-07
0.0 5.6645604e-06 -8.552301e-07 -3.5980418e-07 0.0 3.8304747e-06 4.2985258e-07 1.5060612e-06
0.0 4.919626e-06 -1.0645344e-06 4.5027338e-07 -6.5708437e-06 3.5607115e-06 8.79231e-06 2.2490337e-06
0.0 -8.024921e-06 2.3639566e-05 1.835862e-05 0.0 -5.414539e-06 2.368361e-05 1.788394e-05
0.0 -6.615487e-06 2.3682049e-05 1.7733853e-05 0.0 -9.888809e-06 2.4700232e-05 1.4890458e-05
0.0 -8.914777e-06 2.3682107e-05 1.9748833e-05 0.0 2.2868126e-06 1.8933031e-05 7.951062e-06
0.0 1.581543e-06 1.649196e-05 2.1869559e-05 0.0007941408 4.227023 5.2407093e-05 7.544323e-06
0.0 1.5037324e-06 -1.2827408e-07 7.8696225e-08 0.0 1.3748896e-06 -1.04323405e-07 1.0228217e-07
0.0 1.034577e-06 -5.4701474e-08 1.5307515e-07 0.0 1.5692506e-06 -1.5567639e-07 2.5257327e-07
0.0 7.023362e-07 -5.470507e-08 6.0081526e-08 0.0 5.9771077e-07 2.9917356e-07 7.428553e-07
0.0 -1.08676915e-07 -1.0296068e-07 -3.0665265e-07 2.336184e-06 3.8041842e-06 -9.865464e-07 1.6690274e-07
0.0 -1.0115603e-05 1.0910303e-06 -5.836434e-06 0.0 -1.159753e-05 7.217988e-07 -6.5987724e-06
0.0 -1.0294644e-05 1.6217691e-06 -2.9901519e-06 0.0 -1.6743259e-05 -3.9500094e-07 -1.10071305e-05
0.0 -1.5178383e-05 1.6218498e-06 -8.94295e-07 0.0 -2.273772e-06 -7.620607e-06 -2.0277595e-05
0.0 -7.2177954e-06 -1.1791283e-06 -1.5997604e-07 1.8154607e-05 -2.9062157e-06 -3.2174026e-05 -7.518416e-06
0.0 -2.3124442e-06 1.9135923e-07 -2.498114e-07 0.0 -3.4015882e-06 1.6530369e-07 -3.055473e-07
0.0 -3.3990068e-06 2.1543282e-07 2.0283524e-07 0.0 -2.8146437e-06 -2.7361986e-07 -4.4020183e-07
0.0 -4.3379528e-06 2.1543998e-07 5.702325e-08 0.0 -4.000559e-06 -3.02785e-08 -8.7851197e-07
0.0 -4.528741e-06 9.1970765e-07 -8.1313345e-07 1.1207869e-05 -1.8860866e-06 -1.0087543e-05 -2.0765294e-06
0.0 7.1525114e-06 -3.0801368e-07 2.5434663e-06 0.0 6.145267e-06 -2.1620667e-07 2.5038441e-06
0.0 5.2628343e-06 -2.8043533e-07 1.4070056e-06 0.0 6.5668614e-06 1.1972809e-06 3.8361563e-06
0.0 4.5529337e-06 -2.8050286e-07 1.1977603e-06 0.0 5.6284707e-06 1.645382e-06 5.8008713e-06
0.0 3.2428475e-06 9.3143063e-07 1.6115837e-06 -4.103813e-06 1.5849847e-06 1.7654495e-05 3.3979077e-06
0.0 9.59903e-07 3.4954567e-07 1.0119386e-06 0.0 -5.462927e-07 3.0861653e-07 1.1314694e-06
0.0 -3.0259641e-06 2.6108347e-07 1.078408e-06 0.0 1.915137e-06 8.406638e-08 1.8930755e-06
0.0 -3.885708e-06 2.610832e-07 3.858408e-07 0.0 -2.2973022e-06 2.3089667e-06 3.280006e-06
0.0 -4.106756e-06 3.0911107e-07 -1.1791248e-06 1.5113938e-05 -3.4521522e-06 -3.984162e-06 -1.3310031e-06
00000000: 0000 0000 c748 aeb7 7355 b734 dfdf 69b6
00000010: 0000 0000 df9f cbb7 3092 deb3 e66b 8db6
00000020: 0000 0000 2e92 ceb7 c4d0 8b35 4922 30b5
00000030: 0000 0000 2bb2 74b7 5760 9fb5 6324 aeb6
00000040: 0000 0000 7291 d6b7 63d6 8b35 ddcc 01b6
00000050: 0000 0000 0599 95b7 31a9 39b5 47bd fab6
00000060: 0000 0000 ec98 d9b7 a268 e135 0f05 0ab7
00000070: 0545 4438 14e0 79b6 8734 76b8 08a7 47b7
00000080: 0000 0000 b628 6036 95d8 67b5 16ca be34
00000090: 0000 0000 ef51 8a36 8f41 35b5 85ef 0535
000000a0: 0000 0000 babe a636 6590 65b5 443c eeb4
000000b0: 0000 0000 1bd4 3436 671f fe34 1003 7c35
000000c0: 0000 0000 3412 be36 f792 65b5 1c2b c1b4
000000d0: 0000 0000 8787 8036 7dc6 e634 de23 ca35
000000e0: 0000 0000 4413 a536 20e1 8eb5 1abd f134
000000f0: 1e7b dcb6 8ff4 6e36 af82 1337 1bee 1636
00000100: 0000 0000 c6a2 06b7 954d c637 d600 9a37
00000110: 0000 0000 89ae b5b6 2aac c637 7805 9637
00000120: 0000 0000 9afa ddb6 d0a8 c637 29c3 9437
00000130: 0000 0000 1ce8 25b7 5833 cf37 08d2 7937
00000140: 0000 0000 ad90 15b7 f0a8 c637 4caa a537
00000150: 0000 0000 2477 1936 60d2 9e37 8d65 0537
00000160: 0000 0000 6745 d435 3758 8a37 8574 b737
00000170: e32d 503a c643 8740 b0cf 5b38 3e25 fd36
00000180: 0000 0000 dad3 c935 b6bb 09b4 b5ff a833
00000190: 0000 0000 d988 b835 6608 e0b3 38a6 db33
000001a0: 0000 0000 ccdb 8a35 e8f0 6ab3 fa5c 2434
000001b0: 0000 0000 0a9f d235 0028 27b4 6899 8734
000001c0: 0000 0000 2d88 3c35 dcf4 6ab3 2b06 8133
000001d0: 0000 0000 5f72 2035 1a9e a034 a168 4735
000001e0: 0000 0000 c461 e9b3 3c1b ddb3 05a2 a4b4
000001f0: 56c7 1c36 634b 7f36 7a69 84b5 e035 3334
00000200: 0000 0000 2fb6 29b7 846f 9235 96d6 c3b6
00000210: 0000 0000 0393 42b7 a3c1 4135 066b ddb6
00000220: 0000 0000 29b7 2cb7 90ab d935 6baa 48b6
00000230: 0000 0000 e073 8cb7 8410 d4b4 44ab 38b7
00000240: 0000 0000 a9a6 7eb7 56ae d935 7c0f 70b5
00000250: 0000 0000 1b97 18b6 84b4 ffb6 ce19 aab7
00000260: 0000 0000 6430 f2b6 8a42 9eb5 e1c5 2bb4
00000270: b94a 9837 6808 43b6 99f2 06b8 b446 fcb6
00000280: 0000 0000 7d2f 1bb6 6d78 4d34 d11d 86b4
00000290: 0000 0000 d746 64b6 557e 3134 1a0a a4b4
000002a0: 0000 0000 7e1a 64b6 b951 6734 edca 5934
000002b0: 0000 0000 36e3 3cb6 07e6 92b4 e154 ecb4
000002c0: 0000 0000 bb8e 91b6 b153 6734 bae9 7433
000002d0: 0000 0000 8a3c 86b6 900b 02b3 e2d2 6bb5
000002e0: 0000 0000 97f5 97b6 d4e1 7635 1b46 5ab5
000002f0: 6e09 3c37 7125 fdb5 ab3d 29b7 815a 0bb6
00000300: 0000 0000 9bff ef36 145d a5b4 6bb0 2a36
00000310: 0000 0000 7133 ce36 7026 68b4 b707 2836
00000320: 0000 0000 6797 b036 bd8e 96b4 58d8 bc35
00000330: 0000 0000 e958 dc36 42b2 a035 55b8 8036
00000340: 0000 0000 67c5 9836 0598 96b4 bbc2 a035
00000350: 0000 0000 32dc bc36 e5d6 dc35 1ba5 c236
00000360: 0000 0000 b29f 5936 6d07 7a35 984d d835
00000370: 7cb3 89b6 a9bb d435 bd18 9437 9c07 6436
00000380: 0000 0000 04d6 8035 31a9 bb34 f2d1 8735
00000390: 0000 0000 f3a4 12b5 efaf a534 fedc 9735
000003a0: 0000 0000 ab11 4bb6 0a2b 8c34 d1bd 9035
000003b0: 0000 0000 ce85 0036 fb87 b433 9415 fe35
000003c0: 0000 0000 fa61 82b6 002b 8c34 8e25 cf34
000003d0: 0000 0000 5a2b 1ab6 bff3 1a36 131e 5c36
000003e0: 0000 0000 c4cc 89b6 e7f3 a534 6b42 9eb5
000003f0: df91 7d37 86ab 67b6 b1af 85b6 eba4 b2b5

exp_avg_sq f4 [128, 32]
0.0 1.2316854e-08 2.8268216e-10 1.192026e-09 0.0 1.1368097e-08 2.0696027e-10 9.403976e-10
0.0 1.1987057e-08 1.855321e-10 1.2598412e-09 0.0 1.0996627e-08 1.865342e-10 1.1926276e-09
0.0 9.870961e-09 4.083644e-10 1.9781503e-09 0.0 9.8872945e-09 6.03371e-10 2.3459632e-09
0.0 6.7450876e-09 1.7513938e-09 3.8466528e-09 9.3606e-08 1.4328363e-10 8.534648e-08 3.910319e-09
0.0 1.803033e-10 4.3156374e-11 6.639392e-11 0.0 1.4782923e-10 4.3041216e-11 6.332764e-11
0.0 1.8786978e-10 2.371971e-11 4.2270226e-11 0.0 1.1162462e-10 6.465975e-11 6.743679e-11
0.0 1.5843026e-10 3.3753795e-11 4.8292637e-11 0.0 1.0150691e-10 6.084412e-11 7.5694215e-11
0.0 1.4124112e-10 4.5369267e-11 6.6374906e-11 1.8286915e-09 1.1480229e-11 1.3847484e-09 6.4986176e-11
0.0 5.1669304e-09 4.2688264e-10 8.745028e-10 0.0 4.989243e-09 4.3639198e-10 8.212785e-10
0.0 4.887486e-09 3.9591322e-10 8.136668e-10 0.0 4.7191753e-09 5.1959e-10 9.518726e-10
0.0 4.599249e-09 5.0620746e-10 1.001098e-09 0.0 4.4498285e-09 6.539467e-10 1.5041016e-09
0.0 3.0722924e-09 8.5490537e-10 1.7631503e-09 0.00013173523 1424.3893 3.5357743e-08 1.7651695e-09
0.0 7.932841e-10 3.451973e-11 6.9466495e-11 0.0 8.16335e-10 3.0232872e-11 6.097112e-11
0.0 7.65417e-10 3.0700092e-11 6.341459e-11 0.0 8.044658e-10 2.7532905e-11 7.7618245e-11
0.0 6.659597e-10 1.5206976e-11 7.454148e-11 0.0 7.658093e-10 4.310084e-11 1.5441375e-10
0.0 4.997252e-10 4.413451e-11 1.4688169e-10 1.6370002e-08 5.869882e-11 4.5371706e-09 2.437139e-10
0.0 2.0007127e-09 1.9008985e-11 2.0460468e-10 0.0 1.7414801e-09 1.733551e-11 1.4932605e-10
0.0 1.9806703e-09 1.2491633e-11 2.1994458e-10 0.0 1.6913453e-09 3.8804366e-11 1.8015493e-10
0.0 1.6875844e-09 1.2630005e-10 3.9049375e-10 0.0 1.4889889e-09 1.1315183e-10 3.4292466e-10
0.0 1.3778804e-09 4.0505926e-10 6.6255745e-10 3.6969947e-08 2.70751e-11 1.5595306e-08 6.313671e-10
0.0 6.5602984e-10 1.2883577e-12 3.1447813e-11 0.0 6.5914424e-10 1.1459446e-12 2.814146e-11
0.0 5.984271e-10 8.8829237e-13 3.2342358e-11 0.0 6.3329125e-10 2.9433899e-12 4.1414275e-11
0.0 5.5214217e-10 1.1440387e-12 5.110924e-11 0.0 5.809249e-10 1.04015555e-11 9.919735e-11
0.0 3.3913755e-10 3.065136e-11 1.4617085e-10 1.225267e-08 6.1497144e-12 3.9457095e-09 2.0198232e-10
0.0 7.523454e-10 6.2190336e-11 1.8367878e-10 0.0 6.6048506e-10 6.41637e-11 1.7224741e-10
0.0 7.7550605e-10 3.323204e-11 1.409304e-10 0.0 5.497424e-10 9.517798e-11 1.9632923e-10
0.0 6.5520805e-10 6.52454e-11 1.9994172e-10 0.0 4.5290563e-10 1.3411665e-10 2.7937772e-10
0.0 5.2485166e-10 1.6289262e-10 3.1372957e-10 7.3050574e-09 1.4187331e-11 5.919804e-09 2.6622735e-10
0.0 2.8263403e-10 9.802437e-12 2.2552366e-11 0.0 2.6415234e-10 9.867263e-12 2.3599036e-11
0.0 2.9908545e-10 1.934164e-13 7.881741e-12 0.0 2.3109191e-10 1.6503472e-11 3.114405e-11
0.0 2.9603298e-10 9.3320324e-14 7.1984107e-12 0.0 2.0309665e-10 3.309331e-11 5.303257e-11
0.0 2.7321978e-10 2.4192673e-12 1.965961e-11 3.8165564e-09 4.463605e-12 2.2761002e-09 9.532969e-11
00000000: 0000 0000 199a 5332 fa67 9b2f b0d4 a330
00000010: 0000 0000 6b4d 4332 238e 632f 4d3f 8130
00000020: 0000 0000 a2ef 4d32 a5fe 4b2f b926 ad30
00000030: 0000 0000 adeb 3c32 b618 4d2f dae9 a330
00000040: 0000 0000 f294 2932 2e80 e02f fdef 0731
00000050: 0000 0000 c8dc 2932 76da 2530 9f36 2131
00000060: 0000 0000 6bc2 e731 b1b5 f030 842b 8431
00000070: 7104 c933 c28a 1d2f b947 b733 885b 8631
00000080: 0000 0000 de3e 462f c2cd 3d2e 7400 922e
00000090: 0000 0000 3b8a 222f 1a4c 3d2e 4b42 8b2e
000000a0: 0000 0000 a490 4e2f 0aa4 d02d 0be8 392e
000000b0: 0000 0000 1377 f52e 3430 8e2e 8a4b 942e
000000c0: 0000 0000 2732 2e2f 6573 142e ad64 542e
000000d0: 0000 0000 4f37 df2e 32cc 852e 0e74 a62e
000000e0: 0000 0000 d74b 1b2f 4189 472e c0f5 912e
000000f0: 5d55 fb30 5bf6 492d 8151 be30 f7e7 8e2e
00000100: 0000 0000 cd88 b131 64ae ea2f aa61 7030
00000110: 0000 0000 d86d ab31 b6e8 ef2f 56c0 6130
00000120: 0000 0000 c8ee a731 d5a7 d92f b6a8 5f30
00000130: 0000 0000 4e26 a231 e5d2 0e30 0ad3 8230
00000140: 0000 0000 6c07 9e31 2f25 0b30 0197 8930
00000150: 0000 0000 1be5 9831 68c1 3330 dfb8 ce30
00000160: 0000 0000 5720 5331 9efe 6a30 5653 f230
00000170: 6822 0a39 750c b244 40dc 1733 619a f230
00000180: 0000 0000 680e 5a30 c3d1 172e 29c2 982e
00000190: 0000 0000 7864 6030 30f7 042e b013 862e
000001a0: 0000 0000 6f65 5230 3b05 072e 3e73 8b2e
000001b0: 0000 0000 4021 5d30 972e f22d 30af aa2e
000001c0: 0000 0000 bf0e 3730 11c3 852d 1feb a32e
000001d0: 0000 0000 0a81 5230 3b8f 3d2e 9bc7 292f
000001e0: 0000 0000 095d 0930 0a1b 422e 857f 212f
000001f0: 049e 8c32 7f14 812e 60e5 9b31 affb 852f
00000200: 0000 0000 e97c 0931 6e34 a72d 19f7 602f
00000210: 0000 0000 e258 ef30 197c 982d 8c2f 242f
00000220: 0000 0000 521c 0831 50c1 5b2d e5d4 712f
00000230: 0000 0000 ec74 e830 d5a9 2a2e 1b15 462f
00000240: 0000 0000 99f0 e730 4ede 0a2f 1cad d62f
00000250: 0000 0000 24a5 cc30 d1d2 f82e 5b86 bc2f
00000260: 0000 0000 db5f bd30 06af de2f 561f 3630
00000270: e3c8 1e33 b527 ee2d 71f6 8532 838c 2d30
00000280: 0000 0000 ff53 3430 fa51 b52b 174f 0a2e
00000290: 0000 0000 272f 3530 0147 a12b ef88 f72d
000002a0: 0000 0000 907e 2430 3608 7a2b 423e 0e2e
000002b0: 0000 0000 e913 2e30 661f 4f2c 5424 362e
000002c0: 0000 0000 8dc5 1730 5702 a12b e3c7 602e
000002d0: 0000 0000 f5ae 1f30 71fc 362d 2523 da2e
000002e0: 0000 0000 5e71 ba2f 5dce 062e 70b7 202f
000002f0: d07f 5232 b45f d82c d492 8731 f814 5e2f
00000300: 0000 0000 9acd 4e30 0cc2 882e fbf4 492f
00000310: 0000 0000 818d 3530 f418 8d2e 5663 3d2f
00000320: 0000 0000 632b 5530 f327 122e 62f4 1a2f
00000330: 0000 0000 af1c 1730 704c d12e c4dd 572f
00000340: 0000 0000 2b1a 3430 e579 8f2e 97d6 5b2f
00000350: 0000 0000 cdfc f82f 7b76 132f eb96 992f
00000360: 0000 0000 2745 1030 321a 332f 8379 ac2f
00000370: f7ff fa31 0f96 792d 2667 cb31 2b5c 922f
00000380: 0000 0000 3461 9b2f 4072 2c2d 6a5f c62d
00000390: 0000 0000 2338 912f 3496 2d2d 4e94 cf2d
000003a0: 0000 0000 896c a42f 7bc4 592a 35a8 0a2d
000003b0: 0000 0000 9716 7e2f 842a 912d 15f9 082e
000003c0: 0000 0000 f0be a22f 8123 d229 8545 fd2c
000003d0: 0000 0000 a04e 5f2f c18b 112e 5e3d 692e
000003e0: 0000 0000 4434 962f a53d 2a2c 82ed ac2d
000003f0: c922 8331 940c 9d2c 9469 1c31 d8a1 d12e

exp_avg f4 [128]
-2.1636753e-05 4.0891523e-06 1.3716959e-05 3.0346015e-07 -1.3669848e-05 -3.775509e-06 6.1780133e-06 -2.4200074e-06
2.2135562e-05 1.9689464e-06 -2.5095826e-06 7.7953104e-05 1.723555e-05 3.981649e-05 2.4584465e-06 3.1244996e-05
2.4399085e-07 1.1020185e-05 -4.255763e-06 2.628227e-05 -5.2904874e-05 2.6858534e-06 1.45484e-05 -4.9508503e-06
-1.7807859e-05 -6.4576234e-06 -1.4045173e-05 -7.9586225e-06 2.5703679e-05 3.4881567e-05 3.215602e-06 2.0655285e-05
-7.37457e-06 -8.045042e-07 1.08337235e-05 -6.1917257e-07 -3.0557054e-05 1.2872857e-05 -1.6483365e-06 4.097479e-06
1.6049846e-05 -3.2519347e-06 -4.8999923e-06 1.1483859e-06 4.6111195e-06 -5.006104e-06 2.2183744e-05 3.4625496e-06
3.6125825e-06 -8.706258e-06 2.5726424e-05 6.9530383e-06 2.6027259e-05 1.7343367e-05 -9.100189e-07 5.5308185e-05
1.4993234e-05 5.938953e-05 1.0638194e-05 1.465035e-05 -2.2564105e-05 3.9808056e-05 -6.699948e-06 2.3096769e-05
6.844117e-07 1.2571403e-06 -4.966488e-06 1.0560942e-05 9.615971e-06 -1.1918894e-06 -1.634792e-05 -1.0595757e-06
-2.8623803e-05 1.3916611e-05 2.7695553e-06 5.6203276e-05 -4.1839692e-05 1.2556857e-05 1.5733189e-05 -1.2855354e-06
1.5167743e-05 2.0923535e-05 1.8951258e-05 -3.5352678e-06 5.544486e-06 -2.8113565e-05 -3.506275e-06 -4.3645105e-06
4.7322443e-05 -1.0958291e-05 -3.0172669e-06 2.2154816e-05 2.2888327e-05 3.708244e-05 1.3417643e-06 6.594444e-07
2.2935174e-05 1.8451228e-05 2.7866126e-06 -1.1503723e-05 -1.4222663e-05 -3.8691383e-06 1.5086867e-05 -1.4606069e-05
-5.4221675e-07 1.1937702e-05 -1.205483e-05 3.2448488e-06 1.6917137e-07 1.0418119e-05 -1.37877705e-05 -2.4071167e-05
-4.969332e-06 1.2216666e-05 -4.7431627e-06 1.6395727e-05 -2.935909e-06 3.779334e-05 1.1080834e-05 2.7486065e-05
1.0142576e-05 -3.6033438e-07 -1.9805923e-06 4.0797746e-05 1.2511945e-05 8.981377e-06 1.9424866e-05 -1.1838474e-05
00000000: 9380 b5b7 8d35 8936 e421 6637 3feb a234
00000010: 8d57 65b7 c05e 7db6 bb4c cf36 6967 22b6
00000020: c2af b937 3e22 0436 4d6a 28b6 c17a a338
00000030: 1095 9037 a100 2738 cafb 2436 0f0d 0338
00000040: d9fd 8234 56e3 3837 bacc 8eb6 bf78 dc37
00000050: 2de6 5db8 9c3e 3436 e714 7437 7b1f a6b6
00000060: 1662 95b7 90ae d8b6 8fa3 6bb7 0686 05b7
00000070: 3b9e d737 cc4d 1238 9fcb 5736 e344 ad37
00000080: 1373 f7b6 1cf5 57b5 7dc2 3537 3735 26b5
00000090: 632a 00b8 80f8 5737 693c ddb5 147d 8936
000000a0: c8a2 8637 d03b 5ab6 9d6a a4b6 3d22 9a35
000000b0: 37b9 9a36 1bfa a7b6 3a17 ba37 265e 6836
000000c0: b26f 7236 1811 12b7 13cf d737 254e e936
000000d0: 1d55 da37 997c 9137 0648 74b5 b6fa 6738
000000e0: 738b 7b37 0619 7938 b27a 3237 c6ca 7537
000000f0: 0c48 bdb7 93f7 2638 1dd0 e0b6 efbf c137
00000100: 6ab8 3735 03bb a835 cfa5 a6b6 e72e 3137
00000110: 4854 2137 02f9 9fb5 e422 89b7 be36 8eb5
00000120: 261d f0b7 647b 6937 99dc 3936 cfbb 6b38
00000130: 077d 2fb8 4aab 5237 c4fa 8337 a98a acb5
00000140: f678 7e37 f384 af37 84f9 9e37 703f 6db6
00000150: c60a ba36 6cd5 ebb7 594d 6bb6 dc72 92b6
00000160: 167c 4638 80d9 37b7 407c 4ab6 1bd9 b937
00000170: 4f00 c037 f788 1b38 ac16 b435 ad04 3135
00000180: e964 c037 b6c7 9a37 a401 3b36 1d00 41b7
00000190: df9d 6eb7 a5d3 81b6 9a1d 7d37 970c 75b7
000001a0: da8c 11b5 0a48 4837 1a3f 4ab7 14c2 5936
000001b0: 79a5 3534 7bc9 2e37 0652 67b7 70ec c9b7
000001c0: 3dbe a6b6 2ef6 4c37 7527 9fb6 8e89 8937
000001d0: 8806 45b6 4a84 1e38 d2e7 3937 e091 e637
000001e0: 082a 2a37 fb73 c1b4 51ea 04b6 3f1e 2b38
000001f0: 65ea 5137 b8ae 1637 95f2 a237 dc9d 46b7

exp_avg_sq f4 [128]
1.29266775e-08 2.1483022e-10 5.835269e-09 8.0566515e-10 2.0871642e-09 6.677092e-10 8.8008983e-10 3.1513941e-10
1.6264616e-09 3.7827153e-10 5.5593763e-10 1.6227842e-08 3.671015e-09 3.84217e-09 9.691594e-10 3.17701e-09
3.462496e-10 2.8305291e-09 2.4152377e-10 4.9862443e-09 9.878533e-09 1.2071255e-09 2.0407041e-10 1.1631456e-09
5.633169e-09 1.7950642e-10 1.8708834e-09 8.433504e-10 1.9271051e-09 6.0186256e-09 2.5898653e-10 7.553625e-09
1.9701123e-09 1.3094013e-10 5.269387e-10 1.1084765e-10 2.7021925e-09 2.7552733e-09 4.5757637e-10 2.9114566e-10
1.3335956e-09 2.0318924e-10 9.603028e-10 1.0971333e-09 1.8291877e-09 2.9757735e-10 2.2926705e-09 9.499045e-11
1.8748552e-09 7.869293e-10 2.704279e-09 1.6071927e-10 4.884912e-09 2.2704554e-10 5.8325283e-10 8.639667e-09
8.616893e-10 6.725525e-09 3.828656e-09 2.5081704e-08 7.872905e-09 2.1884508e-09 6.2821326e-09 1.3593232e-09
1.4429643e-09 8.252144e-11 4.0580556e-10 5.7632393e-10 7.2189066e-10 1.8316318e-10 8.110341e-10 5.641124e-09
4.714008e-09 8.4674184e-10 1.1889723e-09 1.621329e-08 4.070062e-09 1.2808383e-09 2.0974267e-09 6.1112765e-10
2.1278808e-09 2.0036401e-09 3.885767e-09 2.645668e-10 4.3850854e-10 7.3717916e-09 2.2969566e-09 1.4466193e-09
8.424674e-09 3.9502374e-10 8.605551e-10 7.9710255e-10 5.3266382e-09 9.633671e-09 3.870141e-10 4.120654e-10
2.336271e-08 1.991104e-09 2.9984001e-10 2.5634053e-09 1.3172262e-09 2.1438304e-09 3.4244136e-09 5.066199e-09
1.7927986e-08 1.6255122e-09 7.5805345e-10 3.3909506e-10 4.6961046e-10 7.551109e-10 4.4023123e-09 2.9677907e-09
5.117479e-10 5.9420435e-10 1.773563e-10 8.977645e-09 8.790114e-10 1.7344509e-09 1.9029395e-10 8.1248197e-10
5.858194e-10 1.5359874e-10 2.6905878e-09 3.1652894e-09 1.8780415e-09 2.0580226e-09 5.766032e-10 3.2085583e-09
00000000: 2114 5e32 5535 6c2f 927f c831 a575 5d30
00000010: c86d 0f31 dc89 3730 d1ea 7130 ee3f ad2f
00000020: 088a df30 fcf4 cf2f a2d0 1830 6765 8b32
00000030: 2e45 7c31 1604 8431 4433 8530 8d52 5a31
00000040: 4d5a be2f 3283 4231 73c7 842f 7853 ab31
00000050: 3fb6 2932 f4e7 a530 b760 602f 8cdc 9f30
00000060: e18d c131 915e 452f ee90 0031 82d1 6730
00000070: fe6d 0431 64cc ce31 1d61 8e2f 32c5 0132
00000080: 9562 0731 5ff8 0f2f 04d8 1030 aec1 f32e
00000090: 79b1 3931 4857 3d31 268e fb2f 1c0f a02f
000000a0: b949 b730 b068 5f2f a7fb 8330 f2c9 9630
000000b0: d266 fb30 4a98 a32f 168d 1d31 dfe2 d02e
000000c0: cdd6 0031 3a4f 5830 2ed6 3931 74b6 302f
000000d0: 24d8 a731 a3a3 792f c552 2030 a86d 1432
000000e0: fedb 6c30 5816 e731 378d 8331 4073 d732
000000f0: 6741 0732 a263 1631 39da d731 efd2 ba30
00000100: cb51 c630 7177 b52e 0e18 df2f 316b 1e30
00000110: 8a6e 4630 da63 492f 73ef 5e30 dad3 c131
00000120: daf8 a131 29c0 6830 3e69 a330 6745 8b32
00000130: a5d8 8b31 7e09 b030 5222 1031 49fc 2730
00000140: 133a 1231 69b0 0931 9183 8531 7872 912f
00000150: 9712 f12f f74a fd31 7dd8 1d31 64d2 c630
00000160: 1cbc 1032 a62a d92f 2f8c 6c30 1b1b 5b30
00000170: 9b05 b731 5581 2532 64c3 d42f 0d89 e22f
00000180: 25af c832 dfd3 0831 bbd6 a42f e727 3031
00000190: c709 b530 aa52 1331 ec52 6b31 c212 ae31
000001a0: 0f00 9a32 a068 df30 455f 5030 636b ba2f
000001b0: e615 0130 3590 4f30 2643 9731 edf1 4b31
000001c0: 0fab 0c30 6a55 2330 5c01 432f 1a3c 1a32
000001d0: ee9e 7130 9161 ee30 fc3a 512f 5655 5f30
000001e0: 6007 2130 34e2 282f 52e5 3831 5c84 5931
000001f0: db0e 0131 1e6d 0d31 d87e 1e30 8e7d 5c31
