Assets/Model/TankBrain/TankBrainML/TankBrainML-500008.pt (torch, 522323 bytes, 36 tensors)

network_body._body_endoder.seq_layers.0.weight f4 [128, 32]
000000 ad 6e 85 be 7d b7 a0 be 59 fd 99 bd 59 94 4e 3d
       -0.26061 -0.3138999 -0.07519025 0.050434444
000010 9d e0 29 3e 9c 1a 47 bd 9b 80 6b be 58 2f 13 bd
       0.1658959 -0.04860936 -0.22998278 -0.035933822
000020 e0 d2 55 be c9 d7 b0 3e f7 eb d7 bc 05 14 b2 3d
       -0.20881224 0.3453963 -0.026357634 0.08695225
000030 0c f1 16 3d af 3c 9b 3e 8f cd b5 be d3 fb d0 bd
       0.036850974 0.30319735 -0.3550839 -0.10204282
000040 d3 d0 fd 3c cd 6c 2b 3e 94 aa 84 bd 55 90 74 3d
       0.030983364 0.16740723 -0.06477848 0.05970796
000050 a5 86 0e be d0 f6 ef 3e cf eb 2f 3e d5 15 f0 bd
       -0.1391855 0.4686799 0.17179798 -0.11722914
000060 9f ff 8f 3d 56 cd 3f be a6 01 d2 3c 4a 74 64 bc
       0.07031178 -0.18730673 0.025635552 -0.013943741
000070 1f db 1e 3e 71 b8 ae 3e 16 ab b7 3c b4 62 bf 3e
       0.15513276 0.34125093 0.022420447 0.37379992
000080 b8 e8 ad 3d dd e3 52 be 01 da 85 bd 82 81 89 3d
       0.08491653 -0.20594735 -0.065357216 0.06714155
000090 0c df e0 bc 46 50 96 bd 1b c2 21 3e 22 02 2d 3e
       -0.027450107 -0.0733953 0.15796702 0.16895345
0000a0 98 66 82 be 18 58 2d 3e 6d 52 34 be 10 2c 81 3e
       -0.25468898 0.16928136 -0.17609568 0.2522893
0000b0 7e bc ec 3b 8d 07 9a be d6 e4 91 3e b6 1b f5 3d
       0.0072246185 -0.30083886 0.284949 0.11968176
0000c0 33 dc 9a 3e 5d 2f 65 3e bb 5a 8f 3e 46 65 03 3e
       0.30246124 0.22381349 0.2799891 0.12831602
0000d0 7c bb 05 bc db 58 d6 3d 51 a8 3c be 77 24 4c bd
       -0.008162376 0.104661666 -0.18423583 -0.049839463
0000e0 3b f6 bc 3d 7b fb 3c be e2 06 20 bd 8f e1 0a 3d
       0.09226652 -0.18455307 -0.039069064 0.033906516
0000f0 82 e6 97 3d 6d 2d 86 3e 2d ee e5 bd 86 02 2d be
       0.07417013 0.26206532 -0.11227069 -0.16895494
000100 16 f0 d0 bd 40 35 5f 3e 41 43 1b be 3c 21 8d 3e
       -0.10202043 0.21797657 -0.15162374 0.27564418
000110 80 7e 5b 3e dc c9 f4 3d 23 50 56 3d 9e 74 8d 3e
       0.21434975 0.11952564 0.052322518 0.27628034
000120 b3 4c 15 3d 70 8e 61 3e e8 61 70 be 9f b8 9e 3c
       0.0364501 0.22026992 -0.23474848 0.019375144
000130 c2 e6 10 3d f4 9b 1d bd 36 9d 85 bc 55 c4 10 3e
       0.035376318 -0.038478807 -0.016310316 0.14137395
000140 8d 9a 8e be d1 b9 77 3e 55 3d 91 3e 22 a4 e9 3d
       -0.27852288 0.24191977 0.28367105 0.11408259
000150 d0 78 70 3e df 37 65 3e d4 d1 82 bd 37 42 93 bd
       0.23483586 0.22384594 -0.06387678 -0.07190364
000160 b8 4d 00 be 12 a7 c0 bb c3 8c c1 bd 8f c6 fb 3b
       -0.12529647 -0.0058792913 -0.09450676 0.007683582
000170 6d 46 56 3e 71 d6 27 be 4a e6 06 be 51 e6 a8 bd
       0.20925303 -0.16390397 -0.13173786 -0.08247054
000180 ce 1d 5a be 9d f0 ed bc 35 db 8a bd 5a 80 bd bd
       -0.21300432 -0.029045397 -0.06780092 -0.09252997
000190 8f 37 46 3d 1e a2 d2 bc ed 08 69 3b 83 c7 78 3e
       0.04839283 -0.02571207 0.0035558299 0.24294858
0001a0 b2 41 21 3d a1 32 4f be 0a 84 5f 3e ed 95 5d 3e
       0.039369293 -0.20234157 0.21827713 0.21639223
0001b0 1c 7b 0e 3d 12 07 36 3e 3d ad 0c 3e 73 e2 af 3e
       0.034785375 0.17776135 0.1373796 0.34352455
0001c0 3d a7 dd bc a2 1e 5b 3e 65 3d 56 be bf fa 0a 3e
       -0.027057284 0.21398404 -0.20921858 0.13572215
0001d0 cb 4b f4 3e 89 4b bd bc e0 ee fb bd 67 72 aa bc
       0.47714075 -0.023107307 -0.12301421 -0.020806504
0001e0 dc 9f 6f be 32 c0 bf 3d 90 18 dc bd 1f 81 7f 3d
       -0.23400825 0.0936283 -0.107468724 0.062379
0001f0 4c 0a ab 3e aa 88 0f 3e f4 bb 7a be c6 71 0b 3e
       0.33406293 0.14016977 -0.24485761 0.1361762
000200 62 0f 87 be 5a 29 01 be 7d b0 6a be 2b 49 81 3a
       -0.26378924 -0.1261343 -0.22918887 0.0009863725
000210 ef 6f 46 3e 97 85 95 3d e5 61 89 3e 16 98 e5 bd
       0.19378637 0.07300871 0.268325 -0.11210649
000220 da 19 44 3e 96 b1 99 3e 77 48 28 be 97 40 48 3e
       0.19150487 0.300183 -0.16433893 0.19555889
000230 fc 8c 03 bd 7b f2 19 bd eb 84 1e bd 62 11 50 be
       -0.032116875 -0.037584763 -0.03870098 -0.20319131
000240 7d 6d 31 be 71 9d 57 3e 01 67 4b bd 06 ed b3 be
       -0.17326923 0.21056153 -0.04965878 -0.35141772
000250 5d 9f 3b 3e 0d 3a 7d bd 38 68 21 be 49 5a 5e 3d
       0.18322511 -0.06182294 -0.15762413 0.05428532
000260 5b 56 17 3e 96 72 c1 3d c8 34 93 3e 94 db c5 bd
       0.14779036 0.09445684 0.28751206 -0.09661022
000270 8f 0b 65 be 98 ad 5f 3e 20 67 50 bd 38 3c 06 3e
       -0.2236769 0.21843565 -0.050879598 0.13108909
000280 3c 1c 05 3e 48 70 cc bb be 01 84 bc 3b 7d 7f be
       0.12999052 -0.006238971 -0.016114112 -0.24950115
000290 8d a2 a6 be e2 b2 1b 3e ec 06 48 be 29 b0 2d be
       -0.3254589 0.15204957 -0.1953389 -0.16961731
0002a0 41 1f 7e be 6e 88 25 3e f0 b7 b2 bd 43 6e 14 be
       -0.2481661 0.16165325 -0.087264895 -0.14495187
0002b0 c3 4f 94 bd 94 d1 92 bc d6 d6 e7 3d 8e 89 dd 3b
       -0.07241776 -0.0179222 0.113202736 0.0067607826
0002c0 90 b5 6c be 82 d2 d0 3d c3 55 91 be b0 58 23 be
       -0.23116136 0.10196401 -0.28385743 -0.159518
0002d0 10 bf 62 3e 4d 4d 90 3e 8f 89 8c bc 6e 24 75 3e
       0.22143197 0.28183976 -0.017155437 0.23939678
0002e0 bc e6 13 be 4a 5f 46 3e 77 b0 af 3c e2 72 c5 bc
       -0.14443487 0.19372287 0.02144645 -0.024102632
0002f0 53 5f bc 3d 92 43 8c 3e 6f ae be 3c 36 3a 2b 3e
       0.09197869 0.27395302 0.023276536 0.16721424
000300 f8 2e a4 be 0c 6b 46 be 73 1a 24 3e 05 6d 25 bc
       -0.32067084 -0.19376773 0.16025715 -0.010096793
000310 d4 3b 8e be bc 76 cf 3e 38 6e 25 3e a0 1b 05 3e
       -0.2778002 0.40520275 0.16155326 0.1299882
000320 dd 34 92 be 9c 81 78 3e 20 14 05 3e 47 27 0b bd
       -0.28555956 0.24268192 0.12995958 -0.033973005
000330 59 e9 fb bd dd 98 22 3e 54 53 e8 3d a9 26 a7 3d
       -0.12300367 0.15878625 0.113440186 0.08161671
000340 88 fd 81 be 11 16 61 3d ca f2 fd bc 2d 1d 89 bc
       -0.25388741 0.054952685 -0.03099956 -0.016737545
000350 de bf 14 3d 97 31 03 3c e2 8a df 3e 62 d8 bb bd
       0.03631579 0.008007429 0.43660647 -0.09172131
000360 78 cc 23 be 84 59 05 3e 74 3a 64 bd 81 4b ae bc
       -0.15995967 0.13022429 -0.055719808 -0.021276237
000370 d8 67 01 be 03 ee 8c 3e 0f ab 17 bd 5b cd 56 be
       -0.1263727 0.2752534 -0.03702837 -0.20976774
000380 d0 f3 23 be f2 d9 e3 3d a6 0f f4 3d c4 38 74 be
       -0.16010976 0.11125554 0.11917047 -0.2384978
000390 cf 43 19 3e 16 5d 18 be 79 1b 0e 3c ab 4c fd 3d
       0.14967273 -0.1487926 0.008673542 0.12368139
0003a0 db 77 b5 be ad 40 08 3e 8b 81 3c be bc f0 47 3b
       -0.35443005 0.13305922 -0.18408792 0.003050848
0003b0 d1 b4 30 3d a0 fb e4 3d 97 a9 ed 3c d1 16 3b be
       0.04314119 0.11180806 0.02901153 -0.18270423
0003c0 82 d4 2b be 60 a7 ca 3e d5 65 4b be 41 73 27 be
       -0.16780284 0.39580822 -0.19863065 -0.1635256
0003d0 8f 1f 30 3e f4 c2 0e be 27 6c e2 3d 7e 0f 31 bc
       0.17199539 -0.13941556 0.11055785 -0.010806916
0003e0 02 56 73 bd 82 08 40 3e 71 df cf be d5 91 a1 be
       -0.059408195 0.18753245 -0.4060016 -0.31556574
0003f0 65 7a 7c 3d bd 57 94 3e 15 93 ac 3c f6 03 98 3d
       0.061640162 0.2897319 0.021066228 0.074226305

network_body._body_endoder.seq_layers.0.bias f4 [128]
000000 15 dd 92 3c 9a ba 39 3b 23 13 18 3c 5c 49 37 3d
       0.017927686 0.0028339983 0.009281906 0.044747695
000010 86 fb c7 3c 23 28 dd 3c a5 f7 d1 3c 3a 4f 63 3d
       0.024411928 0.026996678 0.025630781 0.05549548
000020 7a 65 2e 3d 40 7c 2b 3c 4a ba 9e 3d 6b 89 36 bc
       0.042577244 0.010466635 0.077503756 -0.011141161
000030 fc 32 73 ba 43 82 40 3b ec b2 9f 3c a8 6c bd bc
       -0.00092773116 0.0029374517 0.019494496 -0.0231231
000040 17 c8 98 3c b5 41 21 3c 80 6e 82 3c 1a c3 22 3c
       0.018650098 0.009842326 0.015921831 0.009934211
000050 8f 4e 9f 3c 4e 9d 85 3b a5 60 8f bc 2a 94 fd 3b
       0.01944664 0.00407759 -0.017502138 0.00773861
000060 6b 8f 0a 3d 26 28 b7 3c 06 2a 02 3d 5d cc c9 3c
       0.03382818 0.022358011 0.031778358 0.02463358
000070 35 51 ad 3b f7 e5 9c 3c 1f df 82 3d fd 17 b1 3c
       0.0052892216 0.019152625 0.06390213 0.021617884
000080 51 72 1e 3c 6a a7 08 3d ac c3 99 3b 99 8d 48 3d
       0.00967081 0.033362783 0.0046925154 0.048963163
000090 ff 9d 4e 3b 1c db 34 3b 0f 20 8b bc 9f 7b 4e 3d
       0.0031527278 0.002759642 -0.01698306 0.050410863
0000a0 75 61 04 3d b1 8e 0b 3d 77 5b ae bc 59 e1 fb 3a
       0.032319505 0.034071628 -0.021283848 0.0019216939
0000b0 11 00 93 3c 7f eb 51 3c 39 dd d6 bb cc 73 10 3d
       0.017944368 0.012812494 -0.0065571335 0.035266683
0000c0 25 a4 96 3c e0 31 cc 3c 48 88 59 3d f2 8e 13 bd
       0.018388817 0.024926126 0.053108484 -0.036024995
0000d0 8a 14 2e 3d 63 6f ec bc bb f7 76 3d 8c fe a7 bc
       0.042500056 -0.028861707 0.060294848 -0.02050712
0000e0 59 33 b6 3b f5 c0 07 3c 38 4e 58 3b c0 e8 5e bb
       0.0055603203 0.008285751 0.0033005606 -0.0034013242
0000f0 53 54 8c bc fb bb 67 3c 1e cc 60 bb b3 d8 fa 3a
       -0.017130053 0.014143939 -0.003430135 0.0019138068
000100 6a 2c aa 3c cb 2b bc bc fa 1e 13 3d d1 60 30 3b
       0.020773131 -0.0229701 0.035918213 0.0026913176
000110 96 3b b2 3c 4d 12 5c 3d a6 21 ed 3c a4 5a ef ba
       0.021756928 0.05372839 0.028946709 -0.0018261266
000120 a4 0f 94 bc df 22 f6 bc aa 93 2a 3d da ba d4 3a
       -0.018073864 -0.030045925 0.04164473 0.0016230003
000130 dd 7e 45 3c 82 1c f2 3c ac 38 24 b7 a5 24 e8 3c
       0.012054172 0.02955461 -9.788357e-06 0.028337786
000140 73 18 26 3d 6f e2 76 bc df 37 96 3c 26 14 06 3d
       0.04055066 -0.015068634 0.018337188 0.03273406
000150 5c 3f 09 bd 8d 38 d9 3c c7 ad 23 bc 2d e5 9d bb
       -0.03350769 0.026516223 -0.009990162 -0.0048185796
000160 dc fe 50 3d a6 6f 39 3c 30 87 38 3d cd d6 8a 3c
       0.051024303 0.011318123 0.0450508 0.016948128
000170 ca 01 45 3c 24 05 b7 bc 0b 7f 97 3c 90 f7 51 3d
       0.012024352 -0.022341318 0.018493196 0.051261485
000180 e7 66 f4 3b cd 35 d8 3c 8d 04 83 bc b9 67 cf 3c
       0.007458556 0.026392842 -0.01599338 0.025318014
000190 1a 16 94 3c 73 b7 85 bc 04 f1 08 bc 37 96 f4 3c
       0.018076945 -0.016322827 -0.008358244 0.029856784
0001a0 bd c0 58 3c 98 da 2c bc 07 06 66 bc 5f a2 40 bd
       0.013229546 -0.010550164 -0.014039523 -0.04702985
0001b0 f9 bd 3b 3d a8 15 93 bc 48 9d 07 3c dd 7e d9 3b
       0.04583547 -0.017954662 0.008277245 0.0066374377
0001c0 3a e0 aa 3c 07 0a 10 3c a3 c0 60 3d 52 84 b3 bb
       0.020858873 0.008791453 0.054871213 -0.0054784203
0001d0 eb 8a a8 3c 6f 14 3d bb 98 13 2c bc a4 c6 f2 bc
       0.020574054 -0.002885129 -0.010502718 -0.029635735
0001e0 23 f2 f4 3c ba fe d9 bc fb a6 69 bb 7b 50 0d bc
       0.029900616 -0.02661072 -0.0035652507 -0.008625145
0001f0 d9 45 e9 3c c3 d9 65 3c 29 d7 45 bb 0d 67 db 3c
       0.028475689 0.014028969 -0.003018806 0.026782537

network_body._body_endoder.seq_layers.2.weight f4 [128, 128]
000000 45 21 1e 3e 1d 5f 03 3e 57 23 6b bd 2f 84 03 3d
       0.15442379 0.12829252 -0.05740675 0.032108482
000010 19 1a 89 bc 35 6e fe 3d 3f da 12 3e fa 3c 0e bd
       -0.016736077 0.12423364 0.14341067 -0.03472612
000020 f6 21 6f bc c8 3b 9d bd 0a 4e 4e 3d 38 16 c7 3c
       -0.014595499 -0.07677418 0.050367393 0.024302587
000030 77 ea e8 bd b2 1a 71 3d 14 d0 17 3e 84 e4 27 bd
       -0.113728456 0.05886335 0.1482547 -0.040989414
000040 1f d7 a8 3d 0f 04 08 3d 70 61 b6 bd 68 17 0c bc
       0.08244156 0.033206996 -0.089053035 -0.008550502
000050 22 cc cb bd c3 e7 6f 3d b6 08 d1 bc c9 83 c4 3d
       -0.099510446 0.058570635 -0.025516849 0.095954485
000060 5d b4 de bd 57 8c fe 3b 33 e9 00 3d d8 d2 41 3d
       -0.10874245 0.0077681947 0.031472396 0.047320217
000070 0e 16 e1 bc e7 3a 09 3e e5 21 20 3e 13 d2 96 3b
       -0.027476337 0.13401376 0.1563793 0.0046026795
000080 3f ca f6 bd dd 12 b9 bc ec fb 47 bd 14 33 1d 3e
       -0.12050294 -0.022592003 -0.048824236 0.15351516
000090 85 92 90 bd 28 c3 8d bb bd 92 11 be 53 e3 73 bd
       -0.070591964 -0.004326243 -0.14216132 -0.059542965
0000a0 e7 69 19 3e be de 3d 3d c8 d4 e2 bd 98 a6 84 bd
       0.14981805 0.046355 -0.11075741 -0.06477088
0000b0 a3 bc 9f 3c 6b 35 34 3e ad 29 c4 3d 20 4f e3 3d
       0.019499129 0.17598502 0.095782615 0.11099076
0000c0 50 13 ce bd 87 b2 92 bc ab 08 00 3e 1d d9 0e be
       -0.10062277 -0.017907394 0.12503307 -0.1395001
0000d0 15 94 19 3e 1f d2 8a 3c 08 a9 94 bd 49 6e 96 3d
       0.14997895 0.016945897 -0.07258803 0.07345254
0000e0 57 0b c3 3d 43 14 26 3e e4 7e a0 b9 4a e0 ca bd
       0.09523647 0.16218667 -0.0003061212 -0.09906061
0000f0 d1 cc 01 3d 9f 6f c4 bd 52 a9 df 3c 29 8c 6f be
       0.03168947 -0.095916025 0.027302418 -0.2339331
000100 b3 4c 7c 3e c5 df 87 3c d8 6e 32 be ee 4d f2 bd
       0.24638633 0.016586194 -0.17425096 -0.1183127
000110 d0 a0 0d 3e 19 8c 7e 3d 03 12 22 3d e9 5d 69 bd
       0.13830876 0.062145326 0.03956796 -0.056974325
000120 8a 70 a1 3c 44 ae b7 3d 22 b4 7c be 1b c3 fe 3c
       0.019706983 0.089687854 -0.2467809 0.031098893
000130 ea 6e 61 bd 16 7c 38 bd 7d 5b c7 bd 12 55 f6 3a
       -0.055037417 -0.045040213 -0.09734247 0.0018793663
000140 39 0f 22 bd 9b 62 c0 bd 64 86 77 bc 1e f1 d3 bd
       -0.0395653 -0.093938075 -0.015107725 -0.10348724
000150 42 d7 a7 bd c6 ce 2c bd a8 97 a0 bd b0 33 c5 bc
       -0.08195354 -0.042189382 -0.07841426 -0.024072498
000160 3b ea 27 3e 0a ed af bc 9a a1 12 bc 63 40 3d bc
       0.16397946 -0.021475334 -0.008949662 -0.0115509955
000170 c3 81 cf bd 16 87 99 bc 2b 26 8a bb 22 93 d3 bc
       -0.10132172 -0.018741172 -0.0042159758 -0.025826994
000180 b1 25 97 3c 65 21 ab 3d 8e 98 49 bd 1f 28 9b 3d
       0.01845059 0.08355979 -0.049217753 0.07576012
000190 a7 2b a5 bd be 72 f2 3c df d6 d4 bc b5 dc a6 bd
       -0.08064967 0.029595729 -0.025981365 -0.08147565
0001a0 75 10 29 3d f5 ed 88 bd b1 77 dd bc 91 f8 08 be
       0.04127546 -0.06686012 -0.027034612 -0.1337607
0001b0 88 45 be bb 1d 24 ad bc 3b 58 b1 bc 5d c8 2d 3e
       -0.0058066286 -0.021135384 -0.021648517 0.16970964
0001c0 b2 46 ee 3c 87 ff 18 3c 0f 57 16 bd a6 54 0b bc
       0.029086445 0.009338266 -0.03670412 -0.0085040685
0001d0 58 6b bb bd 43 c4 79 3b e0 dc 8a 3e 0b cc 62 3d
       -0.091513336 0.0038111366 0.2712164 0.05537037
0001e0 40 0b 38 3d 9c 76 52 bd 82 df 65 3d 19 29 35 bd
       0.044932604 -0.051382646 0.056121357 -0.044228647
0001f0 41 97 a1 3c 5d 87 fb bc 89 04 e4 bd be 00 10 3e
       0.019725444 -0.030704195 -0.111336775 0.14062783
000200 54 31 b1 3d a2 5d 28 bc 50 39 61 bd 0a e8 96 3c
       0.08651987 -0.01027623 -0.054986298 0.018421192
000210 41 0d 30 bd b5 22 ac 3d 1d 81 9b ba f3 26 b1 bd
       -0.04298139 0.08405057 -0.001186404 -0.08650007
000220 aa e4 dd 3e cc 48 35 bd fb cd 45 3e 94 45 3b 3e
       0.4333852 -0.044258878 0.19316857 0.1828826
000230 f8 6c f7 3d e1 7c 28 3e 71 c6 34 3e 73 b5 29 3a
       0.12081331 0.16453888 0.17653824 0.00064738764
000240 77 56 d4 3d 8a 07 08 3e 5b 88 ce 3d af 7c 49 be
       0.10368054 0.13284126 0.100846015 -0.1967647
000250 6f bf ef bd 13 ca 0e bd 1c a8 0d bd ae eb be 3d
       -0.11706435 -0.03486068 -0.03458415 0.09322296
000260 85 c5 0f bd c9 db ac bd 2c 59 14 bd cd 93 54 be
       -0.03510048 -0.08440358 -0.036217853 -0.20759507
000270 b2 04 61 3c 48 00 b3 bd 3f 50 0b 3b 1b 56 a5 3d
       0.01373403 -0.08740288 0.0021257547 0.08073064
000280 15 03 03 3e 97 09 73 bd d9 84 d9 3d 4a e2 a5 bd
       0.12794144 -0.059335317 0.10621042 -0.08099802
000290 6e 42 0b 3e 51 a5 bc 3d d8 29 07 be 4f 0c ed 3d
       0.1359956 0.09211219 -0.13199556 0.11574613
0002a0 0f 95 13 3e 06 28 1e be 21 7b bd bd 73 a9 dc 3d
       0.1441233 -0.15444955 -0.092520006 0.107745074
0002b0 c5 2a 1b bd fb 9a 17 3e 47 a1 75 3d 41 63 ef 3d
       -0.037882585 0.14805214 0.05996826 0.11688853
0002c0 f7 3e 50 3e 15 57 5f 3d 91 94 40 3d 35 db ba bc
       0.20336519 0.054526407 0.047016684 -0.022809604
0002d0 61 c0 2c 3e 73 0e dc 3c ad 0d 02 3e 11 06 03 be
       0.16870262 0.026862359 0.1270053 -0.12795283
0002e0 90 32 60 bd ba c4 b0 3d d3 62 af 3b 75 fb 36 3d
       -0.05473572 0.086312726 0.005352357 0.0446734
0002f0 80 45 80 3d fc 78 f6 bc d4 a3 52 3d 75 c2 bc bd
       0.06263256 -0.030086987 0.05142577 -0.09216777
000300 b0 2d 09 be d7 05 6c 3d fc 44 67 3c 87 6e 65 3c
       -0.13396335 0.057622757 0.014115568 0.014003403
000310 13 55 5e 3d 44 9b b2 bd 94 e2 3a bd 10 16 33 be
       0.05428035 -0.08721021 -0.045626238 -0.17488885
000320 c8 bd 0d bd 0b 2a be bd aa 4e 58 bc 8c 03 5e 3d
       -0.034604818 -0.09285363 -0.013202349 0.0542026
000330 49 1f a4 bd d8 80 24 be 7b 70 13 3e 2e 31 17 3e
       -0.0801378 -0.16064775 0.14398377 0.14764854
000340 c8 e9 d6 3b f8 3e 26 3d 5e bf 0b 3e d6 6c b2 3d
       0.0065586306 0.040587395 0.1364722 0.08712165
000350 44 a7 f8 bb 9b a6 01 3e ab eb a1 bd 22 20 14 bd
       -0.007588299 0.12661211 -0.07906278 -0.036163457
000360 4c a0 a4 3d 8c 52 59 bd 46 d2 c4 3d 92 55 48 bd
       0.08038387 -0.05305724 0.09610419 -0.04890973
000370 0d 38 5c 3d c3 62 08 bd 50 e0 2d 3e 6e 73 22 3e
       0.05376439 -0.03329731 0.169801 0.15864345
000380 70 3e ae bd 9c 5b bb bd bb 55 4a bd aa f1 1b be
       -0.08508003 -0.091483325 -0.049398165 -0.15228906
000390 4d b5 f4 3d 46 8e b5 3a 63 1e 89 3d de 4b 2f 3d
       0.11948643 0.0013851605 0.06695249 0.042796962
0003a0 2e bd 1c 3e bf 9e 91 3d c9 a0 e3 bd ce e0 a1 bd
       0.15306541 0.071103565 -0.11114652 -0.07904206
0003b0 cf b1 78 3b 66 92 bc 3c 05 77 cf bc 8c 35 ef 3d
       0.003794778 0.023019027 -0.025325308 0.11680135
0003c0 40 72 0b be 38 81 9e bd 91 7c 76 bd 63 4b 03 bb
       -0.13617802 -0.0773949 -0.06017739 -0.0020033948
0003d0 9e 99 e0 3d 70 b3 77 3d 7a c3 d2 3c 71 40 42 3c
       0.109668 0.06047386 0.025727976 0.011856184
0003e0 1c b3 dc 3c dd 97 a9 bd 14 32 c5 3d e8 0c 96 bd
       0.026940875 -0.08280919 0.09628692 -0.073266804
0003f0 ca 76 fa 3c a9 b1 4e 3e 5e f6 14 3e 57 0f be 3d
       0.030574221 0.2018496 0.14547107 0.092802696

network_body._body_endoder.seq_layers.2.bias f4 [128]
000000 ea bb ad 3c 6b 7d 30 3d bb 9a e0 3b 7b ea 54 3c
       0.021207768 0.043088358 0.006854383 0.012995358
000010 3c af cb ba 36 07 39 3c 79 39 e0 3a 92 90 94 3c
       -0.0015539895 0.011293223 0.0017106972 0.018135343
000020 6d 67 00 3d 6a b3 9b 3b 3a f1 2c 3d 95 13 f9 3a
       0.031348635 0.0047516124 0.04222224 0.0019003028
000030 fa 37 ee 3c 58 3b 0a bb bb be 8d 3c 0f 33 7f 3c
       0.029079426 -0.00210925 0.017302861 0.015576138
000040 d8 75 a5 bb 09 8c f7 3c 6d d7 d1 3b e6 d0 a0 3b
       -0.0050494485 0.030218141 0.0064038546 0.004907715
000050 8a a6 2d 3d dc a6 52 bc 24 a1 d9 3b 18 25 e7 3c
       0.042395152 -0.012857165 0.006641524 0.02821593
000060 64 72 d9 3b 57 17 38 3c 81 eb 62 ba f9 60 12 bc
       0.006635951 0.011236033 -0.00086563086 -0.008934253
000070 71 40 d5 ba 4c eb 8f 3b f3 73 62 3c 43 ee c4 3c
       -0.0016269815 0.0043920632 0.01382159 0.024039393
000080 03 63 e9 bb df 7f 99 bb 3d d9 b7 3c 91 c7 4e bb
       -0.007122399 -0.004684433 0.022442454 -0.0031552056
000090 36 93 5f 3c d1 8b 9e 3b 39 3f 54 3d 41 26 e6 3c
       0.013645938 0.0048384448 0.051818106 0.028094413
0000a0 13 14 f6 3c 76 24 5a bb 2f bf 91 3a 63 da e9 3c
       0.030038869 -0.0033285893 0.0011119599 0.028546518
0000b0 d1 27 8d 3c 7f 2d d5 3b 3c 4f 82 3b 0f 17 59 3c
       0.0172309 0.0065056677 0.0039767306 0.0132501265
0000c0 e5 25 bb 3c b4 9b 42 3c b2 5f 87 3c 66 ba a3 3c
       0.022845218 0.011877943 0.016525123 0.019986343
0000d0 56 de 20 3b a2 b7 c5 3c c8 ea d7 3b 15 0d c3 3c
       0.0024546585 0.024135415 0.0065892674 0.023809949
0000e0 5b 87 5e 3c c4 75 8f 3c fc b4 54 3c e0 a1 08 bb
       0.013582076 0.01751221 0.012982603 -0.0020848438
0000f0 54 ff d0 3b 0e 0e 20 bc 6b 36 02 3d 24 23 31 3b
       0.0063780937 -0.009768976 0.03179018 0.0027029002
000100 2e e2 13 bb c8 3c 62 bc 5d 9e 07 3d 9f 00 4a 3c
       -0.0022565234 -0.013808437 0.03311001 0.01232925
000110 dd 64 1c 3c 90 0e d7 3b c6 cc 45 bb 0f 3a 0e 3d
       0.009545532 0.0065630153 -0.003018187 0.034723338
000120 95 eb a5 3c fc 46 af bb 92 f5 24 3c 2c f1 83 3a
       0.020253936 -0.005349038 0.010068314 0.0010066382
000130 81 63 76 3c 17 6f 78 3c 67 2f be 3c a7 a0 a0 3c
       0.015038372 0.015163205 0.023215963 0.019607855
000140 8f b4 0f bb b7 a1 02 3b 02 ce 1b 3b 9f b2 42 3d
       -0.002192769 0.0019932815 0.0023773913 0.047533628
000150 f7 0c 0b 3c f0 af ff 3b c8 ac 8c bb 48 71 7a 3b
       0.008486978 0.007802956 -0.004293058 0.0038214494
000160 51 1e d0 3c b7 04 61 3a a7 34 85 3b 70 0f 48 3c
       0.025405081 0.00085837714 0.0040651145 0.012210712
000170 a8 dc bd 3c 18 03 f0 39 5d 41 93 3c c4 50 57 3c
       0.023176506 0.00045778672 0.017975504 0.013141815
000180 40 3b 8d 3c 20 2f 0a 3d e3 d3 2a 3c 00 56 b7 ba
       0.017240167 0.03373635 0.010426494 -0.0013987422
000190 76 86 2a bb cb 12 7f 3c 50 87 46 3c e9 97 49 bc
       -0.0026020086 0.015568445 0.012117222 -0.012304285
0001a0 48 69 28 3b a8 27 18 bc 4b 31 ce 3c c5 a6 f6 3b
       0.0025697518 -0.009286799 0.02516999 0.0075272047
0001b0 cd 0d 34 3d 31 f9 19 3d 8a 79 2f 3d 6b ad 81 3c
       0.043958474 0.037591163 0.042840518 0.015829762
0001c0 e1 d2 1b 3a fb ec b9 3a b3 2f 17 3c 7f 81 67 3c
       0.0005944204 0.0014185006 0.009227681 0.014129995
0001d0 9f 0e 2b 3b 01 8d d1 3a 14 4c 5f b9 ef e4 45 bb
       0.0026101244 0.0015987457 -0.00021295279 -0.003019627
0001e0 da f9 d4 3c 82 e4 33 3b 54 9b d8 3a fd ca 48 3c
       0.025998045 0.0027449434 0.0016525784 0.012255427
0001f0 36 48 29 3d 6d 27 66 3c 8f 20 a6 bb 05 a0 34 3c
       0.04132863 0.014047486 -0.0050697993 0.01102448

action_model._continuous_distribution.log_sigma f4 [1, 2]
000000 2d c9 5a bc 25 1d 7c bb
       -0.013353628 -0.003846952

action_model._continuous_distribution.mu.weight f4 [2, 128]
000000 38 07 91 bd 2b c7 a0 bd 9a 01 f8 bb 76 89 54 bd
       -0.07081455 -0.07850488 -0.0075685503 -0.051888905
000010 72 48 db 3b e5 28 66 bd a0 3d d7 bc d0 09 ba bd
       0.0066919858 -0.056191344 -0.026274502 -0.09083903
000020 42 80 ea 3c dc d3 0c 3c cf a1 e0 3d ac d2 84 bb
       0.028625611 0.008595433 0.109683625 -0.0040534344
000030 0b 79 ee 3d 72 15 af bc af 9d b5 3c 13 7d ca 3c
       0.11644181 -0.02137253 0.022169916 0.024717843
000040 83 2f fd 3b be 1c 46 bd 6d 8c b2 bb 31 6e 83 3c
       0.007726611 -0.048367254 -0.005448869 0.016043754
000050 66 34 98 3d 7b 46 09 3a b4 69 26 bb e3 8d ca bc
       0.07431869 0.00052366377 -0.0025392594 -0.02472586
000060 80 d7 de 3b 7e f1 79 3c e6 25 84 39 b8 be d8 3c
       0.006800592 0.01525533 0.00025205238 0.02645813
000070 85 43 43 3c 8f 9d 54 bc d0 f4 4f bd 95 2c 78 bd
       0.011917953 -0.012977018 -0.05077058 -0.06058939
000080 b2 a4 03 bc 80 b1 b7 bb 49 03 9c 3c 67 7e 8a bc
       -0.008034872 -0.0056058764 0.019044535 -0.016905976
000090 7c dc 8d 3d f7 ad 3b 3c 3d ba df bc fb 5d d1 bd
       0.0692682 0.011455051 -0.027310485 -0.102230035
0000a0 b0 b3 00 3e c3 59 a2 bc 97 cd ab bc f7 a8 9f bd
       0.12568545 -0.019818192 -0.020972056 -0.07795899
0000b0 28 71 c5 3c 9d 8d 15 3d 45 72 2b 3c b7 66 e4 bb
       0.024101809 0.036512006 0.010464256 -0.0069702524
0000c0 e3 c7 96 3c 59 ee 04 3c e0 fd 86 3d 87 c9 84 3c
       0.01840586 0.008113467 0.065913916 0.016209377
0000d0 d8 46 08 3d ea a3 19 3d ee dd 9a bb 4a b2 b7 bd
       0.033270687 0.037509836 -0.004726163 -0.08969553
0000e0 00 16 95 3c fb 1c 93 3d 49 0f af 3d b2 32 e8 3c
       0.018198967 0.07183262 0.08547837 0.028344486
0000f0 5a 61 fe bc ac c1 58 3c 8f 46 c2 3d 84 36 9f 3a
       -0.03105228 0.013229769 0.09486114 0.0012146984
000100 ab 08 33 bc 1e 69 02 bc 57 bc 16 3d 3c 03 16 3b
       -0.01092736 -0.007959632 0.03680071 0.0022890111
000110 d0 73 d4 3b 88 a8 d4 3c 55 ef 85 bc 3f c6 fa bd
       0.0064835325 0.025959268 -0.016349474 -0.12244844
000120 fa b8 49 3c 57 7b 45 3b 89 e2 bd bc 3c 8a d6 bb
       0.012312168 0.003013333 -0.02317931 -0.0065472405
000130 67 6a 02 3d 53 b3 21 bc 01 a2 34 3d 4c 0e f9 bb
       0.031839754 -0.009869414 0.04409981 -0.0076005813
000140 20 17 ca bb 9c 26 95 3c 81 d6 99 bc f3 60 fc 3d
       -0.0061673075 0.018206887 -0.018779041 0.12323179
000150 1b 0b b3 3c 45 9a 53 3c 92 d8 16 3d 7e c6 87 bc
       0.021855881 0.012915199 0.03682763 -0.01657414
000160 47 d2 cc 3d bc 81 f4 3c 20 98 ef 39 b2 b7 a5 3d
       0.10001045 0.029847018 0.00045698974 0.08091678
000170 63 6c b5 3d c7 b5 20 3c 19 42 69 3d 58 51 e7 bc
       0.08858564 0.009808964 0.0569478 -0.02823703
000180 74 d1 57 bd 1e ee d2 bb 76 e9 11 3d 2d ba 1d bd
       -0.052689984 -0.006437077 0.035623036 -0.03850763
000190 89 b5 2f 3d e6 2c 2e bc 7e 0a 24 3d 1b 90 9e 3a
       0.042897735 -0.010630822 0.04004907 0.001209739
0001a0 55 4b 10 3d 87 35 5a bc 6a f7 74 3d fb b4 75 3d
       0.035228092 -0.013318426 0.059806265 0.05998705
0001b0 05 4e f3 3d 0e 2b 8d bd 83 a3 a6 3d 64 87 9f 3d
       0.118801154 -0.06892978 0.08136656 0.077894956
0001c0 c7 a1 78 3c 10 59 bb 3c 79 14 01 bd cc d0 5a bd
       0.0151752895 0.022869617 -0.031513665 -0.05342178
0001d0 d3 16 62 bc 20 49 39 bc e4 04 c0 bc 77 fc 85 3c
       -0.013799387 -0.011308938 -0.023439832 0.016355736
0001e0 a2 08 a0 bc 6b 3f c4 3c 20 fa 67 bc 9a 2e c1 3c
       -0.019535366 0.023956021 -0.014158756 0.023581792
0001f0 d5 8d 80 bd 22 d5 5b bd f7 45 fc 3b d5 80 a8 bc
       -0.06277052 -0.053670056 0.00769877 -0.020569244
000200 65 b1 ca bc 36 02 d4 3d 3c 39 e1 3c 03 43 25 3d
       -0.024742791 0.10351984 0.027493112 0.04034711
000210 5b 3f 0f 3d a2 a9 6a bc f9 83 34 3c 09 e4 55 bc
       0.03497253 -0.01432267 0.011017793 -0.013054856
000220 43 9e 15 be 17 5c 2b 3d e3 42 c6 bd 4e b4 88 3b
       -0.14611153 0.04183587 -0.096807264 0.0041718846
000230 01 21 87 bd cf 0a 20 3c 69 b1 04 bd 47 13 81 3c
       -0.06598092 0.009768202 -0.032395754 0.015756262
000240 e1 87 af 3c 09 9a 6b 3d 97 3b 4e bd 8e cb d8 3b
       0.021427097 0.057519946 -0.050349798 0.0066160625
000250 1c a0 be 3d db 04 ec 3b f8 a5 f1 3c bd d5 eb bb
       0.09307882 0.0072027273 0.029498085 -0.0071971104
000260 ee cc 28 3d 65 39 04 bc 43 a1 c1 3c 58 ff 10 3d
       0.04121106 -0.008070325 0.023636466 0.035399765
000270 7a 48 ea 3c 0a 82 00 bc 70 50 c3 3b bc 5a 6c bd
       0.028599013 -0.007843504 0.0059605166 -0.05770372
000280 b5 57 0b 3c 4d 29 8f 3c b1 0f e3 bd f7 f3 8d bc
       0.008504798 0.017475748 -0.11086977 -0.017328246
000290 f8 f3 87 3d 3b e0 8e 3c d6 07 b0 3d 02 74 9e 3d
       0.0663833 0.017440906 0.085952446 0.077369705
0002a0 d0 8b c4 bd 45 12 b3 3c 4e 94 c7 bb c1 77 2a bc
       -0.095969796 0.021859298 -0.0060906773 -0.010404528
0002b0 18 1e d3 ba f3 9a 37 3d d6 31 b6 3b 7d 5e 10 bc
       -0.0016106991 0.044825505 0.00556014 -0.00881159
0002c0 67 5e b8 3d f5 87 d8 3c 8c 62 65 bd fd 31 8d 3a
       0.09002381 0.026432017 -0.056002185 0.0010772344
0002d0 02 72 3d bc cc 27 d3 bd a7 2b 34 3d 0c de 4b bd
       -0.011562826 -0.10310325 0.043986943 -0.049772307
0002e0 a9 23 ed bc 1b 72 dd bd bc 8b 2b 3d 97 af a6 bb
       -0.028947668 -0.108127795 0.041881308 -0.00508685
0002f0 1c a6 39 3c 03 75 93 3c 5d 67 44 3d 70 24 b8 3c
       0.0113311075 0.018000131 0.047950137 0.022478312
000300 c9 ed 30 3c 5a 63 af 3b 4a b6 2e be 00 57 25 bc
       0.01079888 0.00535242 -0.17061725 -0.010091543
000310 14 80 c6 bb d0 a7 38 bc 4b 66 fc 3c f9 e3 0a bd
       -0.0060577486 -0.011270478 0.030810496 -0.033908818
000320 cf 67 f0 bd 01 a1 24 3d 1d 06 03 3d 81 96 e9 3c
       -0.1173855 0.040192608 0.031988252 0.028514149
000330 dd 7d c8 bc 6d ad 6b bb 35 a8 bc bd 8f 7d c6 bd
       -0.024474079 -0.0035961524 -0.092117704 -0.09691917
000340 b3 c2 b2 3c 48 36 8d 3c 8a 83 8f 3b f8 e4 a5 3d
       0.021821355 0.017237797 0.0043796944 0.08100313
000350 a1 f2 3e bd 4c 08 d5 3c f8 77 97 3c 39 9e 54 3c
       -0.046618108 0.026004933 0.018489823 0.012977176
000360 f3 ce 30 3d b3 2b 7a bb db ae ed 3c 44 f4 1c bd
       0.043166112 -0.003817302 0.029014042 -0.038318887
000370 b9 e4 85 3d 01 e1 00 3d c7 45 44 3d aa 7b 5f bd
       0.06537766 0.03146458 0.047918107 -0.054561295
000380 64 a8 98 37 fb 69 15 3b 60 77 a0 3d 49 0c a2 3c
       1.8198225e-05 0.0022798765 0.07835269 0.019781249
000390 6c dd c4 3c 54 bc 7c bc 86 69 48 3d 11 7c e3 3b
       0.024031363 -0.01542576 0.04892876 0.00694228
0003a0 4e b2 0a 3d ad 07 53 bb 23 8a b0 bd d0 43 11 3d
       0.03386145 -0.003220062 -0.086200975 0.03546506
0003b0 02 00 ba 3d 8c 5a 62 bd f2 64 82 3d ba 82 ae 3d
       0.09082033 -0.055262133 0.0636691 0.08521028
0003c0 2d 6b b1 3c 78 0d a0 3c 48 fb 90 3c eb 62 a7 bd
       0.02165755 0.019537672 0.017697945 -0.08173164
0003d0 34 b1 ef 3b 4d 02 34 bc 56 56 f2 3b cd 4b d2 3c
       0.0073148254 -0.010986877 0.007395546 0.02567091
0003e0 62 79 95 bd c2 bf ff 3c 7c ff 2f 3c f4 e8 c0 3d
       -0.072985426 0.031219367 0.010742065 0.09419432
0003f0 e9 b5 ac 3d 23 ee b5 bc 62 ee af 3c de eb c5 bb
       0.08433134 -0.022208279 0.021475974 -0.0060400805

action_model._continuous_distribution.mu.bias f4 [2]
000000 de 2c 25 ba c2 3a a0 bb
       -0.0006300936 -0.004889817

exp_avg f4 [128, 32]
000000 57 5a e3 38 25 6d 2e 3a 04 00 00 80 eb df 80 3a
       0.000108410306 0.0006653837 -6e-45 0.0009832358
000010 34 41 59 39 7d ef 1c 3a 04 00 00 00 58 fa 3c 3a
       0.00020719023 0.0005986614 6e-45 0.0007208935
000020 74 26 f7 38 3f f7 2e 3a 04 00 00 00 8d b3 37 3a
       0.0001178504 0.0006674416 6e-45 0.0007007651
000030 cc d6 99 39 18 60 1e 3a 41 37 ef b6 7a 4e 2c 3a
       0.0002934247 0.0006041541 -7.1291875e-06 0.0006572973
000040 58 d3 66 39 c1 fd 1a 3a e8 6f 82 9c 05 49 e3 39
       0.00022013241 0.0005912446 -8.631605e-22 0.00043351218
000050 c5 50 44 39 23 6c 33 3a 41 37 ef b6 ac 2c 1c 3a
       0.00018722106 0.0006844422 -7.1291875e-06 0.00059575844
000060 e9 05 73 38 52 95 47 3a e8 6f 82 9c f3 70 82 39
       5.794122e-05 0.0007613498 -8.631605e-22 0.00024879686
000070 b7 b2 b8 3a bf 50 82 3a 75 f9 2c 3b 59 e9 ee 39
       0.0014091347 0.0009942277 0.0026393805 0.00045568755
000080 4f ed 8f b8 c9 25 47 ba 04 00 00 80 12 79 4c ba
       -6.8629735e-05 -0.0007596878 -6e-45 -0.00078000233
000090 fb fc 04 b9 85 ab 32 ba 04 00 00 80 45 04 0d ba
       -0.00012682744 -0.00068157195 -6e-45 -0.00053793594
0000a0 92 5a f0 b8 70 01 39 ba 04 00 00 80 7d 28 28 ba
       -0.00011460962 -0.0007057404 -6e-45 -0.00064147246
0000b0 ff 29 28 b9 e8 a1 34 ba c3 50 0b 37 c4 04 d9 b9
       -0.00016037373 -0.0006890581 8.303849e-06 -0.00041393016
0000c0 c8 84 c6 b9 b0 65 f0 b9 1e 8d c5 1b 99 ef ee b9
       -0.00037864433 -0.0004585213 3.268211e-22 -0.00045573412
0000d0 97 58 18 b9 b3 b4 31 ba c3 50 0b 37 d7 04 a5 b9
       -0.00014528852 -0.00067789404 8.303849e-06 -0.00031474858
0000e0 1a 1f 10 ba 8d 2d 98 b9 1e 8d c5 1b da a5 71 b9
       -0.00054977986 -0.00029025637 3.268211e-22 -0.00023045336
0000f0 46 02 bf ba 84 0e 82 ba 46 24 21 bb f3 6f ee b9
       -0.0014572821 -0.0009922539 -0.002458827 -0.00045478306
000100 7a a3 1b b8 dc 0e f5 b9 04 00 00 00 89 aa 9e b9
       -3.710713e-05 -0.00046741113 6e-45 -0.00030263167
000110 c4 63 16 b8 9d ba 01 ba 04 00 00 00 34 64 b2 b9
       -3.58557e-05 -0.0004948767 6e-45 -0.00034025463
000120 ff 3c 9c b7 08 ca 01 ba 04 00 00 00 90 ca 54 b9
       -1.8625053e-05 -0.00049510645 6e-45 -0.00020293356
000130 bf 00 31 b9 f5 c6 d2 b9 25 bc d1 35 74 14 d0 b9
       -0.00016880313 -0.00040202556 1.5626471e-06 -0.0003968809
000140 30 6b 43 38 76 bc 10 ba 7c 0e e5 1b e7 52 f8 b8
       4.659145e-05 -0.0005521247 3.7894232e-22 -0.00011841003
000150 e9 98 8e b8 7f dc 02 ba 25 bc d1 35 93 62 c8 b9
       -6.7995694e-05 -0.0004991963 1.5626471e-06 -0.00038220416
000160 d3 1a 92 39 a3 2c 4f ba 7c 0e e5 1b 3f 53 4a b9
       0.00027867276 -0.0007903075 3.7894232e-22 -0.00019295233
000170 9f 18 f3 b7 04 3e 24 ba 01 88 b6 ba 30 8e 96 b9
       -2.8979322e-05 -0.00062653446 -0.001392603 -0.00028716167
000180 0b 1e 1f b8 11 50 27 ba 04 00 00 80 03 82 f8 b9
       -3.7936534e-05 -0.0006382475 -6e-45 -0.00047399112
000190 93 2a 77 b8 14 bf 27 ba 04 00 00 80 98 7b e4 b9
       -5.892904e-05 -0.00063990173 -6e-45 -0.00043579633
0001a0 fb 4a 31 b8 7b 47 26 ba 04 00 00 80 a1 82 bb b9
       -4.226992e-05 -0.0006343049 -6e-45 -0.00035764746
0001b0 c9 df 3e b9 a0 4c 0e ba 2d e0 bc 34 84 8b f4 b9
       -0.00018203178 -0.0005428288 3.5180838e-07 -0.00046643254
0001c0 52 f2 a6 b6 d6 72 30 ba 99 1d d2 9a 2d 69 84 b9
       -4.9753953e-06 -0.0006730979 -8.690178e-23 -0.00025255364
0001d0 f4 18 e6 b8 55 82 1e ba 2d e0 bc 34 2b b2 d2 b9
       -0.000109719025 -0.00060466427 3.5180838e-07 -0.00040187067
0001e0 18 ff 3c 39 72 c4 61 ba 99 1d d2 9a e4 1b 97 b9
       0.00018024107 -0.00086123415 -8.690178e-23 -0.00028821744
0001f0 5b 53 ab b9 06 d0 58 ba ab 8c fe ba b1 be c6 b9
       -0.00032677766 -0.0008270744 -0.0019420584 -0.0003790758
000200 14 1a 10 b7 9b 85 e9 b8 04 00 00 00 c9 f5 41 38
       -8.589141e-06 -0.00011135192 6e-45 4.624369e-05
000210 d8 cf cb 37 ff e0 48 b9 04 00 00 00 82 ab cb b8
       2.429627e-05 -0.00019157304 6e-45 -9.71174e-05
000220 4d 98 23 38 38 73 3a b9 04 00 00 00 f5 a6 87 38
       3.900407e-05 -0.00017781265 6e-45 6.4684e-05
000230 7e 71 6c b8 8e ed 17 b9 16 04 3b 36 a4 ce 1f b9
       -5.6372483e-05 -0.00014488978 2.786755e-06 -0.00015240401
000240 1d 3a 18 39 a2 d5 90 b9 47 37 02 1c f2 2c a1 38
       0.00014517498 -0.0002762499 4.3084836e-22 7.68545e-05
000250 6a a9 bc b8 d6 12 09 b9 16 04 3b 36 19 db 41 b9
       -8.9960944e-05 -0.00013072355 2.786755e-06 -0.00018487535
000260 f4 20 87 39 81 67 d2 b9 47 37 02 1c 52 72 51 b7
       0.00025773759 -0.00040131438 4.3084836e-22 -1.2483988e-05
000270 c1 b8 47 39 85 81 42 b9 0b 2f 8e b9 0a 4c b2 b8
       0.00019046945 -0.00018549532 -0.000271194 -8.501865e-05
000280 c7 d3 b6 38 7c d9 ca 39 04 00 00 80 aa 2f 3e 3a
       8.717883e-05 0.0003869048 -6e-45 0.00072550273
000290 5d 56 26 39 54 ce 8e 39 04 00 00 80 66 e7 cc 39
       0.00015863166 0.00027238077 -6e-45 0.00039082317
0002a0 cf cf 63 39 d0 30 76 39 04 00 00 80 c5 79 19 3a
       0.00021725822 0.00023478572 -6e-45 0.0005854632
0002b0 e9 5a eb 38 2e 01 b4 39 87 d7 a6 b6 dd e3 69 39
       0.000112226066 0.00034333154 -4.972276e-06 0.00022305497
0002c0 ab f5 dc 39 11 93 72 38 d0 ac 74 9b 9d 15 e7 39
       0.00042144707 5.7834262e-05 -2.0239046e-22 0.00044075857
0002d0 fc 43 f2 38 a7 e9 9e 39 87 d7 a6 b6 22 1b 0b 39
       0.00011552122 0.00030310193 -4.972276e-06 0.00013266181
0002e0 68 45 1c 3a b5 69 01 b9 d0 ac 74 9b 61 97 20 39
       0.000596127 -0.00012341778 -2.0239046e-22 0.00015315182
0002f0 7d fb d2 3a 18 66 0f 3a b6 6d d6 3a e8 72 83 39
       0.0016096678 0.000547023 0.0016359601 0.0002507188
000300 79 2b 22 39 d2 9c 19 3a 04 00 00 80 ab 57 92 3a
       0.00015465719 0.0005859855 -6e-45 0.0011165043
000310 30 7b 5a 39 34 fe 00 3a 04 00 00 80 d2 c4 32 3a
       0.00020835991 0.0004920692 -6e-45 0.00068194896
000320 d4 06 a0 39 4d c0 e0 39 04 00 00 80 6a da 5a 3a
       0.00030522665 0.00042867885 -6e-45 0.0008348586
000330 43 c5 50 39 39 3c 19 3a 83 9f 9a b7 d2 4a 03 3a
       0.00019909911 0.00058454607 -1.8432509e-05 0.00050084025
000340 2c 29 f3 39 74 94 a0 39 59 23 93 9c 70 8d 24 3a
       0.00046379247 0.00030628184 -9.736781e-22 0.00062771793
000350 80 3d dc 38 83 8e 27 3a 83 9f 9a b7 a0 d9 d6 39
       0.00010501873 0.00063917803 -1.8432509e-05 0.00040979404
000360 19 e6 0b 3a 4a 06 84 39 59 23 93 9c 04 8b 8a 39
       0.00053367164 0.00025181688 -9.736781e-22 0.00026424986
000370 a7 97 a6 3a 01 e4 6c 3a d8 b3 2b 3b 56 26 d9 39
       0.0012709991 0.0009036661 0.0026199725 0.00041418028
000380 d4 78 0a 38 b9 3e 22 39 04 00 00 80 5f bb 27 3a
       3.3014294e-05 0.0001547289 -6e-45 0.0006398465
000390 50 0b 51 39 05 21 06 b9 04 00 00 80 1d 59 ff 38
       0.00019936007 -0.00012791537 -6e-45 0.00012175946
0003a0 d3 b8 69 39 74 2f bb b8 04 00 00 80 7b a9 1e 3a
       0.00022289464 -8.925694e-05 -6e-45 0.0006052476
0003b0 c1 ed 94 b8 49 89 a9 38 2e a4 7e b2 cd c8 34 b9
       -7.101475e-05 8.084119e-05 -1.4822076e-08 -0.00017240942
0003c0 90 0b 2a 3a d4 aa fb b9 96 78 56 1a 0f 13 05 3a
       0.00064867083 -0.00048001728 4.435157e-23 0.00050763873
0003d0 22 79 03 38 a0 92 a8 b8 2e a4 7e b2 0c 5d a8 b9
       3.1345648e-05 -8.038175e-05 -1.4822076e-08 -0.00032112782
0003e0 b9 c3 a0 3a 99 af 8e ba 96 78 56 1a 8f b3 ed 37
       0.0012265361 -0.0010886072 4.435157e-23 2.8336215e-05
0003f0 13 c5 0e 3b d2 7e 0f 39 9a 81 56 3a a5 89 83 38
       0.0021784946 0.00013684787 0.0008182764 6.272205e-05

exp_avg_sq f4 [128, 32]
000000 39 45 9b 33 89 4c 3f 36 95 59 d8 2e 35 be 8f 35
       7.2303415e-08 2.8505767e-06 9.838456e-11 1.0709688e-06
000010 df 6c c1 33 40 20 3f 36 60 11 9d 2e dc 97 82 35
       9.0070664e-08 2.847999e-06 7.14262e-11 9.729952e-07
000020 36 78 58 33 bf 43 41 36 55 e7 8c 2e 76 40 76 35
       5.040075e-08 2.8798675e-06 6.407556e-11 9.1735944e-07
000030 cf 14 05 34 4d 25 40 36 1f c1 bb 2e a8 33 61 35
       1.239416e-07 2.8631941e-06 8.538081e-11 8.38942e-07
000040 26 e6 b2 33 5a d9 41 36 cb 6b 18 2f b0 88 51 35
       8.330635e-08 2.8885756e-06 1.3862615e-10 7.8057474e-07
000050 d7 d8 45 34 8a de 3d 36 04 b4 76 2f b6 09 2c 35
       1.842594e-07 2.829273e-06 2.2437524e-10 6.4089124e-07
000060 aa 89 52 34 eb ea 33 36 cc 6a 20 30 df cd 18 35
       1.9607856e-07 2.6809819e-06 5.835943e-10 5.6923994e-07
000070 a0 cb 08 37 d9 d7 8b 36 a5 b3 be 37 c4 5c 6b 35
       8.153642e-06 4.167651e-06 2.2733419e-05 8.7679314e-07
000080 3b 15 0b 33 24 d2 8c 35 1e 7d 94 2d 87 0d f8 34
       3.238277e-08 1.0491972e-06 1.6881215e-11 4.6203442e-07
000090 38 f4 1d 33 2b 2c 8a 35 43 1d 94 2d 8e 45 d7 34
       3.6776527e-08 1.0294656e-06 1.6838647e-11 4.0097478e-07
0000a0 cb e4 36 32 b1 70 90 35 80 2b 32 2d c0 4b db 34
       1.0645816e-08 1.0761634e-06 1.01277875e-11 4.0847044e-07
0000b0 7c 15 b7 33 4d 64 87 35 2d 96 6a 2e b0 6e a5 34
       8.5255095e-08 1.0087475e-06 5.3338823e-11 3.081418e-07
0000c0 f6 a4 37 33 fd 11 90 35 82 7f 6a 2d ba 2b b1 34
       4.275804e-08 1.0734071e-06 1.33296724e-11 3.3000634e-07
0000d0 9c 72 d0 33 cc 9c 8a 35 12 1f 63 2e 50 e6 74 34
       9.706602e-08 1.0327435e-06 5.164142e-11 2.2808058e-07
0000e0 5c 78 0f 34 a1 2c 82 35 50 09 99 2d d2 bd 58 34
       1.33617e-07 9.698743e-07 1.7398222e-11 2.0185624e-07
0000f0 7a ae 50 36 58 b6 d6 35 79 39 0f 37 26 6e b4 34
       3.1095974e-06 1.5997311e-06 8.536846e-06 3.3607756e-07
000100 f3 3d 56 32 c9 ed 65 35 5e 6c b3 32 2f 84 bd 34
       1.2470525e-08 8.565517e-07 2.0887622e-08 3.530017e-07
000110 c1 fc c7 32 96 a3 61 35 32 ab b2 32 3b aa b7 34
       2.3281588e-08 8.405708e-07 2.0799778e-08 3.4210265e-07
000120 2c 91 4f 32 e9 70 6c 35 2e fe b2 32 51 e3 a4 34
       1.2081994e-08 8.8081157e-07 2.0837515e-08 3.0712775e-07
000130 38 3a 23 33 f7 bf 56 35 4a 1a b3 32 5f f7 9f 34
       3.8004345e-08 8.000056e-07 2.0850297e-08 2.9796044e-07
000140 5b f8 29 32 91 df 6a 35 d4 bf b2 32 2a 0a 8c 34
       9.893564e-09 8.7497125e-07 2.080916e-08 2.6084427e-07
000150 78 fe c6 33 89 77 41 35 79 61 b4 32 36 69 6a 34
       9.266381e-08 7.207205e-07 2.0999083e-08 2.1831224e-07
000160 2e 4f 51 33 85 f4 6b 35 52 1d b4 32 ea 24 3f 34
       4.8733618e-08 8.7900145e-07 2.0968091e-08 1.780169e-07
000170 8e c7 0a 3a f2 e3 eb 43 eb 5a ea 36 c1 1b 93 34
       0.0005294018 471.78082 6.9843277e-06 2.7401077e-07
000180 df e0 6a 32 75 eb 46 35 b1 de 6d 2d bd 7c ab 34
       1.3671722e-08 7.4103383e-07 1.3521338e-11 3.194199e-07
000190 31 0f af 32 ac 96 47 35 d6 7b 54 2d c9 cc a8 34
       2.037959e-08 7.4352533e-07 1.2078302e-11 3.144144e-07
0001a0 96 d9 8f 32 0c 7c 4b 35 f3 ab 54 2d 6c 0e 96 34
       1.6746338e-08 7.5803905e-07 1.2088985e-11 2.795017e-07
0001b0 11 6b 05 33 9e 22 40 35 dc ab 44 2d 05 b0 86 34
       3.1063852e-08 7.157595e-07 1.11794705e-11 2.5087516e-07
0001c0 2f 18 6a 32 0d ec 4a 35 da 0b f6 2c fd fc 71 34
       1.3626091e-08 7.5594363e-07 6.9930563e-12 2.253691e-07
0001d0 fb ba 2a 34 ee ee 1a 35 bd 69 92 2d 13 df 24 34
       1.5900507e-07 5.771716e-07 1.6645236e-11 1.5354844e-07
0001e0 02 4a 22 33 53 1b 4b 35 75 fb 90 2d c1 28 17 34
       3.7785874e-08 7.5663155e-07 1.6482574e-11 1.4077797e-07
0001f0 87 42 5c 36 66 6d 96 35 31 ab cb 36 66 b4 7c 34
       3.2821279e-06 1.120771e-06 6.0698007e-06 2.3534957e-07
000200 f2 ba 31 32 02 c5 48 35 32 7e f3 2c 5c 6b 80 34
       1.0345262e-08 7.479249e-07 6.920486e-12 2.3919972e-07
000210 a7 cf 8c 32 eb 4a 41 35 b2 c7 df 2c a8 72 77 34
       1.6392574e-08 7.200712e-07 6.360212e-12 2.304538e-07
000220 f4 dc 47 32 55 17 4e 35 ee 08 a3 2c 77 84 5f 34
       1.16335634e-08 7.677493e-07 4.63373e-12 2.0816684e-07
000230 49 b2 eb 32 87 85 3b 35 4d c4 93 2d 00 33 68 34
       2.7438675e-08 6.9857236e-07 1.679914e-11 2.1625237e-07
000240 24 29 55 32 e1 f1 4d 35 ff 51 39 2e b7 e4 40 34
       1.2407586e-08 7.672043e-07 4.2136957e-11 1.79646e-07
000250 2a 1d 82 33 ef 64 2d 35 29 8b 34 2e d4 97 3a 34
       6.058902e-08 6.45944e-07 4.105086e-11 1.7377835e-07
000260 89 f1 32 33 8e 73 48 35 b0 7a 13 2f ea 3b 0b 34
       4.166353e-08 7.467396e-07 1.341316e-10 1.296718e-07
000270 47 1c ed 35 30 4f 92 35 82 c8 af 36 bb 1a 76 34
       1.7666106e-06 1.0900894e-06 5.2387486e-06 2.292026e-07
000280 7c c1 ba 33 67 27 7a 36 32 f3 15 2b 59 4e b3 35
       8.6964945e-08 3.7275838e-06 5.3272935e-13 1.3359341e-06
000290 ab 7d 9f 33 a0 fc 75 36 97 c7 04 2b f5 09 a4 35
       7.426873e-08 3.6654892e-06 4.7172807e-13 1.222185e-06
0002a0 ea 54 a8 33 bb b7 7c 36 51 7f c1 2a a7 c9 9b 35
       7.8385554e-08 3.7657871e-06 3.437203e-13 1.1607088e-06
0002b0 5b 92 16 34 2e 2a 75 36 d6 73 4e 2d 1c 48 8d 35
       1.4023082e-07 3.6532397e-06 1.1735465e-11 1.0526305e-06
0002c0 a1 12 c3 33 9e 27 80 36 b3 56 06 2b c7 5c 85 35
       9.083784e-08 3.8193093e-06 4.772668e-13 9.936274e-07
0002d0 23 fe 8d 34 00 8c 6a 36 32 40 79 2d d3 f9 5a 35
       2.6448205e-07 3.4950208e-06 1.41682655e-11 8.157487e-07
0002e0 ad 21 71 34 89 15 75 36 14 ed 34 2d d1 74 3a 35
       2.2457125e-07 3.652038e-06 1.0284457e-11 6.946039e-07
0002f0 bc ff 1c 37 b5 56 b6 36 72 8c f3 37 88 39 99 35
       9.357867e-06 5.4341167e-06 2.9033257e-05 1.1416132e-06
000300 2b 46 02 34 5b 5f d3 36 c7 26 bc 2d d1 c0 19 36
       1.213272e-07 6.299391e-06 2.1390346e-11 2.291101e-06
000310 74 60 af 33 fd a3 d0 36 ec b8 c1 2d 22 8e 0c 36
       8.166617e-08 6.217974e-06 2.2023681e-11 2.0944358e-06
000320 a0 06 df 33 28 b1 d4 36 15 39 50 2d 2d 69 01 36
       1.0385452e-07 6.338716e-06 1.1836106e-11 1.9283718e-06
000330 9d f2 6f 34 b3 5a d2 36 28 08 43 2f 31 fc f4 35
       2.2346872e-07 6.2690465e-06 1.7738044e-10 1.8252814e-06
000340 6d 0a 14 34 fe b1 d7 36 8d d2 c7 2d 9d 22 dd 35
       1.3787367e-07 6.4282203e-06 2.2717184e-11 1.6475857e-06
000350 1e 3f ec 34 07 ea ca 36 9f db 50 2f d5 25 bd 35
       4.400435e-07 6.0473135e-06 1.8995515e-10 1.4092608e-06
000360 94 f2 9a 34 00 97 cc 36 b3 7b 71 2e ce ac 9e 35
       2.8861234e-07 6.0972525e-06 5.4906923e-11 1.182221e-06
000370 14 ce 6e 37 65 0d 19 37 85 70 48 38 b7 9c 00 36
       1.4233887e-05 9.122629e-06 4.7788508e-05 1.9164706e-06
000380 b6 5f 43 34 f8 21 2e 37 58 e3 7e 2c c4 61 75 36
       1.819561e-07 1.0379117e-05 3.6221772e-12 3.6564752e-06
000390 2c 64 a0 34 fc 81 28 37 4b a3 7a 2c 00 53 64 36
       2.9875207e-07 1.0043845e-05 3.5617783e-12 3.402296e-06
0003a0 cb b7 1f 34 98 20 31 37 0c 6f 5e 2a 7f 0e 59 36
       1.4874892e-07 1.0557611e-05 1.9756088e-13 3.2343958e-06
0003b0 c6 d8 ce 34 5e 31 26 37 32 75 d6 2c f7 af 46 36
       3.8528214e-07 9.905865e-06 6.095257e-12 2.9606724e-06
0003c0 45 7a 42 34 29 42 33 37 f3 9f 34 2a 0c e7 3a 36
       1.811214e-07 1.06846355e-05 1.6042705e-13 2.7850647e-06
0003d0 7a a6 71 35 c6 92 19 37 60 3d 49 2d b9 f0 16 36
       9.002175e-07 9.153684e-06 1.1439155e-11 2.249186e-06
0003e0 31 b5 49 35 4f b4 2c 37 10 21 83 2b 42 13 fc 35
       7.5142003e-07 1.029398e-05 9.317287e-13 1.8781068e-06
0003f0 07 49 e3 37 7f c4 7e 37 31 0a a8 38 eb 13 56 36
       2.7094515e-05 1.518533e-05 8.0127626e-05 3.1900079e-06

exp_avg f4 [128]
000000 3f 31 59 3a dc c2 58 ba 5b de 08 ba 5b ad 34 ba
       0.00082852313 -0.00082687824 -0.0005221122 -0.0006892287
000010 97 16 22 b9 7f ff ee 39 a7 68 45 3a f8 28 ef 38
       -0.0001545794 0.00045585257 0.0007530548 0.00011404039
000020 d3 60 57 ba 38 49 92 b8 44 4e a4 ba 48 67 dd b8
       -0.0008216027 -6.9754606e-05 -0.0012535532 -0.00010557339
000030 82 0a 8b ba 38 7e 8a ba e7 7c 63 37 05 b2 fa 38
       -0.001060799 -0.001056618 1.35593355e-05 0.00011954088
000040 ed 21 0e ba 03 d7 00 ba 7d fd f3 b7 50 05 e1 39
       -0.00054219255 -0.0004914852 -2.9085897e-05 0.00042919302
000050 ec f8 be b9 5e 80 08 39 c7 67 f9 37 18 c3 32 ba
       -0.00036425085 0.00013017791 2.9731438e-05 -0.00068192324
000060 bd 60 d7 b9 c6 48 02 b9 13 bc ab 3a 9a 44 58 38
       -0.0004108007 -0.00012424876 0.0013102315 5.1562303e-05
000070 bc 98 87 b9 ca 8b b2 39 e1 7e ca 3a 31 e8 a5 ba
       -0.00025863003 0.00034054957 0.001544919 -0.0012657699
000080 7f 6f 98 b9 ab 82 9f ba 41 0e 79 b8 26 a8 06 ba
       -0.0002907477 -0.0012169679 -5.93795e-05 -0.00051367504
000090 a9 e6 03 3a df 36 10 ba 84 cb 1f b9 8a 84 26 bb
       0.00050316245 -0.00055013405 -0.00015239237 -0.002540859
0000a0 06 3e 50 ba 3b 24 17 3a 56 57 41 37 18 4f 4d 3a
       -0.00079438125 0.00057655916 1.1524031e-05 0.0007831915
0000b0 98 f0 e2 b8 9f 3f 44 ba 2c ee 14 b9 08 f4 62 b9
       -0.00010821334 -0.0007486287 -0.00014203106 -0.00021643948
0000c0 e0 c3 c1 ba c4 8a 58 ba 9f 2a 48 ba 4e a0 a2 b8
       -0.0014783107 -0.0008260424 -0.00076357456 -7.754621e-05
0000d0 f3 b5 10 b8 c2 be 29 37 62 4c 28 bb e3 21 23 37
       -3.450173e-05 1.0117599e-05 -0.0025680293 9.723447e-06
0000e0 4f e8 0c b9 68 4d a6 ba e7 fc 08 3a 4c a8 db b9
       -0.00013437982 -0.0012687864 0.00052256737 -0.00041896326
0000f0 05 ab 49 39 cb d6 09 ba 50 32 20 ba 35 84 1c ba
       0.00019232563 -0.0005258142 -0.0006111013 -0.0005970628
000100 aa 52 ef 3a 33 34 bd b7 05 53 9a ba fd 63 f9 b9
       0.0018258889 -2.2554863e-05 -0.0011774009 -0.00047567478
000110 66 96 c5 ba f5 f5 bc b9 09 71 27 ba 63 22 22 39
       -0.001507473 -0.00036041407 -0.0006387388 0.00015462334
000120 5b b2 0f b9 23 26 39 b9 8f 9d 3c bb 9d d8 12 39
       -0.00013703985 -0.00017657182 -0.0028780436 0.0001400434
000130 76 85 c5 38 41 2e c7 39 83 58 2d b9 70 66 80 38
       9.418551e-05 0.000379907 -0.00016531539 6.122596e-05
000140 58 10 af b8 28 85 c5 b8 da 1b e0 38 e1 d8 ec ba
       -8.3476945e-05 -9.418494e-05 0.0001068634 -0.0018070006
000150 5a 55 bb 37 0f 0f db ba 42 b2 0a ba cf c0 98 36
       2.2331882e-05 -0.0016712862 -0.0005290845 4.552399e-06
000160 19 04 b4 ba 11 fc 1b bb ad a6 ae ba 39 f2 9e b9
       -0.0013734131 -0.0023801366 -0.001332482 -0.00030316578
000170 7e 0d b6 b9 2f ad 0b 39 40 98 e9 ba 0a de a9 b9
       -0.00034723798 0.00013320589 -0.0017821863 -0.00032399624
000180 fe ad 48 ba 17 e4 f9 ba 97 a4 df 37 06 84 00 b7
       -0.00076553214 -0.0019065168 2.6660315e-05 -7.660134e-06
000190 66 ea 93 ba 64 18 b6 36 5a 28 91 ba 7b 31 92 ba
       -0.0011285066 5.426862e-06 -0.0011074648 -0.0011153662
0001a0 31 38 8b ba 9a 6d 48 b7 41 17 1f 37 bd 78 15 38
       -0.0010621605 -1.1946448e-05 9.482553e-06 3.5636815e-05
0001b0 1b 79 5d ba f9 49 1e b7 8f ae 87 b9 91 1c 8e 39
       -0.0008448527 -9.434757e-06 -0.00025879263 0.00027105634
0001c0 42 5b 03 bb 9a 97 a9 b9 0e f5 4e ba 2c f3 fc b9
       -0.0020043408 -0.00032347144 -0.00078947924 -0.00048246363
0001d0 5e 97 98 b9 69 46 d2 b9 2c fe b6 b8 ed 5e 26 37
       -0.00029104477 -0.0004010678 -8.7257795e-05 9.916473e-06
0001e0 a2 7d 37 39 2b 0c 17 b8 b3 f0 b8 b7 6f fb 82 38
       0.00017499042 -3.6012538e-05 -2.2046594e-05 6.245716e-05
0001f0 86 9c 8d b9 74 61 14 ba 73 9f 3b ba 4f 4a 19 b9
       -0.00027010235 -0.00056602736 -0.00071572437 -0.00014618899
