Assets/Model/TankBrain/TankBrainML/TankBrainML-119808.pt (torch, 522323 bytes, 36 tensors)

network_body._body_endoder.seq_layers.0.weight f4 [128, 32]
00000000: 992d 2abe 0021 b9be 629a 9bbd cca9 953d
00000010: 9aaf 813e dc27 bfbd fb9b 6bbe aa0f 9dbc
00000020: 8f52 e7bd d368 993e 18cd d3bc c223 d73d
00000030: 3fbf cd3d 4540 873e 669c b5be 6241 c7bd
00000040: 4ffa 0f3e 3889 003e 30b0 84bd a770 843d
00000050: 847e 04be 2190 e33e 14a8 2e3e 2bc3 00be
00000060: cf72 093e 1ae6 5cbe 5bef d33c 3942 b9bc
00000070: 5971 1b3e eb74 a23e 18eb 863b d127 b53e
00000080: 1224 b9bc e5b5 35be 0d51 89bd 87b6 d43c
00000090: da1c ddbd 1b72 4bbd f56b 1f3e a4e5 123e
000000a0: ec1a b9be a0dd 3d3e 7d40 38be ec61 4b3e
000000b0: 54dc 73bd f24f 8dbe 37f5 903e 9264 f83d
000000c0: df09 353e f2da 7a3e 9c37 8e3e b2cd a23d
000000d0: 14ea 25bc da48 cd3d 1279 3cbe 2ae5 18bd
000000e0: aaca 23bc 63ac 2abe c2b4 2bbd 1254 bfba
000000f0: 23ca bf3d 214d 853e 4356 f5bd ab01 32be
00000100: ff93 1ebe 541a 5c3e c8bf 13be 81b8 873e
00000110: bffa 1d3e 1efb f43d a9a7 743d f23f 853e
00000120: 8e37 ea3a d15e 583e 59ea 68be 2c59 903c
00000130: fde5 e1bc ca96 16bd 4634 13bc ea6c f43d
00000140: b50d 99be d090 673e f900 953e 1a55 f83d
00000150: 57b1 343e 03c7 683e 1b7d 67bd 6c99 bbbd
00000160: d5fe 9abd 3c8b 14bd aead b2bd 0074 483c
00000170: 3e3c 5e3e 5831 28be 6220 10be 58a7 bbbd
00000180: 0e8d 80be 962e 81bd 6963 8abd c427 12be
00000190: 2401 b43b bb9e 6dbd 1bfb 673b 186c 3f3e
000001a0: 66ec d83b c332 73be 8c75 5f3e 15c5 3a3e
000001b0: 73e3 b2bc 9c37 1d3e c269 0c3e bb6d 933e
000001c0: b2db 47bd 0ca0 2e3e d727 56be 8081 e03d
000001d0: af36 cb3e f400 babc 2271 fbbd cc97 84bd
000001e0: 9745 37be d6ed 003d 9478 dcbd 691c f53c
000001f0: 63a4 ab3e 6327 ce3d 1e74 93be 9390 bc3d
00000200: 3251 4abe b5f2 28be 8c32 69be c904 45bb
00000210: 0dda 3c3e b0ca 3f3d 64c2 8a3e e936 19be
00000220: fd7b 9e3e 3be3 7f3e 0d28 25be 2e4a 5d3e
00000230: 1a2b a1bd 2219 62bd 233b 19bd 3b79 8dbe
00000240: 41eb 3ebd 7a84 253e d318 49bd 9a10 a0be
00000250: abd3 ce3d 5522 88bd 010f 21be 2d91 ffbc
00000260: 33b5 943e 1315 253d 006f 933e c47a 7abd
00000270: aebf 67be aa5d 4a3e 7908 97bd 5018 d63d
00000280: 8293 763e e666 9cbd dfc1 a0bc 76bb 78be
00000290: 6b19 75be 6179 c63d 6024 4bbe dc3a 2ebe
000002a0: d8a1 03be 753f bf3d cd60 b7bd 0c9b 06be
000002b0: 2010 cfbc f6b0 79bd 7512 df3d 6416 68bc
000002c0: 6a11 d6bd d2a8 3d3d 1b4f 92be 1f92 11be
000002d0: f4d1 483e 0e51 853e 0079 9bbc 23d3 503e
000002e0: 0d38 2cbd cdf7 153e 8517 ae3c 6558 9abc
000002f0: b2de c33d 533e 7a3e 880c 9439 9ba8 0e3e
00000300: 7a75 31be 9ab4 89be 9029 233e 2a6c 913b
00000310: 4fa4 12be dae9 ab3e 0dce 243e f664 143e
00000320: 663d 10be 2dd8 323e be6e 033e 87df b6bc
00000330: fc3d 66bc 9b87 c23d e686 e53d ab6d a43d
00000340: 4554 16be 4db4 8bba 4dab 04bd 8001 90bc
00000350: ca5a 943d adf3 25bd e85c df3e 4a03 dfbd
00000360: 06d2 fdbd 7090 af3d 50e3 68bd bde0 41bd
00000370: 3145 1fbe f384 733e 0b3d 8dbd c13a 7cbe
00000380: 2d65 70bd 6533 bd3c 087e ef3d 5a79 83be
00000390: f168 643e 5b88 6bbe eb21 ee3b 5971 be3d
000003a0: b372 6fbe e96d 553d 9628 43be 6691 4cba
000003b0: e43d 903d a2e6 4a3d 92b1 d73c 24b0 6cbe
000003c0: 2d86 1dbd aefd a53e 836b 50be c987 25be
000003d0: 3a2f 063e 6fa4 34be c213 e03d 4586 95bd
000003e0: f213 6e3d 3559 e53d b4c0 d0be 202e a8be
000003f0: 998f 993d 9574 743e b87c c6bc 06ab ba3c
-0.16618957 -0.3615799 -0.075978056 0.07307777 0.25329286 -0.093337744 -0.2300872 -0.019172508
-0.11295044 0.29962787 -0.025854632 0.10504867 0.10046243 0.2641622 -0.35470885 -0.09729268
0.14060329 0.12552345 -0.064789176 0.06466799 -0.12938887 0.444459 0.17056304 -0.1257445
0.13422702 -0.21572152 0.02587097 -0.022614585 0.15179957 0.31729826 0.004117381 0.3538194
-0.022600207 -0.17745169 -0.06704912 0.025965942 -0.107965186 -0.049669366 0.15568526 0.14345413
-0.36153352 0.18541574 -0.1799335 0.19861573 -0.059536293 -0.27600056 0.28312084 0.12128557
0.17679547 0.24497584 0.27776802 0.079493895 -0.010126609 0.10023661 -0.1840556 -0.037327923
-0.009997049 -0.16667323 -0.04192043 -0.0014597198 0.093647264 0.26035407 -0.11979344 -0.17383449
-0.15486144 0.21494418 -0.14428627 0.26507953 0.15427683 0.11961959 0.059730206 0.2602535
0.001786934 0.2112992 -0.22745647 0.017620645 -0.027575487 -0.036764897 -0.008984631 0.11934836
-0.2989327 0.22613835 0.29102305 0.12125607 0.17645775 0.22732167 -0.056515794 -0.09160122
-0.075681366 -0.036265597 -0.08724533 0.012234688 0.21702668 -0.16425073 -0.14074853 -0.09162778
-0.25107616 -0.06307714 -0.06757242 -0.14272982 0.0054933 -0.058012705 0.0035397473 0.18693578
0.0066199778 -0.23749833 0.21822184 0.18239243 -0.021836972 0.15353245 0.13712218 0.28794655
-0.048793502 0.1705324 -0.20913635 0.109622 0.39690158 -0.022705533 -0.12277438 -0.064742655
-0.1789764 0.031476818 -0.10765186 0.029920774 0.33523855 0.10066106 -0.28799528 0.09207263
-0.19757536 -0.16498835 -0.22773188 -0.0030062667 0.18442555 0.046824157 0.27101433 -0.14962353
0.3095397 0.24989025 -0.1612856 0.21610329 -0.07869549 -0.05519975 -0.037409913 -0.27631554
-0.046611074 0.16163817 -0.04909594 -0.31262666 0.10098966 -0.06647173 -0.1572838 -0.031197155
0.29044494 0.0403033 0.28795624 -0.061152235 -0.22631714 0.19762293 -0.07374663 0.10453856
0.24079707 -0.07636814 -0.019623695 -0.2429026 -0.23935477 0.0969112 -0.19838095 -0.1701464
-0.12854707 0.09338275 -0.0895401 -0.13145083 -0.025276244 -0.06095978 0.10892192 -0.014165495
-0.1045254 0.046303578 -0.28575978 -0.14215897 0.19611341 0.26038402 -0.018978596 0.20393042
-0.04204564 0.1464531 0.02125145 -0.018840978 0.0956396 0.24437837 0.00028238096 0.13931505
-0.1732997 -0.268956 0.15933824 0.004437943 -0.14320491 0.33576852 0.16094227 0.14491639
-0.14085922 0.17465277 0.12835214 -0.022323383 -0.014052864 0.09498521 0.112073705 0.0802873
-0.14680584 -0.0010658592 -0.032389928 -0.01757884 0.07243879 -0.04051559 0.4362557 -0.10889299
-0.123935744 0.08572471 -0.056857407 -0.047333468 -0.15553738 0.23781185 -0.06896409 -0.24631788
-0.05869024 0.023095796 0.116939604 -0.2567852 0.22305657 -0.23001234 0.007267227 0.09298963
-0.23383598 0.05210677 -0.19058451 -0.00078036485 0.07043055 0.049536355 0.02632979 -0.23114067
-0.038458038 0.32420105 -0.20353512 -0.16165079 0.13103953 -0.17640851 0.109412685 -0.073010005
0.05812449 0.111986555 -0.4077202 -0.3284769 0.07498092 0.23872598 -0.024229392 0.022786628

network_body._body_endoder.seq_layers.0.bias f4 [128]
00000000: a190 06bb 2102 06bb 5897 0239 842b 283a
00000010: 9b32 0cbb 09cf 6cba 58ed 32bc 61d7 843b
00000020: 60cf 0fbc 4c7c fcba 6305 6c3b 4d60 76bb
00000030: a0f4 c339 5fe6 68bb 437e 023b 0f30 07bc
00000040: 3919 1bbb 5b1e a83b d277 583c 5114 8cbb
00000050: 0818 efb9 5450 01bc c1af 35bc fd39 fa3b
00000060: 775a 5dba f396 21bb 99f6 923b 409a a03b
00000070: 5df2 eeba c7ba 9ebb eed1 aabb 8ffc dd3a
00000080: b011 7c3b 09c2 2e3b ff6b 89bb 22c3 8ebb
00000090: 7a67 193b e75c a7bb 0ca6 923b b46b 37bb
000000a0: e38b 34bb d879 f1ba fff6 d639 213e 86bb
000000b0: b5ad c3b8 36c4 84bb b3ef bfba d259 16bb
000000c0: 8218 d4ba ee04 b6b9 99e4 53bb ccb4 cabc
000000d0: 9cdf f0bb 7a86 92bc e039 b8ba 046b d7bb
000000e0: 2088 97ba 4624 9fbb ae3e 453b b370 823a
000000f0: 97fc 213b 32eb 71bb e225 883b ee4d 37bc
00000100: 9355 75b9 4a00 5cbc 8f89 e03a 863a 36bc
00000110: a741 0fbc 42f8 153c 80cb 103b b004 93bb
00000120: 3c05 50bb 8c8f 9fbc 84b0 5f3b 1ea3 cfba
00000130: db09 a1ba e6db 0abc 0697 17bb 041b cfba
00000140: 3a84 a0ba 7bbd bebb d108 9c3a 9ffa 8e3b
00000150: 20f9 3dbc 86af dbba 3d14 47bb 441c b2ba
00000160: 85bd 823a 7e10 afba 32f2 23bb 9540 3ebc
00000170: e140 553b 424e 15ba e1ac f2bb 9b55 8ebb
00000180: 6528 8c3a e921 4bbb e487 0ebb 816c b9bb
00000190: 2134 eaba da47 a1bb 45a2 203b c016 27bb
000001a0: f773 073b 3179 8f3b 3b71 74b9 b09e 31bc
000001b0: 608e 2cbb 642e 5abc 7f9b 8cbb 6383 6cbb
000001c0: d2a3 903b 953e 83bc 802c cc3b 0f4a 4d3a
000001d0: 55c6 19bc 5717 abbb fb14 92bc 67c0 83bc
000001e0: 1015 74ba c393 50bc 4ed0 ddbb 5a4f 84bb
000001f0: 8bb0 aa3a 811a 21bc 758a 79bc 4088 be3b
-0.0020532983 -0.0020448046 0.00012454146 0.0006415176 -0.0021392468 -0.0009033536 -0.010920845 0.0040539955
-0.008777469 -0.0019263118 0.0036013953 -0.003759402 0.00037375558 -0.0035537702 0.0019911684 -0.008251204
-0.0023666157 0.005130572 0.013212161 -0.004274883 -0.00045603537 -0.007892687 -0.011089266 0.0076363073
-0.0008443961 -0.0024656623 0.004484963 0.0049012005 -0.0018230189 -0.004844043 -0.005213014 0.001693623
0.003846269 0.0026665947 -0.0041937823 -0.0043567577 0.0023407624 -0.0051075104 0.0044753607 -0.002798778
-0.00275492 -0.0018423153 0.00041001287 -0.004096762 -9.33068e-05 -0.0040517105 -0.001464358 -0.002294172
-0.001618162 -0.00034717418 -0.00323323 -0.024744414 -0.007350875 -0.017886389 -0.0014055334 -0.0065740366
-0.0011560954 -0.004856619 0.0030097174 0.00099518 0.0024717206 -0.003691387 0.0041549066 -0.0111880135
-0.000233969 -0.013427803 0.0017130839 -0.0111223515 -0.00874368 0.009153428 0.0022093952 -0.004486643
-0.0031741401 -0.019477628 0.003413231 -0.0015841459 -0.0012286262 -0.008475279 -0.0023130788 -0.0015800898
-0.0012246438 -0.0058209277 0.0011904483 0.0043633725 -0.011595041 -0.0016760684 -0.0030377053 -0.0013588746
0.0009974694 -0.0013356355 -0.0025016186 -0.011612077 0.0032539892 -0.000569556 -0.0074058627 -0.004343701
0.0010693191 -0.0030995554 -0.0021748478 -0.0056586866 -0.0017868319 -0.0049218955 0.0024510783 -0.0025495738
0.0020668486 0.004378461 -0.00023311835 -0.010841057 -0.002632998 -0.013316724 -0.0042909975 -0.0036089055
0.00441406 -0.016021052 0.0062308908 0.0007831165 -0.009385665 -0.005221288 -0.01783227 -0.016082956
-0.0009311 -0.012730542 -0.0067692166 -0.0040377798 0.0013022585 -0.009832979 -0.015230765 0.005814582

network_body._body_endoder.seq_layers.2.weight f4 [128, 128]
00000000: 2ebd c43d 2990 013e 1356 b0bd 9949 543d
00000010: c2e3 a1bc 1126 b63d 8707 f73d 07b3 e1bc
00000020: 9f46 d8bc 8cdd 2cbd 0083 3b3c 2d62 0d3b
00000030: 7e29 b6bd c473 023d 7a28 503d 2dee c8bc
00000040: 28d5 a63d 792b 013d 0ff8 ccbd 4cbd 43bd
00000050: c0d8 ccbd 4368 a93d 6ff4 723b f396 003e
00000060: d933 00be 4cc4 533d ced5 f6bc 6e85 f83c
00000070: 7b87 58bc fc7d cf3d 9b75 5f3d bc35 debc
00000080: 26ec efbd e020 adbb 2e6b d5bc c7fb ee3d
00000090: 9c94 e0bd e16b c0bb 0859 e4bd 31e0 02bd
000000a0: f3be 043e c2d0 8c3c b5e0 adbd cfcb febd
000000b0: e51d 943d 9b5e 1e3e cfb5 723d 8d30 b73d
000000c0: 2c74 8abd e917 243c c04e db3d 5d7d bdbd
000000d0: 8536 983d 86b2 3a3d 8799 6d3b f658 c13d
000000e0: fa5e f23d 0129 2d3e 5758 b3bd 8aa1 0dbe
000000f0: 98f5 c6bc 978e bebc 2019 323d e567 2abe
00000100: d4dc 093e c513 323d d563 19be 2289 acbd
00000110: fba6 263e fe1c dc3d 36b7 cb3d 40eb 14bd
00000120: d583 28bc 5954 d13d 4500 4ebe c2a7 20bc
00000130: 279b a6bd 6077 a7bd 978c d9bd 0afa 38bd
00000140: dc79 97bc c4ca 67bd eed5 29bd 5c09 33bd
00000150: 4c14 63bd 31fd d2bc 3d07 dbbd ed81 193c
00000160: 067a 443e 7b9d 563d c588 523d 109c 3fbd
00000170: b394 d4bd 6f56 bfba 1822 9d3c 1b45 6fbd
00000180: d6b2 56bb 8bcb c93d 4278 b6bc 97b9 633d
00000190: 730c 8dbd 5291 a73d 6dd3 37bd e29b 28bd
000001a0: d2cc 983a 6ce4 0ebd d7d1 0e3c 8140 f5bd
000001b0: 2ef4 503c 4dff 5a3b 543d 17bd 5d44 143e
000001c0: f098 c73d 5845 ab3b c7dc c13c 7c5c d8bc
000001d0: 9d90 02be b76a a33c 7909 993e aa50 b03d
000001e0: 9ea2 0abc febd cfbc 471c 283b 4021 1abd
000001f0: 5542 1abb 7b87 24bd 9578 a1bd c2d4 a83d
00000200: 2fea 483d 6bfa f1bb aa0f 8abc 9fc4 533d
00000210: efe7 d6bc 5888 f33d dd75 623d c8b7 b53c
00000220: efda a63e ef1f 29bd 8676 0e3e e1bf 093e
00000230: 7f3c a23c 4cf0 173d f7b5 d83d e1e0 ee3b
00000240: b85b 643d dc82 e63d b3d0 903d a369 2ebe
00000250: 171f a6bd 2d8e 7f3c 3f95 e2bb 2415 a0bb
00000260: cb15 5d3c 2531 a6bd 03f7 0bbd 2b9f 17be
00000270: 078f 1c3c 8d6a 11be 070a 32bd e589 ef3b
00000280: 8ff2 b93d 5d20 29be 01d9 d03d c312 12be
00000290: c6a6 073e 30e6 3d3b dce5 09be 4afa e1bc
000002a0: 0fca 353d 5a04 18bd c06b 49bd c170 fa3d
000002b0: f0e8 943a 09b0 663d a67d 7dbb 27f8 a63d
000002c0: 30ef 083e 9506 e23c b3c0 a33c 125a e8bb
000002d0: 0c9e 333d ac39 763d e24e 853d c0cd e5bd
000002e0: e605 86bd d8b7 ef3c 8453 5fbd c394 1dbc
000002f0: aaaa 4abc fa8f 73bd 4ef2 b03d 28cc acbd
00000300: b355 1dbe d0c6 d03d 07e0 403d db28 90bb
00000310: 3922 01bd 8370 32bd 9ab3 94bd 4888 0abe
00000320: 0dce 08bd 7e45 05be f783 d3bd 47d8 62bd
00000330: 4077 92bd 4c69 14be 38e7 b13d 9c24 c83d
00000340: 0cc6 b23d 1c6a 073d 18ad c53d 2c3f 4c3d
00000350: be8a fc3c 2c61 893d 8a94 ebbd a462 54bc
00000360: 8081 503d 08c9 0dbe de2d e23d a9b3 f9bc
00000370: 18b3 a03c f915 b6ba 67ae 2c3d 37ef af3d
00000380: 51b2 92bd 9140 21be 701a e8bc f672 29be
00000390: 7d36 bc3d 3d23 843d 5a03 013d c566 443d
000003a0: 2611 cd3d f268 f23d 4cd4 02be 40b7 32bd
000003b0: 2ea1 91bd d9a5 5b3d 9c93 efbc 02c9 cc3d
000003c0: 2b75 1bbe 3f12 83bd 4a30 ddbd 4fe6 a6bd
000003d0: 1660 b23d 61e8 063c 7776 d03c f027 4f3d
000003e0: 22d0 7dbd 0efb 37bd cafb bd3c f191 94bd
000003f0: 6b10 833d 1363 d43d 0cc5 d63d ea68 7f3d
0.09606396 0.12652649 -0.08610167 0.051828 -0.019761924 0.08893979 0.120619826 -0.027551187
-0.026400862 -0.04220347 0.011444807 0.002157341 -0.08894633 0.031848684 0.05081985 -0.024527634
0.08146125 0.0315356 -0.10008251 -0.04778795 -0.10002279 0.082718395 0.0037071963 0.12557583
-0.12519778 0.051700875 -0.030131247 0.030337062 -0.013215895 0.101314515 0.054555517 -0.027125232
-0.117149636 -0.00528346 -0.026052084 0.116691165 -0.10965845 -0.005872235 -0.11149794 -0.031952087
0.12963466 0.017189387 -0.08490125 -0.12441217 0.072322644 0.15465777 0.059255417 0.08944807
-0.06760439 0.010015466 0.1070838 -0.09252427 0.07432274 0.04558041 0.003625484 0.09440796
0.118345216 0.16910173 -0.08757084 -0.13831154 -0.02428703 -0.023261352 0.043480992 -0.16641195
0.13463145 0.043475885 -0.14979489 -0.084245935 0.16274635 0.10747717 0.09947054 -0.036357164
-0.010285337 0.10221166 -0.2011729 -0.009805622 -0.08135062 -0.08177066 -0.106225185 -0.04516033
-0.018490724 -0.056589857 -0.041463785 -0.043710098 -0.05543928 -0.025755497 -0.1069474 0.009369356
0.19187173 0.05239628 0.051399965 -0.046779692 -0.103799246 -0.0014597903 0.019181296 -0.058415513
-0.0032760403 0.09853276 -0.02227414 0.055596914 -0.0688714 0.081820145 -0.044879366 -0.041164286
0.0011657721 -0.03488581 0.008717022 -0.11975194 0.0127535295 0.0033416331 -0.03692372 0.14479204
0.097459674 0.0052267723 0.023664845 -0.026411287 -0.12750478 0.019948347 0.2989004 0.086091354
-0.0084616225 -0.02535915 0.002565162 -0.037629366 -0.0023538072 -0.040168267 -0.07884327 0.08243705
0.04905146 -0.0073845885 -0.016853172 0.051701184 -0.026233641 0.1189124 0.055288184 0.02218236
0.32588908 -0.04129022 0.139124 0.13452102 0.019804237 0.0370944 0.10581582 0.0072899912
0.055751532 0.11255428 0.07071056 -0.17032485 -0.08111399 0.015597862 -0.006914764 -0.0048853327
0.013493965 -0.08114842 -0.034171116 -0.14806812 0.009555585 -0.14200802 -0.043466594 0.0073101395
0.090794675 -0.16516252 0.1019764 -0.1426497 0.13247213 0.0028976314 -0.1346659 -0.027585167
0.04438215 -0.037113525 -0.049175024 0.12228537 0.0011360925 0.056320224 -0.0038679629 0.081528
0.13372493 0.02759103 0.019989347 -0.0070908153 0.043851897 0.060113594 0.06509186 -0.11220884
-0.06544094 0.029262468 -0.054523006 -0.009617987 -0.012369791 -0.05946348 0.08639966 -0.08437377
-0.15364723 0.101941705 0.04708865 -0.0043994016 -0.031526778 -0.04356433 -0.07260819 -0.1352855
-0.03339963 -0.1301479 -0.10327905 -0.05538204 -0.071516514 -0.14493293 0.086866796 0.09772608
0.08729181 0.03306018 0.09652156 0.049864933 0.030827876 0.06707987 -0.11502941 -0.012962971
0.05090475 -0.13846219 0.11043905 -0.030481176 0.019616649 -0.0013892046 0.04215851 0.085905485
-0.071629174 -0.15747286 -0.028332919 -0.1654776 0.0919008 0.06452034 0.031497337 0.04794957
0.100130364 0.11836423 -0.12776297 -0.043631792 -0.07110821 0.05362496 -0.02924519 0.09999277
-0.15181415 -0.063999645 -0.10800226 -0.08149397 0.08709733 0.008234114 0.025447113 0.050575197
-0.06196607 -0.04491716 0.023191351 -0.072543986 0.06399616 0.103704594 0.104868025 0.062355913

network_body._body_endoder.seq_layers.2.bias f4 [128]
00000000: db23 a2bb 69eb 9d3b 673f 14bb 06f3 cbba
00000010: da9b 3b3b cd1d 12b9 342c bfbb e986 20b9
00000020: 4831 25bb cb59 1d3b 3143 9fba 7651 28bc
00000030: ac8f b839 110b c8bb 1f1c 55b8 b6d3 f13a
00000040: b088 db3a 85ca 2bba 1164 a4b9 e437 b038
00000050: 0541 dd3b c9a2 01bc 973f 25ba 7cdb 28bc
00000060: 725f 6c3b 347d 38bb 2458 04bb 1ea5 9a3b
00000070: 5383 713b 7580 38bc bb96 01bb d000 c6bb
00000080: d944 2ebc da31 6ebb 3faf 4c3a ffa5 ccbb
00000090: 4b82 bc3b 2822 8a3a c15a e53b 6b03 433b
000000a0: 10a9 6e3b 55f7 0cbc 4551 c2bb 5f89 c4bb
000000b0: b81f 2eba d0b0 bd3b 5073 1dbb 9bdb e7bb
000000c0: 9b81 043a 8796 f93a 24cb 073b 59f8 e539
000000d0: 9095 8eba 7eea 1fbb 11a9 803b c09a a9bb
000000e0: db83 45bb 833d ecba 1b32 aa3b 9115 70ba
000000f0: e42a a1bb 54cd 4d38 7af4 023c e1fd 443a
00000100: 84e4 f8bb c9b4 35bc 1d85 9dba 9c14 15bc
00000110: 43c5 92ba 7eae 83ba 54c0 5dbb 5394 4c3b
00000120: 6f38 95bb 374d 033b 1911 e6ba aa25 46ba
00000130: 51b1 90b9 f649 b2bb 0cb2 a2ba dd09 36bb
00000140: f851 6fbb 6337 5f3a 9a63 fcbb 26b5 7d3c
00000150: 1d6a f5ba 4565 313b 31a0 a63b 30ff 89bb
00000160: 3051 f4bb ba75 b7bb fb22 a13a 8d85 ebb9
00000170: 3922 b33b 111a 4b3b 01b5 123c 818e 9abb
00000180: 0a0c 11bb 936f 87bb 5323 343b 0cbb 3bbb
00000190: 2a5c 933b 3b43 d8bb 0f4e ea3b d361 1fbc
000001a0: 3944 1d39 320c 22bc ab63 96bb 8fa4 903b
000001b0: 94d8 c13b 7e0d 3cbb e309 f43b fbce 0f3c
000001c0: 3455 853b 1ace 963b 68ef 7bbb fe46 0ebc
000001d0: 9ee2 f639 8cf4 e9bb a6d7 0dbc 0434 393b
000001e0: cd3d 44bb 1359 963b 99eb b7bb 3004 573b
000001f0: 2e23 913b f2bc 2cbb cd71 02ba d9c3 12bc
-0.004948122 0.004819323 -0.0022620799 -0.0015560098 0.002862683 -0.00013934747 -0.005834127 -0.00015309047
-0.0025206376 0.002400982 -0.0012150762 -0.010273328 0.0003520226 -0.006104835 -5.0809347e-05 0.0018449936
0.001674911 -0.000655331 -0.00031355073 8.4027444e-05 0.0067521357 -0.007912346 -0.0006303726 -0.010306235
0.0036067632 -0.0028150799 -0.0020194137 0.0047193905 0.0036851957 -0.011261095 -0.001977368 -0.0060425773
-0.010636532 -0.0036345632 0.0007808096 -0.006245374 0.005752837 0.0010538744 0.006999344 0.0029756676
0.0036416687 -0.00860389 -0.0059300982 -0.005997821 -0.00066422997 0.0057889 -0.002402503 -0.0070757396
0.0005054713 0.0019042053 0.0020720446 0.00043863317 -0.0010878313 -0.0024401243 0.0039264043 -0.0051759183
-0.0030138406 -0.0018023703 0.0051939613 -0.0009158487 -0.004918443 4.9067035e-05 0.007992858 0.00075146375
-0.0075956006 -0.011090466 -0.001201782 -0.009099152 -0.0011197705 -0.001004651 -0.003383656 0.0031216338
-0.0045538465 0.0020035037 -0.0017552703 -0.0007558713 -0.0002759793 -0.0054409457 -0.0012412681 -0.0027776875
-0.0036517363 0.0008515028 -0.007702303 0.015485084 -0.0018723641 0.0027068418 0.0050850143 -0.004211329
-0.0074559674 -0.005598751 0.001229375 -0.00044922196 0.005466726 0.0030990879 0.0089542875 -0.004716695
-0.002213242 -0.0041331737 0.0027486875 -0.0028645424 0.004497071 -0.0065998114 0.0071504186 -0.009727913
0.00014998102 -0.009890603 -0.004589518 0.004414148 0.0059157107 -0.0028694565 0.0074474677 0.008777375
0.004068995 0.004602206 -0.0038442258 -0.008683918 0.0004708962 -0.007139748 -0.008657372 0.0028259763
-0.0029944063 0.004588255 -0.005612802 0.0032808892 0.0044292426 -0.0026357737 -0.0004976064 -0.0089578265

action_model._continuous_distribution.log_sigma f4 [1, 2]
00000000: 5d27 52bb 1274 8d3b
-0.003206692 0.004316815

action_model._continuous_distribution.mu.weight f4 [2, 128]
00000000: 8243 2dbc 0590 21bb 5187 f3bb 5a24 c2bc
00000010: 9f34 df3b 8082 a2bc f4f1 d5bc c3fe 02bd
00000020: 9d54 1c3b 91ae 0e3c 1fea ec3b a9fa 80bb
00000030: 40e3 873c 9c12 adbc 2439 b53c 5815 cb3c
00000040: 3c4e 003c 3710 2fbc 7e95 733c 5a26 843c
00000050: d293 443c 6a75 213a e07f 1ebb 3972 cabc
00000060: a525 e33b 932a 943c 3e6a c839 078b d93c
00000070: 8411 313c abac 54bc 8deb 4fbd 2ad0 a9bb
00000080: 5de2 fbbb f709 b3bb 26b2 a83c 10d0 8abc
00000090: cd77 633c 392e 3d3c eea4 c8ba 7094 b5bc
000000a0: 0593 083d 934d a1bc 2389 aabc 4acd 21bc
000000b0: 2ab1 c53c e7f3 153d 1dbc 2c3c a038 e2bb
000000c0: 664a e3bb f1bf 063c 5dff bd3c 176e 853c
000000d0: ddb5 073d 82f3 05bb b7d7 e539 ece1 40ba
000000e0: fcf2 943c 2355 eb3b 66c3 e83c b3b9 1ebc
000000f0: 6ef4 fcbc e94a 5a3c 6b17 773c fe11 af3a
00000100: 355f 30bc de2d 00bc c3ff fa3c cfb4 153b
00000110: 1978 c43b 4ea4 d43c b5c2 84bc 082b acbb
00000120: 5ffa 14bc ff16 4e3b a1cf bcbc 87dc d1bb
00000130: ca83 003d d5e6 20bc 65fd 973a 18c8 8c3c
00000140: 2180 c5bb 6ac2 953c 34d5 97bc db25 1d3d
00000150: 5902 b33c d644 553c 24e8 723c 9216 85bc
00000160: 6227 28bb ecec 3cbb b8e9 1b3a 508b b43c
00000170: 7436 1c3c 4a86 223c 8e4e e63c 7a1a 06bc
00000180: e31d 57bd a0c0 d1bb ddbd e6bb 90cd 1cbd
00000190: 51fd 8b3c 44d0 2dbc ff7f 6d3c 20ec a93a
000001a0: 6ca6 103d 264f 5abc e472 22b9 55e9 2e3c
000001b0: fae1 b63b 972d c4bc 671e 283c 3607 053d
000001c0: ba3f 7a3c baf9 bb3c 716f 00bd 7761 bfbc
000001d0: aa3c 11bc dc75 3abc f0d4 bebc 69cc 863c
000001e0: 6ff5 893b 690a c53c c254 65bc 9bbe aab9
000001f0: 80a6 b2bb 8a06 b3bc 00b3 ff3b cfe3 9abc
00000200: 4fd3 cbbc 1f7b 3e3c f6f5 e33c c713 363c
00000210: 8483 103d 66ef 403c 12a4 393c 5267 453c
00000220: 538a 0bbd 378c 2c3d 9d60 bfbc afb5 913b
00000230: c42b 1abc 7483 273c 3664 04bd 35ef 823c
00000240: 10c9 b13c 4978 ae3b e037 c139 4976 e03b
00000250: ca6e c33c 9875 f53b 211f f43c c2c5 ebbb
00000260: a93c 2a3d 4972 4dbb 415c c43c b019 123d
00000270: 240b b83c 032e 00bc fe10 c33b 33ba 7cbc
00000280: 09cf 133c 47fa 913c e362 c0bc 03f5 8dbc
00000290: 8538 c23c ac1b 913c b8a7 283b 9001 dc3c
000002a0: 952d 22bc 768d b53c cfaf bbbb a565 8eb8
000002b0: c4de c4ba 14b6 383d b68a bd3b fa0f 0ebc
000002c0: 106a 7a3c 9eed da3c 615f 8eba a605 aa3a
000002d0: dbd1 3ebc 0386 bdbc 675b e03c 77e7 19bd
000002e0: 05ff ecbc 08da 17bd 9d65 d73b a115 e93b
000002f0: 07d9 3e3c 6f8c 953c 0919 ad3b a6b4 ba3c
00000300: e161 363c f147 b93b bd98 2fbd 2949 25bc
00000310: 90e0 5dbb 3585 38bc a633 ff3c e5f2 8f3c
00000320: 6b8b e5bc 9607 263d de50 043d 1d73 ec3c
00000330: 3ca0 c7bc 0d15 6cbb d0a6 39bd fd0c 16bc
00000340: 3892 b53c ec0f 8f3c e117 9b3b 34b3 a83c
00000350: d6ee 3ebd 2f33 d73c 1045 1d3d 531b 5c3c
00000360: c3d1 b4bb ce03 8cbc a787 f03c 8136 0abd
00000370: b501 e03b f419 023d 5e43 f43c 2877 e6bc
00000380: eec3 d639 4ed6 143b 5941 1c3d 27c4 a53c
00000390: d2d1 003d 558b 7cbc 170f 033d 5519 eb3b
000003a0: dbac 0b3d 5226 53bb ee57 b2bc 73f9 ee3c
000003b0: 48fa 413c d626 00bd 20ff 8b3c a528 403d
000003c0: 4595 b33c b2f3 a13c 8d9f 933c c2a6 f1bc
000003d0: 280a 3f3c cf7b 32bc f71c fc3b be7e d43c
000003e0: a3dd 01bb b2f2 003d 0a4d 353c 922a 2d3d
000003f0: 06df 853c 2c04 27bc 4664 b23c 8857 62bb
-0.010575177 -0.0024652493 -0.0074319025 -0.023698974 0.006811693 -0.019837618 -0.026116349 -0.03198124
0.0023854144 0.008708612 0.007230058 -0.003936131 0.016587853 -0.021127038 0.022121973 0.02479045
0.0078311525 -0.010685018 0.014867185 0.016131569 0.011998134 0.00061591587 -0.0024185106 -0.024712669
0.006931978 0.018086707 0.0003822613 0.026555551 0.010807399 -0.01298062 -0.050761748 -0.005182286
-0.0076868967 -0.0054638344 0.02059276 -0.016944915 0.013883543 0.011546665 -0.0015307942 -0.022165507
0.033343334 -0.01969031 -0.020817345 -0.009875605 0.02413233 0.036609557 0.010542897 -0.006903723
-0.006936359 0.008224473 0.023193056 0.016287846 0.033132423 -0.0020439331 0.00043839004 -0.0007357884
0.01818227 0.00718178 0.028413486 -0.009687829 -0.030878272 0.013323524 0.015081267 0.0013356803
-0.010764887 -0.007823436 0.030639535 0.0022843366 0.005995762 0.025957253 -0.016206125 -0.005254153
-0.009092896 0.0031446812 -0.023048224 -0.0064044627 0.031375684 -0.00982066 0.0011595903 0.017185256
-0.006027237 0.01828118 -0.01853428 0.03836618 0.021851705 0.0130169 0.014825854 -0.016246114
-0.002565824 -0.002882774 0.00059476076 0.022039086 0.009534467 0.009919712 0.02811363 -0.008185023
-0.052518737 -0.0064011365 -0.0070416764 -0.038281977 0.017088564 -0.010608736 0.014495849 0.0012964047
0.035314962 -0.0133245345 -0.00015492324 0.010675748 0.0055811377 -0.02394752 0.010261155 0.03247758
0.015273983 0.022946227 -0.03135628 -0.023361905 -0.008864561 -0.011380639 -0.023294896 0.016454892
0.004210166 0.024052816 -0.013997259 -0.0003256694 -0.0054519773 -0.021853704 0.007803321 -0.018907456
-0.024881033 0.011626034 0.027827244 0.011113114 0.035281673 0.011775827 0.011330621 0.012048559
-0.034067463 0.042125907 -0.023361498 0.004446707 -0.009409849 0.010224212 -0.03232213 0.015983203
0.02170232 0.0053243977 0.0003685346 0.006850038 0.02385654 0.007490825 0.0298 -0.0071952054
0.041561756 -0.0031348637 0.023969771 0.03566903 0.02246625 -0.00782347 0.0059529534 -0.015425253
0.009021529 0.017819537 -0.023484653 -0.017328745 0.023708591 0.01771339 0.0025734734 0.026856214
-0.009898563 0.02216218 -0.005727745 -6.7900204e-05 -0.0015020003 0.04509552 0.005784358 -0.008670801
0.015284076 0.026724633 -0.0010862165 0.0012971654 -0.011646713 -0.02313519 0.027387334 -0.037574258
-0.028930197 -0.037073165 0.0065733925 0.007113174 0.011648423 0.01825544 0.0052825254 0.022791218
0.011131735 0.005654328 -0.042870272 -0.0100882435 -0.0033855774 -0.011262228 0.031152558 0.017571876
-0.028020581 0.04053458 0.032303683 0.028863484 -0.024368398 -0.003602329 -0.0453251 -0.00915837
0.02216445 0.017463647 0.004733071 0.020593263 -0.04661449 0.026269523 0.03839594 0.013434249
-0.0055181696 -0.017091658 0.02936156 -0.033743385 0.006836141 0.031763032 0.02981728 -0.02813299
0.0004096324 0.0022710743 0.038148258 0.020235134 0.0314501 -0.015414079 0.031996813 0.0071746507
0.034100395 -0.0032218886 -0.021770444 0.029171681 0.011839457 -0.031287037 0.017089427 0.04691376
0.021921763 0.019769523 0.018020416 -0.029498462 0.011660136 -0.010893776 0.0076938826 0.025939342
-0.0019815944 0.031481452 0.011065731 0.042276926 0.016341697 -0.010193866 0.02177633 -0.0034537036

action_model._continuous_distribution.mu.bias f4 [2]
00000000: a029 593b 8c95 4b3b
0.0033136383 0.0031064479

exp_avg f4 [128, 32]
00000000: 0000 0000 34a5 2537 51f3 8b35 5354 45b6
00000010: 0000 0000 3d60 7237 e3c7 a5b5 3ba1 9fb6
00000020: 0000 0000 643e ab36 e891 e2b4 630b 4cb5
00000030: 0000 0000 588f 5a37 5b2d 0f36 82af f2b6
00000040: 0000 0000 8791 bd35 d900 d9b5 7536 3734
00000050: 0000 0000 c672 3b37 c69c 5fb6 c5cc 3bb7
00000060: 0000 0000 7cb6 45b7 2138 e136 9953 90b4
00000070: 7e5d 9db8 9da6 f7b5 222d 1137 2193 9632
00000080: 0000 0000 6b2c 9336 e57f 0bb6 8e89 90b5
00000090: 0000 0000 e217 2b36 c73c 3db5 f906 8533
000000a0: 0000 0000 3f3e b736 d277 bfb5 3b7a fdb5
000000b0: 0000 0000 168b 4136 93e3 f4b5 8104 2935
000000c0: 0000 0000 30d8 e136 2180 82b5 38b1 0fb6
000000d0: 0000 0000 d3ac 5336 24b8 6db5 fba5 0236
000000e0: 0000 0000 3965 2437 330f 68b6 a5c7 07b6
000000f0: edad 1238 86dd 8c34 d238 0637 d66d 6836
00000100: 0000 0000 1e91 e536 7fee c038 e34e c138
00000110: 0000 0000 6af5 6b36 00ed c438 7f85 c738
00000120: 0000 0000 f8c0 3f37 1fb8 c338 29b6 be38
00000130: 0000 0000 c9f0 c434 dc37 ba38 9aaf c438
00000140: 0000 0000 67ff 9d37 d6e7 c238 befb bc38
00000150: 0000 0000 4a6b c935 7f4b c538 fbeb c838
00000160: 0000 0000 6ee6 0138 331d b638 6f53 c138
00000170: 4f4c 32b8 1f83 4a3e 8dd2 5b39 bc14 7a38
00000180: 0000 0000 16a4 30b6 4c94 4636 7580 6836
00000190: 0000 0000 dd0b 68b6 6b1c 6036 2c6e 5336
000001a0: 0000 0000 a05f 0835 e6d8 3d36 bbd6 7236
000001b0: 0000 0000 86b5 60b6 de8d 3c36 0c25 5a36
000001c0: 0000 0000 c637 8635 09b7 3c36 1426 4b36
000001d0: 0000 0000 9333 01b6 14fc 5036 0d88 5036
000001e0: 0000 0000 c80b 9336 a29c 9f35 bf3d 8d36
000001f0: a8dc af36 766e 15b8 08df 9bb4 aafc 3c35
00000200: 0000 0000 41d6 80b6 9662 8134 35e2 61b5
00000210: 0000 0000 5d0a 33b6 0d7e 41b4 67e3 aab5
00000220: 0000 0000 32f3 b2b6 c070 cb34 69a1 9fb4
00000230: 0000 0000 96f1 62b6 9e1c 2ab4 e439 21b6
00000240: 0000 0000 1be5 deb6 baf1 9934 e551 e4b4
00000250: 0000 0000 7685 1cb6 a3bc 3eb5 b821 95b6
00000260: 0000 0000 86df b0b6 5d85 6735 cf12 8bb4
00000270: ade4 ca37 4806 55b5 2abd e7b6 8ef4 37b6
00000280: 0000 0000 d1a0 85b6 8e8b 7434 50f1 d6b4
00000290: 0000 0000 b81f 22b6 3ac9 93b4 6e2e 99b5
000002a0: 0000 0000 ffe4 b7b6 82ce 2b33 ee28 7e33
000002b0: 0000 0000 75fc 41b5 3a90 6e34 3588 a3b5
000002c0: 0000 0000 3961 ecb6 7aab 8c32 1703 4d34
000002d0: 0000 0000 4e08 4db5 2231 f5b4 da1d 08b6
000002e0: 0000 0000 93cc 22b7 d05c ac35 a53a 81b4
000002f0: a37a 80b8 3497 fa35 7eed 0fb7 13a4 71b6
00000300: 0000 0000 e5be cc35 fdcc b334 c70c 7135
00000310: 0000 0000 8666 a335 bc5d 1835 e96a 9535
00000320: 0000 0000 aadd 2b36 0b4b d5b4 38c8 d333
00000330: 0000 0000 4384 2e36 a24e dd34 0ced df35
00000340: 0000 0000 4250 1936 7c5d 8cb4 31cf dcb3
00000350: 0000 0000 f712 1836 188c 2fb4 78e9 e635
00000360: 0000 0000 2978 7036 0932 e8b5 de62 beb4
00000370: 2850 94b7 7a04 dbb5 5cff ad36 b37e ac35
00000380: 0000 0000 8bcc 5ab6 70fe 7a34 8670 2eb5
00000390: 0000 0000 303b 3db5 d051 cbb4 0228 83b5
000003a0: 0000 0000 b712 a5b6 ff2b 7db4 5440 b3b4
000003b0: 0000 0000 ea29 c835 52ca 2535 1425 12b5
000003c0: 0000 0000 92fd c2b6 1dda 2fb4 d125 02b5
000003d0: 0000 0000 58d5 3835 1c34 a334 b535 66b5
000003e0: 0000 0000 31d3 09b7 b7aa d7b3 e10a c9b5
000003f0: 7032 9db8 6347 cb34 670e 21b7 6ab7 62b6
0.0 9.873231e-06 1.0427121e-06 -2.940437e-06 0.0 1.4446731e-05 -1.2351633e-06 -4.757339e-06
0.0 5.1034604e-06 -4.220194e-07 -7.601249e-07 0.0 1.3027187e-05 2.133506e-06 -7.232594e-06
0.0 1.4123951e-06 -1.6168007e-06 1.7063014e-07 0.0 1.1172791e-05 -3.3320844e-06 -1.1193745e-05
0.0 -1.1784603e-05 6.712057e-06 -2.6882915e-07 -7.503758e-05 -1.8451425e-06 8.653182e-06 1.7529205e-08
0.0 4.3861123e-06 -2.0787058e-06 -1.076887e-06 0.0 2.5494887e-06 -7.049643e-07 6.1945634e-08
0.0 5.4610714e-06 -1.4265481e-06 -1.8885543e-06 0.0 2.88402e-06 -1.824565e-06 6.296396e-07
0.0 6.73069e-06 -9.723045e-07 -2.1411815e-06 0.0 3.1542047e-06 -8.855734e-07 1.9468123e-06
0.0 9.7987295e-06 -3.457954e-06 -2.0232776e-06 3.4971094e-05 2.6238212e-07 8.000252e-06 3.4634627e-06
0.0 6.8416257e-06 9.199697e-05 9.217651e-05 0.0 3.5160579e-06 9.390153e-05 9.513925e-05
0.0 1.1429416e-05 9.33262e-05 9.093836e-05 0.0 3.668304e-07 8.879576e-05 9.378717e-05
0.0 1.883479e-05 9.293824e-05 9.011429e-05 0.0 1.5006892e-06 9.407754e-05 9.580698e-05
0.0 3.09706e-05 8.683875e-05 9.218498e-05 -4.2509575e-05 0.19776581 0.00020963904 5.9623955e-05
0.0 -2.6321554e-06 2.959062e-06 3.4645466e-06 0.0 -3.45776e-06 3.3395143e-06 3.1505579e-06
0.0 5.08031e-07 2.8289446e-06 3.61858e-06 0.0 -3.3484262e-06 2.809676e-06 3.2506096e-06
0.0 1.000001e-06 2.8120724e-06 3.0271522e-06 0.0 -1.9252518e-06 3.1141144e-06 3.1073607e-06
0.0 4.382313e-06 1.1892009e-06 4.2093156e-06 5.241094e-06 -3.5627243e-05 -2.9033276e-07 7.040313e-07
0.0 -3.8396397e-06 2.4099853e-07 -8.4148206e-07 0.0 -2.667911e-06 -1.8020383e-07 -1.273217e-06
0.0 -5.333125e-06 3.7893733e-07 -2.97335e-07 0.0 -3.3817246e-06 -1.5842895e-07 -2.4024566e-06
0.0 -6.642787e-06 2.867435e-07 -4.2527896e-07 0.0 -2.3323496e-06 -7.105502e-07 -4.4444714e-06
0.0 -5.2712303e-06 8.6248275e-07 -2.5904453e-07 2.4186762e-05 -7.9357824e-07 -6.906358e-06 -2.7411475e-06
0.0 -3.9824304e-06 2.277504e-07 -4.0036184e-07 0.0 -2.4158344e-06 -2.7527295e-07 -1.1412901e-06
0.0 -5.4804837e-06 4.0001858e-08 5.917621e-08 0.0 -7.2265476e-07 2.2217947e-07 -1.2184088e-06
0.0 -7.0446663e-06 1.6376124e-08 1.9093237e-07 0.0 -7.6380536e-07 -4.5670555e-07 -2.0282955e-06
0.0 -9.703584e-06 1.2842011e-06 -2.4070792e-07 -6.1263585e-05 1.8670457e-06 -8.57876e-06 -3.6007302e-06
0.0 1.5254742e-06 3.3490497e-07 8.979809e-07 0.0 1.2174285e-06 5.6760814e-07 1.113248e-06
0.0 2.561001e-06 -3.9728943e-07 9.861873e-08 0.0 2.6005007e-06 4.122167e-07 1.6683784e-06
0.0 2.2845493e-06 -2.614505e-07 -1.0282236e-07 0.0 2.2660804e-06 -1.6349111e-07 1.7204284e-06
0.0 3.583273e-06 -1.7299909e-06 -3.5462193e-07 -1.76803e-05 -1.6318074e-06 5.1855295e-06 1.2851873e-06
0.0 -3.260359e-06 2.3375628e-07 -6.4983794e-07 0.0 -7.0494116e-07 -3.7871223e-07 -9.771904e-07
0.0 -4.919562e-06 -2.3578467e-07 -3.3388153e-07 0.0 1.491336e-06 6.1761705e-07 -5.4443194e-07
0.0 -5.81117e-06 -1.6377494e-07 -4.8483804e-07 0.0 6.88558e-07 3.039903e-07 -8.575983e-07
0.0 -8.215008e-06 -1.00427705e-07 -1.4978833e-06 -7.495738e-05 3.7863637e-07 -9.599701e-06 -3.3783385e-06

exp_avg_sq f4 [128, 32]
00000000: 0000 0000 ab12 5132 ca3e 992f cf4e a030
00000010: 0000 0000 15fc 4032 69d7 602f ffa0 7d30
00000020: 0000 0000 ee99 4b32 0d04 492f 592c a930
00000030: 0000 0000 829b 3a32 2065 4a2f 89db a030
00000040: 0000 0000 8b32 2832 08d5 dc2f bd95 0431
00000050: 0000 0000 4919 2832 27aa 2230 e526 1e31
00000060: 0000 0000 a797 e831 9c61 eb30 3dd9 8031
00000070: 8cb2 cc33 be49 1e2f 881f b533 6370 8431
00000080: 0000 0000 5521 572f 0f55 412e 1186 932e
00000090: 0000 0000 6b3b 362f f648 422e e716 8d2e
000000a0: 0000 0000 bb20 5f2f 964d d42d e826 3e2e
000000b0: 0000 0000 056e 0d2f 6551 8f2e 56b4 952e
000000c0: 0000 0000 46e3 3f2f 7d3c 172e 9b44 592e
000000d0: 0000 0000 33bc 022f 8fe3 872e ff2e a82e
000000e0: 0000 0000 6337 2c2f 9e92 4b2e e74c 952e
000000f0: 79b3 1f31 ed96 632d 5488 c930 bb5d 9a2e
00000100: 0000 0000 ca2b bc31 7b3b 1431 940d 3731
00000110: 0000 0000 2808 b731 112f 1531 9677 3431
00000120: 0000 0000 ac57 b331 cb73 1031 8936 3031
00000130: 0000 0000 5fe8 ad31 30a3 1931 78e2 3b31
00000140: 0000 0000 cf39 a931 532f 1831 e153 3d31
00000150: 0000 0000 f5d4 a431 4b60 2731 00ee 6231
00000160: 0000 0000 b7b4 6931 e044 2b31 5e71 7431
00000170: 0705 6739 41d8 ac44 a9b9 7333 1bd0 2c31
00000180: 0000 0000 0dd2 5d30 d902 2b2e 1da9 a22e
00000190: 0000 0000 c93c 6430 667c 182e 608c 8f2e
000001a0: 0000 0000 4c20 5630 b795 182e cac7 952e
000001b0: 0000 0000 37fe 6030 a228 0c2e 7988 b42e
000001c0: 0000 0000 31bc 3b30 6b34 ae2d 8466 ad2e
000001d0: 0000 0000 8e81 5630 2c2f 532e 24e4 2d2f
000001e0: 0000 0000 a3af 1030 4721 522e 9c77 262f
000001f0: 47e0 9232 e6a0 0131 4c02 a231 ecf8 892f
00000200: 0000 0000 8f3a 0731 8996 a62d 8384 5b2f
00000210: 0000 0000 048f eb30 378a 972d c185 202f
00000220: 0000 0000 a7da 0531 a06a 562d 7bad 6b2f
00000230: 0000 0000 3b10 e530 26bd 272e 1cbd 412f
00000240: 0000 0000 95af e430 5aea 062f d005 d12f
00000250: 0000 0000 4ac0 c930 4f66 f22e bd8a b82f
00000260: 0000 0000 342d bb30 3373 d82f 5eae 3130
00000270: 6a83 1c33 70c4 e92d 5729 8432 48f9 2a30
00000280: 0000 0000 15ac 3730 6b77 c62b 0e42 082e
00000290: 0000 0000 cdf9 3830 cdc3 b12b 37b5 f42d
000002a0: 0000 0000 5468 2830 2113 7e2b 433b 0c2e
000002b0: 0000 0000 5372 3130 43f9 562c 5faf 332e
000002c0: 0000 0000 7ae9 1b30 7cde ae2b 26dc 5d2e
000002d0: 0000 0000 616b 2330 a424 392d 8909 d72e
000002e0: 0000 0000 04b6 c42f 4687 042e ff48 1e2f
000002f0: b70b 5b32 6b31 fa2c 7dcc 8931 b1b7 622f
00000300: 0000 0000 3ebe 4930 162f 862e b322 452f
00000310: 0000 0000 2115 3130 80a6 8a2e 7c33 392f
00000320: 0000 0000 7020 5030 1dab 0f2e 2c27 172f
00000330: 0000 0000 659f 1330 044c cd2e 4719 532f
00000340: 0000 0000 cd16 3030 8107 8c2e 0027 562f
00000350: 0000 0000 c051 f32f 3a28 102f 18fe 952f
00000360: 0000 0000 985e 0d30 6170 2e2f 53ed a72f
00000370: e9eb f531 898f 7c2d 55d2 c631 0402 8f2f
00000380: 0000 0000 a5fb ac2f 78e3 322d 0358 c82d
00000390: 0000 0000 0f36 a42f bc38 322d 04b6 d12d
000003a0: 0000 0000 ea4f b72f 7501 6a2a 3557 0c2d
000003b0: 0000 0000 9169 912f 5e14 942d c482 0a2e
000003c0: 0000 0000 4264 b52f 68d1 fa29 b90e 052d
000003d0: 0000 0000 cf7a 822f 2d38 122e 28cc 6a2e
000003e0: 0000 0000 d203 a72f 8f8b 282c c5fe b62d
000003f0: a058 a531 0e14 ba2c d50a 2931 0fcf e62e
0.0 1.2169646e-08 2.7875152e-10 1.1663931e-09 0.0 1.1233188e-08 2.044921e-10 9.2269653e-10
0.0 1.1851155e-08 1.8282283e-10 1.2308973e-09 0.0 1.0861983e-08 1.840772e-10 1.1703928e-09
0.0 9.790379e-09 4.0169135e-10 1.9293644e-09 0.0 9.784636e-09 5.917706e-10 2.3014135e-09
0.0 6.7693295e-09 1.7126243e-09 3.7499874e-09 9.531968e-08 1.4396215e-10 8.434205e-08 3.8544825e-09
0.0 1.9565978e-10 4.3958667e-11 6.708601e-11 0.0 1.6573913e-10 4.4175295e-11 6.416006e-11
0.0 2.029336e-10 2.4136065e-11 4.3235554e-11 0.0 1.2862962e-10 6.517346e-11 6.8077696e-11
0.0 1.7452093e-10 3.438715e-11 4.940102e-11 0.0 1.1890293e-10 6.179512e-11 7.648104e-11
0.0 1.5662986e-10 4.628708e-11 6.789396e-11 2.3239564e-09 1.2936968e-11 1.4663422e-09 7.019759e-11
0.0 5.4764984e-09 2.1570645e-09 2.6637723e-09 0.0 5.3269282e-09 2.1709108e-09 2.6261424e-09
0.0 5.219553e-09 2.1020579e-09 2.564237e-09 0.0 5.06138e-09 2.2357192e-09 2.7340814e-09
0.0 4.9251194e-09 2.2145812e-09 2.75508e-09 0.0 4.7972386e-09 2.4356435e-09 3.3022616e-09
0.0 3.4008687e-09 2.4922926e-09 3.5571115e-09 0.0002203175 1382.7579 5.6746703e-08 2.5147588e-09
0.0 8.069783e-10 3.8883428e-11 7.3969476e-11 0.0 8.30323e-10 3.4671287e-11 6.527823e-11
0.0 7.7898643e-10 3.4693772e-11 6.811225e-11 0.0 8.1851986e-10 3.1868404e-11 8.209695e-11
0.0 6.829764e-10 1.9804788e-11 7.8853396e-11 0.0 7.8036855e-10 4.8017743e-11 1.581531e-10
0.0 5.263649e-10 4.7778028e-11 1.5140106e-10 1.7098627e-08 1.886343e-09 4.7150817e-09 2.5097024e-10
0.0 1.9678372e-09 1.8938866e-11 1.9965012e-10 0.0 1.7139148e-09 1.7228092e-11 1.4599434e-10
0.0 1.9478337e-09 1.2188167e-11 2.1434758e-10 0.0 1.6666556e-09 3.81394e-11 1.7620433e-10
0.0 1.6639087e-09 1.2270487e-10 3.8021009e-10 0.0 1.4679327e-09 1.10230595e-10 3.3567985e-10
0.0 1.3618888e-09 3.9372025e-10 6.4640016e-10 3.64411e-08 2.6576269e-11 1.5385622e-08 6.219989e-10
0.0 6.6819555e-10 1.4101891e-12 3.0981488e-11 0.0 6.72938e-10 1.2630952e-12 2.7820064e-11
0.0 6.1266303e-10 9.0265474e-13 3.188495e-11 0.0 6.455469e-10 3.0549597e-12 4.085565e-11
0.0 5.672046e-10 1.2425195e-12 5.0445113e-11 0.0 5.945165e-10 1.0524168e-11 9.778762e-11
0.0 3.5781522e-10 3.0133472e-11 1.439595e-10 1.2750141e-08 7.110914e-12 4.0104724e-09 2.061984e-10
0.0 7.3393724e-10 6.1019786e-11 1.7929373e-10 0.0 6.442225e-10 6.30509e-11 1.6843943e-10
0.0 7.5716056e-10 3.2666415e-11 1.3747287e-10 0.0 5.37048e-10 9.335824e-11 1.9199319e-10
0.0 6.406083e-10 6.367796e-11 1.9477042e-10 0.0 4.425953e-10 1.3111015e-10 2.7283487e-10
0.0 5.1429927e-10 1.5865133e-10 3.0545752e-10 7.1572583e-09 1.4356413e-11 5.7864704e-09 2.601298e-10
0.0 3.1465422e-10 1.0168637e-11 2.2776453e-11 0.0 2.9869837e-10 1.0130726e-11 2.384138e-11
0.0 3.3344288e-10 2.078388e-13 7.9774425e-12 0.0 2.6450356e-10 1.6834697e-11 3.149371e-11
0.0 3.2994946e-10 1.11385564e-13 7.563444e-12 0.0 2.3734123e-10 3.324645e-11 5.3386767e-11
0.0 3.0379838e-10 2.3951707e-12 2.0804145e-11 4.8122075e-09 5.2886645e-12 2.4598894e-09 1.049597e-10

exp_avg f4 [128]
00000000: 22db 0833 8f4c d336 a858 e338 7ece ab35
00000010: 6a3b a7b6 6bac dbb6 47d0 1c36 1e1b ceb6
00000020: 7fe4 7036 3eb2 0c38 208b c035 d80c 0539
00000030: 668f 2138 19e3 dd38 d3e1 d936 a29f 0c39
00000040: a928 c9b6 a35b 36b7 77cb aeb8 11c2 df38
00000050: b272 2cb6 e403 bd37 5099 2c38 e6e3 53b7
00000060: 5327 4537 418a 4cb6 7ab3 ba36 48c9 8136
00000070: 65ee bdb5 7bac 3037 5416 c734 5868 cc36
00000080: 0d33 43b5 1251 1533 e8a4 1c38 f279 b3b5
00000090: b6f8 7db7 441c 5937 3ce3 0d35 6d98 8135
000000a0: ed3a f036 c190 f5b7 1f19 6ab8 344c 3bb7
000000b0: d7ca 2f37 d16a f635 b2f9 1136 e5db 20b6
000000c0: 575c e6b6 7e49 33b8 4e9d 9db6 a232 a337
000000d0: bf4b a9b6 5117 f538 3e03 f134 e0e1 cc38
000000e0: 79e7 2637 ad05 fa38 0dcb 74b6 d458 4138
000000f0: 168f 6935 daf5 ad38 7f13 9b38 577e c838
00000100: 82bd 5bb6 2bb6 0f33 782b 60b6 e552 8c37
00000110: f97c 9b38 9a3d 31b8 d3c8 92b8 a8a5 2eb8
00000120: e6ba cf37 87c0 6a38 ed1e 7e35 7884 fe38
00000130: fd20 c1b7 7cf6 c337 a6f1 8c38 a1dc 53b6
00000140: ffbb 0a37 e199 a438 82fc 31b6 99f6 e136
00000150: 7aa1 4e37 0fd9 beb5 df3d 8438 ad42 bab7
00000160: 3507 2e37 66a8 3636 d612 8036 c202 a238
00000170: d048 4438 f73d c838 ac35 3437 811b 59b7
00000180: 55ca 8138 8811 ee36 ad8c a6b7 da14 dd36
00000190: d941 25b7 ce93 9237 8682 d438 c174 1c36
000001a0: b666 86b6 0316 6538 a128 48b8 b5c3 fc37
000001b0: dac3 11b7 56d1 6c38 0b18 0538 e932 9cb8
000001c0: 8764 53b6 b93b 4638 963f 8236 7e07 eb38
000001d0: 8574 7db7 e51c 8338 ea77 4e38 efa2 0d39
000001e0: 7f7f 9e36 c804 9e38 4efc 3b38 55c1 1739
000001f0: 1ac4 b8b6 91c4 9138 bcaf 8738 afb1 b037
3.1864268e-08 6.2972026e-06 0.00010840717 1.280059e-06 -4.9839045e-06 -6.5467807e-06 2.3367045e-06 -6.1424353e-06
3.589579e-06 3.3544602e-05 1.4345605e-06 0.00012688653 3.851894e-05 0.000105804014 6.4933934e-06 0.00013410908
-5.9950003e-06 -1.0869381e-05 -8.334865e-05 0.00010669616 -2.5696759e-06 2.2532367e-05 4.115078e-05 -1.2629642e-05
1.1751271e-05 -3.0478843e-06 5.564126e-06 3.867932e-06 -1.4150979e-06 1.0530576e-05 3.7082884e-07 6.091821e-06
-7.271745e-07 3.47655e-08 3.734688e-05 -1.337203e-06 -1.5137883e-05 1.2940789e-05 5.285726e-07 9.655611e-07
7.1594172e-06 -2.9273682e-05 -5.5813343e-05 -1.1163811e-05 1.047804e-05 1.8359516e-06 2.1752026e-06 -2.3969853e-06
-6.865284e-06 -4.274537e-05 -4.6972773e-06 1.9454692e-05 -5.0454105e-06 0.000116868534 4.4892107e-07 9.7695505e-05
9.948265e-06 0.00011921986 -3.6477024e-06 4.6097513e-05 8.700748e-07 8.295076e-05 7.3946074e-05 9.560276e-05
-3.274385e-06 3.3460463e-08 -3.3403903e-06 1.6727901e-05 7.414254e-05 -4.225746e-05 -6.999229e-05 -4.1639112e-05
2.4763354e-05 5.5969253e-05 9.4667377e-07 0.00012136338 -2.3022754e-05 2.336059e-05 6.720731e-05 -3.1569873e-06
8.269212e-06 7.8487916e-05 -2.6522034e-06 6.7342303e-06 1.23161535e-05 -1.4219275e-06 6.305775e-05 -2.2203976e-05
1.0372886e-05 2.7218134e-06 3.81689e-06 7.725276e-05 4.6797853e-05 9.548285e-05 1.07413325e-05 -1.2940612e-05
6.1888866e-05 7.0949936e-06 -1.985425e-05 6.5887407e-06 -9.850098e-06 1.7473383e-05 0.0001013326 2.3313771e-06
-4.0054683e-06 5.4618355e-05 -4.7721554e-05 3.0131874e-05 -8.688274e-06 5.6461744e-05 3.1732063e-05 -7.4481424e-05
-3.1499965e-06 4.72625e-05 3.8817043e-06 0.00011207069 -1.5107104e-05 6.251949e-05 4.9225906e-05 0.00013507505
4.7236094e-06 7.534918e-05 4.481925e-05 0.00014472504 -5.5064565e-06 6.950752e-05 6.470035e-05 2.1063575e-05

exp_avg_sq f4 [128]
00000000: 4fe8 5a32 8426 7f2f 11d2 0e32 a00d 6430
00000010: f64c 0d31 a05e 3b30 5d60 6c30 42c0 be2f
00000020: 1b85 dc30 56c4 e730 5589 1a30 b7fe 8f32
00000030: ef55 a731 d204 b531 c251 8730 0438 ab31
00000040: 9bca c42f 9b34 3f31 7746 0030 18d8 da31
00000050: 47ca 2732 2874 c030 e6fd 7c30 ece7 a130
00000060: 8608 c331 9d48 432f 14cb 0231 9d52 8130
00000070: 3b6b 0231 4064 cc31 4ab7 8e2f 3c8d ff31
00000080: c72b 0931 1006 102f 51af 2730 90d5 ee2e
00000090: 95f7 3a31 ae94 3e31 0fe8 f42f 221f a62f
000000a0: b11d b430 6936 1430 6d82 a230 0760 b630
000000b0: b1a9 f930 1ba7 a92f bed2 1a31 f6bb d32e
000000c0: cf1f fe30 a70b 6d30 0db4 3731 af0e 532f
000000d0: 9f5b a631 d355 c530 749b 1c30 102c 3032
000000e0: af5e 7130 f676 0132 6959 8231 ca1f e032
000000f0: 8e4a 0c32 90ee 2931 5f7c 0b32 064a 2b31
00000100: 86c0 c630 1ffd b12e 92cd d92f 42c5 a630
00000110: a41f 8930 0065 aa2f 02b2 4831 2850 e231
00000120: 697b 3d32 3df9 9c30 b54f a030 ff2d 9832
00000130: f89e d931 fb71 b230 0f17 4831 87e9 2730
00000140: 85bd 0f31 951f 2031 32bc 8231 500d a42f
00000150: 9e1d a430 9e8b fc31 5ede 3531 1e02 0131
00000160: 9ee3 0d32 749e d82f ea00 7e30 5fc6 a630
00000170: 8d59 be31 0ad2 3532 f6b3 7730 462f f92f
00000180: 7916 cc32 c816 0731 68d5 7530 b5fc 3431
00000190: 0ff0 b730 1854 1e31 b460 9531 82df ab31
000001a0: b8a7 9932 7e62 0731 01bb 1131 d5c4 1c30
000001b0: 95ce 0d30 dfda a730 9090 aa31 6511 9631
000001c0: 7ec4 1430 0854 4a30 0895 432f 11fe 3b32
000001d0: 3af5 9630 0f87 0531 8699 c72f 8c29 4331
000001e0: 5743 1f30 535b 0830 541c 8f31 f1f0 9131
000001f0: 8868 fd30 b10c 7c31 deaf ac30 5df7 ce31
1.2742091e-08 2.3205798e-10 8.313251e-09 8.296528e-10 2.0561948e-09 6.8164674e-10 8.599324e-10 3.4697406e-10
1.6044938e-09 1.6863264e-09 5.6220034e-10 1.6763222e-08 4.870109e-09 5.2683413e-09 9.84578e-10 4.9831232e-09
3.5796152e-10 2.782406e-09 4.6666265e-10 6.369202e-09 9.766672e-09 1.4002852e-09 9.203788e-10 1.1780208e-09
5.676216e-09 1.7760944e-10 1.9032926e-09 9.409465e-10 1.8978443e-09 5.9485785e-09 2.5959884e-10 7.4375333e-09
1.9961008e-09 1.3098878e-10 6.1003386e-10 1.0860923e-10 2.7207296e-09 2.7733154e-09 4.454823e-10 3.0217345e-10
1.3105163e-09 5.391941e-10 1.1824121e-09 1.3269535e-09 1.8165364e-09 3.0859656e-10 2.2529743e-09 9.628558e-11
1.8489973e-09 8.6236657e-10 2.6732352e-09 1.9195555e-10 4.841652e-09 1.4358029e-09 5.697338e-10 1.0254567e-08
8.780984e-10 7.535837e-09 3.7936627e-09 2.6091488e-08 8.166024e-09 2.4728344e-09 8.119144e-09 2.4925852e-09
1.4461115e-09 8.0939914e-11 3.9618137e-10 1.2134154e-09 9.977055e-10 3.0994585e-10 2.9205016e-09 6.5865784e-09
1.1029308e-08 1.1421332e-09 1.1664186e-09 1.7716046e-08 6.333604e-09 1.29836e-09 2.9116938e-09 6.108611e-10
2.0916968e-09 2.3301017e-09 3.8048933e-09 2.9840885e-10 1.1940988e-09 7.350038e-09 2.6465368e-09 1.8773174e-09
8.259034e-09 3.940276e-10 9.240596e-10 1.213447e-09 5.5399085e-09 1.0583344e-08 9.0113816e-10 4.5326426e-10
2.3758945e-08 1.9658035e-09 8.943375e-10 2.6337095e-09 1.3383231e-09 2.3039828e-09 4.3474646e-09 5.002165e-09
1.7887814e-08 1.9701072e-09 2.1206576e-09 5.7032185e-10 5.158907e-10 1.2213056e-09 4.964086e-09 4.367552e-09
5.412132e-10 7.360659e-10 1.7788093e-10 1.0942601e-08 1.0983634e-09 1.943082e-09 3.6306974e-10 2.8399851e-09
5.793956e-10 4.960629e-10 4.1650683e-09 4.2474473e-09 1.8437882e-09 3.667804e-09 1.2564632e-09 6.023511e-09
