Assets/Model/TankBrain/TankBrainML/TankBrainML-499995.onnx (onnx, 88414 bytes, 7 tensors)

network_body._body_endoder.seq_layers.0.weight f4 [128, 32]
000000 ad 6e 85 be 7d b7 a0 be 59 fd 99 bd 59 94 4e 3d
       -0.26061 -0.3138999 -0.07519025 0.050434444
000010 9d e0 29 3e 9c 1a 47 bd 9b 80 6b be 58 2f 13 bd
       0.1658959 -0.04860936 -0.22998278 -0.035933822
000020 e0 d2 55 be c9 d7 b0 3e f7 eb d7 bc 05 14 b2 3d
       -0.20881224 0.3453963 -0.026357634 0.08695225
000030 0c f1 16 3d af 3c 9b 3e 8f cd b5 be d3 fb d0 bd
       0.036850974 0.30319735 -0.3550839 -0.10204282
000040 d3 d0 fd 3c cd 6c 2b 3e 94 aa 84 bd 55 90 74 3d
       0.030983364 0.16740723 -0.06477848 0.05970796
000050 a5 86 0e be d0 f6 ef 3e cf eb 2f 3e d5 15 f0 bd
       -0.1391855 0.4686799 0.17179798 -0.11722914
000060 9f ff 8f 3d 56 cd 3f be a6 01 d2 3c 4a 74 64 bc
       0.07031178 -0.18730673 0.025635552 -0.013943741
000070 1f db 1e 3e 71 b8 ae 3e 16 ab b7 3c b4 62 bf 3e
       0.15513276 0.34125093 0.022420447 0.37379992
000080 b8 e8 ad 3d dd e3 52 be 01 da 85 bd 82 81 89 3d
       0.08491653 -0.20594735 -0.065357216 0.06714155
000090 0c df e0 bc 46 50 96 bd 1b c2 21 3e 22 02 2d 3e
       -0.027450107 -0.0733953 0.15796702 0.16895345
0000a0 98 66 82 be 18 58 2d 3e 6d 52 34 be 10 2c 81 3e
       -0.25468898 0.16928136 -0.17609568 0.2522893
0000b0 7e bc ec 3b 8d 07 9a be d6 e4 91 3e b6 1b f5 3d
       0.0072246185 -0.30083886 0.284949 0.11968176
0000c0 33 dc 9a 3e 5d 2f 65 3e bb 5a 8f 3e 46 65 03 3e
       0.30246124 0.22381349 0.2799891 0.12831602
0000d0 7c bb 05 bc db 58 d6 3d 51 a8 3c be 77 24 4c bd
       -0.008162376 0.104661666 -0.18423583 -0.049839463
0000e0 3b f6 bc 3d 7b fb 3c be e2 06 20 bd 8f e1 0a 3d
       0.09226652 -0.18455307 -0.039069064 0.033906516
0000f0 82 e6 97 3d 6d 2d 86 3e 2d ee e5 bd 86 02 2d be
       0.07417013 0.26206532 -0.11227069 -0.16895494
000100 16 f0 d0 bd 40 35 5f 3e 41 43 1b be 3c 21 8d 3e
       -0.10202043 0.21797657 -0.15162374 0.27564418
000110 80 7e 5b 3e dc c9 f4 3d 23 50 56 3d 9e 74 8d 3e
       0.21434975 0.11952564 0.052322518 0.27628034
000120 b3 4c 15 3d 70 8e 61 3e e8 61 70 be 9f b8 9e 3c
       0.0364501 0.22026992 -0.23474848 0.019375144
000130 c2 e6 10 3d f4 9b 1d bd 36 9d 85 bc 55 c4 10 3e
       0.035376318 -0.038478807 -0.016310316 0.14137395
000140 8d 9a 8e be d1 b9 77 3e 55 3d 91 3e 22 a4 e9 3d
       -0.27852288 0.24191977 0.28367105 0.11408259
000150 d0 78 70 3e df 37 65 3e d4 d1 82 bd 37 42 93 bd
       0.23483586 0.22384594 -0.06387678 -0.07190364
000160 b8 4d 00 be 12 a7 c0 bb c3 8c c1 bd 8f c6 fb 3b
       -0.12529647 -0.0058792913 -0.09450676 0.007683582
000170 6d 46 56 3e 71 d6 27 be 4a e6 06 be 51 e6 a8 bd
       0.20925303 -0.16390397 -0.13173786 -0.08247054
000180 ce 1d 5a be 9d f0 ed bc 35 db 8a bd 5a 80 bd bd
       -0.21300432 -0.029045397 -0.06780092 -0.09252997
000190 8f 37 46 3d 1e a2 d2 bc ed 08 69 3b 83 c7 78 3e
       0.04839283 -0.02571207 0.0035558299 0.24294858
0001a0 b2 41 21 3d a1 32 4f be 0a 84 5f 3e ed 95 5d 3e
       0.039369293 -0.20234157 0.21827713 0.21639223
0001b0 1c 7b 0e 3d 12 07 36 3e 3d ad 0c 3e 73 e2 af 3e
       0.034785375 0.17776135 0.1373796 0.34352455
0001c0 3d a7 dd bc a2 1e 5b 3e 65 3d 56 be bf fa 0a 3e
       -0.027057284 0.21398404 -0.20921858 0.13572215
0001d0 cb 4b f4 3e 89 4b bd bc e0 ee fb bd 67 72 aa bc
       0.47714075 -0.023107307 -0.12301421 -0.020806504
0001e0 dc 9f 6f be 32 c0 bf 3d 90 18 dc bd 1f 81 7f 3d
       -0.23400825 0.0936283 -0.107468724 0.062379
0001f0 4c 0a ab 3e aa 88 0f 3e f4 bb 7a be c6 71 0b 3e
       0.33406293 0.14016977 -0.24485761 0.1361762
000200 62 0f 87 be 5a 29 01 be 7d b0 6a be 2b 49 81 3a
       -0.26378924 -0.1261343 -0.22918887 0.0009863725
000210 ef 6f 46 3e 97 85 95 3d e5 61 89 3e 16 98 e5 bd
       0.19378637 0.07300871 0.268325 -0.11210649
000220 da 19 44 3e 96 b1 99 3e 77 48 28 be 97 40 48 3e
       0.19150487 0.300183 -0.16433893 0.19555889
000230 fc 8c 03 bd 7b f2 19 bd eb 84 1e bd 62 11 50 be
       -0.032116875 -0.037584763 -0.03870098 -0.20319131
000240 7d 6d 31 be 71 9d 57 3e 01 67 4b bd 06 ed b3 be
       -0.17326923 0.21056153 -0.04965878 -0.35141772
000250 5d 9f 3b 3e 0d 3a 7d bd 38 68 21 be 49 5a 5e 3d
       0.18322511 -0.06182294 -0.15762413 0.05428532
000260 5b 56 17 3e 96 72 c1 3d c8 34 93 3e 94 db c5 bd
       0.14779036 0.09445684 0.28751206 -0.09661022
000270 8f 0b 65 be 98 ad 5f 3e 20 67 50 bd 38 3c 06 3e
       -0.2236769 0.21843565 -0.050879598 0.13108909
000280 3c 1c 05 3e 48 70 cc bb be 01 84 bc 3b 7d 7f be
       0.12999052 -0.006238971 -0.016114112 -0.24950115
000290 8d a2 a6 be e2 b2 1b 3e ec 06 48 be 29 b0 2d be
       -0.3254589 0.15204957 -0.1953389 -0.16961731
0002a0 41 1f 7e be 6e 88 25 3e f0 b7 b2 bd 43 6e 14 be
       -0.2481661 0.16165325 -0.087264895 -0.14495187
0002b0 c3 4f 94 bd 94 d1 92 bc d6 d6 e7 3d 8e 89 dd 3b
       -0.07241776 -0.0179222 0.113202736 0.0067607826
0002c0 90 b5 6c be 82 d2 d0 3d c3 55 91 be b0 58 23 be
       -0.23116136 0.10196401 -0.28385743 -0.159518
0002d0 10 bf 62 3e 4d 4d 90 3e 8f 89 8c bc 6e 24 75 3e
       0.22143197 0.28183976 -0.017155437 0.23939678
0002e0 bc e6 13 be 4a 5f 46 3e 77 b0 af 3c e2 72 c5 bc
       -0.14443487 0.19372287 0.02144645 -0.024102632
0002f0 53 5f bc 3d 92 43 8c 3e 6f ae be 3c 36 3a 2b 3e
       0.09197869 0.27395302 0.023276536 0.16721424
000300 f8 2e a4 be 0c 6b 46 be 73 1a 24 3e 05 6d 25 bc
       -0.32067084 -0.19376773 0.16025715 -0.010096793
000310 d4 3b 8e be bc 76 cf 3e 38 6e 25 3e a0 1b 05 3e
       -0.2778002 0.40520275 0.16155326 0.1299882
000320 dd 34 92 be 9c 81 78 3e 20 14 05 3e 47 27 0b bd
       -0.28555956 0.24268192 0.12995958 -0.033973005
000330 59 e9 fb bd dd 98 22 3e 54 53 e8 3d a9 26 a7 3d
       -0.12300367 0.15878625 0.113440186 0.08161671
000340 88 fd 81 be 11 16 61 3d ca f2 fd bc 2d 1d 89 bc
       -0.25388741 0.054952685 -0.03099956 -0.016737545
000350 de bf 14 3d 97 31 03 3c e2 8a df 3e 62 d8 bb bd
       0.03631579 0.008007429 0.43660647 -0.09172131
000360 78 cc 23 be 84 59 05 3e 74 3a 64 bd 81 4b ae bc
       -0.15995967 0.13022429 -0.055719808 -0.021276237
000370 d8 67 01 be 03 ee 8c 3e 0f ab 17 bd 5b cd 56 be
       -0.1263727 0.2752534 -0.03702837 -0.20976774
000380 d0 f3 23 be f2 d9 e3 3d a6 0f f4 3d c4 38 74 be
       -0.16010976 0.11125554 0.11917047 -0.2384978
000390 cf 43 19 3e 16 5d 18 be 79 1b 0e 3c ab 4c fd 3d
       0.14967273 -0.1487926 0.008673542 0.12368139
0003a0 db 77 b5 be ad 40 08 3e 8b 81 3c be bc f0 47 3b
       -0.35443005 0.13305922 -0.18408792 0.003050848
0003b0 d1 b4 30 3d a0 fb e4 3d 97 a9 ed 3c d1 16 3b be
       0.04314119 0.11180806 0.02901153 -0.18270423
0003c0 82 d4 2b be 60 a7 ca 3e d5 65 4b be 41 73 27 be
       -0.16780284 0.39580822 -0.19863065 -0.1635256
0003d0 8f 1f 30 3e f4 c2 0e be 27 6c e2 3d 7e 0f 31 bc
       0.17199539 -0.13941556 0.11055785 -0.010806916
0003e0 02 56 73 bd 82 08 40 3e 71 df cf be d5 91 a1 be
       -0.059408195 0.18753245 -0.4060016 -0.31556574
0003f0 65 7a 7c 3d bd 57 94 3e 15 93 ac 3c f6 03 98 3d
       0.061640162 0.2897319 0.021066228 0.074226305

network_body._body_endoder.seq_layers.0.bias f4 [128]
000000 15 dd 92 3c 9a ba 39 3b 23 13 18 3c 5c 49 37 3d
       0.017927686 0.0028339983 0.009281906 0.044747695
000010 86 fb c7 3c 23 28 dd 3c a5 f7 d1 3c 3a 4f 63 3d
       0.024411928 0.026996678 0.025630781 0.05549548
000020 7a 65 2e 3d 40 7c 2b 3c 4a ba 9e 3d 6b 89 36 bc
       0.042577244 0.010466635 0.077503756 -0.011141161
000030 fc 32 73 ba 43 82 40 3b ec b2 9f 3c a8 6c bd bc
       -0.00092773116 0.0029374517 0.019494496 -0.0231231
000040 17 c8 98 3c b5 41 21 3c 80 6e 82 3c 1a c3 22 3c
       0.018650098 0.009842326 0.015921831 0.009934211
000050 8f 4e 9f 3c 4e 9d 85 3b a5 60 8f bc 2a 94 fd 3b
       0.01944664 0.00407759 -0.017502138 0.00773861
000060 6b 8f 0a 3d 26 28 b7 3c 06 2a 02 3d 5d cc c9 3c
       0.03382818 0.022358011 0.031778358 0.02463358
000070 35 51 ad 3b f7 e5 9c 3c 1f df 82 3d fd 17 b1 3c
       0.0052892216 0.019152625 0.06390213 0.021617884
000080 51 72 1e 3c 6a a7 08 3d ac c3 99 3b 99 8d 48 3d
       0.00967081 0.033362783 0.0046925154 0.048963163
000090 ff 9d 4e 3b 1c db 34 3b 0f 20 8b bc 9f 7b 4e 3d
       0.0031527278 0.002759642 -0.01698306 0.050410863
0000a0 75 61 04 3d b1 8e 0b 3d 77 5b ae bc 59 e1 fb 3a
       0.032319505 0.034071628 -0.021283848 0.0019216939
0000b0 11 00 93 3c 7f eb 51 3c 39 dd d6 bb cc 73 10 3d
       0.017944368 0.012812494 -0.0065571335 0.035266683
0000c0 25 a4 96 3c e0 31 cc 3c 48 88 59 3d f2 8e 13 bd
       0.018388817 0.024926126 0.053108484 -0.036024995
0000d0 8a 14 2e 3d 63 6f ec bc bb f7 76 3d 8c fe a7 bc
       0.042500056 -0.028861707 0.060294848 -0.02050712
0000e0 59 33 b6 3b f5 c0 07 3c 38 4e 58 3b c0 e8 5e bb
       0.0055603203 0.008285751 0.0033005606 -0.0034013242
0000f0 53 54 8c bc fb bb 67 3c 1e cc 60 bb b3 d8 fa 3a
       -0.017130053 0.014143939 -0.003430135 0.0019138068
000100 6a 2c aa 3c cb 2b bc bc fa 1e 13 3d d1 60 30 3b
       0.020773131 -0.0229701 0.035918213 0.0026913176
000110 96 3b b2 3c 4d 12 5c 3d a6 21 ed 3c a4 5a ef ba
       0.021756928 0.05372839 0.028946709 -0.0018261266
000120 a4 0f 94 bc df 22 f6 bc aa 93 2a 3d da ba d4 3a
       -0.018073864 -0.030045925 0.04164473 0.0016230003
000130 dd 7e 45 3c 82 1c f2 3c ac 38 24 b7 a5 24 e8 3c
       0.012054172 0.02955461 -9.788357e-06 0.028337786
000140 73 18 26 3d 6f e2 76 bc df 37 96 3c 26 14 06 3d
       0.04055066 -0.015068634 0.018337188 0.03273406
000150 5c 3f 09 bd 8d 38 d9 3c c7 ad 23 bc 2d e5 9d bb
       -0.03350769 0.026516223 -0.009990162 -0.0048185796
000160 dc fe 50 3d a6 6f 39 3c 30 87 38 3d cd d6 8a 3c
       0.051024303 0.011318123 0.0450508 0.016948128
000170 ca 01 45 3c 24 05 b7 bc 0b 7f 97 3c 90 f7 51 3d
       0.012024352 -0.022341318 0.018493196 0.051261485
000180 e7 66 f4 3b cd 35 d8 3c 8d 04 83 bc b9 67 cf 3c
       0.007458556 0.026392842 -0.01599338 0.025318014
000190 1a 16 94 3c 73 b7 85 bc 04 f1 08 bc 37 96 f4 3c
       0.018076945 -0.016322827 -0.008358244 0.029856784
0001a0 bd c0 58 3c 98 da 2c bc 07 06 66 bc 5f a2 40 bd
       0.013229546 -0.010550164 -0.014039523 -0.04702985
0001b0 f9 bd 3b 3d a8 15 93 bc 48 9d 07 3c dd 7e d9 3b
       0.04583547 -0.017954662 0.008277245 0.0066374377
0001c0 3a e0 aa 3c 07 0a 10 3c a3 c0 60 3d 52 84 b3 bb
       0.020858873 0.008791453 0.054871213 -0.0054784203
0001d0 eb 8a a8 3c 6f 14 3d bb 98 13 2c bc a4 c6 f2 bc
       0.020574054 -0.002885129 -0.010502718 -0.029635735
0001e0 23 f2 f4 3c ba fe d9 bc fb a6 69 bb 7b 50 0d bc
       0.029900616 -0.02661072 -0.0035652507 -0.008625145
0001f0 d9 45 e9 3c c3 d9 65 3c 29 d7 45 bb 0d 67 db 3c
       0.028475689 0.014028969 -0.003018806 0.026782537

network_body._body_endoder.seq_layers.2.weight f4 [128, 128]
000000 45 21 1e 3e 1d 5f 03 3e 57 23 6b bd 2f 84 03 3d
       0.15442379 0.12829252 -0.05740675 0.032108482
000010 19 1a 89 bc 35 6e fe 3d 3f da 12 3e fa 3c 0e bd
       -0.016736077 0.12423364 0.14341067 -0.03472612
000020 f6 21 6f bc c8 3b 9d bd 0a 4e 4e 3d 38 16 c7 3c
       -0.014595499 -0.07677418 0.050367393 0.024302587
000030 77 ea e8 bd b2 1a 71 3d 14 d0 17 3e 84 e4 27 bd
       -0.113728456 0.05886335 0.1482547 -0.040989414
000040 1f d7 a8 3d 0f 04 08 3d 70 61 b6 bd 68 17 0c bc
       0.08244156 0.033206996 -0.089053035 -0.008550502
000050 22 cc cb bd c3 e7 6f 3d b6 08 d1 bc c9 83 c4 3d
       -0.099510446 0.058570635 -0.025516849 0.095954485
000060 5d b4 de bd 57 8c fe 3b 33 e9 00 3d d8 d2 41 3d
       -0.10874245 0.0077681947 0.031472396 0.047320217
000070 0e 16 e1 bc e7 3a 09 3e e5 21 20 3e 13 d2 96 3b
       -0.027476337 0.13401376 0.1563793 0.0046026795
000080 3f ca f6 bd dd 12 b9 bc ec fb 47 bd 14 33 1d 3e
       -0.12050294 -0.022592003 -0.048824236 0.15351516
000090 85 92 90 bd 28 c3 8d bb bd 92 11 be 53 e3 73 bd
       -0.070591964 -0.004326243 -0.14216132 -0.059542965
0000a0 e7 69 19 3e be de 3d 3d c8 d4 e2 bd 98 a6 84 bd
       0.14981805 0.046355 -0.11075741 -0.06477088
0000b0 a3 bc 9f 3c 6b 35 34 3e ad 29 c4 3d 20 4f e3 3d
       0.019499129 0.17598502 0.095782615 0.11099076
0000c0 50 13 ce bd 87 b2 92 bc ab 08 00 3e 1d d9 0e be
       -0.10062277 -0.017907394 0.12503307 -0.1395001
0000d0 15 94 19 3e 1f d2 8a 3c 08 a9 94 bd 49 6e 96 3d
       0.14997895 0.016945897 -0.07258803 0.07345254
0000e0 57 0b c3 3d 43 14 26 3e e4 7e a0 b9 4a e0 ca bd
       0.09523647 0.16218667 -0.0003061212 -0.09906061
0000f0 d1 cc 01 3d 9f 6f c4 bd 52 a9 df 3c 29 8c 6f be
       0.03168947 -0.095916025 0.027302418 -0.2339331
000100 b3 4c 7c 3e c5 df 87 3c d8 6e 32 be ee 4d f2 bd
       0.24638633 0.016586194 -0.17425096 -0.1183127
000110 d0 a0 0d 3e 19 8c 7e 3d 03 12 22 3d e9 5d 69 bd
       0.13830876 0.062145326 0.03956796 -0.056974325
000120 8a 70 a1 3c 44 ae b7 3d 22 b4 7c be 1b c3 fe 3c
       0.019706983 0.089687854 -0.2467809 0.031098893
000130 ea 6e 61 bd 16 7c 38 bd 7d 5b c7 bd 12 55 f6 3a
       -0.055037417 -0.045040213 -0.09734247 0.0018793663
000140 39 0f 22 bd 9b 62 c0 bd 64 86 77 bc 1e f1 d3 bd
       -0.0395653 -0.093938075 -0.015107725 -0.10348724
000150 42 d7 a7 bd c6 ce 2c bd a8 97 a0 bd b0 33 c5 bc
       -0.08195354 -0.042189382 -0.07841426 -0.024072498
000160 3b ea 27 3e 0a ed af bc 9a a1 12 bc 63 40 3d bc
       0.16397946 -0.021475334 -0.008949662 -0.0115509955
000170 c3 81 cf bd 16 87 99 bc 2b 26 8a bb 22 93 d3 bc
       -0.10132172 -0.018741172 -0.0042159758 -0.025826994
000180 b1 25 97 3c 65 21 ab 3d 8e 98 49 bd 1f 28 9b 3d
       0.01845059 0.08355979 -0.049217753 0.07576012
000190 a7 2b a5 bd be 72 f2 3c df d6 d4 bc b5 dc a6 bd
       -0.08064967 0.029595729 -0.025981365 -0.08147565
0001a0 75 10 29 3d f5 ed 88 bd b1 77 dd bc 91 f8 08 be
       0.04127546 -0.06686012 -0.027034612 -0.1337607
0001b0 88 45 be bb 1d 24 ad bc 3b 58 b1 bc 5d c8 2d 3e
       -0.0058066286 -0.021135384 -0.021648517 0.16970964
0001c0 b2 46 ee 3c 87 ff 18 3c 0f 57 16 bd a6 54 0b bc
       0.029086445 0.009338266 -0.03670412 -0.0085040685
0001d0 58 6b bb bd 43 c4 79 3b e0 dc 8a 3e 0b cc 62 3d
       -0.091513336 0.0038111366 0.2712164 0.05537037
0001e0 40 0b 38 3d 9c 76 52 bd 82 df 65 3d 19 29 35 bd
       0.044932604 -0.051382646 0.056121357 -0.044228647
0001f0 41 97 a1 3c 5d 87 fb bc 89 04 e4 bd be 00 10 3e
       0.019725444 -0.030704195 -0.111336775 0.14062783
000200 54 31 b1 3d a2 5d 28 bc 50 39 61 bd 0a e8 96 3c
       0.08651987 -0.01027623 -0.054986298 0.018421192
000210 41 0d 30 bd b5 22 ac 3d 1d 81 9b ba f3 26 b1 bd
       -0.04298139 0.08405057 -0.001186404 -0.08650007
000220 aa e4 dd 3e cc 48 35 bd fb cd 45 3e 94 45 3b 3e
       0.4333852 -0.044258878 0.19316857 0.1828826
000230 f8 6c f7 3d e1 7c 28 3e 71 c6 34 3e 73 b5 29 3a
       0.12081331 0.16453888 0.17653824 0.00064738764
000240 77 56 d4 3d 8a 07 08 3e 5b 88 ce 3d af 7c 49 be
       0.10368054 0.13284126 0.100846015 -0.1967647
000250 6f bf ef bd 13 ca 0e bd 1c a8 0d bd ae eb be 3d
       -0.11706435 -0.03486068 -0.03458415 0.09322296
000260 85 c5 0f bd c9 db ac bd 2c 59 14 bd cd 93 54 be
       -0.03510048 -0.08440358 -0.036217853 -0.20759507
000270 b2 04 61 3c 48 00 b3 bd 3f 50 0b 3b 1b 56 a5 3d
       0.01373403 -0.08740288 0.0021257547 0.08073064
000280 15 03 03 3e 97 09 73 bd d9 84 d9 3d 4a e2 a5 bd
       0.12794144 -0.059335317 0.10621042 -0.08099802
000290 6e 42 0b 3e 51 a5 bc 3d d8 29 07 be 4f 0c ed 3d
       0.1359956 0.09211219 -0.13199556 0.11574613
0002a0 0f 95 13 3e 06 28 1e be 21 7b bd bd 73 a9 dc 3d
       0.1441233 -0.15444955 -0.092520006 0.107745074
0002b0 c5 2a 1b bd fb 9a 17 3e 47 a1 75 3d 41 63 ef 3d
       -0.037882585 0.14805214 0.05996826 0.11688853
0002c0 f7 3e 50 3e 15 57 5f 3d 91 94 40 3d 35 db ba bc
       0.20336519 0.054526407 0.047016684 -0.022809604
0002d0 61 c0 2c 3e 73 0e dc 3c ad 0d 02 3e 11 06 03 be
       0.16870262 0.026862359 0.1270053 -0.12795283
0002e0 90 32 60 bd ba c4 b0 3d d3 62 af 3b 75 fb 36 3d
       -0.05473572 0.086312726 0.005352357 0.0446734
0002f0 80 45 80 3d fc 78 f6 bc d4 a3 52 3d 75 c2 bc bd
       0.06263256 -0.030086987 0.05142577 -0.09216777
000300 b0 2d 09 be d7 05 6c 3d fc 44 67 3c 87 6e 65 3c
       -0.13396335 0.057622757 0.014115568 0.014003403
000310 13 55 5e 3d 44 9b b2 bd 94 e2 3a bd 10 16 33 be
       0.05428035 -0.08721021 -0.045626238 -0.17488885
000320 c8 bd 0d bd 0b 2a be bd aa 4e 58 bc 8c 03 5e 3d
       -0.034604818 -0.09285363 -0.013202349 0.0542026
000330 49 1f a4 bd d8 80 24 be 7b 70 13 3e 2e 31 17 3e
       -0.0801378 -0.16064775 0.14398377 0.14764854
000340 c8 e9 d6 3b f8 3e 26 3d 5e bf 0b 3e d6 6c b2 3d
       0.0065586306 0.040587395 0.1364722 0.08712165
000350 44 a7 f8 bb 9b a6 01 3e ab eb a1 bd 22 20 14 bd
       -0.007588299 0.12661211 -0.07906278 -0.036163457
000360 4c a0 a4 3d 8c 52 59 bd 46 d2 c4 3d 92 55 48 bd
       0.08038387 -0.05305724 0.09610419 -0.04890973
000370 0d 38 5c 3d c3 62 08 bd 50 e0 2d 3e 6e 73 22 3e
       0.05376439 -0.03329731 0.169801 0.15864345
000380 70 3e ae bd 9c 5b bb bd bb 55 4a bd aa f1 1b be
       -0.08508003 -0.091483325 -0.049398165 -0.15228906
000390 4d b5 f4 3d 46 8e b5 3a 63 1e 89 3d de 4b 2f 3d
       0.11948643 0.0013851605 0.06695249 0.042796962
0003a0 2e bd 1c 3e bf 9e 91 3d c9 a0 e3 bd ce e0 a1 bd
       0.15306541 0.071103565 -0.11114652 -0.07904206
0003b0 cf b1 78 3b 66 92 bc 3c 05 77 cf bc 8c 35 ef 3d
       0.003794778 0.023019027 -0.025325308 0.11680135
0003c0 40 72 0b be 38 81 9e bd 91 7c 76 bd 63 4b 03 bb
       -0.13617802 -0.0773949 -0.06017739 -0.0020033948
0003d0 9e 99 e0 3d 70 b3 77 3d 7a c3 d2 3c 71 40 42 3c
       0.109668 0.06047386 0.025727976 0.011856184
0003e0 1c b3 dc 3c dd 97 a9 bd 14 32 c5 3d e8 0c 96 bd
       0.026940875 -0.08280919 0.09628692 -0.073266804
0003f0 ca 76 fa 3c a9 b1 4e 3e 5e f6 14 3e 57 0f be 3d
       0.030574221 0.2018496 0.14547107 0.092802696

network_body._body_endoder.seq_layers.2.bias f4 [128]
000000 ea bb ad 3c 6b 7d 30 3d bb 9a e0 3b 7b ea 54 3c
       0.021207768 0.043088358 0.006854383 0.012995358
000010 3c af cb ba 36 07 39 3c 79 39 e0 3a 92 90 94 3c
       -0.0015539895 0.011293223 0.0017106972 0.018135343
000020 6d 67 00 3d 6a b3 9b 3b 3a f1 2c 3d 95 13 f9 3a
       0.031348635 0.0047516124 0.04222224 0.0019003028
000030 fa 37 ee 3c 58 3b 0a bb bb be 8d 3c 0f 33 7f 3c
       0.029079426 -0.00210925 0.017302861 0.015576138
000040 d8 75 a5 bb 09 8c f7 3c 6d d7 d1 3b e6 d0 a0 3b
       -0.0050494485 0.030218141 0.0064038546 0.004907715
000050 8a a6 2d 3d dc a6 52 bc 24 a1 d9 3b 18 25 e7 3c
       0.042395152 -0.012857165 0.006641524 0.02821593
000060 64 72 d9 3b 57 17 38 3c 81 eb 62 ba f9 60 12 bc
       0.006635951 0.011236033 -0.00086563086 -0.008934253
000070 71 40 d5 ba 4c eb 8f 3b f3 73 62 3c 43 ee c4 3c
       -0.0016269815 0.0043920632 0.01382159 0.024039393
000080 03 63 e9 bb df 7f 99 bb 3d d9 b7 3c 91 c7 4e bb
       -0.007122399 -0.004684433 0.022442454 -0.0031552056
000090 36 93 5f 3c d1 8b 9e 3b 39 3f 54 3d 41 26 e6 3c
       0.013645938 0.0048384448 0.051818106 0.028094413
0000a0 13 14 f6 3c 76 24 5a bb 2f bf 91 3a 63 da e9 3c
       0.030038869 -0.0033285893 0.0011119599 0.028546518
0000b0 d1 27 8d 3c 7f 2d d5 3b 3c 4f 82 3b 0f 17 59 3c
       0.0172309 0.0065056677 0.0039767306 0.0132501265
0000c0 e5 25 bb 3c b4 9b 42 3c b2 5f 87 3c 66 ba a3 3c
       0.022845218 0.011877943 0.016525123 0.019986343
0000d0 56 de 20 3b a2 b7 c5 3c c8 ea d7 3b 15 0d c3 3c
       0.0024546585 0.024135415 0.0065892674 0.023809949
0000e0 5b 87 5e 3c c4 75 8f 3c fc b4 54 3c e0 a1 08 bb
       0.013582076 0.01751221 0.012982603 -0.0020848438
0000f0 54 ff d0 3b 0e 0e 20 bc 6b 36 02 3d 24 23 31 3b
       0.0063780937 -0.009768976 0.03179018 0.0027029002
000100 2e e2 13 bb c8 3c 62 bc 5d 9e 07 3d 9f 00 4a 3c
       -0.0022565234 -0.013808437 0.03311001 0.01232925
000110 dd 64 1c 3c 90 0e d7 3b c6 cc 45 bb 0f 3a 0e 3d
       0.009545532 0.0065630153 -0.003018187 0.034723338
000120 95 eb a5 3c fc 46 af bb 92 f5 24 3c 2c f1 83 3a
       0.020253936 -0.005349038 0.010068314 0.0010066382
000130 81 63 76 3c 17 6f 78 3c 67 2f be 3c a7 a0 a0 3c
       0.015038372 0.015163205 0.023215963 0.019607855
000140 8f b4 0f bb b7 a1 02 3b 02 ce 1b 3b 9f b2 42 3d
       -0.002192769 0.0019932815 0.0023773913 0.047533628
000150 f7 0c 0b 3c f0 af ff 3b c8 ac 8c bb 48 71 7a 3b
       0.008486978 0.007802956 -0.004293058 0.0038214494
000160 51 1e d0 3c b7 04 61 3a a7 34 85 3b 70 0f 48 3c
       0.025405081 0.00085837714 0.0040651145 0.012210712
000170 a8 dc bd 3c 18 03 f0 39 5d 41 93 3c c4 50 57 3c
       0.023176506 0.00045778672 0.017975504 0.013141815
000180 40 3b 8d 3c 20 2f 0a 3d e3 d3 2a 3c 00 56 b7 ba
       0.017240167 0.03373635 0.010426494 -0.0013987422
000190 76 86 2a bb cb 12 7f 3c 50 87 46 3c e9 97 49 bc
       -0.0026020086 0.015568445 0.012117222 -0.012304285
0001a0 48 69 28 3b a8 27 18 bc 4b 31 ce 3c c5 a6 f6 3b
       0.0025697518 -0.009286799 0.02516999 0.0075272047
0001b0 cd 0d 34 3d 31 f9 19 3d 8a 79 2f 3d 6b ad 81 3c
       0.043958474 0.037591163 0.042840518 0.015829762
0001c0 e1 d2 1b 3a fb ec b9 3a b3 2f 17 3c 7f 81 67 3c
       0.0005944204 0.0014185006 0.009227681 0.014129995
0001d0 9f 0e 2b 3b 01 8d d1 3a 14 4c 5f b9 ef e4 45 bb
       0.0026101244 0.0015987457 -0.00021295279 -0.003019627
0001e0 da f9 d4 3c 82 e4 33 3b 54 9b d8 3a fd ca 48 3c
       0.025998045 0.0027449434 0.0016525784 0.012255427
0001f0 36 48 29 3d 6d 27 66 3c 8f 20 a6 bb 05 a0 34 3c
       0.04132863 0.014047486 -0.0050697993 0.01102448

action_model._continuous_distribution.log_sigma f4 [1, 2]
000000 2d c9 5a bc 25 1d 7c bb
       -0.013353628 -0.003846952

action_model._continuous_distribution.mu.weight f4 [2, 128]
000000 38 07 91 bd 2b c7 a0 bd 9a 01 f8 bb 76 89 54 bd
       -0.07081455 -0.07850488 -0.0075685503 -0.051888905
000010 72 48 db 3b e5 28 66 bd a0 3d d7 bc d0 09 ba bd
       0.0066919858 -0.056191344 -0.026274502 -0.09083903
000020 42 80 ea 3c dc d3 0c 3c cf a1 e0 3d ac d2 84 bb
       0.028625611 0.008595433 0.109683625 -0.0040534344
000030 0b 79 ee 3d 72 15 af bc af 9d b5 3c 13 7d ca 3c
       0.11644181 -0.02137253 0.022169916 0.024717843
000040 83 2f fd 3b be 1c 46 bd 6d 8c b2 bb 31 6e 83 3c
       0.007726611 -0.048367254 -0.005448869 0.016043754
000050 66 34 98 3d 7b 46 09 3a b4 69 26 bb e3 8d ca bc
       0.07431869 0.00052366377 -0.0025392594 -0.02472586
000060 80 d7 de 3b 7e f1 79 3c e6 25 84 39 b8 be d8 3c
       0.006800592 0.01525533 0.00025205238 0.02645813
000070 85 43 43 3c 8f 9d 54 bc d0 f4 4f bd 95 2c 78 bd
       0.011917953 -0.012977018 -0.05077058 -0.06058939
000080 b2 a4 03 bc 80 b1 b7 bb 49 03 9c 3c 67 7e 8a bc
       -0.008034872 -0.0056058764 0.019044535 -0.016905976
000090 7c dc 8d 3d f7 ad 3b 3c 3d ba df bc fb 5d d1 bd
       0.0692682 0.011455051 -0.027310485 -0.102230035
0000a0 b0 b3 00 3e c3 59 a2 bc 97 cd ab bc f7 a8 9f bd
       0.12568545 -0.019818192 -0.020972056 -0.07795899
0000b0 28 71 c5 3c 9d 8d 15 3d 45 72 2b 3c b7 66 e4 bb
       0.024101809 0.036512006 0.010464256 -0.0069702524
0000c0 e3 c7 96 3c 59 ee 04 3c e0 fd 86 3d 87 c9 84 3c
       0.01840586 0.008113467 0.065913916 0.016209377
0000d0 d8 46 08 3d ea a3 19 3d ee dd 9a bb 4a b2 b7 bd
       0.033270687 0.037509836 -0.004726163 -0.08969553
0000e0 00 16 95 3c fb 1c 93 3d 49 0f af 3d b2 32 e8 3c
       0.018198967 0.07183262 0.08547837 0.028344486
0000f0 5a 61 fe bc ac c1 58 3c 8f 46 c2 3d 84 36 9f 3a
       -0.03105228 0.013229769 0.09486114 0.0012146984
000100 ab 08 33 bc 1e 69 02 bc 57 bc 16 3d 3c 03 16 3b
       -0.01092736 -0.007959632 0.03680071 0.0022890111
000110 d0 73 d4 3b 88 a8 d4 3c 55 ef 85 bc 3f c6 fa bd
       0.0064835325 0.025959268 -0.016349474 -0.12244844
000120 fa b8 49 3c 57 7b 45 3b 89 e2 bd bc 3c 8a d6 bb
       0.012312168 0.003013333 -0.02317931 -0.0065472405
000130 67 6a 02 3d 53 b3 21 bc 01 a2 34 3d 4c 0e f9 bb
       0.031839754 -0.009869414 0.04409981 -0.0076005813
000140 20 17 ca bb 9c 26 95 3c 81 d6 99 bc f3 60 fc 3d
       -0.0061673075 0.018206887 -0.018779041 0.12323179
000150 1b 0b b3 3c 45 9a 53 3c 92 d8 16 3d 7e c6 87 bc
       0.021855881 0.012915199 0.03682763 -0.01657414
000160 47 d2 cc 3d bc 81 f4 3c 20 98 ef 39 b2 b7 a5 3d
       0.10001045 0.029847018 0.00045698974 0.08091678
000170 63 6c b5 3d c7 b5 20 3c 19 42 69 3d 58 51 e7 bc
       0.08858564 0.009808964 0.0569478 -0.02823703
000180 74 d1 57 bd 1e ee d2 bb 76 e9 11 3d 2d ba 1d bd
       -0.052689984 -0.006437077 0.035623036 -0.03850763
000190 89 b5 2f 3d e6 2c 2e bc 7e 0a 24 3d 1b 90 9e 3a
       0.042897735 -0.010630822 0.04004907 0.001209739
0001a0 55 4b 10 3d 87 35 5a bc 6a f7 74 3d fb b4 75 3d
       0.035228092 -0.013318426 0.059806265 0.05998705
0001b0 05 4e f3 3d 0e 2b 8d bd 83 a3 a6 3d 64 87 9f 3d
       0.118801154 -0.06892978 0.08136656 0.077894956
0001c0 c7 a1 78 3c 10 59 bb 3c 79 14 01 bd cc d0 5a bd
       0.0151752895 0.022869617 -0.031513665 -0.05342178
0001d0 d3 16 62 bc 20 49 39 bc e4 04 c0 bc 77 fc 85 3c
       -0.013799387 -0.011308938 -0.023439832 0.016355736
0001e0 a2 08 a0 bc 6b 3f c4 3c 20 fa 67 bc 9a 2e c1 3c
       -0.019535366 0.023956021 -0.014158756 0.023581792
0001f0 d5 8d 80 bd 22 d5 5b bd f7 45 fc 3b d5 80 a8 bc
       -0.06277052 -0.053670056 0.00769877 -0.020569244
000200 65 b1 ca bc 36 02 d4 3d 3c 39 e1 3c 03 43 25 3d
       -0.024742791 0.10351984 0.027493112 0.04034711
000210 5b 3f 0f 3d a2 a9 6a bc f9 83 34 3c 09 e4 55 bc
       0.03497253 -0.01432267 0.011017793 -0.013054856
000220 43 9e 15 be 17 5c 2b 3d e3 42 c6 bd 4e b4 88 3b
       -0.14611153 0.04183587 -0.096807264 0.0041718846
000230 01 21 87 bd cf 0a 20 3c 69 b1 04 bd 47 13 81 3c
       -0.06598092 0.009768202 -0.032395754 0.015756262
000240 e1 87 af 3c 09 9a 6b 3d 97 3b 4e bd 8e cb d8 3b
       0.021427097 0.057519946 -0.050349798 0.0066160625
000250 1c a0 be 3d db 04 ec 3b f8 a5 f1 3c bd d5 eb bb
       0.09307882 0.0072027273 0.029498085 -0.0071971104
000260 ee cc 28 3d 65 39 04 bc 43 a1 c1 3c 58 ff 10 3d
       0.04121106 -0.008070325 0.023636466 0.035399765
000270 7a 48 ea 3c 0a 82 00 bc 70 50 c3 3b bc 5a 6c bd
       0.028599013 -0.007843504 0.0059605166 -0.05770372
000280 b5 57 0b 3c 4d 29 8f 3c b1 0f e3 bd f7 f3 8d bc
       0.008504798 0.017475748 -0.11086977 -0.017328246
000290 f8 f3 87 3d 3b e0 8e 3c d6 07 b0 3d 02 74 9e 3d
       0.0663833 0.017440906 0.085952446 0.077369705
0002a0 d0 8b c4 bd 45 12 b3 3c 4e 94 c7 bb c1 77 2a bc
       -0.095969796 0.021859298 -0.0060906773 -0.010404528
0002b0 18 1e d3 ba f3 9a 37 3d d6 31 b6 3b 7d 5e 10 bc
       -0.0016106991 0.044825505 0.00556014 -0.00881159
0002c0 67 5e b8 3d f5 87 d8 3c 8c 62 65 bd fd 31 8d 3a
       0.09002381 0.026432017 -0.056002185 0.0010772344
0002d0 02 72 3d bc cc 27 d3 bd a7 2b 34 3d 0c de 4b bd
       -0.011562826 -0.10310325 0.043986943 -0.049772307
0002e0 a9 23 ed bc 1b 72 dd bd bc 8b 2b 3d 97 af a6 bb
       -0.028947668 -0.108127795 0.041881308 -0.00508685
0002f0 1c a6 39 3c 03 75 93 3c 5d 67 44 3d 70 24 b8 3c
       0.0113311075 0.018000131 0.047950137 0.022478312
000300 c9 ed 30 3c 5a 63 af 3b 4a b6 2e be 00 57 25 bc
       0.01079888 0.00535242 -0.17061725 -0.010091543
000310 14 80 c6 bb d0 a7 38 bc 4b 66 fc 3c f9 e3 0a bd
       -0.0060577486 -0.011270478 0.030810496 -0.033908818
000320 cf 67 f0 bd 01 a1 24 3d 1d 06 03 3d 81 96 e9 3c
       -0.1173855 0.040192608 0.031988252 0.028514149
000330 dd 7d c8 bc 6d ad 6b bb 35 a8 bc bd 8f 7d c6 bd
       -0.024474079 -0.0035961524 -0.092117704 -0.09691917
000340 b3 c2 b2 3c 48 36 8d 3c 8a 83 8f 3b f8 e4 a5 3d
       0.021821355 0.017237797 0.0043796944 0.08100313
000350 a1 f2 3e bd 4c 08 d5 3c f8 77 97 3c 39 9e 54 3c
       -0.046618108 0.026004933 0.018489823 0.012977176
000360 f3 ce 30 3d b3 2b 7a bb db ae ed 3c 44 f4 1c bd
       0.043166112 -0.003817302 0.029014042 -0.038318887
000370 b9 e4 85 3d 01 e1 00 3d c7 45 44 3d aa 7b 5f bd
       0.06537766 0.03146458 0.047918107 -0.054561295
000380 64 a8 98 37 fb 69 15 3b 60 77 a0 3d 49 0c a2 3c
       1.8198225e-05 0.0022798765 0.07835269 0.019781249
000390 6c dd c4 3c 54 bc 7c bc 86 69 48 3d 11 7c e3 3b
       0.024031363 -0.01542576 0.04892876 0.00694228
0003a0 4e b2 0a 3d ad 07 53 bb 23 8a b0 bd d0 43 11 3d
       0.03386145 -0.003220062 -0.086200975 0.03546506
0003b0 02 00 ba 3d 8c 5a 62 bd f2 64 82 3d ba 82 ae 3d
       0.09082033 -0.055262133 0.0636691 0.08521028
0003c0 2d 6b b1 3c 78 0d a0 3c 48 fb 90 3c eb 62 a7 bd
       0.02165755 0.019537672 0.017697945 -0.08173164
0003d0 34 b1 ef 3b 4d 02 34 bc 56 56 f2 3b cd 4b d2 3c
       0.0073148254 -0.010986877 0.007395546 0.02567091
0003e0 62 79 95 bd c2 bf ff 3c 7c ff 2f 3c f4 e8 c0 3d
       -0.072985426 0.031219367 0.010742065 0.09419432
0003f0 e9 b5 ac 3d 23 ee b5 bc 62 ee af 3c de eb c5 bb
       0.08433134 -0.022208279 0.021475974 -0.0060400805

action_model._continuous_distribution.mu.bias f4 [2]
000000 de 2c 25 ba c2 3a a0 bb
       -0.0006300936 -0.004889817
