Assets/Model/TankBrain/TankBrainML/TankBrainML-18842.pt (torch, 534550 bytes, 36 tensors)

network_body._body_endoder.seq_layers.0.weight f4 [128, 36]
00000000: ad2a 853e 7c97 d73c 30ef 27be 952d d4bc
00000010: 19ef a43d 4d34 19be 9328 64bd d6a8 f23d
00000020: d8c7 c5bc 09b5 e0bd 06e3 55be 75df b33c
00000030: c35f 363c 5328 363e 558b a9bd 28ed d0be
00000040: 2989 05be baf6 463d f041 f2bd aaa1 663d
00000050: b32e 863d 4dc2 6cbd 0eb0 09bd 1c1c 043e
00000060: ed58 37be 23d8 a33d 1cdc 4a3e 92e5 e53c
00000070: a5c3 41be f740 373e a731 d93a d76c 0ebb
00000080: 621d 133e 1380 a4be 9929 0cbe 8290 ca3d
00000090: d264 35be f642 32bd d4b4 1a3e f4db a83d
000000a0: 1c16 71be 54c5 393e 08e3 703e fc9e e73c
000000b0: 6d1c 2dbe feca 70bd b6ef 3b3d 9437 af3e
000000c0: d6f2 9fbd 7f37 033d 63e9 0bbe 297d 223e
000000d0: 85bd 163d fadd b23d 4c7b 90be 5648 2cbd
000000e0: cfe6 313e dab2 b63d c68a 83be 8997 7f3d
000000f0: 3050 553e 51d6 0cbd 8e23 cf3b ee7e c03c
00000100: 1d97 2d3e fe17 bf3d b645 243d 391a 993d
00000110: e47f 363d c6f2 0ebd 8953 953d ffa8 863d
00000120: 8cd9 b63d e532 bf3d f6e5 1e3e cd81 34bc
00000130: 7b4d d93d 3071 07bd e305 493e 221e 32be
00000140: 86d3 bfbd 267a 003d 0476 f53d 2e60 87bc
00000150: 0de7 84be d511 843e 5031 c3ba 9914 ec3d
00000160: 2ebd 83be 906f f63d 1814 e23d 3ddb 993e
00000170: 7cec 4c3e 23fb f23c 8056 e1bd 4f6d d53e
00000180: a101 553e e4cd 463d 6e4a 6fbe d632 343d
00000190: 7cce edbd 3a91 55ba 1e0b 04be 933b 843e
000001a0: b5f9 1c3e 1abe b1be c673 01be 63ac 383e
000001b0: db8c b63e 61ac aebd 2056 7bbe 3145 96bb
000001c0: c5a8 273e 364a 813e 44fa 03be 3d53 9c3e
000001d0: ac80 94bc def8 493e ae13 df3d ad3d b43d
000001e0: ac47 173e c708 c3be ea65 70bc 4269 fa3d
000001f0: 952e 0d3e ca6f 373d a254 0f3e 6d3a f6bc
00000200: 7450 a83e c517 0bbd f730 17bb 6c0a 0e3e
00000210: 315a 8bbb 46aa c33c e501 17be 1a56 d7bd
00000220: 6bce 993c d13b 803e d11b aabd 0c82 d93e
00000230: e0a3 2ebe 8b40 79be cd86 30be dd59 643e
00000240: dbcc 25be 9500 163c 8588 933c 2ce4 39be
00000250: 3a5e c3bd 7704 503d 82ca 5fbd 828f c4bc
00000260: f41a d0bb f63e 803e 78cb b5bd 4708 2ebe
00000270: ba43 72be 7b3c b03d a67c ad3e c111 223e
00000280: 4344 b0bb a6e1 de3d 7048 2cbe 937c 563e
00000290: b4e7 37bd e957 11be 5efa 8d3e 1471 8d3e
000002a0: 5bb1 f0bd 543d 9a3d c0f8 30bd e1f4 9a3e
000002b0: 32fb 1ebe cbfe adbc 9344 10bd 2ee7 88be
000002c0: ac5d ac3d 3286 733e 4cd1 a93d f5dd 843e
000002d0: 2a11 ddbd 7def 813d e842 073e f5e9 10be
000002e0: c7ed c03d 7c6d cdbd 8b4a 723e 9d79 c93b
000002f0: 7e3d 873e d242 583e 6ac8 143e 6c42 dabc
00000300: 5949 803e 46aa 563e 501a a33d e388 88bd
00000310: b057 243d fb62 94bd fe33 f8bd a77a 413e
00000320: 2a71 563e 69e6 20be b8b3 2e3d 8b34 9b3d
00000330: 6f9e 8a3d 7546 a2bc a8f4 55be bf7e 97bd
00000340: 454f b7bd 9a42 6d3e d11f 59be 663c 733e
00000350: b767 00be 0846 86bb e8b2 d13d d576 593c
00000360: fabd 8abd a346 893d fc1d bb3e b5b6 ea3c
00000370: c9a2 97bd 5e02 dbbc ac04 f4bd ef47 253e
00000380: 9c0e 953d 92af 9c3e 0e43 4c3c e492 cbbe
00000390: bec2 863c de84 07be e806 6ebd 7d17 93be
000003a0: c15d 62bd 2178 8f3e 4309 0dbc 62d7 6dbe
000003b0: 131b 75bd 04b1 343e 6a44 51be cb19 a6be
000003c0: e7d4 20be 4583 5a3d a448 a23d 262b 063e
000003d0: 0dc3 4cbc 8332 d83d 6a1c 6b3d 5c23 24be
000003e0: 57f4 4f3c 1196 61be 91b8 da3d d4ff 72bb
000003f0: 354a 893d 2301 bb3d d8a0 a7be e51a 20be
0.26009122 0.02631735 -0.16399837 -0.025900641 0.08053417 -0.14961357 -0.055702757 0.11848609
-0.024143144 -0.1097203 -0.20887384 0.021957139 0.01113123 0.1778882 -0.082785286 -0.40805936
-0.13040604 0.04857514 -0.11828983 0.05630652 0.06551876 -0.057802487 -0.033615164 0.12901348
-0.17905016 0.08000209 0.19810528 0.02806357 -0.18922289 0.17895876 0.0016570584 -0.0021732354
0.14366677 -0.32128963 -0.13687743 0.09890844 -0.17714241 -0.04352089 0.15108043 0.08245078
-0.2354359 0.18141681 0.23524106 0.028274052 -0.16905375 -0.05878734 0.045882903 0.3422209
-0.07809989 0.032035347 -0.13663249 0.15868057 0.036801834 0.08733745 -0.28219068 -0.042061172
0.17373203 0.08920832 -0.25691813 0.062400375 0.2083137 -0.034384076 0.006321377 0.023498025
0.16952176 0.09330748 0.040105544 0.07475705 0.04455556 -0.034899496 0.07291324 0.06575202
0.089282125 0.09335879 0.1551741 -0.011017275 0.10610481 -0.03306693 0.19631152 -0.17394307
-0.09366517 0.03136649 0.119854 -0.016525354 -0.25957528 0.25794855 -0.0014892016 0.11527366
-0.2573027 0.120329976 0.11038989 0.30050078 0.20012087 0.029660767 -0.11002827 0.41684958
0.20801403 0.048536196 -0.23368236 0.043993793 -0.116116494 -0.00081469456 -0.12894866 0.25826702
0.1532963 -0.34715348 -0.1264182 0.1803451 0.3565434 -0.085289724 -0.24544573 -0.004585885
0.16372974 0.2525193 -0.12888438 0.30532256 -0.018127762 0.19723842 0.108924255 0.08800826
0.14773434 -0.38092634 -0.014672736 0.122271076 0.13787301 0.044784345 0.13997129 -0.030057156
0.3287388 -0.033958215 -0.0023069957 0.13871163 -0.004252695 0.023884904 -0.14746816 -0.105144694
0.018775186 0.25045636 -0.08306087 0.4248203 -0.17054701 -0.24341027 -0.17238922 0.22299905
-0.16191427 0.009155412 0.018009434 -0.18153447 -0.09539457 0.050785508 -0.054636486 -0.023994211
-0.0063508693 0.25048035 -0.08876699 -0.16995345 -0.23658648 0.08605286 0.33884162 0.15827085
-0.005379231 0.10882883 -0.16824508 0.20945959 -0.044898704 -0.14193691 0.27730078 0.27625334
-0.11752578 0.07531229 -0.043205976 0.30264953 -0.15525511 -0.021239659 -0.035221647 -0.26738876
0.08416304 0.2378166 0.08291873 0.2595059 -0.107942894 0.06344507 0.13209116 -0.14151748
0.094203524 -0.10030648 0.23661248 0.0061485306 0.26414102 0.2111924 0.14529577 -0.026643
0.2505596 0.20963392 0.07964003 -0.06666734 0.040122688 -0.072454415 -0.12119292 0.18894444
0.20941606 -0.15712894 0.042651862 0.07578381 0.067685 -0.019808987 -0.2089411 -0.07397222
-0.08950666 0.23169938 -0.21203543 0.23753509 -0.12539564 -0.004097704 0.10239202 0.013272961
-0.067745164 0.06702926 0.36546314 0.028651575 -0.07404096 -0.026734527 -0.119149536 0.16140722
0.07278177 0.306027 0.012467159 -0.39760506 0.016450282 -0.13234279 -0.058112055 -0.28728858
-0.055265192 0.2802134 -0.008608165 -0.23226693 -0.059840273 0.17645651 -0.20436254 -0.32441553
-0.15706216 0.053347845 0.07924011 0.13102397 -0.012497676 0.10556509 0.057400145 -0.16029114
0.0126925325 -0.22029902 0.106797345 -0.0037078755 0.06703607 0.09131076 -0.32739902 -0.1563526

network_body._body_endoder.seq_layers.0.bias f4 [128]
00000000: 07f6 0cbb 4fc1 25ba e140 083b a345 0e3b
00000010: 0d0c 0fba 5c7d 863b 869f 2ebb 99d5 c2ba
00000020: 3109 16b9 d768 b439 009b a6ba a361 bbba
00000030: f863 1fb8 3f2a 883a 5e34 2ebb a1b0 4e3a
00000040: 0d50 823b 043e 5e3a 2306 c7ba ebd0 e3ba
00000050: 537d 103b 8ddf 4839 2154 ad3b 67f7 bcba
00000060: b274 6739 7988 de39 ade5 1fbb 1830 493b
00000070: 4921 283b b2b2 fcb8 284d d6ba c87a c0ba
00000080: e971 aab9 c647 f3ba 47ea 2a3a 8efa 043b
00000090: 69c8 0abb e2d6 43bb 952e b8ba 933f 15bb
000000a0: 4841 99bb 1046 cc38 9f4c feba 9611 02b9
000000b0: 316e a4ba 2366 603a c39d b139 0689 2d3b
000000c0: b87d 50ba 9e99 35ba 0370 003b 215d 9aba
000000d0: 5cd3 69ba d175 33bb 36e3 0dbb 1ce1 4dbb
000000e0: 2c37 013a b8ff 96ba da25 a53a dda5 023b
000000f0: 7f08 093b 0c7b 4fbb 0b6e d239 482e 043a
00000100: 9763 12bb 68f3 ef39 82b8 dc3a 5784 50bb
00000110: 15ef 68bb a431 a63a 1ae4 8f39 7b51 5f39
00000120: 6647 1f3b 7493 b03a e1bd 94bb 4171 0fb9
00000130: 4544 13bb 1446 d5b9 9748 013a 850d 263b
00000140: 4da9 92bb 707e 37bb 5a1b 28bb 9f39 4d3a
00000150: d7a0 21bb 501e fc3a 32c7 a8ba 2394 b83a
00000160: 1edb bbba f58e 1bbb c16d 0fba d9ce a0ba
00000170: 5068 a03a 49de c9ba b9a9 09ba 2b42 b7ba
00000180: b9ff 993a f159 11ba 28e0 b937 d5e2 08bb
00000190: 9662 c33a ec85 7bbb d82e dd39 d598 733b
000001a0: 6d0b 7c38 87ae 473b 6419 8fba cf98 88b9
000001b0: 900e 2f3b 2734 1bba bdca cfba a6f1 403a
000001c0: 3c5b 453b ba41 1aba 7252 cd3a d07d 44ba
000001d0: f6c8 b73a 53f7 2ebb 0c65 51b9 e251 3b3a
000001e0: 2a0f 8dba 8868 443b bec8 613a 8922 ff3a
000001f0: 66d3 233a 5182 613b 05ed 87bb 5630 32bb
-0.0021508948 -0.0006323056 0.0020790624 0.0021708987 -0.0005456813 0.0041042995 -0.0026645376 -0.0014864682
-0.00014308539 0.00034410387 -0.0012710989 -0.0014296066 -3.8001657e-05 0.0010388567 -0.0026581506 0.0007884596
0.003976828 0.0008477869 -0.0015184324 -0.0017380988 0.0022047355 0.00019156765 0.00528957 -0.0014416993
0.00022073349 0.0004244482 -0.0024398372 0.0030698832 0.0025654605 -0.00012049581 -0.0016349899 -0.0014685029
-0.00032509796 -0.0018560819 0.00065198954 0.0020290944 -0.0021176583 -0.0029882719 -0.0014051968 -0.002277349
-0.0046769716 9.740528e-05 -0.0019401497 -0.00012404317 -0.0012545047 0.00085601414 0.00033877612 0.0026479377
-0.0007953304 -0.0006927493 0.0019598014 -0.0011777022 -0.00089197396 -0.0027383456 -0.002165032 -0.0031414693
0.0004929181 -0.0011520302 0.0012599782 0.0019935288 0.0020909605 -0.0031659035 0.0004013631 0.0005042297
-0.0022337192 0.00045766984 0.0016839656 -0.0031817162 -0.0035542895 0.0012679589 0.00027445034 0.00021297291
0.0024304031 0.0013471679 -0.004539237 -0.00013679733 -0.0022471112 -0.00040678738 0.0004931776 0.0025337648
-0.0044757486 -0.0027998947 -0.0025651068 0.00078287156 -0.0024662518 0.0019235108 -0.0012876748 0.0014082234
-0.001433227 -0.0023736332 -0.00054713717 -0.0012268677 0.0012238119 -0.0015401329 -0.0005251426 -0.0013981512
0.0011749185 -0.00055447133 2.21581e-05 -0.0020887156 0.00149067 -0.0038379384 0.00042187306 0.0037169952
6.0092123e-05 0.0030469017 -0.0010917601 -0.00026053793 0.002671156 -0.0005920552 -0.0015853267 0.0007360227
0.0030114194 -0.0005884428 0.0015664829 -0.0007495554 0.0014021683 -0.002669771 -0.00019969436 0.00071456854
-0.0010761966 0.0029969532 0.0008612982 0.0019465248 0.00062494574 0.003440995 -0.004148128 -0.0027189455

network_body._body_endoder.seq_layers.2.weight f4 [128, 128]
00000000: 39ee 09be e2b3 773d 68b0 af3c 576c bd3c
00000010: 45fd 0bbe 8c64 853d b886 8a3c e7e3 6abd
00000020: b8a7 b5bd 12e5 153d 25ea e3bc f972 08be
00000030: 4c00 50be b04a 6ebc b547 49bd 18ff f53d
00000040: 5cbf 4c3c 5138 b7b9 e6a7 8e3d 0f2f 803d
00000050: 724b 32be 1787 f0bd 891b 30be 373c 933d
00000060: fe0a b6bd 7929 d5bc 8cc7 97bd 3032 60bd
00000070: cb15 b2bc 288c 993b 2cd4 d53c ea48 e0bd
00000080: 29c3 05be 34ba 603d 7c9d 8abe 62b1 e1bd
00000090: 8aa5 6d3e e80e 403e f4c9 15bd 98fd 603e
000000a0: 6e43 093d 4fdf 263e 9b36 463d f6e9 b4bc
000000b0: 8a06 25bd c2b0 14be eaa0 6b3d 9934 47bd
000000c0: c6dd 0e3d 4a1c 343d 4f8b d8bd 61b2 d6bd
000000d0: f879 24bd 45c9 6abd f4f6 5d3c e415 c6bc
000000e0: 213f 4cbc b519 05bc 8056 babd cf00 03bd
000000f0: 117a 333d 2dd8 7cbc fd6b 383c 6141 e03d
00000100: b6b9 fd3d 2f7f 91bc 1ede 19be f8a5 a7bd
00000110: cbbc acbc ebc8 183e e564 a1bc 4545 913c
00000120: e7ba 2fbd 2e4f 40be c3c3 7d3d 2d73 a0bd
00000130: 08c0 16be c5ae adbd ce7c 15bd 8558 853c
00000140: 3ceb 25bd 77cb 503d f1f1 363d 371d 7ebd
00000150: a95c d5bc 8554 d6b8 b3c2 a33d d115 253d
00000160: 91fc 863d c893 8b3b 6880 20bd 9f34 013d
00000170: eb45 46be b975 283d 43bb 693c 3580 a6bc
00000180: 0474 0a3d 1df4 e8bd 5431 38bd 1ab5 9d39
00000190: 8fa2 3c3d 0fc3 b6bd 65c5 5e3d 4bef 1b3e
000001a0: fa98 16bd 411b d53d dca0 473d 868e 0f3e
000001b0: d92c 063e 3b64 103c 5edd f7bd 002f 02be
000001c0: 3338 683d 6201 19bd 37d7 34bb 1ec9 6e3d
000001d0: 0eee a73b 5e70 9dbd cf08 403e 2633 6b3d
000001e0: 9c98 b3bd 5f88 b1bc 5425 58bc 0156 85bd
000001f0: 8133 18bd a30e 9c3c bc14 d03d f533 c9bc
00000200: efb5 4b3d 39f3 e83d 0c8e 99bd 6540 1f3e
00000210: 11c7 6fbc fa21 673d 9b2f 4d3e d807 ce3d
00000220: e932 8fbd 72f6 a23c 963c ae3d 7ac4 063e
00000230: ac7d 04bd 775c 13bc 4c04 10bd e78c d2bd
00000240: 0ade 293e 5dd5 a3bd aa0c 1d3d a228 91bd
00000250: a691 afbd 67fb eebc b4c8 edbd 828a 5c3d
00000260: 767c 973c ae0b b83d e824 21bd 408f 50bd
00000270: 8387 193e 28aa 67b9 5e54 003d a948 fb3d
00000280: ad61 37be c2b3 8d3d 3c2d f2bc 540a a4bb
00000290: 2e07 663c eefa 1d3d e96f d23d 4202 8dbb
000002a0: 452f d1bb 3b27 2cbd 92d5 00be fba4 943d
000002b0: 1f1b f83d 6773 18be 95c7 893e c523 84bd
000002c0: 7210 abbb 8794 2dbc c403 2f3d 780c de3d
000002d0: 86e4 b1bc 6b4e 283a 0d1f 1d3d 1982 a7bd
000002e0: 1887 053e a9e1 1ebd d797 f93d aeac 3a3d
000002f0: 0691 4f3b 004f 883d 86d2 51be 6f23 e3bd
00000300: 8c12 673c f21e f7bd 60b9 54bd 5445 453c
00000310: 2805 533c 79be b6bd 9180 f93a 879c babd
00000320: e310 5ebd c82d b0bd 8dd0 e4bd 498b 40bd
00000330: 382e d1bd 1ec7 85bc fa77 1f3d 743f b7bc
00000340: f0f5 933c 7015 15bd 60fb eebd 052a d13c
00000350: 8854 c33c 15b3 683d 718b 32bd 3e1b bd3c
00000360: 95d0 98bd f5d5 da3b 51e7 523e 8b23 87bd
00000370: 859e bdbd 92fe bf3d ae0e 873d 3af1 393d
00000380: fa3c 04bc a9f5 853d 5d79 383d fda5 3f3d
00000390: 8c3e 1dbc cf16 9abc fe47 7a3d df33 13bc
000003a0: 7852 013e ff7d f93d 6e68 9abc ba27 943d
000003b0: e409 843d b40a 343d 6d6e 6f3c d60a e2ba
000003c0: b09a 31bb 8669 1c3c d7f6 c3bd de53 cabc
000003d0: af4e d63d 58f4 863d b5b6 f7bc 8f9d ab3d
000003e0: 2abe ee3d 27cf 563c da73 043e 2f08 e13d
000003f0: 294f 9abd 90ab 33be 3d4d cf3c 7390 f9bc
-0.13469781 0.060474284 0.021446422 0.02312295 -0.13670833 0.065133184 0.016909942 -0.05734625
-0.088698804 0.03659541 -0.02782161 -0.13325109 -0.20312613 -0.014544174 -0.04914065 0.12011546
0.0124967955 -0.0003494644 0.06965618 0.06258976 -0.17411593 -0.11744516 -0.17198004 0.071892194
-0.08888815 -0.026020752 -0.074111074 -0.054735363 -0.021738907 0.0046858974 0.026102148 -0.10951407
-0.13062729 0.054865077 -0.27073276 -0.11020161 0.2320768 0.18755686 -0.03656955 0.21971738
0.03351157 0.16296123 0.04839192 -0.022084218 -0.04028944 -0.14520553 0.057526506 -0.048634145
0.03487947 0.04397229 -0.10573446 -0.10483242 -0.04015538 -0.05732085 0.013547648 -0.02418036
-0.012466223 -0.008123805 -0.0909853 -0.031983193 0.043817583 -0.0154324 0.011256215 0.1094997
0.12388937 -0.017760841 -0.15026137 -0.08185953 -0.021086117 0.14920394 -0.01970143 0.017733226
-0.042902853 -0.18780205 0.06195427 -0.07834468 -0.14721692 -0.084806 -0.036495976 0.016277561
-0.04050754 0.05097529 0.044664327 -0.06203958 -0.02604516 -0.00010220058 0.0799612 0.04030401
0.06591142 0.0042595603 -0.039184958 0.031544324 -0.19362609 0.041127894 0.014265838 -0.020324806
0.033802047 -0.11374686 -0.044968918 0.00030080305 0.046053465 -0.08923923 0.05438747 0.15228002
-0.036766984 0.10405589 0.04873739 0.14019212 0.13103046 0.008812959 -0.12102769 -0.12713242
0.05669422 -0.037354834 -0.0027594098 0.05829727 0.005124814 -0.07687448 0.1875336 0.057421826
-0.08769342 -0.021671472 -0.0131924935 -0.065105446 -0.037158493 0.019049948 0.10160205 -0.024560908
0.049734052 0.11374516 -0.074977964 0.15551908 -0.0146348635 0.056428887 0.20037691 0.1006009
-0.06992132 0.019892905 0.085076496 0.13160887 -0.032346413 -0.008994213 -0.035160348 -0.10280781
0.16588607 -0.0799968 0.038342156 -0.07087828 -0.08572702 -0.029172612 -0.11610547 0.05384303
0.018491965 0.08986603 -0.039341837 -0.050917864 0.149931 -0.00022093265 0.03133046 0.12269718
-0.17908354 0.06919052 -0.029562585 -0.005006114 0.014039798 0.038569383 0.102752514 -0.0043032477
-0.006383809 -0.0420296 -0.1258147 0.0725803 0.12114548 -0.14887773 0.26910082 -0.06452135
-0.0052204663 -0.010594494 0.0427282 0.10842222 -0.021715414 0.00064203766 0.03835969 -0.08179111
0.13039815 -0.038789425 0.12187164 0.045574836 0.0031672134 0.06655693 -0.20490465 -0.11090743
0.014103543 -0.12066449 -0.0519346 0.012040455 0.012879647 -0.089230485 0.0019035508 -0.091118865
-0.054215323 -0.08602482 -0.111725904 -0.047007833 -0.10213894 -0.016330298 0.038932778 -0.022369124
0.018061608 -0.036397398 -0.1166904 0.025532732 0.023844019 0.05681141 -0.043590013 0.02308428
-0.07461659 0.0066783377 0.20596053 -0.06598576 -0.09258751 0.09374727 0.06594597 0.045396067
-0.008071179 0.065409966 0.045037616 0.046789158 -0.009597432 -0.018809704 0.061103813 -0.008984535
0.12629116 0.12182235 -0.018848624 0.0723414 0.06447199 0.04395552 0.01461373 -0.0017245661
-0.0027100258 0.009546643 -0.09568565 -0.024698194 0.104642265 0.065895736 -0.030238489 0.08379661
0.11657365 0.013110912 0.12934819 0.10987889 -0.0753463 -0.17545915 0.025305385 -0.030464387

network_body._body_endoder.seq_layers.2.bias f4 [128]
00000000: 208c 593a 78e7 b73a d107 c0b7 e0e1 c3ba
00000010: db2c 1aba 89d8 e4b9 f1a4 62bb 332e a13a
00000020: ff8b 1cbb 26c4 12ba 12a5 1dbb 6a90 c93a
00000030: ade3 ef3a 3714 18bb 3ddc 283b 902d 143b
00000040: 952c 9e3a 673d 2e3a b61e 92b8 ce4d 3a3b
00000050: 4501 023b 1b69 e1ba aa96 c2ba b320 faba
00000060: 4260 ceba 88c6 7139 ae83 07ba 8f05 3abb
00000070: e611 01ba ff47 8eba 11eb bbba 1ab8 01bb
00000080: c653 09bb ec0e 933a a454 56bb a35e 43bb
00000090: 2a4e eb3a 7531 d03a 2103 e4ba 70b2 eaba
000000a0: e6df f33a 3129 68bb 537c 06ba 7d83 8539
000000b0: b512 a5b9 7825 453a 7956 53ba d37e 023a
000000c0: 60b5 983a d0bd c43a abd6 023b 8480 593a
000000d0: f157 6539 95b5 6eba c04a e638 3dd8 25bb
000000e0: 4336 28bb e8ab acba c61d 283a 352f 71bb
000000f0: 1f30 5ebb 6a1d 18bb 17e3 ba3a 6620 f7ba
00000100: 545a 07ba 0dbc 373a 85ed 2bbb 75f1 e2ba
00000110: af06 12bb c452 6539 f323 8c39 c6a3 9638
00000120: 5be4 cb3a 017a 163a 1e24 af3a 1f00 f8ba
00000130: 7a07 ccba f00b a93b 1875 06bb 7eb1 c9ba
00000140: 97ac 25b5 1217 fbba 1f23 3c3a a5ab 86ba
00000150: 9907 5039 81d7 943a b9c0 ba39 45de f6ba
00000160: 1361 7fb9 8a39 d7ba fd1e f7ba ffb4 f036
00000170: fe4e e939 5cbe 3ebb ffbe f3b9 485c 0ebb
00000180: e44e 11bb 0a26 d7ba 4efa 7f39 fa7b e637
00000190: 2274 c9b9 7193 49bb d592 013b b2ae 063b
000001a0: f9ba 80ba 2b25 27bb a8ce 09bb 7d3c beba
000001b0: bd3f 143a 3ae2 9aba 04f2 133a 726c a73a
000001c0: ef60 333a 957d 8139 3848 e0ba 15d9 163a
000001d0: 3bc7 ecb7 1a54 33b9 368a 0a3b 0e3a af3a
000001e0: 1b39 903a b78a 953a d9b1 a73a fd08 cd3a
000001f0: 8b12 6bba 124e d4ba f957 a0ba 7129 f23a
0.00082987733 0.0014030775 -2.2891823e-05 -0.0014944635 -0.0005881318 -0.0004364888 -0.0034583176 0.0012297094
-0.0023887155 -0.00055986864 -0.0024054688 0.0015378122 0.0018302106 -0.0023205408 0.0025766038 0.0022610165
0.001206773 0.0006646723 -6.967543e-05 0.0028427723 0.0019837182 -0.0017197462 -0.0014845927 -0.0019083231
-0.001574524 0.0002305751 -0.0005169463 -0.002838466 -0.00049236265 -0.0010855197 -0.0014337023 -0.001979357
-0.0020954474 0.0011219657 -0.0032704258 -0.0029811047 0.0017952372 0.001588388 -0.0017395952 -0.0017905962
0.0018606156 -0.0035424943 -0.000513022 0.00025465703 -0.0003148519 0.0007520537 -0.00080618967 0.0004978005
0.0011650734 0.0015010182 0.0019964378 0.00082970434 0.00021871903 -0.00091060373 0.00010981178 -0.002530589
-0.0025667108 -0.0013173791 0.0006413128 -0.003680182 -0.0033903194 -0.0023210892 0.0014258352 -0.001885426
-0.0005163301 0.0007008918 -0.0026234102 -0.0017314391 -0.0022281816 0.00021869974 0.00026729665 7.1830626e-05
0.0015555726 0.0005740226 0.0013362204 -0.0018920935 -0.0015566193 0.0051588938 -0.002051657 -0.001538798
-6.171844e-07 -0.0019156656 0.00071768643 -0.0010274543 0.00019839256 0.0011355729 0.00035620274 -0.0018834552
-0.00024354858 -0.0016420346 -0.001885384 7.173628e-06 0.00044500077 -0.0029105162 -0.00046490875 -0.0021722484
-0.0022172267 -0.0016414535 0.00024411941 2.7475868e-05 -0.00038424233 -0.0030758048 0.0019771357 0.0020550904
-0.0009821347 -0.0025504332 -0.0021027718 -0.0014513877 0.00056552497 -0.0011816688 0.0005643668 0.0012773408
0.00068427523 0.00024698363 -0.0017111367 0.00057543936 -2.8226166e-05 -0.000171021 0.002113951 0.0013368742
0.0011003347 0.0011409138 0.0012794092 0.0015642938 -0.00089673017 -0.0016197583 -0.0012233249 0.0018475485

action_model._continuous_distribution.log_sigma f4 [1, 2]
00000000: b44b a53a b0a5 733a
0.0012611062 0.0009294404

action_model._continuous_distribution.mu.weight f4 [2, 128]
00000000: 6f73 cbbb 7a4f 33bb 72ff 00bd 17f4 fd3a
00000010: a902 dabb c464 513c f7e3 763c 272d 5abb
00000020: 5316 513c 793a 443d 481a 943a e60a ecbc
00000030: d14d f63b 1390 833c b504 0abc cc99 b6bc
00000040: 1e22 c5bb 5dbd 623a 853a 413c 3db7 7abc
00000050: 1beb 8dbc 1bbd 9fba c88f 31bb 1eb8 283b
00000060: f002 903b 33a4 343c 5912 c13c 92e3 913c
00000070: fd2b bb3c 5f04 a8bb 7959 05ba 989d 9c3c
00000080: 6f83 db3c 97c4 dfbc 01ae 0d3d bc26 223d
00000090: 7db3 bbbc 98db 1cbc e003 56bc 1bd1 523c
000000a0: 5651 9ebc b2b4 d73c 32ae ca37 0371 913b
000000b0: 077b 4cbc d6a0 0bbb 6587 a63c 89da 2abc
000000c0: 4853 11bb 9e6d 043c 3f8e 9dbc dfa4 b0bb
000000d0: 8e27 d43b e50f 1a3c c6a0 ed3c 0af3 043d
000000e0: ead6 4d3c b6c5 c43c b9de 86bc c70a 9b3c
000000f0: a6ef 863c 5bbb b83c e43e 553c 6bfa ca3c
00000100: 2a45 32bc 3595 94ba b135 fc3c 684e 9a3c
00000110: 565e a53c 39d3 6c3c edc1 e43c 824a af3c
00000120: b8d0 0abd 50b5 62bc 6cb0 14bc ef48 e0bb
00000130: 02fa ae3b c8e4 a5bc aba8 563c 08d3 783b
00000140: a872 7b3c db6b b13c 86eb 23bc e5f6 f1ba
00000150: 2306 0e3d c6ca e438 b990 943b 5070 503a
00000160: 6074 3c3c df94 12bc 4de0 d93a 6f71 be3c
00000170: dbbc 393b 2924 803b c54e 953c 544f c33b
00000180: f38a 733c f598 ab3c 72af debc b5ab 9dbc
00000190: c44e e03c 671d 4c3d 63c4 01bc ae92 c4bc
000001a0: 7abb 09bc ae2c 233c 2b11 9f3b c89e 8a3b
000001b0: 6f59 da3b d1cf 073d b347 4a3c d72a a5b9
000001c0: e268 813a 3acf f4bb a4d2 c03b d389 f3bc
000001d0: b0f0 503c 6167 8e3c 4b27 97bc c9fa 6a3c
000001e0: b318 f8b9 6051 b83c 89eb 49bc a903 2cbc
000001f0: 9f77 213d 6d48 a23c e918 64bb 8e8e 84bc
00000200: b699 22b9 a2eb afbc e5f9 863c b736 3f3d
00000210: 8ed2 973c 7c37 02bc f36b ae3c 2a0c 0ebd
00000220: a3ce 0e3c f85c e539 ce0d 253c 36db ffbb
00000230: 3635 00bd dac0 7e3b 58d7 81bc 91b5 77bc
00000240: 3e3f bbbc fc71 153b 3578 45bc a033 c7bc
00000250: 5b99 34bd d82c 3c3c fcfe f03c 360d 503c
00000260: e48a e339 9924 3a3c 1036 40bc 9714 a53c
00000270: ccb4 b53b 8a43 283c fd39 3c3c 92b7 ea3c
00000280: 615b 973c 3e4d bd38 f927 d63c a113 d23c
00000290: 016b 38bc 8c2a adbc cc59 cd3c 077a 84ba
000002a0: e25a 27bc 18e5 a53c 369e 0e3b c4c3 a0bc
000002b0: 0dda 253c 073a 08bc c3c4 02bc 590f e03a
000002c0: c28e 21bc 49ad 1bbd 39f8 debc 2451 9f39
000002d0: d6fa 5dbc 6c8b 2e3d 88ba de3c 5da0 923c
000002e0: f09a 183c 37ac ecbb 75d4 923b c372 863c
000002f0: 8677 633c 3bca a03c 945c 79bc 780c c33b
00000300: cdb2 023d 143e 3c3c 2409 f83c 39f8 f63b
00000310: 2924 963c 8c46 74bb b341 d4bc 4134 86bc
00000320: 84a5 57bb c4de 293a bd93 07bd f2dd 363c
00000330: 42d4 593c aaf0 97bb d91e 1aba 4f5c 843c
00000340: 2519 5bbc 8a62 c83c fbbd fbba 7859 df3c
00000350: 27de 38bc 7911 2ebb 7997 edbb ff97 953c
00000360: c36a 60bc 26f6 ee3c d471 c13b 6feb dcbc
00000370: 3651 46bc 2e91 7d3b b0b8 b2bb 7577 a93c
00000380: 6085 033d 6f84 2c3d f014 e63b 58c1 d73b
00000390: d39b 90bb f5ee 803c 909f 7bbc 935c a7bb
000003a0: ef9f 023d baad 1b3c f1bb 463b 8a02 5a3d
000003b0: b4df c5bb 2a24 3e3c 4fb9 9fbc 8211 5fbc
000003c0: fce7 5dbd 08c7 e73c 3d2c 943c 31dd b1bb
000003d0: 15c9 6ebb 6da5 b4bc 4284 e6bc 81e4 f2bc
000003e0: d78c acbb c893 e1bc 2b50 cfb9 8429 d5bb
000003f0: 3b4e 4fbc 8e02 21ba 97bd 8a3c ad98 88bb
-0.006208829 -0.0027360604 -0.03149361 0.0019375113 -0.006653149 0.012780372 0.0150689995 -0.0033291073
0.01276167 0.047907326 0.0011299336 -0.02881379 0.0075166007 0.01605991 -0.008423974 -0.022290133
-0.00601603 0.0008649433 0.011793737 -0.0153024765 -0.017324021 -0.0012187095 -0.0027093757 0.0025744508
0.0043948814 0.011025476 0.02356832 0.01780871 0.022848124 -0.005127474 -0.000508688 0.019118115
0.02679607 -0.027315421 0.03458977 0.03958772 -0.022912735 -0.00957384 -0.013062447 0.012867237
-0.019325893 0.02633128 2.4161393e-05 0.004438521 -0.012480504 -0.0021305582 0.020328233 -0.010428079
-0.0022174884 0.008082775 -0.019232867 -0.005390748 0.006474442 0.009403204 0.029007327 0.032458343
0.012563447 0.024020057 -0.016463624 0.018926037 0.016471695 0.022550276 0.013015483 0.024777612
-0.010880748 -0.0011335971 0.03078732 0.018836215 0.020186584 0.014454656 0.027924502 0.021397833
-0.033890456 -0.013837174 -0.009075265 -0.006844632 0.005339862 -0.020250693 0.013101737 0.0037967581
0.01534716 0.021657875 -0.010004884 -0.0018460421 0.03467382 0.00010909657 0.004533854 0.0007951306
0.011502355 -0.008946626 0.0016622633 0.023247449 0.0028341326 0.0039105606 0.018226037 0.0059603844
0.014864671 0.020946959 -0.027183268 -0.019246915 0.027381308 0.049832728 -0.007920357 -0.023995724
-0.008406514 0.009959383 0.0048543415 0.004230354 0.0066634933 0.033157174 0.012346196 -0.0003150317
0.0009873176 -0.0074709924 0.0058844853 -0.029728806 0.012752697 0.01738328 -0.018451354 0.014342018
-0.00047320648 0.02249974 -0.012324222 -0.0104989195 0.03942072 0.019809926 -0.0034804887 -0.016181257
-0.00015506786 -0.021474663 0.01647658 0.04668304 0.018533017 -0.007947799 0.021291709 -0.03467957
0.008716258 0.0004374755 0.010074092 -0.0078081144 -0.031300746 0.0038872273 -0.015849754 -0.015118972
-0.022857305 0.0022803536 -0.012052585 -0.024316609 -0.044091564 0.011485301 0.029418461 0.012698462
0.00043400296 0.011361265 -0.0117316395 0.02015142 0.0055452343 0.010270009 0.011488435 0.028651986
0.01847619 9.02661e-05 0.026142107 0.025644125 -0.0112559805 -0.021138452 0.025067233 -0.0010107168
-0.010214539 0.020250842 0.0021761782 -0.019624598 0.010122788 -0.008314616 -0.007981482 0.0017094418
-0.009860696 -0.038007054 -0.027217971 0.00030387298 -0.0135485735 0.04261343 0.027188554 0.017898733
0.009314284 -0.007222678 0.0044808933 0.016412145 0.013883477 0.019627681 -0.015219826 0.005952414
0.0319088 0.01148941 0.030277796 0.0075369147 0.01832779 -0.0037273495 -0.025910234 -0.016382338
-0.0032905051 0.0006480033 -0.03309988 0.011161314 0.013295235 -0.0046368437 -0.00058792304 0.016157297
-0.013372694 0.02446105 -0.0019206399 0.027264342 -0.011283434 -0.0026560707 -0.007250723 0.018260954
-0.013697329 0.029170107 0.005903462 -0.026967732 -0.012104323 0.003869127 -0.0054541454 0.020686844
0.03210962 0.042118486 0.007021539 0.0065843277 -0.004413107 0.015738944 -0.015357867 -0.0051074713
0.031890806 0.009501869 0.0030324424 0.053225078 -0.0060386304 0.011605302 -0.019497542 -0.013615014
-0.054176316 0.028293148 0.0180875 -0.0054279794 -0.0036435772 -0.022051537 -0.028139237 -0.029649975
-0.005265813 -0.027536288 -0.00039541846 -0.006505193 -0.012652929 -0.0006142043 0.016936107 -0.004168591

action_model._continuous_distribution.mu.bias f4 [2]
00000000: 5471 78ba 2e55 afba
-0.00094773364 -0.0013376826

exp_avg f4 [128, 36]
00000000: ff11 b0b7 af01 0c38 0000 0000 faa0 0eb7
00000010: cc3b 03b7 9647 a937 0000 0000 5af5 a6b7
00000020: c508 a1b7 51b4 0438 0000 0000 795c b1b6
00000030: c0bb c8b7 2b61 1a38 0000 0000 1f2a 5eb7
00000040: cf2c 72b7 3247 e337 0000 0000 690a 5bb6
00000050: 1e91 18b7 f20f ba37 0000 0000 f927 33b7
00000060: 088f ea36 036c bc36 0000 0000 fb8e 7435
00000070: 3f2b 12b8 1646 0936 5c58 feb5 b99e d436
00000080: 9f7c 10b8 b59a 5e36 19e6 5e35 56d6 e736
00000090: f6ff 3537 16e3 b6b7 0000 0000 c238 9bb6
000000a0: 7377 3fb7 a631 8535 0000 0000 8e63 87b7
000000b0: f5c4 b637 0922 09b8 0000 0000 dc29 e136
000000c0: 381a a2b7 edf3 2237 0000 0000 f474 a7b7
000000d0: fe00 f037 b61e 25b8 0000 0000 51ad a636
000000e0: 4457 7cb7 ea6b 9936 0000 0000 76ea e7b7
000000f0: a24a 4037 bb2d bab7 0000 0000 1224 8237
00000100: 2545 0738 0794 1cb7 404b 26b8 1f1a 21b7
00000110: bc5c 1638 eec0 e8b6 0cb9 f9b7 63cc c4b6
00000120: 945d ff36 c8c1 83b7 0000 0000 9e20 e0b5
00000130: fc20 6636 3291 43b7 0000 0000 7783 d536
00000140: fe39 c036 3e47 68b7 0000 0000 0fe7 cbb6
00000150: 878f f736 f73d 85b7 0000 0000 db87 d036
00000160: 1962 7336 7b70 48b7 0000 0000 2c1d b7b6
00000170: d7ea dc36 d06f 7bb7 0000 0000 8a25 cf36
00000180: 19db 1ab7 eb8e 8135 0000 0000 8154 a6b6
00000190: 19d9 9237 b7be 40b5 98ff 7bb6 d252 51b6
000001a0: 5614 7737 654b c2b5 6ab2 f6b6 302d 97b6
000001b0: b5c3 2836 72e1 c2b7 0000 0000 02ea 5ab7
000001c0: 1a44 04b7 411c 54b7 0000 0000 933a 90b7
000001d0: 0c0f a836 ae72 d7b7 0000 0000 be1f 1cb7
000001e0: d07c 4bb7 f6e7 02b7 0000 0000 e604 80b7
000001f0: 88f9 0237 b6ce edb7 0000 0000 c08e cbb6
00000200: 7442 01b7 84a8 56b7 0000 0000 3d9f a8b7
00000210: 1fc6 1ab6 eea7 98b7 0000 0000 7e91 74b5
00000220: f44c 0537 a7f8 3cb7 3aa9 62b8 97df 51b7
00000230: cb2b 8236 f6af 1db7 2684 4cb8 8c0c 3db7
00000240: 3b18 db37 1166 7bb7 0000 0000 26c0 5837
00000250: 419a 9a36 e91a df36 0000 0000 74ab dd37
00000260: 8d2d e837 8a7d 8bb7 0000 0000 2e12 4537
00000270: 97f7 fa37 8cd6 a1b7 0000 0000 045e 9437
00000280: 70ef ec37 4331 99b7 0000 0000 1e58 cb36
00000290: 33ef a536 1e35 b236 0000 0000 0ebf 8837
000002a0: ab60 b2b6 c36d 8237 0000 0000 f105 fb36
000002b0: 7ba6 bfb7 4655 9436 3044 3238 0ea5 1a36
000002c0: d2cd 13b8 7ba7 3f37 6972 7938 6264 c936
000002d0: fb51 f636 c6bb d2b7 0000 0000 5dbf 0c35
000002e0: 03fb da35 e04e a4b7 0000 0000 3371 0737
000002f0: 7562 0937 0403 dab7 0000 0000 d02d 32b6
00000300: c80f 2137 6cc0 e9b7 0000 0000 bd7d b836
00000310: 1e71 dd36 8d45 d2b7 0000 0000 b04d 9cb6
00000320: d812 8836 d572 bab7 0000 0000 4f07 5e36
00000330: eac6 e7b6 6289 3fb7 0000 0000 f173 99b6
00000340: 8bb1 d337 c891 9eb6 a4aa ddb7 70ef 23b7
00000350: 5541 b737 f635 4ab6 74b7 d1b7 c9a1 24b7
00000360: 4c09 95b6 8350 9d37 0000 0000 0cde 4736
00000370: 157e 1536 e6f2 4b37 0000 0000 1602 f9b6
00000380: a134 0fb7 1303 c037 0000 0000 8307 3137
00000390: 2482 95b6 fa5a a037 0000 0000 945b 14b7
000003a0: 1f2f 3db7 c4b9 d837 0000 0000 60f7 9237
000003b0: 7d29 f0b5 61b5 8837 0000 0000 b702 1fb7
000003c0: 917b c533 ec06 7237 0000 0000 0495 9d37
000003d0: 1e2d bbb7 accc 9f36 189c 2038 6f65 0d37
000003e0: af22 cbb7 3231 9536 8f83 2138 8a0b 0537
000003f0: 0ecf 6bb8 9701 9f38 0000 0000 e1ce 1338
-2.0989215e-05 3.338017e-05 0.0 -8.50134e-06 -7.822131e-06 2.0179705e-05 0.0 -1.9902993e-05
-1.919678e-05 3.1639185e-05 0.0 -5.2857763e-06 -2.3929286e-05 3.6806956e-05 0.0 -1.3242038e-05
-1.4434757e-05 2.7093662e-05 0.0 -3.2639603e-06 -9.093694e-06 2.2180353e-05 0.0 -1.0678538e-05
6.9903945e-06 5.615411e-06 0.0 9.110515e-07 -3.484939e-05 2.0455386e-06 -1.8950191e-06 6.33657e-06
-3.4448338e-05 3.317063e-06 8.303628e-07 6.9092885e-06 1.0848036e-05 -2.1801836e-05 0.0 -4.6259674e-06
-1.1412299e-05 9.923722e-07 0.0 -1.6139613e-05 2.1787806e-05 -3.2695043e-05 0.0 6.7103956e-06
-1.9324114e-05 9.712746e-06 0.0 -1.9962412e-05 2.8610692e-05 -3.9367667e-05 0.0 4.967362e-06
-1.5040689e-05 4.572318e-06 0.0 -2.7646525e-05 1.1461469e-05 -2.2194223e-05 0.0 1.5514004e-05
3.2250904e-05 -9.33279e-06 -3.9647566e-05 -9.60243e-06 3.5849152e-05 -6.9365988e-06 -2.9769282e-05 -5.865049e-06
7.610486e-06 -1.5706653e-05 0.0 -1.6698793e-06 3.429187e-06 -1.1656712e-05 0.0 6.363199e-06
5.728797e-06 -1.3844865e-05 0.0 -6.07677e-06 7.3778824e-06 -1.588369e-05 0.0 6.2146987e-06
3.6266922e-06 -1.1947118e-05 0.0 -5.457221e-06 6.58385e-06 -1.4986799e-05 0.0 6.173451e-06
-9.230128e-06 9.652844e-07 0.0 -4.957023e-06 1.750565e-05 -7.18031e-07 -3.755069e-06 -3.1191635e-06
1.4727082e-05 -1.4476069e-06 -7.3521414e-06 -4.505411e-06 2.5147867e-06 -2.3231583e-05 0.0 -1.3048297e-05
-7.883669e-06 -1.2642763e-05 0.0 -1.7193413e-05 5.008542e-06 -2.56834e-05 0.0 -9.305715e-06
-1.2128803e-05 -7.802611e-06 0.0 -1.526107e-05 7.806702e-06 -2.8348859e-05 0.0 -6.0664897e-06
-7.7044715e-06 -1.279463e-05 0.0 -2.0101312e-05 -2.306311e-06 -1.819801e-05 0.0 -9.11088e-07
7.945335e-06 -1.1263567e-05 -5.4040203e-05 -1.2509429e-05 3.8794e-06 -9.398898e-06 -4.8760463e-05 -1.1268199e-05
2.6118118e-05 -1.498453e-05 0.0 1.2919341e-05 4.607515e-06 6.6490506e-06 0.0 2.6425092e-05
2.7677766e-05 -1.662855e-05 0.0 1.1746348e-05 2.9917615e-05 -1.9292602e-05 0.0 1.7686754e-05
2.824489e-05 -1.826196e-05 0.0 6.0601296e-06 4.9452296e-06 5.310997e-06 0.0 1.630143e-05
-5.316067e-06 1.554832e-05 0.0 7.4810746e-06 -2.2846498e-05 4.420671e-06 4.250201e-05 2.3043863e-06
-3.5239216e-05 1.1423482e-05 5.947278e-05 6.001953e-06 7.340915e-06 -2.512139e-05 0.0 5.2432534e-07
1.631532e-06 -1.9587053e-05 0.0 8.072983e-06 8.18876e-06 -2.598903e-05 0.0 -2.6550733e-06
9.600022e-06 -2.7865368e-05 0.0 5.498265e-06 6.599482e-06 -2.5066338e-05 0.0 -4.6582063e-06
4.0553095e-06 -2.22264e-05 0.0 3.3084832e-06 -6.907493e-06 -1.1416474e-05 0.0 -4.5732527e-06
2.5235835e-05 -4.725738e-06 -2.6424714e-05 -9.7713055e-06 2.1845723e-05 -3.0131755e-06 -2.5000169e-05 -9.81283e-06
-4.4416283e-06 1.875335e-05 0.0 2.978256e-06 2.227612e-06 1.2156297e-05 0.0 -7.421021e-06
-8.535718e-06 2.2889615e-05 0.0 1.0551771e-05 -4.4556964e-06 1.911585e-05 0.0 -8.84281e-06
-1.1276249e-05 2.583571e-05 0.0 1.751975e-05 -1.7893468e-06 1.6296925e-05 0.0 -9.477771e-06
9.196004e-08 1.4425936e-05 0.0 1.878525e-05 -2.2313146e-05 4.762396e-06 3.8292346e-05 8.427872e-06
-2.4215637e-05 4.446273e-06 3.8507915e-05 7.930104e-06 -5.62212e-05 7.582007e-05 0.0 3.5240202e-05

exp_avg_sq f4 [128, 36]
00000000: c965 182e d73d 8f2f 0000 0000 e12f 342e
00000010: 7d62 832d 3f3b 962f 0000 0000 9421 4e2e
00000020: 288f 192e a63d 8a2f 0000 0000 ed6e 7b2e
00000030: 08b1 0a2e 6ad4 9b2f 0000 0000 45f9 242e
00000040: 3e70 f72d 6139 892f 0000 0000 fe38 8a2e
00000050: becf fa2d ba06 902f 0000 0000 f3ce 232e
00000060: 7870 782d f415 902f 0000 0000 2d18 812e
00000070: 8814 6b30 8193 4d2e e2e7 c130 d75d c12e
00000080: d111 7f30 1553 472e 2a77 c230 50e2 c12e
00000090: e722 092e 6333 5130 0000 0000 ff5f 142f
000000a0: 7acc e82d f8d4 7130 0000 0000 38af f92e
000000b0: c834 832e ffb2 4630 0000 0000 e07d 3a2f
000000c0: 321f 5d2e 7f0e 7530 0000 0000 5ea4 022f
000000d0: 8562 cb2e c256 4c30 0000 0000 784d 3e2f
000000e0: 662f bb2e 0edf 3130 0000 0000 5e1c f52e
000000f0: 8b8b a22e ed57 5b30 0000 0000 6e98 502f
00000100: 4ae9 d730 64f1 032f af39 8631 e5a9 872f
00000110: b739 f930 1c6f 0d2f a868 8831 ff86 892f
00000120: 737c 902c eefb 9d2e 0000 0000 5aa1 742d
00000130: 13a0 422c 253e a72e 0000 0000 6eac 3b2d
00000140: a883 1d2d 1100 812e 0000 0000 387e 982d
00000150: 8eb4 7d2c c7bf 9f2e 0000 0000 98e8 362d
00000160: 610d 282d 06e2 802e 0000 0000 bdb7 a42d
00000170: 1337 552d 1b88 872e 0000 0000 de0f 032d
00000180: 65d8 4e2d 9dc0 922e 0000 0000 1f2f ad2d
00000190: 1f5c 582f 32c7 3f2d a74a bc2f 2a8e bf2d
000001a0: 8f82 5f2f afac 572d 9774 c82f 100c ca2d
000001b0: 996f 052d 1981 2a2f 0000 0000 8006 fd2d
000001c0: fb42 a02d 4407 472f 0000 0000 0abd 0e2e
000001d0: 75de 1b2d 0906 352f 0000 0000 feca 152e
000001e0: 48f1 fc2d a167 3c2f 0000 0000 6809 062e
000001f0: cc35 582d 6b9f 3d2f 0000 0000 3377 0a2e
00000200: 8511 d62d c70b 382f 0000 0000 0c6f 2c2e
00000210: 3738 b52c e5e9 402f 0000 0000 df4f f22d
00000220: 4240 b82f 2baf f22d 37a1 7030 fd5a 782e
00000230: 21f3 c92f 4b64 f52d 15b4 6830 7bfd 6e2e
00000240: 9624 422e 80b1 a42f 0000 0000 fcce 962e
00000250: dad8 bf2d c757 d42f 0000 0000 4da0 ad2e
00000260: 9060 732e 17d0 b22f 0000 0000 74f6 d12e
00000270: 0cc7 582e 345f ca2f 0000 0000 4bb6 a12e
00000280: 61ed 8c2e 27ad a72f 0000 0000 c34c b22e
00000290: 0493 192e c15e cd2f 0000 0000 2898 972e
000002a0: becc 272d 6b3c d02f 0000 0000 2e40 992e
000002b0: 9f61 6830 4311 862e 05af 1531 e807 0c2f
000002c0: 8ca8 a430 4e4c a12e 5b07 1c31 74f6 0b2f
000002d0: 9cfa 7d2c 9f67 1b2f 0000 0000 8457 b12d
000002e0: 3106 332c d821 192f 0000 0000 6f3a 852d
000002f0: 8e51 842d e57f ef2e 0000 0000 d572 cf2d
00000300: edbc d62c 7b7a 1c2f 0000 0000 9133 502d
00000310: e0cf 8a2d 152f f92e 0000 0000 33eb f02d
00000320: 0ecb 252d 0066 152f 0000 0000 9bba 4a2d
00000330: 5b08 802d ee9a f92e 0000 0000 2f6a fe2d
00000340: c2af c82f 2d09 ba2d 4143 1630 e87a 282e
00000350: c31b e22f fc69 f02d cda0 3230 bb53 3c2e
00000360: d2a2 b52c 6a07 882f 0000 0000 41cc 232e
00000370: 0ffa 4d2d 98cc 802f 0000 0000 8ef2 0f2e
00000380: 7198 7c2d 39f7 772f 0000 0000 bafb 582e
00000390: e751 692d 3b57 862f 0000 0000 181d 1d2e
000003a0: 74db a22d 35e0 7f2f 0000 0000 d9a6 7c2e
000003b0: c6d0 2c2d f007 8d2f 0000 0000 1f2c 162e
000003c0: cb35 a82c a325 852f 0000 0000 bf83 8b2e
000003d0: edb4 1730 9731 1a2e 8b22 b530 94df 9f2e
000003e0: c763 2030 b4cc 292e 270e c030 82a0 a52e
000003f0: 59a9 cd2f 2941 2b31 0000 0000 c8c6 0030
3.4651202e-11 2.6055488e-10 0.0 4.0969787e-11 1.4936713e-11 2.7326938e-10 0.0 4.68688e-11
3.491532e-11 2.5145858e-10 0.0 5.7169314e-11 3.1534803e-11 2.8345265e-10 0.0 3.751068e-11
2.8130494e-11 2.4960925e-10 0.0 6.285637e-11 2.8513965e-11 2.6198227e-10 0.0 3.7245717e-11
1.4122141e-11 2.6209046e-10 0.0 5.870535e-11 8.552168e-10 4.6742613e-11 1.4108503e-09 8.793293e-11
9.279378e-10 4.5321153e-11 1.4149226e-09 8.816825e-11 3.1181193e-11 7.610678e-10 0.0 1.3494626e-10
2.6466152e-11 8.7977936e-10 0.0 1.1354334e-10 5.966566e-11 7.228635e-10 0.0 1.6961321e-10
5.027729e-11 8.915108e-10 0.0 1.1881826e-10 9.248872e-11 7.433806e-10 0.0 1.7307922e-10
8.512195e-11 6.4709205e-10 0.0 1.1146349e-10 7.391695e-11 7.9796686e-10 0.0 1.8971644e-10
1.5709614e-09 1.200014e-10 3.906471e-09 2.4677074e-10 1.8133538e-09 1.2863349e-10 3.970019e-09 2.5016075e-10
4.106543e-12 7.184285e-11 0.0 1.39056214e-11 2.7657917e-12 7.60532e-11 0.0 1.0668006e-11
8.95365e-12 5.8662526e-11 0.0 1.7336452e-11 3.605369e-12 7.2645494e-11 0.0 1.0397148e-11
9.552665e-12 5.860916e-11 0.0 1.8726238e-11 1.2119877e-11 6.1632664e-11 0.0 7.450011e-12
1.17577935e-11 6.673526e-11 0.0 1.9688749e-11 1.9677814e-10 1.0901323e-11 3.4250044e-10 2.177732e-11
2.0328116e-10 1.22596785e-11 3.646263e-10 2.2970098e-11 7.584954e-12 1.5507275e-10 0.0 2.8765657e-11
1.821964e-11 1.8101526e-10 0.0 3.2454962e-11 8.860125e-12 1.6463998e-10 0.0 3.405897e-11
2.8756234e-11 1.7135317e-10 0.0 3.0476427e-11 1.2290124e-11 1.7246087e-10 0.0 3.1483437e-11
2.4336764e-11 1.6738887e-10 0.0 3.92069e-11 5.1505705e-12 1.7545394e-10 0.0 2.7547685e-11
3.3515063e-10 2.7590005e-11 8.754059e-10 5.6469485e-11 3.673444e-10 2.7897814e-11 8.465702e-10 5.434007e-11
4.4142988e-11 2.9957548e-10 0.0 6.857978e-11 2.1810487e-11 3.8624945e-10 0.0 7.895604e-11
5.5337568e-11 3.2525868e-10 0.0 9.5479985e-11 4.9289503e-11 3.6811232e-10 0.0 7.353814e-11
6.40863e-11 3.0500155e-10 0.0 8.1081385e-11 3.491875e-11 3.735661e-10 0.0 6.8937134e-11
9.538313e-12 3.787791e-10 0.0 6.969035e-11 8.4539836e-10 6.096681e-11 2.178184e-09 1.2735735e-10
1.1980474e-09 7.334987e-11 2.2705169e-09 1.2729534e-10 3.6092579e-12 1.4133981e-10 0.0 2.0161435e-11
2.5440867e-12 1.3927293e-10 0.0 1.51463e-11 1.504288e-11 1.089118e-10 0.0 2.3584171e-11
6.103221e-12 1.4231631e-10 0.0 1.1834881e-11 1.5781099e-11 1.13315725e-10 0.0 2.738929e-11
9.424251e-12 1.3587709e-10 0.0 1.1523805e-11 1.4555626e-11 1.135073e-10 0.0 2.8923612e-11
3.6504672e-10 2.1149827e-11 5.4665256e-10 3.830794e-11 4.1128886e-10 2.7331908e-11 6.4984534e-10 4.282062e-11
5.162406e-12 2.4743524e-10 0.0 3.7243323e-11 1.1708425e-11 2.3428437e-10 0.0 3.2729867e-11
1.435839e-11 2.255235e-10 0.0 4.9336292e-11 1.3262703e-11 2.443644e-10 0.0 3.5723507e-11
1.8514724e-11 2.3271769e-10 0.0 5.7446357e-11 9.823425e-12 2.565339e-10 0.0 3.414524e-11
4.7808194e-12 2.4219302e-10 0.0 6.344391e-11 5.519059e-10 3.505959e-11 1.3179301e-09 7.270198e-11
5.8349453e-10 3.8607964e-11 1.3973861e-09 7.531843e-11 3.7409612e-10 2.4920814e-09 0.0 4.6848614e-10

exp_avg f4 [128]
00000000: dbc2 5237 5ce8 32b7 e76e 09b7 e3dc abb7
00000010: 6615 3737 5baa 95b7 6de6 7137 4064 a437
00000020: 6a2b 0337 3e37 ba37 c441 ed37 d853 1a37
00000030: bf30 7f37 a6ed b7b6 ef8d 5236 eee9 0337
00000040: f7e0 72b6 1506 8b36 e0e7 bd37 1c5c 88b6
00000050: aba0 c2b6 7873 b4b7 cb28 a5b6 bc9f 4d37
00000060: c041 6ab7 f262 91b6 3662 06b7 377d dbb7
00000070: 7533 f0b6 26ed a7b7 8d99 64b5 86d3 3a37
00000080: f5d9 18b7 5aeb ac36 feec 0e36 f6a7 10b7
00000090: 9969 dd36 0e6e 4737 7cbe ab36 5f1d 1137
000000a0: 9359 0737 2def 15b5 c2f9 2db7 b9c6 6eb6
000000b0: 23ea ecb6 cd1f 10b7 a01e 05b7 19f6 84b7
000000c0: 39f3 4b37 38fe 6736 4e10 3437 b109 be36
000000d0: 248b 4437 8c5c 5136 a2bc 5135 866e af36
000000e0: 13c6 19b4 6f06 aeb7 a5e7 50b7 9da2 a1b7
000000f0: 0e0b d8b6 0437 0c38 fe89 0737 988c 5fb7
00000100: c521 8bb6 5ffe 8e36 57e2 9436 927f 3238
00000110: 21a4 cc36 f7ef 86b6 9672 26b7 77c5 a835
00000120: e8d8 58b7 f725 81b7 084e 4937 9c6f bfb4
00000130: f1b4 19b6 78a5 8036 984d 0b38 e48e 1fb8
00000140: 5ec8 af37 573e 16b6 90d9 0636 5838 86b6
00000150: c24e 4c37 d11c 31b7 4116 a6b6 6fff 8735
00000160: 5d1f 7837 4339 0837 bcde 1437 4fa0 2f36
00000170: 636c 08b8 361e c134 4b79 f535 78f5 3fb7
00000180: 1ceb 90b7 8461 18b8 7abd 8c37 6ad6 0736
00000190: 784a ccb4 0a5b 5e37 5611 fab6 48fe e1b6
000001a0: 3728 8db7 b440 74b7 b9e0 6637 0ae7 7bb7
000001b0: cbc4 85b4 5a33 bcb7 eebc 8837 8d59 f537
000001c0: 5e4a 58b5 8d70 01b8 37be bd37 c82b c135
000001d0: ddb0 0436 a260 1f37 42cf 6fb7 dc31 2336
000001e0: 665c a636 f3b0 edb7 7bd5 c9b6 061e 9bb7
000001f0: 5874 5bb7 b98e feb6 da46 0238 7402 2336
1.2562344e-05 -1.0663727e-05 -8.191658e-06 -2.0487647e-05 1.0912632e-05 -1.7841512e-05 1.441837e-05 1.9597006e-05
7.818317e-06 2.2198652e-05 2.8283226e-05 9.198637e-06 1.5210534e-05 -5.481491e-06 3.1375055e-06 7.8626745e-06
-3.6191757e-06 4.143231e-06 2.2638531e-05 -4.063839e-06 -5.8003548e-06 -2.1511441e-05 -4.922132e-06 1.2256143e-05
-1.39627955e-05 -4.3328555e-06 -8.009889e-06 -2.6165142e-05 -7.1585478e-06 -2.0018382e-05 -8.5160065e-07 1.1135713e-05
-9.110653e-06 5.153398e-06 2.1297597e-06 -8.622175e-06 6.5986064e-06 1.1886948e-05 5.1183724e-06 8.649512e-06
8.067483e-06 -5.585487e-07 -1.0369755e-05 -3.5580435e-06 -7.060605e-06 -8.590473e-06 -7.934548e-06 -1.5850224e-05
1.2156373e-05 3.4569657e-06 1.0732632e-05 5.6635695e-06 1.1714907e-05 3.1197296e-06 7.8133064e-07 5.228273e-06
-1.4321294e-07 -2.0745412e-05 -1.24517e-05 -1.9268418e-05 -6.4385886e-06 3.342984e-05 8.078756e-06 -1.332457e-05
-4.146454e-06 4.2615425e-06 4.437093e-06 4.2557316e-05 6.098781e-06 -4.021447e-06 -9.92105e-06 1.2574445e-06
-1.2925106e-05 -1.5395677e-05 1.1998702e-05 -3.565773e-07 -2.2904098e-06 3.8339604e-06 3.3212447e-05 -3.804163e-05
2.0954929e-05 -2.2388028e-06 2.0094194e-06 -4.0000705e-06 1.2177685e-05 -1.05567315e-05 -4.949776e-06 1.0132625e-06
1.4789254e-05 8.119564e-06 8.873347e-06 2.6170344e-06 -3.252587e-05 3.5971033e-07 1.8289223e-06 -1.144164e-05
-1.7275619e-05 -3.6330443e-05 1.6777532e-05 2.0241373e-06 -3.8052144e-07 1.3253428e-05 -7.4525988e-06 -6.7351248e-06
-1.6827236e-05 -1.4558598e-05 1.3761391e-05 -1.5014559e-05 -2.4916366e-07 -2.2435259e-05 1.630044e-05 2.9247976e-05
-8.057449e-07 -3.0860818e-05 2.2619131e-05 1.4392363e-06 1.977248e-06 9.499638e-06 -1.4293766e-05 2.4317915e-06
4.957942e-06 -2.8335e-05 -6.015119e-06 -1.849142e-05 -1.3080506e-05 -7.586405e-06 3.10604e-05 2.429032e-06

exp_avg_sq f4 [128]
00000000: 153c a02f 6551 6330 29fb a62e 3383 452f
00000010: df57 e72f 69a4 1b2f bfe1 882f 34e3 6531
00000020: 4729 f72d c662 ad30 c890 8530 1f80 bd2f
00000030: 7cc8 772f ccb8 af30 a9be d12c 50fb c12e
00000040: ab68 402d e88a 7e2f bd4b 2d30 668f df2d
00000050: 19d3 1c2e e0eb bc30 2da8 462c edf9 e72e
00000060: e31d 2330 d038 3530 0336 8730 4205 2130
00000070: e3ff 1930 eee5 742f 680b b72e 266c da2f
00000080: 8a41 842f 1f7e c530 1094 482e 63b2 7430
00000090: 5c20 9d2e b2b3 142e 57fd e32d 1eae 442e
000000a0: c28e 812d 0c3f 292e 913e 862e ad90 312f
000000b0: ea2b c32f 5a31 3930 bdbd 0130 1b94 552e
000000c0: 3027 3b2f fda9 b230 c17c 032f 4196 f72f
000000d0: 52c1 ab2e ccda 8930 ccff 482c de43 b130
000000e0: 514a ff2e a4c3 9c2f 02af 9d30 e452 d22f
000000f0: ea48 0a2f d7e9 fb30 bc02 c62e 406a 8230
00000100: 64ff 9830 2eb4 eb2d 2c73 5631 2e9d e930
00000110: 976e a92e 0018 592d 3347 cb2e ad4b c82f
00000120: 6479 8730 1092 a02f 4d43 9f2e ccb1 832d
00000130: c7d6 9e2f 74ad c12f 0969 5431 0004 c430
00000140: 803f 382f 2784 9d30 2ecd 002e 9706 8b2e
00000150: 2887 cb2f cb48 8e2e fb88 1330 1677 5730
00000160: a50e 2b2f a5a6 1d2f 0691 592f 9c51 632e
00000170: 8a75 712f ea5d aa2d 3393 1f2f b7d7 a630
00000180: 6a21 912e a7e2 3a31 40a2 5430 8175 122c
00000190: c93c db2d 7b0b 812e 03a2 ef2f 5add 252e
000001a0: 3d67 2b30 c11c cf2f 9247 bd2e c730 8a2f
000001b0: 908d bb2d d229 9231 e54d 3830 c337 0631
000001c0: 9181 a22e 8183 c230 83e9 3731 0a0b 8f2e
000001d0: dc2f d32e e098 202f 615f 8c2e d7aa 912f
000001e0: 5dbd 8f2d 0adc c72f 24f0 a02e 4478 f62f
000001f0: 0ec3 f82f 226c 912d 89f3 ec2f 70e1 442d
2.914652e-10 8.269779e-10 7.593421e-11 1.7963657e-10 4.2081091e-10 1.4155578e-10 2.4898658e-10 3.3453036e-09
2.809898e-11 1.261548e-09 9.718173e-10 3.4469935e-10 2.2535745e-10 1.2785448e-09 5.961305e-12 8.821266e-11
1.0937177e-11 2.3150515e-10 6.3044664e-10 2.5415847e-11 3.5657786e-11 1.374584e-09 2.8230849e-12 1.05490595e-10
5.9341526e-10 6.592815e-10 9.837894e-10 5.857893e-10 5.602471e-10 2.2273358e-10 8.323903e-11 3.9730813e-10
2.4057228e-10 1.4369482e-09 4.560624e-11 8.9020186e-10 7.1452816e-11 3.3810905e-11 2.5919418e-11 4.4719888e-11
1.4729e-11 3.8482148e-11 6.1047285e-11 1.6149455e-10 3.5501496e-10 6.737274e-10 4.719956e-10 4.8562137e-11
1.7021473e-10 1.2999518e-09 1.1958702e-10 4.50358e-10 7.81052e-11 1.0030248e-09 2.8563705e-12 1.2897734e-09
1.1609259e-10 2.8515246e-10 1.1472994e-09 3.8257675e-10 1.2576931e-10 1.8329115e-09 9.004483e-11 9.488943e-10
1.1132042e-09 2.6796423e-11 3.1206566e-09 1.6997654e-09 7.704875e-11 1.2340351e-11 9.244019e-11 3.643356e-10
9.857044e-10 2.9207614e-10 7.242438e-11 1.4971933e-11 2.889264e-10 3.522974e-10 3.0909766e-09 1.4262014e-09
1.6757262e-10 1.1460813e-09 2.9286067e-11 6.322159e-11 3.702152e-10 6.470343e-11 5.367295e-10 7.8385776e-10
1.5557562e-10 1.4338271e-10 1.9787558e-10 5.1686308e-11 2.196058e-10 1.9368469e-11 1.4513261e-10 1.21394e-09
6.599772e-11 2.71954e-09 7.735572e-10 2.0813076e-12 2.4924411e-11 5.86828e-11 4.3588963e-10 3.7713256e-11
6.235615e-10 3.7673512e-10 8.6074384e-11 2.5136712e-10 2.1322305e-11 4.2539137e-09 6.7049505e-10 1.9531263e-09
7.389923e-11 1.4152733e-09 2.676274e-09 6.504848e-11 9.6036706e-11 1.4606227e-10 6.3834056e-11 2.6496735e-10
1.6341312e-11 3.6354236e-10 7.318615e-11 4.4832593e-10 4.5249532e-10 1.6532612e-11 4.3101192e-10 1.1191367e-11
