results/TankTest/ShootingMoving/checkpoint.pt (torch, 782507 bytes, 42 tensors)

network_body._body_endoder.seq_layers.0.weight f4 [128, 112]
-0.06650086 0.30444312 -0.0082939165 0.03346787 0.009722486 -0.026282642 0.25741732 -0.063808076
0.040898312 -0.06469295 0.010643102 -0.060689062 -0.015717203 -0.079815015 0.056921 0.09254743
0.035391428 -0.10962041 0.05198164 0.08352757 -0.0560421 -0.036150217 0.054896723 0.13321084
0.24919896 -0.00037266107 0.016240338 -0.08124194 -0.034473952 -0.082882196 0.010855072 -0.0996481
-0.04319686 -0.057483926 -0.15404597 -0.20644428 0.19130635 0.025030835 -0.0118408175 0.13017881
0.1841561 -0.0998189 0.10090572 -0.09415237 0.05212791 -0.29562387 0.12834992 0.12754598
-0.008024449 -0.041248962 -0.06412965 0.13422388 0.056416538 0.17460851 -0.21963218 0.20012954
-0.0555547 -0.012960879 0.024678756 0.09474427 -0.092541486 -0.03327648 -0.06465963 0.052810933
-0.13674979 0.041129358 -0.05016179 0.025035253 -0.1407583 -0.1312766 0.01369968 -0.03128988
0.07740738 -0.13609707 0.025469705 -0.004766951 -0.051053755 0.14276992 0.16423625 -0.11599913
0.028357273 0.10850882 0.01012322 -0.0052659637 0.018179033 -0.07056166 -0.039782014 -0.08130084
0.03176167 0.03984059 -0.027063064 0.13612027 0.050261937 0.013061863 -0.018506791 0.2555168
0.032516133 -0.08838479 0.10698337 -0.121069275 -0.18257043 -0.15769014 0.11532545 -0.04062504
0.071340315 0.034608644 0.19926235 -0.04224826 -0.06005751 -0.18017511 -0.02433559 0.0015938634
0.009271578 0.08388413 -0.028402893 -0.039975584 0.104652956 0.17435339 -0.09298499 -0.12079336
-0.020411745 0.3157056 -0.05831347 -0.038980972 -0.0023542924 0.09290712 -0.04913172 0.052640703
0.121140435 -0.21667261 -0.09397031 -0.054156482 0.07401218 -0.037099466 0.26104024 0.071777396
0.08668253 0.03217189 0.0060592643 -0.13049117 -0.17955449 0.11636129 0.016597023 -0.16049604
0.0053826566 -0.11447417 0.00846702 -0.0087626325 -0.042263426 -0.016018923 -0.031920094 0.12269108
0.023115084 -0.07472981 -0.18959314 0.102388136 -0.07184313 -0.010720284 0.032736115 -0.08760124
0.17607169 -0.017013209 0.010404496 -0.15707806 0.20142676 0.025266254 0.099858515 -0.11894133
-0.096386306 -0.040479805 -0.014811062 0.15219812 -0.10555023 -0.020562839 -0.10477731 -0.070506215
-0.02446858 -0.0037672883 -0.04040052 0.20049997 -0.08525593 -0.13289039 0.06972796 0.0911247
-0.09208582 -0.059162427 -0.08163909 -0.13990554 -0.10828366 -0.13650063 -0.046053797 0.053122934
-0.07114276 0.15858322 0.10440334 0.00011628686 -0.12924446 -0.16687311 -0.12315442 -0.089505255
-0.0040721074 -0.033678923 0.003726732 -0.1164612 -0.03695258 0.0064209728 0.040586095 -0.0011486245
-0.033706203 -0.14311539 0.035743535 -0.046214323 0.013882318 0.062478416 0.02959682 0.007429855
0.16141976 0.072247334 -0.063115954 -0.12475952 0.05608826 -0.1468564 0.010676358 -0.14336401
-0.042383734 -0.098374255 -0.0032344074 -0.058396246 0.03816241 -0.11383361 -0.15810783 -0.033568192
-0.13038892 0.07163298 0.1927574 0.11342186 0.027151695 0.07593816 -0.22531188 0.00040035156
-0.109331615 -0.024330681 -0.07306935 -0.07445637 0.024061067 -0.08500849 0.051937826 -0.031916197
-0.0054495754 0.14485416 -0.093474135 0.18952645 -0.09419797 -0.00091157155 -0.0037878142 -0.008843482
00000000: 9a31 88bd f8df 9b3e 35e3 07bc 9b15 093d
00000010: 104b 1f3c b24e d7bc 34cc 833e cfad 82bd
00000020: fd84 273d bd7d 84bd 6860 2e3c 1895 78bd
00000030: 5dc1 80bc 0e76 a3bd ff25 693d 8289 bd3d
00000040: 9af6 103d aa80 e0bd b3ea 543d 8110 ab3d
00000050: 678c 65bd 4012 14bd 63db 603d 6c68 083e
00000060: 032e 7f3e b961 c3b9 750a 853c 2d62 a6bd
00000070: 8f34 0dbd 24be a9bd 79d9 313c 4e14 ccbd
00000080: 31ef 30bd 4474 6bbd 3abe 1dbe 2166 53be
00000090: d0e5 433e 770d cd3c fdff 41bc 984d 053e
000000a0: 6b93 3c3e da6d ccbd a8a7 ce3d f5d2 c0bd
000000b0: 1384 553d 035c 97be 296e 033e 6a9b 023e
000000c0: fb78 03bc acf4 28bd 6856 83bd fc71 093e
000000d0: 0715 673d 93cc 323e 42e7 60be c2ee 4c3e
000000e0: 538d 63bd de59 54bc 1a2b ca3c 4909 c23d
000000f0: 6486 bdbd eb4c 08bd 456c 84bd 4750 583d
00000100: 2308 0cbe 4277 283d 7376 4dbd bb16 cd3c
00000110: f222 10be 5f6d 06be 9f74 603c d129 00bd
00000120: c387 9e3d 085d 0bbe d8a5 d03c 1534 9cbb
00000130: be1d 51bd 4732 123e 8c2d 283e f490 edbd
00000140: 834d e83c df39 de3d dddb 253c 1b8e acbb
00000150: 32ec 943c a282 90bd 77f2 22bd 0e81 a6bd
00000160: 8618 023d e32f 233d 5cb3 ddbc 1d63 0b3e
00000170: 76df 4d3d 6d01 563c 8e9b 97bc 19d3 823e
00000180: a32f 053d 1603 b5bd 191a db3d 2bf3 f7bd
00000190: bef3 3abe 8679 21be c02f ec3d 7166 26bd
000001a0: df1a 923d cbc1 0d3d 6e0b 4c3e 830c 2dbd
000001b0: ddfe 75bd d37f 38be 6e5b c7bc 2ee9 d03a
000001c0: d1e7 173c 71cb ab3d 2fad e8bc 70bd 23bd
000001d0: 4a54 d63d b289 323e ea6e bebd 8262 f7bd
000001e0: 8836 a7bc 2aa4 a13e 1bda 6ebd 83aa 1fbd
000001f0: 794a 1abb 1746 be3d 583e 49bd c79d 573d
00000200: 7a18 f83d 6ddf 5dbe 8273 c0bd 30d3 5dbd
00000210: b393 973d 9cf5 17bd 11a7 853e 0700 933d
00000220: 9c86 b13d acc6 033d cb8c c63b 7a9f 05be
00000230: 22dd 37be d44e ee3d 7bf6 873c 1359 24be
00000240: ff60 b03b 6f71 eabd 41b9 0a3c 2591 0fbc
00000250: 6a1c 2dbd 1e3a 83bc a5be 02bd 7645 fb3d
00000260: d85b bd3c f10b 99bd b424 42be dfb0 d13d
00000270: 7e22 93bd 21a4 2fbc 4e16 063d 4768 b3bd
00000280: 234c 343e 495f 8bbc 9f77 2a3c 12d9 20be
00000290: d142 4e3e 2dfb ce3c 9f82 cc3d 8397 f3bd
000002a0: 2f66 c5bd 27ce 25bd 19aa 72bc d3d9 1b3e
000002b0: b82a d8bd 6673 a8bc 7c95 d6bd 9065 90bd
000002c0: 5572 c8bc 9ce4 76bb 047b 25bd dd4f 4d3e
000002d0: a99a aebd 6b14 08be 88cd 8e3d 969f ba3d
000002e0: 7e97 bcbd 4d54 72bd 6532 a7bd 6643 0fbe
000002f0: d3c3 ddbd d2c6 0bbe e8a2 3cbd 6f97 593d
00000300: 4cb3 91bd a463 223e 6bd1 d53d 08df f338
00000310: a958 04be c9e0 2abe 6238 fcbd 884e b7bd
00000320: 506f 85bb e9f2 09bd 303c 743b 3683 eebd
00000330: 975b 17bd 0667 d23b 9b3d 263d 718d 96ba
00000340: 840f 0abd d78c 12be d067 123d 3b4b 3dbd
00000350: a972 633c 5ee9 7f3d 0875 f23c 2476 f33b
00000360: 394b 253e 69f6 933d f042 81bd eb81 ffbd
00000370: cebc 653d 8661 16be e4eb 2e3c 04ce 12be
00000380: 919a 2dbd 7178 c9bd 5af8 53bb e730 6fbd
00000390: 3050 1c3d 9921 e9bd 05e7 21be cd7e 09bd
000003a0: ac84 05be 50b4 923d 3262 453e b849 e83d
000003b0: 3b6d de3c 7785 9b3d 28b8 66be 47e6 d139
000003c0: 41e9 dfbd 2351 c7bc 62a5 95bd 957c 98bd
000003d0: b71b c53c ee18 aebd c2bc 543d 8fba 02bd
000003e0: 5a92 b2bb a654 143e 5e6f bfbd 3913 423e
000003f0: deea c0bd 88f6 6eba fa3c 78bb 40e4 10bc

network_body._body_endoder.seq_layers.0.bias f4 [128]
0.01032868 0.011193419 0.0039551025 0.0046591605 -0.0028540266 0.0006146375 -0.003587114 -0.0022608498
-0.00019953595 0.008231059 0.0049690916 1.6465287e-05 0.0015040991 -0.0018785063 -0.0053746933 0.004531065
0.0029236942 0.0057785693 0.0021139036 -0.0039267717 -0.003727951 0.0005149253 0.0064584543 0.0027473457
-0.005582228 -0.008351927 -0.004323488 -0.008684364 0.0028308984 0.0012611646 -0.005394344 -0.0026472567
-0.0071402 -0.0025575936 0.0012144524 0.0009366434 0.0026322883 0.00020787829 0.004347697 -0.0068570063
0.0048603136 -0.002513125 0.0010700743 0.0016993454 0.00018231457 -0.000874702 -0.0019239379 0.00803404
0.0024163744 -0.0015459472 0.003426364 0.005869215 -0.0026566987 -0.0028611955 -0.0063575623 -0.0056405757
0.0024905154 -0.00517555 0.0006718057 -0.0025234881 -0.0050465544 0.00677626 0.004693915 -0.010173021
0.009932092 -0.0007484091 -0.0020569551 0.0051484196 0.0011539684 0.0014091688 -0.0034331426 0.0030366562
-0.0031329964 -0.0056529366 0.0035450223 -0.00122591 0.00031154483 0.0045416015 0.0007405601 -0.0011950134
-0.003462462 0.0021448499 -0.005731114 0.0021174694 -0.00096820534 0.0025120026 -0.00603622 0.0078077517
0.0037431228 -0.0033195582 0.00010618083 0.005364897 0.0054806126 0.00040705618 -0.0029954333 0.002077164
0.0022160795 -0.0034846645 0.0038477762 0.0043538227 0.0035361166 0.0032454228 -0.0020928718 -0.006021276
0.0024283198 0.004194884 0.00450595 0.0003477424 -0.0066719544 0.0010042706 -0.0037686983 -0.0005911928
0.0064427746 -0.00049085 -0.0050145425 0.005057924 0.0035803365 0.0011763356 -0.0009499805 -3.9742914e-05
-0.003905716 0.0005574977 -0.002532313 -0.0009257029 -0.002860502 0.00046599653 0.0014621731 0.0039091096
00000000: a039 293c 9a64 373c ce99 813b dfab 983b
00000010: 9f0a 3bbb a01f 213a c915 6bbb c42a 14bb
00000020: 863a 51b9 90db 063c c3d3 a23b ef1e 8a37
00000030: 3125 c53a 3638 f6ba 321e b0bb 5479 943b
00000040: 739b 3f3b 275a bd3b 6b89 0a3b 26ac 80bb
00000050: a450 74bb 0dfc 063a 71a1 d33b d00c 343b
00000060: 1feb b6bb 85d6 08bc 0cac 8dbb dd48 0ebc
00000070: 9886 393b a94d a53a 0ac3 b0bb 997d 2dbb
00000080: 57f8 e9bb 4d9d 27bb 432e 9f3a 1389 753a
00000090: 7882 2c3b e7f9 5939 2077 8e3b bdb0 e0bb
000000a0: 4443 9f3b 3eb3 24bb bc41 8c3a 92bc de3a
000000b0: b22b 3f39 424c 65ba a52c fcba 35a1 033c
000000c0: 095c 1e3b 61a1 caba d98c 603b 8b52 c03b
000000d0: 021c 2ebb e582 3bbb 1953 d0bb 94d4 b8bb
000000e0: ea37 233b a997 a9bb 1e1c 303a 1b61 25bb
000000f0: 915d a5bb 640b de3b 6acf 993b beac 26bc
00000100: 37ba 223c e230 44ba fbcd 06bb 13b4 a83b
00000110: c140 973a dcb3 b83a 93fe 60bb a302 473b
00000120: f552 4dbb 453c b9bb 9b53 683b b7ae a0ba
00000130: d756 a339 b7d1 943b 2622 423a ffa1 9cba
00000140: 79ea 62bb 9c90 0c3b 12cc bbbb 3ec5 0a3b
00000150: 29cf 7dba 69a0 243b 7ccb c5bb 2bd8 ff3b
00000160: 2e4f 753b f28c 59bb 66ad de38 05cc af3b
00000170: b696 b33b 286a d539 084f 44bb 0721 083b
00000180: a53b 113b f85e 64bb f92a 7c3b 83aa 8e3b
00000190: 31be 673b 29b1 543b 9028 09bb 204e c5bb
000001a0: 7224 1f3b 3d75 893b a6a6 933b 3251 b639
000001b0: 69a0 dabb bba1 833a 44fc 76bb 47fa 1aba
000001c0: e91d d33b 63ac 00ba 0851 a4bb f1bc a53b
000001d0: 14a4 6a3b 462f 9a3a 1d08 79ba a1b1 26b8
000001e0: 0af7 7fbb 0a25 123a 2af5 25bb dfaa 72ba
000001f0: 4377 3bbb ff50 f439 63a6 bf3a fd17 803b

network_body._body_endoder.seq_layers.2.weight f4 [128, 128]
0.0053188684 -0.033523228 -0.023843994 -0.033981957 -0.090568595 0.037209067 0.15856521 0.068622604
-0.048003443 -0.02495912 0.100830585 0.05496232 0.041816205 0.08614565 0.03859123 -0.1287102
-0.1364187 0.056933913 -0.044839732 -0.13646582 0.1860257 -0.21217972 -0.17878364 0.0014425183
0.094670154 -0.0053579556 -0.087287754 -0.07827906 -0.08743478 -0.040177897 0.04895272 -0.064084746
0.06840091 0.050235745 -0.112328835 0.10353507 -0.13154383 -0.07074613 -0.110127956 0.032376137
0.03310431 -0.001972381 0.04623502 -0.020702526 -0.079595745 -0.0051079234 -0.12593864 -0.024119727
0.082683325 0.06483211 0.12369171 0.08047539 0.06531412 -0.0010679981 -0.11032535 0.08466712
0.07359602 0.10633563 -0.016058344 0.12776679 0.0145721845 0.0048490684 0.18761711 -0.062649556
0.016752545 -0.17680874 0.0691235 -0.047830645 -0.06419625 -0.1194969 0.015085064 -0.13280916
-0.07224095 -0.04938905 0.015032416 0.15985428 -0.0815792 0.0117893675 0.07137171 -0.10755315
-0.058616072 0.040511213 -0.059285108 -0.13438939 -0.013047077 0.03944452 0.038100913 0.0050435676
-0.061218347 -0.13620968 0.042059314 -0.052249905 -0.07498665 0.10415819 -0.079222724 0.026125902
-0.018046604 0.081516035 0.122477174 0.0027029617 -0.08756743 -0.072785065 0.018995734 -0.13700905
0.05463881 0.11063282 -0.15665288 0.058270067 -0.0069695874 -0.016008142 -0.04413305 -0.043147907
0.11344144 0.010665967 0.09535927 -0.0018739338 0.1659478 0.11575788 0.0099829715 -0.045897488
0.016996678 0.082830444 -0.07314639 -0.048556734 -0.09858195 -0.0204579 -0.114760235 -0.13549815
-0.017056633 -0.22536501 0.10019003 -0.09829503 0.10156024 -0.15646091 -0.05316288 0.05773927
0.20961633 -0.05286103 -0.035230137 0.062922165 0.07275638 0.07010572 -0.01650587 -0.04193101
-0.0383763 0.006526545 0.09255075 0.11521302 0.012144675 0.056936376 -0.007529654 -0.017145
-0.01084974 0.012661562 0.027947342 -0.077702306 -0.098427765 -0.12063071 -0.027633645 0.08990674
-0.10645799 -0.10080809 -0.0133428015 -0.022862019 -0.12857181 0.1391461 0.03000681 -0.033576638
0.032965455 0.013031504 0.027598882 -0.020524554 0.15454946 0.05030644 -0.21050663 -0.12581798
-0.02591232 -0.07234151 -0.075283304 0.09704136 -0.01826059 0.114533775 -0.047316216 0.064057365
0.04122982 0.22585478 0.08965538 -0.119686276 0.04455006 0.023805004 -0.031772424 -0.1132208
0.006385889 0.03758361 0.15112896 0.039842993 0.039068658 0.22059797 0.18360429 0.10417872
0.2862716 -0.011790582 -0.010298341 -0.00023622985 0.13688733 -0.027155077 0.083162256 -0.034022555
0.027313454 0.079818055 0.07733272 -0.0927093 -0.045447584 -0.15366735 0.18914138 -0.014025102
-0.080161646 -0.10926108 0.055299517 -0.05029588 0.023358142 0.0015810465 -0.03822006 0.08717216
0.07325363 -0.039824344 -0.12405896 0.17121768 -0.0478233 0.030541359 -0.15564097 0.014866796
-0.026287809 0.08403704 -0.1533148 -0.07924036 -0.061044026 0.07833753 -0.08286777 -0.1531944
-0.12417879 -0.078386806 0.022920033 -0.13449344 0.085799195 -0.077567704 -0.008654488 -0.10254639
-0.045308594 0.12293697 -0.16247822 -0.05934456 0.06746081 -0.024385216 0.09863365 0.059980355
00000000: e749 ae3b a74f 09bd 7b54 c3bc aa30 0bbd
00000010: 077c b9bd 8968 183d eb5e 223e 028a 8c3d
00000020: 429f 44bd 1277 ccbc 4480 ce3d 2b20 613d
00000030: 7847 2b3d 216d b03d d611 1e3d 9bcc 03be
00000040: 58b1 0bbe 8933 693d dea9 37bd b2bd 0bbe
00000050: 857d 3e3e a445 59be 0f13 37be e212 bd3a
00000060: 6de2 c13d ca91 afbb ecc3 b2bd c650 a0bd
00000070: 0211 b3bd 9491 24bd a682 483d dd3e 83bd
00000080: c715 8c3d ffc3 4d3d a90c e6bd 320a d43d
00000090: 6db3 06be 59e3 90bd c48a e1bd d79c 043d
000000a0: 6398 073d 1043 01bb ef60 3d3d 5898 a9bc
000000b0: 1803 a3bd 5e60 a7bb 0ff6 00be bc96 c5bc
000000c0: e055 a93d b3c6 843d 1452 fd3d 48d0 a43d
000000d0: 69c3 853d 12fc 8bba 42f2 e1bd f465 ad3d
000000e0: 83b9 963d 7fc6 d93d ca8c 83bc 4cd5 023e
000000f0: 2cc0 6e3c efe4 9e3b b31e 403e 694e 80bd
00000100: a23c 893c 5a0d 35be 9f90 8d3d 11ea 43bd
00000110: 5379 83bd caba f4bd 5827 773c 20ff 07be
00000120: 10f3 93bd 2c4c 4abd 864a 763c d7b0 233e
00000130: ff12 a7bd 3128 413c 552b 923d d344 dcbd
00000140: 6817 70bd 16ef 253d f1d4 72bd 5f9d 09be
00000150: 68c3 55bc 9490 213d b40f 1c3d 8344 a53b
00000160: 17c0 7abd 8d7a 0bbe 6346 2c3d ff03 56bd
00000170: 9a92 99bd e450 d53d 863f a2bd fd05 d63c
00000180: 79d6 93bc e1f1 a63d 50d5 fa3d 2c24 313b
00000190: 8e56 b3bd 5610 95bd f19c 9b3c 1a4c 0cbe
000001a0: f2cc 5f3d 7693 e23d 9d69 20be 98ac 6e3d
000001b0: 2361 e4bb 8223 83bc dbc4 34bd dcbb 30bd
000001c0: fc53 e83d 4fc0 2e3c b94b c33d c99e f5ba
000001d0: 38ee 293e 7812 ed3d 9e8f 233c 01ff 3bbd
000001e0: 9e3c 8b3c 02a3 a93d c6cd 95bd 6de3 46bd
000001f0: 55e5 c9bd 5397 a7bc 6a07 ebbd 07c0 0abe
00000200: 5aba 8bbc 16c6 66be 6e30 cd3d e84e c9bd
00000210: d1fe cf3d 4a37 20be 52c1 59bd 0380 6c3d
00000220: aaa5 563e cf84 58bd 7a4d 10bd 56dd 803d
00000230: 4c01 953d 9693 8f3d 5137 87bc dabf 2bbd
00000240: 7830 1dbd a1dc d53b 3f8b bd3d cef4 eb3d
00000250: 75fa 463c 1e36 693d 51bb f6bb ac73 8cbc
00000260: 1cc3 31bc 7172 4f3c d3f1 e43c 6322 9fbd
00000270: 7f94 c9bd 3c0d f7bd f45f e2bc 0621 b83d
00000280: a606 dabd 7974 cebd c49b 5abc 2149 bbbc
00000290: 54a8 03be 517c 0e3e d7d0 f53c a887 09bd
000002a0: c906 073d 1782 553c 0d17 e23c 1c23 a8bc
000002b0: 3742 1e3e 200e 4e3d 0d8f 57be 6ed6 00be
000002c0: 1346 d4bc c927 94bd 222e 9abd 9fbd c63d
000002d0: 3c97 95bc af90 ea3d a6ce 41bd 8230 833d
000002e0: 9ae0 283d 7a46 673e 3d9d b73d 141e f5bd
000002f0: 207a 363d b602 c33c cd23 02bd 4fe0 e7bd
00000300: b840 d13b 45f1 193d 8dc1 1a3e 6832 233d
00000310: 7506 203d 6fe4 613e c302 3c3e a75b d53d
00000320: 3192 923e 492d 41bc 5fba 28bc 78b4 77b9
00000330: 312c 0c3e 5374 debc f950 aa3d 3c5b 0bbd
00000340: 77c0 df3c a677 a33d 9e60 9e3d 60de bdbd
00000350: 3f27 3abd f95a 1dbe 47ae 413e 8bc9 65bc
00000360: ca2b a4bd 46c4 dfbd bf81 623d 0d03 4ebd
00000370: 9359 bf3c 1e3b cf3a a38c 1cbd 5187 b23d
00000380: 0006 963d da1e 23bd a012 febd b053 2f3e
00000390: 5de2 43bd df31 fa3c 5960 1fbe dd93 733c
000003a0: 8859 d7bc 9d1b ac3d 8efe 1cbe c548 a2bd
000003b0: 4d09 7abd 6d6f a03d 94b6 a9bd fede 1cbe
000003c0: 7351 febd 4389 a0bd cbc2 bb3c a6b8 09be
000003d0: 7db7 af3d d1db 9ebd 8ecb 0dbc d703 d2bd
000003e0: 8195 39bd 61c6 fb3d b160 26be 4813 73bd
000003f0: e528 8a3d 81c3 c7bc 7000 ca3d f6ad 753d

network_body._body_endoder.seq_layers.2.bias f4 [128]
-0.00086402916 0.0012848794 0.0043689166 -0.0041098935 -0.0037704208 -0.0007930428 -0.0007509918 -0.0016559644
0.005122619 0.0032415816 0.00016665741 -0.0007714983 -0.0010352501 -0.0037884384 0.0044585164 0.006280571
0.0018143227 0.000119820856 -0.00087824045 -0.0058059962 -0.003716392 -0.0020012015 0.0014203674 0.00030516076
0.000987932 -0.008063978 -0.0027332394 -0.0047595385 0.0015387959 0.0019316677 -0.00035014894 -0.008866053
0.002674628 0.0013092954 0.0008693449 0.005812499 0.0027836743 0.0012230244 -0.0014685811 0.0007030027
0.0015415977 -0.00062923535 -0.003741766 -0.00492908 -0.0017442491 -0.0015601976 0.0012987229 0.004207476
0.0015782623 -0.0043029184 0.005263973 -0.004722735 0.0014611157 0.001778834 -0.0040258192 0.004392322
0.00516254 0.0026940927 -0.0031378253 -0.0012047297 0.0015112202 0.00095311797 -0.0022938456 0.0002585708
0.002752696 0.0011148829 -0.0012748181 -0.0042801057 -0.0041202484 0.0027383438 -0.0022937877 -0.0038006252
0.0051169903 -0.0035033796 0.0008576334 -0.0068532405 0.004901506 -0.0020587672 -0.0010104213 0.003939723
0.0086694155 -0.0036868555 0.00609562 -0.00617732 -0.00013325506 -0.003919089 0.000636941 -0.0011376451
0.0076973117 -0.0023752593 0.0025374389 -0.00498013 -4.7721693e-05 0.0027235695 -0.0023424884 0.0038471604
0.00035781512 -0.00027423573 -0.001787291 0.0028426324 -0.005013094 0.0019784186 -0.0078889225 0.0009229031
-0.002637625 -0.0010134337 -0.00015578167 -0.0017364027 -0.0013421822 0.0041675945 0.0053925994 -0.004310334
0.005300948 -0.001649091 -0.0012564032 -0.0023811373 0.00031649705 -0.004475924 -0.0029556372 -0.001057144
0.0036352077 0.00042845376 -0.0036170175 0.0068105813 0.0021787018 -0.004221539 0.0018955333 -0.0014673475
00000000: 0480 62ba 6669 a83a 2129 8f3b 49ac 86bb
00000010: 2a19 77bb 34e4 4fba 35de 44ba f20c d9ba
00000020: a5db a73b b770 543b c2c0 2e39 603e 4aba
00000030: 3bb1 87ba 7347 78bb bf18 923b 40cd cd3b
00000040: 91ce ed3a 5548 fb38 b839 66ba 3a40 bebb
00000050: b68e 73bb 9726 03bb 9f2b ba3a fcfd 9f39
00000060: 7f7d 813a c61e 04bc 2620 33bb e7f5 9bbb
00000070: 6cb1 c93a 0330 fd3a 3294 b7b9 ec42 11bc
00000080: d048 2f3b aa9c ab3a c0e4 633a c776 be3b
00000090: 4e6e 363b e44d a03a 687d c0ba b649 383a
000000a0: 6f0f ca3a 45f3 24ba 6b38 75bb 1f84 a1bb
000000b0: 4a9f e4ba 8b7f ccba e939 aa3a dede 893b
000000c0: b2dd ce3a 7fff 8cbb 687d ac3b 2cc1 9abb
000000d0: e882 bf3a c427 e93a 05eb 83bb 78ed 8f3b
000000e0: 862a a93b 608f 303b f9a3 4dbb 05e8 9dba
000000f0: 2314 c63a aada 793a 5854 16bb c990 8739
00000100: 9366 343b 4321 923a cc17 a7ba 2140 8cbb
00000110: 2603 87bb c975 333b 5f53 16bb e913 79bb
00000120: 6dac a73b f598 65bb ced2 603a 2691 e0bb
00000130: d09c a03b 62ec 06bb 1d70 84ba cb18 813b
00000140: 2a0a 0e3c 2c9f 71bb c4bd c73b 1e6b cabb
00000150: 62ba 0bb9 b46b 80bb 63f8 263a 091d 95ba
00000160: bb39 fc3b 3daa 1bbb 294b 263b 5c30 a3bb
00000170: c728 48b8 ea7d 323b 6f84 19bb a420 7c3b
00000180: 2299 bb39 4cc7 8fb9 8943 eaba 754b 3a3b
00000190: e144 a4bb 5ba8 013b 8a40 01bc fbee 713a
000001a0: 01dc 2cbb 31d5 84ba 5359 23b9 0298 e3ba
000001b0: 29ec afba 5190 883b 67b4 b03b b43d 8dbb
000001c0: 93b3 ad3b 5026 d8ba e5ad a4ba db0c 1cbb
000001d0: 84ef a539 c6aa 92bb 5db3 41bb de8f 8aba
000001e0: aa3c 6e3b 17a2 e039 7c0b 6dbb 4c2b df3b
000001f0: 8dc8 0e3b d654 8abb 8b73 f83a 0354 c0ba

action_model._continuous_distribution.log_sigma f4 [1, 5]
-0.0067675635 0.023539096 0.0031024697 -0.0031184696 0.01344906
00000000: 70c2 ddbb 10d5 c03c ce52 4b3b 3d5f 4cbb
00000010: 7259 5c3c

action_model._continuous_distribution.mu.weight f4 [5, 128]
0.017563758 -0.036163673 -0.0075850114 0.014774778 -0.026538247 -0.0061070793 0.017805282 -0.009110477
0.0030386583 0.024702119 -0.018996676 -0.017477803 0.0064608045 0.010746621 0.02338078 -0.011168787
0.0021781 0.01776293 -0.017156085 0.02498942 0.015434643 0.0036093332 0.020010158 0.026196832
0.0011361327 -0.0063887946 0.041462727 -0.004610537 0.008686439 0.03226686 -0.028486658 0.020529717
0.023141934 0.0027207064 0.014490213 -0.031737298 -0.018354755 -0.029638238 -0.027146332 0.019230166
-0.055491183 0.016746031 0.00956025 0.006047309 0.0064929244 0.0372767 0.0037090916 0.009247723
-0.011794795 -0.0018081047 -0.05133148 0.013164265 -0.009628832 0.00069405825 0.020195551 -0.004200073
0.0057374365 -0.024174659 -0.0027968124 0.008580661 0.005870955 -0.0025353946 -0.021238865 0.009060054
0.0120915845 -0.0020678733 -0.007920308 0.0108605465 0.007245662 -0.03456902 0.023921924 -0.038523573
0.002697538 -0.017629296 0.0038477941 -0.015626742 -0.004431773 -0.009268347 -0.030264033 0.003931064
-0.0014023668 -0.008773941 0.008335644 -0.021698847 -0.011606513 0.025502793 -0.0149975065 0.0074285665
-0.01104833 0.015731124 0.007889871 0.01717349 0.026778312 -0.013798844 -0.0018936385 0.012328513
0.01105095 0.003183574 0.024392458 -0.0033693013 0.015120253 -0.014522745 0.007452753 0.015606253
0.012886952 -0.01066766 0.0017473951 0.015081249 -0.0047609634 -0.012568339 -0.01700879 -0.0026292154
0.0069429507 -0.01243984 -0.00968959 0.018338023 -0.013326463 0.024467919 0.007899975 0.003412512
0.020862088 0.0027105268 0.0060890913 -0.0024525889 -0.01090109 -0.0038650013 -0.032439534 0.003917762
0.0058231135 0.00466307 -0.033336155 0.0018967171 0.016694013 0.0043096254 0.012508094 -0.0024822827
-0.017256321 0.00081326126 0.031342115 0.00038238714 -0.012815254 -0.016680691 -0.018293757 0.020278988
0.004107106 0.02621699 -0.037337482 0.017754797 -0.041255552 -0.012139691 -0.007988682 0.030989978
0.0010891668 0.013686458 0.013342186 0.010508791 -0.008717436 0.00063847506 0.003321158 -0.0041075773
-0.0040161223 0.0062150583 0.021841947 -0.0038870492 0.0004390897 -0.0076854564 -0.009633256 -0.0026296645
0.013564202 -0.0048575588 -0.010906862 -0.019075349 0.0021828278 0.012763895 0.0005735263 -0.0036654915
0.024478588 -0.0067774705 -0.012677195 -0.008975315 -0.023753583 -0.01824116 -0.0021445444 0.016308865
-0.004517691 -0.024767792 0.009722075 -0.012753427 -0.007860035 0.019407362 0.002016784 0.017600985
-0.017398939 0.00825834 -0.006226857 0.0032856143 -0.0070804106 -0.014139107 -0.0023765243 0.004070361
-0.0019852964 0.036946747 -0.034596335 -0.009629174 0.022222798 -0.026442295 -0.0129546495 0.0074778562
-0.0072575216 -0.0065601394 0.028807076 -0.02357926 -0.036910743 0.009386574 -0.030263843 0.033281066
0.0019140525 -0.016052872 -0.029444361 -0.0035550806 0.017238906 0.009954522 -0.002633409 0.028952695
-0.008213341 0.0069474964 0.0054836837 -0.013335967 0.0113178855 -0.008981006 -0.020527152 0.009837813
-0.04393312 -0.02511098 0.008591631 0.033396367 -0.021666493 0.01709412 -0.0046724016 9.302466e-05
-0.0020312993 0.01713421 -0.022135833 0.01623165 -0.0051996224 -0.013711763 0.013037349 0.01541223
0.009410265 0.007379067 -0.053592492 -0.020483842 0.015097013 0.0066244234 0.003338074 -0.014271174
00000000: dfe1 8f3c 5c20 14bd b08b f8bb e911 723c
00000010: bd66 d9bc e51d c8bb 62dc 913c 1c44 15bc
00000020: 3a24 473b 195c ca3c eb9e 9bbc 9c2d 8fbc
00000030: 28b5 d33b 9812 303c 0d89 bf3c 4afd 36bc
00000040: 74be 0e3b 9083 913c eb8a 8cbc 9db6 cc3c
00000050: 96e1 7c3c 908a 6c3b 58ec a33c bd9a d63c
00000060: 4aea 943a 1859 d1bb d2d4 293d fd13 97bb
00000070: 9151 0e3c 412a 043d da5c e9bc f02d a83c
00000080: 2794 bd3c e14d 323b 5c68 6d3c f8fe 01bd
00000090: b65c 96bc e4cb f2bc fc61 debc 9588 9d3c
000000a0: b94a 63bd f92e 893c 98a2 1c3c 8128 c63b
000000b0: 99c2 d43b 74af 183d 3b14 733b c383 173c
000000c0: f53e 41bc edfd ecba f540 52bd eeae 573c
000000d0: 40c2 1dbc 76f1 353a 2471 a53c c4a0 89bb
000000e0: 1b01 bc3b ef09 c6bc ba4a 37bb e795 0c3c
000000f0: 2461 c03b dd28 26bb 21fd adbc 9f70 143c
00000100: c81b 463c 2885 07bb 2ec4 01bc 6ff0 313c
00000110: 056d ed3b 3f98 0dbd e9f7 c33c e5ca 1dbd
00000120: 2dc9 303b 506b 90bc 462b 7c3b a703 80bc
00000130: 6838 91bb 44da 17bc 47ec f7bc 28d0 803b
00000140: 9fcf b7ba 93c0 0fbc 3a92 083c c8c1 b1bc
00000150: 3e29 3ebc 3ceb d03c 1ab8 75bc 556b f33b
00000160: 0e04 35bc 8fde 803c 8444 013c 6baf 8c3c
00000170: 315e db3c 8c14 62bc f733 f8ba 88fd 493c
00000180: 0b0f 353c 82a3 503b b1d2 c73c 7fcf 5cbb
00000190: f0ba 773c cff0 6dbc 3936 f43b 5fb1 7f3c
000001a0: cb23 533c 69c7 2ebc da08 e53a 5817 773c
000001b0: db01 9cbb 6feb 4dbc 0556 8bbc ea4e 2cbb
000001c0: b181 e33b 78d0 4bbc 16c1 1ebc 9f39 963c
000001d0: 3d57 5abc f270 c83c e66e 013c 73a4 5f3b
000001e0: f8e6 aa3c 18a3 313b 0087 c73b 9dbb 20bb
000001f0: 7c9a 32bc f64b 7dbb 51df 04bd 9260 803b
00000200: d1cf be3b abcc 983b 7e8b 08bd 449b f83a
00000210: e2c1 883c c237 8d3b c0ee 4c3c cbad 22bb
00000220: 215d 8dbc 0a31 553a 9760 003d 227b c839
00000230: 12f7 51bc f2a5 88bc cadc 95bc 1f20 a63c
00000240: e794 863b 03c5 d63c 30ef 18bd 8272 913c
00000250: 95fb 28bd 8ee5 46bc f6e2 02bc b2de fd3c
00000260: 60c2 8e3a 2a3d 603c 2f99 5a3c 102d 2c3c
00000270: 94d3 0ebc 565f 273a c9a7 593b db98 86bb
00000280: ad99 83bb b0a7 cb3b e2ed b23c ddbd 7ebb
00000290: 9f35 e639 48d6 fbbb ced4 1dbc 7356 2cbb
000002a0: 633c 5e3c 282c 9fbb b2b2 32bc e843 9cbc
000002b0: c60d 0f3b a81f 513c b358 163a be38 70bb
000002c0: 5287 c83c 8b15 debb 02b4 4fbc 330d 13bc
000002d0: e096 c2bc 7c6e 95bc 7c8b 0cbb 2b9a 853c
000002e0: 2409 94bb d3e5 cabc 5749 1f3c c0f3 50bc
000002f0: 60c7 00bc 30fc 9e3c 052c 043b f12f 903c
00000300: 3888 8ebc fd4d 073c aa0a ccbb 7653 573b
00000310: ca02 e8bb b7a7 67bc 76bf 1bbb aa60 853b
00000320: bf1b 02bb 7955 173d e3b4 0dbd afc3 1dbc
00000330: 960c b63c 839d d8bc bd3f 54bc ce08 f53b
00000340: 81d0 edbb 70f6 d6bb d1fc eb3c 4b29 c1bc
00000350: b82f 17bd 25ca 193c e1eb f7bc ba51 083d
00000360: f2e0 fa3a 5081 83bc 4d35 f1bc 5bfc 68bb
00000370: 9b38 8d3c 4b18 233c 4695 2cbb 342e ed3c
00000380: 4091 06bc d3a7 e33b 79b0 b33b 1a7f 5abc
00000390: a76e 393c 1225 13bc 8f28 a8bc c72e 213c
000003a0: 37f3 33bd 8bb5 cdbc eac3 0c3c a1ca 083d
000003b0: ee7d b1bc f808 8c3c f21a 99bb 3c16 c338
000003c0: 8c1f 05bb 0b5d 8c3c 3556 b5bc 3df8 843c
000003d0: 9861 aabb 4da7 60bc 9b9a 553c 9483 7c3c
000003e0: 832d 1a3c 1acc f13b cd83 5bbd bbcd a7bc
000003f0: 7659 773c b111 d93b 97c3 5a3b a4d1 69bc

action_model._continuous_distribution.mu.bias f4 [5]
-0.0013893287 0.00016713614 -0.0012019897 0.00019220532 0.0055851643
00000000: 231a b6ba 4441 2f39 158c 9dba b98a 4939
00000010: c103 b73b

action_model._discrete_distribution.branches.0.weight f4 [5, 128]
0.026169656 0.0073196837 0.012837219 -0.005621121 0.0012143204 -0.02841636 -0.011307174 -0.008721049
0.014701837 -0.0066643544 -0.00016116053 0.02087064 0.022641245 0.0015118294 0.002590878 -0.018339038
0.0009900862 0.000883083 -0.008113277 0.010240694 0.011191595 0.0023469417 0.013618005 0.0014549884
-0.009769044 -0.010361277 0.008575198 0.0033376396 5.3378067e-06 0.017995091 0.0057073985 -0.012250343
0.0048274687 0.0067596487 0.016806051 -0.01928173 0.001893066 0.021256067 -0.005142412 -0.010296806
-0.009058366 -0.016625445 -0.0069396785 -0.0067047956 0.0005380246 0.008622516 0.002010176 -0.012810516
0.0014117388 0.0063396413 -0.008958062 0.0006153267 0.013457423 -0.009476531 -0.0013115931 0.013337728
0.0082544945 0.0008184966 0.011950937 -0.019724347 -0.0056716865 -0.0054960903 -0.00091558223 0.004185685
0.010243449 -0.0008452118 -0.008064045 0.0031802831 -4.003557e-05 -0.00054752495 -0.015054945 0.017361393
-0.021089086 0.013440859 -4.6587757e-05 0.004530175 -0.0023590752 0.0019854587 -0.004980405 0.0048302873
-0.0033307222 -5.2862408e-05 -0.0042698123 0.017493604 0.007696407 0.0191628 0.011424837 -0.0010433089
0.0020346204 0.00791957 -0.00974746 -0.002714355 -0.0047886157 -0.0037898247 0.0023290208 0.0038640418
-0.009333829 0.014553649 -0.0028047478 -0.0041189794 0.008924526 -0.012099548 0.009326348 -0.0053462046
0.009727281 -0.0038446186 0.0034648646 0.004733773 0.0068571935 0.021701168 -0.013001812 -0.008672033
0.0059096734 -0.0051239454 0.01684918 0.004097328 0.0038522435 0.015943 0.00913908 -0.007521388
-0.008716999 0.0038093315 0.010406931 -0.00045918394 -0.006921822 -0.00071763655 0.023255872 -0.0067182626
-0.0057989513 -0.00043020092 -5.332567e-05 -0.014782267 0.0057362253 -0.008695754 -0.004166615 0.010695916
0.0014669484 0.0095382165 0.0027133957 -0.0005998487 0.011875524 -0.017474765 0.012535103 0.007688324
0.0044042864 0.0005130754 0.013341115 -0.014078331 -0.012121994 0.016241068 0.00772862 0.016511291
-0.0025219899 -0.0002719338 -0.021320224 0.0012673399 0.00522737 0.01257982 -0.0007211564 0.006342379
0.009459015 -0.006424491 0.018962597 0.0054645413 -0.018250758 -0.0100838225 0.03406257 0.007883511
0.008128429 -0.0053044953 0.0036364612 -0.0032459798 -0.021250872 -0.007211652 0.004860909 -0.0018431237
-0.008351556 -0.00080362475 0.0015619387 0.01173794 0.0073375106 -0.023247074 -0.010990658 -0.009158407
-0.020589944 0.025277175 -0.01693539 0.0005305136 -0.0041449703 -0.012500882 0.006592021 -0.0073690466
0.01002978 -0.0013794544 -0.012175369 -0.015457301 -0.0016787334 0.01167838 0.012682742 -0.0024534524
-0.014856581 -0.010273859 -0.008021095 0.0062251445 -0.005608295 0.003192585 -0.013285291 0.010239878
-0.001385968 0.005174776 0.0197044 -0.020129647 0.019866012 -0.02877897 0.014050621 0.0027139245
0.004408597 0.010473441 0.0034418781 0.02297806 0.0074525536 0.0085650785 -0.0010741086 0.004495462
0.020261155 0.0113343345 0.0071085976 -0.004569106 -0.0005286907 -0.006262422 -0.020289985 0.0055212043
-0.009813488 0.009312431 -0.010614562 0.010881992 0.004758514 0.012334398 -0.0160474 -0.018755453
-0.0010870729 -0.016688392 -0.02126758 -0.005874552 0.00487239 -0.010113865 -0.013752952 0.00083648646
0.01743065 0.0021314379 -0.0024618194 0.0019859124 -0.014224804 -0.004671498 0.0040508723 0.00074543484
00000000: bf61 d63c f5d9 ef3b 3353 523c 6131 b8bb
00000010: d529 9f3a 6dc9 e8bc ba41 39bc bbe2 0ebc
00000020: f9df 703c a860 dabb 33fd 28b9 e8f8 aa3c
00000030: 227a b93c 9428 c63a b8cb 293b c03b 96bc
00000040: c8c5 813a b27e 673a 8ded 04bc 95c8 273c
00000050: f45c 373c 26cf 193b 0e1e 5f3c 4fb5 be3a
00000060: 570e 20bc 58c2 29bc fd7e 0c3c 4dbc 5a3b
00000070: 691b b336 716a 933c 2105 bb3b aab5 48bc
00000080: be2f 9e3b 0b80 dd3b d8ac 893c b8f4 9dbc
00000090: c120 f83a 3421 ae3c ae81 a8bb efb3 28bc
000000a0: 8a69 14bc 1632 88bc 3e66 e3bb e7b3 dbbb
000000b0: 380a 0d3a 7445 0d3c 28bd 033b 33e3 51bc
000000c0: 180a b93a c4bc cf3b d6c4 12bc e04d 213a
000000d0: 867c 5c3c 7443 1bbc c3e9 abba 7c86 5a3c
000000e0: dc3d 073c 6190 563a ddcd 433c f494 a1bc
000000f0: 8ed9 b9bb 8c18 b4bb af03 70ba 1228 893b
00000100: 24d4 273c 3491 5dba 0e1f 04bc 4c6c 503b
00000110: deeb 27b8 c787 0fba 04a9 76bc 7b39 8e3c
00000120: 05c3 acbc 0c37 5c3c 3967 43b8 dd71 943b
00000130: b79a 1abb 781e 023b aa32 a3bb 6347 9e3b
00000140: 3f48 5abb 94b8 5db8 c8e9 8bbb bf4e 8f3c
00000150: 2432 fc3b 4efb 9c3c 3d2f 3b3c a3bf 88ba
00000160: 4457 053b 16c1 013c cfb3 1fbc 52e3 31bb
00000170: d2e9 9cbb b55e 78bb 7ca2 183b dd3b 7d3b
00000180: ebec 18bc 6e72 6e3c dccf 37bb 81f8 86bb
00000190: 2d38 123c 2f3d 46bc 8acd 183c 372f afbb
000001a0: 2c5f 1f3c fff5 7bbb c812 633b c41d 9b3b
000001b0: 4fb2 e03b a6c6 b13c 8d05 55bc 2515 0ebc
000001c0: efa5 c13b c5e6 a7bb 4b07 8a3c e142 863b
000001d0: ec75 7c3b e59a 823c 14bc 153c fa75 f6bb
000001e0: bed1 0ebc faa5 793b d581 2a3c a0be f0b9
000001f0: 74d0 e2bb c61f 3cba 1983 be3c df24 dcbb
00000200: 2105 bebb 978c e1b9 01aa 5fb8 5231 72bc
00000210: f2f6 bb3b a378 0ebc 1a88 88bb ec3d 2f3c
00000220: 9f46 c03a 2e46 1c3c 3ad3 313b 2a3f 1dba
00000230: 8f91 423c 3d27 8fbc 0860 4d3c 56ee fb3b
00000240: d551 903b e87f 063a b194 5a3c cda8 66bc
00000250: 549b 46bc fd0b 853c 5d40 fd3b b042 873c
00000260: f847 25bb 5692 8eb9 c0a7 aebc df1c a63a
00000270: 5c4a ab3b 971b 4e3c fd0b 3dba bbd3 cf3b
00000280: fcf9 1a3c 8984 d2bb 7357 9b3c e50f b33b
00000290: 9d82 95bc 9e36 25bc 3285 0b3d d729 013c
000002a0: 1a2d 053c 55d1 adbb b251 6e3b 81ba 54bb
000002b0: 4f16 aebc b94f ecbb 4348 9f3b f894 f1ba
000002c0: f7d4 08bc 58aa 52ba f7b9 cc3a 7d50 403c
000002d0: 806f f03b a670 bebc 2912 34bc 250d 16bc
000002e0: 3eac a8bc 1412 cf3c 16bc 8abc 2a12 0b3a
000002f0: 88d2 87bb 80d0 4cbc e101 d83b 0b78 f1bb
00000300: f253 243c cfce b4ba 337b 47bc 9f40 7dbc
00000310: f208 dcba ad56 3f3c 47cb 4f3c 1aca 20bb
00000320: 0469 73bc b053 28bc e96a 03bc 4cfc cb3b
00000330: cac5 b7bb b03a 513b 8daa 59bc 29c5 273c
00000340: 5ea9 b5ba 2b91 a93b 1f6b a13c eee6 a4bc
00000350: 0cbe a23c e0c1 ebbc 9334 663c 19dc 313b
00000360: fe75 903b cc98 2b3c 2291 613b 7c3c bc3c
00000370: 8d34 f43b 8b54 0c3c 1bc9 8cba ab4e 933b
00000380: b9fa a53c a5b3 393c 3def e83b 70b8 95bb
00000390: d597 0aba 0135 cdbb 2f37 a6bc 38eb b43b
000003a0: c1c8 20bc 2b93 183c b3e8 2dbc 624a 323c
000003b0: 4fed 9b3b 3716 4a3c d675 83bc 09a5 99bc
000003c0: 1d7c 8eba 18b6 88bc 5939 aebc 507f c0bb
000003d0: 92a8 9f3b a0b4 25bc 1054 61bc a847 5b3a
000003e0: b9ca 8e3c 98af 0b3b 7a56 21bb 1526 023b
000003f0: 270f 69bc 5e13 99bb 2ebd 843b 4969 433a

action_model._discrete_distribution.branches.0.bias f4 [5]
-0.006785905 0.004599279 0.0032879186 -0.0052447137 0.005018555
00000000: 4c5c debb 8cb5 963b 1f7a 573b d9db abbb
00000010: b172 a43b

exp_avg f4 [128, 112]
-1.7083291e-08 1.3615378e-05 -2.7761756e-14 0.0 -9.343234e-06 -5.2115032e-09 1.36035e-05 7.810044e-15
0.0 -7.207127e-06 -2.630867e-09 1.3600891e-05 2.119063e-14 0.0 -1.1911809e-05 -7.1306014e-09
1.3605426e-05 0.0 0.0 -6.4338738e-06 -3.9901984e-09 1.3602252e-05 0.0 0.0
-9.346926e-06 1.1902252e-08 1.358639e-05 0.0 0.0 -6.5436516e-06 -3.8423833e-09 1.3602103e-05
0.0 0.0 -9.458648e-06 -1.7174594e-08 1.3615465e-05 0.0 0.0 -9.073479e-06
-2.1945632e-09 1.3600462e-05 0.0 0.0 -8.341302e-06 -1.2846149e-08 1.3611138e-05 0.0
0.0 -8.9976975e-06 -4.3185303e-12 1.359827e-05 0.0 0.0 -6.8616027e-06 -1.4317486e-08
1.3612611e-05 0.0 0.0 -8.654108e-06 -2.221645e-11 1.3594616e-05 0.0 0.0
-6.0676775e-06 2.3825312e-08 1.35744685e-05 0.0 0.0 -8.696508e-06 -1.52193e-11 1.3594605e-05
0.0 0.0 -8.013495e-08 -1.8243984e-08 1.361654e-05 0.0 0.0 -5.6095314e-06
-7.330763e-12 1.35945975e-05 0.0 0.0 1.4219656e-06 -2.7276814e-08 1.36255785e-05 0.0
0.0 -1.617773e-06 -1.2928448e-11 1.3594601e-05 0.0 0.0 5.9603476e-06 2.2243808e-10
1.3598079e-05 0.0 0.0 3.7424331e-06 -8.103882e-12 1.35945975e-05 0.0 0.0
9.171716e-06 -0.00017349925 5.141297e-06 -7.5913085e-05 6.7871288e-06 -8.7202025e-05 4.079489e-06 0.0
-1.837775e-08 6.2375316e-06 -7.633015e-14 0.0 6.306896e-08 -1.5663668e-08 6.2348176e-06 -6.307883e-14
0.0 -7.581172e-08 2.2991734e-10 6.2189097e-06 8.924069e-15 0.0 4.317387e-07 -1.8418946e-08
6.23757e-06 0.0 0.0 6.7152457e-09 3.254111e-11 6.219107e-06 0.0 0.0
1.062044e-06 6.4171546e-10 6.2185104e-06 0.0 0.0 9.721223e-08 -2.923202e-12 6.2191425e-06
0.0 0.0 1.1538956e-06 -8.925504e-09 6.2280774e-06 0.0 0.0 -1.4735602e-07
-3.329402e-11 6.2191725e-06 0.0 0.0 1.0075378e-06 -5.0107243e-09 6.224163e-06 0.0
0.0 -1.4870423e-07 3.5123402e-13 6.219138e-06 0.0 0.0 1.7235208e-06 -5.9948966e-09
6.225147e-06 0.0 0.0 1.2684234e-07 4.98693e-13 6.218245e-06 0.0 0.0
1.7852639e-06 1.9221533e-09 6.21723e-06 0.0 0.0 5.520783e-07 -1.3523601e-12 6.2182467e-06
0.0 0.0 2.4162748e-06 -2.9967002e-09 6.2221484e-06 0.0 0.0 6.9920026e-07
-2.7669967e-12 6.2182485e-06 0.0 0.0 2.1089281e-06 -5.2039806e-10 6.219672e-06 0.0
0.0 1.547878e-06 -3.4309949e-12 6.2182494e-06 0.0 0.0 2.561533e-06 9.864132e-12
6.2191425e-06 0.0 0.0 1.5021031e-06 -3.7739265e-12 6.2182494e-06 0.0 0.0
3.1877137e-06 -2.2880173e-05 2.3513774e-06 1.6027157e-05 3.103373e-06 -3.989542e-05 1.8657444e-06 0.0
-3.452406e-09 -1.2557715e-05 1.2378553e-14 0.0 -7.2138923e-06 -1.2555697e-08 -1.2548611e-05 -4.3304326e-16
0.0 -6.274102e-06 -1.0076409e-09 -1.2560081e-05 -1.810563e-15 0.0 -6.425234e-06 -1.3705799e-08
-1.2547461e-05 0.0 0.0 -6.26747e-06 -6.6009403e-10 -1.256043e-05 0.0 0.0
-5.026349e-06 -1.0073284e-08 -1.2551094e-05 0.0 0.0 -5.4128473e-06 -4.22483e-10 -1.2560666e-05
00000000: 8ebe 92b2 9a6d 6437 400e faa8 0000 0000
00000010: e2c0 1cb7 de10 b3b1 963a 6437 79b1 0c28
00000020: 0000 0000 c0d4 f1b6 b4ca 34b1 622f 6437
00000030: 44de be28 0000 0000 d5d8 47b7 6f01 f5b1
00000040: dc42 6437 0000 0000 0000 0000 8ee2 d7b6
00000050: 281a 89b1 3a35 6437 0000 0000 0000 0000
00000060: bed0 1cb7 a87a 4c32 1af1 6337 0000 0000
00000070: 0000 0000 8a91 dbb6 f605 84b1 9634 6437
00000080: 0000 0000 0000 0000 95b0 1eb7 5587 93b2
00000090: fa6d 6437 0000 0000 0000 0000 4c3a 18b7
000000a0: 2acf 16b1 8a2d 6437 0000 0000 0000 0000
000000b0: 9ff1 0bb7 f6b1 5cb2 645b 6437 0000 0000
000000c0: 0000 0000 d1f4 16b7 ddf1 97ac 2024 6437
000000d0: 0000 0000 0000 0000 b83c e6b6 f8f8 75b2
000000e0: b861 6437 0000 0000 0000 0000 1c31 11b7
000000f0: ff6a c3ad 6e14 6437 0000 0000 0000 0000
00000100: f498 cbb6 6aa8 cc32 e6bd 6337 0000 0000
00000110: 0000 0000 38e7 11b7 d1de 85ad 6214 6437
00000120: 0000 0000 0000 0000 a816 acb3 f2b6 9cb2
00000130: 9872 6437 0000 0000 0000 0000 8239 bcb6
00000140: d2f6 00ad 5a14 6437 0000 0000 0000 0000
00000150: 5eda be35 594e eab2 6a99 6437 0000 0000
00000160: 0000 0000 4222 d9b5 8e70 63ad 5e14 6437
00000170: 0000 0000 0000 0000 fffe c736 c192 742f
00000180: 4e23 6437 0000 0000 0000 0000 8326 7b36
00000190: a490 0ead 5a14 6437 0000 0000 0000 0000
000001a0: 38e0 1937 5aed 35b9 6883 ac36 8733 9fb8
000001b0: febc e336 3be0 b6b8 8be2 8836 0000 0000
000001c0: 1add 9db2 fd4b d136 56e1 aba9 0000 0000
000001d0: 8770 8733 c58c 86b2 ad34 d136 780a 8ea9
000001e0: 0000 0000 efcd a2b3 facb 7c2f 07ac d036
000001f0: 01c3 2028 0000 0000 b7c9 e734 b137 9eb2
00000200: 514c d136 0000 0000 0000 0000 edbb e631
00000210: 081e 0f2e b9ad d036 0000 0000 0000 0000
00000220: 8e8b 8e35 b664 3030 99a8 d036 0000 0000
00000230: 0000 0000 fdc2 d033 bab3 4dac 07ae d036
00000240: 0000 0000 0000 0000 8ddf 9a35 c856 19b2
00000250: c7fa d036 0000 0000 0000 0000 ea38 1eb4
00000260: bc6d 12ae 49ae d036 0000 0000 0000 0000
00000270: bc3a 8735 cc2a acb1 27d9 d036 0000 0000
00000280: 0000 0000 82ab 1fb4 28ba c52a fdad d036
00000290: 0000 0000 0000 0000 b953 e735 abfb cdb1
000002a0: 9be1 d036 0000 0000 0000 0000 2832 0834
000002b0: 9e5e 0c2b 51a6 d036 0000 0000 0000 0000
000002c0: 339d ef35 e116 0431 999d d036 0000 0000
000002d0: 0000 0000 8832 1435 e853 beab 55a6 d036
000002e0: 0000 0000 0000 0000 4927 2236 82ee 4db1
000002f0: d9c7 d036 0000 0000 0000 0000 adb0 3b35
00000300: c8b5 42ac 59a6 d036 0000 0000 0000 0000
00000310: 1c87 0d36 c20b 0fb0 93b2 d036 0000 0000
00000320: 0000 0000 afc0 cf35 4f6f 71ac 5ba6 d036
00000330: 0000 0000 0000 0000 cde6 2b36 1a88 2d2d
00000340: 07ae d036 0000 0000 0000 0000 df9b c935
00000350: 82c8 84ac 5ba6 d036 0000 0000 0000 0000
00000360: 81ec 5536 ccee bfb7 5bcc 1d36 0f72 8637
00000370: 8b43 5036 6255 27b8 7d6a fa35 0000 0000
00000380: 5e3f 6db1 faae 52b7 00fe 5e28 0000 0000
00000390: dd0e f2b6 8ab4 57b2 e087 52b7 e8a1 f9a5
000003a0: 0000 0000 2086 d2b6 367d 8ab0 23b9 52b7
000003b0: fe76 02a7 0000 0000 5798 d7b6 be76 6bb2
000003c0: ef82 52b7 0000 0000 0000 0000 284d d2b6
000003d0: fd71 35b0 a3ba 52b7 0000 0000 0000 0000
000003e0: 02a8 a8b6 c60e 2db2 8a92 52b7 0000 0000
000003f0: 0000 0000 01a0 b5b6 3243 e8af a6bb 52b7

exp_avg_sq f4 [128, 112]
4.884698e-10 4.465858e-09 5.845031e-14 0.0 8.075809e-11 3.7882958e-10 4.6417896e-09 3.7151342e-13
0.0 8.4193416e-11 4.3798093e-10 4.552319e-09 1.2684676e-14 0.0 8.305095e-11 2.2721242e-10
4.7101247e-09 0.0 0.0 8.8233594e-11 2.9968136e-10 4.677122e-09 0.0 0.0
8.385132e-11 3.925735e-11 4.918683e-09 0.0 0.0 1.00593596e-10 2.634572e-10 4.692409e-09
0.0 0.0 8.532101e-11 2.3285575e-11 4.9106506e-09 0.0 0.0 1.134336e-10
1.4206496e-10 4.797627e-09 0.0 0.0 9.119519e-11 2.6977405e-11 4.8897326e-09 0.0
0.0 1.1709801e-10 2.6960401e-11 4.8817292e-09 0.0 0.0 8.954336e-11 3.7031607e-11
4.915725e-09 0.0 0.0 1.1743723e-10 1.2526427e-11 4.907307e-09 0.0 0.0
9.4627715e-11 5.5351848e-11 4.876212e-09 0.0 0.0 1.1823457e-10 1.0911039e-11 4.908322e-09
0.0 0.0 9.473718e-11 2.076079e-10 4.73345e-09 0.0 0.0 1.09325375e-10
1.9852241e-11 4.9026623e-09 0.0 0.0 8.871032e-11 1.6274236e-10 4.7714024e-09 0.0
0.0 1.0692829e-10 2.2567717e-11 4.9168505e-09 0.0 0.0 9.4013713e-11 8.663553e-11
4.841974e-09 0.0 0.0 1.1501048e-10 3.2885007e-11 4.9379634e-09 0.0 0.0
9.334117e-11 2.4811442e-07 7.0527917e-10 6.203408e-08 1.2690551e-09 1.346741e-07 4.4491497e-10 0.0
1.3547549e-10 3.9762243e-10 3.453614e-14 0.0 7.70116e-12 7.0166484e-11 4.625848e-10 1.2199913e-13
0.0 8.571706e-12 1.0194322e-10 4.3537865e-10 3.3444027e-15 0.0 8.069745e-12 4.015516e-11
5.0141735e-10 0.0 0.0 9.193968e-12 1.6438836e-11 5.160637e-10 0.0 0.0
9.300631e-12 9.37651e-12 5.213409e-10 0.0 0.0 9.834788e-12 1.4431047e-11 5.2117755e-10
0.0 0.0 9.342067e-12 2.917786e-12 5.2249555e-10 0.0 0.0 1.0970306e-11
1.2385583e-11 5.2403587e-10 0.0 0.0 9.821239e-12 2.6526862e-12 5.2474564e-10 0.0
0.0 1.1847701e-11 3.4907355e-12 5.2444427e-10 0.0 0.0 9.6117645e-12 2.0646096e-12
5.271295e-10 0.0 0.0 1.2774419e-11 1.1355164e-12 5.2575266e-10 0.0 0.0
9.9809935e-12 1.8435928e-12 5.2488225e-10 0.0 0.0 1.33233095e-11 6.467486e-13 5.26167e-10
0.0 0.0 1.0200623e-11 2.3672616e-12 5.2145954e-10 0.0 0.0 1.302246e-11
1.2089356e-12 5.2631305e-10 0.0 0.0 9.968588e-12 4.1004014e-12 5.2099136e-10 0.0
0.0 1.2960186e-11 1.7975518e-12 5.266896e-10 0.0 0.0 9.634716e-12 1.4392051e-11
5.1091453e-10 0.0 0.0 1.4020428e-11 2.2578098e-12 5.266533e-10 0.0 0.0
9.145224e-12 1.6221248e-08 7.5580195e-11 1.2242547e-08 1.3414754e-10 1.4124576e-08 4.775893e-11 0.0
1.6078133e-10 1.117697e-09 4.8226173e-14 0.0 2.6158265e-11 2.3563004e-10 1.0838236e-09 1.9012508e-14
0.0 2.361846e-11 9.541798e-11 1.2608625e-09 6.04129e-15 0.0 2.696542e-11 1.6103678e-10
1.1752563e-09 0.0 0.0 2.6028363e-11 6.281177e-11 1.2543333e-09 0.0 0.0
2.6035493e-11 1.341829e-11 1.2915853e-09 0.0 0.0 2.7286761e-11 3.329734e-11 1.2551148e-09
00000000: 0245 0630 1a72 9931 4f9e 8329 0000 0000
00000010: c396 b12e 8643 d02f 9d7d 9f31 ba24 d12a
00000020: 0000 0000 ae24 b92e 56c8 f02f 9f6a 9c31
00000030: be81 6428 0000 0000 87a1 b62e 9cd2 792f
00000040: b2d6 a131 0000 0000 0000 0000 1907 c22e
00000050: 67c0 a42f 66b4 a031 0000 0000 0000 0000
00000060: 1964 b82e d9a7 2c2e 3101 a931 0000 0000
00000070: 0000 0000 2935 dd2e 4ed6 902f de3a a131
00000080: 0000 0000 0000 0000 759f bb2e 74d2 cc2d
00000090: 8aba a831 0000 0000 0000 0000 7171 f92e
000000a0: bb33 1c2f 60d8 a431 0000 0000 0000 0000
000000b0: 548a c82e b74b ed2d 8b02 a831 0000 0000
000000c0: 0000 0000 29c0 002f 6d25 ed2d 25bc a731
000000d0: 0000 0000 0000 0000 6ee8 c42e e2dd 222e
000000e0: 2de7 a831 0000 0000 0000 0000 a41f 012f
000000f0: 035e 5c2d 219d a831 0000 0000 0000 0000
00000100: ab16 d02e a470 732e 9d8b a731 0000 0000
00000110: 0000 0000 1300 022f f4f2 3f2d 0fa6 a831
00000120: 0000 0000 0000 0000 4b54 d02e 6e44 642f
00000130: dea3 a231 0000 0000 0000 0000 b768 f02e
00000140: 469f ae2d 4674 a831 0000 0000 0000 0000
00000150: 7813 c32e e7ef 322f b3f1 a331 0000 0000
00000160: 0000 0000 4723 eb2e fb81 c62d 13f1 a831
00000170: 0000 0000 0000 0000 04bd ce2e 7883 be2e
00000180: 745e a631 0000 0000 0000 0000 25e9 fc2e
00000190: 3aa1 102e c9aa a931 0000 0000 0000 0000
000001a0: 6842 cd2e 9634 8534 9cdd 4130 9937 8533
000001b0: e86a ae30 ef9a 1034 3798 f42f 0000 0000
000001c0: f6f4 142f 6298 da2f 7589 1b29 0000 0000
000001d0: f17a 072d 384c 9a2e 064f fe2f db5b 092a
000001e0: 0000 0000 88cb 162d ee2c e02e 195a ef2f
000001f0: 57fd 7027 0000 0000 e7f6 0d2d b19a 302e
00000200: 1cd4 0930 0000 0000 0000 0000 f3bd 212d
00000210: f898 902d c1da 0d30 0000 0000 0000 0000
00000220: 519e 232d 0cf4 242d 1b4e 0f30 0000 0000
00000230: 0000 0000 f303 2d2d a8df 7d2d 9c42 0f30
00000240: 0000 0000 0000 0000 ee58 242d 2952 4d2c
00000250: 5b9f 0f30 0000 0000 0000 0000 defd 402d
00000260: b5e3 592d bf0b 1030 0000 0000 0000 0000
00000270: eec6 2c2d 8caa 3a2c b13d 1030 0000 0000
00000280: 0000 0000 4d6d 502d 80a3 752c 7c28 1030
00000290: 0000 0000 0000 0000 8a17 292d b348 112c
000002a0: 71e5 1030 0000 0000 0000 0000 deba 602d
000002b0: 4acf 9f2b 8e84 1030 0000 0000 0000 0000
000002c0: 6696 2f2d 37bb 012c 4e47 1030 0000 0000
000002d0: 0000 0000 da62 6a2d 260b 362b b6a1 1030
000002e0: 0000 0000 0000 0000 8673 332d cb94 262c
000002f0: 7456 0f30 0000 0000 0000 0000 f217 652d
00000300: 7f24 aa2b fdab 1030 0000 0000 0000 0000
00000310: 875e 2f2d 2245 902c 8235 0f30 0000 0000
00000320: 0000 0000 7dff 632d a1fb fc2b 7cc6 1030
00000330: 0000 0000 0000 0000 e77e 292d 0930 7d2d
00000340: 6a70 0c30 0000 0000 0000 0000 65a6 762d
00000350: 16e1 1e2c eec3 1030 0000 0000 0000 0000
00000360: 6de2 202d e756 8b32 de33 a62e 4b53 5232
00000370: 2d7f 132f 8ba8 7232 c60b 522e 0000 0000
00000380: ecc7 302f 789d 9930 fe30 5929 0000 0000
00000390: 2d17 e62d fb89 812f a7f5 9430 dc3f ab28
000003a0: 0000 0000 0bc0 cf2d 8cd3 d12e a84a ad30
000003b0: 11a9 d927 0000 0000 ba30 ed2d d30f 312f
000003c0: a886 a130 0000 0000 0000 0000 aaf2 e42d
000003d0: e21f 8a2e ee64 ac30 0000 0000 0000 0000
000003e0: b802 e52d 9b0e 6c2d 9e83 b130 0000 0000
000003f0: 0000 0000 5304 f02d 7971 122e 6d80 ac30

exp_avg f4 [128]
1.3598289e-05 6.21915e-06 -1.2561165e-05 -2.1018495e-05 4.686473e-06 4.3875743e-06 1.0409513e-05 2.2869883e-06
-1.3228185e-05 1.4791623e-06 3.85823e-06 2.3876864e-06 1.926188e-05 -1.2226583e-05 -1.7526904e-06 6.6183566e-07
8.659021e-06 -1.1872334e-06 -9.111119e-06 1.3203832e-05 -4.029764e-06 1.3504105e-05 -3.7065576e-05 -2.421725e-06
5.200671e-06 -2.5341245e-05 5.356838e-05 2.306065e-05 -1.9348909e-05 6.791368e-07 1.5266777e-06 -2.6760556e-05
3.7593268e-06 -1.26583855e-05 2.2543363e-05 -2.1544975e-05 -1.4597652e-05 1.1632271e-05 -2.783771e-05 -1.5798246e-06
-1.2239796e-05 8.031795e-06 -1.422815e-05 6.470162e-06 6.125871e-06 -2.9182038e-05 -2.7833926e-06 -6.464428e-07
-1.2502794e-05 1.027962e-06 -1.9793839e-05 2.682084e-05 1.5960457e-05 -1.0945483e-06 3.5813554e-07 2.9640689e-05
4.887214e-05 7.786279e-06 -2.2438517e-05 -1.8078682e-06 2.6065743e-07 -1.1314538e-05 -1.0737667e-05 2.1452424e-06
-6.5226554e-06 3.4042434e-05 1.2349017e-05 -2.150101e-06 -2.1792539e-05 -7.3465053e-06 -5.0619424e-06 -2.8058043e-05
-2.1001199e-05 3.7949067e-05 1.28365555e-05 -6.1382225e-06 7.704815e-06 3.3425536e-06 -8.258513e-06 1.7530299e-06
9.445106e-07 -9.0052094e-07 1.7622579e-05 -1.5044428e-05 2.0137773e-05 1.826826e-05 3.9062966e-06 1.9714093e-05
1.648426e-05 2.7734943e-05 -8.476543e-06 1.6646656e-05 1.5768157e-05 -1.6596394e-05 6.767582e-08 9.408315e-06
-7.462022e-06 2.516201e-07 5.930379e-07 1.0253772e-05 -2.619012e-06 -2.9673261e-05 8.180899e-06 2.3052988e-05
1.9179928e-05 -6.4125293e-06 -2.4288585e-05 3.9603115e-06 -6.433971e-06 1.958974e-05 -3.2812202e-06 -1.6924561e-05
-1.4785537e-06 -6.069597e-06 -1.2570696e-05 -5.4052352e-06 9.053805e-06 -1.7690494e-05 -2.229058e-06 1.2262618e-06
-8.023616e-06 -7.481402e-07 4.453726e-06 -1.0787309e-05 2.0262138e-05 -4.4253204e-05 1.6724138e-05 1.9534662e-05
00000000: 3524 6437 17ae d036 cbbd 52b7 e050 b0b7
00000010: 7f40 9d36 fa38 9336 85a4 2e37 297a 1936
00000020: 9fee 5db7 a187 c635 f175 8136 243c 2036
00000030: 9394 a137 c620 4db7 fc3d ebb5 00a9 3135
00000040: 3646 1137 0759 9fb5 f5db 18b7 0786 5d37
00000050: 6937 87b6 b08f 6237 dc76 1bb8 eb84 22b6
00000060: 6c81 ae36 e993 d4b7 9cae 6038 5e72 c137
00000070: 774f a2b7 ed4d 3635 3fe8 cc35 db7b e0b7
00000080: be48 7c36 5a5f 54b7 811b bd37 7bbb b4b7
00000090: 70e8 74b7 3928 4337 0785 e9b7 5c0a d4b5
000000a0: 8659 4db7 4cc0 0637 70b5 6eb7 451a d936
000000b0: d58c cd36 f3cb f4b7 52ca 3ab6 3687 2db5
000000c0: 17c3 51b7 81f8 8935 f20a a6b7 51fd e037
000000d0: d2e2 8537 65e8 92b5 c645 c034 e5a4 f837
000000e0: 10fc 4c38 d0a1 0237 593a bcb7 e1a5 f2b5
000000f0: 7cf0 8b34 92d3 3db7 ee25 34b7 fcf6 0f36
00000100: 2fdd dab6 c9c8 0e38 a02e 4f37 744a 10b6
00000110: 1fcf b6b7 0082 f6b6 c1d9 a9b6 305e ebb7
00000120: bb2b b0b7 802b 1f38 965c 5737 eef6 cdb6
00000130: ee43 0137 a250 6036 0b8e 0ab7 a649 eb35
00000140: 468a 7d35 54bb 71b5 33d4 9337 5467 7cb7
00000150: 8aed a837 ca3e 9937 d512 8336 b15f a537
00000160: ae47 8a37 56a8 e837 7a36 0eb7 6ca4 8b37
00000170: dc45 8437 7c38 8bb7 2d55 9133 68d8 1d37
00000180: 4862 fab6 6716 8734 4131 1f35 9e07 2c37
00000190: 49c2 2fb6 d8ea f8b7 b240 0937 ea61 c137
000001a0: 95e4 a037 352b d7b6 57bf cbb7 d1e2 8436
000001b0: 64e3 d7b6 a554 a437 ef32 5cb6 38f9 8db7
000001c0: b872 c6b5 71a9 cbb6 bae6 52b7 9e5e b5b6
000001d0: cce5 1737 0c66 94b7 ed96 15b6 0996 a435
000001e0: 2b9d 06b7 ced3 48b5 3771 9536 24fb 34b7
000001f0: 9cf8 a937 849c 39b8 d04a 8c37 5ede a337
