Assets/Model/TankBrain/SmoothTank/checkpoint.pt (torch, 176043 bytes, 12 tensors)

network_body._body_endoder.seq_layers.0.weight f4 [128, 32]
00000000: e4fb ce3c 7095 a4bd 06ec 4b3e 80a8 a0bd
00000010: f0a6 efb8 403b 24bd 5f93 c8bd d488 adbd
00000020: 0b0c 4cbe cd73 d3bd b353 bb3c 1445 6c3e
00000030: 51bd 08bd 176a 84be 3a8c 4c3e 869e d6bd
00000040: d738 713e a647 983e 0cd6 a8bc 6268 b73b
00000050: a9c0 f3bc 7f4c e1b9 8593 dc3c 2c94 12bd
00000060: 3abd 2ebd 3e74 8dbe 72bd 973d 2650 573e
00000070: 408e cbbe c0ea 08be 0b9c 5a3d f982 7cbe
00000080: 0caa 7f3d 3959 f4bd f25f 793d f0fe 57be
00000090: e540 96bc 73e6 2cbe 49dd 913d 2582 af3e
000000a0: 2646 033e b6f8 1dbe 6f29 82be c3ad eabd
000000b0: 8e5e 8f3d 4df4 62bd f52c 2e3e cd70 8ebe
000000c0: 56da cdbd 6e71 a1be cd39 1cbd e5db f9bd
000000d0: 54b7 e53d bacc ba3d f775 f4bd ef33 6f3e
000000e0: 6c88 f1bd 5a15 6e3d 6dbd 53be edf8 0c3e
000000f0: 2721 ad3d e991 c3be ada5 573c 75bf bebe
00000100: 8253 343d 90bc 343d 92ab 263e 40f3 a6bd
00000110: 6359 a4be 6fe5 db3e a2c3 04be 0053 c6bd
00000120: 455c a03d 4a8a 9a3e 18fc 023d 36a4 003e
00000130: 6a0b b3bd fe9a 14bd 61fa 843d d505 b43e
00000140: 896b 763e 5fe5 8dbe 7768 a2be adc2 64bd
00000150: f438 d63d 5681 11be 91f2 fbbd 662c 843e
00000160: c78b f73b e4ef 603e 6ad0 6d3e 2b78 aebd
00000170: 077e 023e 37bd 29be aa2f 88bb f04a fabc
00000180: ead2 1dbe 5cb8 f2bc 9bc0 243a 60d0 79be
00000190: bfd3 823b ad81 36be 767c 7ebe 6ae4 2dbe
000001a0: 8803 cebc c1d8 093c 7154 0cbe 47b5 6cbe
000001b0: 8396 42be c143 953e 08bc 4bbc 8e8a 663e
000001c0: cf11 283e fb40 c8bc e3db 83bd fb13 23bd
000001d0: 7736 8d3e 324c 893d 6a19 25be e00a ed3c
000001e0: e1b2 22be 499f 2f3e b148 5d3d 70f3 bbbd
000001f0: 5ffa 983c 2f3c 133e b23e d13c 2bce 0d3e
00000200: d572 aebb c17b 37be 1d13 a33e 57b0 b0bd
00000210: 204f df3d 7fed d5bd 194f 94bc 1840 f3be
00000220: cb58 813d 2c9a 65be d1e8 5e3d 5760 963d
00000230: a36a aa3e 1d88 1f3e 6b7a b13e 76a2 843e
00000240: 7513 fdbe 3ee1 2c3e 3702 cc3c 0842 193e
00000250: fa96 d23d 4665 9ebd 5c5c 12be 532a 16bd
00000260: 7642 6d3d bd64 8dbe 2e6f 1bbd b61e e5bc
00000270: 756a 183e 67e2 9ebd f9e1 d7bc 10de 323e
00000280: 587a 03be 8415 853e c149 873e 761e cf3d
00000290: bfa5 793e 77cc 783d 345b efbe 8bea 263e
000002a0: 8044 c3be 1172 a93e f66e babd 2da8 143b
000002b0: af3b 25bd 7d4f 733e 6d3d 67bd 3886 843e
000002c0: 9b70 d73e 62eb 9a3e b8e6 ac3d ac01 053e
000002d0: 2913 203e c621 c43d b639 febc 2e94 22be
000002e0: 5f1b 873d b3c8 b23e 12cf 6b3e 93c0 8cbe
000002f0: 5a21 d03e 3b6f b63e e40b 7f3e 0f5d a7bd
00000300: e2bd fdbd 72ec fabd ba0d 7ebd 2033 b1bd
00000310: baf0 a9bc ee54 f33d 53c6 b4be 9b7d 3b3d
00000320: 83f3 393e 3c98 883d 8b95 963d 43fa a1bd
00000330: d677 f33c 8ab7 733d d97b 22be e577 983e
00000340: 6460 093e 48d3 32be 486c 0b3e 0bf5 283d
00000350: b51b c4bd c0c2 ff3d 2a09 89be 8e56 f1bc
00000360: 0568 c53d 216b bd3e 43cc 293e 4504 883e
00000370: d1e9 a8be aea4 363c 9f33 57be 3e08 493c
00000380: 6da4 1b3e 9d2d 46be e2df f43d 303d 8c3b
00000390: 3030 a83d aa53 ee3c 5960 2b3c a20c 1a3e
000003a0: 6ed3 9b39 e1ea 46bb 52f3 07be 8735 7d3e
000003b0: a032 013e 9473 a43d 0940 44bd ff1f 5bbd
000003c0: 5f11 6bbe 5011 98be ad98 303e c4d6 47be
000003d0: 9b12 bd3e 778c 26be e924 c3be 6a63 37bd
000003e0: ef75 89be 6fcc cf3e 0752 313d 3254 c93e
000003f0: 30a4 183c ec9b 0fbf 0a21 ed3d 637a 92bd
0.025266595 -0.080363154 0.19914255 -0.07844639 -0.000114275026 -0.040095568 -0.09793734 -0.084733635
-0.19926469 -0.103248216 0.02286706 0.23073226 -0.03338367 -0.2586219 0.19975367 -0.10479455
0.23556839 0.29742163 -0.020609878 0.00559716 -0.029754953 -0.00042972338 0.026925812 -0.03578584
-0.04266093 -0.27627748 0.07409181 0.21026668 -0.39756966 -0.133708 0.05337147 -0.24659337
0.06241803 -0.1193108 0.060882516 -0.21093345 -0.018341491 -0.16884784 0.07122285 0.3427898
0.12819728 -0.15426907 -0.25422236 -0.11458924 0.07000457 -0.055408765 0.17009337 -0.27820435
-0.1005141 -0.31531852 -0.03814106 -0.12200145 0.11216608 0.0912108 -0.119365625 0.23359655
-0.117935985 0.05812583 -0.20677729 0.13766833 0.08453589 -0.38197258 0.013162059 -0.37255445
0.04402495 0.04412514 0.16276386 -0.08151865 -0.32099447 0.4294848 -0.12965253 -0.096838
0.07830099 0.3018363 0.031978697 0.12562642 -0.087424114 -0.036280625 0.064930685 0.351607
0.24064459 -0.2771406 -0.31720325 -0.05584972 0.10460082 -0.14209494 -0.12302125 0.25815123
0.0075545046 0.21966511 0.23224035 -0.08519014 0.12743388 -0.16576086 -0.0041560726 -0.030553311
-0.15412489 -0.029628925 0.0006284804 -0.24395895 0.0039925273 -0.17822905 -0.24852166 -0.16981664
-0.025148168 0.008413495 -0.13704087 -0.23116027 -0.19002728 0.29153255 -0.012434967 0.22513792
0.16413043 -0.024445048 -0.064384244 -0.039813977 0.27580616 0.06703986 -0.16122976 0.02893585
-0.1588855 0.17150606 0.054024402 -0.091772914 0.018674074 0.14378427 0.02554259 0.13848178
-0.0053237476 -0.17918302 0.3185052 -0.08627384 0.10903764 -0.104456894 -0.018104123 -0.47509837
0.06315764 -0.22422093 0.05442125 0.07342594 0.33284482 0.15579267 0.3466371 0.25905198
-0.49428907 0.16882798 0.0249034 0.14966595 0.10282703 -0.0773416 -0.14293045 -0.036661457
0.05792471 -0.2761592 -0.037947826 -0.027968746 0.1488436 -0.077580266 -0.02635287 0.17467523
-0.12839639 0.25992978 0.26423457 0.10113232 0.24379633 0.060741868 -0.4674927 0.16300409
-0.381382 0.33094838 -0.09103195 0.0022683248 -0.04034012 0.23760791 -0.056455065 0.2588365
0.420781 0.30257708 0.084424436 0.12988919 0.15632309 0.09576754 -0.031033378 -0.15876839
0.065970175 0.34918746 0.2302821 -0.27490672 0.40650445 0.35631737 0.2490688 -0.081720464
-0.12389733 -0.122521296 -0.06202481 -0.086523294 -0.02074467 0.118814334 -0.3530756 0.045774084
0.18159299 0.066696614 0.07352742 -0.07909062 0.029720228 0.05950121 -0.15867557 0.29778972
0.13415676 -0.1746341 0.13615525 0.041249316 -0.09575597 0.124883175 -0.26764804 -0.029460218
0.09638981 0.36995795 0.16581826 0.26565757 -0.32990888 0.011147661 -0.21015786 0.0122700315
0.15199442 -0.19353338 0.11956765 0.004279755 0.08212316 0.029092629 0.010459983 0.15043882
0.0002972143 -0.00303524 -0.13276413 0.2472745 0.12616968 0.08029857 -0.04791263 -0.05349731
-0.22955845 -0.29700708 0.17245741 -0.1951552 0.36928257 -0.1626452 -0.38114098 -0.044772543
-0.2684779 0.40585658 0.043291118 0.39322048 0.009316489 -0.5609729 0.11578567 -0.0715225

network_body._body_endoder.seq_layers.0.bias f4 [128]
00000000: 0000 0000 0000 0000 0000 0000 0000 0000
00000010: 0000 0000 0000 0000 0000 0000 0000 0000
00000020: 0000 0000 0000 0000 0000 0000 0000 0000
00000030: 0000 0000 0000 0000 0000 0000 0000 0000
00000040: 0000 0000 0000 0000 0000 0000 0000 0000
00000050: 0000 0000 0000 0000 0000 0000 0000 0000
00000060: 0000 0000 0000 0000 0000 0000 0000 0000
00000070: 0000 0000 0000 0000 0000 0000 0000 0000
00000080: 0000 0000 0000 0000 0000 0000 0000 0000
00000090: 0000 0000 0000 0000 0000 0000 0000 0000
000000a0: 0000 0000 0000 0000 0000 0000 0000 0000
000000b0: 0000 0000 0000 0000 0000 0000 0000 0000
000000c0: 0000 0000 0000 0000 0000 0000 0000 0000
000000d0: 0000 0000 0000 0000 0000 0000 0000 0000
000000e0: 0000 0000 0000 0000 0000 0000 0000 0000
000000f0: 0000 0000 0000 0000 0000 0000 0000 0000
00000100: 0000 0000 0000 0000 0000 0000 0000 0000
00000110: 0000 0000 0000 0000 0000 0000 0000 0000
00000120: 0000 0000 0000 0000 0000 0000 0000 0000
00000130: 0000 0000 0000 0000 0000 0000 0000 0000
00000140: 0000 0000 0000 0000 0000 0000 0000 0000
00000150: 0000 0000 0000 0000 0000 0000 0000 0000
00000160: 0000 0000 0000 0000 0000 0000 0000 0000
00000170: 0000 0000 0000 0000 0000 0000 0000 0000
00000180: 0000 0000 0000 0000 0000 0000 0000 0000
00000190: 0000 0000 0000 0000 0000 0000 0000 0000
000001a0: 0000 0000 0000 0000 0000 0000 0000 0000
000001b0: 0000 0000 0000 0000 0000 0000 0000 0000
000001c0: 0000 0000 0000 0000 0000 0000 0000 0000
000001d0: 0000 0000 0000 0000 0000 0000 0000 0000
000001e0: 0000 0000 0000 0000 0000 0000 0000 0000
000001f0: 0000 0000 0000 0000 0000 0000 0000 0000
0.0 0.0 0.0 0.0 0.0 0.0 0.0 0.0
0.0 0.0 0.0 0.0 0.0 0.0 0.0 0.0
0.0 0.0 0.0 0.0 0.0 0.0 0.0 0.0
0.0 0.0 0.0 0.0 0.0 0.0 0.0 0.0
0.0 0.0 0.0 0.0 0.0 0.0 0.0 0.0
0.0 0.0 0.0 0.0 0.0 0.0 0.0 0.0
0.0 0.0 0.0 0.0 0.0 0.0 0.0 0.0
0.0 0.0 0.0 0.0 0.0 0.0 0.0 0.0
0.0 0.0 0.0 0.0 0.0 0.0 0.0 0.0
0.0 0.0 0.0 0.0 0.0 0.0 0.0 0.0
0.0 0.0 0.0 0.0 0.0 0.0 0.0 0.0
0.0 0.0 0.0 0.0 0.0 0.0 0.0 0.0
0.0 0.0 0.0 0.0 0.0 0.0 0.0 0.0
0.0 0.0 0.0 0.0 0.0 0.0 0.0 0.0
0.0 0.0 0.0 0.0 0.0 0.0 0.0 0.0
0.0 0.0 0.0 0.0 0.0 0.0 0.0 0.0

network_body._body_endoder.seq_layers.2.weight f4 [128, 128]
00000000: 55dc b0bc 1b2b 9cbd d552 3ebe 8480 5bba
00000010: d2ec e73d d9e7 94bc 4d67 eabd a210 6e3d
00000020: 41da 943c 03c4 48be c4d2 80bc e00d 45bd
00000030: 3207 c0bd 1582 7bbd e330 1b3e ca48 f8bd
00000040: 968e 863c 88c7 b9bd 5891 a3bc 763e a2bd
00000050: 8361 ec3c d254 20be 32ae 0bbe b50e 85bd
00000060: 05b1 4f3c d3d7 94bc 6d22 163d 9015 4a3d
00000070: ae87 423d a10b a7bb 3427 50be c62c 993d
00000080: 9d99 f6bb ebe0 43bd 572d 1bbe 550a f338
00000090: aacf a23b db18 3f3e 348a da3d f2aa 0c3e
000000a0: 2678 543d 1b06 17bd 5158 78bd 8e7d 9cbd
000000b0: 9b7b 6dbd 9f5a 633d 2b2c afbc a597 543c
000000c0: fa96 b13d 7c3a 47bc 44da 253e d06e 663d
000000d0: 151a c1bc 9f21 f5bc 282f b73c d714 32bd
000000e0: 157f 98bc 2cbf 4dbd 83eb b73d 0660 4bbc
000000f0: 993d 66bc 4a9e ff3c 4999 9e3d ab9b 3a3d
00000100: 0ae2 313d ac55 62bd d606 77bd b127 133e
00000110: fef1 ac3d 22d8 67bd ec5e 303c 8265 63bd
00000120: 022c 103d 388d fabd 3958 39be 7ede aa3c
00000130: a4ae 3c3d 7fd8 753d 19d5 14bd 372c 343d
00000140: b43d bd3d 35d2 463d 76cd afbc 6663 783c
00000150: 3158 a83d c1df 233d 42ac 31bc 599c 0abe
00000160: 2375 3e3e 02a9 afbd cb45 9e3b 43c0 1e3e
00000170: 151f 9cbd 3591 ebbd 8712 0cbd da78 1ebd
00000180: 355a 2fbd 22b3 903d bd60 59bd 4203 ae3d
00000190: 20ed 89bd f324 1cbd 9b85 673d 6eb3 41bd
000001a0: 8e33 a63d 655a 9f3d fd50 4f3e 2b8a 29be
000001b0: ec48 d63c deed 13be b114 b2bd 7dcd fdbd
000001c0: f09e 5abd acd3 2bbe 40ef f7bc d3a7 57bd
000001d0: 689d 023d f92f 8abd a189 c03d 6ab1 c43d
000001e0: fbf0 dbbd 5e17 453d e33e c13c 5b9f bc3d
000001f0: aa9a f43d f4f9 093d e6ae 8ebd 2039 083d
00000200: c4e2 05be 6bda 13be 506e d6bd 176d 69bd
00000210: 5598 6f3d 5c77 a3bc 9bc9 ee3b 38b7 48be
00000220: 995a b3bc 88d7 623e 1854 d7bd a30e a5bd
00000230: 2748 38be 5b77 4a3c 45de 89bd 59a6 a0bd
00000240: 79f9 423d 3e38 9d3d d2c1 ab3d ffd6 983d
00000250: f02e 033c d128 1c3e ac2b 0cbe 49f7 53be
00000260: d0c9 cabd aebc 43be 8a99 0b3e 8684 fb3d
00000270: 4f7e 103e e645 dcbc 2c34 08be 9551 abbd
00000280: 52a2 783d 66b0 f1bd 4637 7ebb 3bd9 483d
00000290: 0c9c 9f3d b602 5a3d 130a a03d a7c3 ba3c
000002a0: ab66 713c 9be9 fb3c bb01 e73c 36e9 ef3d
000002b0: cf22 7abc 2b57 7a3d 3435 e03d 2b54 153d
000002c0: a428 93bc 7409 0c3d 7e4b 843d 1dd0 9b3d
000002d0: 4f82 7e3c a514 47bd c971 913d a595 723e
000002e0: 085b 30be 57aa ec3d dfde 023d 0891 a83c
000002f0: a8d8 4ebd 20dd 33bd 607b 39bd 207d 05bd
00000300: a445 053c 5871 6ebd fd44 f43d 2e98 a93d
00000310: f066 18bd 22be 80bd be6c 1bbd 5742 edbd
00000320: 7f63 41bd b0f7 cabc f6fa eabd 1436 e43c
00000330: f71a 38bd b49d bfbd 459e ff3c 68b9 763d
00000340: c1df 97bd 4cbb d83c c2f3 013e 133f 47be
00000350: 8342 babd f56a a03d 6c1a 90bb 340a 9f3d
00000360: 6f1e 853b e9d1 c23d 3e63 253e 5bee 73bd
00000370: 5f85 a93d 14f8 debd 9092 3ebd 534d fd3b
00000380: 5e49 e43d a278 3bbd 9666 b5bd 82a1 a9bd
00000390: 798d 6c3d 98d9 f0bd 1e31 c13d a4a0 b8bd
000003a0: f2df 6f3d 4ded 983d 7ad1 3abe 270a 543d
000003b0: 9075 a0bd 22ba 99bc c220 4bbd 3ba1 ca3d
000003c0: bf18 fcbd e2a4 0cbe 686c d43d f3e4 7b3c
000003d0: 04a2 093d 8f1e a1bd 8a1b 03bd 8b6e 28bd
000003e0: 6bd0 183e 8142 c23d 7f44 a73d aca2 86bd
000003f0: d30f fd3d 8855 acbd fbd7 3ebc 0bd8 c7bb
-0.021589437 -0.07625409 -0.18586285 -0.00083733373 0.11324467 -0.01817696 -0.11445484 0.05812133
0.018170478 -0.19606023 -0.0157255 -0.048108935 -0.093763724 -0.061403353 0.15155368 -0.121232584
0.016425412 -0.09071261 -0.019966766 -0.0792207 0.028855091 -0.15657356 -0.13640669 -0.06496946
0.012676482 -0.01816932 0.036653925 0.04933697 0.047492675 -0.005097822 -0.20327455 0.07479243
-0.0075256363 -0.04782192 -0.15154015 0.000115890674 0.004968603 0.18661825 0.106708914 0.13737085
0.051872395 -0.036871057 -0.0606311 -0.07641135 -0.057979207 0.055506345 -0.021383366 0.012975608
0.086713746 -0.01215994 0.16196543 0.056258023 -0.023572007 -0.029923258 0.022361353 -0.043476906
-0.018615285 -0.050231144 0.08980467 -0.0124130305 -0.014052772 0.031203408 0.077440806 0.045558613
0.04342846 -0.055257484 -0.060309254 0.1437061 0.08444594 -0.056602605 0.010764819 -0.055516727
0.03519822 -0.122339666 -0.1810006 0.020858046 0.046064988 0.06002092 -0.03633604 0.04398748
0.092402846 0.048540313 -0.021460276 0.015160417 0.08219946 0.04000831 -0.010844292 -0.13536204
0.18599372 -0.085771576 0.0048300973 0.1550303 -0.07623116 -0.115023054 -0.034197357 -0.03868947
-0.042810638 0.07065417 -0.053070772 0.08496715 -0.06734681 -0.038121175 0.0565239 -0.047290258
0.08115302 0.07780913 0.20245738 -0.16556613 0.026157819 -0.14446208 -0.08695353 -0.123927094
-0.05337423 -0.16779965 -0.03026545 -0.052650284 0.031888396 -0.06747431 0.09401251 0.096041515
-0.10739323 0.048117988 0.023589557 0.09210082 0.11943562 0.03368564 -0.06966953 0.033257604
-0.13074785 -0.14438789 -0.10470259 -0.0569888 0.058494885 -0.019954376 0.007287217 -0.19601142
-0.021893786 0.22152531 -0.105140865 -0.08059432 -0.17996274 0.012357558 -0.06731848 -0.07844228
0.047601197 0.07676743 0.08386578 0.07462882 0.008006796 0.15249945 -0.13688534 -0.206998
-0.09901774 -0.19114944 0.13632789 0.12281136 0.14110683 -0.026888799 -0.13301152 -0.0836517
0.060701676 -0.118012235 -0.003879027 0.049035292 0.077934355 0.05322524 0.078144215 0.022798372
0.014733951 0.03075104 0.028199067 0.11714403 -0.015267088 0.061118286 0.10947648 0.036457222
-0.017963715 0.034188703 0.064597115 0.07608054 0.015533998 -0.048603673 0.07101781 0.23689897
-0.17222226 0.11555927 0.031950828 0.020576969 -0.05049959 -0.043912053 -0.045283675 -0.03259003
0.008134279 -0.05821356 0.11927221 0.08280979 -0.037207544 -0.06286265 -0.0379455 -0.11584919
-0.047214027 -0.02477631 -0.11473648 0.027857818 -0.04494759 -0.09356251 0.031203398 0.06023541
-0.074157245 0.026456498 0.12690642 -0.19457655 -0.09094717 0.078329004 -0.004397681 0.07765618
0.004062466 0.095126934 0.16151139 -0.059553485 0.08277392 -0.10887161 -0.04652649 0.007730165
0.11146806 -0.04576934 -0.08857457 -0.08282758 0.057752106 -0.11760253 0.094331965 -0.09015015
0.05856318 0.074671365 -0.18243971 0.051767495 -0.07834923 -0.018765513 -0.049591787 0.098940335
-0.123094074 -0.13734773 0.10372239 0.01537441 0.033601776 -0.07867157 -0.032008685 -0.041121047
0.14923255 0.09485341 0.081673615 -0.06573996 0.12356534 -0.08414751 -0.011648173 -0.0060987524

network_body._body_endoder.seq_layers.2.bias f4 [128]
00000000: 0000 0000 0000 0000 0000 0000 0000 0000
00000010: 0000 0000 0000 0000 0000 0000 0000 0000
00000020: 0000 0000 0000 0000 0000 0000 0000 0000
00000030: 0000 0000 0000 0000 0000 0000 0000 0000
00000040: 0000 0000 0000 0000 0000 0000 0000 0000
00000050: 0000 0000 0000 0000 0000 0000 0000 0000
00000060: 0000 0000 0000 0000 0000 0000 0000 0000
00000070: 0000 0000 0000 0000 0000 0000 0000 0000
00000080: 0000 0000 0000 0000 0000 0000 0000 0000
00000090: 0000 0000 0000 0000 0000 0000 0000 0000
000000a0: 0000 0000 0000 0000 0000 0000 0000 0000
000000b0: 0000 0000 0000 0000 0000 0000 0000 0000
000000c0: 0000 0000 0000 0000 0000 0000 0000 0000
000000d0: 0000 0000 0000 0000 0000 0000 0000 0000
000000e0: 0000 0000 0000 0000 0000 0000 0000 0000
000000f0: 0000 0000 0000 0000 0000 0000 0000 0000
00000100: 0000 0000 0000 0000 0000 0000 0000 0000
00000110: 0000 0000 0000 0000 0000 0000 0000 0000
00000120: 0000 0000 0000 0000 0000 0000 0000 0000
00000130: 0000 0000 0000 0000 0000 0000 0000 0000
00000140: 0000 0000 0000 0000 0000 0000 0000 0000
00000150: 0000 0000 0000 0000 0000 0000 0000 0000
00000160: 0000 0000 0000 0000 0000 0000 0000 0000
00000170: 0000 0000 0000 0000 0000 0000 0000 0000
00000180: 0000 0000 0000 0000 0000 0000 0000 0000
00000190: 0000 0000 0000 0000 0000 0000 0000 0000
000001a0: 0000 0000 0000 0000 0000 0000 0000 0000
000001b0: 0000 0000 0000 0000 0000 0000 0000 0000
000001c0: 0000 0000 0000 0000 0000 0000 0000 0000
000001d0: 0000 0000 0000 0000 0000 0000 0000 0000
000001e0: 0000 0000 0000 0000 0000 0000 0000 0000
000001f0: 0000 0000 0000 0000 0000 0000 0000 0000
0.0 0.0 0.0 0.0 0.0 0.0 0.0 0.0
0.0 0.0 0.0 0.0 0.0 0.0 0.0 0.0
0.0 0.0 0.0 0.0 0.0 0.0 0.0 0.0
0.0 0.0 0.0 0.0 0.0 0.0 0.0 0.0
0.0 0.0 0.0 0.0 0.0 0.0 0.0 0.0
0.0 0.0 0.0 0.0 0.0 0.0 0.0 0.0
0.0 0.0 0.0 0.0 0.0 0.0 0.0 0.0
0.0 0.0 0.0 0.0 0.0 0.0 0.0 0.0
0.0 0.0 0.0 0.0 0.0 0.0 0.0 0.0
0.0 0.0 0.0 0.0 0.0 0.0 0.0 0.0
0.0 0.0 0.0 0.0 0.0 0.0 0.0 0.0
0.0 0.0 0.0 0.0 0.0 0.0 0.0 0.0
0.0 0.0 0.0 0.0 0.0 0.0 0.0 0.0
0.0 0.0 0.0 0.0 0.0 0.0 0.0 0.0
0.0 0.0 0.0 0.0 0.0 0.0 0.0 0.0
0.0 0.0 0.0 0.0 0.0 0.0 0.0 0.0

action_model._continuous_distribution.log_sigma f4 [1, 2]
00000000: 0000 0000 0000 0000
0.0 0.0

action_model._continuous_distribution.mu.weight f4 [2, 128]
00000000: 95bf ffbc a697 af3c 7121 0d3d acf7 c6ba
00000010: 53a8 21bc 65bf df3b bad8 bebc 8f37 61bb
00000020: ca53 013c eba2 a53b 7739 9e3c 4756 0f39
00000030: 4780 dbbb b76e e6bc 0de5 e53c 9901 b13b
00000040: ad76 28bd eae4 5b3c 7b95 77bc e36d c93c
00000050: 3fd7 ba3b a24b a13c 10b1 5fbc c749 7f3b
00000060: 16b6 993b c32b 253c a05d ee3a 2fab a0bb
00000070: bd99 cf3a b39a 91bc 4764 4d3c ebe4 1d3d
00000080: bfe3 8c3c 7753 bcbb d5ff 913a 1f7c 93bc
00000090: 0675 343b 402c 473b 1791 883a f19d 1a3c
000000a0: cf07 1fbc 0bcb 84bc bd6a 5a3c 0389 c13c
000000b0: 6d34 cebc 6a1c 2f3d ed23 2f3c fd6b c2bb
000000c0: 4f20 93bc 408c d2bc 80f2 0d3c 9043 02bd
000000d0: 7bd7 b4bc 8897 263c 6748 563c 3919 1f3d
000000e0: 5bbf fe3b 5ff2 d83a 7798 e63c c8c7 893b
000000f0: 41f2 0f3c 7a83 033d 6c22 96bb 4812 c83c
00000100: 484d 683c df04 a23c 6ca8 a33b d1b1 bb3c
00000110: 1de6 8ebc 2b2c 1a3c fb37 97bb 3350 dc3b
00000120: a8b5 00bc a98c 913c 1202 2fbc 8331 32bc
00000130: d2db ffbb 4029 573c ac90 973b 424a 763b
00000140: 4831 d3bc 64f5 83bc bc72 39bc 6358 13bc
00000150: 5fb2 39bc 1a58 e13b 7bc4 89bc 7af1 7dbb
00000160: 859d 04bd 706a 403b 624d a8bb bfb6 b03c
00000170: 8be2 f93b 5256 a13c 5794 1ebc 11fe 983c
00000180: c6c0 013c c57e ab3b 1001 6cbb 30ac a33c
00000190: 235d 15bd 4429 123d c015 6d3c ca88 913c
000001a0: 18e2 4e3c a3c3 783c 4adb afba 122a 1f3c
000001b0: ef13 2abc 0e6c 423c 1818 4bbd 4c28 0fbc
000001c0: 8d8e 8abc 387d 683b 8d57 523d 3f27 cc3c
000001d0: 4b99 c53c 5b42 153d bb55 023d cb23 293d
000001e0: 04f4 0abb 4f9b 07bb 2fdd 2cbc af8b 493c
000001f0: f391 35bc a71c 69bc 229a 3fba 57fc b4bc
00000200: 31e8 24bc b42a adbc 32bd a6bc 0b71 b2bb
00000210: 4c0e 99bc e4c4 a3bc 4bcc 7e3d da57 ce3c
00000220: 8b53 a8bc 4a32 e3bc 443a 113c 32d4 e7bc
00000230: 828d 2fbc acfe 3dbc ef03 04bd 85d1 e6bb
00000240: a670 3f3a eb42 85bc fae3 fdbb ba8a e1bc
00000250: 6bfa 8bbc c5dd b83b f874 b53b 8747 10bb
00000260: 4f4a 2d3b 6a24 51bc 6df7 e23c b251 fd3b
00000270: c043 3e3d 4448 973a 8ec3 ab3c fa6e 9bbb
00000280: 933b 763a 2321 5cbb 3818 95ba 7766 6fbc
00000290: a505 3f3d 73e4 33bd d2d1 e43c ad62 3abc
000002a0: 70b1 1d3c 1827 b63b cc6b a2bc b4e5 9a3c
000002b0: 6815 763b 1c83 a5bb 5adb 7bbc b537 f1bc
000002c0: 41b8 013c 971f dabb a065 8539 5bd4 96bb
000002d0: aa7f c53a 7771 363c 58ac a53c dfdb d13b
000002e0: 5271 b83c 4add b2bb e315 89ba 92ea 7ebb
000002f0: 23b9 c03c a4d5 0b3b 2ac3 2cbb b09f 95bb
00000300: 9fda 92bc ae81 17bc b9ee 833d 8562 a3bc
00000310: 6380 a7bb 0bc5 ba3c 125d 50bc 35cf 74bc
00000320: a875 5c3c 8b1d 1e3b 23c4 bd3c f6b6 053d
00000330: 671c a53c c8e9 55bc 2689 923a 4ff8 bfba
00000340: a501 ef3b 56cf 49bc a749 c23c ea32 433c
00000350: b273 37bd 8bea e2bb 3c35 0bbd 6c89 90bc
00000360: f5f6 4f3c cb7f 923c 485e 5aba a7a9 f9bc
00000370: 3da2 dabc 3298 31bd 7861 16bd af48 943c
00000380: c2ac a4bc 02e4 cd3b 1332 6d3c c2a1 753c
00000390: 2f55 673b 8577 a5bc 8617 94bc 3d0c 16bd
000003a0: 57b8 67bc 8a38 e93c 9d36 b3bc c7c1 94ba
000003b0: 7323 9ebc a63c 0cbc d9f5 32bc 1a94 7fbc
000003c0: ccbf 853b 97b1 e93b 14d1 99bb 9233 0a3d
000003d0: 5fb9 66bc 6e4a 8abb 9609 323c 8b18 e33c
000003e0: 579c b53a ab45 423d 00fa 73bc fbf7 00bd
000003f0: a73b 56bb 54c0 9ebc 67d4 7bbc c5bc 67bc
-0.031219283 0.021434616 0.03445572 -0.0015180013 -0.009866792 0.006828236 -0.023296703 -0.003436539
0.007893512 0.0050548217 0.01931451 0.00013669684 -0.0066986415 -0.028128965 0.028063321 0.005401802
-0.041128803 0.013421277 -0.0151113225 0.02458853 0.005701929 0.019689385 -0.013653055 0.0038953887
0.004690896 0.010081234 0.0018185861 -0.004903219 0.0015838664 -0.017773962 0.012536115 0.03854839
0.017198442 -0.0057472545 0.0011138866 -0.018003521 0.0027535572 0.0030391365 0.0010419217 0.00943707
-0.009706452 -0.0162101 0.013331112 0.023624903 -0.025171483 0.042751707 0.010689718 -0.0059332834
-0.017959742 -0.025701642 0.008663774 -0.031802714 -0.022075405 0.010167964 0.0130787855 0.038842414
0.007774276 0.0016551724 0.028148873 0.004204724 0.008785785 0.032107808 -0.00458174 0.02442278
0.014178582 0.019777713 0.0049944427 0.022911938 -0.017443711 0.0094099445 -0.0046148277 0.0067234277
-0.00785581 0.017767267 -0.010681646 -0.010876062 -0.007808187 0.013132393 0.0046254005 0.0037580882
-0.025780335 -0.016108222 -0.011318859 -0.008993241 -0.011334031 0.0068769576 -0.016817322 -0.0038748668
-0.032376785 0.0029360317 -0.005136178 0.021571515 0.007625883 0.019694481 -0.009678922 0.018675836
0.007919496 0.005233618 -0.0036011375 0.019979566 -0.036465775 0.035683885 0.014470518 0.017765421
0.012627147 0.015183362 -0.0013416794 0.00971462 -0.010380729 0.011866583 -0.049583524 -0.008737635
-0.016913677 0.0035475027 0.051353026 0.024921058 0.024120947 0.036440235 0.03182004 0.0412939
-0.0021202574 -0.0020691936 -0.010550781 0.01230137 -0.01108216 -0.014228023 -0.00073090394 -0.022092981
-0.010065124 -0.021138526 -0.020353887 -0.0054456047 -0.018683575 -0.019991346 0.062206548 0.025188375
-0.020547649 -0.02773394 0.008863989 -0.028299425 -0.01071489 -0.011596363 -0.032230314 -0.0070440196
0.00073028577 -0.01626726 -0.007748124 -0.02753197 -0.017087182 0.0056416714 0.0055376254 -0.002201529
0.0026441996 -0.012765029 0.027705872 0.007730686 0.04645133 0.0011541923 0.020967271 -0.004743454
0.00093930325 -0.0033589087 -0.0011375016 -0.014611832 0.046636242 -0.043919038 0.027932081 -0.011376065
0.009624824 0.0055588596 -0.019826792 0.01890836 0.003754938 -0.00505103 -0.015372122 -0.029445508
0.007917465 -0.006656598 0.00025443453 -0.0046029515 0.0015067954 0.011135451 0.020223781 0.0064043845
0.022514973 -0.0054585086 -0.0010458793 -0.003889714 0.02352578 0.0021337057 -0.0026361444 -0.0045661554
-0.017926512 -0.009247227 0.06442017 -0.019944439 -0.0051117404 0.022799036 -0.012717502 -0.01494198
0.013455786 0.0024126496 0.023164814 0.03264519 0.020155145 -0.013056226 0.001117979 -0.0014646145
0.007293897 -0.012317499 0.02371676 0.011913994 -0.04478807 -0.0069249324 -0.033986315 -0.017643653
0.0126931565 0.017883202 -0.0008330089 -0.030476404 -0.02668869 -0.043358035 -0.036714047 0.018101064
-0.020101909 0.006283284 0.014477271 0.014992179 0.0035298576 -0.020198593 -0.018077623 -0.036632765
-0.014143071 0.028469343 -0.021876628 -0.0011349254 -0.019304013 -0.008559382 -0.010922872 -0.015599275
0.004081702 0.007131766 -0.0046941135 0.033740588 -0.014082282 -0.0042202985 0.010866543 0.027721664
0.0013855797 0.04742972 -0.014891148 -0.031486493 -0.0032689364 -0.019378819 -0.015370465 -0.014144127

action_model._continuous_distribution.mu.bias f4 [2]
00000000: 0000 0000 0000 0000
0.0 0.0

network_body._body_endoder.seq_layers.0.weight f4 [128, 32]
00000000: 4b38 753e 3feb c8bd b12c f93d 61bd 13bd
00000010: e6c3 23be 6150 37bd 5948 38be 9273 983d
00000020: bfd4 3cbb c07d 0d3e 6390 88be d15d c3be
00000030: 4225 78bd 092b bf3d 12fb 29be e0df c43d
00000040: c9cc f6bc 15d6 1f3e 0105 c6bc 8be5 983e
00000050: df75 0a3e 5bcc 143e dae2 cf3c 3b40 ca3c
00000060: 1ba7 763d addb fabd d380 823e 62df 943e
00000070: 1883 b23e 737e f23d 5c8e eebd 7d17 6dbe
00000080: d6bb 9b3e 9d1d 94be ff30 2dbe 676a 013e
00000090: 3a12 0c3e 4dbe 14be f357 3c3e 157f 2c3e
000000a0: 5cb8 c5be abd9 d3bc cd06 16bc d786 583e
000000b0: 4d10 58be a90f 84be 3022 c73d bd80 3c3e
000000c0: 36f9 d1be dffb d73d 0cf5 cbbc cdc1 a4be
000000d0: 8fc2 c73c 9d50 273e 1136 29be 2f36 cf3d
000000e0: 8e3f 03be dce6 703e c174 b8bd 75dd c6be
000000f0: 3773 5c3b a44d 803b 9b01 16bd deac 0a3d
00000100: c376 e53d be32 883e 3e8c 533e 0bd3 ff3d
00000110: 89ac b73e a748 653e f64c 40bd 2804 d4bd
00000120: 8f36 153e 38c0 a0bd 15a4 b83d 83ce b53d
00000130: 3122 e83d 1958 afbd 97db 003e 19b7 043e
00000140: 36e0 d63c ad95 9fbe 5e67 133e 1948 09bb
00000150: 0272 48be 05e2 89bc 0b7c 503e f6de c1bd
00000160: 46c7 b03e 1fb6 a43b e7b7 f3bc 0747 783d
00000170: 71c4 ad3e ab10 b13d 5a36 00be bac7 38bf
00000180: 619b 003e 12de 4c3e 3442 503c 25f2 393e
00000190: de9a e1bd 0f55 b1be 6ba8 5f3d e9a7 93be
000001a0: 0e9d f2bd 2414 113d 4697 933d d780 063e
000001b0: 59e5 8e3c 214c 86bd 81bf 2c3d ec5d 193d
000001c0: 9579 6bbd 61d5 2ebd 3111 813d 6c89 e03d
000001d0: 7a3c 983e 49e2 abbd b5f7 183a a57f 533e
000001e0: 9a0c ae3e 9022 0e3d d885 bcbd e74c 15be
000001f0: ede8 103e 61d1 ca3d 98c7 86be 198a 7dbe
00000200: 5882 823e 73a7 5d3d f945 303e cd06 ddbb
00000210: 1929 573e 3eed 113e ccda 94bd 31c6 2fbe
00000220: a90e 1c3e 830c a73e b5d4 5b3e d609 03be
00000230: 9a9f 86be bee7 9b3c 2340 783e aee2 2a3e
00000240: 4b22 c3bd 398b 9dbe 0412 bbbd 9119 3cbd
00000250: 1653 8e3e e494 023e aaf2 89be 89d2 4abe
00000260: 1b75 b13d 24d6 a0bd 4b03 f7bd 4985 3dbe
00000270: 1ea7 9cbe 1b59 493e 5c92 113f 0923 dcbd
00000280: 89d2 07be 6b00 fbbd ff84 77bc a042 133d
00000290: 3ca4 023e 1a65 6a3e 1f51 ff3c 8247 dfbc
000002a0: c9a4 88be 0311 883c 5217 f63c 03f9 9ebd
000002b0: 9b2c 263c 678e 583e d31d e03c 7fe4 993c
000002c0: b902 1bbe 135e b4bd bec0 dfbd aed0 b83d
000002d0: a53e 0a3d 74ab ec3d 11b8 3d3e 0f38 a33e
000002e0: 23fc 44be 635f cc3c 56a1 283e 72b3 503d
000002f0: f27b d43e e5e2 8f3b 5dbf bd3a ac79 233e
00000300: 6032 b5bd 65c4 b9be a559 a4be bdfd 34bd
00000310: eaea 523b 4997 2c3e 4973 8dbe 1ec4 96bd
00000320: e38e c13e d7e3 f7bd 79d0 fbbd 5c57 973c
00000330: f1f2 af3e c7da e4bc c0f1 65bd c8e2 05be
00000340: faca 40be 4ad6 79be 6baf 923d 8171 32bd
00000350: b94f 26be eb18 093d 2be4 eabd 4660 15be
00000360: 12be 623e a581 95be 7c94 a03e 9c78 c1bd
00000370: eb8c 3b3d 09c2 b1bd ef6a e73b 3838 37be
00000380: 1876 7dbd 1303 353e 9350 303e ea7f 58be
00000390: eb75 89be 5136 99bc 6f22 acbe 73bb bcbd
000003a0: d158 3fbe 1b0d abbe ad50 ccbe 4656 80bc
000003b0: 07aa 743e e286 a43e ad61 b53d cd96 85bc
000003c0: 842a f13d d81e d6bc f217 003e d079 11be
000003d0: 5d74 323e d0c4 743e 8744 a03d 9c3f 183e
000003e0: c854 adbe c361 6c3e 37d0 ed3d b22a d7bd
000003f0: 9808 413e 81bb 1fbd 9a43 8b3d 238c 07be
0.23947255 -0.09810495 0.12166727 -0.036069278 -0.15992698 -0.04475439 -0.17996348 0.07443918
-0.002881333 0.13817501 -0.26672658 -0.38157514 -0.060582407 0.0933438 -0.16599682 0.09613013
-0.030126946 0.1560901 -0.024172308 0.29862627 0.13521527 0.1453108 0.025376726 0.02468883
0.060217958 -0.12248931 0.2548891 0.29076678 0.34865642 0.118405245 -0.11648247 -0.23153491
0.30416745 -0.28928843 -0.16913222 0.12638246 0.13678828 -0.14525719 0.18392925 0.16845353
-0.38617218 -0.025860628 -0.009156895 0.21145187 -0.21099968 -0.25793198 0.097233176 0.18408485
-0.41010445 0.105460875 -0.02489712 -0.32179108 0.024384765 0.16339345 -0.16524531 0.101177566
-0.12817213 0.23525566 -0.09006644 -0.38840833 0.003363801 0.0039155055 -0.036622625 0.033856265
0.112042926 0.26601213 0.20658967 0.12491425 0.3587382 0.22390996 -0.046948396 -0.10352355
0.14571594 -0.07849163 0.09015671 0.088772796 0.113346465 -0.08561725 0.12583767 0.12960471
0.026229959 -0.3116888 0.143949 -0.0020947515 -0.1957474 -0.016831407 0.20359819 -0.094663545
0.34527034 0.0050265933 -0.029750777 0.060614612 0.33938935 0.08645757 -0.12520733 -0.7217976
0.12559272 0.20006588 0.012711097 0.18158777 -0.11015867 -0.34635207 0.054603975 -0.28839043
-0.11846362 0.0354196 0.072065875 0.13135086 0.017443346 -0.06557489 0.04217482 0.037443087
-0.057488997 -0.042683963 0.06302107 0.10963711 0.2973364 -0.0839277 0.0005835251 0.20654161
0.3399399 0.03470093 -0.09205216 -0.14580117 0.14151354 0.09903217 -0.26324153 -0.24759711
0.2549007 0.05411477 0.17214192 -0.0067451955 0.21011771 0.14250657 -0.07268295 -0.17165448
0.15239967 0.32626733 0.2146786 -0.12796721 -0.2629364 0.019031402 0.24243216 0.16688034
-0.09528025 -0.3077028 -0.091342956 -0.04592282 0.27797765 0.1275211 -0.2694295 -0.19806875
0.08664914 -0.07853344 -0.12061175 -0.18507876 -0.3059625 0.19662897 0.5686395 -0.1074887
-0.13263907 -0.12255939 -0.015107392 0.03595221 0.12757963 0.2289013 0.031166611 -0.027255777
-0.2668822 0.016609674 0.030040417 -0.07762339 0.010142471 0.21148072 0.027357971 0.018785713
-0.15137757 -0.08807006 -0.109254345 0.090241775 0.03375115 0.115561396 0.18527247 0.31878707
-0.19236808 0.024947828 0.16467795 0.050952382 0.41500813 0.0043910616 0.0014476586 0.15964383
-0.08847499 -0.3628265 -0.32099643 -0.044187296 0.0032183477 0.16854586 -0.27627018 -0.07361625
0.37804326 -0.12104004 -0.122956224 0.018474273 0.34365037 -0.027936352 -0.056138754 -0.13074791
-0.1882743 -0.24398151 0.071623646 -0.043565277 -0.1624135 0.03347103 -0.11469301 -0.14587507
0.22142819 -0.29200473 0.31363285 -0.094468325 0.045788687 -0.086795874 0.007062308 -0.1789254
-0.0618802 0.17676954 0.17218237 -0.21142545 -0.26847777 -0.018702658 -0.3362002 -0.092154406
-0.18686225 -0.33408436 -0.399053 -0.015666138 0.23892985 0.32134157 0.08856521 -0.016307259
0.11775687 -0.026137754 0.12509134 -0.14206624 0.17427202 0.23903203 0.078255706 0.14868015
-0.33853745 0.23084168 0.116119795 -0.1050619 0.18850935 -0.038997177 0.06800003 -0.13237052

network_body._body_endoder.seq_layers.0.bias f4 [128]
00000000: 0000 0000 0000 0000 0000 0000 0000 0000
00000010: 0000 0000 0000 0000 0000 0000 0000 0000
00000020: 0000 0000 0000 0000 0000 0000 0000 0000
00000030: 0000 0000 0000 0000 0000 0000 0000 0000
00000040: 0000 0000 0000 0000 0000 0000 0000 0000
00000050: 0000 0000 0000 0000 0000 0000 0000 0000
00000060: 0000 0000 0000 0000 0000 0000 0000 0000
00000070: 0000 0000 0000 0000 0000 0000 0000 0000
00000080: 0000 0000 0000 0000 0000 0000 0000 0000
00000090: 0000 0000 0000 0000 0000 0000 0000 0000
000000a0: 0000 0000 0000 0000 0000 0000 0000 0000
000000b0: 0000 0000 0000 0000 0000 0000 0000 0000
000000c0: 0000 0000 0000 0000 0000 0000 0000 0000
000000d0: 0000 0000 0000 0000 0000 0000 0000 0000
000000e0: 0000 0000 0000 0000 0000 0000 0000 0000
000000f0: 0000 0000 0000 0000 0000 0000 0000 0000
00000100: 0000 0000 0000 0000 0000 0000 0000 0000
00000110: 0000 0000 0000 0000 0000 0000 0000 0000
00000120: 0000 0000 0000 0000 0000 0000 0000 0000
00000130: 0000 0000 0000 0000 0000 0000 0000 0000
00000140: 0000 0000 0000 0000 0000 0000 0000 0000
00000150: 0000 0000 0000 0000 0000 0000 0000 0000
00000160: 0000 0000 0000 0000 0000 0000 0000 0000
00000170: 0000 0000 0000 0000 0000 0000 0000 0000
00000180: 0000 0000 0000 0000 0000 0000 0000 0000
00000190: 0000 0000 0000 0000 0000 0000 0000 0000
000001a0: 0000 0000 0000 0000 0000 0000 0000 0000
000001b0: 0000 0000 0000 0000 0000 0000 0000 0000
000001c0: 0000 0000 0000 0000 0000 0000 0000 0000
000001d0: 0000 0000 0000 0000 0000 0000 0000 0000
000001e0: 0000 0000 0000 0000 0000 0000 0000 0000
000001f0: 0000 0000 0000 0000 0000 0000 0000 0000
0.0 0.0 0.0 0.0 0.0 0.0 0.0 0.0
0.0 0.0 0.0 0.0 0.0 0.0 0.0 0.0
0.0 0.0 0.0 0.0 0.0 0.0 0.0 0.0
0.0 0.0 0.0 0.0 0.0 0.0 0.0 0.0
0.0 0.0 0.0 0.0 0.0 0.0 0.0 0.0
0.0 0.0 0.0 0.0 0.0 0.0 0.0 0.0
0.0 0.0 0.0 0.0 0.0 0.0 0.0 0.0
0.0 0.0 0.0 0.0 0.0 0.0 0.0 0.0
0.0 0.0 0.0 0.0 0.0 0.0 0.0 0.0
0.0 0.0 0.0 0.0 0.0 0.0 0.0 0.0
0.0 0.0 0.0 0.0 0.0 0.0 0.0 0.0
0.0 0.0 0.0 0.0 0.0 0.0 0.0 0.0
0.0 0.0 0.0 0.0 0.0 0.0 0.0 0.0
0.0 0.0 0.0 0.0 0.0 0.0 0.0 0.0
0.0 0.0 0.0 0.0 0.0 0.0 0.0 0.0
0.0 0.0 0.0 0.0 0.0 0.0 0.0 0.0

network_body._body_endoder.seq_layers.2.weight f4 [128, 128]
00000000: 0017 0cbd dbb8 303e 0a2a 4a3c d3c2 46bd
00000010: 9d22 20be c138 95bd ab07 bd3d 2dd6 073d
00000020: 25ae 473d e4b4 7c3d 47f8 aebc 365b 0b3e
00000030: 90f7 443c 589e 30bd d46a f3bb a3b5 033e
00000040: 7c9f 05bd 1680 39bd 353b 0b3e 4e6f 853b
00000050: 2450 c53d ffae 90bd fcf8 09bc 5cf4 efbd
00000060: 52fd f4bd 89e4 7fbd c469 8c3d 6b0b bbbc
00000070: ab52 8c3d e25d d4bd 1bdb febd 955b d13c
00000080: 1f40 0bbe 867e 29be 6422 0f3e fb2c 4dbd
00000090: 573d 2c3e 6de7 883d 4333 093d 7dba 8b3d
000000a0: 800e 9ebd 58e6 42be ad82 48bd c20e 23be
000000b0: 9999 fa3c 3f56 91bd 1d3c 2abd 2e18 a93d
000000c0: 9617 d1bc 851a 313d a7f5 f4bc b985 393e
000000d0: 08c0 913c 78ec e1bd a6b9 ddbd 7bf8 edbd
000000e0: 45a7 c8bc ca99 82bd cc84 aebc 5884 debd
000000f0: dccd 323d aab6 8dbd 28d2 64bb e8cf 4c3d
00000100: 73e4 ac3d 45b3 213d b817 813d 9bac 9fbd
00000110: d43d 86bd 69b8 563b 2d31 7ebd 867c 2fbe
00000120: cb1b 5fbd 08b7 103e 627b 5cbd bb07 b0bd
00000130: 5ae2 0bbe 9bbd 33bc 66a8 a93b 6ef7 9ebd
00000140: b7e8 78bd 19cd 18bc f5e2 d43c b62b 793d
00000150: 05c9 073e 6884 123d 3b5c 94bd d2b2 133e
00000160: 8746 9b3d f50d 20bd 3824 84bd a38e 263d
00000170: 9654 3e3b fb12 02be e17c 843d c9ce 28bc
00000180: 1729 d13d 04a5 a13d ab1b 4fbd 68b9 5d3c
00000190: 783f d0bc ead5 09bd bcbf 193e b6b4 08bd
000001a0: 4fb4 e43b 66f8 a73d e21a f43d 0151 d4ba
000001b0: 7788 0b3e 9b46 d03d 475f 53bc 9c8a c73c
000001c0: cd2d a4bd f9c5 0a3e 67cb 7f3d 3d4d 94bc
000001d0: 9ae0 97bb bce0 ff3c 014d 763d 2e05 b6bd
000001e0: 8998 90bc cdc1 a33d 8a76 9a3c 7bbb abbd
000001f0: c4df 08be 1ffc 493e bdb3 343d 8f41 bf3c
00000200: b7ce ec3d 9c9e 893d 88c7 9b3d 67be a43d
00000210: 8135 0d3e 5952 953c baa7 ff3d 595f 30be
00000220: 5d06 853c ae71 9fbd 96c9 72bc e073 2c3d
00000230: dad8 b0bc 9b5a 4cbd 2557 423d 5942 bb3c
00000240: 87ff 10bd 3168 233e 9ae2 4d3e f847 ca3d
00000250: f3ce 89bd 5cef 48bd 4050 143e 0226 ae3d
00000260: 93ea 3dbd 6542 41bc 450a f7bb e0fb 793e
00000270: 7fa4 193e ef83 d0bd 77e7 003e 503b 92bc
00000280: 70b6 2f3d f2ef 71bd c441 c93c 17a2 863d
00000290: dafa d03c 840d 5ebd 22b4 003e 4d93 aebd
000002a0: e85b 203d b1c1 433d 5fa7 1e3e 0e05 bcbd
000002b0: 9f91 ac3d 38dc 073d 2aa2 083d 8b61 083d
000002c0: 6311 d03c 712f 2c3d 408a 07bd 739c 163c
000002d0: 6184 a13d 0ffa 953d de46 243e df1d fa3d
000002e0: 91bf abbd 9494 283d 887b a2bd 1281 fe3d
000002f0: a9aa 1bbd 7b1b f7bc 8099 d73d 9372 1b3c
00000300: 030c bb3d 8c51 0f3d f692 16bd ed10 cbbc
00000310: f153 2d3c 38d4 73bd b423 4c3d 29a8 bbbd
00000320: f183 17be a8a8 36bd fc96 793c 7187 263d
00000330: 7ccc 71bd 792e a33d 0204 d2bd adac 413d
00000340: 83f3 9a3d a787 4b3d 0b75 13be 4253 e0bc
00000350: 96ba d63d 5919 7b3d 4cb7 4fbe 600d 40bd
00000360: a313 0cbc 7dd0 2f3e 1c02 c13d 7ee2 57bd
00000370: 9bc7 8c3d 4443 653d ddbd 4d3d 4962 b0bb
00000380: 16d9 95ba 5408 bdbd fd26 5c3e 7b0f 193d
00000390: 7904 8ebd 5ca3 3abe a63b 6a3e 577b d9bd
000003a0: d4e1 b6bd 26bb e6bd fa4b 723d fc18 c8bc
000003b0: d609 e9bc a175 1ebd bd9f 873d ba33 12bc
000003c0: e1ec b73c 3ecf 35bd f39d 06be 88a8 91bd
000003d0: 0d46 d0bc 172e d4bb 3910 d23d b53b 34bd
000003e0: 57f2 d13b 6b1b ddbc 41af 81bd bbd5 a5bd
000003f0: 2421 be3d 16f4 86bd 4d16 8dbd df7e bfbd
-0.034201622 0.17258017 0.012339124 -0.048525643 -0.15638204 -0.072862156 0.09229978 0.03316324
0.04875006 0.06169595 -0.021358622 0.13609013 0.012021914 -0.04311976 -0.0074285064 0.12862258
-0.0326228 -0.045288168 0.13596804 0.0040721064 0.09634426 -0.07064628 -0.008421179 -0.1171653
-0.119623795 -0.062473807 0.06856111 -0.022832593 0.06851705 -0.10369469 -0.12444135 0.025556365
-0.13598679 -0.16552171 0.13977963 -0.050091725 0.16820274 0.06684766 0.033496153 0.06822679
-0.077176094 -0.19033182 -0.048952747 -0.15923598 0.03059082 -0.07096528 -0.041561235 0.08256565
-0.025523942 0.04323818 -0.029902292 0.18117417 0.017791763 -0.11031431 -0.10826425 -0.116196595
-0.024493823 -0.06376989 -0.021303557 -0.10865086 0.043653354 -0.06919606 -0.0034915302 0.050002962
0.08442011 0.039477605 0.06303352 -0.07796594 -0.065547615 0.0032763726 -0.062058616 -0.17137346
-0.054469865 0.14132321 -0.053828605 -0.085952245 -0.13660565 -0.010970498 0.0051775454 -0.07762037
-0.06076881 -0.009326243 0.025987128 0.0608327 0.13260277 0.035770804 -0.07244154 0.14423683
0.075818114 -0.03907581 -0.06452221 0.040663373 0.0029042116 -0.12702553 0.06469131 -0.010303208
0.102129154 0.07892802 -0.050563496 0.013532974 -0.02542089 -0.03365127 0.15014547 -0.033375464
0.0069795023 0.08201675 0.1191919 -0.0016198457 0.13626276 0.10169717 -0.012901134 0.024358086
-0.08016548 0.13552083 0.06244984 -0.018103236 -0.004634929 0.031235091 0.06013203 -0.08887707
-0.01765086 0.07995949 0.018855352 -0.083853684 -0.1336661 0.19725083 0.044116724 0.02334669
0.11562865 0.067197055 0.07606417 0.08044129 0.13789941 0.018227743 0.12483163 -0.17223872
0.016238386 -0.077853546 -0.01481857 0.042102695 -0.021587778 -0.049891096 0.04744639 0.022858785
-0.03539994 0.15957715 0.20105973 0.09877008 -0.067289256 -0.049056396 0.14483738 0.08503343
-0.046366286 -0.011795615 -0.007539066 0.24412489 0.15004157 -0.10181414 0.12588297 -0.017850548
0.042898595 -0.05906672 0.024567492 0.06573885 0.02551024 -0.05421211 0.12568715 -0.08524189
0.03915015 0.04779214 0.15493535 -0.091806516 0.084262125 0.033169 0.033357777 0.03329615
0.025398916 0.04203743 -0.03309083 0.009192574 0.078865774 0.073230855 0.16042659 0.12212729
-0.08386148 0.04115732 -0.07933718 0.12426962 -0.03800455 -0.03016447 0.10527325 0.009487766
0.091331504 0.03498988 -0.036761247 -0.024788344 0.010579095 -0.05952856 0.049838737 -0.091629334
-0.14796425 -0.044594437 0.015233751 0.04065651 -0.059032902 0.07967848 -0.10254671 0.047283817
0.075659774 0.049689915 -0.14400117 -0.02738345 0.10484807 0.06130347 -0.20284766 -0.046887755
-0.008549604 0.17169376 0.094242305 -0.052706234 0.06874009 0.055972353 0.050229896 -0.0053828103
-0.0011432495 -0.09230104 0.21499248 0.03736828 -0.06934447 -0.18226379 0.22874317 -0.10619228
-0.08929792 -0.112661645 0.05915449 -0.024425976 -0.028447073 -0.0386864 0.066222645 -0.008923465
0.02245182 -0.044387095 -0.1314619 -0.07112223 -0.025424028 -0.006475221 0.102570005 -0.044002254
0.006407063 -0.026990613 -0.06332255 -0.080974065 0.09283665 -0.065895244 -0.06889019 -0.093503706

network_body._body_endoder.seq_layers.2.bias f4 [128]
00000000: 0000 0000 0000 0000 0000 0000 0000 0000
00000010: 0000 0000 0000 0000 0000 0000 0000 0000
00000020: 0000 0000 0000 0000 0000 0000 0000 0000
00000030: 0000 0000 0000 0000 0000 0000 0000 0000
00000040: 0000 0000 0000 0000 0000 0000 0000 0000
00000050: 0000 0000 0000 0000 0000 0000 0000 0000
00000060: 0000 0000 0000 0000 0000 0000 0000 0000
00000070: 0000 0000 0000 0000 0000 0000 0000 0000
00000080: 0000 0000 0000 0000 0000 0000 0000 0000
00000090: 0000 0000 0000 0000 0000 0000 0000 0000
000000a0: 0000 0000 0000 0000 0000 0000 0000 0000
000000b0: 0000 0000 0000 0000 0000 0000 0000 0000
000000c0: 0000 0000 0000 0000 0000 0000 0000 0000
000000d0: 0000 0000 0000 0000 0000 0000 0000 0000
000000e0: 0000 0000 0000 0000 0000 0000 0000 0000
000000f0: 0000 0000 0000 0000 0000 0000 0000 0000
00000100: 0000 0000 0000 0000 0000 0000 0000 0000
00000110: 0000 0000 0000 0000 0000 0000 0000 0000
00000120: 0000 0000 0000 0000 0000 0000 0000 0000
00000130: 0000 0000 0000 0000 0000 0000 0000 0000
00000140: 0000 0000 0000 0000 0000 0000 0000 0000
00000150: 0000 0000 0000 0000 0000 0000 0000 0000
00000160: 0000 0000 0000 0000 0000 0000 0000 0000
00000170: 0000 0000 0000 0000 0000 0000 0000 0000
00000180: 0000 0000 0000 0000 0000 0000 0000 0000
00000190: 0000 0000 0000 0000 0000 0000 0000 0000
000001a0: 0000 0000 0000 0000 0000 0000 0000 0000
000001b0: 0000 0000 0000 0000 0000 0000 0000 0000
000001c0: 0000 0000 0000 0000 0000 0000 0000 0000
000001d0: 0000 0000 0000 0000 0000 0000 0000 0000
000001e0: 0000 0000 0000 0000 0000 0000 0000 0000
000001f0: 0000 0000 0000 0000 0000 0000 0000 0000
0.0 0.0 0.0 0.0 0.0 0.0 0.0 0.0
0.0 0.0 0.0 0.0 0.0 0.0 0.0 0.0
0.0 0.0 0.0 0.0 0.0 0.0 0.0 0.0
0.0 0.0 0.0 0.0 0.0 0.0 0.0 0.0
0.0 0.0 0.0 0.0 0.0 0.0 0.0 0.0
0.0 0.0 0.0 0.0 0.0 0.0 0.0 0.0
0.0 0.0 0.0 0.0 0.0 0.0 0.0 0.0
0.0 0.0 0.0 0.0 0.0 0.0 0.0 0.0
0.0 0.0 0.0 0.0 0.0 0.0 0.0 0.0
0.0 0.0 0.0 0.0 0.0 0.0 0.0 0.0
0.0 0.0 0.0 0.0 0.0 0.0 0.0 0.0
0.0 0.0 0.0 0.0 0.0 0.0 0.0 0.0
0.0 0.0 0.0 0.0 0.0 0.0 0.0 0.0
0.0 0.0 0.0 0.0 0.0 0.0 0.0 0.0
0.0 0.0 0.0 0.0 0.0 0.0 0.0 0.0
0.0 0.0 0.0 0.0 0.0 0.0 0.0 0.0

value_heads.value_heads.extrinsic.weight f4 [1, 128]
00000000: 3a91 52bc 865c efbd 445b ad3d c611 c9bd
00000010: caf2 063e 5310 d5bd dcac 4abe 3295 333e
00000020: 860d f23d 3b1f 5b3e f48f 01be 8af0 753b
00000030: ef2e 363e ad39 d83d 2540 3c3e 67f9 3bbe
00000040: 3ec5 babd 3c6a 59be 18ba 9cbb 2ab1 0abe
00000050: 1fc9 b1bd 3925 883d 1060 15bd 0301 1dbe
00000060: e209 a4bd 6f93 b9bd f4c2 1ebd 38f7 453e
00000070: 3179 01be 73ca 3d3e 3675 09be c47c e9bd
00000080: c756 25be 8bdd 1f3e 3274 573d 6522 6e3d
00000090: 33f1 863d 5898 fd3d 2456 85bc 61a6 d9bb
000000a0: cf46 80bd d9c9 663d 64d2 b7bd 3df2 2d3e
000000b0: 99f2 873d 40db bdbd e5ed 0ebe aafc eb3c
000000c0: 686b 2c3d f507 a1bd 6deb b53d a0b6 3b3e
000000d0: 1ee9 2ebe c4b7 213e 8ca9 debd a457 3bbe
000000e0: c520 f5bd 729d 3cbe f462 a13d bee0 c3bd
000000f0: 3b16 593e 3a5a 47be f6b2 aa3d 5b7a ef3d
00000100: d871 493e 2f0b 243e 7f86 e83d 40ad 0bbe
00000110: bc03 22be 7923 183c 2f77 33be c075 823c
00000120: 2a5b 8ebb 86b9 10be d467 1abd 89c7 cc3d
00000130: b496 17be 843f 913d 9505 893d 97e9 09be
00000140: 54fa bdbd 900b 20bd bdd9 a7bd e7e8 3abe
00000150: d820 ae3d 84f2 ccbd a5a6 463e 4529 76bd
00000160: c592 97bd 844c 4dbe 55dc 913b 7dd4 01bc
00000170: d938 a9bb 09e8 003d 786f 98bd d6f2 85bd
00000180: 2420 59bd 75ae 3b3d 6a61 0fbd f393 04bd
00000190: c3f0 66bd 70a3 95bd a358 3bbd 69c3 3f3c
000001a0: 24e0 29be 2eea 393d 0281 93bd 8a6a 97bc
000001b0: 69a2 2abd ce7a abbc d7f3 58be 9b1d 1d3e
000001c0: 221c 38be ad8e 173e eb31 193c ac4e 3ebd
000001d0: 31bc be3b c72e 37be a1fe 36be 15cb bcbc
000001e0: 8932 143d f957 2a3e 95ba 43be 5baf 193e
000001f0: b4d4 083e 9ff7 143e 4a00 97bd ab19 ed3c
-0.0128520075 -0.11687569 0.08464673 -0.09817843 0.13178554 -0.10403504 -0.19792503 0.17537382
0.11818986 0.21398632 -0.1265257 0.0037527406 0.17791341 0.10557876 0.18383844 -0.18356858
-0.09119652 -0.21231931 -0.0047829263 -0.13544145 -0.08680939 0.06647725 -0.036468565 -0.15332417
-0.080096975 -0.09061324 -0.03876014 0.19332588 -0.12643887 0.1853426 -0.13423619 -0.1140075
-0.16146384 0.15611856 0.052601047 0.05813827 0.06588974 0.12382573 -0.016276427 -0.0066421484
-0.06263506 0.05634484 -0.08975676 0.16986938 0.06638069 -0.09270334 -0.13957937 0.028807003
0.042094618 -0.07862846 0.088827945 0.18331385 -0.17081115 0.15792757 -0.10872182 -0.18295151
-0.11969141 -0.18419436 0.07880202 -0.095643505 0.21199887 -0.19468012 0.08334915 0.11693259
0.19672334 0.16019891 0.11353778 -0.13640308 -0.15821737 0.009285801 -0.17525934 0.015925288
-0.0043443637 -0.14133272 -0.037696674 0.09998996 -0.14803582 0.07092193 0.06690518 -0.13468014
-0.09276262 -0.039073527 -0.08195827 -0.18252908 0.08502358 -0.10007194 0.19399507 -0.06009795
-0.07401041 -0.2004872 0.0044513145 -0.007924196 -0.0051642475 0.031471286 -0.07443136 -0.06540458
-0.053009167 0.045820672 -0.03500501 -0.032367658 -0.056381952 -0.07306564 -0.045738827 0.011704304
-0.16589409 0.045389347 -0.07202341 -0.018483419 -0.041658793 -0.020932581 -0.21186768 0.15343325
-0.17979482 0.1480052 0.00935028 -0.046461746 0.005820774 -0.17888938 -0.1787057 -0.023046056
0.036181007 0.16635121 -0.19114144 0.15008299 0.1336239 0.14547585 -0.07373102 0.028942904
