Assets/Model/TankBrain/SmoothTank/SmoothTank-1504.pt (torch, 176153 bytes, 12 tensors)

network_body._body_endoder.seq_layers.0.weight f4 [128, 32]
0	0x3dd57c4c	0.10424098
1	0x3b009045	0.0019617241
2	0xbe5cbc4a	-0.21556202
3	0xbd0e1ef2	-0.03469748
4	0xbd46d5c4	-0.048543707
5	0x3d1ffd40	0.039059877
6	0xbe185cb0	-0.14879107
7	0xbe818b99	-0.25301817
8	0x3d9f1878	0.07768339
9	0xbe640e37	-0.22271048
10	0xbc94af4c	-0.018149994
11	0xbdbdf0f1	-0.092744716
12	0xbe7287dc	-0.23684639
13	0x3e9e61c5	0.30933967
14	0xbce826f3	-0.028338885
15	0x3d11b452	0.035572357
16	0x3e3086b2	0.17238882
17	0xbd0f676d	-0.035010744
18	0x3daed7ee	0.08537279
19	0x3e8301fa	0.25587445
20	0xbe202b96	-0.15641627
21	0x3dd9253d	0.10602806
22	0xbe8c6114	-0.27417815
23	0x3e2f9d82	0.17149928
24	0x3e431dec	0.19054383
25	0x3e1219d9	0.14267673
26	0xbe0430b4	-0.12909204
27	0xbe53a798	-0.206694
28	0x3d35071d	0.044196237
29	0xbd314fa5	-0.043288846
30	0x3cf314f7	0.029673083
31	0xbd849287	-0.064732604
32	0xbc37c6c2	-0.011216821
33	0xbda0890c	-0.078386396
34	0x3db47df0	0.08813083
35	0x3a4aba5a	0.0007733457
36	0x3e32232f	0.17396234
37	0x3dd41229	0.10355026
38	0x3e565ced	0.20933886
39	0xbdfc857c	-0.123301476
40	0xbe19ae53	-0.15007906
41	0x3d1cbcaa	0.03826586
42	0xbdbc8b54	-0.09206262
43	0x3d9d3e0b	0.076778494
44	0x3e3a4622	0.18190816
45	0x3e06e326	0.13172588
46	0xbd9b662d	-0.07587848
47	0xbe3e58c4	-0.18588549
48	0xbd840d50	-0.06447852
49	0x3c7f813b	0.015594776
50	0x3e090e63	0.13384394
51	0x3d18f4ef	0.037342962
52	0xbec370b0	-0.3817191
53	0xbe081f65	-0.13293226
54	0x3e1393bf	0.1441183
55	0xbe33c12e	-0.17554161
56	0x3d4e29b0	0.050332725
57	0xbdd500a3	-0.10400512
58	0xbe80c910	-0.251534
59	0x3e47934f	0.19489788
60	0xbd9c1bc1	-0.07622481
61	0x3df3beb4	0.11901608
62	0x3b298f6b	0.0025872837
63	0xbe298afa	-0.16556922
64	0x3e311a30	0.17295146
65	0x3e8bfcf8	0.27341437
66	0xbed165de	-0.4089803
67	0xbc249211	-0.010044591
68	0xbb477dff	-0.003044009
69	0xbcbaa6c9	-0.022784607
70	0xbe076fea	-0.13226286
71	0x3e4580e5	0.1928745
72	0x3e0b82e6	0.13624153
73	0x3e7314e4	0.23738438
74	0xbdd5f931	-0.1044792
75	0x3def39cb	0.11680945
76	0x3c91a68c	0.017779611
77	0x3e18cad4	0.14921123
78	0xbdaa1cc9	-0.083062716
79	0xbcd64976	-0.026158076
80	0xbe1eb916	-0.15500292
81	0xbd05b232	-0.032640643
82	0x3de58bc3	0.11208298
83	0xbdb9d2d1	-0.09073413
84	0x3de08194	0.10962215
85	0x3e02c12b	0.12769
86	0x3e70e63d	0.23525329
87	0xbdf1f956	-0.11815135
88	0x3dbeb3d8	0.09311646
89	0x3ddc29b8	0.10750145
90	0xbe86c4ac	-0.26321924
91	0xbdeeca6b	-0.11659702
92	0x3e5f4fa5	0.21807726
93	0xbe007b5b	-0.12547056
94	0x3d646f85	0.055770416
95	0x3e2e4fcc	0.17022628
96	0xbccc94e5	-0.024973342
97	0xbd970572	-0.073740855
98	0xbbc3ab11	-0.0059713204
99	0x3d0b3b2c	0.033991978
100	0x3e4edeed	0.20202227
101	0x3e6271e1	0.22113754
102	0x3c8228d5	0.01588861
103	0xbd76a7ae	-0.060218506
104	0xbd561171	-0.052262727
105	0xbec800e3	-0.39063177
106	0xbc59ec8f	-0.013301029
107	0x3d11445e	0.03546559
108	0xbe643563	-0.2228599
109	0xbc2dc8c1	-0.0106069455
110	0x3e646dc5	0.22307499
111	0x3e017c32	0.12645033
112	0xbd10996a	-0.035302557
113	0xbd9a4df5	-0.075344004
114	0x3de72a31	0.11287344
115	0xbda4ff0c	-0.08056459
116	0x3cc2d3f8	0.023782715
117	0x3ecdf81b	0.40228352
118	0x3d4db82d	0.05022447
119	0x3e183beb	0.14866607
120	0x3d34266e	0.043981962
121	0xbd8b9baa	-0.068168
122	0xbea4687a	-0.3211096
123	0xbe4b0ad1	-0.19828345
124	0xbd3fdd7f	-0.046842095
125	0x3e1b11d3	0.15143518
126	0x3dd410ea	0.103547886
127	0x3dd508d2	0.10402073
128	0x3c307566	0.0107701775
129	0xbe161914	-0.14658004
130	0xbeb7f22c	-0.3592695
131	0x3d271786	0.040793918
132	0x3e477965	0.19479902
133	0x3eb8cb7f	0.36092755
134	0xbe17c677	-0.14821802
135	0x3e2aad8b	0.16667764
136	0xbc9e0234	-0.01928816
137	0xbc640560	-0.013917297
138	0x3e38bda6	0.18041095
139	0x3d812aff	0.06307029
140	0x3e204c99	0.1565422
141	0x3e8d6c7f	0.27621838
142	0xbe387ff4	-0.1801756
143	0x3e2ad2a2	0.16681913
144	0xbeac3dfe	-0.33641046
145	0xbd55c521	-0.05218995
146	0xbc013184	-0.007885341
147	0xbe1a4f45	-0.15069301
148	0x3c669435	0.014073421
149	0x3e9bb513	0.30411586
150	0x3e629565	0.22127302
151	0x3e96a614	0.29423583
152	0x3ddb4ab6	0.10707609
153	0xbdeb19a1	-0.11479498
154	0xbe379460	-0.17927694
155	0x3e07dfbd	0.13268943
156	0x3db65513	0.08902945
157	0xbd7d25f7	-0.061803784
158	0xbdab3e0f	-0.08361446
159	0xbd96c589	-0.073618956
160	0x3a9a9431	0.0011793432
161	0x3e6edcbb	0.2332639
162	0xbe20292a	-0.15640703
163	0x3dff63ed	0.12470231
164	0x3d11c326	0.0355865
165	0xbb7457f8	-0.0037283879
166	0x3e6866ff	0.2269554
167	0x3e2766b5	0.16347773
168	0xbdde7d5a	-0.10863753
169	0xbd55fe8b	-0.052244704
170	0xbd8a82b8	-0.06763214
171	0xbc6b76b4	-0.014371563
172	0x3db36911	0.08760274
173	0xbd1b69be	-0.03794264
174	0xbe229cf2	-0.15880182
175	0xbd79e6ba	-0.061011054
176	0xbe9c84fa	-0.30570203
177	0x3d8c2a8a	0.06844051
178	0x3db637bc	0.08897349
179	0xbdea966c	-0.11454472
180	0xbbb69ed0	-0.005573131
181	0xbea426eb	-0.32060942
182	0x3ca57ca2	0.020201031
183	0x3e035306	0.1282464
184	0x3e0074cc	0.12544554
185	0x3e8649d7	0.2622821
186	0x3e5d5057	0.21612678
187	0xbdf07331	-0.11740721
188	0x3e363334	0.1779297
189	0x3dfd7182	0.123751655
190	0xbe656581	-0.22402002
191	0x3b871037	0.004121806
192	0xbea90787	-0.33013555
193	0xbda60f70	-0.08108413
194	0x3dc08cfe	0.09401892
195	0xbea31dbd	-0.31858626
196	0x3e48227a	0.19544402
197	0xbe3654ee	-0.17805836
198	0x3da387eb	0.07984909
199	0x3c86894f	0.016422896
200	0x3ca671a5	0.020317862
201	0xbe0ee6da	-0.1395525
202	0x3d5c4ced	0.0537843
203	0xbd35fb5b	-0.044429164
204	0xbcfc71f5	-0.030816058
205	0x3e379016	0.17926058
206	0x3d9f2d8f	0.077723615
207	0x3e9e4a2c	0.30915964
208	0x3e84cc1f	0.25936982
209	0xbd90186a	-0.070359066
210	0xbdd7dcac	-0.10540137
211	0xbdf4515a	-0.11929579
212	0xbe3b2b68	-0.18278277
213	0x3dc28e30	0.09499776
214	0x3e95e689	0.29277447
215	0xbcee5ae5	-0.029096076
216	0x3e59e121	0.21277286
217	0x3e028a91	0.12748171
218	0x3e5bd83e	0.21469209
219	0x3ce65b31	0.028119655
220	0xbd047366	-0.032336615
221	0x3d18a7c4	0.03726937
222	0x3d56c1ba	0.052430846
223	0x3db80b0d	0.08986483
224	0x3d5b0a59	0.053476665
225	0xbd928ada	-0.0715539
226	0x3dc1d270	0.09463966
227	0x3ed4b645	0.4154531
228	0x3c93678e	0.017993715
229	0xbd9312e6	-0.07181339
230	0xbd07f92c	-0.033196613
231	0xbc0b7ce1	-0.00851366
232	0xbe8d3de2	-0.27586275
233	0x3ce513c0	0.02796352
234	0xbe11a221	-0.14222004
235	0xbe4fbadd	-0.20286126
236	0xbcaf3862	-0.02138919
237	0x3d035f5b	0.03207336
238	0x3da41db0	0.08013475
239	0x3e9d542e	0.30728287
240	0xbddde0dd	-0.10833905
241	0x3e844b6e	0.25838798
242	0x3e544a30	0.20731425
243	0xbdeba65e	-0.115063414
244	0x3e6dbce5	0.23216589
245	0xbdaf70ce	-0.08566438
246	0x3e0e0941	0.13870718
247	0xbe9c64fc	-0.30545795
248	0xbdc7313a	-0.09726186
249	0xbe6f56be	-0.23372933
250	0xbd642390	-0.055697978
251	0xbaade16c	-0.0013266033
252	0xbe3b5647	-0.18294631
253	0x3e4e092c	0.20120686
254	0x3d4ff955	0.05077489
255	0xbe854482	-0.2602883

network_body._body_endoder.seq_layers.0.bias f4 [128]
0	0x00000000	0.0
1	0x00000000	0.0
2	0x00000000	0.0
3	0x00000000	0.0
4	0x00000000	0.0
5	0x00000000	0.0
6	0x00000000	0.0
7	0x00000000	0.0
8	0x00000000	0.0
9	0x00000000	0.0
10	0x00000000	0.0
11	0x00000000	0.0
12	0x00000000	0.0
13	0x00000000	0.0
14	0x00000000	0.0
15	0x00000000	0.0
16	0x00000000	0.0
17	0x00000000	0.0
18	0x00000000	0.0
19	0x00000000	0.0
20	0x00000000	0.0
21	0x00000000	0.0
22	0x00000000	0.0
23	0x00000000	0.0
24	0x00000000	0.0
25	0x00000000	0.0
26	0x00000000	0.0
27	0x00000000	0.0
28	0x00000000	0.0
29	0x00000000	0.0
30	0x00000000	0.0
31	0x00000000	0.0
32	0x00000000	0.0
33	0x00000000	0.0
34	0x00000000	0.0
35	0x00000000	0.0
36	0x00000000	0.0
37	0x00000000	0.0
38	0x00000000	0.0
39	0x00000000	0.0
40	0x00000000	0.0
41	0x00000000	0.0
42	0x00000000	0.0
43	0x00000000	0.0
44	0x00000000	0.0
45	0x00000000	0.0
46	0x00000000	0.0
47	0x00000000	0.0
48	0x00000000	0.0
49	0x00000000	0.0
50	0x00000000	0.0
51	0x00000000	0.0
52	0x00000000	0.0
53	0x00000000	0.0
54	0x00000000	0.0
55	0x00000000	0.0
56	0x00000000	0.0
57	0x00000000	0.0
58	0x00000000	0.0
59	0x00000000	0.0
60	0x00000000	0.0
61	0x00000000	0.0
62	0x00000000	0.0
63	0x00000000	0.0
64	0x00000000	0.0
65	0x00000000	0.0
66	0x00000000	0.0
67	0x00000000	0.0
68	0x00000000	0.0
69	0x00000000	0.0
70	0x00000000	0.0
71	0x00000000	0.0
72	0x00000000	0.0
73	0x00000000	0.0
74	0x00000000	0.0
75	0x00000000	0.0
76	0x00000000	0.0
77	0x00000000	0.0
78	0x00000000	0.0
79	0x00000000	0.0
80	0x00000000	0.0
81	0x00000000	0.0
82	0x00000000	0.0
83	0x00000000	0.0
84	0x00000000	0.0
85	0x00000000	0.0
86	0x00000000	0.0
87	0x00000000	0.0
88	0x00000000	0.0
89	0x00000000	0.0
90	0x00000000	0.0
91	0x00000000	0.0
92	0x00000000	0.0
93	0x00000000	0.0
94	0x00000000	0.0
95	0x00000000	0.0
96	0x00000000	0.0
97	0x00000000	0.0
98	0x00000000	0.0
99	0x00000000	0.0
100	0x00000000	0.0
101	0x00000000	0.0
102	0x00000000	0.0
103	0x00000000	0.0
104	0x00000000	0.0
105	0x00000000	0.0
106	0x00000000	0.0
107	0x00000000	0.0
108	0x00000000	0.0
109	0x00000000	0.0
110	0x00000000	0.0
111	0x00000000	0.0
112	0x00000000	0.0
113	0x00000000	0.0
114	0x00000000	0.0
115	0x00000000	0.0
116	0x00000000	0.0
117	0x00000000	0.0
118	0x00000000	0.0
119	0x00000000	0.0
120	0x00000000	0.0
121	0x00000000	0.0
122	0x00000000	0.0
123	0x00000000	0.0
124	0x00000000	0.0
125	0x00000000	0.0
126	0x00000000	0.0
127	0x00000000	0.0

network_body._body_endoder.seq_layers.2.weight f4 [128, 128]
0	0x3de0a90f	0.10969745
1	0x3c0e4c2c	0.008685153
2	0x3ba5d12b	0.005060335
3	0xbe284706	-0.16433343
4	0x3d9e4412	0.07727827
5	0xbc32b83e	-0.010908185
6	0x3bf714df	0.00754033
7	0xbddf2ae5	-0.10896853
8	0xbd405429	-0.04695526
9	0x3dc0f67d	0.09422014
10	0xbd933edf	-0.07189726
11	0x3d6ec87b	0.05829666
12	0xbde6d23c	-0.11270568
13	0xbd1784d0	-0.036991894
14	0x3d8d8ae8	0.0691126
15	0x3e16a7bc	0.14712423
16	0xbc478a85	-0.012179022
17	0xbdfcfa42	-0.123524204
18	0xbc7bd7ee	-0.015371306
19	0x3cdf0f02	0.027228836
20	0xbd7d02b1	-0.061770145
21	0xbd39dfec	-0.045379564
22	0xbcecbab9	-0.02889763
23	0x3dd86ca9	0.105676
24	0x3dcce1a1	0.10003973
25	0x3e4f454f	0.20241283
26	0x3bb6e398	0.0055813305
27	0xbdc24033	-0.09484901
28	0x3d2ae169	0.041718874
29	0xbdd3aad1	-0.10335315
30	0xbba53d4c	-0.0050427075
31	0x3dae3873	0.085068606
32	0x3e4a8bbf	0.19779871
33	0x3e2e680e	0.17031881
34	0x3d00b20c	0.0314198
35	0x3d7c2902	0.061562546
36	0x3e32404d	0.17407341
37	0x3daf71c2	0.085666195
38	0x3dff1e42	0.12456943
39	0x3d8f79b2	0.070056334
40	0x3e10b81a	0.14132729
41	0x3df6771c	0.12034437
42	0xbb8d625d	-0.0043147043
43	0xbdb69cda	-0.08916636
44	0x3ddc4b06	0.10756497
45	0x3e060690	0.13088441
46	0xbd6af85d	-0.057365764
47	0xbdcf4f56	-0.10122554
48	0xbccefee8	-0.025268033
49	0x3c8eb797	0.017421527
50	0x3d1f8063	0.0389408
51	0x3aa74dda	0.001276429
52	0xbe06bad8	-0.13157213
53	0x3c25fd55	0.0101312
54	0xbd17cb19	-0.037058923
55	0xbdb4f1e4	-0.088351995
56	0x3d370c7f	0.04468965
57	0xbe1b2880	-0.15152168
58	0xbc144730	-0.009050176
59	0x3c8c2d4e	0.017111447
60	0x3d790a99	0.060801122
61	0xbc33c382	-0.010971906
62	0x3dd116ba	0.10209413
63	0x3dfd3380	0.123633385
64	0xbca0c39f	-0.01962453
65	0xbdc310e4	-0.09524706
66	0x3d7c6e65	0.061628718
67	0x3df994f4	0.12186614
68	0xbd6adaae	-0.057337455
69	0xbd1a336a	-0.03764669
70	0x3dd138ea	0.102159336
71	0x3c990068	0.018676952
72	0x3d956209	0.07294089
73	0x3ce20566	0.027590465
74	0xbd8011d3	-0.062534
75	0x3b1f7b7a	0.0024335072
76	0xbc98f175	-0.018669823
77	0x3c687700	0.014188528
78	0xbcb1f7dd	-0.021724636
79	0xbdab0c78	-0.083519876
80	0xbd521233	-0.051286887
81	0x3d083e0d	0.0332623
82	0x3dffb7d1	0.12486232
83	0xbd7df034	-0.061996654
84	0xbd3754a7	-0.044758465
85	0x3cda007d	0.026611561
86	0xbde2039c	-0.11035845
87	0x3d064aab	0.032786053
88	0xbe105cee	-0.1409795
89	0xbd1d806e	-0.03845256
90	0x3d66f1bd	0.056382883
91	0x3d034b81	0.032054428
92	0xbc03c34a	-0.008042166
93	0xbdf8d3a7	-0.121497445
94	0x3d2b9054	0.04188569
95	0xbd751df4	-0.05984302
96	0x3e3c3417	0.18379246
97	0xbe13e156	-0.14441428
98	0xbc52c487	-0.012864239
99	0x3cb8d77e	0.022563692
100	0xbd2b6be6	-0.041850947
101	0x3da6c019	0.081421085
102	0xbd598c3b	-0.05311225
103	0xbbe81783	-0.007082881
104	0xbc34cf9e	-0.011035828
105	0xbd9d447f	-0.0767908
106	0x3cd10c1e	0.025518473
107	0xbc0e715e	-0.008694021
108	0xbdafc52b	-0.08582529
109	0xbd6ad24c	-0.05732946
110	0xbd54d296	-0.051958643
111	0x3e43c163	0.1911674
112	0xbe3fc15e	-0.18726107
113	0xbe0c532c	-0.13703603
114	0x3c8d70c0	0.017265677
115	0xbd866386	-0.06561951
116	0xbd7d0a62	-0.06177748
117	0xbd914e78	-0.07095045
118	0xbc9d8b4b	-0.01923146
119	0x3dcd6d7b	0.10030647
120	0x3cdec3d4	0.027192988
121	0x3db61ca0	0.088921785
122	0xbd0d3301	-0.03447247
123	0x3cea4ac9	0.028600113
124	0x3cbaa330	0.022782892
125	0xbdda9fb9	-0.10674996
126	0x3d8b942d	0.06815372
127	0xbe744101	-0.23852922
128	0x3d7d62fb	0.061861973
129	0x3ccfd8dd	0.025371963
130	0x3bc47883	0.0059958114
131	0x3bb236a7	0.005438644
132	0xbdc7ab46	-0.09749465
133	0xbdc0e08f	-0.09417831
134	0xbd4dffa9	-0.050292645
135	0xbd081553	-0.03322346
136	0xbd31ad12	-0.043377943
137	0xbd8f4291	-0.069951184
138	0xbc707612	-0.014676588
139	0xbcf7e9d2	-0.030262861
140	0xbce5ccf2	-0.028051827
141	0xbd6d6fe7	-0.057968047
142	0x3d1d220e	0.038362555
143	0x3cbb355c	0.022852592
144	0x3cd80cc2	0.02637327
145	0xbd5d5ff9	-0.054046605
146	0xbe24b30d	-0.16083927
147	0x3d387e3b	0.045042258
148	0x3d79f634	0.061025813
149	0x3d9429dd	0.07234547
150	0x3e21f237	0.15815054
151	0xbe0bb5b6	-0.13643536
152	0xbc7d3601	-0.01545477
153	0xbdaca9fd	-0.0843086
154	0x3cd571f2	0.02605531
155	0xbd92a47f	-0.071602814
156	0xbbe4ae38	-0.0069787763
157	0xbdae94ec	-0.08524498
158	0xbd9f1417	-0.07767504
159	0x3d8b291b	0.067949496
160	0x3d915c4d	0.07097683
161	0x3e4ae70d	0.19814701
162	0x3bbabc2f	0.0056987028
163	0x3d6f9a44	0.05849673
164	0xbe035ec2	-0.12829116
165	0x3c8e1e36	0.01734839
166	0xbca484df	-0.02008289
167	0xbd647785	-0.055778045
168	0xbdc42efa	-0.095792726
169	0xbd4ae00b	-0.04953007
170	0x3daeda0d	0.08537684
171	0xbd0cac81	-0.0343442
172	0xbc8eed37	-0.017447097
173	0x3d93cc55	0.072167076
174	0x3d063b88	0.032771617
175	0x3d07a2f0	0.033114374
176	0x3d2e20c5	0.04251172
177	0xbd0ae7d6	-0.033912502
178	0x3d902733	0.07038727
179	0xbdcb167c	-0.09916398
180	0x3d9255b6	0.07145254
181	0x3e064f76	0.1311625
182	0x3da7acbd	0.08187244
183	0x3dab1bde	0.083549246
184	0xbd0f5c79	-0.0350003
185	0xbd611bbe	-0.054958098
186	0x3e02da3a	0.1277856
187	0x3decb721	0.115583666
188	0x39d3a693	0.00040369164
189	0xbc255d03	-0.0100929765
190	0x3d3fecdb	0.046856742
191	0xbbd0ce5e	-0.006372257
192	0xbdee90cd	-0.11648712
193	0x3e2cf93c	0.1689195
194	0x3dbdf35d	0.092749335
195	0x3d1cb68e	0.038260035
196	0xbd0a5673	-0.03377385
197	0xbd54c9c5	-0.051950235
198	0xbbcdf221	-0.0062849675
199	0x3df367c5	0.11885027
200	0xbd74b0e5	-0.059739012
201	0x3d90e0b3	0.07074108
202	0x3c76762d	0.015042824
203	0x3df455bf	0.11930417
204	0x3ca924df	0.020647464
205	0xbda6b57d	-0.08140085
206	0xb8959a15	-7.133574e-05
207	0x3dbf2828	0.09333831
208	0xbd32b5dd	-0.04363047
209	0x3e04477f	0.12917899
210	0xbdc0c6ca	-0.09412916
211	0x3d463e4d	0.04839926
212	0x3d652e77	0.055952515
213	0xbb4a5151	-0.0030871222
214	0xbda7408d	-0.08166609
215	0x3cbf8d15	0.023382703
216	0x3de69150	0.11258185
217	0xbdd0efd1	-0.10201991
218	0xbd427158	-0.047471374
219	0xbce7fc9f	-0.028318701
220	0x3d41473a	0.047187068
221	0xbd00df28	-0.03146282
222	0xbdf5233c	-0.11969611
223	0xbe07d725	-0.13265665
224	0xbdf141ac	-0.11780104
225	0xbd02e3a8	-0.03195539
226	0xbdc3b8e7	-0.09556752
227	0xbd9b18eb	-0.07573112
228	0xbda35251	-0.07974685
229	0xbc5ece81	-0.013599039
230	0xbc351eee	-0.0110547375
231	0xbde54900	-0.11195564
232	0x3cb1f870	0.02172491
233	0xbdb0040b	-0.08594521
234	0x3c2436f9	0.010022872
235	0xbcf03e57	-0.029326601
236	0x3dd8ca2e	0.10585438
237	0xbde09db6	-0.10967581
238	0xbd76e830	-0.060280025
239	0xbdffb044	-0.12484792
240	0xbd218b6d	-0.039439607
241	0xbd0e9c6d	-0.034817148
242	0xbce77a00	-0.028256416
243	0xbda02d0c	-0.07821092
244	0x3de726be	0.11286686
245	0x3da52c34	0.08065072
246	0xbdc1f398	-0.0947029
247	0x3d9bda1f	0.07609963
248	0xbd3f5a07	-0.046716716
249	0x3cf50a82	0.029912237
250	0xbc750a82	-0.014956119
251	0x3e0eab31	0.13932492
252	0xbb8b0918	-0.0042430274
253	0x3ca5485a	0.020176101
254	0xbb82f96c	-0.0039970186
255	0xbd9cf91f	-0.076647036

network_body._body_endoder.seq_layers.2.bias f4 [128]
0	0x00000000	0.0
1	0x00000000	0.0
2	0x00000000	0.0
3	0x00000000	0.0
4	0x00000000	0.0
5	0x00000000	0.0
6	0x00000000	0.0
7	0x00000000	0.0
8	0x00000000	0.0
9	0x00000000	0.0
10	0x00000000	0.0
11	0x00000000	0.0
12	0x00000000	0.0
13	0x00000000	0.0
14	0x00000000	0.0
15	0x00000000	0.0
16	0x00000000	0.0
17	0x00000000	0.0
18	0x00000000	0.0
19	0x00000000	0.0
20	0x00000000	0.0
21	0x00000000	0.0
22	0x00000000	0.0
23	0x00000000	0.0
24	0x00000000	0.0
25	0x00000000	0.0
26	0x00000000	0.0
27	0x00000000	0.0
28	0x00000000	0.0
29	0x00000000	0.0
30	0x00000000	0.0
31	0x00000000	0.0
32	0x00000000	0.0
33	0x00000000	0.0
34	0x00000000	0.0
35	0x00000000	0.0
36	0x00000000	0.0
37	0x00000000	0.0
38	0x00000000	0.0
39	0x00000000	0.0
40	0x00000000	0.0
41	0x00000000	0.0
42	0x00000000	0.0
43	0x00000000	0.0
44	0x00000000	0.0
45	0x00000000	0.0
46	0x00000000	0.0
47	0x00000000	0.0
48	0x00000000	0.0
49	0x00000000	0.0
50	0x00000000	0.0
51	0x00000000	0.0
52	0x00000000	0.0
53	0x00000000	0.0
54	0x00000000	0.0
55	0x00000000	0.0
56	0x00000000	0.0
57	0x00000000	0.0
58	0x00000000	0.0
59	0x00000000	0.0
60	0x00000000	0.0
61	0x00000000	0.0
62	0x00000000	0.0
63	0x00000000	0.0
64	0x00000000	0.0
65	0x00000000	0.0
66	0x00000000	0.0
67	0x00000000	0.0
68	0x00000000	0.0
69	0x00000000	0.0
70	0x00000000	0.0
71	0x00000000	0.0
72	0x00000000	0.0
73	0x00000000	0.0
74	0x00000000	0.0
75	0x00000000	0.0
76	0x00000000	0.0
77	0x00000000	0.0
78	0x00000000	0.0
79	0x00000000	0.0
80	0x00000000	0.0
81	0x00000000	0.0
82	0x00000000	0.0
83	0x00000000	0.0
84	0x00000000	0.0
85	0x00000000	0.0
86	0x00000000	0.0
87	0x00000000	0.0
88	0x00000000	0.0
89	0x00000000	0.0
90	0x00000000	0.0
91	0x00000000	0.0
92	0x00000000	0.0
93	0x00000000	0.0
94	0x00000000	0.0
95	0x00000000	0.0
96	0x00000000	0.0
97	0x00000000	0.0
98	0x00000000	0.0
99	0x00000000	0.0
100	0x00000000	0.0
101	0x00000000	0.0
102	0x00000000	0.0
103	0x00000000	0.0
104	0x00000000	0.0
105	0x00000000	0.0
106	0x00000000	0.0
107	0x00000000	0.0
108	0x00000000	0.0
109	0x00000000	0.0
110	0x00000000	0.0
111	0x00000000	0.0
112	0x00000000	0.0
113	0x00000000	0.0
114	0x00000000	0.0
115	0x00000000	0.0
116	0x00000000	0.0
117	0x00000000	0.0
118	0x00000000	0.0
119	0x00000000	0.0
120	0x00000000	0.0
121	0x00000000	0.0
122	0x00000000	0.0
123	0x00000000	0.0
124	0x00000000	0.0
125	0x00000000	0.0
126	0x00000000	0.0
127	0x00000000	0.0

action_model._continuous_distribution.log_sigma f4 [1, 2]
0	0x00000000	0.0
1	0x00000000	0.0

action_model._continuous_distribution.mu.weight f4 [2, 128]
0	0x3c72d5b8	0.014821462
1	0xbbdf885a	-0.0068216743
2	0x3c85de41	0.01634133
3	0x3c685293	0.0141798435
4	0x3c2d9d5d	0.0105966
5	0xbd041208	-0.03224376
6	0x3c723f1f	0.014785557
7	0x3cd96c37	0.026540859
8	0x3c6e1ecf	0.0145337125
9	0x3c023f4b	0.0079496605
10	0x3c52c8b2	0.012865232
11	0xbc8b8217	-0.017029805
12	0x3d609fdb	0.05483995
13	0x3ca080ac	0.019592606
14	0x3b1072db	0.0022041115
15	0x3cd4cb3f	0.025975822
16	0x3ca678af	0.020321218
17	0x3c5ca2fb	0.013466592
18	0x3aec1465	0.0018011449
19	0xbca63357	-0.020288153
20	0x3b68d18d	0.0035525293
21	0xbb79872b	-0.003807495
22	0x3ba7aa6f	0.005116753
23	0xb903d8f4	-0.00012573955
24	0x3d1328df	0.03592765
25	0xbd026108	-0.031830817
26	0x3ad63ed7	0.0016345632
27	0xbb31b1b9	-0.0027113988
28	0xb9aac0cf	-0.0003256858
29	0x3d0b034b	0.033938687
30	0x3cd88022	0.026428286
31	0x3cf26cd7	0.029592915
32	0x3c7696e8	0.015050627
33	0x3b33c6e3	0.0027431778
34	0xbcc3c0ff	-0.023895739
35	0x3c0e798b	0.00869597
36	0xbb78dfa8	-0.0037975106
37	0x3b29f83e	0.0025935317
38	0x3ba4a4bc	0.0050245207
39	0xbac6c48f	-0.001516478
40	0x3d22bcce	0.03973084
41	0x3c1e605b	0.009666528
42	0x3c24b03b	0.010051782
43	0xbc4b9b9c	-0.012427237
44	0xbc0c6571	-0.008569107
45	0x3ce16603	0.027514463
46	0x3bea5bcb	0.007152056
47	0xbb958cbe	-0.004563897
48	0xbada4737	-0.0016653304
49	0x3bc37848	0.0059652664
50	0xbd3ba008	-0.045806915
51	0x3bff1293	0.0077841966
52	0x3b226feb	0.0024785947
53	0xbcac1eac	-0.02101072
54	0x3c97d123	0.018532341
55	0x3c885d5f	0.016646085
56	0xbc9ebff6	-0.019378643
57	0xbca4c7e9	-0.020114856
58	0xbc1bbb9e	-0.009505181
59	0x3c13533e	0.008992014
60	0xbc5c6b5a	-0.013453329
61	0xbc4767c1	-0.012170733
62	0x3b21d23d	0.0024691962
63	0xbcdf4c00	-0.02725792
64	0xbc510f78	-0.012760036
65	0x3cf2468f	0.02957466
66	0xbb13b359	-0.002253732
67	0xb95df4ef	-0.00021167447
68	0xbaa311cc	-0.0012441217
69	0x3c0729e7	0.008249736
70	0xbc3689d2	-0.011141257
71	0xbb704ee5	-0.0036668119
72	0x3c8d8157	0.017273588
73	0x3d11ecd5	0.03562625
74	0x3bfa860a	0.007645373
75	0x3c938a07	0.018010153
76	0x3ccfa2bd	0.025346154
77	0xbc20e973	-0.009821284
78	0x3c154dcb	0.009112786
79	0xbcbd3c16	-0.02309994
80	0x3c836068	0.016037181
81	0x3b84abb8	0.004048791
82	0xbcf7b488	-0.030237451
83	0x3cc82eb0	0.024436325
84	0xbc96d9ae	-0.018414345
85	0x3c8ac74e	0.016940739
86	0x3cbea2fa	0.023271073
87	0xbca7f08b	-0.020500442
88	0x3c8e1ddd	0.017348224
89	0xbc4e995d	-0.012609807
90	0x3a9b96b8	0.0011870479
91	0x3d08a3f8	0.033359498
92	0x3c3a5652	0.011373119
93	0xbc4d5450	-0.012532309
94	0xbcbd43e3	-0.02310366
95	0x3c0e99f3	0.008703697
96	0x3c255972	0.010092126
97	0x3ca325dd	0.019915516
98	0x3c4b626b	0.012413601
99	0xba8b2738	-0.0010616546
100	0xbb139509	-0.0022519252
101	0x3d27b2ea	0.04094211
102	0x3c41360e	0.011792673
103	0xb9c4ebe2	-0.0003755978
104	0x3c68d587	0.014211065
105	0x3c663caa	0.014052549
106	0x3c4ee82f	0.012628599
107	0x3c97e692	0.018542562
108	0x3bb20983	0.005433263
109	0xbc0639dc	-0.008192506
110	0x3c56815f	0.013092368
111	0xbc72e868	-0.014825918
112	0xbc89c912	-0.01681951
113	0x3d05a07b	0.03262375
114	0x3cd2e3c0	0.025743365
115	0xbc13c1ce	-0.009018375
116	0xbce03e12	-0.027373347
117	0x3cc39af7	0.023877604
118	0xbc441294	-0.01196732
119	0xba639697	-0.00086818024
120	0x3a1b93ef	0.00059348246
121	0x3b9bd4c6	0.004755589
122	0xbc1f708f	-0.009731426
123	0x3b574c9b	0.0032852057
124	0xbb33431c	-0.0027353233
125	0x394456a5	0.00018724294
126	0xbb946179	-0.004528221
127	0xbc2c3d83	-0.010512712
128	0xbc02d534	-0.007985402
129	0x3d16f282	0.036852367
130	0x3a83afc2	0.0010046887
131	0x3c7ec603	0.015550139
132	0x3b6cf8d3	0.0036159053
133	0x3c9c8a68	0.019108966
134	0xbb97f4bb	-0.0046373284
135	0xbc371af8	-0.011175863
136	0x3cd2c428	0.0257283
137	0xbb15dfcb	-0.0022868987
138	0xbbda82fb	-0.006668446
139	0xbd073a83	-0.033014785
140	0xbcc45488	-0.023966089
141	0xbcbc96a0	-0.023021042
142	0x3b5258bf	0.0032096354
143	0x3bc843eb	0.006111612
144	0x3d0de163	0.034638774
145	0xbb5170f5	-0.0031958197
146	0xbca706f0	-0.02038905
147	0xbc5d28a0	-0.013498455
148	0x3bb381bc	0.005478112
149	0xbb4276ef	-0.002967294
150	0x3c330d77	0.010928503
151	0x3d325a7c	0.043543324
152	0x3cc3a6d3	0.023883259
153	0xbc7f4aa3	-0.01558176
154	0xbd09d89b	-0.033653837
155	0xbc9a58cf	-0.018841175
156	0x3ad929db	0.001656826
157	0x3b760125	0.0037537303
158	0x3ccfd287	0.025368942
159	0x3c8be043	0.01707471
160	0xbc7694f7	-0.015050164
161	0x3ca36709	0.019946592
162	0x3c33de53	0.010978299
163	0x3c1b1207	0.009464747
164	0xbb323ac3	-0.002719567
165	0xbbbcc372	-0.0057606036
166	0xbc86fcde	-0.016477998
167	0xbcb97d45	-0.022642741
168	0xbcf66c0a	-0.030080814
169	0xbb129eef	-0.0022372564
170	0x3c5871fa	0.013210768
171	0x3c05635f	0.008141368
172	0xba09e01d	-0.0005259531
173	0xbc8bd0f6	-0.017067414
174	0x3ca6bb04	0.020352848
175	0xbaff89b8	-0.0019496
176	0xbd111ff9	-0.035430882
177	0x3c54e2cb	0.012993525
178	0xbc357614	-0.011075515
179	0x3b5f4d57	0.0034073198
180	0x3caff3eb	0.021478614
181	0xbca91e83	-0.020644432
182	0xbc3f89df	-0.011690586
183	0x3c624ac7	0.013811774
184	0x3c0e7116	0.008693954
185	0xbc2d9e21	-0.010596783
186	0x3c8007f0	0.015628785
187	0xbcde334a	-0.027124066
188	0x3ca3006f	0.019897668
189	0x3d10225c	0.035189018
190	0xb9ac48de	-0.00032860687
191	0xbb9d42c7	-0.0047992202
192	0xbad87a1a	-0.0016515881
193	0x3c648478	0.013947599
194	0x3c6cdca5	0.014456903
195	0xbbbd4fff	-0.0057773585
196	0xbaaae0d7	-0.0013036978
197	0x3c950e3a	0.01819526
198	0xbc62bb0a	-0.013838539
199	0xbca53b97	-0.020170016
200	0x3d112f03	0.035445224
201	0x3b80a1b4	0.0039255265
202	0x3ab1305f	0.0013518444
203	0x3c824934	0.015904047
204	0xbb56d440	-0.003278032
205	0xbc8df370	-0.017327994
206	0xbc27e3bb	-0.010247166
207	0x3cb66af7	0.022267802
208	0xbc305ecb	-0.010764788
209	0x3b9fa7ed	0.0048723132
210	0xbd0cb2e0	-0.034350276
211	0xbc9ebf92	-0.019378457
212	0xbc31a6ff	-0.010843038
213	0x3cf1a3c7	0.02949704
214	0xbc2ec6be	-0.010667501
215	0xbc24492f	-0.010027214
216	0x3d38ff0b	0.045165103
217	0xbd0ef5f9	-0.034902547
218	0xbc05be7d	-0.008163092
219	0xbd45e397	-0.04831275
220	0xbc983f5a	-0.018584896
221	0x3b378594	0.0028003203
222	0xbd01e624	-0.03171362
223	0x3d11c647	0.035589483
224	0xbbe47f6b	-0.006973197
225	0x3c10e97b	0.008844729
226	0x3cbea1ca	0.023270506
227	0x3b6f25c7	0.0036491023
228	0xbc7f6e1b	-0.015590216
229	0xbcb37b3b	-0.021909347
230	0x3c516477	0.0127803
231	0xba97d862	-0.0011584873
232	0xbbde1e90	-0.0067785457
233	0xbc227fda	-0.0099181775
234	0xbd14df8c	-0.036346003
235	0xbb7c38ad	-0.003848593
236	0xbc2e581e	-0.010641126
237	0xbc34cf23	-0.011035713
238	0xbc8df15f	-0.017327009
239	0x3cb7f7e7	0.022457076
240	0x3c458a57	0.012056909
241	0x3c87c10e	0.016571548
242	0x3ced4328	0.028962687
243	0xbd5ca47f	-0.053867813
244	0x3b1d22e8	0.0023977105
245	0x3ae0cae3	0.0017150309
246	0xbcc00461	-0.023439588
247	0xbbb0aa98	-0.00539143
248	0x3cd176c5	0.025569329
249	0x3c225025	0.009906803
250	0xbc8e1d2e	-0.017347898
251	0x3c0831bb	0.008312638
252	0x3c4d304a	0.01252372
253	0xbd42dd1b	-0.047574144
254	0xbd47c04c	-0.048767373
255	0x3aeee2b5	0.0018225523

action_model._continuous_distribution.mu.bias f4 [2]
0	0x00000000	0.0
1	0x00000000	0.0

network_body._body_endoder.seq_layers.0.weight f4 [128, 32]
0	0x3d8fb7a0	0.070174456
1	0xbe6d899a	-0.23197022
2	0xbe15eb82	-0.1464062
3	0xbdb0f540	-0.08640528
4	0x3ceeb03c	0.02913677
5	0xbdc4c3c4	-0.09607652
6	0xbeaa349d	-0.33243266
7	0xbe994b4d	-0.29940262
8	0x3dc0ae21	0.094082125
9	0x3dd16b66	0.10225563
10	0x3d29589a	0.041344263
11	0xbe84e1e1	-0.25953582
12	0x3d29ad03	0.041424762
13	0x3dfefcaf	0.12450539
14	0x3e7717f7	0.24130236
15	0xbdb88e99	-0.09011573
16	0xbddbe769	-0.10737497
17	0xbdd7d2c0	-0.10538244
18	0x3d04f4e5	0.032460112
19	0xbe030105	-0.12793358
20	0x3d234c6a	0.039867796
21	0x3dc24ffa	0.094879106
22	0x3e55f38a	0.20893684
23	0xbe2c7b69	-0.16843952
24	0xbe133c86	-0.14378557
25	0xbbc9b472	-0.006155544
26	0x3e5ee3c8	0.21766579
27	0x3dfb82dc	0.12280819
28	0x3e1dd171	0.15411927
29	0xbe1bdbf9	-0.15220632
30	0x3d3de70b	0.046362918
31	0x3e17624a	0.14783588
32	0xbe823c91	-0.25436834
33	0x3d8e403c	0.069458455
34	0x3ecaabd6	0.39584225
35	0x3e31384f	0.17306636
36	0x3e1d7ef0	0.15380454
37	0xbe271735	-0.16317447
38	0x3de30d37	0.11086505
39	0xbe275bfa	-0.1634368
40	0x3da6686f	0.08125388
41	0xbde7172c	-0.112837166
42	0x3dd50842	0.10401966
43	0xbcd62488	-0.026140466
44	0xbe62ece0	-0.22160673
45	0xbe023c8a	-0.12718406
46	0x3e476e6f	0.19475721
47	0xbc93b417	-0.01803021
48	0x3c91514f	0.017738966
49	0x3dc378a9	0.095444985
50	0xbdde696d	-0.10859952
51	0x3e4f1dd1	0.20226218
52	0xbdf9228d	-0.12164793
53	0xbec6c11c	-0.38819206
54	0xbd960f60	-0.07327151
55	0xbd81a79d	-0.06330798
56	0x3d315b19	0.043299768
57	0x3e0eee75	0.13958152
58	0xbdbe0915	-0.09279076
59	0xbde58865	-0.11207656
60	0x3e2f4cfd	0.17119212
61	0x3c9367c4	0.017993815
62	0x3e836081	0.25659564
63	0xbe6d7ee7	-0.2319294
64	0x3d56697c	0.05234669
65	0xbe2ef37c	-0.1708507
66	0xbde96527	-0.113962464
67	0xbe1cf350	-0.15327191
68	0x3cb3aeb8	0.021933898
69	0x3cb9d06c	0.022682391
70	0x3c67b75d	0.014142838
71	0x3e512db3	0.20427589
72	0xbe0ac37e	-0.13551137
73	0x3bd2fd5a	0.0064388933
74	0x3ecb8dc2	0.3975659
75	0x3e13e71b	0.14443628
76	0xbe829f4b	-0.25512156
77	0xbe0a7ae0	-0.13523436
78	0x3cb0e5de	0.021593984
79	0xbe1a9c79	-0.15098752
80	0xbe122951	-0.14273573
81	0x3e6d99a2	0.23203138
82	0xbe02a15e	-0.12756869
83	0x3d920b2a	0.071310356
84	0xbe32c651	-0.17458464
85	0x3cc72b15	0.024312535
86	0xbbf959e4	-0.0076095928
87	0x3d1988f2	0.037484117
88	0x3e9ead20	0.3099146
89	0x3e971c98	0.29514003
90	0xbdf0f3e5	-0.11765269
91	0x3cb87d3e	0.022520658
92	0x3d37e878	0.044899434
93	0xbdaf9e26	-0.08575086
94	0x3e2a6917	0.16641651
95	0xbe024861	-0.12722923
96	0xbe41b91b	-0.18918268
97	0xbd492f20	-0.049117208
98	0xbe65fe6d	-0.22460337
99	0x3e2b5894	0.16733009
100	0xbd7b66aa	-0.061377205
101	0xbc09e875	-0.0084172385
102	0x3e3f0857	0.18655525
103	0xbe122adc	-0.14274162
104	0xbee15c2e	-0.4401564
105	0x3e26b17e	0.16278645
106	0xbe7dac74	-0.24772817
107	0xbe802953	-0.25031528
108	0x3e82760b	0.25480685
109	0x3e6aa5e8	0.2291485
110	0x3cf00a49	0.02930178
111	0x3e5a1096	0.2129539
112	0xbe3a97be	-0.18221948
113	0x3d5b06e6	0.053473376
114	0xbcf45954	-0.029827751
115	0x3da2864f	0.079357736
116	0xbe455407	-0.19270335
117	0xbd6d5f4e	-0.057952218
118	0x3de40ba3	0.11135032
119	0xbe402e39	-0.18767633
120	0x3ab97290	0.0014148522
121	0x3e39c862	0.18142846
122	0xbe543cc2	-0.20726302
123	0x3d8faf90	0.07015908
124	0xbe2a12ae	-0.16608688
125	0xbdc50bd3	-0.09621396
126	0x3df1b20c	0.11801538
127	0xbd5b6cb3	-0.05357046
128	0xbe6f2396	-0.23353419
129	0xbe1ca730	-0.15298152
130	0xbe812815	-0.25225893
131	0xbe610b2d	-0.2197692
132	0x3e00e1fb	0.12586205
133	0x3e1acd7c	0.15117449
134	0xbd38caf6	-0.045115434
135	0x3e3703ac	0.17872494
136	0x3e67ffa2	0.2265611
137	0x3e232418	0.15931737
138	0x3d73fbef	0.059566434
139	0xbeb360a2	-0.35034662
140	0xbe181065	-0.14850004
141	0xbe83738e	-0.256741
142	0xbd8ceccc	-0.06881103
143	0x3bb336b5	0.005469168
144	0xbd8f1d8b	-0.06988057
145	0xbd55369c	-0.052054033
146	0xbb3d2dd3	-0.0028866425
147	0xbe28b390	-0.16474748
148	0x3dd9bc9e	0.10631679
149	0xbe1414fc	-0.1446113
150	0xbd1c21ff	-0.03811836
151	0x3c69d59b	0.014272119
152	0xbe70a80e	-0.23501608
153	0xbd571f33	-0.05251999
154	0x3e0bc864	0.13650662
155	0x3e45968d	0.19295712
156	0xba28d038	-0.00064397184
157	0x3d4fb78d	0.050712157
158	0xbc969c38	-0.018385038
159	0xbd9061a5	-0.07049874
160	0x3d7b06a7	0.06128564
161	0xbbc236fe	-0.0059269657
162	0xbde9c775	-0.114149965
163	0xbe04e661	-0.12978508
164	0xbd68715e	-0.05674874
165	0xbe5a50c1	-0.21319868
166	0xbdd54859	-0.1041419
167	0x3eabe0e7	0.33570024
168	0xbe9ace51	-0.30235532
169	0xbe3d0fbb	-0.18463032
170	0xbdc59b16	-0.09648721
171	0xbddfbdac	-0.10924849
172	0xbeb7e3b7	-0.3591592
173	0xbe4d4df3	-0.20049267
174	0x3dd2e5a1	0.102977045
175	0xbd7de966	-0.061990164
176	0x3c10c0cb	0.008835028
177	0x3e24aabc	0.16080755
178	0xbad6b9e6	-0.0016382306
179	0xbe175111	-0.14777018
180	0x3cb54906	0.022129547
181	0x3ab7286c	0.0013973839
182	0x3e489e1d	0.19591565
183	0xbadd1e2e	-0.0016869956
184	0xbdb59e67	-0.088681035
185	0xbca8aad6	-0.020589273
186	0x3d7d9d1a	0.0619174
187	0x3dd993d0	0.10623896
188	0xbe198fa4	-0.14996201
189	0xbc735c09	-0.014853486
190	0xbe785205	-0.24250038
191	0xbe34f0cd	-0.17669983
192	0x3bf61e0f	0.0075109075
193	0xbdb88df5	-0.09011451
194	0x3e789543	0.24275689
195	0xbd9f1d98	-0.077693164
196	0xbdbcd39c	-0.09220049
197	0xbd0d4daf	-0.034497913
198	0x3e3a88db	0.18216269
199	0xbd8763c3	-0.06610825
200	0x3df766d4	0.1208016
201	0x3dbf8f04	0.0935345
202	0x3c933b2e	0.017972555
203	0x3d955926	0.07292394
204	0xbe4b3e7e	-0.19848058
205	0xbdb61d51	-0.088923104
206	0xbd1e8d09	-0.03870872
207	0x3d64c62c	0.055853054
208	0x3d0ed4d7	0.03487095
209	0x3e024cce	0.12724611
210	0xbe5bd3ab	-0.21467464
211	0x3c95e113	0.0182958
212	0xbe8958b9	-0.26825503
213	0x3e059fd9	0.13049258
214	0xbdb7e443	-0.08979084
215	0x3d8efe6c	0.06982121
216	0xbbfd6f6c	-0.00773423
217	0x3d2cf090	0.042221606
218	0x39c8e447	0.00038317053
219	0x3e26fbb5	0.16306956
220	0x3e0b12fa	0.13581458
221	0x3c986bbc	0.01860606
222	0x3d7212d1	0.059099976
223	0xbe08b1a0	-0.13349009
224	0x3dbcc53d	0.09217308
225	0xbe2fdc26	-0.17173824
226	0xbe24aa6e	-0.16080639
227	0x3da41534	0.08011857
228	0x3e85dfcd	0.2614731
229	0xbe4b355a	-0.19844571
230	0xbdb72f8b	-0.08944615
231	0xbe1ec58f	-0.1550505
232	0x3e02c8a6	0.12771854
233	0x3d89670d	0.067091085
234	0xbe7c3c7b	-0.24632446
235	0x3cab3440	0.020898938
236	0xbd899791	-0.06718362
237	0xbd1cabc7	-0.038249757
238	0x3e409724	0.18807656
239	0xbd9903a0	-0.074713945
240	0x3c3bc570	0.011460647
241	0xbeb8a968	-0.36066747
242	0x3ddbd59e	0.107341036
243	0x3cebad35	0.028769115
244	0x3c411c69	0.011786559
245	0x3e30eb99	0.17277373
246	0x3dd19870	0.10234153
247	0x3c7f1d29	0.015570917
248	0xbdc7452c	-0.0972999
249	0xbd44c1d0	-0.048036397
250	0x3e3e20a8	0.18567145
251	0xbdde32e8	-0.10849553
252	0x3c247a51	0.010038928
253	0xbd50f953	-0.051019024
254	0x3eef683b	0.4675921
255	0x3e27cbe7	0.16386376

network_body._body_endoder.seq_layers.0.bias f4 [128]
0	0x00000000	0.0
1	0x00000000	0.0
2	0x00000000	0.0
3	0x00000000	0.0
4	0x00000000	0.0
5	0x00000000	0.0
6	0x00000000	0.0
7	0x00000000	0.0
8	0x00000000	0.0
9	0x00000000	0.0
10	0x00000000	0.0
11	0x00000000	0.0
12	0x00000000	0.0
13	0x00000000	0.0
14	0x00000000	0.0
15	0x00000000	0.0
16	0x00000000	0.0
17	0x00000000	0.0
18	0x00000000	0.0
19	0x00000000	0.0
20	0x00000000	0.0
21	0x00000000	0.0
22	0x00000000	0.0
23	0x00000000	0.0
24	0x00000000	0.0
25	0x00000000	0.0
26	0x00000000	0.0
27	0x00000000	0.0
28	0x00000000	0.0
29	0x00000000	0.0
30	0x00000000	0.0
31	0x00000000	0.0
32	0x00000000	0.0
33	0x00000000	0.0
34	0x00000000	0.0
35	0x00000000	0.0
36	0x00000000	0.0
37	0x00000000	0.0
38	0x00000000	0.0
39	0x00000000	0.0
40	0x00000000	0.0
41	0x00000000	0.0
42	0x00000000	0.0
43	0x00000000	0.0
44	0x00000000	0.0
45	0x00000000	0.0
46	0x00000000	0.0
47	0x00000000	0.0
48	0x00000000	0.0
49	0x00000000	0.0
50	0x00000000	0.0
51	0x00000000	0.0
52	0x00000000	0.0
53	0x00000000	0.0
54	0x00000000	0.0
55	0x00000000	0.0
56	0x00000000	0.0
57	0x00000000	0.0
58	0x00000000	0.0
59	0x00000000	0.0
60	0x00000000	0.0
61	0x00000000	0.0
62	0x00000000	0.0
63	0x00000000	0.0
64	0x00000000	0.0
65	0x00000000	0.0
66	0x00000000	0.0
67	0x00000000	0.0
68	0x00000000	0.0
69	0x00000000	0.0
70	0x00000000	0.0
71	0x00000000	0.0
72	0x00000000	0.0
73	0x00000000	0.0
74	0x00000000	0.0
75	0x00000000	0.0
76	0x00000000	0.0
77	0x00000000	0.0
78	0x00000000	0.0
79	0x00000000	0.0
80	0x00000000	0.0
81	0x00000000	0.0
82	0x00000000	0.0
83	0x00000000	0.0
84	0x00000000	0.0
85	0x00000000	0.0
86	0x00000000	0.0
87	0x00000000	0.0
88	0x00000000	0.0
89	0x00000000	0.0
90	0x00000000	0.0
91	0x00000000	0.0
92	0x00000000	0.0
93	0x00000000	0.0
94	0x00000000	0.0
95	0x00000000	0.0
96	0x00000000	0.0
97	0x00000000	0.0
98	0x00000000	0.0
99	0x00000000	0.0
100	0x00000000	0.0
101	0x00000000	0.0
102	0x00000000	0.0
103	0x00000000	0.0
104	0x00000000	0.0
105	0x00000000	0.0
106	0x00000000	0.0
107	0x00000000	0.0
108	0x00000000	0.0
109	0x00000000	0.0
110	0x00000000	0.0
111	0x00000000	0.0
112	0x00000000	0.0
113	0x00000000	0.0
114	0x00000000	0.0
115	0x00000000	0.0
116	0x00000000	0.0
117	0x00000000	0.0
118	0x00000000	0.0
119	0x00000000	0.0
120	0x00000000	0.0
121	0x00000000	0.0
122	0x00000000	0.0
123	0x00000000	0.0
124	0x00000000	0.0
125	0x00000000	0.0
126	0x00000000	0.0
127	0x00000000	0.0

network_body._body_endoder.seq_layers.2.weight f4 [128, 128]
0	0xbd847fd8	-0.06469697
1	0x3d6b8f1c	0.057509527
2	0x3d513d44	0.051083818
3	0x3d2b1c10	0.04177481
4	0xbccd7982	-0.025082354
5	0xbcddabc4	-0.027059443
6	0xbd819ae1	-0.06328369
7	0x3ccec201	0.025238993
8	0x3df65194	0.120272785
9	0xbd3b9ef5	-0.04580589
10	0x3c7fabf9	0.015604966
11	0xbd5dece0	-0.05418098
12	0xbd92b255	-0.071629204
13	0x3aa730c9	0.0012755628
14	0xbd7d5541	-0.061848883
15	0xbd7cddfc	-0.06173514
16	0xbc6ee5b0	-0.014581129
17	0x3dd5df37	0.104429655
18	0xbdc97bb0	-0.09838045
19	0x3c9b4c13	0.018957173
20	0x3da29272	0.079380885
21	0xbd952373	-0.07282152
22	0xbc4f1601	-0.0126395235
23	0xbd3d3dd6	-0.04620155
24	0x3d35f524	0.044423237
25	0xbd0de52a	-0.034642376
26	0xbc551ce9	-0.013007381
27	0xbda3e93c	-0.0800347
28	0x3dc630cd	0.09677277
29	0xbd9b3fcc	-0.07580528
30	0xbd2fa275	-0.04287954
31	0x3dcfb4e8	0.10141927
32	0x3c28662f	0.010278269
33	0xbd8aee77	-0.06783765
34	0xbdee160d	-0.116252996
35	0x3d68d277	0.05684134
36	0x3c9c5fa5	0.019088576
37	0xb982619c	-0.00024868257
38	0x3c17e667	0.009271241
39	0xbba2e346	-0.0049709408
40	0x3d006178	0.031342953
41	0xbc36b502	-0.011151554
42	0xbe2d261d	-0.1690907
43	0xbcf19994	-0.029492177
44	0x3d8fb39c	0.0701668
45	0x3d80eb0a	0.0629483
46	0xbdf7080d	-0.120620824
47	0xbd97af77	-0.07406514
48	0x3d39622f	0.04525965
49	0x3c3ba1f6	0.011452189
50	0xbd05abdc	-0.0326346
51	0xbd43d809	-0.04781345
52	0xbcd220a8	-0.025650337
53	0xbe1bf8e2	-0.1523166
54	0x3d9023a4	0.07038048
55	0xbd61fa0a	-0.055170096
56	0xbdb8ff56	-0.090330765
57	0xbcd161bf	-0.025559304
58	0x3c01df12	0.007926719
59	0x3d0a98e6	0.03383722
60	0x3ce3ecdf	0.02782291
61	0xbd4c9de9	-0.049955282
62	0x3d4a99f0	0.049463212
63	0x3cbd3483	0.023096329
64	0x3e6d74c8	0.2318908
65	0xbd23f164	-0.04002513
66	0x3d830085	0.063965835
67	0x3df529b3	0.11970844
68	0x3cf48c63	0.029852098
69	0xbdd2ed27	-0.102991395
70	0x3d80ee10	0.06295407
71	0xbbb691bf	-0.0055715735
72	0x3c209214	0.009800453
73	0x3dcefde7	0.10107022
74	0x3e0261aa	0.12732568
75	0xbc97057a	-0.018435229
76	0x3d8c4a7f	0.068501465
77	0xbd2c2948	-0.042031556
78	0x3deaaef3	0.1145915
79	0xbe0f28af	-0.13980363
80	0xbd3ff0f0	-0.046860635
81	0x3d6a828b	0.0572534
82	0xbdd1ca42	-0.10243656
83	0xbd3d17ac	-0.046165153
84	0xbdb5ce27	-0.08877211
85	0xbe097dea	-0.13426939
86	0x3b76d3f9	0.0037662967
87	0xbc3b0e55	-0.011416991
88	0x3d756859	0.059913967
89	0x3d1518c5	0.036400575
90	0xbc355627	-0.011067904
91	0x3e68211c	0.2266888
92	0x3d83bf33	0.06432953
93	0xbd148da1	-0.03626788
94	0xbd157333	-0.036486816
95	0xbd843e40	-0.06457186
96	0xbdbdd170	-0.09268463
97	0x3d34b974	0.044122174
98	0x3d255fd5	0.040374596
99	0xbd307a9b	-0.043085676
100	0x3df79042	0.12088062
101	0xbd6ec3c4	-0.058292165
102	0x3d227eb7	0.039671626
103	0x3de0b121	0.10971285
104	0xbd95e553	-0.07319131
105	0xbdbaebf3	-0.09127035
106	0xbc40310f	-0.0117304465
107	0xbe27b2bc	-0.16376776
108	0x3df4f9fd	0.11961744
109	0xbc90d9d8	-0.017682001
110	0x3be4d75b	0.00698368
111	0x3cc796d7	0.024363918
112	0x3c1a8f79	0.009433621
113	0xbd0af816	-0.033928
114	0xbd0ca64c	-0.03433828
115	0x3ca14195	0.019684592
116	0xbe15a9b3	-0.14615516
117	0xbe2088f7	-0.15677248
118	0x3d498b4e	0.049205117
119	0xbd937567	-0.07200127
120	0x3ca0defe	0.019637581
121	0xbd92912d	-0.07156596
122	0x3e1125c4	0.14174563
123	0xbbde7357	-0.006788652
124	0xbc9cda1c	-0.019146971
125	0xbb9ccddc	-0.0047852825
126	0x3e02c496	0.12770304
127	0xbd72a322	-0.059237607
128	0x3d425fbd	0.047454584
129	0x3db62614	0.088939816
130	0x3bc8151a	0.006106031
131	0x3d8a7989	0.06761462
132	0x3c83eda2	0.016104523
133	0xbe3671b3	-0.1781681
134	0xbe3602bc	-0.1777448
135	0x3b3bc375	0.0028650437
136	0xbdb29a16	-0.08720796
137	0xbdbc8c91	-0.092064984
138	0xbdf7f136	-0.12106554
139	0x3cb79d81	0.02241397
140	0x3c89c215	0.016816178
141	0x3df851ce	0.12124978
142	0x3d892a19	0.066974826
143	0xbd162895	-0.036659796
144	0x3bca7bb6	0.0061792983
145	0x3d1c75a3	0.038198125
146	0x3e0c4068	0.13696444
147	0xbc782c3c	-0.015147265
148	0x3db6e883	0.08931067
149	0xbc8ad6f3	-0.016948199
150	0x3daa1fbd	0.08306835
151	0x3d48d846	0.04903438
152	0xbcdb8965	-0.026798913
153	0x3d781b16	0.060572706
154	0x3e02c7fa	0.12771598
155	0xbc683454	-0.014172632
156	0xbd1c6c5c	-0.038189277
157	0x3da31eb9	0.07964844
158	0x3c750e8d	0.014957082
159	0xbca6f675	-0.020381192
160	0xbe362522	-0.17787603
161	0x3d039827	0.032127526
162	0xbc7cd724	-0.015432153
163	0x3e06dd5c	0.1317038
164	0x3e2ef3ce	0.17085192
165	0x3dcad6ab	0.09904226
166	0xbd20c474	-0.039249852
167	0xbdf2fc4c	-0.11864528
168	0x3e1c5452	0.1526654
169	0xbdf810d4	-0.12112585
170	0xbc9a89cd	-0.018864537
171	0xbcbddf9a	-0.02317791
172	0x3ddd44a6	0.10804109
173	0xbd5e2ab4	-0.054239944
174	0x3dccbb2f	0.0999664
175	0xbc26369b	-0.010144855
176	0x3dcdd1e0	0.10049796
177	0x3cf77a18	0.030209586
178	0x3d6da9cb	0.058023255
179	0x3d8ec096	0.069703266
180	0x3e30ad8f	0.17253707
181	0x3e06e594	0.13173515
182	0x3ccc96f1	0.024974318
183	0xbd2c2163	-0.042024028
184	0x3be846fa	0.007088539
185	0xbcaf9943	-0.021435386
186	0xbdbdf79b	-0.092757426
187	0x3d8d690a	0.069048
188	0xbe0d5f26	-0.13805827
189	0x3e504d3e	0.20341966
190	0xbd0e81dc	-0.034791812
191	0x3a55d038	0.0008156332
192	0x3d882b47	0.066488795
193	0x3d5d211e	0.05398666
194	0x3d8933a0	0.066993
195	0x3daee28f	0.08539306
196	0x3e868193	0.26270732
197	0xbe14a873	-0.14517383
198	0x3d44fcb0	0.048092544
199	0x3bce80b6	0.0063019646
200	0x3d81b3d3	0.06333127
201	0x3d3a3e2a	0.04546944
202	0x3da2a6ad	0.07941947
203	0xbe2fcd6d	-0.17168207
204	0xbd8e6a55	-0.06953875
205	0xbe554214	-0.20825988
206	0x3e526f17	0.2055019
207	0x3d3898ef	0.045067724
208	0xbbde6cce	-0.006787873
209	0xbcce16d8	-0.025157377
210	0x3d045510	0.032307684
211	0x3cdc1b14	0.02686838
212	0x3df4daca	0.11955793
213	0x3d266833	0.040626716
214	0x3bfbc18b	0.007682984
215	0xbe0444e3	-0.12916903
216	0x3dd58185	0.104250945
217	0x3d6a3df2	0.057187982
218	0xbe16f38c	-0.14741343
219	0xbbcefe77	-0.0063169557
220	0x3d0b371d	0.033988107
221	0xbe05345d	-0.13008256
222	0x3c83b0de	0.016075548
223	0x3cdea69f	0.02717906
224	0xbd9b9324	-0.07596424
225	0x3d173f23	0.036925446
226	0x3c3284f0	0.010895953
227	0xbd7012b6	-0.058611594
228	0xbce89501	-0.028391363
229	0xbd94e04e	-0.07269345
230	0xbd49638d	-0.049167205
231	0xbe3a0a1c	-0.18167919
232	0xbcf342c3	-0.02969492
233	0x3e07b439	0.13252343
234	0x3d49b96d	0.0492491
235	0xbdafc455	-0.08582369
236	0x3db8c698	0.09022254
237	0x3c3c055b	0.011475886
238	0x3d603262	0.05473555
239	0x3de92b6f	0.113852374
240	0xbbde8a91	-0.0067914207
241	0xbc3d7fb2	-0.0115660895
242	0xbdab353f	-0.08359765
243	0xbd8d1b83	-0.06890013
244	0xbc885173	-0.0166404
245	0xbd52f546	-0.051503442
246	0x3d004f35	0.031325538
247	0xbd578afd	-0.052622784
248	0x3e998f74	0.2999226
249	0xbdd991cb	-0.10623511
250	0xbe109fde	-0.14123484
251	0xbe407fb8	-0.18798721
252	0xbccec487	-0.025240196
253	0x3d826db8	0.063685834
254	0x3e48501b	0.19561808
255	0xbd11391b	-0.03545485

network_body._body_endoder.seq_layers.2.bias f4 [128]
0	0x00000000	0.0
1	0x00000000	0.0
2	0x00000000	0.0
3	0x00000000	0.0
4	0x00000000	0.0
5	0x00000000	0.0
6	0x00000000	0.0
7	0x00000000	0.0
8	0x00000000	0.0
9	0x00000000	0.0
10	0x00000000	0.0
11	0x00000000	0.0
12	0x00000000	0.0
13	0x00000000	0.0
14	0x00000000	0.0
15	0x00000000	0.0
16	0x00000000	0.0
17	0x00000000	0.0
18	0x00000000	0.0
19	0x00000000	0.0
20	0x00000000	0.0
21	0x00000000	0.0
22	0x00000000	0.0
23	0x00000000	0.0
24	0x00000000	0.0
25	0x00000000	0.0
26	0x00000000	0.0
27	0x00000000	0.0
28	0x00000000	0.0
29	0x00000000	0.0
30	0x00000000	0.0
31	0x00000000	0.0
32	0x00000000	0.0
33	0x00000000	0.0
34	0x00000000	0.0
35	0x00000000	0.0
36	0x00000000	0.0
37	0x00000000	0.0
38	0x00000000	0.0
39	0x00000000	0.0
40	0x00000000	0.0
41	0x00000000	0.0
42	0x00000000	0.0
43	0x00000000	0.0
44	0x00000000	0.0
45	0x00000000	0.0
46	0x00000000	0.0
47	0x00000000	0.0
48	0x00000000	0.0
49	0x00000000	0.0
50	0x00000000	0.0
51	0x00000000	0.0
52	0x00000000	0.0
53	0x00000000	0.0
54	0x00000000	0.0
55	0x00000000	0.0
56	0x00000000	0.0
57	0x00000000	0.0
58	0x00000000	0.0
59	0x00000000	0.0
60	0x00000000	0.0
61	0x00000000	0.0
62	0x00000000	0.0
63	0x00000000	0.0
64	0x00000000	0.0
65	0x00000000	0.0
66	0x00000000	0.0
67	0x00000000	0.0
68	0x00000000	0.0
69	0x00000000	0.0
70	0x00000000	0.0
71	0x00000000	0.0
72	0x00000000	0.0
73	0x00000000	0.0
74	0x00000000	0.0
75	0x00000000	0.0
76	0x00000000	0.0
77	0x00000000	0.0
78	0x00000000	0.0
79	0x00000000	0.0
80	0x00000000	0.0
81	0x00000000	0.0
82	0x00000000	0.0
83	0x00000000	0.0
84	0x00000000	0.0
85	0x00000000	0.0
86	0x00000000	0.0
87	0x00000000	0.0
88	0x00000000	0.0
89	0x00000000	0.0
90	0x00000000	0.0
91	0x00000000	0.0
92	0x00000000	0.0
93	0x00000000	0.0
94	0x00000000	0.0
95	0x00000000	0.0
96	0x00000000	0.0
97	0x00000000	0.0
98	0x00000000	0.0
99	0x00000000	0.0
100	0x00000000	0.0
101	0x00000000	0.0
102	0x00000000	0.0
103	0x00000000	0.0
104	0x00000000	0.0
105	0x00000000	0.0
106	0x00000000	0.0
107	0x00000000	0.0
108	0x00000000	0.0
109	0x00000000	0.0
110	0x00000000	0.0
111	0x00000000	0.0
112	0x00000000	0.0
113	0x00000000	0.0
114	0x00000000	0.0
115	0x00000000	0.0
116	0x00000000	0.0
117	0x00000000	0.0
118	0x00000000	0.0
119	0x00000000	0.0
120	0x00000000	0.0
121	0x00000000	0.0
122	0x00000000	0.0
123	0x00000000	0.0
124	0x00000000	0.0
125	0x00000000	0.0
126	0x00000000	0.0
127	0x00000000	0.0

value_heads.value_heads.extrinsic.weight f4 [1, 128]
0	0xbe2f7098	-0.17132795
1	0x3e275fb6	0.16345105
2	0xbd844b7f	-0.06459712
3	0x3e50b140	0.20380116
4	0xbd88d2a9	-0.06680805
5	0x3e5c3b5d	0.2150702
6	0x3e5432db	0.20722525
7	0xbe2ede12	-0.170769
8	0xbdbc9e9d	-0.092099406
9	0x3cdc66f6	0.026904564
10	0x3e567996	0.20944819
11	0xbe06ee45	-0.1317683
12	0xbc99254d	-0.018694544
13	0xbe5cca67	-0.21561585
14	0x3e26dbc3	0.1629477
15	0xbe015182	-0.12628749
16	0xbe1ddbed	-0.15415926
17	0x3cfc8a39	0.030827628
18	0x3e54181b	0.2071232
19	0xbe36d943	-0.17856316
20	0x3d693749	0.05693749
21	0x3e51d78c	0.20492381
22	0x3d62887e	0.05530595
23	0xbda44737	-0.08021396
24	0x3d008a16	0.03138169
25	0x3e3c75d9	0.1840433
26	0xbdebf740	-0.115217686
27	0x3db9759d	0.09055636
28	0x3cf4fef0	0.02990672
29	0xbdf88d62	-0.12136342
30	0x3ca17f77	0.0197141
31	0x3e09a238	0.13440788
32	0xbd7613e5	-0.060077567
33	0xbda241a5	-0.07922677
34	0x3d5ff7a8	0.054679543
35	0xbae01709	-0.0017096709
36	0x3dfa5b15	0.12224404
37	0x3db1b363	0.086767934
38	0xbe346341	-0.17615987
39	0x3e3a8b14	0.18217117
40	0xbe42ffe6	-0.1904293
41	0xbb7015aa	-0.0036634007
42	0x3d0277e8	0.031852633
43	0xbdfac7bf	-0.1224513
44	0x3e278967	0.16361009
45	0x3d836909	0.06416518
46	0x3d99c9bc	0.07509181
47	0xbdfc9226	-0.12332563
48	0x3d88989e	0.066697344
49	0x3dda2edb	0.10653468
50	0x3d71c9b6	0.059030257
51	0x3db9cb15	0.09071938
52	0xbc7ca0d0	-0.0154192
53	0xbd92c1e4	-0.07165888
54	0x3dc9ed6e	0.09859739
55	0xbdf9fd1f	-0.12206482
56	0xbe3ffd39	-0.1874894
57	0x3e40d11f	0.18829773
58	0x3dbdef4f	0.0927416
59	0x3dcdc3e1	0.100471266
60	0x3e0bd52f	0.13655542
61	0xbd7417e5	-0.0595931
62	0xbd4a7eaa	-0.049437203
63	0xbe40c787	-0.18826114
64	0x3e3018cd	0.17196961
65	0xbda031e0	-0.07822013
66	0xbb4b9aea	-0.0031067678
67	0xbd2a66c0	-0.041601896
68	0xbe010b3c	-0.12601942
69	0x3e311689	0.17293753
70	0x3db21946	0.08696227
71	0xbc4cfa80	-0.012510896
72	0xbe568106	-0.20947656
73	0xbcf78a5b	-0.03021734
74	0xbdabc099	-0.083863445
75	0xbe5a2fea	-0.2130734
76	0xbca8ae26	-0.020590853
77	0x3e404844	0.18777567
78	0x3d07aa45	0.033121366
79	0x3db6974c	0.08915576
80	0xbe454a68	-0.19266665
81	0x3e10f0f4	0.14154416
82	0x3e5987ed	0.21243258
83	0xbe0ca2f6	-0.1373404
84	0x3e2fc798	0.17165983
85	0x3e51e1a4	0.20496231
86	0x3d3e1f36	0.046416484
87	0x3e5465c8	0.20741951
88	0xbd82f417	-0.06394213
89	0x3e2113c6	0.15730199
90	0x3e505570	0.20345092
91	0xbe42f198	-0.19037473
92	0xbe1ab75d	-0.1510901
93	0xbdb1053c	-0.086435765
94	0xbaf66cc3	-0.0018800724
95	0x3dd106e5	0.10206393
96	0x3e0ec93e	0.13943955
97	0x3e4d1515	0.20027573
98	0x3de2efa3	0.11080863
99	0xbdea357e	-0.11435984
100	0x3e387595	0.18013604
101	0xbdbe3457	-0.09287327
102	0xbd6b3b5c	-0.057429656
103	0xbdac3842	-0.08409168
104	0xbe105f43	-0.1409884
105	0x3e46de50	0.19420743
106	0xbc905c9c	-0.017622285
107	0x3ccdc97c	0.02512049
108	0xbdfe0552	-0.124033585
109	0x3e350f57	0.17681633
110	0x3c3eaf93	0.01163854
111	0xbdaf8afb	-0.0857143
112	0x3dbf4389	0.09339053
113	0x3d3254eb	0.043538015
114	0x3d202cbc	0.039105162
115	0xbe0634fc	-0.1310615
116	0xbe061eb6	-0.13097653
117	0xbe12adfe	-0.14324185
118	0x3e0a6602	0.13515475
119	0x3c1feeb4	0.009761501
120	0xbe53cded	-0.20684023
121	0xbe1e4fb1	-0.15460087
122	0x3e2eb83c	0.17062467
123	0x3d5f14ab	0.05446307
124	0xbe1801ac	-0.14844388
125	0xbdb17ba5	-0.086661614
126	0x3bd70c4c	0.006562745
127	0x3cb76d2f	0.02239093
