results/FinalTest/Tank/Tank-499988.onnx (onnx, 111582 bytes, 9 tensors)

network_body._body_endoder.seq_layers.0.weight f4 [128, 64]
0.11389737 -0.0674408 0.004473041 0.04476335 0.009517235 0.05017568 -0.040729765 0.03805403
-0.1841228 -0.034649774 0.0206107 0.093704835 -0.00715746 0.43094856 0.1772696 0.16152832
-0.18443757 -0.0073917187 0.11592124 0.023378046 -0.1485049 -0.0015906246 0.12971076 0.023604073
0.03217749 -0.27364662 0.14361505 -0.110818334 0.1229116 -0.025744785 -0.20908947 0.09396991
-0.13584656 -0.15963118 -0.13308744 -0.032917265 0.05920638 0.0048315446 -0.055732492 0.1786946
0.11620081 0.009363779 0.08453919 0.087854594 -0.03286372 -0.05909772 -0.067450695 -0.021130927
-0.027384825 0.10089237 0.024228046 -0.020379277 -0.14572039 0.050232764 -0.08867792 0.14007816
-0.16765957 0.0058525917 -0.13137938 -0.010702649 -0.021119913 -0.08796538 0.078454025 0.023561338
0.036462743 -0.017466918 -0.045296125 -0.004041466 -6.1705796e-05 0.00059444184 -0.2128195 0.17536867
-0.023373738 0.0678145 -0.26924652 0.10715406 -0.080742136 0.04771508 0.11199208 -0.02483673
0.2103856 0.07849642 -0.061844338 0.22747429 -0.045487367 -0.07391857 0.05011522 -0.20836751
-0.15392187 0.032326683 -0.02352663 0.055655994 -0.022166219 0.012675204 0.13073882 0.0058945315
0.23786885 0.08470319 0.0004235074 -0.08659542 0.1757947 0.083247975 -0.07462263 -0.07906622
0.093093455 -0.1379583 0.16907099 -0.13590038 -0.060651798 0.06864391 -0.040510517 0.15351
-0.10269907 -0.053394448 -0.046332058 -0.20131117 -0.041160725 0.14823961 -0.05469035 0.08037595
-0.020217123 -0.06538584 -0.05566174 -0.10982969 0.057543162 0.012378475 -0.04798201 0.01789575
-0.21823853 0.13397135 0.03041845 -0.19045 0.109500185 0.023006009 -0.10766384 0.09590328
0.18688892 -0.060811117 -0.2400245 0.08960828 0.010305337 -0.079852425 -0.003734546 -0.26734504
0.026088614 -0.2396456 0.20021148 -0.0029509969 -0.09287763 0.12385442 0.19824103 0.10115889
-0.07433814 -0.09203835 -0.023874579 -0.10977482 0.013353197 0.038313594 0.064684324 -0.24071017
0.11322224 -0.0008869559 0.06023953 0.103103235 0.05902372 0.07114045 -0.038872905 -0.01315035
-0.29976448 -0.10610799 0.05079058 0.18265326 -0.07179485 0.29670087 -0.0719286 -0.0701722
-0.10830028 -0.14525926 0.16273162 -0.14397286 0.043986857 0.090399005 -0.06369478 -0.059141636
-0.06440798 -0.11788634 -0.05454426 -0.18891577 -0.0888014 -0.25450087 -0.1549677 0.06354482
-0.025310379 -0.05135348 0.0079894895 0.115731336 0.14889027 -0.1155344 -0.0691317 0.081671834
-0.14613247 -0.04622083 0.06495944 -0.10135309 -0.055870198 -0.013868711 0.3475088 0.038888607
-0.264697 -0.057439793 0.055285756 -0.04932183 -0.039629504 0.04284759 -0.004619572 -0.049632326
0.10692251 -0.00372337 -0.08936909 0.23207167 -0.046131406 -0.122396655 0.19877109 0.2180242
0.07324169 -0.1348494 -0.22237724 -0.17480859 0.07993253 -0.04797137 -0.005486127 -0.21164861
-0.07539476 0.19912797 0.039873853 -0.18289597 0.21061875 -0.26009294 -0.0036771991 -0.116576694
0.0026849206 -0.059787706 0.025892153 -0.10858477 -0.084539026 -0.083975635 0.016117496 0.041761983
0.1209182 0.002649365 0.052437432 -0.13431077 0.02808919 -0.074957885 0.16829729 0.08318789
00000000: 0643 e93d 671e 8abd 9692 923b c659 373d
00000010: 2dee 1b3c 0485 4d3d 41d4 26bd 8bde 1b3d
00000020: b08a 3cbe ecec 0dbd c5d7 a83c 52e8 bf3d
00000030: 2089 eabb 4aa5 dc3e 2986 353e ae67 253e
00000040: 34dd 3cbe 3b36 f2bb 1d68 ed3d 5183 bf3c
00000050: ab11 18be 817c d0ba e6d2 043e 545d c13c
00000060: 8bcc 033d 691b 8cbe d30f 133e b9f4 e2bd
00000070: 14b9 fb3d bae6 d2bc 8d1b 56be 4c73 c03d
00000080: 5c1b 0bbe 5b76 23be 1348 08be 41d4 06bd
00000090: 6482 723d ef51 9e3b c147 64bd b8fb 363e
000000a0: b1fa ed3d 896a 193c e222 ad3d 1ced b33d
000000b0: 1c9c 06bd 7310 72bd 9723 8abd c41a adbc
000000c0: 2456 e0bc a9a0 ce3d e579 c63c 71f2 a6bc
000000d0: ba37 15be dfc0 4d3d c59c b5bd a670 0f3e
000000e0: f3ae 2bbe 19c7 bf3b 5188 06be 2a5a 2fbc
000000f0: ab03 adbc 3127 b4bd 81ac a03d b503 c13c
00000100: f559 153d c816 8fbc 6e88 39bd 466e 84bb
00000110: 0c68 81b8 51d4 1b3a 5bed 59be d893 333e
00000120: 487a bfbc 54e2 8a3d aeda 89be 9673 db3d
00000130: 225c a5bd e370 433d 1b5c e53d 6676 cbbc
00000140: 536f 573e bbc2 a03d 7d50 7dbd 05ef 683e
00000150: f650 3abd 9f62 97bd 9e45 4d3d 4b5e 55be
00000160: b29d 1dbe fc68 043d ebba c0bc 8af7 633d
00000170: ee95 b5bc a9ab 4f3c 66e0 053e ea26 c13b
00000180: e493 733e de78 ad3d 330a de39 f158 b1bd
00000190: 8703 343e ea7d aa3d c0d3 98bd 78ed a1bd
000001a0: c8a7 be3d f144 0dbe f220 2d3e 7829 0bbe
000001b0: 056e 78bd 2e95 8c3d 5bee 25bd ba31 1d3e
000001c0: e453 d2bd 23b4 5abd afc6 3dbd 8424 4ebe
000001d0: 2698 28bd 20cc 173e fd02 60bd 259c a43d
000001e0: 619e a5bc 03e9 85bd 91fd 63bd 63ee e0bd
000001f0: 61b2 6b3d 16cf 4a3c c988 44bd 1c9a 923c
00000200: ec79 5fbe c92f 093e 1d30 f93c 5305 43be
00000210: a241 e03d 1977 bc3c dc7e dcbd f068 c43d
00000220: cf5f 3f3e 1415 79bd fcc8 75be 8c84 b73d
00000230: b7d7 283c ab89 a3bd 49bf 74bb 73e1 88be
00000240: cab7 d53c a865 75be 3d04 4d3e 8365 41bb
00000250: a036 bebd 63a7 fd3d b2ff 4a3e 642c cf3d
00000260: 983e 98bd 9a7e bcbd 9f94 c3bc 9fd1 e0bd
00000270: 5ec7 5a3c b7ee 1c3d 3779 843d ba7c 76be
00000280: 10e1 e73d 9a82 68ba babd 763d ca27 d33d
00000290: dbc2 713d 16b2 913d 3239 1fbd 9174 57bc
000002a0: bb7a 99be 254f d9bd c909 503d 7509 3b3e
000002b0: 2e09 93bd 2de9 973e 4d4f 93bd 71b6 8fbd
000002c0: 8acc ddbd d8be 14be 1ea3 263e 9f6d 13be
000002d0: 902b 343d 1d23 b93d 6972 82bd 803e 72bd
000002e0: 55e8 83bd 656e f1bd cd69 5fbd 2373 41be
000002f0: 82dd b5bd f04d 82be daaf 1ebe c923 823d
00000300: b657 cfbc 0758 52bd 59e6 023c 8d04 ed3d
00000310: b176 183e 4d9d ecbd ec94 8dbd 9043 a73d
00000320: c0a3 15be 0e52 3dbd 7409 853d 3592 cfbd
00000330: 26d8 64bd 9739 63bc acec b13e a949 1f3d
00000340: 5d86 87be fd45 6bbd 5173 623d b005 4abd
00000350: 8c52 22bd f480 2f3d c75f 97bb 444b 4bbd
00000360: 30fa da3d c803 74bb 2407 b7bd 32a4 6d3e
00000370: 49f4 3cbd 19ab fabd a68a 4b3e bc41 5f3e
00000380: bdff 953d f615 0abe dcb6 63be 0601 33be
00000390: abb3 a33d a17d 44bd f8c4 b3bb 6aba 58be
000003a0: 9168 9abd 34e8 4b3e c452 233d 1549 3bbe
000003b0: 71ac 573e e72a 85be 2afd 70bb c3bf eebd
000003c0: 7ef5 2f3b f4e3 74bd c81b d43c b161 debd
000003d0: cc22 adbd 6bfb abbd d708 843c 9d0e 2b3d
000003e0: f6a3 f73d f8a0 2d3b a2c8 563d c388 09be
000003f0: 4d1b e63c 8583 99bd 2056 2c3e 6a5e aa3d

network_body._body_endoder.seq_layers.0.bias f4 [128]
0.0035451828 0.001146743 -0.026203891 0.009284274 -0.013820696 -0.054518476 -0.015646998 -0.031908166
0.033200487 -0.014234449 -0.014438101 -0.016751409 0.016393067 -0.003115898 -0.01082311 -0.020515302
-0.014510232 0.010070387 -0.037838 -0.004814338 -0.019359546 -0.033718713 0.006116466 0.022545127
0.014230284 0.018037228 -0.003517085 -0.0008916814 -0.040316455 -0.0053189234 0.015159866 -0.008892193
-0.032856707 -0.02017249 0.005369342 -0.009729105 0.008384287 0.026764205 0.0151700415 -0.030401079
-0.035782274 -0.023196518 -0.014669455 0.0026866966 -0.009457416 -0.0073205368 -0.01459634 0.0019247114
0.010142023 -0.015919723 0.00034366688 -0.05806306 0.0026175315 -0.005776939 -0.0064888406 -0.008830359
0.005723388 -0.020053748 -0.020735357 0.02023323 -0.005705927 0.04081653 -0.019147858 0.0029447125
-0.03159955 0.013518313 -0.008955045 0.011992605 0.0020781811 0.0036638512 -0.009999555 0.013418127
-0.0020196696 -0.029650478 -0.041847814 -0.028700171 -0.01246648 -0.00050514186 0.005798686 -0.0063508153
-0.023364358 0.030824726 0.0015612552 -0.0007582037 0.035302445 -0.060727086 -0.0048618005 0.0010539746
-0.012032631 0.025879014 -0.037451424 0.0007926123 0.0053082416 -0.03255934 0.016765663 -0.0057932893
0.0056907423 -0.008710346 -0.0063730986 0.0072632977 -0.0011856314 0.0042188806 -0.03537166 0.015438871
-0.031737164 0.038747765 0.00036636295 0.029238647 0.0010980784 0.0030980315 -0.018442735 -0.033340946
-0.012203337 -0.013358529 0.018512229 -0.016770165 0.0073557906 -0.016014326 0.0025992978 -0.022635058
-0.038162783 -0.0037860929 0.005583606 -0.015228167 -0.016154379 -0.020774886 0.0030223324 -0.008455132
00000000: 4c56 683b 4f4e 963a 8ba9 d6bc 111d 183c
00000010: 3370 62bc c44e 5fbd 222e 80bc 23b2 02bd
00000020: 3cfd 073d 9b37 69bc c98d 6cbc 403a 89bc
00000030: c14a 863c 1834 4cbb 6a53 31bc b50f a8bc
00000040: 53bc 6dbc 44fe 243c 05fc 1abd 98c1 9dbb
00000050: e997 9ebc a21c 0abd a36c c83b 8fb0 b83c
00000060: 2326 693c cfc2 933c e57e 66bb babf 69ba
00000070: de22 25bd 5d4a aebb 1661 783c 90b0 11bc
00000080: c194 06bd c740 a5bc 4ef1 af3b d366 1fbc
00000090: 405e 093c 9b40 db3c c48b 783c af0b f9bc
000000a0: 6f90 12bd a006 bebc 2758 70bc 4a13 303b
000000b0: 47f3 1abc 1de1 efbb 7d25 6fbc 9946 fc3a
000000c0: ba2a 263c 146a 82bc 302e b439 88d3 6dbd
000000d0: e48a 2b3b 7a4c bdbb 57a0 d4bb 36ad 10bc
000000e0: 428b bb3b c247 a4bc 32dd a9bc 29c0 a53c
000000f0: c9f8 babb 3c2f 273d f8db 9cbc 14fc 403b
00000100: 886e 01bd ea7b 5d3c 2eb8 12bc a27c 443c
00000110: 1832 083b 391d 703b 2cd5 23bc b4d7 5b3c
00000120: 6f5c 04bb 8fe5 f2bc 9d68 2bbd 9f1c ebbc
00000130: 3540 4cbc 7f6b 04ba e702 be3b 801a d0bb
00000140: 9c66 bfbc 2384 fc3c 08a3 cc3a 30c2 46ba
00000150: 4c99 103d f7bc 78bd bd4f 9fbb 8525 8a3a
00000160: 8324 45bc 3a00 d43c aa66 19bd 50c7 4f3a
00000170: c2f0 ad3b f15c 05bd 2558 893c a2d5 bdbb
00000180: 6879 ba3b d7b5 0ebc 6dd5 d0bb f500 ee3b
00000190: 3067 9bba 893e 8a3b e0e1 10bd 52f3 7c3c
000001a0: d4fe 01bd fab5 1e3d 6714 c039 e385 ef3c
000001b0: 66ed 8f3a 5808 4b3b 3815 97bc 8490 08bd
000001c0: 81f0 47bc bbdd 5abc f5a6 973c 9661 89bc
000001d0: d808 f13b 7a30 83bc fb58 2a3b 286d b9bc
000001e0: 9450 1cbd 1920 78bb aff6 b63b 907f 79bc
000001f0: 3056 84bc 1830 aabc 5312 463b 6587 0abc

network_body._body_endoder.seq_layers.2.weight f4 [128, 128]
0.06511538 0.09943723 -0.112143435 0.021219913 -0.047794178 0.044661064 0.09342852 0.07896918
-0.013878555 -0.10192893 0.077383965 0.026244784 -0.15732655 -0.1375095 0.02164628 0.20098314
-0.021799129 0.048983213 0.004324157 0.032242075 -0.08953088 0.001923643 0.022885337 0.09062419
0.0012072047 -0.08556719 0.1530016 0.1094099 0.021851843 -0.114960186 0.05295804 -0.0051039844
-0.116898336 0.14901423 0.09731387 0.08236626 -0.027816772 0.008002065 -0.02293202 -0.0037788665
0.04884667 -0.03831944 -0.032939676 0.06631687 0.010879399 0.16511504 -0.020442646 -0.088145316
0.030454027 -0.15650819 0.06435743 0.04385124 -0.043254424 -0.04454288 -0.09566302 0.017033026
0.07046838 -0.08978795 0.13557607 -0.14193818 -0.0134382425 -0.004493012 -0.039426446 0.085625775
0.09027998 -0.04509833 0.06735367 -0.036106296 0.062512636 0.12956487 -0.07793882 0.042749766
0.020430503 0.10407038 0.09451303 -0.014322632 0.1314831 0.08235726 0.01987837 -0.006088824
0.15327728 -0.07510223 0.016052587 0.12982719 -0.10697149 0.06892004 -0.0654893 0.028618706
0.034927048 0.14289643 0.09221483 0.04048716 0.042405676 -0.048704457 -0.058818597 0.015179908
-0.08604951 -0.03452702 -0.052540895 0.07543302 0.028923258 0.10204816 0.008350108 0.09168156
0.14191987 0.005398706 -0.038943626 -0.12475928 -0.044387452 -0.08099664 -0.013981834 -0.08985779
0.03280597 0.19388206 0.11637372 0.047524318 0.000928073 0.046252117 -0.027655696 -0.072434105
-0.07536729 -0.025869582 0.037333 0.09156736 -0.16813897 -0.14578636 0.043069623 0.06860626
-0.026442118 0.1990171 -0.055347763 0.08509693 -0.067523286 -0.11491849 0.118106715 0.035829213
-0.05582526 0.027171627 -0.007924085 -0.12548588 0.07787001 0.023798991 -0.0087254485 -0.085236
-0.17131038 0.07667348 0.051108442 -0.03568932 -0.093108214 -0.053736325 0.09047672 -0.0343185
0.018002039 -0.104510725 0.1019894 -0.07316122 -0.08025523 0.02587145 -0.013223778 0.03369988
0.035781726 0.09990961 -0.04648449 0.019254135 0.034210622 -0.16394253 0.02911414 0.21538804
-0.032666605 0.057012912 0.054051474 -0.14666508 -0.12499454 0.008072813 0.08300228 -0.11950452
0.06199003 -0.023242328 0.16262034 -0.024330875 -0.03116041 0.002504031 0.011156055 -0.06927059
0.025957856 0.040833347 0.15799232 -0.043971345 -0.1016547 -0.092079 0.08031053 -0.098426454
-0.16614786 -0.06805119 0.028771123 0.06910397 0.079143524 0.043227714 0.01644056 0.16367075
-0.0060810526 -0.089220956 0.046303716 0.060665693 0.123543195 -0.056954794 -0.017259113 -0.059921008
0.056352053 0.09146495 -0.0028198361 0.0044370852 -0.1335807 0.03651288 0.019756064 -0.21281575
-0.009624134 0.054871924 0.15358628 0.11043801 0.04396311 -0.04551813 0.08020962 0.12017135
-0.014860371 -0.007671701 0.07048211 0.02968244 -0.03915579 -0.10914277 0.03829022 -0.04286377
-0.09111324 0.100886516 0.0027918594 0.01624637 0.35139158 0.11237963 -0.045769222 -0.15775901
0.02611561 0.15011352 -0.066573 0.06783764 0.077103354 -0.051786087 -0.10627468 0.00033510305
0.11170106 0.08356144 -0.0342774 0.12252455 0.057398718 0.08170864 -0.029361218 0.11331494
00000000: 365b 853d bfa5 cb3d 75ab e5bd 62d5 ad3c
00000010: d4c3 43bd 85ee 363d 7457 bf3d 98ba a13d
00000020: e162 63bc 1dc0 d0bd 7c7b 9e3d 4dff d63c
00000030: 361a 21be 4acf 0cbe 8a53 b13c 86ce 4d3e
00000040: 1694 b2bc 9fa2 483d a8b1 8d3b 4410 043d
00000050: f75b b7bd c022 fc3a 087a bb3c 2d99 b93d
00000060: 113b 9e3a da3d afbd 74ac 1c3e 4c12 e03d
00000070: a302 b33c 3f70 ebbd 88ea 583d 533f a7bb
00000080: 6568 efbd 3097 183e 7f4c c73d a4af a83d
00000090: 00e0 e3bc 181b 033c eedb bbbc dca6 77bb
000000a0: 7213 483d d8f4 1cbd c1eb 06bd 24d1 873d
000000b0: 823f 323c eb13 293e 5677 a7bc 8885 b4bd
000000c0: b97a f93c af43 20be d4cd 833d 5c9d 333d
000000d0: 8d2b 31bd 9872 36bd f9ea c3bd d888 8b3c
000000e0: ba51 903d bfe2 b7bd 74d4 0a3e 3e58 11be
000000f0: 132c 5cbc 1e3a 93bb a07d 21bd 915c af3d
00000100: b6e4 b83d 07b9 38bd b9f0 893d 32e4 13bd
00000110: a006 803d a7ac 043e 639e 9fbd 611a 2f3d
00000120: df5d a73c da22 d53d 0c90 c13d 79a9 6abc
00000130: 81a3 063e ecaa a83d f7d7 a23c c284 c7bb
00000140: b8f4 1c3e 33cf 99bd b780 833c 6bf1 043e
00000150: de13 dbbd f325 8d3d 411f 86bd c771 ea3c
00000160: aa0f 0f3d 7153 123e 21db bc3d ddd5 253d
00000170: 93b1 2d3d 537e 47bd c5eb 70bd 26b5 783c
00000180: ba3a b0bd 346c 0dbd 1f35 57bd a17c 9a3d
00000190: 78f0 ec3c a0fe d03d e4ce 083c 8bc3 bb3d
000001a0: 7153 113e a1e7 b03b 5a83 1fbd cb81 ffbd
000001b0: 9ecf 35bd 91e1 a5bd 1014 65bc 5c07 b8bd
000001c0: 8e5f 063d 0589 463e 5855 ee3d dca8 423d
000001d0: ed49 733a dc72 3d3d 338e e2bc 5558 94bd
000001e0: 2a5a 9abd 72ec d3bc 7dea 183d ab87 bb3d
000001f0: 9f2c 2cbe 0549 15be c669 303d 7081 8c3d
00000200: 249d d8bc 23cb 4b3e 56b4 62bd 4d47 ae3d
00000210: a649 8abd 635a ebbd efe1 f13d a7c1 123d
00000220: 07a9 64bd 0897 de3c 05d4 01bc 5f7f 00be
00000230: 507a 9f3d 1af6 c23c 2ff5 0ebc 3690 aebd
00000240: fd6b 2fbe fc06 9d3d 1657 513d f72e 12bd
00000250: 85af bebd 9f1a 5cbd dc4b b93d 8e91 0cbd
00000260: 0379 933c b809 d6bd d2df d03d 8dd5 95bd
00000270: db5c a4bd 5df0 d33c 8ca8 58bc e308 0a3d
00000280: dc8f 123d 699d cc3d 8566 3ebd d9ba 9d3c
00000290: 7020 0c3d 8de0 27be c780 ee3c af8e 5c3e
000002a0: 6bcd 05bd 5f86 693d 1465 5d3d 5f2f 16be
000002b0: 23fd ffbd d543 043c 19fd a93d c9be f4bd
000002c0: 42e9 7d3d b266 bebc f285 263e 8b51 c7bc
000002d0: 1e44 ffbc ab1a 243b e3c7 363c bddd 8dbd
000002e0: 92a5 d43c de40 273d bdc8 213e 4c1b 34bd
000002f0: 5730 d0bd ea93 bcbd d979 a43d cf93 c9bd
00000300: aa22 2abe 6c5e 8bbd 6bb1 eb3c 6286 8d3d
00000310: 0016 a23d 8b0f 313d 5aae 863c 4e99 273e
00000320: 9143 c7bb 7ab9 b6bd f7a8 3d3d 977c 783d
00000330: 3704 fd3d 6e49 69bd fc62 8dbc bb6f 75bd
00000340: 69d1 663d fa51 bb3d 00cd 38bb f864 913b
00000350: 61c9 08be 888e 153d 78d7 a13c 5fec 59be
00000360: 8bae 1dbc 62c1 603d b945 1d3e 532d e23d
00000370: a912 343d 3871 3abd f144 a43d 661c f63d
00000380: ea78 73bc e462 fbbb ed58 903d 9728 f33c
00000390: d261 20bd 3f86 dfbd 35d6 1c3d ec91 2fbd
000003a0: 9499 babd 979d ce3d a1f7 363b 1b17 853c
000003b0: 99e9 b33e 4b27 e63d 8278 3bbd 948b 21be
000003c0: 67f0 d53c 5cb7 193e 6d57 88bd 76ee 8a3d
000003d0: 5de8 9d3d a61d 54bd 8aa6 d9bd c5b0 af39
000003e0: 86c3 e43d 4322 ab3d 7566 0cbd 27ee fa3d
000003f0: eb1a 6b3d dc56 a73d f086 f0bc aa11 e83d

network_body._body_endoder.seq_layers.2.bias f4 [128]
-0.022128161 0.014310176 -0.042220667 0.014520534 -0.025841815 -0.0040839827 0.005808451 -0.021654278
0.0072640274 -0.0078670895 0.00087415474 -0.0059275376 0.00819801 -0.017241698 -0.027612148 0.008224959
-0.030930737 -0.007677456 0.020742547 -0.03258639 -0.022943953 -0.031994868 -0.0074918503 0.0095072575
0.0063893297 -0.027641192 -0.007446904 -0.004175134 -0.010386603 -0.0019344186 -0.026169736 0.019303571
0.017852463 0.022396721 0.007859311 -0.006469275 0.0141830435 -0.044469565 0.006990915 -0.0020761352
-0.01210234 0.025669217 0.0019156067 -0.0064550173 -0.013025646 -0.0076283026 0.0038618224 0.0006101854
0.0002565315 0.0076895207 -0.02125654 0.009768067 -0.0025008055 -0.015383285 -0.015240741 -0.027404727
0.01937335 -0.0043016174 0.015974645 -0.017637642 -0.017244847 0.0062182085 -0.027330544 -0.012009872
0.018068753 0.0064424737 0.00017104163 0.015167378 0.00162905 -0.013005248 -0.026686221 -0.013229235
0.0045917938 -0.01953273 0.0013444687 -0.027053334 0.0029779132 -0.010204884 0.011424652 -0.00774448
0.009274433 0.018735562 -0.02593036 0.04737875 -0.038693063 0.0049419543 -0.005015334 -9.049547e-05
-0.03929028 0.0014846129 -0.0034784733 -0.020003749 0.004703462 -0.0055508018 -0.029951768 -0.0055260183
-0.009174546 -0.0012147976 0.0043349187 -0.019211173 -0.006991421 0.021303564 0.017530484 -0.012948569
-0.010947461 0.006929135 0.0058605783 -0.0048800413 -0.042232398 -0.0018815561 0.0013816811 -0.028691053
-0.03828113 0.007818285 0.013228222 -0.0064456295 -0.011762655 -0.0073863766 0.014294904 -0.006068946
-0.014562798 -0.03396862 -0.012986589 0.012700095 -0.007734049 0.010159398 -0.037468705 -0.005507411
00000000: 1e46 b5bc 3a75 6a3c 94ef 2cbd 89e7 6d3c
00000010: 37b2 d3bc eed2 85bb d254 be3b 5064 b1bc
00000020: 1407 ee3b f7e4 00bc 8827 653a ca3b c2bb
00000030: f250 063c 763e 8dbc df32 e2bc fac1 063c
00000040: 7562 fdbc 2b93 fbbb 46ec a93c 4e79 05bd
00000050: f5f4 bbbc 0d0d 03bd 327e f5bb 54c4 1b3c
00000060: 955d d13b c86f e2bc 2905 f4bb 90cf 88bb
00000070: 922c 2abc 518c fdba ea61 d6bc 8622 9e3c
00000080: 543f 923c 5479 b73c 57c4 003c 36fc d3bb
00000090: ff5f 683c b825 36bd 0c14 e53b c50f 08bb
000000a0: e548 46bc 4048 d23c 1815 fb3a 9c84 d3bb
000000b0: 8569 55bc d7f6 f9bb a116 7d3b d9f4 1f3a
000000c0: 137f 8639 60f8 fb3b 3222 aebc 3e0a 203c
000000d0: 8ee4 23bb 2c0a 7cbc 4db4 79bc e17f e0bc
000000e0: dcb4 9e3c 95f4 8cbb 42dd 823c d17c 90bc
000000f0: 1145 8dbc 1dc2 cb3b 4ee4 dfbc 0ec5 44bc
00000100: ec04 943c 631b d33b a359 3339 9880 783c
00000110: d985 d53a f713 55bc 109d dabc 6fbf 58bc
00000120: c276 963b 1b03 a0bc e238 b03a f49e ddbc
00000130: 1829 433b 6332 27bc 772e 3b3c 68c5 fdbb
00000140: cbf3 173c 527b 993c e86b d4bc 3810 423d
00000150: 9e7c 1ebd 1ef0 a13b ac57 a4bb 63c8 bdb8
00000160: d8ee 20bd 5897 c23a 19f7 63bb e7de a3bc
00000170: 801f 9a3b 80e3 b5bb 695d f5bc 9a13 b5bb
00000180: d650 16bc d839 9fba ef0b 8e3b c060 9dbc
00000190: 4a18 e5bb d084 ae3c 179c 8f3c 3c26 54bc
000001a0: fb5c 33bc cc0d e33b 180a c03b c1e8 9fbb
000001b0: e1fb 2cbd 8c9e f6ba 8619 b53a 8009 ebbc
000001c0: adcc 1cbd 4418 003c 2fbb 583c dc35 d3bb
000001d0: 27b8 40bc 6b09 f2bb 2c35 6a3c 02de c6bb
000001e0: cd98 6ebc ae22 0bbd b4c5 54bc 0f14 503c
000001f0: e86d fdbb 9b73 263c c978 19bd 8377 b4bb

action_model._continuous_distribution.log_sigma f4 [1, 5]
0.03263521 0.0013223455 0.015167236 0.012165618 0.026356332
00000000: 7fac 053d 8d52 ad3a 0080 783c 4d52 473c
00000010: 3ce9 d73c

action_model._continuous_distribution.mu.weight f4 [5, 128]
-0.01612501 0.0182482 -0.026844922 0.022941425 -0.027685763 -0.016626101 -0.0034824377 -0.026551481
0.025512889 0.002955456 0.0038887355 0.009402047 -0.008761502 -0.03568549 -0.06746736 0.042391133
-0.027213065 0.012860633 0.022149993 -0.007339246 -0.026103023 -0.02413826 -0.022508638 -0.016941957
0.016527219 -0.031837743 -0.015853478 0.009287269 -0.0442498 0.015237594 -0.017915674 0.04769989
0.07305414 0.028908884 -0.010334481 0.0090612685 0.008011935 -0.037440658 0.0093668355 -0.012553069
-0.018837756 0.04651318 -0.015387777 0.013730207 -0.004504978 -0.008429232 0.010960072 -0.010063965
0.021893235 -0.012588838 -0.017136324 0.021291502 0.0008662305 -0.055543635 0.0070280856 -0.02749842
0.0074138246 -0.001558655 0.01863986 -0.014401643 -0.0025269128 -0.01995862 -0.02251859 0.0058047087
-0.026609102 -0.03935082 -0.02412843 -0.014521316 0.0029674154 0.00023368321 -0.0088260975 -0.018630369
0.0073144557 -0.028895695 0.02652035 -0.017594237 -0.019324938 0.03622618 -0.05365284 -0.013830476
0.015598125 0.020551974 -0.08259218 -0.0021641399 -0.013641565 -0.0031202582 -0.0047681266 0.012130263
0.003552149 -0.008044439 0.019809956 -0.025449187 0.018444065 -0.05541805 -0.030366201 -0.016533272
-0.0021598872 -0.0054436107 0.011619685 0.0082859555 -0.06325881 -0.0072724917 0.022816904 0.00850241
-0.06970246 -0.0032659026 0.010702389 -0.0012596406 -0.022172429 -0.00067183963 0.011332705 -0.019440487
-0.046792176 0.012643605 0.027554221 -0.025996698 -0.010505778 -0.022842545 0.029093275 0.0006131965
-0.020031996 -0.030143982 0.0030742306 -0.00918635 0.0027143336 0.013169844 -0.040419478 -0.022401094
-0.010093406 -0.026850263 -0.02432637 -0.007036791 -0.00875582 0.013303898 -0.004430727 -0.019956375
0.0027024408 0.02985363 0.015750121 -0.00058431935 -0.035465762 -0.0085283965 -0.0008133234 0.0020272885
-0.018472979 -0.03647857 0.037074495 -0.005609184 -0.03500599 -0.035414495 -4.0902174e-05 -0.029695868
-0.01949813 -0.015418364 -0.0026427712 -0.01451669 -0.0105104735 0.019839562 -0.01756056 0.06834287
0.018526167 -0.00052947854 -0.03008158 -0.016725274 -0.0021500187 -0.033813316 0.0070461635 -0.01006838
-0.012673465 0.04506933 0.01451789 2.7812868e-05 -0.028614165 0.01612827 -0.0016674036 -0.02648388
-0.016714502 -0.023841841 -0.03331148 0.0067633763 -0.013533037 -0.011395896 0.0037119698 -0.015466871
0.0237194 0.010982874 -0.011909712 -0.016866695 0.020042358 0.045047008 -0.018038072 0.0074182763
-0.027599096 -0.038289692 0.016375367 0.017825885 -0.0103732655 -0.0048639434 -0.04027012 0.005802043
-0.0022978988 0.00041083753 0.018498618 -0.010820019 0.011392402 0.049671788 -0.038040534 -0.009233577
-0.027690336 -0.009394807 -0.03436698 0.036575466 -0.02383494 0.0011634935 0.014718157 0.0014253826
-0.012975602 0.006965823 0.009964326 -0.0057673706 -0.009581788 -0.030374197 -0.00070238876 -0.004798316
-0.034837097 -0.020532101 -0.0027178705 -0.039510567 0.028497186 0.013416914 -0.00831039 -0.015425481
0.0026574743 -0.034102995 0.012231755 -0.0031259737 -0.013952889 0.0018632478 0.025520686 -0.026051661
-0.03970758 -0.031012602 0.017368158 0.013797268 -0.012083597 0.038917795 -0.0032905184 0.027459275
0.0093327 -0.014283534 -0.03699864 -0.010551054 0.010926971 -0.007470748 -0.02061468 0.007962457
00000000: 9918 84bc 407d 953c e2e9 dbbc a8ef bb3c
00000010: 41cd e2bc 7633 88bc 9c39 64bb 7e82 d9bc
00000020: 6800 d13c 53b0 413b 28da 7e3b 0b0b 1a3c
00000030: 678c 0fbc f32a 12bd 542c 8abd 53a2 2d3d
00000040: efed debc 68b5 523c e773 b53c 0f7e f0bb
00000050: 02d6 d5bc 9abd c5bc 0964 b8bc dcc9 8abc
00000060: 1764 873c 4b68 02bd 27df 81bc a129 183c
00000070: 473f 35bd 1aa7 793c e4c3 92bc f660 433d
00000080: 699d 953d 53d2 ec3c f451 29bc b775 143c
00000090: 7e44 033c 605b 19bd 5b77 193c 63ab 4dbc
000000a0: a351 9abc 9b84 3e3d 041d 7cbc aaf4 603c
000000b0: 7f9e 93bb c31a 0abc e091 333c 54e3 24bc
000000c0: 7159 b33c 6a41 4ebc 7a61 8cbc 846b ae3c
000000d0: bf13 633a b981 63bd db4b e63b 5e44 e1bc
000000e0: abef f23b c94b ccba 9fb2 983c def4 6bbc
000000f0: 909a 25bb 4380 a3bc e878 b8bc 6d35 be3b
00000100: 55fb d9bc 532e 21bd fca8 c5bc d0ea 6dbc
00000110: f878 423b dc08 7539 569b 10bc b79e 98bc
00000120: 1aae ef3b aab6 ecbc 3441 d93c ca21 90bc
00000130: 554f 9ebc e761 143d 15c3 5bbd 3999 62bc
00000140: 478f 7f3c 9d5c a83c 1726 a9bd 3ed4 0dbb
00000150: df80 5fbc 3f7d 4cbb f23d 9cbb 03be 463c
00000160: 2ccb 683b d3cc 03bc 7d48 a23c d07a d0bc
00000170: 0218 973c 0afe 62bd 8ac2 f8bc c970 87bc
00000180: e58c 0dbb 5160 b2bb 7e60 3e3c d1c1 073c
00000190: d68d 81bd 154e eebb 84ea ba3c b14d 0b3c
000001a0: 2ac0 8ebd c108 56bb 1359 2f3c 861a a5ba
000001b0: f4a2 b5bc 651e 30ba cfac 393c a841 9fbc
000001c0: 27a9 3fbd 1f27 4f3c 64b9 e13c 07f7 d4bc
000001d0: 6d20 2cbc 4a20 bbbc 0555 ee3c ecbe 203a
000001e0: 241a a4bc 83f0 f6bc 0879 493b 5882 16bc
000001f0: f6e2 313b 54c6 573c e58e 25bd 8082 b7bc
00000200: d05e 25bc 15f5 dbbc 1848 c7bc e294 e6bb
00000210: 9274 0fbc 98f8 593c a22f 91bb 8d7b a3bc
00000220: 6f1b 313b 9a8f f43c 6606 813c 022d 19ba
00000230: 8c44 11bd b0ba 0bbc 3635 55ba 42dc 043b
00000240: a554 97bc 8e6a 15bd 6ddb 173d 3fcd b7bb
00000250: 7162 0fbd ca0e 11bd 608e 2bb8 c044 f3bc
00000260: 8bba 9fbc 4e9d 7cbc 5832 2dbb 69d7 6dbc
00000270: 1f34 2cbc 9486 a23c 2adb 8fbc 59f7 8b3d
00000280: 30c4 973c b4cc 0aba a56d f6bc 7103 89bc
00000290: 54e7 0cbb d57f 0abd 81e3 e63b d9f5 24bc
000002a0: 5da4 4fbc 9e9a 383d 72dc 6d3c ae4f e937
000002b0: 4168 eabc 6f1f 843c c88c daba b9f4 d8bc
000002c0: daec 88bc f74f c3bc 9e71 08bd 509f dd3b
000002d0: acb9 5dbc dab5 3abc 8544 733b c268 7dbc
000002e0: 304f c23c 83f1 333c f420 43bc 062c 8abc
000002f0: df2f a43c 3683 383d 94c4 93bc 0315 f33b
00000300: 8017 e2bc a7d5 1cbd a225 863c 9707 923c
00000310: a1f4 29bc b761 9fbb 48f2 24bd 101f be3b
00000320: 5898 16bb ae65 d739 6a8a 973c 7346 31bc
00000330: 33a7 3a3c a574 4b3d 64d0 1bbd 6e48 17bc
00000340: d8d6 e2bc adec 19bc 64c4 0cbd 28d0 153d
00000350: 7e41 c3bc 5d80 983a 6d24 713c e7d3 ba3a
00000360: 9f97 54bc 8f41 e43b 6a41 233c 36fc bcbb
00000370: effc 1cbc 4fd3 f8bc 8320 38ba 313b 9dbb
00000380: 58b1 0ebd f032 a8bc 4d1e 32bb d5d5 21bd
00000390: ee72 e93c 9ed2 5b3c 4d28 08bc 28bb 7cbc
000003a0: 0529 2e3b 95af 0bbd b367 483c 23dd 4cbb
000003b0: a89a 64bc 3938 f43a c210 d13c 4b6a d5bc
000003c0: 6aa4 22bd 240e febc ab47 8e3c f00d 623c
000003d0: 47fa 45bc 4468 1f3d bda5 57bb 46f2 e03c
000003e0: 2ee8 183c 7c05 6abc e38b 17bd 54de 2cbc
000003f0: 0a07 333c 2dcd f4bb 1ee0 a8bc f774 023c

action_model._continuous_distribution.mu.bias f4 [5]
0.031191794 0.017509421 -0.008922218 0.0036214776 -0.008530584
00000000: ef85 ff3c eb6f 8f3c 7f2e 12bc 5056 6d3b
00000010: ddc3 0bbc

action_model._discrete_distribution.branches.0.weight f4 [5, 128]
0.0100781005 9.672236e-05 0.007834329 -0.021292776 0.0044218255 -0.0023340282 0.0083905365 0.0020280972
-0.011175833 0.006167596 -0.012892984 -0.016223708 0.02455139 0.003824848 0.020455431 0.0015701563
-0.00423011 -0.004355605 -0.014797887 -0.0045164707 0.009086559 0.0047386284 -0.01883144 -0.0011364687
-0.0030751675 0.01201437 0.0031203935 0.00047121616 0.0024468254 -0.0045406707 0.0005581914 -0.02215317
-0.0036066358 -0.0057088183 -0.014563363 -0.010111977 0.008151723 0.0023543306 0.014957909 0.025811516
0.007758868 -0.0022184427 0.00061371666 -0.015071983 -0.0062483745 -0.009099276 0.015515206 0.013069055
0.007295929 0.020714112 0.009197027 -0.0029736706 0.0021989634 -0.013005268 0.0018063308 0.019805865
0.013464789 -0.016465684 0.002704338 0.027371572 0.006929657 0.011127585 0.004764155 0.0021808036
-0.00045683328 0.00054198666 -0.0007614844 -0.00041597337 0.0057167406 0.0015074493 0.020356413 0.0037032843
-0.0034129652 0.008235871 0.003959022 -0.012033183 0.007061019 0.005707502 0.0042652446 0.0029091733
0.0058619143 0.0011114466 -0.0022308691 -0.0060190787 -0.0007248668 0.0011116841 0.015938938 0.016913714
-0.006284862 0.0012002736 0.0044636936 -0.008882958 0.0016835866 0.010547206 -1.841278e-05 -0.008173308
0.011653294 0.0031494321 -0.0028297717 -0.0148039805 0.023927383 -0.0076986733 -0.013325102 -0.00667175
0.012924613 -0.006978293 0.018100763 -0.02126324 -0.018239861 -0.01048134 0.012368359 -0.0044917264
0.011019618 -0.008847694 0.013970651 0.012289947 -0.011345265 -0.008571924 -0.007972676 0.011095592
0.0154846 0.023026865 -0.0076274327 -0.0052041053 -0.0015617143 -0.0009891706 0.0024288946 0.0019483095
-0.0072808247 0.00903558 0.0047103288 0.008380447 0.0023351368 0.008746278 0.009395707 -0.0051606796
-0.008483326 0.013352086 -0.008351229 -0.0075367927 0.0111241285 -0.020071369 0.0028851645 0.0067864354
0.009613347 -0.00046074792 -0.0013972474 0.006851901 0.0092286235 -0.0093276715 0.010216897 0.005218808
-0.0006094306 0.0035580338 -0.008835415 -0.00574206 0.002779092 -0.007384881 -0.001835953 -0.005906503
0.015141431 0.01852147 -0.016098455 -0.0012864098 0.0157786 0.00040891703 0.012616708 -0.016065443
0.0037304007 -0.0011334799 -0.0018536346 -0.005853315 -0.0054180003 -0.002679402 0.0043843114 0.0064159646
-0.008558251 -0.026008436 -0.0019505919 0.0012133437 -0.010440546 -0.0037534789 0.0023092297 -0.0090112155
-0.012382944 0.004334376 0.0017946309 -1.6224674e-05 0.001635704 0.013404289 0.006646637 -0.0015050874
0.0028924139 -0.001413182 0.0055536735 -0.0047185062 -0.0015131017 -0.00056853035 0.010301925 -0.0056777126
-0.009610047 0.0060431384 0.00089730753 0.010901167 -0.006137417 0.0069839344 -0.00750935 0.015566705
0.005704461 0.005042733 -0.012567929 0.0017860619 0.0026170693 0.015349129 0.013077422 -0.00719733
0.010788826 -0.005026255 -0.0060089785 0.0063583753 0.0009036574 -0.014611396 0.0056004496 0.007789989
0.013914563 -0.0033578633 0.002765814 -0.007202628 0.0058536613 -0.0030906487 -0.0066736434 -0.007991943
0.009472928 0.0047406824 0.008157619 -0.008208159 0.008448853 0.0023904257 0.0040715467 -0.004935299
-0.0062490343 0.017796043 -0.001410562 0.00080188725 -0.011716542 0.004140959 0.007723754 -0.0059129773
-0.0003689089 -0.004673701 0.014674449 0.0017476896 -0.0011764443 0.0035261607 0.0064107566 -0.0034469408
00000000: 9e1e 253c 6cd7 ca38 8f5b 003c 306e aebc
00000010: f6e4 903b 7ff6 18bb 7678 093c d3e9 043b
00000020: d71a 37bc 8c19 ca3b 183d 53bc 95e7 84bc
00000030: ff1f c93c 4daa 7a3b 2692 a73c b4cd cd3a
00000040: bc9c 8abb 77b9 8ebb d672 72bc e7fe 93bb
00000050: cadf 143c 7f46 9b3b 6444 9abc 90f5 94ba
00000060: c088 49bb ecd7 443c 847f 4c3b 900d f739
00000070: eb5a 203b e8c9 94bb 9753 123a 917a b5bc
00000080: 4f5d 6cbb 0a11 bbbb 2c9b 6ebc b5ac 25bc
00000090: ce8e 053c 1d4b 1a3b 0412 753c ac72 d33c
000000a0: 1a3e fe3b 4b63 11bb d4e1 203a 7bf0 76bc
000000b0: 2abf ccbb 2115 15bc 7e33 7e3c 971f 563c
000000c0: b012 ef3b a4b0 a93c 21af 163c eae1 42bb
000000d0: 7c1c 103b 0c14 55bc 67c2 ec3a e93f a23c
000000e0: 6b9b 5c3c 0be3 86bc 433b 313b 593a e03c
000000f0: 2d12 e33b 7950 363c a11c 9c3b d0eb 0e3b
00000100: 2083 efb9 1c14 0e3a 5a9e 47ba 0017 dab9
00000110: 7f53 bb3b 9b95 c53a 7ec2 a63c cdb2 723b
00000120: 0eac 5fbb bfef 063c afba 813b d426 45bc
00000130: 1f60 e73b ff05 bb3b 77c3 8b3b d4a7 3e3b
00000140: 4d15 c03b f6ad 913a c633 12bb b13b c5bb
00000150: fd04 3eba eeb5 913a 6092 823c a18e 8a3c
00000160: 3ef1 cdbb 8052 9d3a 2d44 923b d489 11bc
00000170: cbab dc3a 30ce 2c3c 2575 9ab7 57e9 05bc
00000180: 75ed 3e3c b466 4e3b b173 39bb 658c 72bc
00000190: 5c03 c43c 2745 fcbb 8751 5abc b29e dabb
000001a0: c2c1 533c 2aaa e4bb 0d48 943c 3f30 aebc
000001b0: c36b 95bc edb9 2bbc a8a4 4a3c 552f 93bb
000001c0: a18b 343c ebf5 10bc 28e5 643c c65b 493c
000001d0: 7ee1 39bc 4171 0cbc d49f 02bc 49ca 353c
000001e0: 1fb3 7d3c d6a2 bc3c 8bef f9bb 3387 aabb
000001f0: 70b2 ccba 0fa7 81ba 172e 1f3b 6b5e ff3a
00000200: fc93 eebb f809 143c 1a59 9a3b 244e 093c
00000210: 1809 193b 8c4c 0f3c 74f0 193c eb1a a9bb
00000220: a6fd 0abc b5c2 5a3c 98d3 08bc 33f7 f6bb
00000230: fa41 363c b66c a4bc 0715 3d3b bf60 de3b
00000240: 4d81 1d3c 8a90 f1b9 d823 b7ba e985 e03b
00000250: a733 173c 17d3 18bc c664 273c 8902 ab3b
00000260: 32c2 1fba e72d 693b 6bc2 10bc e427 bcbb
00000270: 6d21 363b dffc f1bb 5ca4 f0ba 578b c1bb
00000280: c413 783c 56ba 973c e8e0 83bc c09c a8ba
00000290: 1f42 813c ea63 d639 4fb6 4e3c ad9b 83bc
000002a0: bd79 743b 4691 94ba a8f5 f2ba 2acd bfbb
000002b0: 7b89 b1bb e898 2fbb 45aa 8f3b 033d d23b
000002c0: e837 0cbc a50f d5bc 01ab ffba 0f09 9f3a
000002d0: d30e 2bbc edfc 75bb 7256 173b c7a3 13bc
000002e0: d5e1 4abc 6207 8e3b d239 eb3a 391a 88b7
000002f0: 1e65 d63a aa9d 5b3c 08cc d93b 5a46 c5ba
00000300: a78e 3d3b 853a b9ba 97fb b53b b39d 9abb
00000310: 4553 c6ba 6d09 15ba 68c9 283c 1b0c babb
00000320: 7573 1dbc 8505 c63b 4a39 6b3a cf9a 323c
00000330: 631c c9bb 7dd9 e43b fe10 f6bb 7e0b 7f3c
00000340: 7dec ba3b 833d a53b b7e9 4dbc 4b1a ea3a
00000350: 2383 2b3b ea7a 7b3c af42 563c 94d7 ebbb
00000360: 9ec3 303c 48b3 a4bb f7e6 c4bb eb59 d03b
00000370: 6ce3 6c3a a364 6fbc fa83 b73b 2a43 ff3b
00000380: e8f9 633c 990f 5cbb a942 353b 0604 ecbb
00000390: 12d0 bf3b 7b8c 4abb 94ae dabb a3f0 02bc
000003a0: 5734 1b3c ba57 9b3b 89a7 053c 847b 06bc
000003b0: 0f6d 0a3c b0a8 1c3b 9c6a 853b 4ab8 a1bb
000003c0: b3c4 ccbb 02c9 913c 9be2 b8ba be35 523a
000003d0: bdf6 3fbc e2b0 873b 8b17 fd3b a6c1 c1bb
000003e0: 1d6a c1b9 d825 99bb 1a6d 703c bb12 e53a
000003f0: ec32 9aba 2917 673b 5311 d23b 12e6 61bb

action_model._discrete_distribution.branches.0.bias f4 [5]
-0.004860473 0.00496343 0.011688926 -0.0019781133 -0.007341304
00000000: 9a44 9fbb 45a4 a23b e982 3f3c 3ca3 01bb
00000010: 528f f0bb
