results/FinalTest/Tank/Tank-499959.pt (torch, 635120 bytes, 42 tensors)

network_body._body_endoder.seq_layers.0.weight f4 [128, 64]
00000000: 233b be3d 87fd 983d 2b1e e0bd 59ac 523e
00000010: 3d61 243e f5c7 193b 89bc 94bc e606 37bd
00000020: 0586 8ebd 802b f93d 7fe9 a5bc 5e15 d03d
00000030: 886b 043e 126b 1ebe 64af da3d eb0f 82bd
00000040: e655 463d 68bb 36bd d534 9abe bf42 82bc
00000050: c849 4ebe 6fef af3d 02ef d6bd 9f9c 8c3d
00000060: 7061 81bc 46e5 d93d f7db adbc 794b d9bd
00000070: e26c ecbd 1299 31be 6eb2 24be 22a0 aabe
00000080: 3fe9 52bc dc37 fdbc 6a33 163b 604b 1a3d
00000090: a38b 3bbd eddd 723e b32b 933c 403b efbd
000000a0: 139f 033e d082 663d df06 443e c0fe 42bd
000000b0: b8d9 1bbc ef5f 493c ad4d 85bd 8bb4 df3c
000000c0: 54ce 383e 0622 35be 851e 813a d905 943d
000000d0: df14 29bd dda5 d83d d5a0 dbbc 0eea 9fbd
000000e0: 7dde 703d 8f53 06bd 79b5 193d 4e1d 79bd
000000f0: 4c89 bd3d 1c3d 4f3e a216 d9bd 2614 663c
00000100: 4849 7a3e 5657 2fbe 8fab 4bbe 593a 06bb
00000110: 877d 9fbd b6c7 243e c096 033c 6628 c3bd
00000120: 9121 08bd 64d4 af3d c54d 423e 9d9d 1ebe
00000130: 6e35 fabd ecf2 a4be b44c 683d c1a6 093d
00000140: 6659 81bd a700 99bd 9db4 113e ddaa 2b3e
00000150: 84fe d23d 0518 363d 41b7 fbbb 0fc1 63be
00000160: 7123 14bd a3c8 fa3c baf4 1dbe 7a29 7dbc
00000170: c96b 093e 25fc 81bc 8b41 083d b99a 86bb
00000180: 019f 0ebe 9ba9 00be 8272 303b dd07 ae3e
00000190: 02bf f23d e5aa 6b3d ece6 a83e 0ae3 69be
000001a0: dd53 1bbd 8124 083e cc92 5dbe 152c 593c
000001b0: 39b3 3ebe 575b 203d 7f6a 4bbe adf9 f23d
000001c0: 8474 6abc 4b29 1ebe e7da 003d 96e8 14bd
000001d0: de61 4a3d 0d4c e13c 07e9 0dbc b474 273d
000001e0: a671 4439 c081 06be 9071 e43d a9e0 49bd
000001f0: 07c3 b2bc 09c5 6cbd c826 d83d a005 e13c
00000200: 98a9 6bbb aac7 4f3d 5f83 d1bd cff9 da3d
00000210: ebcc 33be c62d 21bd fa6b 4fbd 7bc9 f5bc
00000220: a20c cb3d 7e6f 18bd e0ea 523e 8a16 2ebd
00000230: d737 93bd 120d 423c 92c7 1d3e c22a 01bd
00000240: a9ab 853c c641 5e3d def3 cbbd 1611 a23d
00000250: fbd5 7fbe 1a47 98bd 723e 1a3e 3c6f 0e3e
00000260: fd08 9d3d c01b e4bd 6db9 f4bd 1ab9 90be
00000270: 0433 573c 80d2 363e 1337 26bd f659 653d
00000280: 0d15 8dbd 4c30 5b3e bb72 db3d 8a81 383e
00000290: 7d13 93bd 51e1 253e 0e43 a1bc 2dfa 193d
000002a0: b993 11bc 88f5 dabd dd10 4b3c 4dde c83c
000002b0: f8be a8bd 9323 463e 1ab6 1cbe a82d 25bd
000002c0: 2439 df3c af05 a7be 5f0a 05be 1214 4abe
000002d0: 99e4 86bd d0b4 d1bd 6d92 713e e1ef 4fbd
000002e0: 4ecc 79bd 9184 e5bc 1518 953d 011c 93bc
000002f0: d8ed afbc bca3 60bd 0ff2 21bd 34e4 053e
00000300: 0031 343d 5057 c63d ef21 61be 4854 4bbc
00000310: bbf0 8eba a66e d63d 9943 98bd f717 be3b
00000320: 9543 8f3d f8b6 a8bc 28b2 4abd 50e1 6ebc
00000330: a3b6 6bbe 7c31 2bbe c730 943e 4eac 493d
00000340: 06c2 65bd 2128 41bc 7657 4c3e 89bd 653d
00000350: 2397 b63d c7f3 58bd 7d98 723e afb1 97be
00000360: 2468 49bd 9459 20be 3357 b4be 43e4 523e
00000370: e6bb 1f3e bea5 c03b 8467 e0bd 6155 613d
00000380: 6a3c 2cbe 0661 09bd d10f 823b a937 a3be
00000390: 551d 3fbd bc0f 2fbe a1ba bebd 82b8 3bbe
000003a0: 9ed1 2a3d e64f 763d caf9 ec3d e827 c83d
000003b0: ca64 1b3e 2aea d5bd a8cc 4bbc f92d 123e
000003c0: 9794 6ebd 05a3 b8bd 5404 cb3d 4d8e 45be
000003d0: 5fde e5bd ee23 29bd 0808 bbbd 09d2 f13c
000003e0: d89b eabd ad13 c93c 3f5f 65bd 4c5a a8ba
000003f0: 193c 993c 1991 863d 54f8 fe3c 1ba6 ad3d
0.09288623 0.074702315 -0.10943254 0.20573558 0.16052718 0.002346513 -0.018156307 -0.044684313
-0.06959156 0.121665 -0.020252941 0.101603255 0.12931645 -0.15470532 0.10677984 -0.06350692
0.048421763 -0.04461232 -0.30118433 -0.015900968 -0.20145333 0.0859059 -0.10494806 0.068658106
-0.015793532 0.106394336 -0.021223051 -0.106100984 -0.11544205 -0.17343548 -0.1608369 -0.33325297
-0.012872993 -0.030910425 0.0022918829 0.03766954 -0.045787465 0.2371747 0.017965173 -0.11681223
0.12853651 0.056277096 0.19143246 -0.04760623 -0.009512357 0.012290939 -0.06508956 0.02730777
0.18047458 -0.1768876 0.0009851014 0.07227678 -0.04127967 0.10578511 -0.02681009 -0.07808314
0.05880593 -0.03279453 0.03752658 -0.060818963 0.09254703 0.20238155 -0.1060002 0.01404289
0.24442017 -0.1712316 -0.19889663 -0.0020481555 -0.07787614 0.16091809 0.008031547 -0.0952919
-0.033235136 0.08585432 0.18974979 -0.15489812 -0.12217222 -0.32216585 0.056713775 0.033606295
-0.063158795 -0.074708275 0.14229055 0.16764398 0.10302451 0.0444565 -0.0076817577 -0.22241615
-0.036166612 0.03061325 -0.15425387 -0.015451783 0.13420023 -0.015867302 0.03326563 -0.0041078
-0.13927843 -0.125647 0.002692372 0.33990374 0.11852838 0.057536025 0.3298868 -0.22840515
-0.037921775 0.13295175 -0.2163803 0.013255139 -0.18623056 0.03914961 -0.19864844 0.11864028
-0.014310006 -0.1544544 0.03145876 -0.036354624 0.04940974 0.027502084 -0.008661515 0.04088278
0.00018734354 -0.13135433 0.11154473 -0.04928652 -0.021821512 -0.057805095 0.10554272 0.027468503
-0.003595924 0.050727524 -0.10230135 0.106921785 -0.17558639 -0.039350294 -0.050640084 -0.0300033
0.09914519 -0.037215702 0.2059741 -0.042501964 -0.07188385 0.0118439365 0.15408161 -0.031534918
0.016317206 0.054261945 -0.09958623 0.07913415 -0.24983971 -0.074354365 0.15062883 0.1390962
0.0766773 -0.111381054 -0.1194943 -0.2826622 0.013134722 0.17853737 -0.040579867 0.055993997
-0.06888781 0.21405143 0.107152425 0.18018165 -0.071814515 0.16199233 -0.019685294 0.0375921
-0.0088853175 -0.106913626 0.012394157 0.024520064 -0.082395494 0.19349508 -0.15303841 -0.040326744
0.027248926 -0.32621524 -0.12992238 -0.19734219 -0.0658657 -0.10239565 0.23591013 -0.050765876
-0.060985856 -0.028017314 0.07279984 -0.01795769 -0.021475717 -0.05484365 -0.039537486 0.13075334
0.043992043 0.09684622 -0.21985601 -0.012410231 -0.0010905484 0.10470323 -0.07434768 0.0058011967
0.06995312 -0.020595059 -0.04948631 -0.014580086 -0.23018889 -0.16718096 0.28943464 0.04923659
-0.05609324 -0.011789353 0.19955239 0.056088958 0.08915546 -0.05296686 0.23690982 -0.2962775
-0.049171582 -0.15659171 -0.35222778 0.20594887 0.15599021 0.005879133 -0.10957244 0.055013064
-0.16819921 -0.033539794 0.0039691706 -0.31878403 -0.046658833 -0.17095846 -0.093129404 -0.18332103
0.041703813 0.06013479 0.11571081 0.097732365 0.15175167 -0.10445054 -0.012438931 0.1427535
-0.058247175 -0.090154685 0.09912935 -0.19292565 -0.112240545 -0.04129403 -0.09132391 0.029519098
-0.11455506 0.024545515 -0.055999037 -0.0012844293 0.018705415 0.06570644 0.031124271 0.08478948

network_body._body_endoder.seq_layers.0.bias f4 [128]
00000000: 4b22 f43b 1f11 f8bb 8012 35bd b1b3 31bc
00000010: 3588 65bc e533 0cbb 7361 493b 1b90 8dbb
00000020: a3c6 aabb 581b 953c 27ad 2cbd 122a 8f3c
00000030: c367 febb 8a97 fabc f180 1abc e00b 1b3c
00000040: e4c7 abbb b000 1abd 5d02 1c3b 8d91 47bc
00000050: 0940 9abb d2d2 b9bc 7051 393b 2ad7 78bb
00000060: 1d0a a3ba 34a6 babb 58d0 86bc b6b9 123c
00000070: 9ff8 11bd a88c 77bc 3acc 06bc e816 92bc
00000080: 8bf3 e93b ae20 38bc 74ba 31bc facf 1c3c
00000090: b592 65bb 5094 7c3b 36be 3fbc b208 493b
000000a0: c689 00bd 2bf4 ea39 e617 2f3b 3a5e a63b
000000b0: cb07 2cbc c485 34bd 3ccb 923c 9c3e 37ba
000000c0: 3e75 f439 5c1a 2b3c e8f2 da3b d4f7 26bb
000000d0: d90f a8bb 22a5 02bd dcf6 d2bb a366 223c
000000e0: 3a13 efbb cac7 64bb 000c b2bb e491 86bc
000000f0: e8f9 09bd d163 813c c8fc 89bb 69fe 06bc
00000100: 8ca8 ccbc 4ec4 643b 5b0d 2c3a 3a80 b8bc
00000110: a6fa 1abb f305 fbbc 242c 9cba 870e ec3b
00000120: 78bd af3c 8523 a43c 9669 8abb ecf9 91bb
00000130: a48c 333c 804e 39bc 6145 90bc 5b1f 74bc
00000140: b1c3 26bd 9907 c3bc af47 bdbc 76c9 f3bb
00000150: d91f a93b d172 2ebc 10d3 843c a946 913b
00000160: 0700 613c c5c3 d9bc cbef 3d3c 2da0 c3bc
00000170: 4cbb 06bc 823b c739 0b7e 2a3c 006e ea3c
00000180: 501c f8bc 40e4 da3b f736 82ba 34c2 fabb
00000190: 7b94 45bc 1ea6 41bc bacb 543a 1d56 6d3c
000001a0: 75c5 4ebd feb0 b33c 7fab 02bd 647f f43b
000001b0: abcc 0eba ed27 e1bc b172 973c 5146 143d
000001c0: f3a0 5b3c 3822 91bc 7d42 95bb 4564 d83b
000001d0: 546d 8b3c 4de7 30bc 2909 09bd 3663 4fbd
000001e0: 10f1 0dbc 58d7 b4bb c1a6 74ba 79ac 59bb
000001f0: e720 a23a 814b 6d3c 2c22 4c3b c2c4 d3bc
0.007450377 -0.0075704004 -0.044207096 -0.010846064 -0.014009525 -0.0021393236 0.003072825 -0.004320157
-0.0052116676 0.018201515 -0.04215732 0.017476115 -0.007763834 -0.030589838 -0.009430156 0.00946328
-0.0052423347 -0.037598312 0.002380512 -0.012180698 -0.0047073406 -0.022683535 0.00282773 -0.0037970045
-0.0012438927 -0.0056960825 -0.016456768 0.00895541 -0.035637494 -0.015109219 -0.008227402 -0.017833188
0.0071396283 -0.01123826 -0.010847677 0.00957107 -0.003503007 0.003854055 -0.011703065 0.0030675349
-0.03138139 0.00044813877 0.0026717125 0.0050771507 -0.010499905 -0.04407288 0.017919175 -0.00069902255
0.0004662666 0.010443296 0.0066817887 -0.0025477307 -0.0051288423 -0.031895764 -0.0064381193 0.009912166
-0.007295993 -0.0034909123 -0.0054335594 -0.016426988 -0.033685595 0.015794666 -0.004211042 -0.008239367
-0.024982713 0.0034907046 0.00065632694 -0.02252208 -0.0023647933 -0.030642485 -0.001191501 0.00720388
0.02145265 0.020036468 -0.0042240126 -0.004454842 0.010958824 -0.01131022 -0.017611207 -0.014900054
-0.04071397 -0.023807334 -0.02310547 -0.0074397875 0.0051612672 -0.010647492 0.016213924 0.004433472
0.013732917 -0.026582608 0.011592816 -0.023880089 -0.008223366 0.00038000575 0.010406028 0.028616905
-0.030286938 0.0066800416 -0.0009934594 -0.0076525453 -0.012059326 -0.011819391 0.0008117516 0.014485863
-0.05048128 0.021934982 -0.031901833 0.007461475 -0.0005447368 -0.027484858 0.018487306 0.03619987
0.0134050725 -0.017716512 -0.004555045 0.00660375 0.017019905 -0.010797334 -0.033456 -0.050631724
-0.008663431 -0.005518835 -0.00093327096 -0.0033214374 0.0012369425 0.014483334 0.0031148298 -0.025850657

network_body._body_endoder.seq_layers.2.weight f4 [128, 128]
00000000: 5e15 303e 8828 29bd 5bdb 55bd 5fe6 633d
00000010: 9256 a0bc 98ee 51bd 7719 f93d e5c5 043d
00000020: 1035 0a3e 10ec 2d3c f4b3 83bd ab26 d73d
00000030: 9132 d6bc a473 dabc d268 7dbd a5ed 0b3c
00000040: dd75 2f3d df29 8ebc 9aa3 c2bd c14f 1e3c
00000050: dfa4 f93c 0d59 8ebe 22ac c33d f386 7bbc
00000060: ccea d7bd 2a09 21bc d6ec 4f3d f1bf 4b3d
00000070: 0b37 943c c67b a43d 9e7f 94bd 638d dcbd
00000080: d70f 10bd 5bd1 593d f291 243e 8ce5 8dbd
00000090: f142 73bd 60ac 32be 2469 ab3d e20e 5d3c
000000a0: 6352 103c 6ee0 c03d b384 b13c f6bc d73d
000000b0: e548 163e a0d7 b43d 5e3f 643d ade7 8d3d
000000c0: 9167 c63d 7202 93bd c312 4e3d 15d4 81bd
000000d0: 8f94 b63d ef7a 013d 00b7 2f3e 9583 8f3d
000000e0: ac9d 1fbe 7b23 c7bd 50cf c6ba d75d 9bbd
000000f0: bb0c 863d e256 a3bd 624d bbbc 52c9 c03d
00000100: 3fe0 af3d 23f3 da3d 4743 5e3d e305 e7bd
00000110: 7bdb b83d 99c3 583b 76fc 7ebc e58b efbd
00000120: 0099 b43d 2bd4 063d 16ed 083e dddc c8bd
00000130: ef7e bdbd 6955 1bbe 6f31 933d 439b ed3d
00000140: c404 b1bd 1ae6 98bc e204 9e3d b067 90bc
00000150: 5a75 1f3e c99b 9a3d 0925 68bc f42e 18bc
00000160: c471 2ebd 3038 2c3d b79d 9f3d fd1a 2bbe
00000170: 2db5 29bd 146b fb3d 044d 23bc ce97 b03d
00000180: 68e6 7bbd 46b7 11bd af52 3d3c d9d5 e5bb
00000190: 9c61 d4bd 7a2e 23bd 9c9f 67bd eaaf 143d
000001a0: f121 863d 5561 4d3d 01fa 5b3a 53d8 683c
000001b0: df82 dbbd c7ed 393e c5b6 e03d efff af3c
000001c0: cbc5 cebd 3535 eabd 33fc cb3b 2d31 0ebc
000001d0: 798f 103e f049 0dbc e108 debd 9d1f 28bd
000001e0: 1d39 46bd 1ef2 98bd a744 443d 5a31 6e3d
000001f0: b651 4ebc c46d bf3d eecd 08bd d11c 013e
00000200: f7aa b6bd 0ded 75bd 8edc 56bd 322f 3cbc
00000210: 6a6f 08bd 0ed1 31bd 2e70 06be 63c2 d7bc
00000220: c4c8 913d 924a 63bd b84b 913c 3295 75bd
00000230: bb01 d0bd 6faf fb3d a6c4 4c3d ee49 f93c
00000240: 5d14 17bd 86ae 06be 5e53 11be b410 17be
00000250: 7c18 c03d 7d84 973d d9be 15be 318f 6ebd
00000260: 0ba6 0d3e ac9e 263e 3e0e 343d 6be8 1ebe
00000270: 4a82 efbc 5e57 9dba 2488 323c be02 a03c
00000280: e2cb bebc 13c4 c33d b773 6dbd 1bbf 08bc
00000290: 29ce ea3b 65f7 8f3c 367d 18bd cb12 483d
000002a0: ccd6 663d 4021 833c b80e ba3d 5157 8b3c
000002b0: c9a0 d43d 83ea f83d f471 a63d 1006 583e
000002c0: 7b43 2ebd 4f8f fc3b 436c eb3d 771a cfbc
000002d0: d70e 183d 68c1 87bc d701 acbd b0ff 1e3d
000002e0: 5ee9 9cbd 4590 fcbd bc75 383d cca7 413d
000002f0: 65f7 f03d 3796 6b3d bea1 31be 3a62 133d
00000300: 9b84 31bc 605b 19be a933 ba3d dcf8 543c
00000310: 4215 6d3d ed61 3abd 7986 eb3d a5fa 463d
00000320: 2152 753b abd9 a3bc 83f3 373c 392e 9fbd
00000330: 2c35 b0bd 9646 fabd d0e4 4ebd f199 2c3d
00000340: e573 443d 66a5 dd3d 5c34 5d3d 2e3b 59bc
00000350: 3484 083d 9c2a 9d3d 2ad1 8fbd 2655 4abd
00000360: 1bb4 073d e356 fd3d 5c84 b5bd d274 763d
00000370: 777d e1bd 5e8b 89bd 1332 03be a36b cb3c
00000380: acc2 923d 1bd3 e0bd 5792 fabd aef2 8b3c
00000390: 3bd1 0d3d 8459 fa3b 6b95 0c3d 9455 4c3c
000003a0: d1e1 043d 74bd febd 7a7d 743c 0a06 913d
000003b0: cdbf 08bc 4f9c 1ebd 2383 75be f831 08bd
000003c0: 5295 943d 4df8 aabd ec36 8ebb 05f3 483d
000003d0: 14a0 4cbd 2eef 963d 16bd 85bd 2842 ae3d
000003e0: f0aa c83d 16c3 6f3d 643f d8bb 6a51 b63c
000003f0: 49f0 873d b30d e8bd 160e ad3c 38f5 d33c
0.17195651 -0.04129842 -0.052211147 0.05563962 -0.01957253 -0.05125293 0.1216306 0.03241529
0.13496804 0.010615364 -0.06430808 0.10505422 -0.026147159 -0.02666647 -0.061867543 0.008540546
0.042837013 -0.01735395 -0.09503861 0.0096625695 0.030474124 -0.27802315 0.09554316 -0.015351999
-0.10542831 -0.009828845 0.050762974 0.049743596 0.018092653 0.080314204 -0.072509035 -0.10769155
-0.035171356 0.053178173 0.16071299 -0.06928548 -0.059390012 -0.17448568 0.08369663 0.013492318
0.008808705 0.094178066 0.021669721 0.10534088 0.14676245 0.0883019 0.055724494 0.06928954
0.096877225 -0.07178201 0.05031086 -0.063392796 0.08915054 0.03161138 0.17159653 0.07007519
-0.15587491 -0.09723564 -0.0015167985 -0.07586258 0.06545397 -0.07975556 -0.022864047 0.09413399
0.085876934 0.10690906 0.05426338 -0.1128042 0.090262376 0.003307557 -0.015563121 -0.11696605
0.08818245 0.032917183 0.13371691 -0.09807751 -0.09252726 -0.151693 0.07187163 0.116018794
-0.08643487 -0.018664408 0.07715775 -0.017627567 0.1557211 0.07549245 -0.014168986 -0.009288538
-0.042588964 0.042045772 0.077937536 -0.16709514 -0.04143255 0.12276283 -0.009967092 0.086227044
-0.06149903 -0.035575174 0.011555358 -0.007014018 -0.1037018 -0.039839245 -0.0565487 0.036300577
0.065494426 0.05014165 0.00083914405 0.014211732 -0.10718321 0.18157111 0.109723605 0.021484343
-0.1009632 -0.1143593 0.006225133 -0.008678717 0.1411723 -0.008623585 -0.10841537 -0.041045774
-0.04839431 -0.07468055 0.047917034 0.058152534 -0.012592724 0.09347108 -0.033399515 0.12608649
-0.08919328 -0.060040522 -0.05245643 -0.011485862 -0.033309378 -0.04341226 -0.1312873 -0.026337808
0.07118371 -0.055491038 0.0177363 -0.059956737 -0.1015658 0.12289321 0.049992226 0.03043076
-0.036884654 -0.13152513 -0.14191958 -0.14752465 0.0937967 0.07398317 -0.14623584 -0.058242027
0.13832872 0.16271466 0.043958895 -0.15518348 -0.029236931 -0.0012004187 0.010896716 0.019532558
-0.023290578 0.095588826 -0.057971682 -0.008346344 0.0071656895 0.017574022 -0.037228785 0.048846047
0.05635719 0.016007066 0.09084839 0.01700941 0.1038223 0.121541046 0.081272036 0.21096063
-0.042544823 0.0077075134 0.11495259 -0.025281174 0.037123527 -0.016571715 -0.083987884 0.03881806
-0.07661699 -0.12332205 0.045034155 0.047279164 0.11765937 0.057516303 -0.17346856 0.035982348
-0.010834838 -0.14976263 0.09091885 0.012998786 0.0578816 -0.045503546 0.11500258 0.048578877
0.0037432986 -0.020001253 0.011227491 -0.07772488 -0.08603892 -0.122204944 -0.05051118 0.042138997
0.04796209 0.10822563 0.054005012 -0.013258738 0.033329204 0.07674143 -0.07022317 -0.04939761
0.033130746 0.12370088 -0.08863136 0.060170002 -0.11010259 -0.06716035 -0.1281207 0.024831599
0.07166037 -0.10977765 -0.12234943 0.017083492 0.034623366 0.0076400656 0.034322184 0.012471575
0.032441918 -0.12438479 0.014922494 0.0708123 -0.00834651 -0.038723286 -0.23975806 -0.03325078
0.07255043 -0.08348141 -0.0043400433 0.049059886 -0.04995735 0.07369839 -0.06530206 0.08508712
0.09798229 0.058535658 -0.0065993536 0.022255618 0.06637628 -0.11330738 0.02112488 0.025873765

network_body._body_endoder.seq_layers.2.bias f4 [128]
00000000: 22cb 513c e751 afbc bcee 09bc c64e b5bb
00000010: 9512 00bd 593e af3b 6862 b7bc 65ef 3bba
00000020: b0dc 19bc e87d d7bc e374 6ebc 516b d4bc
00000030: f4fe cabc dfb6 083b e01e 79bc bfd3 663c
00000040: b9ac 1abc d4f5 2e3b cd44 0bbc 6eca 5cb8
00000050: c36f 8abb 21c3 2dbb 1e67 dabb 273a 873c
00000060: 145c c73c c8ca fcbc 7eb0 95ba c216 c3bb
00000070: e8ee e4bb 3c32 5a3b 5955 ef3a 6ccf 86bc
00000080: bf73 a9bc a73c 05bd 1fc3 263b 8c0e 78bc
00000090: 6ff7 2b3c 8150 40bc f8c5 5cbc e88d a6bb
000000a0: a960 2aba b9e8 0d3b 45eb 0cbc 793e bc3b
000000b0: 2881 35bc f31a 87bb be05 17bc 7cf0 86bc
000000c0: b950 7abc 3fa6 6b3c fe8c 323b 1385 fc3b
000000d0: eaf3 11bb 0404 92bc 9c65 173c f3d0 c33a
000000e0: b20a 29bc 9717 4b3b 1124 8fbc 4b9e 90bc
000000f0: f79d 2cbc f1d7 e4bb 702b e03c e674 2bbc
00000100: f4d2 1abc dcb2 0bbd 212e 80bc ac81 913c
00000110: ecef 153d 4e65 b6bc 11c5 6dbc 8848 883c
00000120: c5f9 153b b3c8 c83b f323 bfbc 5f1b a1bc
00000130: 91bf c8b8 42fc 0cbc 3b74 ee3a 42d3 1dbd
00000140: e0dc 8fbb 99d6 a9ba d0ac 60bb 3612 14bc
00000150: 0eb4 23bc 9ae6 763c 9f03 16bc 5959 99ba
00000160: 3f94 ae3b 78d7 583c 0064 dc3b 7121 423c
00000170: 63d5 fd3c d780 9c39 18c3 03bc ea85 17bc
00000180: 8b1a 93ba 1cb7 09bb 913a d2bb 11db 1d3c
00000190: 0094 be3b 9fa9 bd3b d38c 42bd e1c1 3c3c
000001a0: 5fb3 523b 09d8 e5bc 395f 17bc 69b8 0dbc
000001b0: 393c 69bb 58d4 18b8 4af8 91bc 4ddb 043b
000001c0: 360f d739 5c97 ebb9 503b 8abc 5fa7 c73c
000001d0: 9317 92bc ab6d 5dbb eb9d 56bc 855f 203c
000001e0: c92d 963c 830a f5bb 0d02 fc3c 21fe 13bd
000001f0: 0dbf ec3b ff83 17bd 5441 c53a 63c9 a3bb
0.012804778 -0.021401359 -0.008418735 -0.005533072 -0.03126772 0.0053480086 -0.022385791 -0.00071691565
-0.009390995 -0.026305154 -0.014554235 -0.025930079 -0.024779774 0.0020860953 -0.015205115 0.01408857
-0.009440594 0.0026696818 -0.00850029 -5.2640615e-05 -0.004224749 -0.002651401 -0.0066651246 0.016507221
0.024335898 -0.030858412 -0.0011420397 -0.0059536407 -0.0069864877 0.0033294102 0.0018259689 -0.016456328
-0.020685075 -0.032528546 0.002544589 -0.015140187 0.0104960045 -0.011737944 -0.013474934 -0.0050828345
-0.0006499389 0.0021653606 -0.0086010145 0.005744752 -0.0110781565 -0.0041230856 -0.009217678 -0.016472094
-0.015278035 0.014382898 0.0027244682 0.0077062934 -0.0022270628 -0.01782418 0.009240534 0.0014939591
-0.010317491 0.0030989402 -0.017473252 -0.017653605 -0.010535709 -0.00698375 0.027364463 -0.0104648825
-0.009449709 -0.03410612 -0.015646996 0.017762028 0.03660576 -0.022265103 -0.014512316 0.016636148
0.002288447 0.006127441 -0.023332572 -0.019666372 -9.572425e-05 -0.008605065 0.0018192598 -0.03853155
-0.004390344 -0.0012957632 -0.0034282692 -0.009037545 -0.009991659 0.015069628 -0.009156137 -0.0011699601
0.005327731 0.0132349655 0.006725788 0.011848793 0.03098554 0.00029850632 -0.008042119 -0.009248236
-0.001122312 -0.0021013683 -0.006415673 0.009634749 0.005815983 0.0057880427 -0.04749758 0.011520834
0.003215037 -0.028057115 -0.009239011 -0.008649924 -0.0035588874 -3.6437385e-05 -0.017818589 0.0020272315
0.0004101933 -0.00044935464 -0.016873986 0.024371801 -0.017833507 -0.003378729 -0.013099174 0.009788399
0.018332379 -0.0074780597 0.030762697 -0.036131028 0.0072249235 -0.036991116 0.0015049377 -0.0049983724

action_model._continuous_distribution.log_sigma f4 [1, 5]
00000000: b265 ee3d b6e1 d73d c69b e93d dec3 d23d
00000010: 157c bf3d
0.116404906 0.10541098 0.114066646 0.10291265 0.09349839

action_model._continuous_distribution.mu.weight f4 [5, 128]
00000000: bf35 573d 4f32 afbc 440e 8ebc 1640 5d3c
00000010: dfa8 0bbd b2c3 1cbc 6b42 3abd fca4 8cbc
00000020: 1a28 6dbc a236 0bbd 157c 2d3b 41a5 f0bb
00000030: 2719 b8bc 9e0a b13c 66f9 f6bc a701 8a3c
00000040: 64e2 5938 2613 623b 9d4e ca3b 22eb cbbb
00000050: ef54 32bc d3e4 96bc e528 e3bc e741 0b3d
00000060: 8e81 593c ed71 08bd 60fc bfbc 5048 eabb
00000070: 371e 4c3c 3a38 563c edd6 b13c ef9f ecbc
00000080: 8fff 48bc ea42 ccbc aac9 b1bb fb83 f5bc
00000090: f62a 18bd 3a4f 95bc 5dcc e1bc 09d9 b13b
000000a0: e02d b03a 4d44 933c a544 3b3c 31b7 cbbb
000000b0: 58eb 0fbb 6274 b5bb 9279 42bd 424b 4d3b
000000c0: b3e6 cfbb f685 dfbb c1f0 a5bc e0f7 9bbc
000000d0: 9a8b 4ebc c7e8 91bc 945e 153d e911 5e3c
000000e0: e0a7 7dbc a9e1 2a3c 6049 3bbd 9491 ce33
000000f0: b4ca 83bc 915b 14bd fb5a a83c 21c9 4cbc
00000100: 9ba7 dabb b588 02bd 68af 91bc dcf5 273c
00000110: fe09 a53c ab6c 20bd e815 d5bb 5cf3 803c
00000120: 4e5a 65bb 9436 e43c 8fbf 5abd 1224 93bc
00000130: 8393 853c 93c6 ae3c 80c4 383b b566 2ebd
00000140: d812 abbc a792 91bc a1e2 98bb 1353 f7bc
00000150: e194 9c3c 9be6 ad3b 8619 5abd 270b d0bc
00000160: 9626 223d 5a06 153c 7ead 60bc 6dd8 a03c
00000170: 403a 473d c53f e63b 8010 23bd 3e7c 2cbc
00000180: ed2b daba d72e 673c aa09 56bc 31d5 823c
00000190: ca53 3abb 40a0 95bb ef20 50bd 2161 04bb
000001a0: 735b c1bc 848e d9bc 374e b3bc 93a9 03bc
000001b0: cdb8 893c 4bd8 e93c 655d a7bc 9328 6bbc
000001c0: 45b2 83bc 8cca 333d eb41 48bd c89a 613d
000001d0: 3e14 25bd fc8f 5f3c bdde 86bc 6284 33bd
000001e0: 8ac1 dd3c 995c 423c 25dc 9f3d f9aa d2bc
000001f0: bfc2 5e3c 198a abbc 4cd3 e23c 23dc 49bc
00000200: 5ca3 62bb d135 bd3c 31a4 9ebc d3f2 71bc
00000210: 8bea f53b 87f1 5ebc e20e d73c c8f8 233d
00000220: f4d4 a83b 58a3 e03b 6ac2 163c 6990 e0bb
00000230: 62d2 5b3c 96a9 7abb 7de2 f63b fd13 bd3b
00000240: 5ac5 a2bc 1c62 f3bb 6a8b e5bc cd35 2e3c
00000250: 150c ed38 3774 a73c b3d8 aebc feb2 dfbb
00000260: dc68 363c 672b 81bc 53bd 7d3c 6b42 34bc
00000270: 4f15 553c ea6c ec3a eeea bd3c c9b4 a0bc
00000280: e5c8 fbbb e59c a9bb 01dc e7bb 50dd 923c
00000290: dd51 d7bc 5806 1cbb 8be2 9c3c 5af2 7a3c
000002a0: 74fc 1d3d b494 a0bc 22de e2bb 9eca 483c
000002b0: 071a 9ebc 3a59 3cbb 13e6 a23c b216 d73b
000002c0: 4fd4 5a3c 9b88 95ba 2a51 dcba 3021 753c
000002d0: e57e 3c3b d046 cebc 9975 30bc 56bf 25bc
000002e0: 8756 d6bc 6256 153c 310b 1fbd 20bd ba3b
000002f0: 9e67 d33c 60c7 f03c 6359 a6bb fc82 113d
00000300: 417e 32bc d668 273c 9b0b 34bd cb25 06bc
00000310: 8bec 8d3a ecee 433c a33f c13c 5541 833c
00000320: 5723 c4bc 546e d23c 2a1a 1d3b 335b 073c
00000330: 13c7 013d 4217 1ebd 1994 e73c d4a2 08bc
00000340: 879d 76bc 2fd0 2abb b089 d43b a7a4 abbc
00000350: 9bcf c8bc f962 cfba 51c1 c0bc b43e b3bc
00000360: 4b34 383b 3214 513c 3bd7 4ebc b285 9b3b
00000370: 6b13 443c 6f72 4cbc b88c 1cbc 16b9 03bd
00000380: 78f6 843c 1d67 983c 3363 663c 5dd2 e6bb
00000390: 851d 473c 763d d63c 4df1 d9bb 5516 983c
000003a0: c67c 88bc 2e6a 743a 9bd5 87bc 39c7 053d
000003b0: 84ac 9a3c 5c57 9f3c 5739 113c ce9f 56bb
000003c0: a6ff e23c 5552 dcbb 523e 34bd 6872 c03c
000003d0: a88e 213d e74e 21bb dca4 9e3c 363d 3d3c
000003e0: 4b2f 9d3c a998 273c 8e77 8c3c a493 513a
000003f0: adb3 e1bb 4dd9 c6bc 25ee 023a da50 873c
0.05254149 -0.021386294 -0.017340787 0.013504049 -0.034096595 -0.009568142 -0.045473497 -0.017168514
-0.014474893 -0.03398765 0.0026471664 -0.0073439186 -0.022472931 0.021611508 -0.03014822 0.016846491
5.1947674e-05 0.0034496277 0.006173922 -0.0062230984 -0.010884508 -0.018419659 -0.027729461 0.033998396
0.013275517 -0.033311773 -0.023435771 -0.0071497336 0.012458376 0.013074929 0.02170893 -0.028884856
-0.012267961 -0.02493425 -0.0054256516 -0.02997016 -0.037150346 -0.018226255 -0.027563268 0.005427484
0.0013441406 0.017976904 0.01142994 -0.0062169065 -0.0021960344 -0.0055375556 -0.04747922 0.0031325375
-0.00634464 -0.0068213893 -0.020256402 -0.019039094 -0.012606526 -0.017811192 0.03646715 0.013554075
-0.015481919 0.010429778 -0.045724273 9.619103e-08 -0.016087867 -0.036220137 0.020551195 -0.012499125
-0.006672812 -0.031868655 -0.017783836 0.010251489 0.020146366 -0.039166134 -0.0065028556 0.015741043
-0.0034996453 0.027858056 -0.05340534 -0.017961536 0.01630569 0.021334922 0.0028193295 -0.042578418
-0.020883009 -0.017770125 -0.004665688 -0.03019098 0.01911396 0.0053070313 -0.053246997 -0.025395943
0.03958758 0.009095753 -0.013713239 0.01963445 0.048639536 0.007026645 -0.039810658 -0.0105276685
-0.0016645171 0.014110289 -0.0130638275 0.015970798 -0.002843129 -0.0045662224 -0.050812658 -0.0020199495
-0.023603177 -0.026557215 -0.021887882 -0.008036035 0.016811753 0.02854552 -0.020430276 -0.014352935
-0.016076216 0.043894336 -0.04889099 0.05507925 -0.040302508 0.013645168 -0.016463632 -0.043827422
0.027069826 0.011862897 0.07805661 -0.025716292 0.013596236 -0.020939874 0.027688645 -0.012320551
-0.0034582233 0.02309695 -0.019365402 -0.014767366 0.0075047663 -0.013607389 0.026252214 0.04003218
0.005152339 0.0068554096 0.009201625 -0.0068531525 0.013416858 -0.0038248054 0.0075343237 0.005770205
-0.019869495 -0.007427467 -0.02802058 0.010632944 0.00011303291 0.020441158 -0.021343565 -0.0068267575
0.011133399 -0.015767766 0.015487033 -0.011002163 0.013005569 0.001803783 0.023183312 -0.019617455
-0.0076838606 -0.005176174 -0.007075787 0.017927796 -0.026284153 -0.0023807492 0.019150993 0.01531657
0.038570836 -0.019602157 -0.006923453 0.012255339 -0.01929952 -0.0028739707 0.019885099 0.006563985
0.013356282 -0.001140851 -0.0016808857 0.014961526 0.0028762158 -0.02518025 -0.010770225 -0.010116419
-0.026164306 0.009114834 -0.038829032 0.005698815 0.025806244 0.029391944 -0.0050765737 0.035525307
-0.010894359 0.010217866 -0.04395638 -0.0081877215 0.0010827942 0.011958819 0.023589915 0.016022364
-0.023942633 0.025687374 0.0023971894 0.00826149 0.031683993 -0.0385964 0.02826886 -0.0083396025
-0.015052206 -0.0026064028 0.00648614 -0.020952536 -0.024513057 -0.0015822343 -0.02352968 -0.021880485
0.002810734 0.012761163 -0.012624557 0.0047461623 0.01196752 -0.012478455 -0.009555034 -0.032158934
0.016230807 0.018603856 0.014061737 -0.00704412 0.012153034 0.026152354 -0.0066510797 0.018565336
-0.01666106 0.00093236833 -0.016581347 0.032660697 0.01888109 0.019450836 0.008863769 -0.003274906
0.027709793 -0.006723682 -0.044004746 0.023492053 0.03944269 -0.002461368 0.01936572 0.011550238
0.01918759 0.010229268 0.017146852 0.00079947175 -0.006887874 -0.024273539 0.0004994593 0.016518045

action_model._continuous_distribution.mu.bias f4 [5]
00000000: 5b48 a23c 8d87 b7ba 4b86 85bc 81e6 a539
00000010: a2a2 34bc
0.019809892 -0.0014002189 -0.016299387 0.0003164299 -0.011025103

action_model._discrete_distribution.branches.0.weight f4 [5, 128]
00000000: e8d7 80ba 3d19 65bc fa8a 6ebc 8ade dc39
00000010: c17e 2e3c 8665 a0bc c1c5 4fbc c0c2 373c
00000020: 6a53 2cbc b5f8 263b 2fe5 09bc bfad e03b
00000030: 419f 93bc f125 de3b da32 0f3c f227 0dbc
00000040: e970 383a 12cb 3bbc 830c 32bc 737d 17bc
00000050: 3f23 bb3b a963 0abc 4fad 3bbc de12 113c
00000060: 00df 4c3c bf62 dabb a9d6 4dbc ea72 20bb
00000070: 093b d5ba f6b9 d83b 9320 d7bc 8129 c13b
00000080: 4e81 47bc e900 3dbc a80b 32bc d69b a5bb
00000090: f553 903c eba0 043c 818f 823a 693a 923b
000000a0: a8a1 adb9 bb7a babc ae3d 94bc 1506 043c
000000b0: d562 26bb 6b34 98bb 1599 263a fd7e 38bb
000000c0: fece d0bb b6cc 953b 8bab 213c a395 623b
000000d0: fee3 04bc d74d fdba 4bfb 9aba f78c 06bd
000000e0: e9ed 963b 69ba d83b 0b22 0bbc bf3f 06bc
000000f0: 6f73 64bc a6fc 82bc 8a3d 8a3c af0e d9ba
00000100: 3157 bfba ff76 273a 714b d03c 265a 4c3c
00000110: 5e93 2f3c 3429 683c fbe5 abbb a017 413b
00000120: a77c 4d3c 4cff 88bb 75d7 db3b 6659 f93b
00000130: a6fe abbb ac45 62bc 26c4 713c 533f 353b
00000140: 5e81 c0ba b802 563c ae1b 72bb 5777 5c3c
00000150: 797e 86bb 282a c43b 563c 223c db7e 023a
00000160: 9715 51bc 110c 433c fe7a 513c d157 f5bc
00000170: b014 bb3b cfc7 33bc e951 48bb 3144 94bb
00000180: 0aa2 4b39 0581 ad3b 908b ea3b be43 a4bb
00000190: f8e5 0abb 271d 1a3c c739 b3bb a4d7 e43b
000001a0: c648 3b3c 3f8b e43c 5cdd 68ba b5bb a43b
000001b0: c2fc e3ba cbce e4bb 5dfd 973b f51d 11bc
000001c0: 31d7 cd3c 1542 3e3a ac75 e33b 23cf f93b
000001d0: 93b3 32bc 8001 d13b bbca 8d3b 3b8c 973b
000001e0: 7678 41bb 68f5 373c ab75 59bc a2dc ab3b
000001f0: 99cf 183b 2bd5 5ebb 22b8 8c3c e1bd 1bbc
00000200: 97da 473c 57f9 3abb ed06 9dbc 2cb8 7fbc
00000210: 373e 223c 07ff 1bbb 2008 5e3b a092 583c
00000220: de23 3839 d85c 88ba 259a 27bc 2f00 c23a
00000230: 52f5 64bc 0548 2838 203b d9bb 53ba bdbc
00000240: 52c5 103c 1b4f 1d3c be75 643c 4b7d 633b
00000250: 6512 083c 1a28 8abb e879 bdbc 5b48 733c
00000260: 11b1 10bc 0633 fc3b d022 603a bfc2 353c
00000270: 242e 243b 7aaa 173c 5554 c1bb e095 1cbb
00000280: 9738 65bc 6110 03ba 7faf bdbc 677d 22bc
00000290: 838c 063c 25d5 463c 8958 2abc 7de1 37bb
000002a0: db23 2c3c 683e 58bc c1ad 573b 8006 88ba
000002b0: 8182 0cbb d52a 543c 0913 be3b de0d 9b3b
000002c0: 896d 35bb 8217 22bc 36a5 7d3a 4e1d 983c
000002d0: e0d2 433c f28b bbbb 0886 0fbc e162 0dbc
000002e0: 5cba 023c e760 273c aa5e e9bb 76b6 89bb
000002f0: 858c 3a3b bc1c 94bc f6ec 0fbb eb1b b4b9
00000300: c736 c7bb a1a5 51ba 587f 52bc d208 653b
00000310: c1ec 43ba 325e 893c 7b5e 91bb 2dfd e53b
00000320: 69cb db3b 7ee9 81bc cd51 253c c7f8 ccbb
00000330: e498 e9bb bb6f 17b9 ba37 57bc 7903 693b
00000340: 3435 15bc 1f59 40bc ac9a 4b3c 9a62 4abc
00000350: 02c9 593c 7b26 b23b ac31 583a c7e7 113c
00000360: c1be 813b 7ece eabb ba9a 4b3c c844 343b
00000370: d385 b03b 1393 5fbc 486f a8ba 7d57 52bc
00000380: 9557 2eba 2d12 8fbc f66b 81ba cb13 063b
00000390: 3414 b03b 2981 21bb 6d83 11bb 29c5 503c
000003a0: 624f 4a3a 519c 0b3c 57f9 d7bb 3ca8 6dbb
000003b0: edcd 983a 21fd 523b 54f5 413b ba26 aa3b
000003c0: 3c37 c43c 7f59 083c b2f6 253c 0c4c d1bc
000003d0: 4001 22bc 9559 ac3a d8ff 103b 6297 e53b
000003e0: f5eb 91bb ed0e 0f3b f77e 9fbc bfe2 15bc
000003f0: 2e3e ae3b 991c d2b8 b8c3 ce3b 240d c5bb
-0.000982997 -0.013983068 -0.014559502 0.00042127474 0.010650338 -0.01957966 -0.012681426 0.011215866
-0.010517934 0.002547783 -0.008416458 0.0068566496 -0.018020274 0.0067794253 0.008740151 -0.008615481
0.0007035868 -0.01146199 -0.010867241 -0.009246218 0.005710989 -0.008446612 -0.011454894 0.008854596
0.012504339 -0.0066646035 -0.012563386 -0.0024482557 -0.0016268204 0.006613965 -0.02626065 0.00589484
-0.012176825 -0.0115358615 -0.010867037 -0.0050539775 0.017618159 0.008095006 0.000996098 0.0044625294
-0.00033117575 -0.0227636 -0.018095817 0.008058091 -0.0025388498 -0.0046449206 0.00063552085 -0.0028151863
-0.0063723316 0.0045715226 0.009867559 0.0034574054 -0.008110998 -0.0019325566 -0.0011824159 -0.03284928
0.004605998 0.0066140187 -0.008492003 -0.008193909 -0.013943537 -0.015989613 0.016875047 -0.0016560162
-0.0014598129 0.0006388276 0.025426598 0.012472665 0.010716287 0.01416998 -0.0052459217 0.0029463544
0.0125419265 -0.0041808244 0.006709034 0.007609534 -0.0052488623 -0.013810556 0.014756238 0.0027656152
-0.0014686992 0.013062172 -0.0036942768 0.013456187 -0.004104432 0.0059864707 0.0099020805 0.00049780094
-0.012761495 0.011904732 0.012785671 -0.0299491 0.0057092533 -0.010972931 -0.00305664 -0.0045247306
0.00019419953 0.0052949213 0.0071577504 -0.0050129583 -0.00211942 0.0094063645 -0.005469534 0.006983714
0.011430925 0.027898429 -0.0008883083 0.0050272592 -0.0017394053 -0.0069826595 0.0046383576 -0.00885724
0.025127025 0.0007257772 0.006941518 0.0076235696 -0.010907072 0.0063783526 0.004327146 0.004624871
-0.0029521263 0.011227943 -0.013272683 0.0052448073 0.0023317097 -0.003400157 0.017177645 -0.00950572
0.012198112 -0.0028529966 -0.019168342 -0.015607875 0.0099025285 -0.0023803131 0.0033879355 0.013218552
0.00017560969 -0.0010403646 -0.010229622 0.001480108 -0.013974505 4.0121395e-05 -0.0066293627 -0.023160135
0.008836107 0.00960138 0.013944088 0.0034712132 0.008305167 -0.0042162063 -0.023129418 0.014848794
-0.008831278 0.007696512 0.00085501093 0.011093794 0.0025051916 0.009256953 -0.0058999457 -0.0023893043
-0.013990543 -0.0004999694 -0.023154972 -0.009917594 0.008212212 0.012135779 -0.010397085 -0.0028057985
0.0105065955 -0.013198473 0.0032909962 -0.0010377914 -0.002144009 0.012949665 0.005800609 0.0047318777
-0.0027683696 -0.0098933 0.00096758024 0.018568661 0.011952132 -0.00572347 -0.008759983 -0.008629532
0.007979002 0.010215974 -0.0071218805 -0.0042026592 0.0028465104 -0.018080108 -0.0021961308 -0.00034353076
-0.006079528 -0.0007997398 -0.012847744 0.0034947884 -0.0007473939 0.016768549 -0.004436312 0.0070187063
0.006707598 -0.015858408 0.010090304 -0.0062552425 -0.0071288217 -0.00014442105 -0.013135845 0.0035555048
-0.009106923 -0.011739998 0.012427013 -0.01235261 0.013292553 0.005436716 0.0008247148 0.008905358
0.003959507 -0.007165729 0.012427026 0.0027506817 0.005387047 -0.013645905 -0.0012850547 -0.012838242
-0.0006650624 -0.017464722 -0.0009874094 0.0020458575 0.005373502 -0.0024643636 -0.002220358 0.012742319
0.00077175174 0.008521155 -0.006591003 -0.0036263606 0.001165805 0.0032194334 0.002959569 0.005192605
0.023952119 0.008322119 0.0101296175 -0.025548957 -0.009887993 0.0013149256 0.002212515 0.0070065716
-0.004453177 0.0021828965 -0.019469721 -0.009148299 0.005317471 -0.00010018907 0.0063099526 -0.0060135294

action_model._discrete_distribution.branches.0.bias f4 [5]
00000000: 48ef cc3b 61f4 203c 077b e23b 6a29 9c3b
00000010: cba2 c1bc
0.0062541105 0.0098238895 0.0069116387 0.004765679 -0.023637196

exp_avg f4 [128, 64]
00000000: b388 a8b3 5548 2837 47c9 3331 77d6 e5b7
00000010: 531e e2b7 7b4d dfb1 4598 1f37 53d2 c831
00000020: 0dc9 e5b7 4a5e e3b7 c125 7b32 dff0 2537
00000030: ec2f 5233 06d2 e5b7 6c25 edb7 47f9 ec34
00000040: 4274 1837 6952 8ab2 36d2 e5b7 97a0 ddb7
00000050: 4d99 9b33 62e9 1b37 231e 1034 4ec6 e5b7
00000060: 654c e9b7 c136 6236 8c32 d436 ccd9 57b4
00000070: 9eab e5b7 c2a7 d4b7 2c14 ecb4 e823 4c37
00000080: 9eb7 16b6 3683 e5b7 60ca ebb7 77d2 4f35
00000090: 26d2 c636 dd35 3a36 ae81 e5b7 0551 a9b7
000000a0: 25e9 0036 5c11 fd36 ff84 6a32 6a84 e5b7
000000b0: bf29 cab7 3c73 b234 18b0 1437 7a1e 9934
000000c0: 3684 e5b7 84b5 abb7 3c73 b234 18b0 1437
000000d0: 7a1e 9934 3684 e5b7 84b5 abb7 c143 3441
000000e0: f68d 1c3c 796b 3441 dcf4 b2bc 324f 2541
000000f0: 9e20 53b4 cf05 b4b6 728a aab7 6b44 11b8
00000100: 7c36 e6af 3fb2 47b7 a41a 6b30 7658 06b8
00000110: 5c0c 13b8 0d48 a32e 8275 48b7 3efa feaf
00000120: 3f5b 06b8 081d 0eb8 5f4d 24b3 fa72 4db7
00000130: 391e 2a34 d760 06b8 3a58 11b8 84f5 7035
00000140: 9772 57b7 f53c 0fb1 b259 06b8 9f76 fbb7
00000150: 4a7c 2bb6 acac 0eb7 7af7 16b5 f058 06b8
00000160: 4e54 18b8 1a0b 9936 84fc 83b7 bf65 85b5
00000170: 9470 05b8 31ed 05b8 a916 deb6 11a3 a3b6
00000180: 495e e0b3 b1dc 07b8 03fa 0fb8 eb2d 0434
00000190: e960 45b7 571a 41b4 79e3 06b8 5ff1 07b8
000001a0: 99ae a634 a746 47b7 fb69 07b3 c8d2 07b8
000001b0: d984 1ab8 5359 e5b5 fc77 31b7 3000 3935
000001c0: 7ed3 07b8 1daa 15b8 5359 e5b5 fc77 31b7
000001d0: 3000 3935 7ed3 07b8 1daa 15b8 8b2e 0d41
000001e0: 196d 1f3c 705f 0d41 682a c1bc ead8 dd40
000001f0: 8fe1 b938 d265 5db7 85af c1b7 db0e 1eb8
00000200: bc78 4233 2d09 3236 d287 ce31 94e8 3fb8
00000210: 3819 3fb8 e568 cf32 fcf7 4436 ba3b 2130
00000220: fbe7 3fb8 e393 3bb8 b455 0f33 5a9d 3636
00000230: 96b5 30b3 c2ed 3fb8 d4f7 3db8 0d09 df34
00000240: 6cdf 2836 2398 1533 55e7 3fb8 6a2e 25b8
00000250: ef12 35b4 0576 5536 46f7 21b3 5ded 3fb8
00000260: e991 39b8 df10 21b5 37ac 4136 fb56 0d35
00000270: 3b48 3fb8 bc56 2fb8 99f5 2834 a26d 4436
00000280: 222c 90b4 ad48 3fb8 4c7b 43b8 7679 d134
00000290: 31a7 c036 131f 5eb6 4752 3fb8 8121 37b8
000002a0: a7a0 61b5 dbcd 7336 8610 ea32 b647 3fb8
000002b0: fc46 49b8 b1bc 0536 81a3 b835 51e8 15b5
000002c0: 6f4a 3fb8 c70b 4ab8 b1bc 0536 81a3 b835
000002d0: 51e8 15b5 6f4a 3fb8 c70b 4ab8 d32b b741
000002e0: a301 893c 234c b741 95a5 14bd 8af2 a541
000002f0: 7dcc 3e38 6163 57b7 65bb fab7 de33 62b8
00000300: 9940 ba31 c30c 08b6 93c2 f2b1 5705 e933
00000310: 92a6 fbb5 4501 a0b1 2ad4 07b6 66d8 a32d
00000320: 4126 ea33 55eb 5cb3 08dc 2ab3 7a2d 18b6
00000330: 4bdc 0334 62a4 8433 de8b 0eb6 59de c934
00000340: af8c 13b6 571b a6b1 d9af f133 d79d 6b34
00000350: f6c1 35b5 a81e 60b5 f468 e8b4 6ffc b633
00000360: 3b04 9eb6 3b51 6136 1384 bbb6 d194 9933
00000370: ef76 8034 e2f3 5db4 399e 02b6 a8fc 0736
00000380: de60 04b6 784d b3b3 5fcc a734 df6e 2a33
00000390: 615f 2eb6 f7ce 0a35 4868 0234 6e7c 3536
000003a0: b6cf 4e36 be24 a0b6 facb 51b4 2816 07b3
000003b0: 7861 7335 9996 7db5 9051 3eb6 5899 fe35
000003c0: 989a 11b3 2ab9 d235 9996 7db5 9051 3eb6
000003d0: 5899 fe35 989a 11b3 34b9 d235 f8d4 8bb9
000003e0: 9794 b137 35e9 58b6 40a1 14b8 0e19 0cb6
000003f0: 9a16 0a38 05c4 1eb5 73ca 4cb4 10a3 d8b5
-7.847975e-08 1.0030421e-05 2.6162341e-09 -2.7398795e-05 -2.695542e-05 -6.4989627e-09 9.5125915e-06 5.844677e-09
-2.7392549e-05 -2.7104415e-05 1.4618707e-08 9.890849e-06 4.893802e-08 -2.7396727e-05 -2.8270028e-05 4.41398e-07
9.086974e-06 -1.610279e-08 -2.7396814e-05 -2.6420033e-05 7.245635e-08 9.293059e-06 1.3422009e-07 -2.739127e-05
-2.7811338e-05 3.3708495e-06 6.323977e-06 -2.010267e-07 -2.7378843e-05 -2.5350488e-05 -4.3973102e-07 1.2167708e-05
-2.245862e-06 -2.7360027e-05 -2.8108421e-05 7.7419776e-07 5.9253243e-06 2.7747512e-06 -2.7359314e-05 -2.0184098e-05
1.9209194e-06 7.5420085e-06 1.36508325e-08 -2.7360587e-05 -2.4099716e-05 3.3238928e-07 8.862487e-06 2.8520645e-07
-2.7360493e-05 -2.0469313e-05 3.3238928e-07 8.862487e-06 2.8520645e-07 -2.7360493e-05 -2.0469313e-05 11.2665415
0.0095553305 11.276238 -0.021845274 10.331835 -1.9662772e-07 -5.3650942e-06 -2.0330048e-05 -3.4634413e-05
-4.187547e-10 -1.19028255e-05 8.553036e-10 -3.2030475e-05 -3.505904e-05 7.4251806e-11 -1.1948288e-05 -4.638014e-10
-3.203307e-05 -3.3882476e-05 -3.8254594e-08 -1.2245722e-05 1.5843479e-07 -3.203828e-05 -3.465286e-05 8.976424e-07
-1.2841679e-05 -2.0843889e-09 -3.2031625e-05 -2.9976769e-05 -2.5553331e-06 -8.504063e-06 -5.623948e-07 -3.203092e-05
-3.631814e-05 4.5610477e-06 -1.5734004e-05 -9.938884e-07 -3.1814518e-05 -3.1930573e-05 -6.6187536e-06 -4.876762e-06
-1.0447963e-07 -3.2392043e-05 -3.43267e-05 1.2310163e-07 -1.1764679e-05 -1.7984108e-07 -3.215994e-05 -3.2411303e-05
3.1046946e-07 -1.1877774e-05 -3.1528526e-08 -3.2382814e-05 -3.6840185e-05 -1.7087826e-06 -1.0577958e-05 6.8918143e-07
-3.2383476e-05 -3.56828e-05 -1.7087826e-06 -1.0577958e-05 6.8918143e-07 -3.2383476e-05 -3.56828e-05 8.823863
0.009730601 8.8358 -0.023579791 6.932729 8.863501e-05 -1.3196333e-05 -2.3089126e-05 -3.768397e-05
4.5278952e-08 2.6529408e-06 6.01083e-09 -4.5754554e-05 -4.5561435e-05 2.4145672e-08 2.9350622e-06 5.8656335e-10
-4.5753997e-05 -4.4722005e-05 3.337273e-08 2.7211704e-06 -4.1143345e-08 -4.5759378e-05 -4.529192e-05 4.1543572e-07
2.5164e-06 3.4830133e-08 -4.5753393e-05 -3.9382292e-05 -1.6863827e-07 3.180817e-06 -3.7710628e-08 -4.575901e-05
-4.4243327e-05 -6.0001724e-07 2.8859483e-06 5.2653166e-07 -4.560522e-05 -4.180403e-05 1.5735567e-07 2.927009e-06
-2.68542e-07 -4.5605633e-05 -4.6606452e-05 3.9017658e-07 5.7415095e-06 -3.3098665e-06 -4.5614575e-05 -4.3661803e-05
-8.405281e-07 3.6329645e-06 2.72487e-08 -4.5604735e-05 -4.7988244e-05 1.9928377e-06 1.3756654e-06 -5.584489e-07
-4.560727e-05 -4.817152e-05 1.9928377e-06 1.3756654e-06 -5.584489e-07 -4.560727e-05 -4.817152e-05 22.896399
0.016724413 22.912176 -0.036290724 20.743427 4.5489975e-05 -1.2838137e-05 -2.9889585e-05 -5.3930904e-05
5.4206564e-09 -2.0273008e-06 -7.0652475e-09 1.0850879e-07 -1.8749436e-06 -4.656757e-09 -2.0240063e-06 1.8627055e-11
1.09034325e-07 -5.1436775e-08 -3.9781327e-08 -2.2676236e-06 1.2280468e-07 6.17663e-08 -2.1241062e-06 3.7600947e-07
-2.1986596e-06 -4.834344e-09 1.12544235e-07 2.1943502e-07 -6.7710005e-07 -8.3491113e-07 -4.328973e-07 8.520953e-08
-4.7092594e-06 3.3574895e-06 -5.5884097e-06 7.151687e-08 2.3928393e-07 -2.0670953e-07 -1.9463607e-06 2.0263633e-06
-1.9725917e-06 -8.3494285e-08 3.1254874e-07 3.9682046e-08 -2.5983538e-06 5.171018e-07 1.2145131e-07 2.704353e-06
3.0817296e-06 -4.772649e-06 -1.9538848e-07 -3.1452288e-08 9.066639e-07 -9.4468993e-07 -2.8359682e-06 1.8969104e-06
-3.3901046e-08 1.5700109e-06 -9.4468993e-07 -2.8359682e-06 1.8969104e-06 -3.3901046e-08 1.570012e-06 -0.0002667082
2.1169237e-05 -3.2322253e-06 -3.5436125e-05 -2.087621e-06 3.2922813e-05 -5.914483e-07 -1.9072631e-07 -1.6140712e-06

exp_avg_sq f4 [128, 64]
00000000: 2c28 622d 2179 c031 fff6 672d 41f4 ca32
00000010: d5c8 cb32 75be a92d 97f0 be31 e086 0b2d
00000020: 9ef6 ca32 619b cc32 24e8 be2d 7957 c131
00000030: 9f22 6e2d 54f3 ca32 1937 cc32 a4cb cc2d
00000040: 120b be31 76ff bf2d 4bf2 ca32 fdce cc32
00000050: 9fc5 a22d 214e c131 5f06 272d eceb ca32
00000060: 9fca cc32 db87 9a2d d4e3 be31 f937 312d
00000070: 0ee6 ca32 1173 d032 5aab db2d 225f c031
00000080: 3fdf 8c2d 72e4 ca32 b57b ce32 3a10 092e
00000090: 0eb2 bd31 8744 4f2d 76e2 ca32 81f3 d132
000000a0: 37b8 c12d c3a0 c131 e73d 3d2d f1e1 ca32
000000b0: 0da6 ce32 562a b22d 01d7 c031 0069 942d
000000c0: abe1 ca32 5991 d132 562a b22d 01d7 c031
000000d0: 0069 942d abe1 ca32 5891 d132 f3e0 ae45
000000e0: 065b 4f3b 9c17 af45 193f 723c cc42 9445
000000f0: 93d7 ab33 f6c2 3531 c40b 5132 0013 1433
00000100: 9e1a 922d 8d44 8631 d4a8 9d2d d8eb 0a33
00000110: cc1a 0c33 61c9 8f2d 70dd 8531 34b9 c82c
00000120: a6ec 0a33 0bb2 0b33 9756 8e2d d7a8 8631
00000130: 2bd5 e02c a8eb 0a33 5a15 0c33 cc1b 942d
00000140: 0c5e 8631 b999 102d 97eb 0a33 c69e 0b33
00000150: 62e7 b02d 375d 8631 db8c 102d bfec 0a33
00000160: 9ae4 0c33 658c 4a2e e166 8431 7ed3 142d
00000170: 5aee 0a33 bdfe 0b33 e84e 942d dbf4 8531
00000180: a811 3d2d 36ef 0a33 173c 0c33 aa37 982d
00000190: ef04 8631 5a5f 8f2c ddef 0a33 1523 0c33
000001a0: 4208 1c2d b180 8631 148b 3d2c 85f5 0a33
000001b0: 1e2d 0d33 3175 242e d337 8331 c894 862d
000001c0: e5ec 0a33 35ac 0c33 3175 242e d337 8331
000001d0: c894 862d e5ec 0a33 35ac 0c33 d44d 3646
000001e0: 57b3 8d3b 5171 3646 e051 9e3c 8543 2046
000001f0: 493e 0c34 eb14 6031 9393 a532 fa99 4533
00000200: 0513 0a2d 425a 4e31 5a9f 152d 11bd 9233
00000210: a607 9333 b68c 6f2d 362e 4d31 bf7d d62c
00000220: 82bd 9233 e7fd 9233 76b3 5f2d 0b41 5031
00000230: 2e6e b72c e5ba 9233 ace4 9233 4919 952d
00000240: 98f3 4a31 4a0e 8d2d 3dbc 9233 1d56 9333
00000250: c8c6 482d 7200 4e31 c302 022d 94bc 9233
00000260: 5310 9333 16f4 5c2d 82b4 4d31 d40f 0a2d
00000270: 9ab6 9233 dbc8 9333 a6a3 882d dba0 4f31
00000280: d789 232d 36b4 9233 de49 9333 dde0 902d
00000290: 0312 4d31 f8af f42c b1b5 9233 6f11 9433
000002a0: 7580 4d2d 1067 4e31 e72e 032d 9db4 9233
000002b0: 40a5 9333 9389 862d 2726 4c31 7a8b 542d
000002c0: 08b4 9233 b62c 9433 9389 862d 2726 4c31
000002d0: 7a8b 542d 08b4 9233 b62c 9433 bda0 4a46
000002e0: 2d10 f33b 05e3 4a46 2af8 103d 4456 2c46
000002f0: 5f1a 0435 ec46 de31 e8b2 5033 5e1d ba33
00000300: 17e3 b52c 295f 9930 fac6 6e2c 4b98 ca2d
00000310: beee 9c2e f1cb 272d 5164 9630 a4e6 bd2c
00000320: 0037 ce2d 3608 bc2e 24bf 232d 9f95 9b30
00000330: 7324 8f2c 008c ba2d 9555 9c2e 179a 3f2d
00000340: d429 9830 2acd 9a2c c6c9 bd2d 48dc f82e
00000350: a3ba 602d e6d8 9830 0188 b92c 849d bb2d
00000360: c0d1 b32e b190 752d 0060 9730 fe34 122d
00000370: 18e1 bf2d 83c1 1d2f 0977 342d 003c 9730
00000380: 13e8 922c 7cbc b42d 7c68 db2e 398f 232d
00000390: aefd 9830 3c91 9f2c ad9f c62d bcd2 492f
000003a0: 63ae 572d c25c 9930 bd27 ce2c f1b7 ad2d
000003b0: 4414 042f 7f3d 9e2d dba1 9330 fe59 362d
000003c0: 49dd af2d 6974 352f 7f3d 9e2d dba1 9330
000003d0: fe59 362d 49dd af2d 6a74 352f e923 1636
000003e0: 8b7f 0834 86c9 2634 18c5 f933 fde5 cb37
000003f0: 2fa0 8432 326c ed2e b3ed 4a2e a1c3 802e
1.2855533e-11 5.601706e-09 1.3185674e-11 2.3626969e-08 2.3723638e-08 1.9297655e-11 5.5570797e-09 7.9311835e-12
2.3628044e-08 2.3819384e-08 2.170359e-11 5.6269838e-09 1.3536421e-11 2.3626548e-08 2.3773781e-08 2.328255e-11
5.5309863e-09 2.1827633e-11 2.3626077e-08 2.3842853e-08 1.8505029e-11 5.6259215e-09 9.494266e-12 2.362318e-08
2.3840867e-08 1.7568105e-11 5.555629e-09 1.00737136e-11 2.3620512e-08 2.4266713e-08 2.4973513e-11 5.598751e-09
1.6015298e-11 2.361978e-08 2.4037812e-08 3.1164606e-11 5.5208664e-09 1.1781804e-11 2.3618878e-08 2.4441535e-08
2.2023368e-11 5.6353158e-09 1.0757151e-11 2.3618641e-08 2.4057067e-08 2.0255058e-11 5.6123786e-09 1.6872281e-11
2.3618517e-08 2.4396899e-08 2.0255058e-11 5.6123786e-09 1.6872281e-11 2.3618517e-08 2.4396897e-08 5596.1187
0.0031639948 5602.951 0.0147855515 4744.3496 8.002021e-08 2.644979e-09 1.2168076e-08 3.4476216e-08
1.6610099e-11 3.9077066e-09 1.7923808e-11 3.2345127e-08 3.262066e-08 1.6346648e-11 3.895984e-09 5.7049036e-12
3.234586e-08 3.252539e-08 1.6181985e-11 3.919108e-09 6.3901293e-12 3.2344957e-08 3.261571e-08 1.6837996e-11
3.910605e-09 8.219586e-12 3.2344897e-08 3.2507863e-08 2.0111638e-11 3.9105106e-09 8.2167285e-12 3.2345948e-08
3.2804202e-08 4.6054178e-11 3.8534016e-09 8.459787e-12 3.234741e-08 3.2595143e-08 1.6860693e-11 3.8986463e-09
1.0747327e-11 3.234819e-08 3.265094e-08 1.730512e-11 3.900474e-09 4.0748906e-12 3.2348783e-08 3.2628197e-08
8.869407e-12 3.914544e-09 2.693572e-12 3.2353928e-08 3.2870155e-08 3.739337e-11 3.8189483e-09 1.5300108e-11
3.2346083e-08 3.275291e-08 3.739337e-11 3.8189483e-09 1.5300108e-11 3.2346083e-08 3.275291e-08 11667.457
0.0043243575 11676.329 0.01932615 10256.88 1.3061175e-07 3.260818e-09 1.9275637e-08 4.6007678e-08
7.848615e-12 3.002825e-09 8.5050526e-12 6.833046e-08 6.846612e-08 1.3616821e-11 2.9857694e-09 6.0962064e-12
6.833126e-08 6.8448394e-08 1.2715931e-11 3.0304956e-09 5.2134052e-12 6.832651e-08 6.84025e-08 1.6950568e-11
2.9533336e-09 1.603619e-11 6.832895e-08 6.860885e-08 1.1412822e-11 2.9977199e-09 7.390258e-12 6.832957e-08
6.84819e-08 1.255975e-11 2.9934033e-09 7.847906e-12 6.83187e-08 6.881756e-08 1.5534084e-11 3.02139e-09
9.296084e-12 6.831435e-08 6.858657e-08 1.6470764e-11 2.9841665e-09 6.9544336e-12 6.831704e-08 6.894958e-08
1.1681424e-11 3.003553e-09 7.456902e-12 6.831508e-08 6.87528e-08 1.5295131e-11 2.9707594e-09 1.2081775e-11
6.831402e-08 6.89992e-08 1.5295131e-11 2.9707594e-09 1.2081775e-11 6.831402e-08 6.89992e-08 12968.185
0.0074177 12984.755 0.035392918 11029.566 4.9212207e-07 6.4691132e-09 4.8591488e-08 8.666642e-08
5.1695414e-12 1.1159261e-09 3.3932288e-12 2.3032373e-11 7.136468e-11 9.538135e-12 1.0942448e-09 5.3973093e-12
2.3443913e-11 8.550709e-11 9.307919e-12 1.1320259e-09 4.068351e-12 2.1207924e-11 7.109261e-11 1.0891308e-11
1.1071344e-09 4.399721e-12 2.1576418e-11 1.1316864e-10 1.27743675e-11 1.1121102e-09 5.2731157e-12 2.132939e-11
8.177237e-11 1.3958766e-11 1.1013981e-09 8.310906e-12 2.1814148e-11 1.4347816e-10 1.02582465e-11 1.1003749e-09
4.175335e-12 2.0547335e-11 9.977527e-11 9.297279e-12 1.1131556e-09 4.535176e-12 2.2580904e-11 1.8355711e-10
1.2260057e-11 1.1158579e-09 5.859284e-12 1.974951e-11 1.201253e-10 1.798983e-11 1.074166e-09 1.03654845e-11
1.9993467e-11 1.6503211e-10 1.798983e-11 1.074166e-09 1.03654845e-11 1.9993467e-11 1.6503213e-10 2.2372644e-06
1.2712387e-07 1.5533269e-07 1.1630817e-07 2.4306582e-05 1.5439666e-08 1.07967316e-10 4.6140602e-11 5.855517e-11

exp_avg f4 [128]
00000000: da04 96b7 847f 38b8 7d7d 33b8 fd4d 04b6
00000010: 6b05 d5b7 7314 fe37 bf85 cf37 8f61 1037
00000020: 7baf 2a37 832a 3235 c9b2 cab8 5d98 a037
00000030: 2404 1c37 ab39 6cb8 d473 6ab8 c028 d937
00000040: b7a6 67b7 a802 e7b8 8089 c2b7 cbc6 2ab7
00000050: 92b2 ccb7 71fc 09b8 9069 fdb7 c38a 2c37
00000060: 7eef ebb7 484d bdb7 68d6 90b7 91b5 cc35
00000070: 509f 34b9 25d5 29b7 6402 20b8 5c05 1935
00000080: 9664 7ab7 95db 14b7 2b4c 85b8 a22c 6537
00000090: ba75 42b7 a2e0 d0b6 55bc cd36 c84a e1b4
000000a0: 81ac 43b7 ba61 0e37 5321 0638 9a31 9836
000000b0: 6ce1 6f37 7fda 98b8 1c89 9eb5 08ca 2ab7
000000c0: e0c8 f537 c186 a737 e548 cbb7 c9bf c736
000000d0: f6f4 9737 9e89 25b8 99fa 73b8 a334 0bb8
000000e0: 646f adb7 018b b3b6 6abc a0b6 b6dc 2bb8
000000f0: 8fee f1b8 dce8 60b6 7787 58b6 74cf 6337
00000100: 0f77 0fb8 e2d0 56b7 1cf5 d8b7 2f24 28b8
00000110: f345 f537 9a48 bdb8 5dc6 8c36 7b8a a637
00000120: 1204 6d36 93cf 3a38 dc0e bbb6 6b6f 39b7
00000130: b855 7d36 c060 2337 7c6f 61b8 422e e9b6
00000140: f758 4cb8 e3fa 88b8 877b b8b8 6fa0 7f37
00000150: 9ca3 7b36 8616 e0b5 e413 0a38 98ef 0638
00000160: 2560 15b6 13d9 7eb8 5ad2 8837 9c50 8737
00000170: 5bbc 5335 2da7 1a36 28ff 9337 7be9 6037
00000180: ae20 d0b7 b239 c136 c010 8e37 c877 47b8
00000190: 36f1 3d35 7146 9db8 32bf fb36 9833 10b7
000001a0: cd05 b1b8 3ec8 7f38 d73c 11b9 fb4d aab6
000001b0: 39fd c037 f435 51b8 1af8 9e37 e701 1ab7
000001c0: bc3d b1b7 c297 01b7 6ad7 cfb6 5e9b 7db6
000001d0: 09c2 0038 1e65 a237 d514 2fb8 3c3a eab8
000001e0: 031e 4bb6 c1ca 1f36 13d3 c2b7 563a 67b7
000001f0: d1b7 15b7 2cff 7a38 c0b1 9937 6b8b e6b7
-1.7883653e-05 -4.3987777e-05 -4.2793796e-05 -1.9714928e-06 -2.5394102e-05 3.0288682e-05 2.4738603e-05 8.6057835e-06
1.0173647e-05 6.637203e-07 -9.665412e-05 1.9144436e-05 9.299289e-06 -5.6320492e-05 -5.589782e-05 2.5887392e-05
-1.3807489e-05 -0.00011015433 -2.319063e-05 -1.0179075e-05 -2.4401848e-05 -3.289845e-05 -3.0209107e-05 1.0284307e-05
-2.8125705e-05 -2.2566543e-05 -1.7265978e-05 1.5252027e-06 -0.00017225486 -1.0122812e-05 -3.81492e-05 5.700474e-07
-1.4924581e-05 -8.872613e-06 -6.3561216e-05 1.36598555e-05 -1.1590711e-05 -6.2250338e-06 6.131401e-06 -4.1963926e-07
-1.166307e-05 8.486613e-06 3.1979125e-05 4.5357274e-06 1.4297995e-05 -7.288623e-05 -1.1811821e-06 -1.0179829e-05
2.9299816e-05 1.9970701e-05 -2.423343e-05 5.952989e-06 1.8114672e-05 -3.946723e-05 -5.8169102e-05 -3.3189204e-05
-2.0675077e-05 -5.350798e-06 -4.790306e-06 -4.097513e-05 -0.000115362105 -3.3514143e-06 -3.226536e-06 1.3578556e-05
-3.420474e-05 -1.2804028e-05 -2.5863344e-05 -4.008802e-05 2.9238849e-05 -9.0257454e-05 4.1954177e-06 1.9853227e-05
3.5318121e-06 4.4539174e-05 -5.574764e-06 -1.1052801e-05 3.7749833e-06 9.7380835e-06 -5.374801e-05 -6.9493262e-06
-4.8720245e-05 -6.531717e-05 -8.7968125e-05 1.5236538e-05 3.7497148e-06 -1.6695856e-06 3.292029e-05 3.217123e-05
-2.2258694e-06 -6.0760485e-05 1.6310416e-05 1.613079e-05 7.887772e-07 2.3045097e-06 1.7642582e-05 1.3405802e-05
-2.481075e-05 5.758565e-06 1.6935519e-05 -4.7556852e-05 7.0758995e-07 -7.499464e-05 7.502641e-06 -8.595081e-06
-8.441098e-05 6.0983228e-05 -0.00013850942 -5.075473e-06 2.30061e-05 -4.987973e-05 1.8950599e-05 -9.179558e-06
-2.1128792e-05 -7.724333e-06 -6.1941582e-06 -3.7790373e-06 3.0698287e-05 1.9358991e-05 -4.1742653e-05 -0.000111688365
-3.0266826e-06 2.3810865e-06 -2.3224891e-05 -1.3782255e-05 -8.92389e-06 5.9842292e-05 1.8321793e-05 -2.7483058e-05
