results/TankTest/Tank/Tank-499952.pt (torch, 782576 bytes, 42 tensors)

network_body._body_endoder.seq_layers.0.weight f4 [128, 112]
000000 1b 02 66 be 8c 3d fe bd e1 9c c4 3d b8 87 c9 bd
       -0.2246174 -0.12414083 0.09600235 -0.098403394
000010 2c e0 60 bd c3 a3 ee bc 01 9c 1f be 48 82 b0 ba
       -0.054901287 -0.029130822 -0.15586855 -0.0013466561
000020 4f 73 51 bd 6e b3 0f be 4c 9d f3 bd 56 36 09 3d
       -0.051135357 -0.1403329 -0.118952364 0.033499084
000030 3a eb b7 bb c8 32 15 bd 45 9f 17 bd 33 5d 42 bd
       -0.005612758 -0.036425382 -0.037017126 -0.047452163
000040 a6 3c 1f 3d 65 aa ea 3d 5e 01 07 3d be 99 ef bc
       0.0388762 0.114582814 0.03296029 -0.029248115
000050 ee bc 25 3d 3a 8e dd bd 32 20 fd bc c1 8f 00 be
       0.04046338 -0.10818143 -0.030899141 -0.12554838
000060 84 34 86 3e fa 4e 7b bd bd 43 36 3d 66 0a ac 3c
       0.2621194 -0.061354615 0.044498194 0.021001052
000070 70 e7 cf bd bb d4 d9 3a 7d 11 86 bd 51 15 34 3e
       -0.10151565 0.0016619185 -0.065463044 0.17586257
000080 cd 3f 6c bc 28 d7 67 3d 6f 59 7e 3d a9 91 ab bd
       -0.014419508 0.056601673 0.06209701 -0.08377392
000090 ae 57 9e 3c 0a cd 55 3e b5 45 ae bd 67 34 06 be
       0.019328918 0.20878997 -0.08509389 -0.13105927
0000a0 6a 1c 89 3d af 3a e8 3d 0f 8c 19 3e 1a 5f a7 bd
       0.06694873 0.11339318 0.14994834 -0.08172436
0000b0 9d e8 31 bd f7 b4 26 bd 06 01 07 bd 6e 0e 50 3d
       -0.043434728 -0.040699925 -0.03295996 0.05079501
0000c0 62 ab 88 3d 0f d9 93 3d f6 47 30 bd 2b 7c 48 bc
       0.06673314 0.07219135 -0.043037377 -0.012236635
0000d0 3e 1c 81 bd 81 04 88 3c e4 a4 fa 3c 91 fb 4e 3d
       -0.06304215 0.01660371 0.030596204 0.05053288
0000e0 18 1b 92 3d 7a 98 f9 bd db b0 38 be 90 c6 38 bd
       0.07134074 -0.12187286 -0.18036215 -0.04511124
0000f0 6c 77 ae 3d c6 99 ce bd fd 9f ce 3d b4 c2 80 bc
       0.08518872 -0.10087924 0.10089109 -0.015717842
000100 89 58 fb 3c 70 88 d1 3d 08 14 2e 3d bb b5 6e 3d
       0.030681865 0.102311015 0.042499572 0.05827878
000110 f1 53 a6 3d 9a c4 73 be 2a 9c 50 3d 55 3f 42 bd
       0.08121479 -0.23805466 0.05093018 -0.04742368
000120 53 b5 92 3d 68 8a 4a bd 7a 6a 3b 3e 63 be df bc
       0.07163491 -0.0494484 0.18302336 -0.027312463
000130 28 d7 5f bc f6 9d b6 3c 08 fd 21 be 47 20 36 bd
       -0.013662137 0.022292119 -0.1581918 -0.044464376
000140 0b bf 0b bc 82 ae a8 bd e5 2c 44 bd ee 23 61 3d
       -0.008529435 -0.0823641 -0.047894377 0.054965906
000150 96 fe b5 3d 68 77 5a bd 7a 28 e9 3d 4e ad 30 3e
       0.08886449 -0.05333653 0.113846734 0.1725361
000160 96 df 89 3d 79 f5 f7 bd da 42 b2 bb b4 ed d3 3d
       0.06732099 -0.12107367 -0.0054400982 0.10348073
000170 a7 63 72 bb 25 c4 25 be b3 56 0a 3c 01 16 d3 3c
       -0.0036985667 -0.16188104 0.008443522 0.025767328
000180 84 c7 c9 3d c4 c0 35 bd e8 7e 80 3c a0 72 9a 3e
       0.09852508 -0.04437329 0.015685514 0.30165577
000190 57 06 6e bc 69 38 db 3d 38 a2 f9 3d 8f 26 9a 3c
       -0.014527879 0.10704119 0.12189144 0.018817214
0001a0 02 0b ae bd 87 f5 c8 bb 9a 70 1a bd 89 b8 43 ba
       -0.08498193 -0.0061327848 -0.03770504 -0.00074661575
0001b0 e9 d8 01 be b3 9b 93 3d 10 0e 09 3e 4f fd 71 bd
       -0.12680401 0.07207432 0.1338427 -0.059079465
0001c0 e1 98 38 3e 28 f7 75 bd ba 22 74 3d 7e d4 9a 3c
       0.18027069 -0.06005016 0.05960343 0.018900152
0001d0 78 f0 bd bd 0c 9c 0a bc 5a 67 21 3d 6c 47 d0 3c
       -0.092743814 -0.008460056 0.039405204 0.025424682
0001e0 d8 32 9a bc 22 27 10 3e 2d 50 95 bd 4d 4a af bd
       -0.018823072 0.14077428 -0.07290683 -0.085590936
0001f0 3c ad a1 bc c5 bf 42 3e d0 88 6f 3d 66 64 36 bd
       -0.019735925 0.19018467 0.058480084 -0.04452934
000200 4e 50 e4 bd 20 f4 3c 3e 48 fa 2b bd ba 0a d9 3d
       -0.111481294 0.18452501 -0.041986734 0.10597749
000210 80 2b 2d 3b 59 22 ff 3c 9f e3 8f 3d 97 67 16 3e
       0.0026423633 0.031144308 0.07025837 0.14687954
000220 17 2f d7 3d f3 60 88 bd 24 2a 1d 3d 6c 43 83 bd
       0.105070285 -0.066591166 0.038370267 -0.06409344
000230 2c 63 8f 3c be 56 8b 3d 0f 73 ec bd 30 77 03 3d
       0.017503344 0.06803654 -0.11545383 0.032096088
000240 31 c4 01 3e 70 b3 c1 3d 44 e0 f7 bc d0 b3 b1 3c
       0.12672497 0.09458053 -0.030258305 0.021692187
000250 0f 82 af 3d 2d 0d a4 bd 95 37 0f 3d 45 b4 26 bd
       0.085697286 -0.080103256 0.034965117 -0.040699262
000260 2b 5f d6 bb 64 12 17 3e 45 e4 ae 3c 41 8b c2 3d
       -0.0065421066 0.14753109 0.021349082 0.09499217
000270 de 1c 8f bd 60 91 33 3d 0f 67 38 bd b1 01 aa 3d
       -0.06987928 0.043839812 -0.04502016 0.08301104
000280 09 72 f7 bd 3d e7 18 bd ab 95 87 3c f9 1f 20 be
       -0.12082297 -0.0373299 0.01655086 -0.15637197
000290 aa d8 b6 bd 8d 31 06 3d 7c f8 6e bd aa 77 72 3c
       -0.08928044 0.0327621 -0.058342442 0.014799038
0002a0 d8 85 2a 3e 16 08 1c 3d 7a 92 89 3c f9 cb 63 bd
       0.1665262 0.03809365 0.016793478 -0.055614445
0002b0 1d 6c 43 bd 43 a0 2c 3d b7 f3 07 be 06 6d f5 bd
       -0.047710527 0.042145025 -0.13276564 -0.11983685
0002c0 09 07 bc bd e9 ee d3 bc 10 53 48 3d 4e d2 be 3c
       -0.09181029 -0.025870757 0.04890734 0.02329364
0002d0 09 bb 25 3d ba 74 91 3e 19 69 c9 bd 0a 9b c0 3d
       0.040461574 0.28409368 -0.09834499 0.09404571
0002e0 87 65 ed 3d ea 6c ec 3d df 51 05 3e a2 eb a0 3d
       0.115916304 0.11544211 0.13019513 0.078574434
0002f0 b5 ae 4b 3d f5 b8 9f bd 64 29 8f 3b ae 36 92 bd
       0.04972716 -0.0779895 0.004368948 -0.071393356
000300 22 be a2 3d 23 86 03 3e fc 60 91 bd cf fb a8 3d
       0.07946421 0.12844138 -0.070985764 0.08251154
000310 f6 23 77 bd 0e 91 b1 3c 68 e1 17 3e 2e 0c ac bd
       -0.06033703 0.021675613 0.1483208 -0.084007606
000320 22 17 87 be c4 38 24 bb 7a 8b 9d bd 64 47 50 3d
       -0.26384836 -0.002505825 -0.07692619 0.050849333
000330 4c d7 e0 3d 9f 95 34 3e 5d 28 b4 bd 92 33 73 be
       0.109785646 0.17635201 -0.08796761 -0.23750141
000340 3f 24 bb bd b4 59 f2 3b 16 e0 3a be a0 bb ca 3d
       -0.09137773 0.0073959474 -0.18249545 0.09899068
000350 fb ee 40 bd 92 85 df ba 8b a7 db 3d b3 b3 e9 3d
       -0.04710291 -0.0017053357 0.10725316 0.11411228
000360 cf c8 fc 3d d0 04 6e 3d 2b e3 7a bd ba 6b 2b bc
       0.12342989 0.05811006 -0.0612518 -0.010462696
000370 65 b7 68 bb ca 1b a6 bc e9 66 f9 3d 0b e3 4c 3d
       -0.0035509702 -0.020276923 0.12177832 0.050021213
000380 19 21 41 bd d7 7d d2 bd e4 63 eb 3d e4 19 03 3d
       -0.047150705 -0.10277908 0.11493662 0.032007113
000390 52 5f 29 be 1d d1 d1 3d 73 06 07 3d 34 76 9a 3d
       -0.16540268 0.10244963 0.032965135 0.07542077
0003a0 bc 8f ee 3d 47 0b 0b bd 74 81 02 3e 5b fc cd bc
       0.11648509 -0.0339463 0.12744695 -0.025144747
0003b0 4e 04 02 bd 26 af 06 bb 85 71 c6 bd a5 9b 2c be
       -0.031742387 -0.0020551174 -0.09689621 -0.16856249
0003c0 bc b4 d2 3d ae 57 78 bd 87 a5 18 bd 91 28 50 bd
       0.102883786 -0.060630493 -0.037267234 -0.050819937
0003d0 5f 61 40 bd 60 6a 29 3d 7f d5 91 bd 83 04 80 bd
       -0.04696786 0.041361213 -0.07120799 -0.062508605
0003e0 e7 1f 0c 3d bf f8 a5 3d bb 04 b2 bd b7 00 3b bd
       0.034210112 0.08104085 -0.086923085 -0.04565498
0003f0 4e 25 0a 3d c7 14 66 be b8 79 e1 38 b4 f5 a6 3c
       0.033726983 -0.22468863 0.00010751508 0.020380832

network_body._body_endoder.seq_layers.0.bias f4 [128]
000000 06 57 24 3b d2 4c 8c bb 5d bd 31 3c 26 1e 2e 3d
       0.0025076284 -0.0042816186 0.01084837 0.04250922
000010 9b 2e 25 bb 2a 49 3f bc 47 9a 6c 3c d3 95 1b bb
       -0.002520478 -0.0116751585 0.014441079 -0.0023740425
000020 ac 00 16 bc 6c 75 e3 bb 06 78 07 3c fc 49 89 3c
       -0.009155434 -0.006941488 0.008268362 0.016758911
000030 7a fb ed ba dd f2 ff bb 40 4c 78 3c 1b be 03 bc
       -0.0018156611 -0.007810934 0.015154898 -0.00804093
000040 b5 6e b0 3b 55 12 63 3c d7 56 8d bc ca 9b e1 3b
       0.005384291 0.013859351 -0.017253323 0.0068850266
000050 d8 5b 99 ba 58 e2 3d 3c 6b 8d 71 3a 46 c6 80 3b
       -0.0011700345 0.011589609 0.00092144933 0.003929886
000060 cf ad 6e 3c 1e 33 9d 3a 20 19 90 bb 76 6e a8 bb
       0.014567806 0.0011993384 -0.0043975264 -0.005140121
000070 8e 06 cd ba ab 03 3c ba 74 56 70 ba 0e 0f 81 bc
       -0.0015642212 -0.00071721774 -0.0009168156 -0.015754249
000080 ea c5 08 b9 62 e4 61 3a 72 0b 8f 3c 20 39 32 3c
       -0.000130437 0.00086171005 0.017461512 0.0108778775
000090 d0 41 a2 3a 26 67 02 3c 26 04 2d bb 90 a6 2b bc
       0.0012379233 0.007959163 -0.0026400178 -0.010476723
0000a0 00 f3 f7 3b 82 f9 85 bb be e9 08 bc 32 fc 00 3d
       0.0075668097 -0.0040885815 -0.00835651 0.031490512
0000b0 37 e2 bf 3b 39 24 c5 ba 1e 96 1c bc c3 1e 35 bc
       0.0058558243 -0.0015040702 -0.009557275 -0.011054697
0000c0 36 1f 77 3c 03 3e 8b bb 01 08 40 37 e3 56 56 3c
       0.015083125 -0.0042493357 1.1445955e-05 0.013082239
0000d0 e3 d4 b0 bb 3c 01 0f bc 70 5a 6d bc 22 f7 ac 3c
       -0.005396472 -0.008728322 -0.014486894 0.021113936
0000e0 03 80 20 3c 17 db 45 3b d0 ce 06 3d 2e 2e 4b 3b
       0.009796145 0.0030190402 0.032912076 0.0031002867
0000f0 26 4a a2 bb 36 c8 8b 3b 26 b4 90 bc f1 5e 78 bc
       -0.004952687 0.0042658104 -0.017664026 -0.015159355
000100 6a c7 26 bc b4 75 08 3c 68 6d 19 bc 78 bd 25 3d
       -0.01017938 0.008328844 -0.009364463 0.040463895
000110 f1 d2 a5 b9 32 2d 2b 3c 8e c2 90 3c 7c 22 5d bc
       -0.00031628416 0.010447787 0.017670896 -0.013496991
000120 1a 0c 51 3b 81 b2 c3 3b d0 23 5d bc 2c ff 5f 3c
       0.0031898082 0.005972207 -0.013497308 0.013671678
000130 68 83 bf 3c 94 6d e3 bb 45 aa 96 3b 18 0c 6f 3c
       0.02337809 -0.006940553 0.0045979344 0.014590286
000140 2a 69 10 bc 9c 98 89 bb ad ee b8 3b 07 44 5a bc
       -0.008814136 -0.0041991007 0.0056436867 -0.013321883
000150 62 e3 3e bc 0e a0 58 bc 6b 6a 98 bb 88 d0 09 3b
       -0.011650892 -0.013221754 -0.004651358 0.0021028835
000160 d1 3e cf bb 37 21 87 bc b0 64 15 3d ec 90 fc 3c
       -0.006324627 -0.01649533 0.036472976 0.030830823
000170 90 b7 f9 3a a9 57 a1 3c 8d 53 7e bb 3e b8 01 3c
       0.0019051898 0.01969512 -0.0038807124 0.007917462
000180 94 79 0d bb fa 82 1c 3c 4e a2 43 3b 2e f2 aa bc
       -0.0021587359 0.009552712 0.002985138 -0.020867433
000190 33 67 02 bb 78 c4 14 3c 13 48 00 bb c6 6e 6c bc
       -0.0019897937 0.009080045 -0.001957421 -0.014430707
0001a0 d8 ee 4e bc ca a4 12 bc 96 a7 56 3b 53 e3 80 3b
       -0.012630187 -0.008950422 0.0032753698 0.003933349
0001b0 9a 2f 0b 3b d6 7b 68 3c e1 fa 23 bb c9 4b 32 bb
       0.002123809 0.014189681 -0.0025021362 -0.0027205816
0001c0 51 78 b8 bb 7e 13 68 3b 2e 36 e7 3b d3 00 47 bc
       -0.005629577 0.003541201 0.0070560193 -0.012146193
0001d0 10 73 22 3c d5 74 73 ba dc 45 c0 bb 02 6a 7d bc
       0.009915128 -0.00092871237 -0.005867703 -0.015467169
0001e0 8b f0 89 3c 5a 71 41 3c 2c af 94 3c a7 86 16 bc
       0.016838333 0.01180681 0.018149935 -0.009187377
0001f0 39 60 d0 ba ca 53 89 3c 9d 88 94 bc 8a ee 00 3d
       -0.0015897817 0.016763587 -0.018131549 0.03147749

network_body._body_endoder.seq_layers.2.weight f4 [128, 128]
000000 37 d1 7f bd 26 14 49 bd 2c bb 31 3e 6a 56 b2 bc
       -0.062455382 -0.04909148 0.17356557 -0.021769721
000010 a7 f7 b4 bc 52 7d 8e bd 08 78 0d be e3 6d 33 3e
       -0.022090746 -0.06957497 -0.1381532 0.17522387
000020 bd 4e d2 3d 11 7a aa 3d 49 2d be bd de d2 84 3c
       0.102689244 0.083240636 -0.09285981 0.01621383
000030 cc 56 cb 3d 3a ca 81 bc e8 b0 d7 3c 15 ac 27 bd
       0.099286646 -0.0158435 0.026329473 -0.040935595
000040 27 4f 84 3d 8b 30 c6 3d dc bc 98 3d 40 94 09 bd
       0.064604096 0.096772276 0.07457897 -0.033588648
000050 03 0f 25 3e 18 36 e4 bd 8c 34 8a bd 44 be 37 be
       0.16119008 -0.1114313 -0.06748304 -0.17943674
000060 bf a3 0e 3e 08 36 b7 3d 61 e1 82 3d 53 8e fa 3c
       0.13929652 0.089458525 0.06390644 0.030585444
000070 e9 b6 1f 3e d3 f1 e1 bd 04 78 2b bd 8a 17 b1 3d
       0.15597118 -0.110324524 -0.041862503 0.08647068
000080 7a fd a8 bd 51 ed ad 3d ab 03 87 3d 82 c0 51 3e
       -0.08251472 0.0849253 0.065924965 0.20483592
000090 76 fe 93 3b 19 69 0d 3e b7 84 b0 bb 97 ba 22 3e
       0.004516418 0.13809623 -0.0053869146 0.15891491
0000a0 75 13 0f 3e 56 85 af 3d 38 87 4b 3d 6e 6a 16 bc
       0.13972266 0.08570354 0.0496895 -0.009180648
0000b0 f7 58 70 3e f1 b0 7c bd 45 c4 d3 bd 9c a6 ce bd
       0.23471437 -0.061692182 -0.1034017 -0.10090372
0000c0 6a dd 2e 3c 98 0c 44 be 41 96 63 bd 70 58 a4 bd
       0.010672906 -0.19145429 -0.055563215 -0.080246806
0000d0 05 13 f1 3d ae e6 52 bd 12 e6 e9 bd e2 ef fc bc
       0.11771206 -0.051489525 -0.114208356 -0.030876104
0000e0 f6 e9 40 bd 22 94 af bd 35 0a 2f be be 76 40 bd
       -0.047098123 -0.08573176 -0.17093737 -0.04698824
0000f0 f5 80 bf bd d8 86 25 3e 73 3c 37 3e 70 f9 92 bc
       -0.093507685 0.1616472 0.17894153 -0.017941207
000100 c0 03 fb bd 42 37 7e bd ed 13 ac 3d b0 f9 48 bd
       -0.12256575 -0.062064417 0.08402238 -0.049066246
000110 14 64 63 3c ec dd fe bd 76 7c 0e 3e b2 05 35 3c
       0.013878841 -0.12444672 0.13914666 0.011048721
000120 d4 4f e2 bd e7 42 7b 3d 6c 2c 7f bc c3 64 d5 bd
       -0.11050382 0.0613431 -0.015574556 -0.104196094
000130 c3 00 24 3e 4d 0d 0d be e8 1b 93 3d d0 76 37 3c
       0.16015916 -0.13774605 0.07183057 0.011197761
000140 f3 10 78 3d 65 0b 0e bc 62 c1 55 3c ee 1b 25 bd
       0.06056304 -0.008669709 0.013046594 -0.04030984
000150 7c b6 17 be 48 32 e2 bd 79 75 bc 3d 74 3a 95 bd
       -0.14815706 -0.11044747 0.09202094 -0.0728654
000160 a7 d8 72 bd d9 19 9b bd 08 aa 79 3d 53 60 90 3d
       -0.059288647 -0.075732894 0.06095317 0.070496224
000170 e4 95 6f 3c e2 9a 8b 3d e5 52 90 3d 10 29 79 be
       0.014623139 0.06816651 0.07047061 -0.2433207
000180 b6 11 11 3e aa fe 8a bd bc 9a ab bc 0a 85 97 3c
       0.14166912 -0.067868546 -0.020947807 0.018496055
000190 2f 4a 62 3d 8d 7e 8b bb c5 6f 6c 3d f5 48 b8 3d
       0.05524653 -0.0042570294 0.05772378 0.089982904
0001a0 99 e4 2e be 9c 7e aa 3d b9 6b e8 3c a1 7f b3 3d
       -0.1707939 0.0832493 0.028371679 0.08764578
0001b0 81 0d 6f 3e e2 b2 1d 3d 64 2d 43 3b 8a 6e f0 3a
       0.23344995 0.038500674 0.0029781694 0.001834349
0001c0 4b a5 be 3b c9 e4 58 be 12 38 18 be 1b 1b fb bc
       0.0058180443 -0.21181025 -0.14865139 -0.030652573
0001d0 a3 8e ef 3c aa da 97 3d 1d 1e 22 3d b1 c8 21 bc
       0.02924282 0.07414754 0.0395795 -0.009874509
0001e0 da 12 fe 3d da 71 07 bd 57 27 54 3d 2e a9 55 bd
       0.124059394 -0.03306756 0.05179533 -0.052163295
0001f0 ce e1 a0 bc cb 71 76 3d ee 32 a6 3c f0 9e 22 be
       -0.019638922 0.060167115 0.020287957 -0.15880942
000200 17 89 08 3e 9c a2 f5 bd b6 2d b6 3d 7e 2b 0a bd
       0.13333546 -0.11993906 0.088954374 -0.033732884
000210 66 27 38 3d 5c 6c 58 bd e7 1f e4 3b 9a 84 0c bd
       0.04495945 -0.052837715 0.006961811 -0.034306146
000220 6b ce c2 3d 09 3d 15 3e b4 dc 2e 3d 92 2e 45 3d
       0.09512027 0.14574064 0.042690948 0.048140116
000230 1e b6 4e 3e a1 26 bc 3a 9d 31 ad bc e1 d9 a4 bd
       0.2018666 0.0014354774 -0.021141822 -0.080493696
000240 c7 b3 ad 3d 6d 4f 34 bc 45 75 27 bc ea b3 de 3b
       0.084815554 -0.011005265 -0.01022083 0.00679635
000250 a2 02 2b bd 2a 4d a0 3d 57 ec 23 3e ec 0b 9c bd
       -0.041750558 0.07827218 0.16008125 -0.076194614
000260 9e 4b f3 bd c5 b2 33 bd 6a 24 a6 3d 1e 7f e6 bd
       -0.11879657 -0.04387166 0.08112414 -0.112547144
000270 cb 66 44 bc 95 34 2a 3e 3e bc 4c bd 78 ff ec bd
       -0.011987398 0.16621621 -0.04998421 -0.11572164
000280 60 75 87 3d b8 7f 80 bd ca 20 ce 3d f0 cd 0d 3d
       0.066141844 -0.062743604 0.10064848 0.034620225
000290 d3 92 82 bd c2 e6 f7 bd 32 85 31 3e d1 55 06 3d
       -0.06375661 -0.121045604 0.17335966 0.032796685
0002a0 ec 92 ab 3c c2 27 09 3d a5 54 65 bd 24 56 3d be
       0.020944081 0.03348518 -0.055988926 -0.18489891
0002b0 c6 45 3e 3d 85 cf cb 3d 4c 31 92 3d 9c 3a 19 3d
       0.04645326 0.099516906 0.07138309 0.03740941
0002c0 2c 59 71 3c 01 88 9d bd 64 e4 81 3d 62 7c f6 3d
       0.014730733 -0.07691956 0.0634239 0.12035443
0002d0 e5 c5 d0 3c 19 8e 8e bb 2d 4f 0b bd 02 d1 51 3d
       0.025484988 -0.0043504355 -0.034011055 0.051224716
0002e0 fb 9f 9f 3d 00 00 15 3c 88 26 08 3d 1b 3d 81 3d
       0.07794186 0.009094238 0.03323987 0.06310483
0002f0 0e cd 3c 3e 5d 25 9c 3c 2f c1 0b 3d b1 03 1c 3d
       0.18437597 0.019060785 0.03411978 0.038089458
000300 b7 44 64 bb 42 ec 3b bb 43 8c 30 bc 41 e6 76 bc
       -0.0034830996 -0.0028674756 -0.0107756285 -0.015069545
000310 13 23 01 bd 64 84 0d 3c 31 ec 86 3c e4 31 3b 3e
       -0.03152759 0.008637521 0.016470047 0.1828075
000320 4c fb 9d 3d 9c d5 81 bc 51 73 81 bc 53 9c 46 bd
       0.07713947 -0.015848927 -0.015802057 -0.048488926
000330 47 80 80 3d 00 50 93 3d 7f 3a a4 bd 58 b8 1a 3e
       0.06274467 0.07192993 -0.0801897 0.15109384
000340 99 8b b9 3d e3 1a b7 3d 9e 18 37 bd 9a 42 53 3d
       0.09059829 0.08940675 -0.04470121 0.051577188
000350 29 a0 ed bd d9 a4 d4 3c a0 0d 48 3e 40 ea 20 bd
       -0.11602814 0.025957512 0.19536448 -0.0392859
000360 07 61 56 3d cd fb ef bd 42 1a 4d be 83 03 09 3e
       0.052338626 -0.11717949 -0.20029548 0.13380246
000370 17 67 57 bd 67 a4 01 be 82 0c fc 3d ca 9c ec bd
       -0.05258855 -0.12660371 0.12307073 -0.11553343
000380 e1 36 df bd f2 95 e2 bd bc 7b 28 3e 7b 4b a5 3d
       -0.10899139 -0.11063756 0.16453451 0.080710374
000390 40 dc c0 3b a1 07 76 bd 4d 8f b3 3d 80 be 86 bd
       0.005885631 -0.06006587 0.08767567 -0.06579304
0003a0 3c 84 0a bb 18 43 96 3d 77 22 ad bd 2a fa 98 3d
       -0.0021135947 0.07337016 -0.08453839 0.0746959
0003b0 26 00 7c bd 71 f7 5d 3d f4 4e 9f bd 34 66 94 3b
       -0.06152358 0.054191057 -0.07778731 0.004528785
0003c0 17 34 ad 3d 30 84 07 be ba fe ae bd 4e 5a 7b 3d
       0.08457201 -0.1323402 -0.08544679 0.061365418
0003d0 52 a6 75 3c d8 ca c7 bd 56 ba 87 bd 7f 28 cc bc
       0.014993267 -0.09755486 -0.06627338 -0.024921654
0003e0 e0 28 4b 3d 78 0e ab bd f1 f2 54 bd 16 21 19 3d
       0.04959953 -0.08352369 -0.0519895 0.03738507
0003f0 90 40 4b 3d 40 cc 55 3d 96 d3 91 bc a0 fd a6 38
       0.04962212 0.05219674 -0.017801087 7.962738e-05

network_body._body_endoder.seq_layers.2.bias f4 [128]
000000 38 89 0a 3c 77 d9 52 bc 44 e4 d5 3b bf 42 b7 3a
       0.008455567 -0.0128692305 0.0065274555 0.0013981684
000010 0a 01 d0 bb e5 18 d9 bb d8 99 79 bb ff d1 12 bb
       -0.00634778 -0.006625282 -0.0038086083 -0.0022403
000020 4e ea 12 3b 06 e3 0b ba ca 50 95 b8 f9 e4 23 3d
       0.0022417489 -0.00053362583 -7.119922e-05 0.040013287
000030 86 ec e2 3a 75 58 e2 b9 d2 d8 0c bc a4 8c 34 3c
       0.0017312921 -0.00043171985 -0.008596616 0.011019859
000040 6a 0b 70 3d 2f 72 96 3b ba b6 c4 bb 85 f6 18 bb
       0.058604635 0.0045912485 -0.006003228 -0.0023340296
000050 30 26 99 3b f9 a8 d2 3b b2 f1 18 3b 3a c3 36 3b
       0.0046737418 0.0064288345 0.002333742 0.002788736
000060 57 2f 30 3c b3 3d 41 3c d2 1c 82 bc 86 80 f4 bb
       0.010753474 0.011794495 -0.015882883 -0.0074616103
000070 cc 7b 94 3c 18 89 70 3b cd 50 5c bc 06 a4 86 38
       0.018125437 0.0036702808 -0.013446999 6.42017e-05
000080 8b 56 85 3b d3 66 3b 3c ea 67 21 bc 1e f4 67 ba
       0.0040691546 0.011438089 -0.009851435 -0.0008848327
000090 d7 47 60 bc e1 4b 54 ba e6 c7 83 3a 94 c0 02 bc
       -0.013689003 -0.0008098465 0.0010054081 -0.0079804845
0000a0 8e d2 24 3c f8 56 02 bb a4 25 cb bb 63 03 21 3b
       0.010059966 -0.0019888263 -0.0061995555 0.002456867
0000b0 e7 54 06 3b d9 a1 6b 3c 08 20 97 3c b0 7c 29 bc
       0.0020497383 0.014381849 0.01844789 -0.010344669
0000c0 fd 69 95 bc f7 91 ae bb 66 26 c4 ba 2c 81 60 3b
       -0.018239016 -0.005327459 -0.0014965057 0.003425668
0000d0 26 19 91 3b 0c 12 95 bb 39 f4 81 bb 46 5c e8 3a
       0.0044280468 -0.0045492705 -0.003965881 0.0017727695
0000e0 4d a7 da 38 6e 0d 38 bc bd 09 83 3a 55 dc a4 3b
       0.00010426212 -0.011233671 0.0009997409 0.0050311484
0000f0 a0 ac 90 bb b7 08 98 3c db ff 24 bc 9c 00 e2 bc
       -0.0044151098 0.018558843 -0.010070766 -0.027588181
000100 c0 03 70 bc 2b 10 9e 3c 14 e6 21 3d e8 34 8d 39
       -0.014649332 0.019294819 0.03952606 0.00026933034
000110 cb a0 2f bc 79 f7 20 bc 9e 4a ba 3b c4 35 ce ba
       -0.010719488 -0.009824627 0.0056851646 -0.0015732576
000120 f3 b6 ff ba 08 de cc 3c 0a af 6c 3b 38 87 43 3c
       -0.0019509479 0.025008217 0.0036115074 0.011934094
000130 95 bf 03 bc 7b e6 08 3d 12 34 73 bb 41 69 9a 3c
       -0.008041282 0.03342293 -0.0037109894 0.018849017
000140 85 90 25 3c 4a c5 a0 3c 8a 38 96 bb 72 c9 78 3c
       0.010105257 0.019625325 -0.0045843767 0.015184747
000150 bb bc a1 ba ee 85 68 3c 69 83 1f bb 0c 86 88 3b
       -0.0012339571 0.014192088 -0.0024339801 0.0041663703
000160 f1 7d 04 bc 95 f3 04 3c 53 96 0a 3c 8c 23 c4 bc
       -0.008086667 0.008114715 0.008458692 -0.023942731
000170 23 62 9f bc 97 32 28 ba c0 41 b6 3c ec 99 e3 bb
       -0.019455975 -0.000641623 0.022248149 -0.006945839
000180 de 30 e7 bb a4 1b b7 b9 87 3d 88 3a df 04 a0 ba
       -0.007055386 -0.00034925074 0.0010394313 -0.0012208483
000190 f3 9f 02 bc fc 61 36 3c a0 43 88 ba 40 02 47 bc
       -0.007972705 0.01113176 -0.001039613 -0.012146533
0001a0 d5 45 6c bb f7 70 83 bb ad 28 d0 b9 a4 5d fb 3a
       -0.0036052365 -0.004011269 -0.00039703157 0.0019177687
0001b0 11 d4 b9 bb 7c 71 4a ba 0e a8 a9 3c 98 bc ac 3c
       -0.0056710322 -0.0007722599 0.020710018 0.021086022
0001c0 06 d9 92 bc c8 8b 22 3c 63 94 a1 bb f9 57 8f 3c
       -0.01792575 0.009921022 -0.004931019 0.017498003
0001d0 58 87 e8 bc aa 1e 1a 3c fc 81 42 3c e8 f4 99 3c
       -0.02838485 0.009406725 0.011871811 0.018793538
0001e0 c5 75 be bc e0 fc 93 bb 75 db 6f bc 62 45 7f 39
       -0.023249516 -0.004516229 -0.014639725 0.00024344542
0001f0 3b 10 44 3a 64 a4 c1 3c f6 3c 01 3c 23 7d 3c 3c
       0.0007479225 0.023637958 0.007888069 0.011504444

action_model._continuous_distribution.log_sigma f4 [1, 5]
000000 38 f5 8f 3c 8d 19 e4 b8 78 3c 8f bc 24 3a 3a bb
       0.017572984 -0.000108766464 -0.017484888 -0.0028416002
000010 af 69 bc 3b
       0.005749903

action_model._continuous_distribution.mu.weight f4 [5, 128]
000000 b5 fe 74 bb 9b 8a 7b bc 17 65 6a bc 37 fd e1 3c
       -0.0037383263 -0.01535287 -0.014306328 0.027586563
000010 b8 23 19 3c 06 c7 82 bc b5 79 05 bd 7c ba 30 3c
       0.009346895 -0.015964042 -0.032586772 0.010786649
000020 1d 10 81 3c b3 99 10 bc 4d 60 00 bb f4 c0 5e bc
       0.015754754 -0.008825707 -0.001958865 -0.013595808
000030 34 f7 a5 3c 3c 7f ca bb 26 f3 76 3c ab cf e1 bc
       0.020259477 -0.0061797183 0.01507262 -0.027564844
000040 ba ad 54 3c ae d7 d6 bc 9e 29 57 bc 0e 8a dc 3b
       0.012980873 -0.026225891 -0.013132481 0.0067303246
000050 56 68 a9 bc 25 c7 30 bb 98 57 0d 3c 55 43 fe 3b
       -0.020679634 -0.0026974168 0.008626841 0.0077594914
000060 c8 a3 80 bc 39 3c eb 3b 83 34 ab bc e2 70 4b 3c
       -0.015703097 0.00717881 -0.020899063 0.01241705
000070 6a 1c 83 bc 96 b1 90 bc b9 e1 96 ba ef 7f ff 3b
       -0.01600476 -0.017662805 -0.0011511362 0.0077972333
000080 ff 63 3d 3d 8a 46 eb 3c 14 d6 19 3c 83 36 6f 3c
       0.04623794 0.02872016 0.009389419 0.014600399
000090 dd a3 d1 bc eb af 6a bc 7d c0 f5 3a 14 82 01 3c
       -0.025590831 -0.014324169 0.0018749383 0.007904548
0000a0 ca 28 47 3b 5c dd 8d bb b1 86 ac ba 18 48 63 3c
       0.0030389302 -0.0043293666 -0.00131627 0.013872169
0000b0 84 f0 f8 3c 06 cf 3f bb ab aa 22 3c b2 84 1f 3d
       0.030388124 -0.0029267683 0.009928386 0.038944907
0000c0 f9 44 54 3b 4e 7c 41 3b cc a6 eb 3c a2 a3 22 bb
       0.0032389744 0.0029523554 0.028766058 -0.002481677
0000d0 6b 38 61 3c 5e 91 93 3a 3e c5 75 3c 0d 5b ba 3c
       0.013746361 0.0011258533 0.0150006395 0.022748495
0000e0 fd b5 70 3b 08 9b 5f 3b 74 99 ae 3b 1c b6 b7 3c
       0.0036729567 0.0034119505 0.0053283516 0.022425704
0000f0 ff 8f b2 bb b8 30 9a 3c 92 80 dd bb 41 10 86 ba
       -0.0054492946 0.018822059 -0.0067597115 -0.0010228233
000100 19 63 21 3c 36 7a 4d 3c 8b e3 eb 3c 36 53 12 bd
       0.009850287 0.012541344 0.028795024 -0.035723887
000110 55 21 be b9 18 f3 87 3b 83 c5 65 bc 70 81 be 3b
       -0.00036264458 0.004148852 -0.014024141 0.00581377
000120 00 ee 81 bc ab cb 99 3c 38 19 cf 3b bf cd 79 3b
       -0.015860558 0.018773874 0.006320145 0.003811702
000130 34 f9 0d bc e5 cf 78 bc ce e9 27 bc d9 0d 8e 3b
       -0.008665372 -0.015186285 -0.0102486145 0.004335147
000140 61 85 cf bc 99 ba 73 3c 43 01 e0 3a 30 c8 40 3c
       -0.025332155 0.014876031 0.001709022 0.011766478
000150 30 2a 51 bc 7c f0 53 bc 4d 05 02 3d 84 01 db 3a
       -0.012766406 -0.012935754 0.031743336 0.0016708826
000160 6b 02 0f bd 25 ef 0b bb 69 f7 7a 3c d3 24 2c bc
       -0.034914415 -0.0021352258 0.015317776 -0.010506826
000170 3a d5 c5 ba 16 8f 38 3c d5 97 86 bc 19 02 a6 3c
       -0.0015093454 0.011264583 -0.016429821 0.020264672
000180 4a 0b a9 3b 7a 58 ac 3c 2c dd c9 ba e5 4e 8f 3c
       0.0051588165 0.021038283 -0.0015400997 0.017493675
000190 8d 66 96 bb 92 2d cd ba 02 d1 85 3c f9 e3 bc 3b
       -0.0045898617 -0.001565384 0.016335014 0.005764481
0001a0 e5 0f 2c bc ce dd 74 3c 89 cf 2d 3c 9e 8b f1 3c
       -0.010501836 0.0149454605 0.010608562 0.02948552
0001b0 4e 08 0d bc a7 79 6e 3c 9a 22 53 bc 82 3e c4 3c
       -0.008607937 0.014555371 -0.012886668 0.023955587
0001c0 18 ae 80 3c 02 8d 95 3c a0 45 51 bb 98 57 4d bd
       0.015708014 0.018255714 -0.003193237 -0.050132364
0001d0 fa 00 b5 bc 84 92 ec bb 36 10 e2 3b e2 02 69 bc
       -0.022095192 -0.0072196145 0.006898905 -0.014221879
0001e0 b1 84 0b bd 8d cd 05 bb 94 b2 89 3c 57 94 a5 bc
       -0.03406209 -0.0020416707 0.016808785 -0.020212336
0001f0 8c 8c 63 3b d6 70 57 bc 5f fc 1f 3c b6 41 e2 3c
       0.0034721224 -0.013149461 0.00976476 0.027619224
000200 2b 51 81 bc 23 c4 c9 bb 8c ff 8a 3c 4b e6 97 3c
       -0.015785774 -0.0061574145 0.016967557 0.01854243
000210 bb f8 38 3b af bb d5 bb 1a bb 51 3d 78 e2 dd 3b
       0.0028224427 -0.006522618 0.051203825 0.006771382
000220 7c 19 6c bb a5 26 51 bc 98 4d 89 bc 2e 97 58 bd
       -0.0036025932 -0.012765561 -0.016760632 -0.05287855
000230 ab 59 b0 bc 86 cc 78 3c 9a fd ab 3b c2 4e 47 3c
       -0.021527132 0.015185481 0.0052487375 0.012164773
000240 94 2a 59 bc ea e5 a7 3b 11 bd fb bb be 98 c8 3c
       -0.01325478 0.0051238434 -0.0076824506 0.024486896
000250 01 69 a8 3c e5 11 0c bb 3c a3 45 bb 20 66 53 bc
       0.020557882 -0.002137297 -0.003015711 -0.0129027665
000260 36 c5 e4 bc 55 81 00 bc 26 89 59 3c bd 1f 82 bc
       -0.027926069 -0.007843335 0.013277328 -0.015884275
000270 4b c3 66 bc eb f9 d5 ba a6 e9 32 3c 7c fa f4 bc
       -0.014084647 -0.0016325092 0.010919964 -0.029904597
000280 97 a4 22 3c 4d ee 0b 3b b4 1e 7f 3c 81 13 07 3c
       0.009926937 0.0021351755 0.015571285 0.008244396
000290 6f 45 d8 bb 45 88 08 bc 40 b4 c6 bc 2a 4b 86 3d
       -0.006600074 -0.00833327 -0.024255872 0.06557305
0002a0 3c ae 10 bd 76 b8 b1 bb cf ed 79 ba 6c 4a 94 bc
       -0.035322413 -0.005423601 -0.00095340324 -0.018101893
0002b0 22 77 ea bc 75 71 82 bc 65 55 a2 bb c1 a5 09 3c
       -0.02862126 -0.015923241 -0.0049540275 0.008401335
0002c0 26 b3 a3 3c c9 1c e7 3a c7 44 14 3b 85 40 1d 3d
       0.019982886 0.001763248 0.0022624002 0.03839161
0002d0 80 37 1b 3b f3 a7 83 bb 59 15 1a 3d 6a 1c a0 3a
       0.0023684204 -0.004017824 0.037618015 0.0012215499
0002e0 4e 76 e5 3c 35 7f d4 3c ea a4 d8 3c 66 0f 1c bd
       0.028010514 0.025939563 0.026445825 -0.038100623
0002f0 f7 e1 13 3c 18 4c 8a bc 50 e9 91 bb ae fe 2b 3d
       0.009026042 -0.016881987 -0.004452862 0.04199093
000300 1a 18 f4 bb b4 fb 1f 3d 2a bc ec bb 72 6c 03 3d
       -0.007449162 0.039058402 -0.0072245793 0.032085843
000310 3c 21 c8 3c 04 6e 8c 3c e7 78 a3 3c 1d 7f f7 3a
       0.02442991 0.017142303 0.019955112 0.0018882487
000320 9e 6d 2e 3d 36 3c 72 bc 50 73 99 3b 98 7f 02 3c
       0.042585008 -0.014784863 0.004682936 0.007964991
000330 3c b6 b7 ba ff 99 83 bc fd a9 00 3d 2a 6e 74 bb
       -0.0014016102 -0.016064642 0.031412113 -0.0037297108
000340 c0 c3 8d 3b bb 05 4f bc e0 37 ec 3c 8d d3 b7 bb
       0.0043263137 -0.012635644 0.028835237 -0.0056099356
000350 b1 aa 61 3c 3c 72 fa bc bd 9b 40 bc b3 e7 0a bc
       0.013773606 -0.03057205 -0.011755881 -0.008478093
000360 e4 0c 50 3c 86 3d c1 bb df dc cd 3b 4b d3 7c 3b
       0.012698386 -0.0058972267 0.0062824334 0.003857809
000370 28 9e a2 3c 0e bf fa 3b b0 9d b7 bc 45 ae 3c 3d
       0.019850805 0.00765217 -0.022414058 0.046064634
000380 af 2d 2f b8 e1 73 94 bc 3c 51 97 3c 78 d9 12 3b
       -4.1765798e-05 -0.018121662 0.018471353 0.0022407454
000390 5e f9 4b 3c 9f 88 14 3d c6 c1 23 3c 02 3e d8 bb
       0.0124495905 0.036263105 0.00999493 -0.006599189
0003a0 99 09 49 3c d0 51 9d 3c 79 59 f7 ba 93 c9 2e 3c
       0.012270355 0.01920405 -0.001887127 0.010668176
0003b0 11 e9 0e bc c6 24 30 bc 8a 1d 91 bc e9 ec 95 bc
       -0.00872256 -0.010750955 -0.01771428 -0.018301444
0003c0 a2 12 b9 bb e5 a4 58 3c 43 9f 28 bc c4 f3 1d bb
       -0.005647973 0.013222908 -0.010291877 -0.0024101594
0003d0 9b 30 84 3c 30 60 0d 3c da 3c 88 3c 40 8f 2d bd
       0.016136458 0.00862889 0.016630579 -0.042372942
0003e0 9a cb c1 3c e3 4e 05 3c 1c 4a ab bb a6 d5 83 bb
       0.023656655 0.008136484 -0.0052273404 -0.0040232716
0003f0 88 e0 eb bb 46 ab 6a bc 41 7f 24 bb 80 9e 71 bc
       -0.007198397 -0.014323061 -0.0025100263 -0.014747262

action_model._continuous_distribution.mu.bias f4 [5]
000000 65 5c 94 ba 16 72 ed bb d3 a8 c4 bb 06 1a 28 bc
       -0.001131904 -0.007246266 -0.0060015707 -0.010260111
000010 2d 15 9d 3a
       0.001198446

action_model._discrete_distribution.branches.0.weight f4 [5, 128]
000000 f4 16 47 bd 79 fc 27 bb 91 2d 16 bd 8e 83 db bc
       -0.048605874 -0.0025632663 -0.03666455 -0.026796129
000010 af 41 19 3c 64 05 fc bc 5e 06 a2 bc 36 f4 76 3a
       0.009354039 -0.03076429 -0.019778427 0.00094205455
000020 97 53 cc ba e1 17 d2 bb a0 46 0f 3c eb 1a 33 3d
       -0.0015588877 -0.006411538 0.008744866 0.043726843
000030 83 26 39 bc a6 89 f2 3b 27 16 2b 3c 92 e4 2b bd
       -0.011300686 0.007401663 0.010442293 -0.04196603
000040 96 2b 0d 3d ab 97 11 bc 8e 57 f9 ba 95 5e 3c bc
       0.034465395 -0.008886258 -0.0019023286 -0.0114971595
000050 b7 3d 05 3c 2a ca b9 bc 1b c1 44 bc 92 9a 52 3c
       0.00813239 -0.022679407 -0.012008931 0.012854235
000060 cf ee 4a bc fb 15 9d 3c e1 2f 93 bb 03 23 e7 bb
       -0.012386038 0.01917552 -0.0044917916 -0.0070537343
000070 13 09 7f 3c 0e 5a 03 3c 7c cf d4 bc 87 13 74 3c
       0.015566128 0.008017076 -0.025977843 0.014897234
000080 29 46 96 bb 84 f4 2f bd fd ba 3b 3b 63 d4 81 3a
       -0.0045860005 -0.042957798 0.002864539 0.0009905215
000090 88 cc a1 bc f0 6f e0 3b af 29 29 bd 64 5f 58 3c
       -0.019750848 0.0068492815 -0.04129952 0.013206337
0000a0 b1 da ed 38 7c 2c 3a bb d9 f2 41 39 88 df 50 bc
       0.00011341775 -0.0028407862 0.00018496382 -0.0127486065
0000b0 73 33 b1 3a 12 90 09 3c ac 29 c9 38 7b a9 0e bd
       0.0013519361 0.008396165 9.592189e-05 -0.034829598
0000c0 51 cf 2c 3c 71 40 68 ba c1 87 6a 3a ae 18 03 bb
       0.010547475 -0.00088597 0.00089466205 -0.0020003724
0000d0 3d 53 9f bc 15 11 99 bb 53 a6 ab b9 cc 24 a4 bb
       -0.01944887 -0.004671226 -0.00032739583 -0.0050092693
0000e0 00 7c 32 3c c9 ed 92 bc 02 dd ae 3c 1c 62 ae bc
       0.010893822 -0.01793565 0.02134562 -0.021287017
0000f0 20 20 8a 3b e7 f6 e9 bc 08 2e 39 bc cc 10 ab bc
       0.0042152554 -0.028560115 -0.011302479 -0.020882033
000100 ef 90 1d bc 06 fe 08 bd 75 4e 47 3d da 21 02 bc
       -0.009617074 -0.03344538 0.048658807 -0.007942641
000110 e5 54 6f bb 79 ea a0 bc a5 10 ec 3c 50 dd 66 bc
       -0.0036519107 -0.019643055 0.02881653 -0.014090851
000120 51 ed 4f bb 6a 32 36 3d 3f 11 f7 3b 28 76 94 bc
       -0.0031727145 0.044481672 0.0075398977 -0.018122748
000130 57 9d 13 bc 58 b7 ba 3c 53 be 9e bc 97 d4 bf ba
       -0.009009681 0.022792503 -0.019377863 -0.00146355
000140 68 5b a7 3b 83 ba a4 3c 49 c8 07 3c 5a 9c 80 3c
       0.005107332 0.020108467 0.008287498 0.015699554
000150 d6 9b 3c bc 26 16 88 bc 2c 49 3c bc f7 f7 81 3b
       -0.011511764 -0.016612124 -0.011492055 0.0039663273
000160 97 81 64 3b f5 a5 61 3c 2a 2b d7 bc a4 65 f5 ba
       0.003486728 0.013772477 -0.0262657 -0.0018722308
000170 11 41 10 bc f5 09 6c 3c 07 0f ea 3c 9e 7f 20 3c
       -0.008804576 0.014406671 0.028571619 0.009796051
000180 8a 7b 18 bc 62 a7 1d ba a9 79 a1 bb 2c 3d e7 bb
       -0.009306798 -0.00060140167 -0.004927833 -0.007056853
000190 e7 7a 92 bb f3 31 2a bc a9 f2 9b bc 36 f3 a9 bc
       -0.0044702175 -0.010387885 -0.019036608 -0.020745855
0001a0 a6 b8 f9 ba 22 ac 5c 3c 49 37 6c bc 69 27 fe 3b
       -0.0019052222 0.013468774 -0.014417478 0.007756163
0001b0 71 c5 9b bb 85 88 09 3c 33 a6 49 3b 1d 6a 8e 3c
       -0.0047537615 0.008394365 0.0030769228 0.017384583
0001c0 0c 83 9e bc 48 98 4d 3c 09 ba 9e bc be 10 c0 3c
       -0.019349597 0.012548514 -0.019375818 0.023445483
0001d0 9e 36 50 bc 2b cd ea bb ed cb 30 bd 17 51 32 3c
       -0.012708334 -0.007165571 -0.04316323 0.010883591
0001e0 cb 41 f3 bb 26 c6 b9 bb 51 01 7a bc 76 da 63 bb
       -0.0074236146 -0.005669373 -0.015259103 -0.0034767664
0001f0 d9 dc b0 bc 06 9d 0e 3d 38 3b 71 3c ac ad 6d 3c
       -0.021589683 0.034817718 0.0147235915 0.014506739
000200 3a d4 a6 bc 3e 02 d0 b8 1c 6e 02 bc a0 88 d4 bc
       -0.02036487 -9.9186305e-05 -0.007960822 -0.025944054
000210 3f b1 5d 3c 30 73 98 3b 3b 41 ad bc 1c 08 46 3b
       0.013531028 0.0046524033 -0.021149268 0.0030217236
000220 0a 28 4b bc cd 54 b3 3c c0 10 c0 3a a9 d9 b9 3c
       -0.012399683 0.021891022 0.0014653429 0.022686796
000230 5f 42 23 bb 34 56 93 39 86 0b 22 3c 44 8a ad bc
       -0.0024911386 0.0002810225 0.009890443 -0.021184094
000240 b0 3f 6f 3c 3a 6c 1d 3b e5 c3 96 3a 39 09 92 bb
       0.014602587 0.0024020807 0.0011502473 -0.004456666
000250 6f 69 0c 3c 65 7b 4c bc b3 39 df 3b 65 51 e0 3b
       0.008570059 -0.012480591 0.006812298 0.0068456405
000260 19 fb 9b 3c ac 06 67 3a 7a 27 a8 3c f4 33 71 3c
       0.019040631 0.0008812945 0.020526636 0.014721859
000270 d4 5f 41 3b 14 58 b2 3b 4a fa b3 bc 9d 93 f6 3b
       0.002950658 0.0054426286 -0.021969933 0.007524921
000280 80 17 91 bc fc e8 ac bc 59 91 09 bb 00 15 91 bb
       -0.017711401 -0.02110719 -0.0020991175 -0.004427552
000290 79 2f da bc f1 e2 15 bc f7 fd e3 bc f8 9e 47 bb
       -0.026633965 -0.009148345 -0.02783106 -0.0030459743
0002a0 d3 8f 01 3b 38 67 27 3b 2f 7a 42 3b e7 c6 9d bb
       0.0019769564 0.00255437 0.0029674878 -0.004814971
0002b0 67 59 15 3c e4 27 fe 3c f1 09 c9 3b ac ee f5 bb
       0.009115553 0.03102488 0.0061352183 -0.0075052585
0002c0 13 08 aa bb 31 26 2b bc c3 1a 20 3c 37 db 16 3b
       -0.005188951 -0.010446117 0.0097720055 0.0023018846
0002d0 42 f0 d3 bb 71 eb a1 bb 53 4b b5 bb 86 b9 15 3b
       -0.00646785 -0.004941397 -0.005532661 0.0022846176
0002e0 f7 3e 35 bc 35 be d6 bc 25 fb 38 3c d0 9d b9 bb
       -0.011062375 -0.026213745 0.011290346 -0.0056645647
0002f0 ba 7d 37 3c 93 b4 c0 bc b7 b4 47 3a a9 47 e2 bc
       0.011199409 -0.023523604 0.0007618176 -0.02762206
000300 80 a4 94 bb 81 68 e8 bc 2c 24 83 3b b7 f5 42 bb
       -0.0045362115 -0.028370144 0.0040021148 -0.0029748508
000310 15 65 6b bb c7 2b 00 bd 4f 31 76 bc 81 d7 05 bb
       -0.0035918404 -0.03129175 -0.0150264045 -0.002042264
000320 7f 79 b5 3b a3 4c e6 ba 07 f9 c4 3b 49 46 16 bd
       0.005538165 -0.0017570447 0.0060111317 -0.036688123
000330 d5 2c 0e 3b e5 1e 71 bb ec 79 8b bc 40 8e 92 3c
       0.0021694202 -0.0036792096 -0.01702591 0.017890096
000340 65 88 af 3c d3 b3 c2 bb ec 52 7e 3a 15 8a b7 3c
       0.021427343 -0.005941847 0.00097016874 0.02240471
000350 9b b4 03 3c 3e 64 36 bc ff be 03 3c 80 ec 90 b9
       0.008038665 -0.011132298 0.0080411425 -0.00027642027
000360 b0 79 4a bb a9 cb 82 3c 26 82 8b 3c 04 34 d7 3a
       -0.0030895285 0.015966253 0.017029833 0.00164187
000370 5f a2 95 b9 9a 73 c2 3b f3 f8 70 3b 24 dc 0b 3c
       -0.0002854047 0.005934191 0.003676948 0.008536372
000380 86 b6 3c bb 6b 2b 02 3c 8c 7c b0 3b 6f b7 1c bb
       -0.0028795316 0.007944922 0.005385941 -0.0023913046
000390 8f 8d 48 bc f0 97 8a bb 2c 17 36 bc 85 6a 8e bc
       -0.012240781 -0.004229538 -0.011113923 -0.017384777
0003a0 88 e7 49 bc 8c f6 11 3c b2 1e ea 3b e0 df 6d 3a
       -0.012323268 0.008908879 0.0071447724 0.00090741925
0003b0 fb a8 96 bc bd 0e 84 3c 03 27 bd 3c a6 35 0e 3c
       -0.018391123 0.016120309 0.023089891 0.008679783
0003c0 07 bb 02 3c d9 19 44 3b 2f 96 55 3c 7e 42 11 bc
       0.007979161 0.0029922633 0.013036295 -0.008865951
0003d0 ac 0e 26 bc 72 69 c1 3b 6c 74 1c bb a2 0d 8e 3c
       -0.010135334 0.0059024626 -0.0023873104 0.017340485
0003e0 8f 76 9a bc 9d d8 78 3c 32 b2 11 bc 08 2d 68 3b
       -0.018855361 0.015188363 -0.008892583 0.0035427231
0003f0 54 d7 23 3c fd a8 1c 3d 60 e9 1c 3c 6a 56 27 ba
       0.010000069 0.038247097 0.009577125 -0.0006383421

action_model._discrete_distribution.branches.0.bias f4 [5]
000000 b1 cd 85 3c 5c af 78 3c 0b a5 7b 3c 16 1d c8 3c
       0.016333433 0.015178528 0.0153591735 0.024427932
000010 0a e1 14 bd
       -0.036347426

exp_avg f4 [128, 112]
000000 ae 7b 8a b5 37 8b 5e 38 00 00 00 00 00 00 00 00
       -1.0317797e-06 5.305858e-05 0.0 0.0
000010 89 03 dc 36 3a ea 68 36 de 9d 48 38 00 00 00 00
       6.5569225e-06 3.4707032e-06 4.783074e-05 0.0
000020 00 00 00 00 21 97 bf 36 83 7e f9 35 cf 57 54 38
       0.0 5.7098373e-06 1.8588765e-06 5.0626517e-05
000030 0b e8 cc 86 00 00 00 00 ef 83 ee 36 e8 c2 91 b5
       -7.707723e-35 0.0 7.108312e-06 -1.0860067e-06
000040 64 24 5e 38 00 00 00 00 00 00 00 00 38 7b d4 36
       5.2962816e-05 0.0 0.0 6.332437e-06
000050 c8 39 3a 35 d9 48 5b 38 0b e8 cc 86 00 00 00 00
       6.937448e-07 5.2281513e-05 -7.707723e-35 0.0
000060 f7 e7 12 37 f3 30 87 b6 7d 00 6b 38 00 00 00 00
       8.756287e-06 -4.029012e-06 5.602882e-05 0.0
000070 00 00 00 00 80 14 e5 36 90 60 93 b5 f1 f1 5b 38
       0.0 6.8271183e-06 -1.0980457e-06 5.2438994e-05
000080 00 00 00 00 00 00 00 00 89 8d 08 37 51 36 d8 b6
       0.0 0.0 8.139185e-06 -6.443625e-06
000090 48 bf 74 38 00 00 00 00 00 00 00 00 73 af c1 36
       5.8352278e-05 0.0 0.0 5.772273e-06
0000a0 75 a2 a2 b6 b2 8c 6b 38 00 00 00 00 00 00 00 00
       -4.8468887e-06 5.61594e-05 0.0 0.0
0000b0 8f 24 12 37 d7 98 81 b6 65 4a 6c 38 65 2e 8d 29
       8.71079e-06 -3.8622925e-06 5.633607e-05 6.269706e-14
0000c0 00 00 00 00 dc 98 d9 36 6f d5 49 b7 80 d7 84 38
       0.0 6.484899e-06 -1.20302275e-05 6.3343905e-05
0000d0 40 ac 05 af 00 00 00 00 93 c4 6f 37 ea ef 09 34
       -1.2157475e-10 0.0 1.4291279e-05 1.28464e-07
0000e0 0b b7 5b 38 e3 5c 23 29 00 00 00 00 2c a9 b9 36
       5.238414e-05 3.6273837e-14 0.0 5.533124e-06
0000f0 34 ba 8b b7 dd 94 90 38 4a 59 d0 2e 00 00 00 00
       -1.6656799e-05 6.894183e-05 9.474606e-11 0.0
000100 7e e7 79 37 b1 fd 5e b5 67 bd 5f 38 b5 e4 6f 2a
       1.4895455e-05 -8.3070614e-07 5.3343738e-05 2.1306813e-13
000110 00 00 00 00 7f 13 94 36 0e 1a 0c b7 53 a4 81 38
       0.0 4.4130134e-06 -8.350717e-06 6.181807e-05
000120 67 ef 1b b0 00 00 00 00 df 2d 71 37 d2 40 55 b5
       -5.672888e-10 0.0 1.43754e-05 -7.944301e-07
000130 49 94 5f 38 9c fd 76 27 00 00 00 00 79 6e 4a 36
       5.3305444e-05 3.427684e-15 0.0 3.016465e-06
000140 f6 e0 2b b7 e2 9c 85 38 99 04 00 80 00 00 00 00
       -1.0244772e-05 6.371156e-05 -1.65e-42 0.0
000150 f5 62 6f 37 b1 a8 47 b6 3c a1 68 38 00 00 00 00
       1.426855e-05 -2.9751502e-06 5.546327e-05 0.0
000160 00 00 00 00 4f b1 f7 34 87 0d 11 36 16 27 57 38
       0.0 4.6136344e-07 2.1614558e-06 5.1296396e-05
000170 64 ab 00 00 00 00 00 00 fa bd 61 37 e7 e1 48 36
       6.1483e-41 0.0 1.3455277e-05 2.9933815e-06
000180 e8 ec 4f 38 bd b7 8b b3 00 00 00 00 35 15 37 36
       4.9573282e-05 -6.506114e-08 0.0 2.728147e-06
000190 53 c4 99 37 b4 55 13 38 38 5e 02 00 00 00 00 00
       1.8330442e-05 3.512735e-05 2.1747e-40 0.0
0001a0 c5 a9 3a 37 b2 7d 97 3a e9 b6 b8 b9 b5 ee a3 37
       1.11259915e-05 0.0011557846 -0.00035231494 1.954227e-05
0001b0 e6 f6 cf 38 d8 b6 ab 37 9c c3 2d 39 1e 13 84 37
       9.9165176e-05 2.0469932e-05 0.00016571436 1.5744528e-05
0001c0 0d 63 66 b4 23 b2 48 38 00 00 00 00 00 00 00 00
       -2.1456454e-07 4.784962e-05 0.0 0.0
0001d0 03 71 2c 37 6c 18 83 b6 53 54 56 38 00 00 00 00
       1.02783115e-05 -3.9069473e-06 5.110011e-05 0.0
0001e0 00 00 00 00 e0 ff 47 37 df c0 12 b6 09 be 4f 38
       0.0 1.19209e-05 -2.186796e-06 4.952963e-05
0001f0 b5 96 01 88 00 00 00 00 f8 05 ed 36 3d da de b5
       -3.899668e-34 0.0 7.0638453e-06 -1.6603805e-06
000200 20 1b 47 38 00 00 00 00 00 00 00 00 04 a0 51 37
       4.747056e-05 0.0 0.0 1.2494627e-05
000210 8d 6a b6 b5 06 b7 4c 38 b5 96 01 88 00 00 00 00
       -1.3591067e-06 4.8807844e-05 -3.899668e-34 0.0
000220 e0 91 01 37 39 a1 61 b6 d8 12 4e 38 00 00 00 00
       7.722963e-06 -3.3621457e-06 4.9131777e-05 0.0
000230 00 00 00 00 d2 88 4d 37 ef 54 90 b6 57 c4 49 38
       0.0 1.2250808e-05 -4.301422e-06 4.810499e-05
000240 00 00 00 00 00 00 00 00 50 08 12 37 fa c4 83 b6
       0.0 0.0 8.7042135e-06 -3.9270353e-06
000250 f0 92 50 38 00 00 00 00 00 00 00 00 17 4b 33 37
       4.972791e-05 0.0 0.0 1.0686715e-05
000260 c8 ee 49 b6 83 86 44 38 00 00 00 00 00 00 00 00
       -3.0090323e-06 4.6855315e-05 0.0 0.0
000270 44 4c 28 37 11 6a 15 b5 b0 ff 50 38 49 74 09 28
       1.0031337e-05 -5.566117e-07 4.9829192e-05 7.630243e-15
000280 00 00 00 00 73 55 38 37 91 52 06 36 82 82 2f 38
       0.0 1.098715e-05 2.0015616e-06 4.1844796e-05
000290 40 4a 1d af 00 00 00 00 5b a0 09 37 c0 37 d4 35
       -1.4305446e-10 0.0 8.203172e-06 1.5811456e-06
0002a0 6e 05 48 38 02 88 03 27 00 00 00 00 42 ed 38 37
       4.7688773e-05 1.8253632e-15 0.0 1.10224955e-05
0002b0 6b e3 e8 34 28 51 35 38 95 de a2 ae 00 00 00 00
       4.3378836e-07 4.3229345e-05 -7.4064456e-11 0.0
0002c0 f1 12 3d 37 cc 05 96 36 ea e7 3b 38 5f 6b e9 27
       1.1269688e-05 4.471023e-06 4.480026e-05 6.4786903e-15
0002d0 00 00 00 00 0b f0 28 37 9c 3a bd b6 ba 8b 5d 38
       0.0 1.006947e-05 -5.639462e-06 5.2820636e-05
0002e0 9c 1c 02 b0 00 00 00 00 f0 4e 44 37 66 d9 b4 35
       -4.733438e-10 0.0 1.1700889e-05 1.3474316e-06
0002f0 ff 64 40 38 07 aa e4 27 00 00 00 00 0b 92 1c 37
       4.5870427e-05 6.3467056e-15 0.0 9.332328e-06
000300 a6 5d c3 36 01 78 2d 38 56 fe 00 00 00 00 00 00
       5.822355e-06 4.1358177e-05 9.1239e-41 0.0
000310 43 40 47 37 a8 77 e0 35 5e fd 3e 38 00 00 00 00
       1.1876286e-05 1.6724125e-06 4.5535497e-05 0.0
000320 00 00 00 00 f1 d6 0e 37 5d 84 4c 37 58 bf 12 38
       0.0 8.5139045e-06 1.2190166e-05 3.4987315e-05
000330 44 68 00 00 00 00 00 00 2a 58 38 37 61 71 82 36
       3.7403e-41 0.0 1.0987782e-05 3.887501e-06
000340 ff 44 36 38 d3 5f 4c b4 00 00 00 00 1c 37 19 37
       4.345644e-05 -1.9033841e-07 0.0 9.132342e-06
000350 29 14 c6 36 e7 1d 2d 38 70 90 01 00 00 00 00 00
       5.903207e-06 4.1274263e-05 1.4365e-40 0.0
000360 8d c3 64 37 fa 86 14 3b fa 34 e6 38 55 23 91 37
       1.3635389e-05 0.002266346 0.00010977122 1.73018e-05
000370 1a 37 b1 b9 20 1c d3 37 17 4d 86 39 00 6a 6e 37
       -0.00033801125 2.5166257e-05 0.00025615908 1.42105855e-05
000380 70 e2 0e 37 a4 b8 48 b8 00 00 00 00 00 00 00 00
       8.516581e-06 -4.7855676e-05 0.0 0.0
000390 88 18 98 b6 81 81 55 34 56 d8 25 b8 00 00 00 00
       -4.532809e-06 1.9884284e-07 -3.9540544e-05 0.0
0003a0 00 00 00 00 38 f7 ae b6 55 57 c6 36 a6 ac 3d b8
       0.0 -5.214384e-06 5.9110266e-06 -4.5221903e-05
0003b0 4a fa 18 80 00 00 00 00 34 bc a2 b6 29 55 46 b6
       -2.293839e-39 0.0 -4.849886e-06 -2.955387e-06
0003c0 cd 9f 18 b8 00 00 00 00 00 00 00 00 c4 5f b1 b6
       -3.638845e-05 0.0 0.0 -5.2861596e-06
0003d0 75 be 77 b4 bd 58 25 b8 4a fa 18 80 00 00 00 00
       -2.3072955e-07 -3.942171e-05 -2.293839e-39 0.0
0003e0 67 df 83 b6 83 22 12 b5 8e bb 22 b8 00 00 00 00
       -3.9301117e-06 -5.443946e-07 -3.8798484e-05 0.0
0003f0 00 00 00 00 46 00 bc b6 5a 11 e6 b6 a2 a8 09 b8
       0.0 -5.6028684e-06 -6.856554e-06 -3.2820397e-05

exp_avg_sq f4 [128, 112]
000000 68 b1 b9 2f 11 6e 4f 32 00 00 00 00 00 00 00 00
       3.377736e-10 1.2074012e-08 0.0 0.0
000010 f0 e4 0d 30 62 97 bd 2f 88 74 4f 32 00 00 00 00
       5.162084e-10 3.4486464e-10 1.2075482e-08 0.0
000020 00 00 00 00 01 68 0f 30 b5 5f b2 2f f9 72 4f 32
       0.0 5.2170895e-10 3.2446015e-10 1.2075128e-08
000030 b5 ab 6e 28 00 00 00 00 62 ae 0c 30 94 7b b9 2f
       1.3248887e-14 0.0 5.1179516e-10 3.3739112e-10
000040 94 5f 50 32 00 00 00 00 00 00 00 00 f3 4b 0e 30
       1.2128925e-08 0.0 0.0 5.176723e-10
000050 9a 22 c4 2f 9c 1b 4e 32 b5 ab 6e 28 00 00 00 00
       3.5676778e-10 1.1997056e-08 1.3248887e-14 0.0
000060 4a 86 0a 30 82 19 b8 2f 7c 36 4e 32 00 00 00 00
       5.0394944e-10 3.348753e-10 1.20031665e-08 0.0
000070 00 00 00 00 39 d2 0e 30 81 f6 ad 2f 28 7b 4b 32
       0.0 5.1958043e-10 3.1643668e-10 1.1844158e-08
000080 00 00 00 00 00 00 00 00 bd 9f 07 30 b4 70 ce 2f
       0.0 0.0 4.9339716e-10 3.7551262e-10
000090 9c 57 4f 32 00 00 00 00 00 00 00 00 9e 66 0b 30
       1.2068906e-08 0.0 0.0 5.0713733e-10
0000a0 6a 41 c5 2f 01 fc 4b 32 00 00 00 00 00 00 00 00
       3.588057e-10 1.1873454e-08 0.0 0.0
0000b0 00 4f 0a 30 e8 ed d1 2f e0 7a 4f 32 3a 28 a5 29
       5.0316373e-10 3.818592e-10 1.2076924e-08 7.33445e-14
0000c0 00 00 00 00 cf 35 08 30 6d c6 da 2f 20 67 4c 32
       0.0 4.955298e-10 3.979496e-10 1.1897811e-08
0000d0 dd 33 1a 27 00 00 00 00 78 fe 0b 30 8b 8b d3 2f
       2.1399908e-15 0.0 5.092953e-10 3.8479828e-10
0000e0 2d 19 4c 32 07 80 d7 28 00 00 00 00 a5 6a 04 30
       1.1880087e-08 2.3925318e-14 0.0 4.817287e-10
0000f0 0c 77 f8 2f 1a 4c 4c 32 1e 40 62 29 00 00 00 00
       4.5195525e-10 1.1891666e-08 5.0237694e-14 0.0
000100 03 12 0b 30 9e 3b f7 2f 0e 20 4c 32 2c 76 84 2b
       5.05935e-10 4.49714e-10 1.1881651e-08 9.411963e-13
000110 00 00 00 00 09 73 03 30 93 88 e2 2f 1e 2d 4b 32
       0.0 4.7820997e-10 4.1206202e-10 1.1826414e-08
000120 fa 88 2d 2a 00 00 00 00 cc 82 0c 30 f6 b1 f0 2f
       1.541301e-13 0.0 5.1117577e-10 4.3782195e-10
000130 50 8d 4a 32 1a 64 04 25 00 00 00 00 48 a0 01 30
       1.1790078e-08 1.1483091e-16 0.0 4.71577e-10
000140 f5 13 e7 2f 83 49 4b 32 9e a9 7e 28 00 00 00 00
       4.2032836e-10 1.183287e-08 1.4136612e-14 0.0
000150 fa ff 0d 30 bb ca c2 2f 5a f9 4a 32 00 00 00 00
       5.1659266e-10 3.5432443e-10 1.18146435e-08 0.0
000160 00 00 00 00 ce fb 02 30 32 d7 de 2f 18 09 4a 32
       0.0 4.765156e-10 4.053447e-10 1.1760015e-08
000170 42 d3 5d 28 00 00 00 00 3a cd 0a 30 16 2a cf 2f
       1.2313774e-14 0.0 5.049575e-10 3.7682985e-10
000180 2a ac 4a 32 97 8f e1 26 00 00 00 00 5c dc 05 30
       1.1797093e-08 1.5651431e-15 0.0 4.869827e-10
000190 10 4e e9 2f 1a dc 47 32 14 58 d8 28 00 00 00 00
       4.243792e-10 1.163337e-08 2.4019015e-14 0.0
0001a0 bd 10 07 30 bd 0b da 37 66 3f 66 34 4b 65 f0 30
       4.91365e-10 2.5993091e-05 2.1443483e-07 1.7491087e-09
0001b0 76 ae 77 34 41 2b 90 31 f4 7b 83 34 d6 02 98 30
       2.3067136e-07 4.195869e-09 2.449084e-07 1.1060262e-09
0001c0 0a bb 13 30 86 be af 32 00 00 00 00 00 00 00 00
       5.3744087e-10 2.0459321e-08 0.0 0.0
0001d0 38 00 5c 30 18 bf 13 30 ab 54 ae 32 00 00 00 00
       8.0035845e-10 5.374985e-10 2.0294769e-08 0.0
0001e0 00 00 00 00 78 e4 5e 30 5c b0 18 30 ef 46 af 32
       0.0 8.1087803e-10 5.55479e-10 2.0404938e-08
0001f0 23 42 27 2a 00 00 00 00 21 ce 5e 30 1c 7a 0b 30
       1.4855525e-13 0.0 8.1056056e-10 5.0741433e-10
000200 50 6e af 32 00 00 00 00 00 00 00 00 43 0a 60 30
       2.0422846e-08 0.0 0.0 8.150531e-10
000210 b8 a6 14 30 ce e4 ad 32 23 42 27 2a 00 00 00 00
       5.407901e-10 2.0243899e-08 1.4855525e-13 0.0
000220 0a b6 64 30 ac 3f 11 30 54 88 af 32 00 00 00 00
       8.320461e-10 5.2841176e-10 2.0434676e-08 0.0
000230 00 00 00 00 e3 45 63 30 c3 14 0b 30 d5 22 ad 32
       0.0 8.2681434e-10 5.059741e-10 2.015569e-08
000240 00 00 00 00 00 00 00 00 61 15 66 30 90 df 0d 30
       0.0 0.0 8.3703894e-10 5.16132e-10
000250 4f 1c b1 32 00 00 00 00 00 00 00 00 a2 4c 67 30
       2.0618385e-08 0.0 0.0 8.414621e-10
000260 7b 14 f9 2f 2a 64 af 32 00 00 00 00 00 00 00 00
       4.5307388e-10 2.041823e-08 0.0 0.0
000270 a5 c4 67 30 9c eb 03 30 41 83 b2 32 d5 7d 85 29
       8.431676e-10 4.7992343e-10 2.0781615e-08 5.928215e-14
000280 00 00 00 00 7b 5c 66 30 a6 37 13 30 b2 59 ae 32
       0.0 8.3804935e-10 5.355737e-10 2.0297055e-08
000290 1a b6 55 27 00 00 00 00 66 af 65 30 83 62 fe 2f
       2.9658405e-15 0.0 8.355897e-10 4.6272328e-10
0002a0 af 13 b0 32 02 cd 9e 28 00 00 00 00 50 d1 63 30
       2.0498048e-08 1.7630432e-14 0.0 8.287957e-10
0002b0 90 b9 12 30 70 39 ae 32 fe 86 93 28 00 00 00 00
       5.337819e-10 2.0282386e-08 1.6378822e-14 0.0
0002c0 41 0b 61 30 91 74 f5 2f 9b 50 b1 32 ef ca dc 27
       8.1870516e-10 4.4648066e-10 2.0642167e-08 6.1282287e-15
0002d0 00 00 00 00 b2 3a 67 30 80 22 09 30 02 55 ad 32
       0.0 8.412072e-10 4.9889337e-10 2.0178508e-08
0002e0 41 ed 66 29 00 00 00 00 17 19 60 30 17 6c e0 2f
       5.1276044e-14 0.0 8.152638e-10 4.0822165e-10
0002f0 91 3f b0 32 77 9b c4 25 00 00 00 00 2f a0 65 30
       2.0518003e-08 3.4105927e-16 0.0 8.353735e-10
000300 9d eb 14 30 a1 d9 aa 32 d4 18 38 27 00 00 00 00
       5.4176913e-10 1.988957e-08 2.5548589e-15 0.0
000310 8d da 5d 30 42 83 e2 2f 89 cd ae 32 00 00 00 00
       8.070991e-10 4.1202425e-10 2.0349733e-08 0.0
000320 00 00 00 00 2f fd 69 30 ea 30 1c 30 8b 57 aa 32
       0.0 8.51247e-10 5.682198e-10 1.9830415e-08
000330 eb 7e 45 27 00 00 00 00 2e 98 5a 30 4a 4b f9 2f
       2.7408044e-15 0.0 7.95242e-10 4.5346332e-10
000340 3e 85 af 32 9c 85 74 28 00 00 00 00 0a fe 67 30
       2.0433273e-08 1.3573693e-14 0.0 8.439832e-10
000350 69 8f 1c 30 06 70 ad 32 57 ac cd 26 00 00 00 00
       5.695627e-10 2.0190793e-08 1.4271445e-15 0.0
000360 ad b6 5b 30 d2 32 60 38 b5 98 c4 34 6d fc 4c 31
       7.9931334e-10 5.3453092e-05 3.6618954e-07 2.9829395e-09
000370 c3 fc be 34 74 fc ec 31 c2 11 c8 34 79 9f 01 31
       3.5574166e-07 6.8972046e-09 3.7265823e-07 1.886262e-09
000380 bb 35 23 2f d5 7d a5 31 00 00 00 00 00 00 00 00
       1.4843853e-10 4.8164375e-09 0.0 0.0
000390 ae 6a 76 2f 17 25 2c 2f f7 d2 a3 31 00 00 00 00
       2.241147e-10 1.5656486e-10 4.7679083e-09 0.0
0003a0 00 00 00 00 cc 7e 78 2f ba e2 0c 2f ce 3a a2 31
       0.0 2.2600516e-10 1.2813475e-10 4.721506e-09
0003b0 69 2a 68 1b 00 00 00 00 38 ac 70 2f 7c 71 3d 2f
       1.9204294e-22 0.0 2.1889057e-10 1.7229768e-10
0003c0 1c 69 a0 31 00 00 00 00 00 00 00 00 d6 04 76 2f
       4.6685624e-09 0.0 0.0 2.2375288e-10
0003d0 98 45 06 2f d4 72 a3 31 69 2a 68 1b 00 00 00 00
       1.2211954e-10 4.756979e-09 1.9204294e-22 0.0
0003e0 28 65 6f 2f df 47 2f 2f 95 79 a1 31 00 00 00 00
       2.1772861e-10 1.5941691e-10 4.699539e-09 0.0
0003f0 00 00 00 00 8c d2 73 2f df a2 14 2f 23 b6 a2 31
       0.0 2.2175523e-10 1.3518385e-10 4.735527e-09
