results/TankTest/Tank/Tank-4934.onnx (onnx, 138308 bytes, 7 tensors)

network_body._body_endoder.seq_layers.0.weight f4 [128, 117]
00000000: 7971 bc3c d245 263c d637 943c b53d 58bc
00000010: 9f65 c9bd 3606 47bd 2638 983d b2da 5b3d
00000020: b1f3 b13d 0526 50bc 60ac b63b 4c08 593d
00000030: 5159 d5bc 5e38 67bc f219 93bc 57c0 4ebd
00000040: a4e1 953c 6542 cbbb 260d 263e 0ca5 f3bd
00000050: 0cdb 283e c473 f5bd f695 c8bd c6fd 2dbb
00000060: 3365 13be 253b 403d 47f5 fdbd 6127 893d
00000070: 5e14 4abc 6cc9 8fbc 334d 673d e372 93bd
00000080: b2a3 7abd 9f90 d33c c0f4 c1bd 8512 9abb
00000090: 705e c0bd 3795 4ebe e570 c83c 40d9 d63b
000000a0: ff52 36be 34e2 36bd 6724 cbbd 4bb2 533e
000000b0: b1aa d4bd fd9c 773d f3d1 0b3e 7b62 d0bd
000000c0: 72f3 0a3e 2b0d 00bd 5b3d 5abd 3c5f c9bd
000000d0: c697 d2bc d4af 003e 8a63 8fbd b422 083d
000000e0: f763 1ebe f101 3a3c 8761 c2bd 4318 9ebd
000000f0: c6e8 e73c 34e3 0f3e a926 01be fd89 85bd
00000100: f7d1 22be 71a4 e6bd f5b5 b8bd e9a0 be3c
00000110: e5cd 65bd 642b f43c 90c7 b0bd 9aa8 c1bd
00000120: 4e7f 3e3d 6948 a2ba 0138 59be e11e 313c
00000130: 41e5 47bd 6b34 26be e792 02be b511 db3c
00000140: 634b 15be 2ae1 60bd 4790 8f39 148c fc3c
00000150: 2abe 70bd 50f5 7e3c de6c 2ebd 0f44 e7bc
00000160: cf13 c43d d45e 52be 7633 28bd 439a f73d
00000170: f46b 043c bf1a bfbd 473f 6d3d 954a da3d
00000180: 62bd 1d3d f79f d5bd 53ca 663e 45d7 9abd
00000190: d173 7fbc 3159 d0bd a143 9bbd cfd0 49bd
000001a0: 72f6 6ebd 04fd 2abc db3f 103e a707 99bc
000001b0: b988 7d3c e439 c33d c833 0fbe fe3e 35be
000001c0: 1723 cabd 6fb5 cbbc 21b3 283d c7fd dfbd
000001d0: f838 093e b258 27be 2ede be3c deec bf3d
000001e0: a5b5 853d 090f 0cbd 02a1 c23d c2c4 063d
000001f0: 3cbc 85bd 04ad fe3b 456a 4f3d d5e2 bebd
00000200: b0dc a83d 322f c0bd b4c6 1d3d ddd0 e43d
00000210: 1e0f 9c3d 4223 0d3e 4871 aa3d cf79 3a3d
00000220: c021 b8bd a2ec f4bd 829c f23d a40f 053e
00000230: 1dd0 6d3c b9c8 b6bb 5a0f 0fbe def7 96bd
00000240: fe91 dbbc 9547 893d 80a8 163d 5778 aa3d
00000250: bf1b 27bd a68f e43d d2ed a6bd e447 abbc
00000260: ddc1 8bbc 7bbd 213e 9fec 233d 8bbe 0e3e
00000270: b865 25bd 988f 9d3c ac5a 15bd 319a f33c
00000280: 17e5 b53d 1402 073d de5b 6fbc 055e 653a
00000290: def2 7f3d 38ec 9c3b 057b 58be 499c b23d
000002a0: 67ad a13d f043 34be f692 4cbe de97 b0bb
000002b0: 7fb4 a33b c31f 8fbd 8541 3ebd d0c0 e8bd
000002c0: feb6 843d 9503 7cbd f2d6 06be 8c7a e73d
000002d0: 5040 2ebe fe01 833d 3f42 f73d 442c cdbd
000002e0: f8cc 023c f4dc 01be be93 3d3e 3e7d 483e
000002f0: de2c 16be 1e6b 303d fc2c 0fbd b052 92bd
00000300: 4708 1a3e 6ae2 e53c 772a 1fbd 2947 8e3e
00000310: 320e 89bd 7f5f 153d 5ae3 d63a 345b 01be
00000320: 548e 703e 0506 bdbd 0b45 3fbe e97d 033e
00000330: 3d1e 12be d24d fe3b db3d 4c3e 831c 37be
00000340: f45f 03be 5867 7ebb 78cb e33d 128c 1f3c
00000350: aed6 a7bd 98f5 d1bd 413b 19bd 35e8 273a
00000360: 8f7e a6bc 70e0 19bd dc3b d63d 7d91 d0bd
00000370: 528d 973d 2536 a5bd b4a8 d93d e26c 493c
00000380: c1b9 08be e4e1 3f3d bb9f abbc 8355 aabd
00000390: 0c9e 623c e9e6 2bbe 1998 903d a91f 023e
000003a0: 584d 8ebb 90a8 033e a12d 8bbd 8791 0d3e
000003b0: dd8a d5bd c174 c93d 7365 a23d b4fa 5d3d
000003c0: 0e73 f2bc 5424 4b3e d26a ccbd 781d ad3b
000003d0: 4e6d b6bd 9533 f73d d37e 23b9 6a0e e4bc
000003e0: 4e9b 8dbd eca9 4fbd c4db 0ebe 5f5a 073d
000003f0: c2c0 d7bb b5a8 af3d b19e 0e3e 433e 38bd
0.023003327 0.010148482 0.01809303 -0.013198306 -0.09833836 -0.048589908 0.074325845 0.05367536
0.086890586 -0.012704377 0.005574748 0.05298643 -0.026043566 -0.01411256 -0.017956708 -0.0504764
0.01829607 -0.006202983 0.16215953 -0.118967146 0.1648981 -0.11984971 -0.09794228 -0.0026548966
-0.14394073 0.046931405 -0.124002986 0.06696964 -0.0123339575 -0.0175521 0.056470107 -0.07199647
-0.06119127 0.025825797 -0.094705105 -0.0047019147 -0.093930125 -0.20174108 0.024467895 0.00655666
-0.17805098 -0.044649318 -0.099190526 0.20673482 -0.10384119 0.06045245 0.13654308 -0.10175034
0.1356943 -0.031262558 -0.05328117 -0.09832618 -0.025707137 0.12567073 -0.070014074 0.03323622
-0.15467821 0.011353002 -0.09491258 -0.07719471 0.028309237 0.14051515 -0.12612404 -0.0652046
-0.15900408 -0.112618335 -0.090190805 0.023270087 -0.05610456 0.029805847 -0.086318135 -0.09455986
0.046508126 -0.0012381199 -0.2121277 0.010810585 -0.048802618 -0.16230933 -0.12751351 0.026741842
-0.14579539 -0.054902233 0.0002738258 0.030828513 -0.058775105 0.015561417 -0.042584293 -0.028230695
0.09574091 -0.20543987 -0.041064702 0.1208997 0.008082379 -0.09331273 0.057921674 0.10658757
0.038510688 -0.104309015 0.22538118 -0.07560591 -0.015591578 -0.10173262 -0.075812586 -0.0492714
-0.058340497 -0.0104363 0.14086859 -0.018680407 0.015474492 0.09532526 -0.13984597 -0.17699811
-0.09869974 -0.024866788 0.041186456 -0.10937076 0.13400638 -0.16342428 0.023299303 0.09371351
0.065287866 -0.034194026 0.09503366 0.032902487 -0.065300435 0.00777209 0.050638456 -0.093206085
0.08245218 -0.09384002 0.038519576 0.1117265 0.07620071 0.13782981 0.08322388 0.045526322
-0.08990812 -0.119591966 0.11846258 0.12994248 0.01451495 -0.005578127 -0.139707 -0.07371496
-0.026803013 0.06703106 0.036781788 0.08323734 -0.040797945 0.11160211 -0.081508294 -0.020908304
-0.017060215 0.15794937 0.04002058 0.13939874 -0.04038021 0.01923351 -0.036463425 0.02973661
0.08881586 0.032960966 -0.014609305 0.0008749667 0.062487476 0.0047889017 -0.21140678 0.08721215
0.07894402 -0.17604041 -0.19977936 -0.0053891977 0.004995882 -0.0698848 -0.046449203 -0.11364901
0.064802155 -0.061526854 -0.13167933 0.11302671 -0.17016721 0.06396864 0.12073182 -0.100182086
0.007983439 -0.12681943 0.1851339 0.19579026 -0.14665553 0.043070905 -0.03495501 -0.07144678
0.1504222 0.028062064 -0.038858857 0.27788666 -0.06692161 0.036468025 0.001639466 -0.12632447
0.23491794 -0.09229664 -0.18678682 0.12841 -0.14269347 0.0077607417 0.19945471 -0.1788197
-0.12829572 -0.0038818922 0.11122793 0.009737985 -0.08195244 -0.102519214 -0.037410025 0.0006405146
-0.02032402 -0.037567556 0.10460636 -0.10184 0.074000016 -0.08066968 0.10627881 0.012294026
-0.1335211 0.046846285 -0.020950189 -0.08317091 0.013831627 -0.16787304 0.0706026 0.1270739
-0.004342716 0.1285727 -0.067958124 0.13825046 -0.10426877 0.09836722 0.07929506 0.054194167
-0.029595878 0.19838077 -0.09981312 0.005283054 -0.08907567 0.12070385 -0.00015592137 -0.027838904
-0.06914388 -0.05069916 -0.13951021 0.03304517 -0.006584258 0.085771 0.13927723 -0.044981252

network_body._body_endoder.seq_layers.0.bias f4 [128]
00000000: 0000 0000 0000 0000 0000 0000 0000 0000
00000010: 0000 0000 0000 0000 0000 0000 0000 0000
00000020: 0000 0000 0000 0000 0000 0000 0000 0000
00000030: 0000 0000 0000 0000 0000 0000 0000 0000
00000040: 0000 0000 0000 0000 0000 0000 0000 0000
00000050: 0000 0000 0000 0000 0000 0000 0000 0000
00000060: 0000 0000 0000 0000 0000 0000 0000 0000
00000070: 0000 0000 0000 0000 0000 0000 0000 0000
00000080: 0000 0000 0000 0000 0000 0000 0000 0000
00000090: 0000 0000 0000 0000 0000 0000 0000 0000
000000a0: 0000 0000 0000 0000 0000 0000 0000 0000
000000b0: 0000 0000 0000 0000 0000 0000 0000 0000
000000c0: 0000 0000 0000 0000 0000 0000 0000 0000
000000d0: 0000 0000 0000 0000 0000 0000 0000 0000
000000e0: 0000 0000 0000 0000 0000 0000 0000 0000
000000f0: 0000 0000 0000 0000 0000 0000 0000 0000
00000100: 0000 0000 0000 0000 0000 0000 0000 0000
00000110: 0000 0000 0000 0000 0000 0000 0000 0000
00000120: 0000 0000 0000 0000 0000 0000 0000 0000
00000130: 0000 0000 0000 0000 0000 0000 0000 0000
00000140: 0000 0000 0000 0000 0000 0000 0000 0000
00000150: 0000 0000 0000 0000 0000 0000 0000 0000
00000160: 0000 0000 0000 0000 0000 0000 0000 0000
00000170: 0000 0000 0000 0000 0000 0000 0000 0000
00000180: 0000 0000 0000 0000 0000 0000 0000 0000
00000190: 0000 0000 0000 0000 0000 0000 0000 0000
000001a0: 0000 0000 0000 0000 0000 0000 0000 0000
000001b0: 0000 0000 0000 0000 0000 0000 0000 0000
000001c0: 0000 0000 0000 0000 0000 0000 0000 0000
000001d0: 0000 0000 0000 0000 0000 0000 0000 0000
000001e0: 0000 0000 0000 0000 0000 0000 0000 0000
000001f0: 0000 0000 0000 0000 0000 0000 0000 0000
0.0 0.0 0.0 0.0 0.0 0.0 0.0 0.0
0.0 0.0 0.0 0.0 0.0 0.0 0.0 0.0
0.0 0.0 0.0 0.0 0.0 0.0 0.0 0.0
0.0 0.0 0.0 0.0 0.0 0.0 0.0 0.0
0.0 0.0 0.0 0.0 0.0 0.0 0.0 0.0
0.0 0.0 0.0 0.0 0.0 0.0 0.0 0.0
0.0 0.0 0.0 0.0 0.0 0.0 0.0 0.0
0.0 0.0 0.0 0.0 0.0 0.0 0.0 0.0
0.0 0.0 0.0 0.0 0.0 0.0 0.0 0.0
0.0 0.0 0.0 0.0 0.0 0.0 0.0 0.0
0.0 0.0 0.0 0.0 0.0 0.0 0.0 0.0
0.0 0.0 0.0 0.0 0.0 0.0 0.0 0.0
0.0 0.0 0.0 0.0 0.0 0.0 0.0 0.0
0.0 0.0 0.0 0.0 0.0 0.0 0.0 0.0
0.0 0.0 0.0 0.0 0.0 0.0 0.0 0.0
0.0 0.0 0.0 0.0 0.0 0.0 0.0 0.0

network_body._body_endoder.seq_layers.2.weight f4 [128, 128]
00000000: 18d2 f3bd ab62 b23d 45f1 27bd 6f22 f93c
00000010: 136b 8cbd 75aa 18bd 5a54 eb3c 0da5 1f3d
00000020: a185 89bc 5d72 123d 4b9c b3bd c28f b5bd
00000030: 42fb b0bd 6531 27bb 0f90 2f3c 5e2d 663d
00000040: ef5a c9bc f64b 8f3d 65cd 013d ede9 fb3c
00000050: a072 1abe 8fdb d1bd 738b a9bd 2348 9b3d
00000060: e447 0a3d fe78 133e bb58 1a3e f78e 233d
00000070: 0d9c 28be 080c af3d 9e16 65bc adbd 953d
00000080: 2395 143d a2e5 f9bd 0c74 a33d 7d69 443d
00000090: 27d8 cd3c 91dd cebd ecfc a43c 41f0 91bd
000000a0: 9bc5 0d3e 9d04 a63b 31af e03c a275 a33d
000000b0: 182f 92bd 239c 98bd fab3 74bb 8f94 11be
000000c0: de74 543c 70fa 393d 13da 1f3c 3799 443c
000000d0: 3a70 b5bd 662b 2dbe 9b82 5fbe eb80 963d
000000e0: 0071 a03d a999 bd3c 9168 bfbd 0049 bb3b
000000f0: 7a4c 113e bcef 353e b2bf 933c f940 55bd
00000100: 7f2a a0bd a86d ec3d c92f 073c 2a59 133e
00000110: c2c5 6d3e 8671 d83c d0e6 1b3e eea1 fe3d
00000120: a2f0 bdbd b51e c5bd 68d2 79bd 3bf6 56bd
00000130: 6685 74be 5218 9abc b67a e4bd cdc1 36bc
00000140: d802 6bbd a985 0dbe 6014 1a3d c5f2 8cbc
00000150: 4c52 1a3e 45cf dabc 3859 68bd 5bff 52bd
00000160: 85f4 40bc 7ac9 5fbd 883c a93d 98f3 f83c
00000170: 130e 823c 5d5b 31bd f448 c93d 573e 583d
00000180: 2f13 6fbe 5316 903d 4f74 043e 248b 1a3d
00000190: 0943 2bbc 18d9 113d e12d 8b3c 67c2 bf3c
000001a0: 3813 f33c 1ccf ce3d a2f3 1bbd b9b1 2cbd
000001b0: 17af d23c ac65 583d 9f0e c7bd 2071 72bd
000001c0: 6bdb 06be 9b33 bf3d 78a6 8bbd 99e9 1b3e
000001d0: c31b 053e 0514 a63d 569a 033e 37d1 ba3c
000001e0: 8b90 d0bd c233 8d3c 6ee0 f9bc a967 7dbd
000001f0: dc8c 283e 33a0 fb3b cfe7 0b3b 1581 373c
00000200: d998 1cbe f626 98bd b856 34bd 923e 8ebd
00000210: 8dfb 5a3d 73ab ebbb 866f 343d 0252 49bc
00000220: d8c5 e73d 9304 b83d 571d d2bc 1521 d53c
00000230: 6c48 89bd b3b0 3d3d b4b3 2fbe 599f ba3c
00000240: d9d5 44be eb8b 97bd 5dad 673c c9c3 2fbd
00000250: 38fb ecbd d4db 00bd d117 49be b033 cebd
00000260: eca4 a5bc 66d9 a13d 308b f03c f8c5 babc
00000270: 04cf 4d3d e9d1 5cbd 1635 d1bc 1960 27bd
00000280: 3fe4 efbd ed5e 113e e5f0 2d3d 08bd 41bd
00000290: 118f c33d 15a6 ef3d 240a 8cbe 9112 5ebd
000002a0: 240d 17bd df73 b73d ee93 f53d 749a abbd
000002b0: 5d8b 9b3c 491d 1e3d 8f45 273e 6209 153e
000002c0: 2125 8cbd ee8e 893d 3526 e2bc 7250 98bd
000002d0: 1e37 743d 8235 91bc e9df 993d 727d d33c
000002e0: 296a a13c 8c86 91bd 50ce d5bc 5f78 a93d
000002f0: 35d2 1f3c 3070 a83b c8d9 fc3c e509 253d
00000300: fae1 703d 784c fdbd ece0 debd a620 cabd
00000310: 05b5 f5bd 4044 28b8 ac37 01bc 9ac1 52bd
00000320: b3be 683d 554e 963c 8f92 62bd 8777 99bd
00000330: 9f3a bc3d 12ea fb3d 4dd9 073c 0aeb fd3c
00000340: 60c7 70bd 862c de3c 8d67 c93c b039 9d3c
00000350: 8130 04be a638 b13c 6bea 5d3d 12bb 9a3c
00000360: 63a2 d23d 2b60 68bd e656 783d 0b99 0f3e
00000370: dd31 8dbd a8a8 18be ba4d 39bd 716e f6bd
00000380: 0e13 ce3d 53f8 84bb 7f5d 00bb 9121 b33d
00000390: f445 b1bd 7f2c 16be e03b eb3d a9ab 833c
000003a0: f149 6dbc 2980 87bc cd9e 01be e28f 073d
000003b0: 682e 0f3d 12f0 ebbd d474 963d 4425 ebbc
000003c0: 80d9 70bd 9f9d 03be 45dd a2bd 6c94 91bd
000003d0: 368c dcbc 8f7b efbd 6ecb e03b 5bca 543d
000003e0: 4859 0cbd 08f9 993d 129f b73d a7f2 1abd
000003f0: 54d0 9b3d b8e0 cf3b 94dd 07be 4802 243e
-0.119053066 0.08710226 -0.041001577 0.030411927 -0.0685636 -0.037271935 0.028726745 0.038975764
-0.016787352 0.035753597 -0.08770045 -0.0886531 -0.086416736 -0.002551162 0.010715499 0.05619561
-0.024579493 0.0699691 0.03169002 0.030751193 -0.15082788 -0.102469556 -0.08278551 0.07582118
0.033759966 0.14401624 0.1507291 0.039931264 -0.16465779 0.08547217 -0.013982443 0.073115684
0.03627504 -0.12202002 0.079811186 0.047952164 0.025127484 -0.10100854 0.020140134 -0.07125903
0.13844912 0.005066468 0.027427288 0.07981421 -0.07137889 -0.07451656 -0.003733872 -0.14216827
0.012967316 0.04540485 0.009756583 0.01199942 -0.08859296 -0.16911086 -0.21827166 0.07348808
0.07834053 0.02314456 -0.09346116 0.0057154894 0.1418933 0.17767233 0.018035743 -0.052063916
-0.078206055 0.11544353 0.008251139 0.14389482 0.2321997 0.02642132 0.15224767 0.124332294
-0.09274413 -0.096249975 -0.060991675 -0.052480917 -0.23879012 -0.018810425 -0.11156218 -0.011154604
-0.05737576 -0.13820519 0.037617087 -0.017205605 0.15070456 -0.026710162 -0.05672571 -0.051513057
-0.011777048 -0.054635502 0.082634985 0.030389592 0.015875852 -0.04330002 0.09828368 0.052793827
-0.23347162 0.07035508 0.12934993 0.03773035 -0.010452994 0.035607427 0.01698965 0.023408128
0.02967225 0.10098097 -0.038074143 -0.042161677 0.025718255 0.052831337 -0.097195856 -0.059189916
-0.13169639 0.09336015 -0.06818861 0.15225829 0.12998872 0.08109287 0.12851843 0.02280484
-0.101838194 0.017236594 -0.030502524 -0.061866436 0.16459984 0.0076790093 0.0021347885 0.011200209
-0.15292682 -0.07429306 -0.044028014 -0.06945528 0.053462554 -0.007192069 0.04405167 -0.012287619
0.113170326 0.089852475 -0.025648756 0.026016751 -0.067032665 0.04631109 -0.17158395 0.022781061
-0.19222201 -0.07399734 0.014140454 -0.042911325 -0.11571354 -0.031459644 -0.19637991 -0.10068452
-0.020220242 0.079027936 0.029363245 -0.022799477 0.050246254 -0.053911123 -0.025538009 -0.04086313
-0.11713456 0.14196368 0.042466063 -0.047299415 0.09548772 0.117015995 -0.27351487 -0.054216925
-0.036877766 0.089576475 0.11991106 -0.08379069 0.018987352 0.038602147 0.16335128 0.1455436
-0.06843019 0.06716715 -0.02760611 -0.07437219 0.059622876 -0.01772571 0.075134106 0.025816653
0.019703941 -0.07105741 -0.026099354 0.08274912 0.009754707 0.005140327 0.030865565 0.04029264
0.058809258 -0.12368101 -0.10882744 -0.098695084 -0.11997417 -4.0117884e-05 -0.007886808 -0.051454164
0.05682249 0.018347898 -0.05531555 -0.07493501 0.091908686 0.12300505 0.008291555 0.030995864
-0.05878389 0.02712084 0.02458551 0.019192547 -0.12909128 0.021633457 0.054178637 0.01888803
0.10284879 -0.056732338 0.060629748 0.14023225 -0.06894276 -0.14908087 -0.04524014 -0.12032784
0.10062228 -0.004057923 -0.0019586978 0.08746637 -0.086559206 -0.14665411 0.114860296 0.016073065
-0.014482961 -0.016540604 -0.12658234 0.0330962 0.034956366 -0.11520399 0.07346502 -0.028704293
-0.058801174 -0.12853096 -0.0795236 -0.07108387 -0.026922327 -0.11693489 0.006860188 0.051950794
-0.034264833 0.07518202 0.08965887 -0.037829068 0.07608095 0.0063439272 -0.13268119 0.16016495

action_model._continuous_distribution.log_sigma f4 [1, 5]
00000000: 0000 0000 0000 0000 0000 0000 0000 0000
00000010: 0000 0000
0.0 0.0 0.0 0.0 0.0

action_model._continuous_distribution.mu.weight f4 [5, 128]
00000000: f051 36bc 3871 ac3c 9971 1fba b26f 74bc
00000010: 1821 733c 63d3 1bbc c7f1 033b 43cc 1fbc
00000020: 6fab a73c fdb9 2ebd 336e cfbb 242b 933c
00000030: bff0 7e39 2439 01bc 0ffe 013c 323a 6f3c
00000040: 8284 523c 7bef a0bb fb0f 19bb 6772 d33a
00000050: 0546 7dbc 6ac7 9f3c cacc c4bc f895 9bbc
00000060: 0b09 b2bb efad 16bd 7d43 30bc 7fc3 d5bc
00000070: 794f 91ba 5b68 9c3b 5066 9aba 4b84 ad3b
00000080: 3735 003d d045 bcbb 73a1 d63b 9190 c2bc
00000090: 42e2 133b 5e2a 373c f1e2 b53c 6bdf 35bd
000000a0: d644 91bc 8700 a13b a341 82bb ef70 c2bc
000000b0: aadd 0cbc 8e00 b93c 83e9 c0b9 63e2 b0bc
000000c0: e851 243d 53af 5a3a cfe7 cabc 3f65 d3bc
000000d0: d580 75bb 65cf a9bc 7996 0c3c d2d2 553c
000000e0: fd05 4e3c fabf d33b 22ea 453b 06a0 023d
000000f0: 3bc3 f5bb 2516 e43c b36f 14bd 8d3e 613b
00000100: 59f3 afbb 2bf7 53bc c543 d93c 66e8 06bc
00000110: 83ec ddbb 4322 a4bc d546 563c 6f39 083d
00000120: 4669 af39 8df4 dd3a fa9a 0c3b 294d b939
00000130: f302 dfbb fad1 623c 4308 e63c ef28 c03c
00000140: d719 33bc 7aea c63c dad2 f43a a5e4 eb3c
00000150: 5dc0 bf3b ddbe b4ba 60ba acbb c367 65bb
00000160: 586b 0bbd 1599 13bc cd05 e2bc 9247 9e3c
00000170: 7fdc c83b aa7c 843c 99dd a5bb 755f 27bb
00000180: a82d f4bc 01c9 85bc 9d87 90bc cafa e83c
00000190: 1ed8 bcbc 987e 2e3c a13a 0639 ab1d e1bc
000001a0: 68f5 253b 5d61 11bc 14e0 0bbd 9103 4b3c
000001b0: a275 d4bb 2da2 94bb ff5d 3a39 da7d 57bc
000001c0: de93 aa3b 6aa7 2f3a 7f9c 8f3c 1d33 e5bc
000001d0: 8787 083c dda8 943c 1736 69bc dd28 15bd
000001e0: bd1b 1a3c a670 b83a ce45 b83c 6bac 09bd
000001f0: c459 adbc d795 06bc 3dd3 dc38 0bad 8f3b
00000200: e7d1 f83a 410e 1e3d 38b4 78bc 6c1b 1cbc
00000210: 0ac5 3cbc 6be1 c3bc 8ee0 c33c 17dc b53c
00000220: 1931 36bc 2dbc 56bc 4714 ca3a 862c 193c
00000230: b2dd 86bb 6597 09bc 9869 583c c23c f4ba
00000240: 848c 9e3c c89d 533c ddab ffba 0be8 b53c
00000250: 8c5f 913c b38d c33b 2b3e 90bc ab30 263c
00000260: e9c8 013d 3574 febb cb7f 2a3d af5f d83b
00000270: bb32 91bb b7dc 69bc ee0e 413a 5256 4c3b
00000280: 1ab2 f23c 9564 443b 38a5 ad3c 278d 2cbc
00000290: da2b 843c 2059 74bc 43e1 b3ba 793a 3d3c
000002a0: d33a 17bc 4045 003c 9bde 893c ed03 6c3c
000002b0: ba85 20bc 456e b03c b589 363c ba4b a3bb
000002c0: 37ba a8bc aad0 7ebc 0ab3 10bc 3f6d bb3b
000002d0: d2bd ae3b 460a 0dbc 56de 213c 0316 e0bc
000002e0: ded1 45bc 30ec dfbb fcfc 443c 7752 fb3b
000002f0: 56e8 843b a2ac 1abc 4f23 d33b b057 22bc
00000300: 93eb 79bc f088 efbc 8de2 893c ec48 cc3b
00000310: 1722 c73c c33e 823c c2e7 b1bb 9227 133c
00000320: 893a 31bd ab0e 8e3b 4df5 383c 7bc0 0e3b
00000330: ab5a 353d ab34 ff3c 64be 2cbd 029e 4a3c
00000340: 8f7d c93c 7dd1 d8ba 3db4 083c 1df1 5c3d
00000350: 9891 743b cc0d 1abc 3fe2 07bd 6b63 94bb
00000360: 7be5 0d3c 8a37 213b ffbd 1c3c 62c0 9a3c
00000370: 526b 7fbc 68c2 d03c 9fe9 4bbc c86d 593b
00000380: 1240 2a3b d202 8fbb 5f9c 3ebb bec1 983b
00000390: 33c0 44ba 4f0d 163b 4cca 903b 2ff6 5abc
000003a0: 9b29 7e3b 98bc 0a3d 1527 85bc 9b49 8f3c
000003b0: 499a b1bb ea6f 69bc 0203 8d3a d7ac febb
000003c0: acaa 86bc c577 6e3c 73fd 48bb fd6b b1bc
000003d0: a55c fbbc 9756 373c ff9e 1f39 c889 b1bc
000003e0: 6832 e1bc bb78 ccbc 7b57 80bb 05cb c9bc
000003f0: a7db 7d39 d93a c13c a421 24bc 3be6 d63b
-0.011127934 0.02105008 -0.0006082296 -0.014919208 0.014839433 -0.009510848 0.0020133124 -0.00975329
0.020467488 -0.04265784 -0.0063302754 0.017964907 0.00024313013 -0.007887159 0.007934107 0.014601277
0.012848975 -0.004911361 -0.0023355472 0.0016132117 -0.0154585885 0.019504268 -0.024023432 -0.01899241
-0.005433207 -0.03678697 -0.010758278 -0.026094196 -0.0011086307 0.0047731823 -0.0011779759 0.0052953116
0.03130075 -0.005745627 0.006550008 -0.023750575 0.002256528 0.011179535 0.02220294 -0.04440252
-0.017733019 0.004913393 -0.0039751097 -0.023735492 -0.008597771 0.022583272 -0.00036795074 -0.021592325
0.040117174 0.00083421654 -0.024768738 -0.025805114 -0.0037460823 -0.020728776 0.008580797 0.013050752
0.01257467 0.0064620944 0.0030199368 0.03189089 -0.00750008 0.02784259 -0.036239337 0.0034369559
-0.0053695855 -0.012937347 0.026521573 -0.008234119 -0.006772579 -0.020035869 0.013078411 0.033257898
0.00033457036 0.0016933844 0.0021454678 0.00035343439 -0.0068057715 0.013844008 0.028080111 0.023457019
-0.010931454 0.024281729 0.0018678561 0.02879555 0.005851789 -0.0013789792 -0.005271241 -0.0035004474
-0.034037918 -0.009008666 -0.027590657 0.019321237 0.006129801 0.016172726 -0.005061817 -0.0025539075
-0.029806927 -0.016331198 -0.01764279 0.028439898 -0.023052271 0.0106502995 0.00012801077 -0.027479967
0.0025323275 -0.008873311 -0.034149244 0.012390987 -0.0064837495 -0.0045359344 0.00017773359 -0.013152564
0.0052056154 0.0006700667 0.017530678 -0.027978474 0.0083330935 0.018146927 -0.014234087 -0.036415923
0.009406027 0.0014071658 0.022494223 -0.033611696 -0.021160968 -0.008214436 0.00010529764 0.004384642
0.0018983454 0.038587812 -0.015179686 -0.009528022 -0.011521587 -0.023911199 0.023910787 0.022199674
-0.011120104 -0.013106388 0.001541742 0.009348994 -0.0041157836 -0.008397912 0.013208769 -0.001863383
0.019354112 0.012916036 -0.0019506175 0.022205373 0.017745756 0.0059678196 -0.017607769 0.010143439
0.031685743 -0.007765318 0.04162578 0.0066032032 -0.0044310964 -0.014273814 0.00073645904 0.003117938
0.029625941 0.0029967178 0.021196947 -0.0105317 0.016134191 -0.014913827 -0.001372375 0.0115495855
-0.009230333 0.0078290105 0.01682978 0.014405233 -0.009797508 0.021536956 0.01114123 -0.0049833925
-0.020596607 -0.015552679 -0.008831749 0.0057198103 0.005332687 -0.008608406 0.009879669 -0.027354246
-0.012073962 -0.0068335757 0.012023207 0.0076697427 0.004056017 -0.009440573 0.006443418 -0.009908602
-0.015253919 -0.029240102 0.01683166 0.006234279 0.024308247 0.015899068 -0.005429239 0.008981602
-0.043268714 0.0043352447 0.011288953 0.0021782208 0.04427592 0.031153044 -0.04217376 0.012366774
0.024596004 -0.0016541925 0.008343753 0.05394088 0.0037318226 -0.0094027035 -0.03317475 -0.004528453
0.008660669 0.0024599754 0.009566783 0.018890563 -0.015589552 0.025483325 -0.012445836 0.0033177007
0.002597813 -0.00436435 -0.0029084904 0.0046617677 -0.00075054466 0.0022896116 0.004418647 -0.013364359
0.0038782123 0.033871263 -0.016253987 0.017491153 -0.0054200036 -0.014247874 0.0010758343 -0.007772069
-0.016438805 0.0145549225 -0.0030668646 -0.021657938 -0.030683825 0.011190078 0.00015222652 -0.021672145
-0.027489856 -0.024959913 -0.0039166785 -0.02463294 0.00024209787 0.023587631 -0.010017786 0.0065582073

action_model._continuous_distribution.mu.bias f4 [5]
00000000: 0000 0000 0000 0000 0000 0000 0000 0000
00000010: 0000 0000
0.0 0.0 0.0 0.0 0.0

action_model._discrete_distribution.branches.0.weight f4 [5, 128]
00000000: eda2 c1ba 72d6 003c 7fd2 063b dbb1 663c
00000010: 4ab6 78bc c46e 8abc 7d2c a43c 1c67 09bb
00000020: f818 893b 209a 5cb9 eba7 213c 79ae 3bba
00000030: 230a d7ba 90f2 a0bb 2b58 c9bb ff1e 09bc
00000040: 373e d2bb e3df 843a bbab f93a 0251 8cbb
00000050: 94c2 ae3b 4671 973b 18d8 0d3b 65a6 0dbc
00000060: 18b0 deb9 f5ca 523a 957e e2bb 577f 6a3c
00000070: 2fb5 d83b 5c23 81ba 1f64 0fbc ab48 70ba
00000080: 067e c0bb 0bf8 55bb 1f23 6e3c 86ac ccbb
00000090: 759f 09bc a31d 72ba 605c 6dbc c016 523c
000000a0: 8c8d 043c 8ffb ceba df83 a13b 0cfe 37bb
000000b0: 7f63 c1bb 45a9 24bb 3844 1e3c 2b0d 1d3b
000000c0: e106 893c 4c27 aabc 0daa 8dbb 6a74 623c
000000d0: b086 3d3a d220 e13b 8598 a8bb 4027 fd3b
000000e0: ef66 b1bb e8ac ae3c 2486 423c 477e 223c
000000f0: 82f2 4b3c e5e3 423b 691a 2c3c 9cbe 8f3b
00000100: 52d5 723b a417 cc3b 7b44 9ebb 2da0 fcba
00000110: 3068 673c cf9e 92bb ebc4 4d3c cd4b e33b
00000120: bd04 663b 252d ef3b 2007 05bb 9d39 243b
00000130: 7b5c 083b c39a af3a 131c b13a 8fbd 43bc
00000140: 8b71 783b 4003 e2ba 31bc 01bc 73b3 07bb
00000150: 07f5 abbb a71a 9bba 8b4f 72ba be2c 123c
00000160: fe62 2ebc 3355 1c3c 9de6 ad3a 2e21 343b
00000170: 03f8 d1bb 881f d8b8 2c10 073c ba44 fd3b
00000180: 80af 0e3b 6757 8ebb 9f5d 7f3c 9f2b e3bb
00000190: bc43 4cbb 7b2e 64bc e2a9 5dbb 517f 4a3c
000001a0: 579f ce3b 3bd4 703c 87ad 81ba fdef 783a
000001b0: 62c9 7bbb e3f7 3338 2560 723b f268 69bc
000001c0: e196 44bb 1a39 51bc 3ac6 8e3c 1b25 d03a
000001d0: 497f 143c fa12 d53a 8724 893b 85ba 693c
000001e0: 34b2 b13b 8451 353b c966 893c a87f bf3b
000001f0: cfd5 0ebc ff62 713b 6fb8 bdbb fab1 be3b
00000200: 59ca c63b 1dad 99bb efbb b0bb afe1 2bbc
00000210: 9de4 533c 8dca 3f3b 648d b8bb 43d4 e73a
00000220: cbcf 18ba cd08 37bc 83a3 203a d9c1 a83c
00000230: b323 b3ba af60 043b 572d 69bb 6f91 423c
00000240: abd2 8fbb eb15 2bbb cbe9 a63c fa65 503c
00000250: 3f1f acbb b0f4 efbb 9285 8ebb fb40 393b
00000260: cdb6 04bb 7c23 19bc c42e 0d3b e20f ceba
00000270: c21b b1ba 0655 1fbc cbdd d7b8 9db6 ebba
00000280: 6b04 bab8 0858 32bb 1293 51bb 9bbb 0fbc
00000290: 6b3e a9bc 6bbe fdbb 4e9d 21bc e9de b8bb
000002a0: c632 38bc 7fbd 3cbc f55f 8bbb f031 0ebc
000002b0: 470d e43b 2752 0c3c 0f91 333c 7098 fcbb
000002c0: 9287 073b 9b0d 413c 92f8 ee3b c042 0cbc
000002d0: 2c8c 983c 5fc2 83bc d468 463a e8be 6b3a
000002e0: b3a0 bd3b 9dc4 04bc 07fc af39 ea77 233b
000002f0: 3100 aa3b 6a1e cf3c 85be 813b 5f52 c0bc
00000300: 092f 3fbb 1a8b 67bc bf5e c438 fa6a 41bc
00000310: 7721 64bc b7ee 53bb 2391 2e3b d7cd 12bb
00000320: cb67 e73b 09ed 3fbc 6b36 62ba 38ab b13a
00000330: bf3c 133c 95b4 abbb 6204 823a fb03 0fbc
00000340: 91f2 013c 2fb2 ab3b 83da dc3b 5584 3abc
00000350: bb7c 853c 550a 91bc 7142 a6bb f287 73bb
00000360: e531 09ba 9334 0fbc 685d ff3b cfd5 a93c
00000370: b5f9 893b 62d1 78bc ad33 b5bb 9b40 663b
00000380: af40 953a 0d08 bdbb 237e 98ba e434 aa3a
00000390: e726 0fbc 2718 cbbb faae e8bb f709 b3bb
000003a0: 2aa5 dd3b 9b8a c73b 931a 463b 20cc bf3c
000003b0: e51b 013c 5fdf 03bc 2bce 2abb d8d7 213b
000003c0: 6000 1b3c 8fcc 02bc 20ca fdba 41d9 b7bb
000003d0: 57ff 023c 71e7 813c ef02 313c d72f c83b
000003e0: 3ac3 8aba bec4 49bb 135a 5cbc 8adb 5fbb
000003f0: 6d62 823c 1443 01ba f8eb e2bb 83bd 293b
-0.0014773287 0.007863628 0.0020572243 0.01408049 -0.01518018 -0.01689852 0.020040745 -0.0020966
0.0041838847 -0.00021038251 0.009866695 -0.00071594823 -0.0016406219 -0.004911728 -0.0061445436 -0.008369206
-0.006416108 0.0010137524 0.0019048372 -0.004282118 0.005333254 0.0046216575 0.0021643694 -0.008645629
-0.0004247434 0.0008041107 -0.0069120624 0.014312587 0.0066133956 -0.0009852457 -0.008751898 -0.0009166102
-0.005874398 -0.0032649066 0.014534741 -0.0062461523 -0.008399834 -0.00092359836 -0.014487356 0.012822807
0.008090388 -0.0015791523 0.0049290503 -0.0028075008 -0.0059017534 -0.0025125307 0.009659819 0.0023964148
0.016726913 -0.020770691 -0.00432325 0.013821701 0.0007229848 0.0068703676 -0.005145135 0.007725626
-0.005413882 0.021322682 0.011872802 0.009917802 0.012447955 0.0029737887 0.010504344 0.004386736
0.0037053418 0.006228404 -0.004829941 -0.001927381 0.014123961 -0.004474498 0.012559156 0.0069365264
0.003509804 0.007299083 -0.0020298436 0.0025058754 0.0020807076 0.0013397563 0.0013512395 -0.01194705
0.0037909474 -0.00172434 -0.0079184035 -0.0020706325 -0.0052477154 -0.0011833505 -0.000924342 0.0089218
-0.010643719 0.009541797 0.0013267581 0.0027485597 -0.006407739 -0.00010305556 0.008243602 0.00772914
0.0021772087 -0.0043439153 0.015586286 -0.0069326903 -0.0031168303 -0.013927097 -0.0033823182 0.012359456
0.006305616 0.014699037 -0.0009893634 0.000949621 -0.0038419594 4.2907788e-05 0.0036983576 -0.014246212
-0.0029997157 -0.012769962 0.017428506 0.0015880199 0.00906355 0.0016256266 0.0041852626 0.014265661
0.005422855 0.0027666995 0.016772645 0.005844075 -0.008717968 0.0036832688 -0.0057898085 0.0058195563
0.006066602 -0.004689826 -0.005393497 -0.010490819 0.012932924 0.0029265017 -0.0056320895 0.001768716
-0.00058293034 -0.011171532 0.0006127881 0.020600246 -0.0013667255 0.002019923 -0.0035580003 0.011875494
-0.0043891273 -0.0026105593 0.020375153 0.012719626 -0.0052527483 -0.00732287 -0.004349419 0.002826749
-0.002025056 -0.009346839 0.0021542767 -0.0015721286 -0.0013512301 -0.009724861 -0.00010293311 -0.00179835
-8.869994e-05 -0.0027213115 -0.003197853 -0.008772756 -0.020659646 -0.007743647 -0.0098641645 -0.0056418073
-0.011242574 -0.011519789 -0.0042533823 -0.008678898 0.0069595906 0.0085645085 0.010959878 -0.0077086017
0.0020680171 0.011783029 0.0072928155 -0.008560836 0.018621527 -0.016083894 0.0007568721 0.0008992986
0.005786979 -0.008103517 0.00033566376 0.00249433 0.005188011 0.025283057 0.0039594793 -0.023476778
-0.0029172322 -0.0141322855 9.363656e-05 -0.01180529 -0.013923994 -0.003233833 0.0026636801 -0.0022400522
0.0070619336 -0.011714228 -0.0008629325 0.0013555055 0.008986651 -0.005240033 0.0009919519 -0.008728976
0.0079313675 0.005239747 0.006739916 -0.0113840895 0.016294828 -0.017705122 -0.0050738384 -0.0037159887
-0.000523357 -0.008740562 0.0077931173 0.020731835 0.0042106756 -0.0151866395 -0.005529842 0.0035133723
0.0011387075 -0.005768782 -0.0011634271 0.0012985733 -0.008737302 -0.0061979475 -0.007100937 -0.0054638344
0.006764074 0.006089521 0.0030228242 0.023412764 0.007880186 -0.008048861 -0.0026062827 0.0024695303
0.009460539 -0.007983341 -0.0019362606 -0.0056106155 0.007995448 0.01585743 0.010803922 0.0061092186
-0.0010586747 -0.0030787433 -0.01344921 -0.0034157955 0.015916074 -0.0004930955 -0.0069251023 0.0025900311
