Assets/Model/TankBrain/TankBrainML.onnx (onnx, 90462 bytes, 7 tensors)

network_body._body_endoder.seq_layers.0.weight f4 [128, 36]
-0.120131016 0.0542208 -0.3111521 0.018716741 -0.028660646 -0.02259741 0.0812172 0.03687534
-0.05444262 -0.13250248 -0.088178344 -0.10342333 0.11028196 -0.3169556 -0.045678925 -0.033408653
0.027471388 -0.1511105 0.14124738 -0.47116864 -0.03125169 -0.02161789 0.18771577 0.4592621
-0.019008612 0.25484812 0.01229249 0.18038483 0.21050806 -0.16844514 -0.08570181 0.047526058
0.20412575 -0.009919746 -0.102799706 -0.12910189 0.114516206 0.13980693 0.064744845 0.067354485
0.18721423 0.05414184 0.056122374 -0.08182782 -0.056808718 0.12081926 -0.2865688 0.21848738
-0.09487964 -0.2500344 0.24891052 0.09505989 0.26250654 -0.05745335 0.17522997 0.13970548
0.14461696 0.030569663 -0.0005924796 -0.016974661 0.23660249 -0.1724886 -0.076064475 0.03353566
-0.034297545 0.08585752 0.047558054 0.061930183 -0.25266737 0.1297099 0.2348345 -0.30173445
0.18523456 -0.047395855 -0.048227966 -0.2614882 -0.00968093 -0.026326679 -0.10053485 0.24777626
-0.14682086 -0.17979056 -0.09724208 -0.14531735 0.05661519 0.054546535 -0.017164234 0.101837695
0.28976375 0.039655276 -0.41881856 0.16023044 -0.5915347 0.2950839 -0.026947193 -0.08791139
0.16731822 -0.071782894 -0.019750016 0.23779926 0.108797915 0.22553264 0.14385083 -0.14694636
0.2912765 0.25260755 -0.0322061 0.08584221 -0.319637 -0.24433976 0.009797958 0.17484634
-0.17297581 0.052149095 -0.013567212 -0.029444821 -0.01910581 0.062400207 -0.22463647 0.025241029
0.046924803 -0.17759629 -0.027508128 0.11171091 -0.04889394 -0.38746083 -0.12161716 -0.066647865
0.24567178 0.09491602 -0.014688186 -0.047975115 0.16101876 0.14039634 -0.001434255 -0.24382855
0.071728684 -0.1480759 -0.018007906 -0.09994057 -0.1328598 -0.15004186 -0.2800156 0.20324278
0.24483624 -0.0064773113 -0.36390686 -0.1863894 -0.031106114 -0.16261789 -0.043684375 -0.06044396
0.14560777 -0.21702884 0.30016103 0.08650386 0.13466324 -0.1043493 -0.047544084 -0.31406915
-0.19414142 -0.043417215 0.2601542 0.3506112 -0.28299516 0.2700802 -0.12089022 -0.14966512
0.29267913 -0.032948896 -0.003373717 -0.04091676 0.049433388 0.15542905 -0.2611227 0.10880491
0.18832308 0.18409222 0.0019041696 -0.21674287 0.006329844 0.26031587 0.09291762 0.24829248
0.09818516 0.062204577 0.024924885 0.2196017 0.18848632 -0.29346967 0.30946144 -0.13489275
-0.35788468 -0.08551825 0.21042885 0.1035121 0.26641288 0.039398145 0.050234124 0.23423183
0.14231439 0.4128326 0.09371324 -0.09099863 -0.25225547 0.069398716 0.12185419 0.10998369
0.05903223 -0.20728777 0.0015525977 0.11007838 -0.15137434 0.23650156 0.22189696 0.15706553
-0.0909825 -0.29023907 -0.022246722 -0.050771855 -0.17251168 0.39809433 -0.030077197 -0.21247149
-0.16285105 0.066132374 0.23116389 0.13011537 -0.023186093 -0.20681714 -0.37626737 -0.13041028
-0.046335958 0.18503505 -0.044032753 -0.049081087 -0.17603977 0.11510873 -0.25838754 0.14047793
-0.13043976 0.11610708 0.14916384 -0.3130732 0.04566494 -0.003551076 0.11661126 -0.2793557
0.086187854 -0.21798477 -0.16553572 0.10161798 0.03284372 -0.19672978 0.15068308 -0.21821487
00000000: 4007 f6bd a116 5e3d 544f 9fbe da53 993c
00000010: bbc9 eabc 341e b9bc 3455 a63d 990a 173d
00000020: 3aff 5ebd bbae 07be d996 b4bd 9ccf d3bd
00000030: 82db e13d 0148 a2be d319 3bbd 83d7 08bd
00000040: ad0b e13c b6bc 1abe 27a3 103e 043d f1be
00000050: c601 00bd 0018 b1bc 9038 403e 6724 eb3e
00000060: f3b7 9bbc 747b 823e 7166 493c cdb6 383e
00000070: 6d8f 573e e27c 2cbe 6e84 afbd afaa 423d
00000080: 5706 513e 6e86 22bc a788 d2bd 4933 04be
00000090: 7987 ea3d 8c29 0f3e f298 843d 26f1 893d
000000a0: 16b5 3f3e d6c3 5d3d 93e0 653d 5895 a7bd
000000b0: 42b0 68bd 1770 f73d 25b9 92be 28bb 5f3e
000000c0: 4250 c2bd 8204 80be 66e2 7e3e c2ae c23d
000000d0: 4267 863e 3454 6bbd 7c6f 333e f40e 0f3e
000000e0: 7816 143e 3b6d fa3c a250 1bba 720e 8bbc
000000f0: ec47 723e daa0 30be b1c7 9bbd b05c 093d
00000100: 957b 0cbd 11d6 af3d 3ccc 423d 81aa 7d3d
00000110: 9e5d 81be acd2 043e 7578 703e f07c 9abe
00000120: 21ae 3d3e 2822 42bd b08a 45bd c8e1 85be
00000130: c39c 1ebc 0cab d7bc 37e5 cdbd 0fb9 7d3e
00000140: 3558 16be 041b 38be db26 c7bd 12ce 14be
00000150: 54e5 673d 306c 5f3d 029c 8cbc 4890 d03d
00000160: ea5b 943e 926d 223d 636f d6be 7313 243e
00000170: d16e 17bf 3d15 973e 5cc0 dcbc e30a b4bd
00000180: 7855 2b3e e902 93bd c9ca a1bc a681 733e
00000190: 71d1 de3d 07f2 663e a24d 133e 1b79 16be
000001a0: 3222 953e c755 813e 8bea 03bd 0ace af3d
000001b0: 76a7 a3be 3434 7abe 9d87 203c eb0a 333e
000001c0: 9220 31be 4a9a 553d 0349 5ebc 4436 f1bc
000001d0: ca83 9cbc 5c97 7f3d 1a07 66be 46c6 ce3c
000001e0: 3934 403d cddb 35be ba58 e1bc b1c8 e43d
000001f0: 0345 48bd 4461 c6be 6b12 f9bd ad7e 88bd
00000200: 6291 7b3e 5563 c23d b8a6 70bc 8e81 44bd
00000210: 1ae2 243e 0fc4 0f3e 9dfd bbba 31ae 79be
00000220: 7de6 923d 35a1 17be 5185 93bc a4ad ccbd
00000230: 660c 08be 93a4 19be 345e 8fbe e01e 503e
00000240: 5ab6 7a3e a03f d4bb 0052 babe dddc 3ebe
00000250: 40d2 febc 4e85 26be 63ee 32bd 1694 77bd
00000260: 341a 153e cf3c 5ebe b5ae 993e f028 b13d
00000270: 29e5 093e 16b5 d5bd 96bd 42bd accd a0be
00000280: 02cd 46be 40d6 31bd ee32 853e 5083 b33e
00000290: bee4 90be f447 8a3e 4b95 f7bd d041 19be
000002a0: 0ada 953e 6cf5 06bd 9419 5dbb 5598 27bd
000002b0: aa7a 4a3d cb28 1f3e e0b1 85be 1cd5 de3d
000002c0: c4d7 403e ac82 3c3e 5495 f93a d8f1 5dbe
000002d0: 946a cf3b 1f48 853e 984b be3d 6240 7e3e
000002e0: 4d15 c93d 3aca 7e3d 462f cc3c 45df 603e
000002f0: 8f02 413e a841 96be bb71 9e3e 5321 0abe
00000300: a93c b7be 3124 afbd a97a 573e 27fe d33d
00000310: 4567 883e f35f 213d 4cc2 4d3d 78da 6f3e
00000320: ddba 113e cb5e d33e baec bf3d 7d5d babd
00000330: a127 81be ea20 8e3d b18e f93d 213f e13d
00000340: c8cb 713d 3f43 54be 8980 cb3a c670 e13d
00000350: e001 1bbe 772d 723e f538 633e c9d5 203e
00000360: 0855 babd 379a 94be c23e b6bc 26f6 4fbd
00000370: e7a6 30be 05d3 cb3e 7464 f6bc 2092 59be
00000380: 6dc2 26be 6970 873d 3ab6 6c3e f73c 053e
00000390: c3f0 bdbc dfc7 53be 1ea6 c0be 468a 05be
000003a0: c6ca 3dbd d479 3d3e b05b 34bd 4009 49bd
000003b0: c543 34be 20be eb3d 5f4b 84be 72d9 0f3e
000003c0: 0092 05be 8cc9 ed3d 68be 183e 214b a0be
000003d0: 290b 3b3d 2bb9 68bb e2d1 ee3d b607 8fbe
000003e0: 4283 b03d 6637 5fbe 3282 29be 161d d03d
000003f0: 2387 063d 8873 49be aa4c 1a3e b873 5fbe

network_body._body_endoder.seq_layers.0.bias f4 [128]
-0.017583365 0.031674832 0.0073666554 -0.023482902 -0.0049613826 0.020017816 0.0034731233 -0.0067335023
0.024732381 0.033396706 0.026752494 0.044713415 -0.0046391394 -0.006875971 -0.00061151886 -0.04568411
0.030511333 0.0494981 0.024545623 -0.013903707 0.01823339 -0.015973633 -0.016645968 0.020588536
0.030493459 0.02720791 0.02876757 0.004293731 0.011189762 0.00056051824 0.026066884 0.038045205
0.0037412609 0.038960528 -0.011080637 0.029427005 0.034335352 0.016255567 0.012926637 0.045433857
-0.021782186 0.03317191 0.020988595 0.0342501 0.03878222 -0.0141785545 -0.01700928 0.069619395
0.04829681 0.018786512 0.011540789 0.028339233 -0.012010559 0.031809017 0.0072962097 0.010464295
0.008138177 0.014740948 0.032694224 0.019027999 0.023414418 0.013129381 0.05683166 -0.0021298071
0.0031198643 0.018150976 0.0138412425 0.03265132 0.005454366 0.021177055 0.0018260957 0.06970192
-0.0077584605 -0.022969075 -0.007814916 0.038212106 0.022453228 -0.012520108 0.030326454 -0.006177031
-0.030245142 0.087959 0.009435524 0.028404867 -0.01337562 0.021825766 0.025896994 0.005876906
0.040110867 0.014533388 0.035673875 0.021337636 0.022662243 0.014163564 0.045714833 -0.010349623
0.020965526 0.008548849 -0.0068176785 -0.007766867 0.009870456 -0.00058146263 0.02663814 -0.004982001
-0.0043203244 0.014431405 0.010882218 0.02595963 -0.004535161 0.0471315 0.019153921 -0.013410379
0.030008953 0.032350842 0.0052998215 0.024559898 0.030765243 0.008731878 0.031156825 0.024212927
0.019604262 0.038136214 0.030725474 0.026526451 0.018009156 0.056397993 0.030065551 -0.0056359693
00000000: fd0a 90bc 78bd 013d fc63 f13b 375f c0bc
00000010: 1893 a2bb 67fc a33c 579d 633b b6a4 dcbb
00000020: 909b ca3c fcca 083d 0c28 db3c 6a25 373d
00000030: ec03 98bb d34f e1bb 564e 20ba 431f 3bbd
00000040: e7f2 f93c 85be 4a3d e713 c93c 60cc 63bc
00000050: 315e 953c 23db 82bc 205d 88bc 4aa9 a83c
00000060: 6bcd f93c 1fe3 de3c f8a9 eb3c 6db2 8c3b
00000070: 4355 373c beef 123a 388a d53c 4ad5 1b3d
00000080: f12f 753b 1395 1f3d 8f8b 35bc e710 f13c
00000090: 3aa3 0c3d 652a 853c 3fca 533c da18 3a3d
000000a0: 8e70 b2bc 45df 073d 46f0 ab3c d549 0c3d
000000b0: 1bda 1e3d 2b4d 68bc 0c57 8bbc 9d94 8e3d
000000c0: e0d2 453d 2ce6 993c 9415 3d3c ae27 e83c
000000d0: f0c7 44bc 2c4a 023d 0b15 ef3b 6f72 2b3c
000000e0: fd55 053c 0484 713c 61ea 053d 9be0 9b3c
000000f0: 98cf bf3c 9e1c 573c 51c8 683d 3c94 0bbb
00000100: a376 4c3b 5bb1 943c 61c6 623c 64bd 053d
00000110: 8aba b23b 817b ad3c 9b59 ef3a e1bf 8e3d
00000120: af3a febb a429 bcbc 220a 00bc 4c84 1c3d
00000130: d5ef b73c 2421 4dbc 2f6f f83c b168 cabb
00000140: a9c4 f7bc d923 b43d 7597 1a3c 53b1 e83c
00000150: 6b25 5bbc f3cb b23c ef25 d43c 1093 c03b
00000160: 4b4b 243d 731d 6e3c c51e 123d 44cc ae3c
00000170: 2ba6 b93c 4b0e 683c 7a3f 3b3d 7791 29bc
00000180: e5bf ab3c 7910 0c3c d566 dfbb 3481 febb
00000190: b1b7 213c 4c6d 18ba 3b38 da3c 0e40 a3bb
000001a0: 8291 8dbb b371 6c3c 554b 323c 4aa9 d43c
000001b0: b09b 94bb f60c 413d afe8 9c3c 35b7 5bbc
000001c0: 56d5 f53c 5182 043d 20aa ad3b d731 c93c
000001d0: 6407 fc3c 2710 0f3c 993c ff3c 305a c63c
000001e0: 1e99 a03c b834 1c3d fdb3 fb3c 004e d93c
000001f0: f087 933c 9501 673d 084c f63c f0ad b8bb

network_body._body_endoder.seq_layers.2.weight f4 [128, 128]
0.0007635284 0.09177717 0.06758464 0.062424757 -0.14681387 0.022477707 -0.10806236 -0.019774815
0.28539076 -0.15843953 0.06358206 0.15344048 0.0574587 -0.18305624 -0.11235658 -0.03081652
-0.055438727 0.0023940396 0.1014776 0.009035651 -0.03343147 -0.067803994 -0.05188645 0.0474647
0.014560867 0.023161747 0.058601867 0.0020913822 0.02321407 -0.11166558 -0.053822953 0.18692301
0.031069025 -0.03486459 -0.023723446 -0.13121705 -0.09365499 0.13919331 0.11597804 -0.079299025
-0.2183782 0.04887706 0.09937718 -0.02388868 0.21396326 -0.11552114 0.043441903 -0.056216482
0.09084968 0.07417779 0.17023872 0.11008449 -0.11112591 0.08730604 -0.09973978 0.12238447
0.06520293 -0.07943936 0.07189678 0.08945575 0.025140934 0.08532517 -0.14570814 -0.07826661
0.042525094 0.044728138 0.13170281 -0.06889669 0.070515096 -0.029958243 -0.04051246 -0.09134033
-0.022260675 0.09462096 -0.09875359 0.069435015 0.0931804 0.037243422 -0.13649864 0.042363584
-0.05071699 -0.052091554 -0.050253246 -0.05565152 0.08335737 0.12017426 0.06873586 0.060661476
0.03575455 -0.2056414 -0.035023503 0.029777171 -0.038443323 0.25628066 -0.00019334402 -0.010475615
0.075694546 -0.07030002 -0.06833272 -0.15132871 0.040237013 0.009361219 -0.14116475 -0.06414476
0.035216045 0.064058125 0.026902234 0.0139669245 0.07159183 -0.18361197 0.15633658 -0.09367697
0.06684153 -0.05721257 0.050479982 -0.2496272 -0.08760762 -0.07385937 0.10665493 0.12168058
0.101066716 0.13000137 0.053350165 -0.038412616 -0.047402285 -0.014422706 0.046731092 -0.06117554
-0.04314513 0.073439874 0.028031645 0.013969542 -0.031156462 -0.056938976 -0.016096873 0.13688257
0.0140962005 0.13542572 -0.18583927 -0.086416215 0.031642128 0.09432456 0.046097446 0.05305015
0.015044628 0.07678881 -0.004823153 -0.019986203 0.10086838 0.089003384 -0.07971358 0.13573352
0.037649073 -0.14509377 0.20778883 -0.002132958 -0.14364526 0.12251181 0.10177769 -0.045145504
0.034746394 0.00084132946 -0.09056477 -0.057261053 -0.013822243 -0.045524053 -0.08676308 -0.05500186
0.013026146 0.061182156 0.068998046 0.060202513 -0.18535838 -0.017137222 0.0644486 0.13650982
0.09255161 -0.10895005 0.06124645 0.094815664 -0.04967267 -0.1386853 -0.025549235 -0.015188594
-0.02454495 -0.047000352 -0.11610432 -0.09503872 -0.13490036 -0.009658725 0.09700036 -0.20795864
0.0011313701 0.13377452 -0.07547455 -0.040631503 -0.0036704587 -0.054118056 -0.084901504 0.1205824
-0.058454253 -0.14850023 -0.09663731 -0.14237739 -0.04685839 -0.05110943 0.26559836 -0.045820065
0.08792779 0.1496995 0.15216517 -0.026495598 -0.11179003 0.1451301 0.077972226 -0.084444374
-0.09655918 -0.09519147 0.009055007 0.17825639 0.009228516 0.01302946 0.102594964 -0.22480565
-0.26936454 0.057186674 0.024069572 -0.08475711 0.005176334 0.058103744 -0.18940085 -0.0051949634
0.017389968 0.014334034 -0.08055479 -0.019021098 -0.20417054 0.116109215 -0.13702767 0.0124509325
-0.047169268 0.12388748 -0.13547292 0.10366385 0.07991182 0.13028684 -0.11184077 0.05239904
0.018062422 -0.017539382 0.08973726 -0.018595183 -0.1670368 0.09101538 0.20009731 -0.020256171
00000000: 8627 483a abf5 bb3d d169 8a3d 1ab1 7f3d
00000010: 6056 16be 2b23 b83c cc4f ddbd cbfe a1bc
00000020: bd1e 923e f93d 22be 5037 823d 801f 1d3e
00000030: d059 6b3d 1873 3bbe 351b e6bd ed72 fcbc
00000040: b813 63bd 52e5 1c3b 7dd3 cf3d 440a 143c
00000050: 70ef 08bd d2dc 8abd e386 54bd 586a 423d
00000060: b490 6e3c b4bd bd3c 8308 703d 920f 093b
00000070: 6f2b be3c ecb0 e4bd 7575 5cbd bf68 3f3e
00000080: 7884 fe3c 2cce 0ebd ac57 c2bc c35d 06be
00000090: 30ce bfbd b188 0e3e e585 ed3d 8767 a2bd
000000a0: 899e 5fbe 5033 483d 4386 cb3d 31b2 c3bc
000000b0: 2f19 5b3e 5996 ecbd 23f0 313d 4143 66bd
000000c0: 660f ba3d 86ea 973d 0f53 2e3e fa73 e13d
000000d0: fb95 e3bd 82cd b23d 5f44 ccbd b6a4 fa3d
000000e0: 1d89 853d 1ab1 a2bd 9e3e 933d 9434 b73d
000000f0: 5cf4 cd3c f6be ae3d 8434 15be 3f4a a0bd
00000100: cb2e 2e3d da34 373d 1add 063e b519 8dbd
00000110: 386a 903d fd6a f5bc 65f0 25bd a410 bbbd
00000120: 055c b6bc a2c8 c13d 523f cabd f233 8e3d
00000130: 5ed5 be3d 8f8c 183d 4dc6 0bbe 7085 2d3d
00000140: 9ebc 4fbd f45d 55bd 59d6 4dbd d9f2 63bd
00000150: 45b7 aa3d ec1d f63d 63c5 8c3d 2b78 783d
00000160: 5d73 123d a993 52be ce74 0fbd 41ef f33c
00000170: bf76 1dbd 3837 833e 64bc 4ab9 eaa1 2bbc
00000180: be05 9b3d 75f9 8fbd 06f2 8bbd eaf5 1abe
00000190: 91cf 243d cc5f 193c 7e8d 10be 545e 83bd
000001a0: b33e 103d e830 833d 1362 dc3c 87d5 643c
000001b0: bd9e 923d c704 3cbe b216 203e b6d9 bfbd
000001c0: 36e4 883d ba57 6abd 19c4 4e3d 469e 7fbe
000001d0: a06b b3bd 9543 97bd e66d da3d ab33 f93d
000001e0: 11fc ce3d 141f 053e b485 5a3d 8c56 1dbd
000001f0: e628 42bd 374d 6cbc 1a69 3f3d 3493 7abd
00000200: f3b8 30bd a567 963d 9fa2 e53c 82e0 643c
00000210: d63b ffbc d838 69bd 97dd 83bc f22a 0c3e
00000220: c0f3 663c 0aad 0a3e a64c 3ebe fcfa b0bd
00000230: 2d9b 013d 3c2d c13d add0 3c3d 1d4b 593d
00000240: be7d 763c 7443 9d3d 8a0b 9ebb 1bba a3bc
00000250: 1594 ce3d 6847 b63d e040 a3bd bafd 0a3e
00000260: ea35 1a3d 7693 14be 98c6 543e 19c9 0bbb
00000270: be17 13be 79e7 fa3d d270 d03d 7eea 38bd
00000280: 3c52 0e3d aa8c 5c3a 067a b9bd 918a 6abd
00000290: b076 62bc 6e77 3abd d7b0 b1bd a149 61bd
000002a0: 9e6b 553c 249a 7a3d d94e 8d3d e996 763d
000002b0: 96ce 3dbe 5c63 8cbc a1fd 833d 3bc9 0b3e
000002c0: b38b bd3d 3421 dfbd 8fdd 7a3d b72e c23d
000002d0: 9275 4bbd 8503 0ebe a14c d1bc 95d9 78bc
000002e0: 7e12 c9bc 7183 40bd 1ac8 edbd a9a3 c2bd
000002f0: 5223 0abe a13f 1ebc 20a8 c63d 1cf3 54be
00000300: 7b4a 943a 30fc 083e 6792 9abd 386d 26bd
00000310: 148c 70bb e5aa 5dbd d7e0 adbd e8f3 f63d
00000320: ba6d 6fbd 7210 18be c8e9 c5bd 61cb 11be
00000330: 95ee 3fbd 1f58 51bd 82fc 873e d2ad 3bbd
00000340: 7c13 b43d d34a 193e 30d1 1b3e 4c0d d9bc
00000350: 2cf2 e4bd fc9c 143e e7af 9f3d 2cf1 acbd
00000360: d2c0 c5bd bff3 c2bd 745b 143c d888 363e
00000370: 3433 173c 8479 553c 4f1d d23d 7433 66be
00000380: 26ea 89be 933c 6a3d 8d2d c53c 2395 adbd
00000390: 3d9e a93b 31fe 6d3d 4cf2 41be 833a aabb
000003a0: 6875 8e3c 4cd9 6a3c e9f9 a4bd 22d2 9bbc
000003b0: 1512 51be abca ed3d fb50 0cbe fffe 4b3c
000003c0: 9034 41bd b8b8 fd3d 6ab9 0abe b64d d43d
000003d0: cfa8 a33d ea69 053e c60c e5bd 60a0 563d
000003e0: a5f7 933c c0ae 8fbc 2bc8 b73d ed54 98bc
000003f0: b20b 2bbe 4666 ba3d 4fe6 4c3e 45f0 a5bc

network_body._body_endoder.seq_layers.2.bias f4 [128]
0.020007668 0.016336968 0.015421413 0.005440586 0.023273591 0.019120172 0.011479077 -0.0075559495
0.031334013 0.020800533 0.019451406 0.015052702 0.027442843 0.018639883 0.0174623 -0.003541182
0.0010993364 0.026737727 0.0055331015 0.019211136 0.019512879 0.03932678 0.010589797 0.016407851
0.026980639 0.003460712 0.008715785 0.022593308 0.014748154 0.012093466 0.0038271558 0.004281173
0.028726371 -0.0033268936 0.010589566 0.018740606 0.025005905 0.020649021 0.022848068 0.026257263
0.020820098 0.018180352 0.020385407 0.029740894 0.0063352953 0.022610458 0.026982542 0.013037587
0.01972358 0.02888668 0.028791122 -0.012240043 0.021228364 0.019586707 0.013295687 0.01687539
0.02342032 0.013149267 0.027036864 0.012748494 0.0070938584 0.0245091 0.021900948 0.01005296
0.013456347 0.016015282 0.017399132 0.023486292 0.016249612 0.005000988 0.017137703 0.021929977
0.009023856 0.013463565 0.012179135 0.022832505 0.014189989 0.013174165 0.035896126 0.0045424304
0.028742647 0.022013294 0.024704054 0.020886099 0.025282748 0.019117998 0.03788855 0.016001545
0.017387364 0.039436262 0.0017482813 0.021167843 0.0161528 -3.8310303e-05 0.013497291 0.036801163
0.012754872 0.026336972 0.004679047 0.021843497 0.02333123 0.035284523 0.027702639 0.009635083
0.022826139 0.012362493 0.019191952 0.009242765 0.008371157 0.023137266 0.020387428 -0.0021356004
0.030270446 0.012536636 -0.0025258872 0.012621879 0.0036388093 0.018947281 0.0030209194 0.03154709
0.013875007 0.017143777 0.019480012 0.014267569 0.021771792 0.022624746 0.004949902 0.041673545
00000000: 1fe7 a33c 1bd5 853c 18aa 7c3c f146 b23b
00000010: 42a8 be3c e8a1 9c3c bd12 3c3c e697 f7bb
00000020: 1858 003d e165 aa3c 8e58 9f3c 9c9f 763c
00000030: d0cf e03c abb2 983c 190d 8f3c 2d13 68bb
00000040: 9c17 903a 1409 db3c 054f b53b ac60 9d3c
00000050: 79d9 9f3c 1e15 213d d480 2d3c c269 863c
00000060: 8006 dd3c 1dcd 623b a7cc 0e3c 9a15 b93c
00000070: 3ea2 713c ac23 463c 05d1 7a3b 1549 8c3b
00000080: 9153 eb3c 0308 5abb dc7f 2d3c e685 993c
00000090: 2fd9 cc3c 2328 a93c df2b bb3c 7919 d73c
000000a0: e98e aa3c f6ee 943c 4cff a63c 2da3 f33c
000000b0: 4f98 cf3b 9139 b93c 7e0a dd3c 9a9b 553c
000000c0: 5893 a13c c2a3 ec3c 5cdb eb3c 768a 48bc
000000d0: 1be7 ad3c 4d74 a03c 27d6 593c 423e 8a3c
000000e0: f9db bf3c 0670 573c 6a7c dd3c 0fdf 503c
000000f0: 9973 e83b 4fc7 c83c 9e69 b33c 2cb5 243c
00000100: 0378 5c3c 7b32 833c a088 8e3c 5366 c03c
00000110: e81d 853c 54df a33b 5e64 8c3c 7fa6 b33c
00000120: ccd8 133c 4996 5c3c ff8a 473c 3c0b bb3c
00000130: 217d 683c 74d8 573c d107 133d abd8 943b
00000140: b375 eb3c 3955 b43c 2860 ca3c 5319 ab3c
00000150: c41d cf3c 599d 9c3c 0631 1b3d ac15 833c
00000160: f26f 8e3c eb87 213d 9626 e53a 2f68 ad3c
00000170: e052 843c 60af 20b8 be23 5d3c d1bc 163d
00000180: d0f9 503c a2c0 d73c b152 993b 22f1 b23c
00000190: 2321 bf3c 8186 103d a5f0 e23c 78dc 1d3c
000001a0: e2fd ba3c 0e8c 4a3c 7138 9d3c f76e 173c
000001b0: 2d27 093c 5d8a bd3c 8903 a73c 6ef5 0bbb
000001c0: baf9 f73c 7666 4d3c 5b89 25bb ffcb 4e3c
000001d0: 1779 6e3b 5437 9b3c 9efa 453b 8537 013d
000001e0: ff53 633c 1b71 8c3c 8c94 9f3c 86c2 693c
000001f0: c25a b23c 8857 b93c ca32 a23b e1b1 2a3d

action_model._continuous_distribution.log_sigma f4 [1, 2]
-0.04847681 -0.04298883
00000000: 9f8f 46bd 0e15 30bd

action_model._continuous_distribution.mu.weight f4 [2, 128]
-0.019840796 -0.015492905 0.00018579494 -0.057557195 -0.020307487 -0.05418206 0.0145339295 0.010558969
0.08564894 -0.035945717 0.021710914 0.040313188 -0.017395899 0.054466326 -0.0672442 -0.0071580135
0.011594105 -0.04281582 -0.009438612 0.10889154 0.095786035 -0.06651728 -0.055750825 -0.02318162
-0.04181468 0.02719318 -0.025882069 0.10470082 -0.06872489 -0.021104064 0.053403646 -0.013051521
0.040260635 0.0011580461 0.060304485 -0.0362528 -0.11415926 -0.048491076 0.02942447 -0.028220408
0.04424021 0.033478055 -0.009647677 -0.05154722 -0.026958082 0.052096635 -0.07194522 -0.0124275675
-0.06969874 0.047900807 -0.0699379 -0.0062470837 -0.038075007 0.057460476 0.03923745 -0.050744876
-0.04881332 -0.06315453 -0.031862397 -0.08046203 0.051164802 -0.08165201 -0.032018982 0.029952811
-0.05341726 -0.080991805 0.07040026 -0.06800927 0.028318973 -0.051234253 -0.01753619 0.037324816
-0.014835776 -0.08506754 -0.05489951 -0.050879277 -0.05400975 0.07536081 -0.069653675 -0.036333103
0.012338055 -0.007542575 -0.012142665 0.087189525 -0.089958265 -0.024806572 0.0044392687 0.020994036
-0.06267073 0.063443065 -0.050631937 -0.077153176 0.074726954 0.019664936 -0.06158359 0.09566699
0.040081915 0.04825633 0.07029522 -0.05642661 -0.04987843 -0.07478145 -0.05056656 0.023781436
0.033451486 0.021741468 -0.07564248 0.024529515 -0.0130082425 0.098865055 -0.061018247 0.015196329
0.025299914 -0.050135054 0.013350303 -0.04029173 0.043485433 0.043721117 0.024981163 -0.062391438
-0.019844903 -0.077072136 0.004059003 0.0067789 0.011242446 -0.02212074 -0.05420118 0.0633621
0.10620598 -0.09347339 0.04029372 -0.007158622 0.06625644 -0.028186817 0.0397152 0.022304004
0.037175078 -0.06784 0.053394694 0.010496813 -0.09976944 0.044870764 0.01969685 -0.038057454
0.014219511 -0.103799604 -0.043682534 -0.04210854 -0.048988864 -0.08458241 -0.07465521 -0.08984889
0.051504195 -0.036084056 -0.07499231 0.052716378 -0.105292544 0.041121945 -0.02966869 0.016886652
0.08866099 -0.042303365 -0.014989528 -0.03397678 -0.050468 -0.061574984 0.05466894 -0.11270413
-0.0889561 0.075745136 0.09114227 -0.041940983 0.015798531 0.0158958 -0.11227769 -0.060664553
-0.09837633 0.0832392 0.031711757 -0.03417417 0.06582028 0.05219638 -0.08835659 -0.057698574
0.07475605 0.03251412 -0.103723936 -0.03170028 0.028983362 0.020841928 -0.07774083 0.027586501
-0.023868674 0.03594438 0.056662187 -0.06897862 0.045702178 -0.04752344 -0.032241236 0.049003728
0.036840595 0.025155185 -0.010547433 -0.02227378 0.032616947 -0.056108102 0.06454964 -0.0037516337
0.0746463 0.05589237 -0.07808025 0.03269025 0.0039328425 -0.09023138 -0.09529983 0.051087227
0.029850518 0.08080831 -0.026826655 0.020550588 -0.009301831 -0.006955206 0.0011742964 -0.027808215
0.027983515 0.06789304 -0.021878978 0.058691304 -0.013461595 0.06259917 0.07649022 0.036090575
0.061211433 -0.10151113 -0.029985117 0.026630081 -0.116663106 -0.06748828 -0.025489679 -0.014116823
0.059839875 0.04965536 0.0136260325 -0.06862157 0.021219706 0.054590657 -0.081452034 -0.05201707
0.04286871 -0.034762796 0.06395661 0.042918574 0.055878025 -0.056977566 -0.052684996 0.06503649
00000000: 2a89 a2bc f4d5 7dbc f3d1 4239 18c1 6bbd
00000010: e35b a6bc 02ee 5dbd b81f 6e3c 87ff 2c3c
00000020: b668 af3d d13b 13bd 16db b13c 711f 253d
00000030: d881 8ebc 1518 5f3d 54b7 89bd c58d eabb
00000040: 33f5 3d3c a45f 2fbd 68a4 1abc 8702 df3d
00000050: 782b c43d 363a 88bd fa5a 64bd 61e7 bdbc
00000060: df45 2bbd 3bc4 de3c a206 d4bc 626d d63d
00000070: a3bf 8cbd 6ee2 acbc c8bd 5a3d 0cd6 55bc
00000080: 56e8 243d 94c9 973a d601 773d d17d 14bd
00000090: 55cc e9bd 949e 46bd 960b f13c 7c2e e7bc
000000a0: 3935 353d 4920 093d 4a11 1ebc 2e23 53bd
000000b0: 32d7 dcbc 4863 553d 0458 93bd ff9c 4bbc
000000c0: 37be 8ebd a333 443d 9a3b 8fbd 56b4 ccbb
000000d0: 8af4 1bbd ad5b 6b3d 73b7 203d dcd9 4fbd
000000e0: 7af0 47bd 2a57 81bd 2582 02bd 47c9 a4bd
000000f0: 2f92 513d 2b39 a7bd 5626 03bd 995f f53c
00000100: 0fcc 5abd 08df a5bd 032e 903d 7248 8bbd
00000110: 31fd e73c 02db 51bd 0ea8 8fbc e8e1 183d
00000120: c111 73bc e437 aebd 4fde 60bd ca66 50bd
00000130: 5439 5dbd c556 9a3d 96a6 8ebd 05d2 14bd
00000140: 8e25 4a3c b427 f7bb 07f2 46bc 6c90 b23d
00000150: 0a3c b8bd 2737 cbbc 4977 913b affb ab3c
00000160: 8359 80bd 70ee 813d 6f63 4fbd 7c02 9ebd
00000170: 720a 993d 5c18 a13c 133f 7cbd 0eed c33d
00000180: ef2c 243d 6ea8 453d f1f6 8f3d 971f 67bd
00000190: 534d 4cbd 0427 99bd e21e 4fbd 49d1 c23c
000001a0: 6d04 093d 2a1b b23c 72ea 9abd 1ff2 c83c
000001b0: 8620 55bc c379 ca3d 45ee 79bd 06fa 783c
000001c0: c441 cf3c 6a5a 4dbd 3bbb 5a3c f108 25bd
000001d0: c81d 323d ea14 333d 4ca5 cc3c 2a8e 7fbd
000001e0: c791 a2bc ffd7 9dbd 6301 853b 8921 de3b
000001f0: 3c32 383c 8e36 b5bc 0e02 5ebd fdc3 813d
00000200: 8582 d93d fa6e bfbd 070b 253d e092 eabb
00000210: 75b1 873d 0ae8 e6bc 68ac 223d e3b6 b63c
00000220: e544 183d b3ef 8abd 65b4 5a3d d3fa 2b3c
00000230: ec53 ccbd 68ca 373d 4a5b a13c 22e2 1bbd
00000240: f4f8 683c e394 d4bd 75ec 32bd 017a 2cbd
00000250: 8ca8 48bd 8b39 adbd d5e4 98bd b202 b8bd
00000260: 10f6 523d e0cc 13bd 9195 99bd 21ed 573d
00000270: 9ea3 d7bd 7c6f 283d c10b f3bc e055 8a3c
00000280: e593 b53d 4b46 2dbd a396 75bc 3c2b 0bbd
00000290: 89b7 4ebd 0d36 7cbd 8aec 5f3d 6cd1 e6bd
000002a0: 9e2e b6bd 4420 9b3d cca8 ba3d 4fca 2bbd
000002b0: ec6b 813c e937 823c d8f1 e5bd 657b 78bd
000002c0: 8879 c9bd 5079 aa3d 30e4 013d 37fa 0bbd
000002d0: c8cc 863d dfcb 553d 4df4 b4bd 5755 6cbd
000002e0: b319 993d 872d 053d 376d d4bd 27d8 01bd
000002f0: 846e ed3c b1bc aa3c 9636 9fbd 16fd e13c
00000300: 3d88 c3bc 6a3a 133d 9c16 683d aa44 8dbd
00000310: 3532 3b3d f0a7 42bd 630f 04bd 22b8 483d
00000320: 2ae6 163d 3f12 ce3c 24cf 2cbc 8177 b6bc
00000330: 5999 053d 9cd1 65bd 9a32 843d f8dd 75bb
00000340: 29e0 983d 66ef 643d 8ae8 9fbd 36e6 053d
00000350: 13df 803b 3bcb b8bd 8f2c c3bd d740 513d
00000360: 1389 f43c d47e a53d 93c3 dbbc b559 a83c
00000370: b566 18bc 7fe8 e3bb d9ea 993a 0ece e3bc
00000380: af3d e53c 820b 8b3d 8b3b b3bc 4b66 703d
00000390: 068e 5cbc fe33 803d e8a6 9c3d b6d3 133d
000003a0: d7b8 7a3d 11e5 cfbd 59a3 f5bc 5427 da3c
000003b0: 11ed eebd 4c37 8abd bbcf d0bc 3f4a 67bc
000003c0: a81a 753d 6b63 4b3d b93f 5f3c 7789 8cbd
000003d0: f3d4 ad3c 749a 5f3d 53d0 a6bd da0f 55bd
000003e0: 1a97 2f3d 6f63 0ebd affb 823d 63cb 2f3d
000003f0: 5be0 643d 4f61 69bd 39cc 57bd da31 853d

action_model._continuous_distribution.mu.bias f4 [2]
-0.0008016589 0.009104336
00000000: 6b26 52ba 5a2a 153c
