results/FasterTank/Tank/Tank-239477.onnx (onnx, 136158 bytes, 9 tensors)

network_body._body_endoder.seq_layers.0.weight f4 [128, 112]
000000 eb 6a 41 bc 07 a8 89 bd f7 80 38 bd 9f 1e 06 3d
       -0.011805276 -0.06721502 -0.045044865 0.032744046
000010 27 24 fd bc 13 41 54 bd e5 de 0e bd 89 c4 d0 3d
       -0.030901028 -0.051819872 -0.034880538 0.10193736
000020 64 02 4c 3d 48 dc 5e bc 3d 52 b2 bd d4 79 cb bd
       0.049806967 -0.013602324 -0.08707092 -0.09935346
000030 db e0 7b be f4 d7 26 bd 35 7c af 3c 34 10 ca bd
       -0.24597494 -0.040733293 0.021421531 -0.09866372
000040 c0 93 3d be cc d7 eb 3d bd 6c 5a be 7d c9 e0 3d
       -0.18513393 0.11515769 -0.21330543 0.10975931
000050 95 77 5a 3e 72 df 49 3d 1b c5 27 be d1 29 31 be
       0.2133468 0.04928536 -0.16383784 -0.17301108
000060 c9 85 cc 3c b6 13 51 bd e4 66 e3 bc e4 1f d8 3c
       0.024966137 -0.05104419 -0.027759023 0.026382394
000070 9d 54 80 bc 82 ee 88 bd 0a 7e 1b be 7e 23 9d bc
       -0.015665347 -0.06686117 -0.15184799 -0.019181963
000080 8e e1 3a 3d 7a 78 1a 3e 33 34 85 3d 7a e8 f6 bd
       0.045625262 0.1508502 0.06504097 -0.1205606
000090 46 ca 1b bd 19 6b c2 3d 22 b2 1c be 3d 1d 51 3b
       -0.0380347 0.094930835 -0.15302327 0.0031908297
0000a0 69 59 44 bd 96 08 0a bd 28 30 84 3c 8c 4c 7d 3c
       -0.04793683 -0.033699594 0.016136244 0.015460145
0000b0 6a 05 a3 bc e1 e0 be bc da 3b 9d 3e 67 c5 cf bc
       -0.019900043 -0.02330059 0.30709726 -0.025362683
0000c0 a5 87 71 3d 43 9d 88 3c 63 be 00 3d 70 ca 4a 3c
       0.05896725 0.01667655 0.031431567 0.012377366
0000d0 3b 06 15 3a 1d 59 df bb af ad 15 3d f2 a1 b6 3c
       0.00056848273 -0.006816043 0.03654259 0.022294018
0000e0 b1 c4 bf 3a d9 82 bf 3b 58 d8 c7 3d e4 a1 49 be
       0.0014630762 0.0058444557 0.09758061 -0.19690663
0000f0 e5 4f 9a 3c 9f b8 00 bd e3 17 07 bc a5 f8 00 be
       0.018836925 -0.03142607 -0.008245441 -0.1259485
000100 1c d1 f8 ba c3 b8 51 3d dd e7 62 bd 92 bc a1 bc
       -0.0018983218 0.051201593 -0.055396903 -0.019743238
000110 92 32 05 3e 46 5b 6b bd f8 c3 a3 3c 6f f8 8e 3d
       0.13007572 -0.057460092 0.019990906 0.06980979
000120 9a a0 2a bd 98 24 71 3d 97 a2 46 3d 1f 03 3f bc
       -0.041657068 0.05887279 0.0484949 -0.011658459
000130 04 ca 71 bc a3 17 0c bd 88 08 86 ba c9 c9 13 3e
       -0.014757637 -0.03420223 -0.0010225931 0.14432444
000140 5d 29 ec 3c 69 fc e6 bd 4b d1 b1 bc 55 ff 21 3d
       0.028828317 -0.11278612 -0.021706244 0.039550144
000150 5e 51 29 be e3 ca f8 bd 2c 9e 29 be 6a 03 08 3d
       -0.16534945 -0.121480726 -0.16564244 0.03320638
000160 b2 22 5e bb 65 e9 42 3d 00 bb 08 be c3 54 36 3d
       -0.0033895192 0.047585864 -0.13352585 0.04451443
000170 b1 5c 47 bc 5c d8 cb bd 3f 53 d1 bd 11 17 ab bc
       -0.012168095 -0.09953377 -0.10220956 -0.020885022
000180 1b 57 5c 3d 42 d3 99 bd 13 a5 72 3c c4 a6 12 be
       0.053794008 -0.07510997 0.014809865 -0.14321429
000190 44 7c 83 bc ae f0 b2 3d 4a 16 ab bd 56 22 98 3d
       -0.016050465 0.08737312 -0.08353861 0.07428424
0001a0 d8 b1 c3 bc 75 6a a7 3d 6a 95 aa 3d 2f 6a 22 3e
       -0.023888513 0.08174602 0.0832928 0.15860818
0001b0 c6 9f 93 3d 5c dc e1 bd 53 3a 78 be b5 0f e9 3d
       0.07208209 -0.11028358 -0.24240999 0.11379949
0001c0 7a ee d1 bd 60 13 45 3c 95 fb 04 3c 67 c9 5d be
       -0.10250564 0.012028545 0.008116622 -0.2165886
0001d0 8d d9 4c bd ba a4 5c bd ce 0c 89 3d 8d 82 c1 3d
       -0.05001216 -0.053868033 0.066918954 0.09448729
0001e0 60 a8 3c 3d 30 bb 93 3d 3c 0a e1 3c 39 dc ac bd
       0.046059012 0.072134376 0.0274707 -0.08440442
0001f0 98 8b 11 3d 12 63 26 bd 23 b5 9e 3e 3e 92 45 3d
       0.035533518 -0.040621825 0.3099757 0.04823517
000200 42 e0 39 3e d1 96 fe bb ce 5b 0a be 6b d1 a3 bb
       0.18151954 -0.0077694436 -0.13511583 -0.00499933
000210 a5 84 05 3d b9 6c 02 bc 5c 19 08 bd 74 7a b6 3d
       0.032597203 -0.007960492 -0.03322731 0.08910075
000220 6c c5 29 3e eb 80 12 be 88 29 55 3e 6f 4c a8 bd
       0.16579217 -0.14306991 0.20816624 -0.082177036
000230 72 ca 3f 3c e5 08 80 bd 52 24 1c 3e 5d 9a d3 3a
       0.011705982 -0.062516965 0.1524823 0.0016144026
000240 4f 38 f4 3d 6a f8 f6 3d 9c d5 20 bc 38 78 2d 3c
       0.119248025 0.120591 -0.009816553 0.010587744
000250 eb 70 55 bd 16 a8 b0 3d f3 83 27 bd ac 15 43 3d
       -0.05210964 0.0862581 -0.04089732 0.04762809
000260 74 94 0e 3c a1 73 03 3e df 5b b9 bd e1 53 65 3d
       0.008702386 0.12837078 -0.09050726 0.055988196
000270 21 8a e5 3d ea dd af 3d e4 0a 34 3e df 21 1f be
       0.112079866 0.085872486 0.1758228 -0.15540265
000280 be ff 0e be 44 a3 6e 3d 83 e8 92 3b 50 52 e8 3b
       -0.13964745 0.05826117 0.004483284 0.0070898905
000290 c1 66 14 be 9e 67 82 bb 14 24 6d bd 07 42 9b bb
       -0.14492323 -0.0039796373 -0.057895735 -0.0047380957
0002a0 6e 65 26 3e ed 27 34 3d 9e 23 85 bd c0 e4 3a bd
       0.1624963 0.04398339 -0.06500934 -0.04562831
0002b0 73 33 17 be 22 a0 38 bb f2 e1 c6 3a f6 fe 04 be
       -0.1476572 -0.0028171618 0.0015173538 -0.12987885
0002c0 61 e5 00 bd 17 3d 41 bd 3f 13 fc bd 16 e0 06 3e
       -0.031468753 -0.0471774 -0.123083584 0.1317142
0002d0 75 45 67 bd b4 4b ef bc fc fa 6a bb c3 9f 6a 3d
       -0.056462724 -0.029210903 -0.0035855165 0.057281267
0002e0 09 76 f3 bc 38 b7 ea 3d c6 1b 0b bd b5 b1 e2 3c
       -0.02971937 0.114607275 -0.033962034 0.027672628
0002f0 3d 1b 31 3e 8c 87 25 3d 3b 2c f0 3a 71 18 8f 3c
       0.17295547 0.04041247 0.0018323729 0.01746771
000300 0f fc 35 3c 06 f7 ee bd a2 d3 1c be 86 71 fd bc
       0.011107459 -0.1166821 -0.15315107 -0.030937921
000310 37 69 c4 bd 1b 1b 75 bc b1 77 a6 3d 1d 9d c1 3c
       -0.09590381 -0.014960076 0.08128298 0.023634488
000320 3c cd 25 3e 92 c9 88 3c ae aa 7e bd cb 48 16 bc
       0.16191572 0.016697679 -0.06217449 -0.009172629
000330 01 45 9a bd c3 97 29 3e 60 88 dd bc 98 40 cc bd
       -0.07532693 0.16561799 -0.027042568 -0.09973258
000340 52 66 56 be 16 80 a3 bc 37 e9 23 bd 5e 43 d1 bb
       -0.2093747 -0.019958537 -0.040017333 -0.0063862046
000350 be 51 db bd cb fb 0f 3e 18 89 a0 bd 11 92 20 3d
       -0.107089505 0.14060895 -0.078386486 0.0392018
000360 f4 6a 2d bd e1 fb 51 3d 27 80 75 bd 9d 39 f0 bc
       -0.042338327 0.0512656 -0.05993667 -0.029324347
000370 61 63 37 3d f7 52 c8 3c 5b b5 55 3d 95 56 49 3d
       0.04477251 0.024453623 0.052174907 0.049154837
000380 c6 79 32 3d 09 6c a9 3d a9 dd 96 3d 74 78 d9 3d
       0.043573163 0.08272559 0.07366497 0.10618678
000390 93 5f 24 3d 22 0b 12 bd 82 7f 6b bb ea dd 87 3b
       0.04013021 -0.03565515 -0.0035934155 0.0041463273
0003a0 b0 07 15 3e 61 76 a2 3d e6 c4 61 3d ea 77 4d 3d
       0.14553714 0.07932735 0.055119418 0.050163187
0003b0 ed 6a 68 bd aa 66 2a be 51 74 90 bc 32 34 15 3c
       -0.056742597 -0.16640726 -0.017633589 0.009106683
0003c0 6a e7 db bb 1e 88 6a 3d 7d 9d 58 b7 2d 30 80 bd
       -0.0067109363 0.057258718 -1.2911271e-05 -0.06259189
0003d0 fa f4 37 3d a1 79 f2 bc c3 92 76 3c b7 1f a9 bd
       0.044911362 -0.029599013 0.015049639 -0.08258002
0003e0 ef 78 12 3d 47 60 83 bd c9 37 79 3d 63 61 b8 3d
       0.035759863 -0.06414848 0.060844216 0.0900295
0003f0 60 5a d7 3d 1a c3 6d bd 80 31 e6 3b 8f 14 7d 3d
       0.105152845 -0.05804739 0.007024944 0.061787184

network_body._body_endoder.seq_layers.0.bias f4 [128]
000000 b0 d0 73 ba 44 12 79 3c b4 1f 27 3d 9d 6f 5d bc
       -0.0009300811 0.015202109 0.04080172 -0.01351538
000010 82 64 ea 3c dc 8e 45 bc fc 18 02 bc 0e 08 9a 36
       0.028612379 -0.012057986 -0.007940527 4.5904953e-06
000020 9a e1 04 bc e1 73 49 bc 6a 92 5a 3c b4 72 d9 3a
       -0.008110428 -0.012295694 0.013340572 0.001658997
000030 f2 d5 25 3d c4 13 50 3c 3f 08 14 3b 66 d1 04 bc
       0.040487237 0.012700025 0.0022587923 -0.008106565
000040 25 40 73 bb e6 57 5b bb 58 de 04 3c 08 fc a6 bb
       -0.003711709 -0.003346914 0.0081096515 -0.0050959624
000050 72 72 b3 bb 57 31 3e bc 41 2a 14 3d eb 5c 1e 3d
       -0.0054762894 -0.011608443 0.03617311 0.038662832
000060 2e 50 07 bb 36 fd ec 3c d9 f2 b1 bb 57 67 54 ba
       -0.0020647156 0.028929334 -0.005430561 -0.0008102557
000070 44 3f 28 3c 99 53 52 3b 1a f1 bb bb 40 dc b5 3a
       0.01026899 0.0032093285 -0.0057355287 0.0013874844
000080 cd 6a 92 39 60 c3 0e bb ad a5 9a 3b b9 c3 98 3b
       0.00027926863 -0.0021783933 0.004719457 0.004662004
000090 80 6a c4 3c eb 72 e1 3b 7c 44 c2 ba ae 62 bb 3b
       0.023976564 0.0068801544 -0.0014821435 0.0057185506
0000a0 a3 57 8a 3c 6d c0 0c 3d ab 4f bf 3b 7d 60 21 bc
       0.016887492 0.0343632 0.0058383546 -0.009849665
0000b0 e4 e6 7f bb c6 48 07 bc ed cd c2 bb 6f a6 01 ba
       -0.0039047534 -0.008257097 -0.0059449584 -0.000494576
0000c0 d1 c7 87 3b 8f 74 e4 ba a9 0f c5 3b 4e 41 11 3d
       0.004143693 -0.0017429757 0.0060138297 0.03546267
0000d0 c8 b8 a5 bb f2 c0 8f 3b 5b 43 06 3c 78 6d 6f ba
       -0.005057428 0.0043870145 0.00819477 -0.00091334386
0000e0 b0 05 b1 3b 7c e8 51 3c 54 32 20 3c 39 9d 75 bc
       0.0054022893 0.012811776 0.009777624 -0.014991098
0000f0 0d e2 4f bc 48 86 1a 3c 2a 32 12 bc d5 bd 3d 3c
       -0.012688172 0.009431429 -0.008923093 0.011580904
000100 e0 77 9a 3c 4d 1e 65 3b d3 63 2c 3c 7a 8e 81 3b
       0.018855989 0.0034960688 0.010521847 0.003953752
000110 6d 13 13 bc 32 a9 42 3c d9 48 4e bb a3 be 13 3b
       -0.008976799 0.01188116 -0.0031476526 0.0022544048
000120 e4 89 9a bc e8 21 02 bc 6b a1 8a bb 69 45 99 3a
       -0.01886458 -0.007942654 -0.0042306683 0.001169366
000130 97 20 50 39 cc 06 6c bb f2 be df bb c7 28 a1 bc
       0.00019848566 -0.0036014793 -0.0068281824 -0.019672764
000140 11 32 68 3c 8d cb 69 bc 92 76 b5 3b 94 4c a9 3c
       0.014172093 -0.014269722 0.0055378163 0.020666398
000150 e7 a3 ce 3c de 36 0a 3b a0 ef d7 3c c2 63 c2 3a
       0.02522464 0.0021089832 0.02635938 0.0014830756
000160 a6 77 d1 bb a4 e2 e8 bb b1 61 17 bc 8d a5 4a 3c
       -0.006392437 -0.007107096 -0.0092396 0.012368572
000170 d8 15 b1 bb cc 45 08 bc 14 86 f3 3b e3 39 dc ba
       -0.0054042153 -0.008317422 0.007431755 -0.001680192
000180 b1 e5 24 bc 4f 83 3d 3b eb 9a 23 3b 81 91 79 ba
       -0.010064528 0.0028917377 0.0024964164 -0.0009520278
000190 5d 74 0d 3c df 24 bb 3a 86 ad d3 3c d0 8b bc bb
       0.0086337 0.0014277956 0.025839578 -0.0057539716
0001a0 de 48 97 3a 53 70 20 bc c3 9e 04 3b 62 7f aa bb
       0.0011542102 -0.009792405 0.002023623 -0.0052031735
0001b0 21 5e fa bb c1 5c e3 ba a5 d8 a1 bc 71 6e 08 bc
       -0.0076406156 -0.0017346368 -0.019756624 -0.0083271125
0001c0 3e 71 2a bb d9 fb 29 37 4a 33 61 3c a1 60 79 3c
       -0.002600744 1.0131823e-05 0.013745138 0.015220792
0001d0 f3 d9 6c bc 70 b1 9c bc 27 03 c4 bb f9 d2 45 bc
       -0.01445626 -0.019127578 -0.005981821 -0.012074226
0001e0 7c e4 68 3b 12 0f f4 3a 5c 9e 59 3c 0e 5e ba 3c
       0.0035536578 0.0018620214 0.013282385 0.022749927
0001f0 77 56 33 bc 66 06 1c 3b 62 34 ea 3a 58 7a e6 3b
       -0.010945908 0.0023807525 0.0017868394 0.0070336275

network_body._body_endoder.seq_layers.2.weight f4 [128, 128]
000000 02 c7 5a bd e7 6a f4 3c 3a ec 3e 3c 0a 67 88 3d
       -0.053412445 0.029836131 0.0116530005 0.06660278
000010 49 70 2c 3d 1c 05 53 bd 2e 54 a3 3c 1f da f5 bd
       0.04209927 -0.051518545 0.019937601 -0.12004494
000020 bc 96 26 bd bb 25 12 3e 42 55 d2 bd 4d 65 46 3d
       -0.040671095 0.14272206 -0.10270168 0.04843645
000030 26 cd 70 bd 30 50 4d 3e 6c 3f 0b be df 54 25 bc
       -0.058789395 0.2005012 -0.13598412 -0.010091036
000040 5d 28 ea 3d ae 52 28 bd 5f 47 fa 3c 43 b0 c5 bc
       0.1143348 -0.041094474 0.03055161 -0.0241319
000050 de 09 08 3d d3 82 cf bb c4 e1 6d 3d 33 5a e0 bc
       0.033212535 -0.006332734 0.058076635 -0.02738676
000060 1b ef 98 bd 12 8e 94 3c 14 d3 06 bd b5 2a 89 bd
       -0.07467481 0.01813415 -0.032916144 -0.06697599
000070 2c 44 70 3b 42 d2 d9 3d 53 ec 12 be 98 a4 9f 3d
       0.0036661727 0.106358066 -0.14347963 0.07795066
000080 68 2b 5c 3d 46 35 07 3d 04 c6 70 bd d1 ba ef bc
       0.053752333 0.03300979 -0.058782592 -0.029263886
000090 11 c8 9f 3c 2e a0 e8 3d 74 66 b4 bd 06 a7 cf bd
       0.019504579 0.11358677 -0.08808604 -0.10139279
0000a0 a7 d8 c9 3d af 47 fa bc 4f 63 14 be 2c 23 bb bd
       0.09855776 -0.03055176 -0.14491008 -0.09137568
0000b0 8b 95 24 3d 73 b2 88 bd 45 4b 9e bd b6 e4 3f 3d
       0.040181678 -0.066746615 -0.077292 0.046848975
0000c0 af 7e 54 bd 14 3a c6 bd cb e3 0d bc c9 b9 f3 bd
       -0.051878627 -0.09679046 -0.008660267 -0.1190067
0000d0 c7 d3 1d 3e 2d be 84 bd d1 5c 2c bd 93 22 bb 3d
       0.15412818 -0.06481586 -0.042080704 0.09137454
0000e0 fe 67 99 bb 5e 14 94 bd ba 02 a4 bd 74 66 af 3c
       -0.0046815863 -0.07230447 -0.080083326 0.021411158
0000f0 a3 94 69 3d e3 c5 e0 bd 8e 30 b5 bd a5 91 b3 3d
       0.057026517 -0.10975244 -0.08847152 0.08768014
000100 aa ac 4f 3d 77 b8 10 bd d4 df 8f 3d 21 7b b7 bd
       0.050701775 -0.03533217 0.07025114 -0.08959032
000110 9a 4e b0 3d bf b3 04 bd 36 43 c5 3c b0 8d d7 bd
       0.08608742 -0.03239798 0.0240799 -0.105250716
000120 01 c2 b3 bd 73 0f c2 3c 65 e9 8a 3c 3b 11 7d 3d
       -0.08777238 0.023689007 0.016956994 0.06178401
000130 f4 4c bb bd 00 de 91 bd a7 da 5e 3d dc 29 ff 3d
       -0.09145537 -0.07122421 0.054407742 0.12459156
000140 46 99 81 bd 70 a7 62 be 86 16 39 bd 49 fa 39 3e
       -0.06328063 -0.22134185 -0.045187496 0.18161882
000150 a1 be 98 bb 3d c5 c0 bd 5e 54 43 3e 51 b4 2a 3d
       -0.0046613966 -0.0941262 0.19075152 0.04167587
000160 4e b9 8f bb b6 53 9a 3d 57 6b 3a be f8 87 4c 3c
       -0.0043861037 0.07535498 -0.1820501 0.012483589
000170 b6 84 db 3c 57 88 9f 3c 56 32 bf bd d1 45 29 3d
       0.02679668 0.019474192 -0.09335773 0.041326348
000180 15 7d 60 3d 50 db c0 bd a7 2b ca bd f0 f1 c6 3d
       0.054806788 -0.094168305 -0.09871607 0.09714115
000190 bd d2 4d bc 8d 1f fa 3d 06 29 9b 3d 7d 7b 41 bd
       -0.012562451 0.12213049 0.07576184 -0.04723691
0001a0 00 42 24 bc 26 d9 25 bd 4f 4f 06 bd e0 a4 b6 bd
       -0.010025501 -0.040490292 -0.03279048 -0.08918166
0001b0 b5 f9 20 3d 34 f8 19 3e 29 22 ee 3d 9f 51 4e bd
       0.03930064 0.15036088 0.11627609 -0.05037081
0001c0 7e ad 75 3d 58 5f 0e bd c0 7b 72 bd f1 25 c7 3d
       0.05997991 -0.034758896 -0.05920005 0.097240336
0001d0 bc 28 44 3e 5f b4 1f 3e e0 15 67 bc a9 f8 ba 3d
       0.19156164 0.1559615 -0.0141043365 0.091294594
0001e0 73 11 92 3b 37 42 4a bd 68 08 88 3d 91 6b 13 bd
       0.0044576465 -0.049379554 0.06642228 -0.035991255
0001f0 72 7b 12 bc e7 e6 40 3e 90 dd ed 3c b0 9b f3 bd
       -0.0089405645 0.18838082 0.029036313 -0.118949294
000200 ff 1e 05 3d 99 e6 16 be a5 fc 0e be 9f e1 6e 3d
       0.032500263 -0.14736404 -0.13963564 0.058320638
000210 96 56 32 3e 89 d7 e2 3c 69 ec 18 be be 0b 9c bd
       0.17415842 0.027690666 -0.14933933 -0.07619427
000220 62 12 a4 bb 9b 76 27 3c 8a 94 42 3d c0 7a 03 3e
       -0.005007074 0.010221149 0.04750494 0.12839794
000230 5f ac 8d 3d 0f 1a 48 bd 76 b4 81 3d 15 b0 06 bd
       0.06917643 -0.048852976 0.06333248 -0.03288277
000240 4c e0 34 be 85 6a 7b 3c e6 56 5e 3d 9d 0c 86 3d
       -0.17663687 0.01534522 0.05428209 0.065453745
000250 fd 9b 6a bd dc ec 80 3d d0 93 68 3d a6 37 8e 3a
       -0.05727767 0.06295177 0.05678159 0.0010850325
000260 45 53 92 3d e1 73 42 3c cb 41 09 3c 60 02 d5 3c
       0.07144789 0.011868448 0.008377503 0.026002109
000270 19 9e 88 3d a2 74 2f bd 8f ac 64 bd f4 d4 e5 bd
       0.0667078 -0.04283584 -0.055828627 -0.11222258
000280 5a f6 00 3d 1d 0f 50 bd ac 4d 6b bd d2 9b ae bd
       0.03148494 -0.050795663 -0.05744712 -0.08525814
000290 69 e0 9e bd 8c d0 bc 3c af 03 ca bc 26 e2 0d be
       -0.077576466 0.023048662 -0.02465996 -0.138558
0002a0 f3 22 e4 bd 5f f8 9e bc e0 a8 5f 3d ec 4f 17 3d
       -0.111394785 -0.019405542 0.05460441 0.036941454
0002b0 ae aa 4c 3d d1 66 a3 3d 37 29 63 3d 0d 1d 97 bd
       0.04996746 0.07978595 0.055459227 -0.07378588
0002c0 8c 69 8c 3b 3f 08 b6 bd 98 9d 2d 3c 54 ff 8f 3c
       0.004285043 -0.088882916 0.010596655 0.017577805
0002d0 1e 5f 7e bc 58 cf a2 bd 8a 9e b5 bc 77 81 20 be
       -0.015525607 -0.07949704 -0.022170324 -0.15674387
0002e0 d8 9f 69 3d e1 a6 a2 3b 5a 44 1b be a0 90 6a 3d
       0.057037205 0.004963741 -0.15162793 0.05726683
0002f0 08 d4 a8 bc 03 79 9d 3c f8 e1 49 3a 00 3d b0 3d
       -0.020608917 0.019222742 0.00077012135 0.08605385
000300 c5 66 23 3e 70 4b be 3d 64 82 1c 3c 3b 4f 00 3e
       0.15957172 0.09291732 0.009552572 0.12530224
000310 22 2d 32 3d 56 ab 00 3d 33 7b 78 bc fe 8a a3 bc
       0.043500073 0.0314134 -0.015166092 -0.019963738
000320 be 11 96 bd 74 6e 5a 3d f2 4a df bd 12 60 cc bd
       -0.07327603 0.053327993 -0.109029666 -0.099792615
000330 c3 d1 d3 3d dd cc 15 bd c1 40 60 bc da 4c 7c 3d
       0.10342743 -0.036572326 -0.0136873135 0.06159673
000340 10 0a f6 3d 4b 39 9a bd ec 23 a2 bc df c4 08 bd
       0.12013638 -0.07530459 -0.01979252 -0.033390876
000350 39 95 55 bd a2 a0 15 be 29 01 1c bd fb 66 59 bd
       -0.052144263 -0.14612058 -0.038087044 -0.053076725
000360 70 db 10 be 4b a2 a9 bd 38 36 d4 bd 4b 35 b9 bd
       -0.14146209 -0.08282908 -0.10361904 -0.09043368
000370 0b 53 95 3d 22 48 c9 bc 44 1e 8e 3d 77 52 2e be
       0.0729123 -0.024570528 0.069393665 -0.17023645
000380 98 92 46 3d fb f7 53 bd 67 3e e6 bc 89 15 89 3d
       0.048479646 -0.051750164 -0.028105928 0.06693561
000390 97 9c 66 3d d3 3e ff bc a9 06 6f 39 63 37 41 3d
       0.05630168 -0.031157887 0.00022795297 0.04717196
0003a0 34 a8 96 bd fc a4 17 3d 27 01 0a 3e 11 70 6e 3c
       -0.07356301 0.037022576 0.13477002 0.014553086
0003b0 26 5d 34 be c1 0f a6 3c ae 92 7b 3d 8e e6 e4 3d
       -0.17613658 0.020271184 0.06141918 0.11176787
0003c0 71 d7 57 3d 93 f3 25 3d b7 d0 24 bd 46 e4 4d bd
       0.052695695 0.040515494 -0.04023811 -0.050266527
0003d0 7d ba a0 3d d3 a4 09 3e ea e0 9b bd 86 8d 9d 3a
       0.0784807 0.13441782 -0.07611258 0.0012020327
0003e0 bb 98 a5 3d 5a 4a 7b 3d e9 28 9d bd 7a 5d 92 bc
       0.08085772 0.061350204 -0.076738186 -0.017866839
0003f0 4f 7e 18 be ee ab 3b be 09 48 37 3d b9 ca af bd
       -0.14891933 -0.18327305 0.044746432 -0.08583588

network_body._body_endoder.seq_layers.2.bias f4 [128]
000000 ec 13 c5 ba f8 ee 25 3b 0b 37 13 3c de ed a1 3c
       -0.0015035844 0.0025319438 0.008985291 0.019766744
000010 16 bc 3c 3b 97 50 e3 39 08 cf 1c 3c d0 0c c4 bb
       0.0028798631 0.00043356858 0.0095708445 -0.0059829727
000020 fb 5d e4 3c db fa 15 bb 12 ed 35 bb a6 1d 92 bb
       0.027876845 -0.0022885117 -0.0027759713 -0.004459101
000030 8c d9 df bb 9d 70 17 bb db 8d 9a 3c a1 c4 f0 bb
       -0.0068313535 -0.0023107894 0.01886647 -0.0073476587
000040 08 c7 0c bc 54 b9 1b 3a 58 ad 45 bb b4 4d e0 bb
       -0.008592375 0.0005940397 -0.0030163135 -0.0068452004
000050 ba 43 b3 3c 7f d7 4c bb 1d 7b 68 b9 a3 ba 8d 3b
       0.02188288 -0.0031256375 -0.00022171107 0.0043252273
000060 3a cd cb 3a a3 f4 d6 3b d1 4f 86 bb 09 17 f6 ba
       0.0015548833 0.0065599247 -0.0040988703 -0.0018775176
000070 98 6f a7 bb 1e 4d 1f 3b 98 61 60 bb b7 4e 36 3b
       -0.0051097386 0.002430744 -0.0034237858 0.0027817914
000080 f5 d4 22 3d 1c 9a 9e bc 75 a9 9a ba 46 a1 5c bc
       0.039753873 -0.019360594 -0.001179977 -0.013466185
000090 6f 16 2b 3d 4a f6 18 3b ce 97 9a bb 46 4b cc 3b
       0.04176944 0.002334016 -0.0047178036 0.006234559
0000a0 d5 f0 55 bc 71 b3 b1 3b 95 72 72 ba bb f1 51 bb
       -0.013057907 0.0054230024 -0.00092486414 -0.0032034952
0000b0 66 52 09 bb 32 af a5 3a 5e a8 ad bc 38 66 25 bc
       -0.0020953654 0.0012640713 -0.021198448 -0.010095172
0000c0 fc 1a ca bb 45 03 a9 bc 81 96 b1 bb 8b d5 9b bb
       -0.0061677676 -0.020631442 -0.005419553 -0.004755681
0000d0 3d 03 1c bc 9b 1d 18 3c 22 cb 75 bc 81 e4 43 3c
       -0.009522256 0.009284402 -0.015002044 0.011956335
0000e0 7c 2f f9 3b 4a 28 3c 3c 46 a3 d1 bb e6 98 1b bc
       0.0076045375 0.011484215 -0.0063976375 -0.009496903
0000f0 7f 30 77 3c 32 ad 33 bc a5 9b 29 bb 46 96 7a bc
       0.015087246 -0.010966586 -0.0025880125 -0.015294617
000100 14 22 b3 bb de 58 56 bc c4 52 7b 3c 1a 0d b9 bb
       -0.005466709 -0.013082711 0.015339557 -0.005647314
000110 35 70 a1 bb 6a b1 75 3a 4b 41 7a bb 45 b8 38 bc
       -0.004926706 0.0009372445 -0.003818589 -0.011274402
000120 98 f1 eb 3a 4c 52 ea bb 36 28 8e bc cf 97 0e bc
       0.0018001078 -0.007150924 -0.017353158 -0.008703186
000130 97 3b 5a 3c 1d 2a 04 bc d7 43 a1 3b aa 98 a8 3b
       0.013319871 -0.008066681 0.004921417 0.005145152
000140 13 81 8d 3b d5 97 54 bb 8c f7 50 bc 22 d6 4c bc
       0.0043183654 -0.0032439132 -0.012754332 -0.012502225
000150 c5 ac e0 bb f0 79 a3 3b bc c5 86 bb 83 fc 56 3b
       -0.0068565332 0.0049889013 -0.0041129272 0.0032804317
000160 08 70 3b 3c fa 73 0b bb 4d 90 9b bc 80 41 12 bb
       0.011440285 -0.0021278844 -0.018989706 -0.0022316873
000170 9f a3 b5 bb 27 a4 11 bc 24 6e a9 bc 9b ce 34 3b
       -0.005543187 -0.008889235 -0.020682402 0.0027588967
000180 fc aa 42 bc 8f dc 38 ba 79 b5 ca bb ba c3 48 3b
       -0.011881586 -0.0007051909 -0.006186184 0.003063424
000190 a3 6f b7 3c d0 2a da 3b df 03 36 3c 2c f1 87 bc
       0.0223921 0.0066579357 0.011109321 -0.016594492
0001a0 52 ce b3 bb 45 0a 96 bb 00 8c 85 bb 15 f0 75 bb
       -0.005487242 -0.004578861 -0.004075527 -0.0037527133
0001b0 b8 30 03 bb d9 e6 45 bc 54 61 42 3c 66 b8 35 bc
       -0.0020018052 -0.012078964 0.011864025 -0.011091327
0001c0 d2 63 c2 ba 09 b5 12 3c 33 f1 93 3c 3f d3 eb bb
       -0.0014830774 0.008954295 0.018059349 -0.0071968134
0001d0 6a 33 89 3b c0 10 9d bc 91 3b 9c 39 fc 88 c7 3b
       0.0041870372 -0.019173026 0.0002979902 0.006089328
0001e0 48 61 8a bb d0 98 57 3a 88 3e e7 3c de 4f 1f 3c
       -0.0042230226 0.000822437 0.02822806 0.009723632
0001f0 bc 83 a4 3c 9d 4d ee bb bb 36 74 3c 92 6d 8b bb
       0.020082347 -0.007272436 0.014905627 -0.004255005

action_model._continuous_distribution.log_sigma f4 [1, 5]
000000 4c af a6 3b 40 7c 0e 3c 40 0e 9b bb 2b 33 bb 3b
       0.005086815 0.008696616 -0.0047319233 0.005712887
000010 09 f7 6b 3b
       0.0036005399

action_model._continuous_distribution.mu.weight f4 [5, 128]
000000 b7 74 0d 3c 12 41 0a b9 62 21 54 3c f0 57 14 bd
       0.008633784 -0.00013184946 0.012947412 -0.036216676
000010 25 f7 94 ba 67 9d 05 3d 7b 98 7d 3b 33 98 72 3c
       -0.0011365159 0.032620814 0.0038695622 0.014806795
000020 b4 c1 80 bc 8b 31 a8 bc 68 a5 11 3c be da 05 3c
       -0.015717365 -0.020531436 0.008889534 0.008169828
000030 36 80 e1 3c c7 b7 de 3c 83 5e 9e 3c 6c 57 b7 3c
       0.027526956 0.027187241 0.019332176 0.022380553
000040 ed 1c 26 3d 3e 70 cf bb cd 6d 63 bc b9 a8 9a bc
       0.04055493 -0.006330519 -0.013881159 -0.018879281
000050 08 af d2 bb 72 42 e7 bb ae ca 2a bd e5 45 e7 3a
       -0.0064295568 -0.0070574814 -0.041697197 0.0017644732
000060 dd 94 d9 bb 0a ef 62 bc ed 9f 0b 3d c6 67 0f bc
       -0.0066400603 -0.013850937 0.034088064 -0.008752769
000070 72 22 f2 ba 25 33 0d 3c 42 6d 23 3b 41 fa 96 bb
       -0.00184734 0.008618151 0.002493695 -0.0046074693
000080 02 38 2c bc 73 37 9c ba 32 aa 95 ba 95 f4 77 bc
       -0.0105114 -0.0011918381 -0.001141852 -0.0151339965
000090 bf 8a e3 ba 32 f1 21 3b a6 bd 0e bd 91 5a 25 bb
       -0.0017360075 0.0024710414 -0.03484883 -0.0025230984
0000a0 3b 2c 5d bc 15 9a a3 bc c1 9b c5 bc fc 0c 5a 3c
       -0.013499315 -0.019970933 -0.02412212 0.01330876
0000b0 cb 7e 84 ba 9e 25 dc bc 28 59 a5 3b 90 95 f9 3c
       -0.0010108588 -0.026873406 0.0050460286 0.030466825
0000c0 58 b3 c2 3b 21 42 92 3c ac ad e0 3c ea e6 78 bb
       0.0059417896 0.017853798 0.027426563 -0.0037979432
0000d0 86 6f a0 bc 0f 5d 02 bd 5c 3c 26 3d 53 08 e3 3a
       -0.019584429 -0.03182703 0.040584907 0.0017321206
0000e0 81 59 ce bc 67 25 85 3c d9 e6 a4 3c f5 55 ca 3c
       -0.025189163 0.016253186 0.020129608 0.02469919
0000f0 71 68 3c 3b 16 44 88 bc d6 a3 0c 3d 44 8d 3b bb
       0.0028748775 -0.016634028 0.034335934 -0.0028618136
000100 41 bd 20 39 98 d7 99 3c 65 a8 8b 3c 9a 08 62 3c
       0.00015329292 0.01877956 0.01704807 0.013795996
000110 07 18 fc 3a 40 9d 8d bc ab 5d 8f bb d5 1f 16 3b
       0.0019233235 -0.017286897 -0.0043751798 0.0022907157
000120 23 21 db bb 0e f5 04 3b c0 b1 ea 3c 5f cf 3e bb
       -0.0066873 0.0020287666 0.02864921 -0.0029115302
000130 4a ae 27 bb 38 95 a0 bc 9c 45 58 bc e1 d9 51 bc
       -0.0025586062 -0.019602403 -0.01320019 -0.012808294
000140 c2 e9 86 bc 09 c7 70 bc 1a 15 1d 3c 99 96 22 3c
       -0.016468886 -0.014695891 0.009587551 0.009923601
000150 44 b8 1e 3b 8c 07 fe bb 5a 2d 2a 3c 9f d6 54 ba
       0.0024218718 -0.0077523645 0.010386789 -0.0008119139
000160 33 5d a3 3b ac b1 05 bb 50 48 3d 3a 12 e1 29 3c
       0.0049854754 -0.002040009 0.0007220553 0.010368602
000170 b6 82 50 3c fe b9 19 3b f4 5c 4f 3c 77 e0 70 bb
       0.012726476 0.0023456807 0.012656439 -0.0036754885
000180 08 8f b0 3c 9c 9b 93 3c c2 d6 51 3c 8e 5e 70 ba
       0.021552578 0.018018536 0.01280755 -0.0009169363
000190 78 c0 61 ba ad 84 a6 bb 72 7d 28 bb 8b 72 b3 3b
       -0.0008611749 -0.005081734 -0.0025709537 0.005476301
0001a0 e7 72 40 bc 20 08 92 bc bc d1 f4 3c 47 44 d6 bb
       -0.011746145 -0.01782614 0.029885165 -0.006538901
0001b0 cd a4 01 3c 1c 9b 2d 3b 19 f5 30 bd 5d a6 6b 3b
       0.007912827 0.0026490157 -0.043202493 0.0035957315
0001c0 83 ef cd 3c 06 fb 2b bb 45 77 8e bb ed 74 84 3c
       0.025138622 -0.002624215 -0.004347714 0.016169036
0001d0 67 83 23 bc d4 51 1f 3d a0 8b 90 3c ab e5 dd bc
       -0.009980059 0.038896397 0.017644703 -0.027087053
0001e0 0c e1 04 bc 16 bf 65 3a b8 e0 9e bc 83 3c 8b bc
       -0.008110296 0.0008764131 -0.019394264 -0.016996628
0001f0 ad f8 0f bd a9 41 d8 bb c4 25 b2 3b 20 69 96 3c
       -0.035149265 -0.006599624 0.005436631 0.018360674
000200 9f 14 06 bc 79 4f 2b 3c 51 ed e2 3c 8e bc 94 bc
       -0.008183627 0.0104559595 0.027701052 -0.018156316
000210 e9 c4 bc bb 1d 0d 09 bd fa 83 ed bc d3 0a af 3c
       -0.005760778 -0.03345977 -0.028993595 0.021367466
000220 2e 2a 14 bd be e6 73 3c 3e 61 7e bb c5 d3 0f b9
       -0.03617304 0.014886556 -0.0038815285 -0.00013716433
000230 bd e6 3f bc 5e c8 84 bb 16 ad d5 bb f0 b5 8f 3c
       -0.011712727 -0.004052206 -0.0065208776 0.01754281
000240 51 74 9d 3b f0 42 1e bc 6b 29 2c bd 4d 57 ae bc
       0.0048051258 -0.009659514 -0.042031687 -0.021281863
000250 fc 01 23 bc f8 cc 9d 3c 03 d2 6a 3c c6 f3 4e 3c
       -0.009949204 0.019262776 0.014332297 0.012631362
000260 66 e5 a5 3c 24 38 95 3b 4f 43 dc bb 86 2f f5 3c
       0.020250987 0.0045538116 -0.006721891 0.029929888
000270 4b 80 e7 3b 22 46 09 bd 30 a1 27 bc c8 17 10 3d
       0.0070648543 -0.03351415 -0.010231301 0.03517893
000280 b9 a2 ba bb 5e b1 c7 3b a4 60 0d bc b1 e3 bb bb
       -0.0056956676 0.006094142 -0.008628998 -0.00573393
000290 7a 2c ac bc 7f 12 df 3c ee 58 37 bc 05 2a 49 bd
       -0.021017302 0.0272305 -0.011190636 -0.04911234
0002a0 87 7b f2 bb 40 af b4 3c 5c 30 19 bd 98 2d d9 bc
       -0.0073999795 0.022056222 -0.037399635 -0.026510999
0002b0 5f 31 4c bc 96 27 88 bb 3c 98 40 bc 40 05 89 3c
       -0.012462943 -0.0041551096 -0.0117550455 0.016726136
0002c0 8d 5e 63 3c 84 1c c7 3b 0b 75 75 3c 28 ac aa 3c
       0.013877523 0.0060763974 0.0149815185 0.020834044
0002d0 ef fa 26 3c 06 5c d2 3c 62 7e 2c 3c 5f 6b 09 bd
       0.010191663 0.025678646 0.010528179 -0.033549663
0002e0 ab 2c d9 3c 3f a8 dc 3b f8 e8 33 3c b5 75 38 bc
       0.026510557 0.0067339237 0.010980837 -0.011258532
0002f0 b1 49 92 bc e4 b0 10 bb 37 6a 3d 3b af a2 17 bc
       -0.017857404 -0.0022078091 0.002890242 -0.009255095
000300 e7 2e a2 3c 30 ba 6c 3c d2 a3 82 3c cc 64 06 3c
       0.019797755 0.014448687 0.015947256 0.008202743
000310 93 d5 31 bb 1c ef 7a bc bf 6f 09 3c 29 22 c6 3c
       -0.0027135357 -0.015315797 0.008388459 0.02418621
000320 2b e2 ca bb 5b 4f 84 bc 43 c0 a8 bc 9e d5 a2 3b
       -0.006191512 -0.01615112 -0.02059949 0.004969313
000330 d2 61 6d bb b3 a2 a4 bb e1 63 79 bc ac ab 02 bd
       -0.0036221636 -0.005024278 -0.015221567 -0.031902
000340 b2 a1 60 bc 82 11 d1 bb b4 59 a2 bc c3 09 90 bc
       -0.013710426 -0.006380261 -0.019818164 -0.01758278
000350 1d 11 16 bc c3 eb 80 3a 34 47 8d 3c c6 b6 44 3c
       -0.009159354 0.0009835887 0.017245866 0.012006467
000360 81 4a a2 bb 2e 03 c3 bb ba e1 b8 bb 7f d9 ab bc
       -0.004952729 -0.005951307 -0.005642143 -0.020977734
000370 f6 7f 72 3a eb 37 0e bb ab 9d 6e 3b a6 c3 68 bc
       0.0009250635 -0.002170081 0.0036409895 -0.0142068025
000380 34 ce 89 3c 0b 7e 6b 3c 59 fd a6 bc 2b 28 f3 bb
       0.016821958 0.014373313 -0.020384477 -0.00742056
000390 67 9b c7 bc 16 3b b1 bc bd 1b 32 3b 20 a2 48 3c
       -0.024366094 -0.02163462 0.0027177178 0.012245685
0003a0 04 63 74 bc be df a1 bc 6c 7d 4d bc 41 0b 1d bc
       -0.014916185 -0.019760009 -0.01254211 -0.009585203
0003b0 9f 31 a1 3b dc c0 d6 bc d9 47 26 bd f7 15 f3 bb
       0.0049192454 -0.02621501 -0.040595863 -0.00741839
0003c0 cb 46 7c 3b cc 05 d3 bc 36 d3 61 bc b7 b3 18 3b
       0.0038494344 -0.0257596 -0.013783267 0.0023300478
0003d0 b5 02 ac 3c 2f 19 21 3c 33 59 ee bb c3 9b d5 bc
       0.020997385 0.009832664 -0.007273817 -0.02607525
0003e0 8a 22 1f bd de 8d 4a bc 58 50 57 3a 67 1e f2 3c
       -0.0388513 -0.012362925 0.0008213571 0.029555513
0003f0 a6 6a c3 3c ec 40 0d bd ce 3f 82 bc 0d 6d 02 bd
       0.023854565 -0.034485742 -0.015899565 -0.03184228

action_model._continuous_distribution.mu.bias f4 [5]
000000 47 9e ee bb 3c 53 d4 b8 2a 90 34 bb 93 26 06 bc
       -0.0072820517 -0.000101244514 -0.0027551749 -0.008187908
000010 2e f1 e7 b8
       -0.000110598616

action_model._discrete_distribution.branches.0.weight f4 [5, 128]
000000 6c 3c dd 3b fb ee 42 3c 19 2b 4e 3c a3 34 e2 3b
       0.0067515876 0.011897798 0.0125835175 0.0069032474
000010 b9 91 fd ba ba ca 0d 3c d3 0f 2f 38 4e 50 8c 3a
       -0.0019345797 0.008654291 4.173799e-05 0.0010705085
000020 08 23 a5 3c 84 e7 44 ba 80 2b e9 ba 66 cd 73 3c
       0.020158306 -0.0007511305 -0.0017789453 0.014880514
000030 6d 4e c7 3b 93 91 65 ba b7 9f ce 3c db 0a 32 bc
       0.006082347 -0.0008757349 0.025222642 -0.010866846
000040 9c 20 d6 bc 2f e0 54 3b 47 c6 02 bd 48 5f 48 bb
       -0.026138596 0.0032482257 -0.031927373 -0.003057437
000050 d2 a7 a7 3c 9b 05 a1 bb 97 c0 82 3a 48 9f a8 3b
       0.020465765 -0.0049139983 0.0009975609 0.005145941
000060 c6 3b 60 bc a2 ca 83 bc 37 ba 60 3c 4f 39 71 ba
       -0.013686126 -0.016087834 0.013716272 -0.000920196
000070 e4 c9 85 3a 49 d7 82 bb 45 91 81 3b a4 90 22 bc
       0.0010207263 -0.003992949 0.003954085 -0.00992218
000080 5c ac 05 3d 1f 0c 83 b9 ab 02 a1 3b b2 a4 be bb
       0.032635078 -0.00024995298 0.004913648 -0.005817973
000090 72 76 18 3c 33 e9 84 bc 77 cc 1b 3c 87 ab 3c 3b
       0.009305583 -0.01622448 0.009509197 0.0028788762
0000a0 bd 7d 4e bc c3 68 41 3c ad f8 c8 3b 3f 98 1e 3c
       -0.0126032205 0.011804762 0.00613316 0.009679853
0000b0 f0 74 83 b8 d2 b7 61 bb 9e c8 88 bb 7e 03 06 bc
       -6.268348e-05 -0.003444184 -0.004174306 -0.008179544
0000c0 82 73 da 3b 52 e4 6f 3b 5c 40 11 ba 43 36 a2 3b
       0.0066666016 0.0036604595 -0.00055409013 0.004950316
0000d0 d4 43 46 bc 7f 3c 8d 3b f8 16 1c bc 14 62 3b 3c
       -0.012101132 0.00431019 -0.009526961 0.011436958
0000e0 64 ae 8f bc 8a 1e 42 3c f6 14 d5 bb f2 1b 2a bb
       -0.01753921 0.011848101 -0.006502743 -0.0025956598
0000f0 48 1d 38 39 32 01 f0 bb fe 3b 9a 39 7b 76 a8 bc
       0.00017558516 -0.0073243612 0.00029417867 -0.020564308
000100 82 1e bb ba 13 e1 1d 3c 14 4d 0e b9 18 ce 04 3c
       -0.001427606 0.009636181 -0.00013570889 0.008105777
000110 37 9c 00 3d a8 9a a3 bb a3 e0 95 bc c7 8a b4 bb
       0.031398978 -0.0049928017 -0.018295592 -0.0055097076
000120 6d a8 00 39 49 6e ab 3c a3 bc 3e ba a7 b5 f0 3a
       0.00012269775 0.020926611 -0.0007276034 0.0018364683
000130 f9 7f 9c 3b 6e 99 72 bc 6f bf 07 3c ef 6e 52 bc
       0.0047759977 -0.014807088 0.008285387 -0.012843831
000140 e7 77 a9 bc 62 e3 63 ba 22 06 44 bc 5c 30 86 3b
       -0.020687057 -0.00086932455 -0.011964353 0.0040951204
000150 5c 77 a5 ba 84 4f be bb 2d ae 36 3c 6f f8 9d 3b
       -0.0012624073 -0.005807819 0.011149925 0.0048208754
000160 71 97 ce bb f9 60 a0 bb 7d 27 25 bc 55 4a 8e 3b
       -0.0063046743 -0.0048943725 -0.0100802155 0.004342357
000170 2e 60 16 3b d6 41 d3 3a 3d ee 23 bc d1 ca fd bc
       0.002294551 0.0016117643 -0.010005531 -0.0309805
000180 a7 8a e5 bb 5e c5 8f 3c 1a ec df bb 8a f0 36 3c
       -0.007005054 0.017550167 -0.0068335654 0.011165747
000190 2b 81 0a 3c 06 f8 0f bc e6 a0 52 bc 22 91 9c 3b
       0.008453648 -0.008787161 -0.012855744 0.0047780434
0001a0 50 a1 34 3b a9 3f 13 ba 15 60 8c bc 07 56 2c 3a
       0.002756197 -0.0005617091 -0.01713566 0.00065740984
0001b0 82 b4 be 3b a9 3e c1 3b 0e f2 1a bb 56 66 0d 3b
       0.005819858 0.0058973623 -0.002364281 0.002157589
0001c0 24 19 75 bc 27 9f 86 3c 05 e4 9c ba a0 dc 2f bc
       -0.014959607 0.016433312 -0.0011969811 -0.010733753
0001d0 a1 a7 22 3c d6 ae f0 bb 79 81 ed bb 9e 43 f9 3b
       0.009927661 -0.007345061 -0.0072481004 0.0076069376
0001e0 74 b0 48 bc 32 bc 4c 3a b8 71 4b 3c 08 eb ed 3b
       -0.012249101 0.00078100257 0.012417249 0.007260684
0001f0 74 64 99 3b 78 b8 b0 bb 7a e1 0b 3c e8 4d c3 bb
       0.0046811644 -0.005393084 0.0085376445 -0.005960215
000200 94 10 10 bc a0 a9 eb bb a1 1e 3d 3b a7 15 99 3b
       -0.008793015 -0.0071918517 0.0028857368 0.0046717706
000210 c7 eb 87 bc ad 5f 14 3c 53 8e 75 ba 63 aa 08 bc
       -0.01659192 0.009056014 -0.0009367216 -0.008341405
000220 10 4d 2f 3c 7e 64 3b bc 2a 91 47 3c e2 a3 84 3c
       0.0106995255 -0.011437533 0.012180606 0.016191427
000230 21 3d 46 3c 1f 53 77 bb b7 26 fe 3c 81 4e d8 bb
       0.012099535 -0.0037738753 0.03102432 -0.0066011553
000240 67 4b 30 3b 4f 6a 3c 3c ff 59 cd bc 65 81 93 bc
       0.0026900412 0.011499955 -0.025067328 -0.018006036
000250 2d 8e 89 b9 3e 90 c9 3b 57 d5 01 bc 9e 6a 47 3b
       -0.00026236605 0.006151228 -0.007924399 0.003042854
000260 5d 53 c2 bc 0d 79 48 3c 0e 98 97 ba cb b3 17 bc
       -0.023721391 0.012235892 -0.0011565702 -0.009259175
000270 15 49 bb bb 6a 21 01 ba c9 7e 28 bd 7f 67 c1 bb
       -0.005715499 -0.00049259386 -0.041136537 -0.0059022303
000280 86 fa c2 3c 32 20 c3 3b 48 5c 41 bc b1 7c 48 bc
       0.0238011 0.0059547657 -0.011801787 -0.01223676
000290 a5 fd 4a 3c 9e 05 8e 3c 39 a9 24 3b 91 57 9a 3c
       0.012389575 0.017336663 0.0025125279 0.018840583
0002a0 31 62 3d bb 51 12 67 bb c8 0c 4c 3c c9 39 33 3c
       -0.0028897638 -0.003525872 0.012454219 0.01093907
0002b0 f2 e3 56 3c 4c 55 e2 3a c9 78 d8 bc f3 6d 87 3b
       0.01311587 0.0017267852 -0.026424782 0.00413298
0002c0 bc e8 26 bc 82 d3 23 bd e6 2f cd bc 2b d5 14 bd
       -0.010187324 -0.03999663 -0.025047254 -0.036336105
0002d0 d9 8d 40 bb b0 3b ba bb ad 0f b9 bc 88 9d b1 3c
       -0.0029381423 -0.005683385 -0.022590483 0.021681562
0002e0 02 15 1a 3b 6f 15 3c 3c 97 3a c9 bc 88 3e 80 bc
       0.0023511057 0.01147972 -0.02456407 -0.015654817
0002f0 78 8d 08 3d 22 78 1f bc ca 52 47 3b 1a 0a 73 3a
       0.03333804 -0.009733232 0.0030414336 0.00092712196
000300 c9 54 44 bc 7d 91 b7 bc ce ed b0 3b 35 3b 8e bc
       -0.011983105 -0.022408241 0.0053994423 -0.017362216
000310 59 f0 24 3c a0 ee f2 ba 5b 1e 56 bc 58 64 28 bd
       0.010067069 -0.001853425 -0.013068761 -0.04111132
000320 16 fa df 3a b1 8d 66 3b a1 c5 16 bd 51 72 a1 bc
       0.0017088081 0.003517967 -0.036809567 -0.01970783
000330 2a ae 35 3c b3 62 a6 b9 b2 ba 55 ba 5d d4 d6 3b
       0.011088887 -0.00031735524 -0.0008153125 0.0065560774
000340 de e1 44 3c 1c 49 df 3b 2a af 0a bc 3e d5 65 3c
       0.012016742 0.0068141352 -0.008464614 0.014027892
000350 e0 1b 12 bc 29 ac c8 3b 88 45 66 bc f2 99 0b 3b
       -0.008917779 0.0061240387 -0.0140546635 0.0021301475
000360 40 16 66 3c fe fe b7 3b 14 00 d6 bc 13 ae b8 3b
       0.014043391 0.0056151142 -0.026123084 0.0056359856
000370 bd 47 ad bc 29 96 3f bc e6 05 fd bc 00 3c 07 bb
       -0.021152372 -0.011693516 -0.030886602 -0.0020635128
000380 b8 eb 87 bc 60 d6 c1 bb 92 f2 a1 bb 73 4b c1 3b
       -0.016591892 -0.005915448 -0.0049422467 0.005898887
000390 3e 88 fa 3c a1 f4 03 bc 0a ff 20 bc 89 40 56 3a
       0.030582543 -0.00805393 -0.009826431 0.00081730686
0003a0 e0 c3 3f bc f4 65 d1 3b 1d 7a 2c bc 3b 61 80 3a
       -0.011704415 0.0063903276 -0.010527161 0.0009794602
0003b0 3c 3e 8b bc 37 43 cf bc 83 fb 07 bb 44 58 fa bb
       -0.01699745 -0.025300605 -0.0020749278 -0.0076399166
0003c0 1c 74 4e bc 28 d8 93 3c da ad 7c 3c d7 bd db bc
       -0.012600925 0.018047407 0.015422309 -0.026823921
0003d0 ea a0 54 3c 35 7c 45 bc 74 06 4e 3c 19 ab 2f 3c
       0.012977818 -0.012053539 0.012574781 0.010721945
0003e0 6d 33 05 3b 53 d6 7b 3b a8 7b 40 3d e5 9a 51 3b
       0.0020324842 0.0038427308 0.046992928 0.0031983193
0003f0 8c d1 06 3d 7b ea 14 3c 4a da 88 3c b3 34 fb 3c
       0.032914683 0.009089108 0.01670565 0.030664777

action_model._discrete_distribution.branches.0.bias f4 [5]
000000 15 b0 50 3c b4 01 93 3c 80 30 ad 3c e3 8d a3 3c
       0.012737294 0.017945148 0.02114129 0.019965118
000010 39 ad 28 bd
       -0.041180823
