results/FasterTank/Tank/Tank-28777.onnx (onnx, 136158 bytes, 9 tensors)

network_body._body_endoder.seq_layers.0.weight f4 [128, 112]
000000 c1 1c 4f 3d 64 ad b9 3d a8 90 7e bd fd e2 e7 3d
       0.05056453 0.09066275 -0.062149674 0.113225915
000010 1a b6 fe 3d 97 7b 49 3d b2 76 69 3d 4c fa e1 3c
       0.12437077 0.04919013 0.056997962 0.027585171
000020 91 66 8b bd ae d3 f6 bd a3 e9 87 bd 6f fe 51 bc
       -0.06806672 -0.120520934 -0.066363595 -0.012817009
000030 fa df 06 3e e9 82 c9 ba 5c d7 4a be 36 57 73 3c
       0.13171378 -0.0015374097 -0.19808716 0.014852336
000040 0c 50 d7 bc 92 c8 0e be 87 ce 82 3d 41 06 a0 3d
       -0.026283287 -0.13943699 0.06387048 0.07813693
000050 ee 92 15 3e cc a3 df 3c de af a9 3c 7e 51 d1 bc
       0.1460683 0.027299784 0.020713743 -0.025551554
000060 df b9 5e 3e 07 fb 39 3d 62 11 03 3e ee af b3 3d
       0.21750592 0.045405414 0.127996 0.0877379
000070 17 64 88 bd 45 c7 74 3d 48 b5 27 3e 8d 1a 8b 3b
       -0.066597156 0.05976035 0.16377747 0.0042451085
000080 5d cb 4b 3e 0f 33 77 bd d2 67 95 bd f5 56 56 bd
       0.19901796 -0.060351428 -0.07295193 -0.052329022
000090 8d 62 9d 3d fc 78 09 3d c1 36 1a 3d eb 49 03 be
       0.07684813 0.033562645 0.037649874 -0.12821166
0000a0 ae 17 3f 3e 79 2b 10 3d 1a 99 d8 3d 39 00 98 bd
       0.18661377 0.03519771 0.10576077 -0.074219175
0000b0 d1 64 51 bd f4 2b f8 3d 84 82 2b 3e e9 3d 0b bd
       -0.051121537 0.121177584 0.16749007 -0.03399459
0000c0 ec 13 5e 3c 84 38 b7 3d e1 1c 36 3d 19 a3 1a be
       0.013554554 0.089463264 0.044461135 -0.1510128
0000d0 4f 50 f0 bd 13 2a 56 be cd f8 99 bc a4 86 44 3d
       -0.11734068 -0.20914488 -0.018795395 0.047979966
0000e0 11 ed 47 3d 9f f8 36 bd 96 cf c2 bd 31 b3 bf bb
       0.04881007 -0.044670697 -0.0951225 -0.0058502187
0000f0 dd 08 25 3e 67 bb 1a bd 22 6c 9a 3d 9d f4 09 3e
       0.16116662 -0.037776377 0.07540156 0.13472219
000100 57 53 8b 3b 07 35 e3 bc 4f 26 33 be 7c 05 93 3c
       0.0042518782 -0.027735246 -0.17495082 0.017946951
000110 d1 ac b3 3d 54 a6 db 3d d9 9d 13 bd 00 ed a5 3b
       0.087731965 0.10725084 -0.036039207 0.005063653
000120 c4 85 28 3c 28 64 77 3d 3f 2a 4e bd 94 cc a5 bd
       0.010285798 0.06039825 -0.050333258 -0.08095661
000130 1f e7 85 bd 85 d2 4d 3e bb 54 ba bd 2b 82 5f 3d
       -0.065382235 0.20099838 -0.09098192 0.054567497
000140 27 ba 48 bd bc 65 f9 bc 8a f7 0d be 7e a9 0b bd
       -0.049005654 -0.030444019 -0.1386396 -0.034097187
000150 1c e7 ac 3d 98 95 ad 3d 85 a9 ae 3d e2 33 da bc
       0.08442518 0.08475798 0.08528427 -0.026636068
000160 be ed 92 3d 42 b0 21 bd 2b 71 98 bd 54 8b dc bd
       0.07174252 -0.039474733 -0.0744346 -0.10768762
000170 df f6 f3 bd c3 c5 21 be c9 43 99 bd 5d f1 60 bd
       -0.11912321 -0.15798096 -0.07483632 -0.054917682
000180 15 e0 24 bd f0 2e 47 3e 40 0c cd bd 45 d6 2d 3d
       -0.040252764 0.19451499 -0.10012102 0.04244067
000190 33 52 f9 bc 72 8c ed 3d fc 0c 20 bd 89 24 37 bc
       -0.030434703 0.115990534 -0.039074883 -0.011178144
0001a0 08 68 ac bd f9 e6 b7 3d 81 05 04 3c d9 90 d6 3d
       -0.0841828 0.089796014 0.008057953 0.10476846
0001b0 2d 42 00 bd 4d 55 34 be 57 1a 24 be 57 4f fa 3d
       -0.03131311 -0.17610665 -0.16025673 0.12222164
0001c0 11 23 00 be c2 87 b8 bb b9 4f df 3d d0 dd a2 3d
       -0.12513377 -0.005631418 0.10903878 0.079524636
0001d0 c1 46 86 bd b2 6d 41 3d 44 91 c1 bd 76 21 c2 bc
       -0.06556464 0.047223754 -0.09451535 -0.023697596
0001e0 c4 86 ef ba d8 35 7a 3d a8 65 c2 bd b2 aa d4 bd
       -0.0018274416 0.061086506 -0.09492046 -0.1038412
0001f0 7e 6a 8d b9 e4 67 a0 3d 4f 79 38 3d ed 8b 5d bd
       -0.0002697296 0.078323156 0.045037564 -0.05408852
000200 95 58 9a 3d aa 22 6a 3d 25 46 75 bd 93 72 96 bd
       0.07536427 0.057161964 -0.05988135 -0.07346072
000210 7a bb 2a bc a3 33 d2 bd f5 54 95 3b 66 13 17 bc
       -0.010420674 -0.10263755 0.004557247 -0.009220934
000220 0d c7 f0 3b f5 0a 16 3d 51 97 12 bc df fa 0a be
       0.0073479475 0.036631543 -0.008947209 -0.13572262
000230 69 ad 33 bd a9 74 98 3c 3a 90 49 bd e7 4b 85 bd
       -0.04386655 0.018610315 -0.04920981 -0.06508618
000240 be 81 b0 bc 42 ee 10 3e 67 a5 03 3c 59 f1 12 3e
       -0.02154624 0.14153388 0.00803504 0.1434988
000250 17 58 9d 3b a3 33 3f 3d 77 10 dc bc 55 25 89 3d
       0.004801761 0.046680104 -0.02686332 0.06696574
000260 ee 2b a3 bd 32 4a 8a bc 61 ec fe 3d e9 92 3d 3c
       -0.07967363 -0.016881082 0.124474294 0.011570671
000270 8a 67 d0 3c af 98 1c 3d 91 c9 d4 3b 92 a6 27 3c
       0.025439996 0.038231548 0.006493755 0.010232585
000280 57 83 1d be 7b 34 d6 3c 7e 62 a9 bd 74 d3 f4 bd
       -0.15382133 0.026148072 -0.08270739 -0.11954394
000290 ac c5 ca 3c b7 2a 41 3d 2e 8e 4a bc ba 18 81 3c
       0.02475246 0.047159877 -0.012363 0.01575886
0002a0 b7 74 30 be 36 98 ee 3d 03 fd 16 bd 09 6c 4a 3c
       -0.17232023 0.11650126 -0.036862385 0.012354859
0002b0 ae ea 9b bd 07 33 48 3e e0 8d 0f bd 6d 1a 3e 3e
       -0.07613121 0.19550715 -0.035047412 0.18564768
0002c0 f2 9b 28 3d 8a 0c 83 bc 22 cc b7 bd fa 86 bf bd
       0.041164346 -0.01599719 -0.08974482 -0.093519166
0002d0 a7 5f 06 bd 49 07 9f bd d2 4e 3d 3d 45 1e dd bd
       -0.032806065 -0.077650614 0.046217747 -0.10796789
0002e0 21 6a ea bb 4e ac 62 bc 56 a2 19 3e 88 ba 1d 3d
       -0.007153765 -0.013835026 0.15003332 0.03850797
0002f0 e5 75 e6 3c 1f 08 87 3c 7e 95 d2 3d 25 f5 af 3d
       0.028132388 0.016483365 0.102824196 0.085916795
000300 9f 66 52 bc bc 6c 52 be 1b 44 3c bd ed 5c bc 3d
       -0.01284185 -0.20549291 -0.045963388 0.09197412
000310 ad 20 a1 bd 9c 1d d7 bc 31 1a 45 3d fb 7f 13 bd
       -0.078675605 -0.026259236 0.04812068 -0.036010724
000320 4e 92 7e 3e f1 50 4f bd 1d 86 dd bd 50 62 54 3d
       0.24860498 -0.0506143 -0.10816596 0.05185157
000330 09 7e df bd b6 98 2c 3e fc aa 33 3d 20 4f d7 bc
       -0.10912711 0.1685513 0.043864235 -0.026282847
000340 b3 3e 45 bd ce 2c 86 3d 8b 5a ed bb 58 e5 02 be
       -0.048155498 0.065515146 -0.0072434596 -0.127828
000350 68 b8 13 3d 5c d7 55 3e 23 1e 58 bd 62 47 0f 3e
       0.036064535 0.20882934 -0.052763116 0.13992074
000360 9d 96 23 be 5f ca cc bc df 5e 29 3e 48 ec 04 3e
       -0.15975423 -0.024998842 0.16540097 0.12980759
000370 27 af 0e be 3c 1e fb bd 11 60 b7 bd 8c 9a 2a 3e
       -0.13934003 -0.12261626 -0.0895387 0.16660517
000380 c3 b0 d5 bc af e8 19 3e 38 df 40 bd ca bf 96 3d
       -0.026085263 0.15030168 -0.047087878 0.073607996
000390 d9 bd 1c be 7f e1 5d bd c5 28 1c be 75 12 d3 bd
       -0.15306796 -0.054170128 -0.15249927 -0.10306255
0003a0 f4 03 8b 3b a1 08 5b 3d 70 05 9f bc 98 c5 8e 3d
       0.0042424146 0.053475026 -0.019411772 0.06971282
0003b0 0e 2e db 3d 73 b2 63 3e 5e 0e b3 bd 87 4b 2a 3b
       0.107021436 0.22236042 -0.08742975 0.002598496
0003c0 2c bc d6 3d c2 d1 aa bd 8d 29 07 3d 30 b5 34 3e
       0.1048511 -0.083407894 0.03299861 0.17647243
0003d0 18 1d 98 bd f4 8b e2 3c 90 e3 4c be d3 4a 4b 3d
       -0.07427424 0.027654625 -0.20008683 0.049631905
0003e0 98 81 6c bc 07 ac 20 be 23 00 c0 bc 2d 6a 2a be
       -0.014435194 -0.15690623 -0.023437565 -0.16642065
0003f0 be 7b 15 bd c5 d9 65 3c fc da d8 3c 7c 9b 80 3d
       -0.036494963 0.014028971 0.026471607 0.06279656

network_body._body_endoder.seq_layers.0.bias f4 [128]
000000 6f 3e 0c 3a 64 d6 03 bb af 7c 61 b9 bc 3f dd 3a
       0.00053498795 -0.00201168 -0.0002150412 0.0016879956
000010 7b ff 07 bb 9b 53 42 ba a4 53 97 bb 87 84 b1 bb
       -0.0020751643 -0.0007412971 -0.004618125 -0.00541741
000020 70 3a 47 bb 8b 3f 45 3b 9f 4d 95 3a 30 5e 1e 39
       -0.0030399822 0.003009769 0.0011390931 0.00015103142
000030 37 d2 37 bb 62 7b 75 bb f9 77 e3 3b 13 b6 4f b9
       -0.0028048882 -0.0037457575 0.006941792 -0.00019808886
000040 40 39 3d b9 26 ab 91 3b c1 29 05 39 9d e8 36 ba
       -0.00018045772 0.0044454513 0.00012699423 -0.0006977411
000050 1f d8 9e bb 00 6b 13 bb ea 31 12 3b 10 69 44 ba
       -0.004847541 -0.0022494197 0.0022307583 -0.0007492462
000060 08 84 b4 bb 83 a8 cb 3a c1 0f a3 3a 7d 9b 31 bb
       -0.0055089034 0.0015537891 0.0012440608 -0.0027100735
000070 8e ca cb 3a a7 49 10 3b e7 3a 07 3b 6a 23 5b bb
       0.0015548037 0.0022016556 0.0020634474 -0.0033437856
000080 62 cf 6c ba 6a 88 48 3b 57 31 b4 ba 10 9d c4 bb
       -0.0009033588 0.0030598887 -0.0013747615 -0.0060001686
000090 5e 1f b3 3a ad b1 33 b9 e6 c8 cd 3b bc 87 ee 3a
       0.0013665964 -0.0001713696 0.0062800525 0.0018198411
0000a0 cc d0 a7 3a b1 76 b9 38 6c 24 36 3a 67 f7 0d 3a
       0.0012803315 8.8435954e-05 0.00069481763 0.0005415589
0000b0 52 5d 05 3b 08 4f da ba cf 7f 0a bb 85 5d 08 bb
       0.0020349813 -0.0016655633 -0.0021133309 -0.0020807695
0000c0 2e d7 82 b9 14 e5 93 3a c7 45 07 3b d4 d9 84 39
       -0.00024955854 0.001128348 0.0020640956 0.00025339297
0000d0 27 70 06 3b 8b be 4b 3b 68 6e 0f bb 73 4d 83 b9
       0.0020513625 0.0031088914 -0.0021885876 -0.0002504397
0000e0 55 cd 43 3b b6 79 02 bb 8d 01 d0 ba d7 f4 74 bb
       0.0029877026 -0.001990897 -0.0015869603 -0.0037377381
0000f0 a9 84 0e 3b 16 be 3a ba a3 21 75 3b d7 f8 9c 3a
       0.0021746552 -0.0007123662 0.0037404082 0.0011976016
000100 c5 ea 15 3a ee 7f cb 3b 0b 70 0e 3a 39 35 21 3b
       0.00057188823 0.0062103188 0.0005433566 0.0024598374
000110 1a fe 6c 3a 05 ce 39 3a ef 38 63 bb 75 e6 89 ba
       0.00090405496 0.0007087889 -0.0034671386 -0.0010520952
000120 74 9c 87 ba 97 f9 45 bb 59 af 44 bb 1c ec e0 3a
       -0.0010346309 -0.0030208582 -0.0030011742 0.001716021
000130 ae 03 8a bb ef 8e 0f 3a 89 ea 8b bb 23 4d d2 3a
       -0.0042118644 0.0005476316 -0.004269902 0.0016044717
000140 91 36 17 ba 32 1b 57 3b f1 ca b0 ba 57 e1 2c 3b
       -0.0005768324 0.0032822606 -0.0013488216 0.002637943
000150 7c 60 c4 39 76 af ec 3b 88 5d 9a 3a da 11 55 ba
       0.0003745592 0.007223065 0.0011777142 -0.0008127965
000160 a6 e7 13 bb 7d 2d 31 bb 05 af 82 bb d9 80 0a bb
       -0.0022568493 -0.002703517 -0.003988149 -0.0021133928
000170 78 36 89 bb 07 3a 6d 3b 12 c0 dd 3b d2 31 62 bb
       -0.0041874014 0.0036197917 0.0067672813 -0.0034514559
000180 61 4e af ba d7 47 9a bb f1 a5 9b bb 1c 57 b6 3a
       -0.0013374799 -0.004708271 -0.0047500064 0.0013911459
000190 2c f5 04 3c 0f 0a e7 b9 38 0d 00 3b 07 7b 23 bb
       0.008115094 -0.00044067248 0.001953913 -0.0024945156
0001a0 ed fc c6 39 37 1e 32 3b 92 6f b2 3a d3 5b 0b 3c
       0.00037953947 0.0027178654 0.0013613573 0.008505779
0001b0 6d f8 9c b9 64 5b 18 bb 87 55 c9 39 c7 68 ac ba
       -0.0002993973 -0.0023247832 0.0003840143 -0.0013153785
0001c0 41 62 3f b9 38 5a 0f ba 37 75 0d 39 78 c5 f5 ba
       -0.00018251782 -0.0005468461 0.00013490474 -0.0018750867
0001d0 3e 32 bc 3a 76 74 fd 3a a6 a7 19 bb fe ec 1f 3b
       0.0014358235 0.0019337076 -0.0023445874 0.0024402733
0001e0 9b 03 19 3b dc 3a a0 ba bc d2 a5 b9 c6 1d 19 3b
       0.0023348096 -0.0012224573 -0.00031628262 0.0023363694
0001f0 6b e7 85 bb ca fd c3 b9 08 9a 79 ba da 6b 5f ba
       -0.004086425 -0.00037382386 -0.00095215486 -0.0008522846

network_body._body_endoder.seq_layers.2.weight f4 [128, 128]
000000 9e c2 4e 3e 8b ad 90 bc 53 ce 8a bd b7 2d 57 bd
       0.20191428 -0.017660877 -0.067776345 -0.05253383
000010 d8 20 29 3e 00 fa 05 bd 18 7a e6 3d e7 7d f6 3c
       0.16516435 -0.03270912 0.11253756 0.030089332
000020 b8 28 86 3d 41 3d a9 3d c6 66 c6 3b b6 9a 31 3a
       0.06550735 0.082636364 0.006054732 0.0006775068
000030 fe 23 13 bd f4 62 18 3e ff f5 f8 3c 99 5f 13 3e
       -0.035922997 0.14881498 0.030390738 0.14391936
000040 d8 e4 0c 3d b4 0d 80 bd f9 f3 42 3e 37 d8 7f bd
       0.03439793 -0.06252614 0.1903838 -0.062462058
000050 ef 20 04 bc 65 6b 1b 3d 47 43 39 3c 36 bc 26 ba
       -0.008064493 0.037944216 0.011307544 -0.0006360443
000060 03 8e 0c 3d 38 1d f8 3d 3d 7d fe 3d 04 76 0d 3d
       0.03431512 0.12114948 0.12426231 0.034536377
000070 69 e0 58 be 3d 5c 5d 3c f7 db 80 3d 68 f3 72 3d
       -0.21179356 0.013510761 0.06291955 0.05931416
000080 0a d4 e9 ba 08 32 80 bd aa 11 a8 3b 1f 66 38 bd
       -0.0017839682 -0.06259543 0.005129059 -0.045019265
000090 c0 fd 64 bb 8c 09 86 3d e4 1b 41 bd 64 3f 12 bb
       -0.0034941286 0.0654479 -0.04714574 -0.0022315616
0000a0 d1 e3 1a bd 7e 3d 82 bd d7 61 b4 bd 57 ce e8 bc
       -0.03781492 -0.06359385 -0.08807724 -0.028418703
0000b0 8d 45 c7 3c 95 5d 52 bc 85 f1 e6 bd 03 63 bc 3d
       0.024325157 -0.0128396945 -0.11276535 0.091985725
0000c0 64 e9 8b bb 17 a9 ef bd 47 b5 0e be 27 7e 36 3d
       -0.0042697657 -0.11702173 -0.1393634 0.044553902
0000d0 ff c7 23 3d b4 4e c3 3d 94 ad 42 3d 88 00 9f bd
       0.039985653 0.09536496 0.04752882 -0.07763773
0000e0 f9 3c 87 bd 46 e3 03 3e c3 1c 0a 3d 0f e4 9a 3c
       -0.066034265 0.12879667 0.033718836 0.018907575
0000f0 23 2c b2 bc 25 87 91 3d a9 36 21 3d ed 81 02 be
       -0.021749562 0.07105855 0.03935877 -0.12744875
000100 09 72 a7 3d 55 9d e4 bd 01 81 56 bd cc 0e 41 3d
       0.08176047 -0.11162821 -0.05236912 0.047133252
000110 17 68 2b be 79 89 7e 3d dd 5e b4 bd 77 da dd 3d
       -0.16738926 0.062142823 -0.08807156 0.108326845
000120 30 f6 96 bd c4 9e 46 3d a1 b6 4e bd 5b 62 71 3d
       -0.07371175 0.048491254 -0.050467137 0.05893169
000130 dc 99 1a 3d 1c fb 83 bd 1d 8d 1c 3e 9e 9d 25 3e
       0.037744388 -0.0644438 0.15288205 0.16173407
000140 0d f5 60 3d e5 61 bd 38 e2 be ad bd 6d bc 52 3d
       0.0549212 9.0304566e-05 -0.08483674 0.051449228
000150 14 e2 67 bd 42 42 e1 bd 47 d0 0d be 6f 2b 8d bd
       -0.05661209 -0.10998966 -0.13848983 -0.0689305
000160 72 77 2c be 24 87 f1 3d 52 c9 9c 3c 97 9d 3f bd
       -0.1684244 0.11793354 0.019138966 -0.04678115
000170 04 ea b1 bd f9 a7 13 3d 9e 02 84 bc a8 19 40 be
       -0.08687213 0.036048863 -0.01611453 -0.18759787
000180 a9 e8 92 3c 58 5a 2e bd 7c ef fd bc c5 c6 57 3d
       0.017933207 -0.042566627 -0.030997984 0.052679796
000190 58 df a4 3d 37 1c ad 3d 81 1e 4a bc 57 30 a1 bc
       0.08050412 0.08452647 -0.012336374 -0.01967637
0001a0 82 ea e2 bd 37 d4 04 bd a5 fd c7 bd a5 4f 95 bd
       -0.11079885 -0.032428946 -0.09765176 -0.072905816
0001b0 77 d7 00 bd 54 7e 5b bc 26 d0 05 bd 0d 16 95 3d
       -0.031455483 -0.013396818 -0.03266921 0.072795965
0001c0 e2 69 8f bd 74 cc 88 3d e2 99 89 3d 70 0e 8c bc
       -0.070026174 0.06679621 0.06718804 -0.017096728
0001d0 21 41 bb bd f1 13 be 3d 39 ea 91 bd 4b f2 c1 3b
       -0.09143282 0.09281147 -0.071247526 0.005918776
0001e0 be 28 f8 3d 09 b0 2e 3e 54 df ea 3d d1 53 b0 3d
       0.12117146 0.1705934 0.11468378 0.08609737
0001f0 54 d3 81 3d 5c f8 c2 bd e6 65 02 3e dd 14 01 3d
       0.06339136 -0.09520027 0.12734184 0.031514037
000200 fb 87 1e bd ec a4 8f bd 81 9c 78 bc 71 fb 99 3b
       -0.0387039 -0.07013878 -0.015174032 0.0046991636
000210 b8 8f 7f 3d 80 63 49 3d dd 6b 23 be e1 ff 1a 3d
       0.06239292 0.049167156 -0.15959115 0.03784168
000220 a5 c6 a9 bc 10 84 ab 3c b3 50 8f 3c 15 6c 73 bd
       -0.020724604 0.020936996 0.017494535 -0.059429247
000230 1d df 69 bc df 99 1f bd 70 68 81 bc ff c9 83 3d
       -0.014274386 -0.038965102 -0.01579687 0.06435012
000240 5b 54 86 3d df f7 0b 3c 2c d0 8a 3d e9 ba 1f bd
       0.06559058 0.008542984 0.06777987 -0.03899661
000250 b1 21 e1 bd 3a f4 0e bd 13 60 b7 3d f6 24 29 be
       -0.10992754 -0.03490088 0.089538716 -0.16518006
000260 a6 54 93 bd d2 d6 ef bd d5 52 15 bd 25 99 ef 3d
       -0.0719388 -0.117108956 -0.036455948 0.11699132
000270 68 58 19 bb 68 e6 94 b7 49 f6 94 bd aa f4 33 bd
       -0.0023398641 -1.7750266e-05 -0.07273538 -0.0439345
000280 6c c3 5e bd ff 6c 3e 3b 47 c9 4c 3d d4 1b 83 3c
       -0.054385588 0.0029056666 0.04999664 0.01600448
000290 a5 5a 87 3d c1 ba 24 3c a1 08 cc b9 8f 82 25 3d
       0.06609086 0.010054291 -0.0003891634 0.040407714
0002a0 c3 aa 0a be 4f c8 23 be 2f 00 f6 bd 35 a8 3b bb
       -0.13541703 -0.1599438 -0.12011754 -0.0028634195
0002b0 4b 29 06 be 75 61 01 3d b0 8c 1c 3e 6c 87 f0 bc
       -0.1310169 0.031587083 0.15288043 -0.02936145
0002c0 c2 d3 9f 3d 10 18 87 3c ab 57 92 3d 56 1c ee 3b
       0.078040615 0.016490966 0.071456276 0.0072665615
0002d0 79 d6 44 3d c8 1d 3a 3d cf bb ef bd af d2 96 3c
       0.0480561 0.045438558 -0.117057435 0.018411009
0002e0 b8 2d 93 bd b4 2d b3 bd f3 04 eb bb f1 6f 5f be
       -0.071864545 -0.087489516 -0.007172221 -0.21820046
0002f0 71 e8 ab 3c bd 0c 96 3d 46 3c a7 3d 6b 2e b0 bd
       0.02098486 0.073266484 0.08165793 -0.086026035
000300 28 f8 3d 3e 76 08 ca 3c ce 4c f5 3b 55 da 0f be
       0.18551695 0.024662238 0.0074859625 -0.14048131
000310 80 04 fe bd 68 c1 4a 3e 4c 40 4e bc 61 c1 e5 3d
       -0.12403202 0.19800341 -0.012588572 0.11218525
000320 3c f1 a3 bb 03 b4 03 be 4c a8 6d bd ba b6 99 3d
       -0.0050031226 -0.12861638 -0.05802183 0.075055555
000330 d4 c4 17 bb 26 e6 5e bc b6 0f 9e 3d 55 83 2b bd
       -0.002315809 -0.013604676 0.077178404 -0.041873295
000340 ef df 6d 3d ce e8 ee 3c c3 3e 92 bc d5 98 d3 3c
       0.058074888 0.029163744 -0.017852193 0.025829712
000350 cf 06 2a 3e 1c db 87 3d 40 b7 da 3b bd 84 6f bd
       0.1660416 0.06633589 0.006674677 -0.0584762
000360 a7 07 bd bc 43 3d 5b bd 44 f3 32 bd 7b b0 98 3d
       -0.023074938 -0.05352522 -0.043689027 0.07455536
000370 df b0 1f 3b 2d aa 03 3e 44 9d 34 3e 8b d4 30 bb
       0.0024366898 0.12857886 0.17638117 -0.0026982154
000380 de 60 8e bd 85 2f 0d 3d 51 85 6f bd 7c f0 1a be
       -0.0695207 0.034469146 -0.05847675 -0.151308
000390 13 94 ef 3c b0 ca 62 3e 7e e7 22 3d 03 07 d5 bb
       0.029245412 0.22147632 0.03977155 -0.00650108
0003a0 c9 66 93 3d db 12 56 bd 8b 88 eb 3d 16 0f c9 39
       0.07197339 -0.052264076 0.11500653 0.00038348947
0003b0 39 8f f9 3d f4 b6 f2 bd 86 d8 1f bc 2f 50 86 bc
       0.12185521 -0.11851302 -0.009756213 -0.016395656
0003c0 a2 f6 63 3d 65 56 85 3d 32 07 d5 ba 7e c7 a0 3d
       0.05565513 0.06510619 -0.0016252755 0.0785055
0003d0 50 8f 5f bd 77 2a 23 bc 2d 7c f4 3c 38 38 30 3c
       -0.054580033 -0.009958855 0.029844368 0.010755591
0003e0 c8 6e 0f 3e 08 90 f7 3c 8e a1 a1 bc dc 8b 0b 3e
       0.14007103 0.030220047 -0.019730356 0.13627571
0003f0 e6 e5 20 3d ba 69 d4 bc 0b e6 6c 3c 6f bc 17 3d
       0.03928175 -0.02592932 0.014459143 0.03704494

network_body._body_endoder.seq_layers.2.bias f4 [128]
000000 39 b1 a9 ba f8 a7 f4 3b ee 62 ae 39 df 6a 5d 3b
       -0.0012946493 0.0074663125 0.00033261575 0.0033785624
000010 6c e2 0e bb e4 d0 07 bb b6 fc 27 3b 4f c0 f3 ba
       -0.0021802438 -0.0020723874 0.0025632805 -0.0018596741
000020 85 0d a8 3b af ed 3d 3c ea a1 90 bb 87 d5 1c 3c
       0.005128565 0.011592313 -0.004413833 0.009572393
000030 44 e1 1d bc 61 6f 17 3b 1d 36 6c bb cb 86 f0 ba
       -0.009636227 0.0023107158 -0.0036042996 -0.0018350718
000040 0c 55 42 ba 74 90 87 ba 7b 50 a7 bb 31 af 13 3c
       -0.00074131857 -0.0010342733 -0.0051060296 0.009013937
000050 66 2e 54 ba 3e d0 1a 3b e4 77 a5 3b 5c 0f 38 bb
       -0.0008094072 0.0023622657 0.0050496925 -0.0028085327
000060 86 f6 ca ba 7e 9e a3 3b 83 93 c7 bb f9 ab 85 bb
       -0.0015484847 0.004993259 -0.006090583 -0.0040793386
000070 86 c7 73 ba e2 22 cc 3b 20 5a 82 b8 b5 26 85 3b
       -0.00092994457 0.0062297443 -6.21567e-05 0.004063452
000080 4d 30 a5 3a 6b 9f 06 bc 36 ff 07 3b 3f 08 d7 bb
       0.0012602896 -0.008216719 0.0020751483 -0.0065622623
000090 6d 7f 56 bb 93 ae 12 bc c5 c6 89 b9 02 9a 67 bc
       -0.003272976 -0.008952755 -0.0002627877 -0.014135839
0000a0 20 35 fa 3b 68 53 79 bb 48 b8 82 39 e7 b0 7a ba
       0.0076357275 -0.0038044099 0.00024932832 -0.00095631037
0000b0 2b 3a cc bb 61 59 58 bb 4a 2d 67 bb ff 65 2b 3a
       -0.00623252 -0.0033012258 -0.0035274797 0.0006538331
0000c0 6a 8e fd 3b 33 70 32 bb 2d 6e 10 3c 45 79 2e 3b
       0.0077379243 -0.002722752 0.00881533 0.0026622575
0000d0 24 d8 74 ba fb d6 7d 3a 86 1f 3c ba 2c cc ed bb
       -0.0009340069 0.00096832187 -0.0007176328 -0.007257005
0000e0 b1 ff 20 bb 86 de 39 3b 26 b9 77 ba 76 b8 ee b9
       -0.0024566466 0.0028361394 -0.00094498915 -0.00045532332
0000f0 2c 87 a5 bb d1 8c f4 ba a3 9a 2e bb f4 4c 8d 3a
       -0.005051514 -0.0018657689 -0.0026642464 0.001078038
000100 97 b9 ff ba 28 8f c4 bb 88 7b 9c 3a 9a 95 a0 bb
       -0.0019510266 -0.005998511 0.0011938671 -0.0049006464
000110 99 65 f3 3a f7 43 d2 3b 91 57 05 3b 50 7b 0f bb
       0.0018569707 0.0064167934 0.0020346383 -0.0021893568
000120 86 e7 0f bb 89 c3 59 39 2a 6c e4 3b a9 53 e3 ba
       -0.0021958067 0.00020767575 0.006970902 -0.0017343658
000130 86 41 a6 3b c7 cb 5b bb d2 76 93 3b 20 9e d8 ba
       0.005073729 -0.0033538209 0.0045002485 -0.0016526617
000140 58 83 67 bb 1a 3d fe ba ca 31 97 b9 6a db 01 3c
       -0.003532609 -0.0019396872 -0.0002883806 0.007925848
000150 55 9e 07 bc d1 3c a9 3a e5 8d d4 bb 89 ef c7 3a
       -0.008277495 0.0012911801 -0.0064866417 0.0015253882
000160 66 7a e9 bb 4a 12 83 3b dc 60 9c b9 47 7b 87 bb
       -0.0071251867 0.003999983 -0.00029826805 -0.004134569
000170 88 87 89 b9 2f 6d 4a 3c 82 5b c4 3a a6 a4 d2 b9
       -0.00026231655 0.012355133 0.0014980885 -0.00040176994
000180 6a 0a 29 bb 03 d5 a9 3a 2b 06 8e bb 5b 33 6d bb
       -0.002579356 0.0012957159 -0.0043342314 -0.003619394
000190 6b 2b a4 3b 84 72 1e bb c0 be 65 3a 96 73 62 3b
       0.0050100586 -0.0024177143 0.00087640807 0.0034553758
0001a0 9a 45 26 39 10 bd 88 b9 dd 5e b3 b9 90 b2 3f 3b
       0.00015856922 -0.00026080804 -0.0003421222 0.0029250719
0001b0 c2 2c 31 bb bc 22 68 38 77 85 dc 3a ed 81 83 ba
       -0.0027034734 5.534546e-05 0.0016824444 -0.0010033228
0001c0 e5 61 a0 39 d6 fd 09 bc e9 b1 ee bb 1d 68 e5 b9
       0.00030590515 -0.008422336 -0.007284392 -0.00043755854
0001d0 a7 14 25 3b 87 63 89 ba 46 b5 a6 bb 52 4d 4f 3b
       0.0025189312 -0.0010481932 -0.0050875274 0.003163178
0001e0 6e f0 e2 bb 8d 62 e1 bb d1 25 2d ba 46 9d a6 ba
       -0.006925634 -0.0068782032 -0.00066050614 -0.0012711666
0001f0 36 d0 4c bb 2b 3f db 3b 07 8c 16 3b 0d a9 43 3b
       -0.0031252033 0.00669088 0.0022971646 0.00298554

action_model._continuous_distribution.log_sigma f4 [1, 5]
000000 94 3c 00 3b 43 95 36 3b 15 6a 82 bb 5c 7b ba 3b
       0.0019567357 0.0027859963 -0.003979931 0.005690975
000010 02 db 88 3b
       0.0041764984

action_model._continuous_distribution.mu.weight f4 [5, 128]
000000 19 8c 14 bb b9 aa ac ba c2 b5 e9 bc fe 19 cd 3c
       -0.0022666513 -0.0013173438 -0.028529052 0.025036808
000010 c9 76 89 bc be 75 cc 3c 42 44 d6 bb 96 c0 7d 3c
       -0.016780274 0.024958488 -0.0065388987 0.015487811
000020 a1 87 d4 bb 0e cf af 3b 53 42 eb 3a 05 44 2e bb
       -0.006485895 0.005365259 0.0017948843 -0.0026590836
000030 29 49 a8 3c e7 60 c0 bb dc be 05 bc 2b 11 f6 3c
       0.020542698 -0.0058709267 -0.00816318 0.030037483
000040 b6 04 fa 3c 0e 51 50 bc 00 fc 19 3c 76 ba 97 3c
       0.030519824 -0.012714637 0.00939846 0.018521529
000050 53 80 3e bd 50 06 95 bc 41 95 2e bc ba c5 80 3c
       -0.0465091 -0.018191487 -0.010655702 0.015719283
000060 67 6d 65 3b 84 93 a6 bc de 51 c4 bc 2b aa 2e 3c
       0.0035007836 -0.020334013 -0.023964819 0.010660688
000070 23 71 f7 bb f8 78 3d 3c 33 08 00 bb d9 da 2f 3b
       -0.0075513287 0.011564486 -0.0019536137 0.0026833324
000080 c8 35 27 bb 23 fd 38 3c be 7a 02 3b dd c7 92 3b
       -0.0025514234 0.011290821 0.0019909586 0.004479392
000090 ac 4b 50 3b 37 93 fa 3b f1 9e 56 3c 91 49 a1 3c
       0.0031783385 0.007646944 0.013099418 0.0196884
0000a0 1d 7a 1e bd 99 28 a1 3c dd f6 30 ba ba 54 08 bc
       -0.038690675 0.019672679 -0.00067506527 -0.008320982
0000b0 ae fd d5 bb 6b 17 19 bc e0 47 7b 3c 58 93 0d bd
       -0.006530485 -0.009343962 0.015336961 -0.034564346
0000c0 2f f2 a5 39 52 9a 87 bc b0 44 0b 3a 72 fa 4e bc
       0.00031651693 -0.016553078 0.00053126644 -0.012632953
0000d0 05 56 21 3c b1 af fe bb 58 1b 4d 3c 5d 24 27 3c
       0.009847169 -0.007772409 0.012518726 0.010201541
0000e0 59 52 45 3b d5 47 82 bb c8 e5 5d bc f7 e2 e8 3b
       0.0030108897 -0.003975848 -0.013543554 0.0071071344
0000f0 38 1d 0d 3d d1 41 23 3b 4d 50 65 bb 62 05 a8 3b
       0.034451693 0.0024911056 -0.003499049 0.005127595
000100 2a ef f5 bb 86 34 59 3c 80 a9 cc bc 92 f0 9a 39
       -0.007505317 0.0132571515 -0.024983168 0.00029552408
000110 e3 05 c5 bc 9b 27 44 bb be 36 31 3c 59 e8 eb bc
       -0.024050659 -0.0029930833 0.010816274 -0.028797315
000120 fb de 6a 3b 2e c2 7c 3b 1b 35 64 3c 6f 40 0a 3d
       0.0035838473 0.0038567889 0.013928677 0.033752855
000130 e3 7d 19 bc a6 cd b7 bc 15 4b ab 3b cc 68 f4 bb
       -0.009368393 -0.022436928 0.0052274563 -0.007458782
000140 ff 2a 58 bc 40 7b 98 3c 7b 7e 25 3c 3e 70 88 3c
       -0.013193845 0.018613458 0.010100956 0.016655084
000150 31 2f ea 3b dc a1 5d bb 07 42 9d 3c f4 5b 29 bc
       0.007146739 -0.00338184 0.019196523 -0.010336865
000160 65 db a5 bc 3e ba 7b bc 96 34 80 3c 03 41 89 3c
       -0.020246217 -0.015364228 0.015650075 0.016754633
000170 dc e2 19 3c 0e 85 05 3a 17 89 9a bc 8c 02 a4 bc
       0.009392466 0.0005093374 -0.018864198 -0.020020746
000180 68 4a 87 bc f7 b2 f4 bc 47 43 17 bc fa 17 aa 3c
       -0.016514972 -0.029870493 -0.009232349 0.020763386
000190 ec 82 a9 bc ed a5 61 3c 73 c2 64 bb 52 1d 0b 3d
       -0.020692311 0.01377247 -0.003490594 0.03396351
0001a0 83 3d 10 3d 90 87 1f 3b c0 19 90 3c 18 5d 6b bc
       0.035214912 0.0024342276 0.017590404 -0.014365457
0001b0 c3 05 df bc b1 c1 db 3b 5d db 16 bc 85 0d d7 bb
       -0.027224427 0.0067064394 -0.009207574 -0.006562891
0001c0 6c b6 89 3c 8a 71 59 bc c8 d5 8d 3b 8b 91 69 3c
       0.016810618 -0.013271699 0.004328463 0.014255892
0001d0 24 3d c4 3c 80 e4 f6 3c 22 57 fa 3a 55 6e 2a 3c
       0.023954935 0.030138254 0.0019099454 0.010402282
0001e0 17 1c a0 3c ca 72 e8 ba f7 b2 a0 3c 39 48 bb 3c
       0.019544644 -0.0017734405 0.019616587 0.022861587
0001f0 90 e9 24 bb 86 da 8c 3c 7f 8f 77 bc 86 43 91 bc
       -0.0025163628 0.017194044 -0.015109896 -0.017732393
000200 3c b7 cc 3b cb 8c 1a 3c 91 f9 7e 3c 2a 77 c3 3b
       0.006247429 0.009432982 0.015562431 0.005965133
000210 89 25 a8 bc 50 ef b3 3c fd bb b5 ba c3 42 8a 3c
       -0.02052571 0.021964699 -0.0013865229 0.016877538
000220 06 a3 94 3c 57 99 6b bc 33 9d 85 bc c1 7a 27 bc
       0.018144142 -0.014379821 -0.01631031 -0.010222138
000230 a3 22 6f 3c ff 1e aa bc 1d 75 ba 3c 52 a3 ac bc
       0.01459566 -0.020766733 0.022760922 -0.021073971
000240 57 c5 23 bc 03 50 31 3d 56 83 f4 b9 96 0f 09 bb
       -0.00999578 0.043289196 -0.0004663716 -0.002091383
000250 d2 6d 0f 3c 99 29 ff 3b 73 6f 96 3b 1d 39 77 3c
       0.008754211 0.0077869412 0.0045909225 0.0150893
000260 fa 3a 8e bc 2f 6e fc bb 95 90 8b 3b 19 b5 53 3c
       -0.017362107 -0.0077035646 0.004259179 0.012921595
000270 af 3e 82 3c 2c 6c c9 3a 3d 26 95 3c 29 96 83 bb
       0.01589903 0.0015367321 0.01820671 -0.004015703
000280 43 60 71 bc a5 c3 f1 3c d5 c7 e2 3a 0b 96 fb 3c
       -0.014732423 0.029512236 0.0017301986 0.030711195
000290 9d b3 98 3c ad 28 71 bb e0 ac ab bc 3a 9f f9 3a
       0.018640334 -0.0036797926 -0.020956457 0.0019044646
0002a0 5d 96 f3 bc 3d db 71 3d 7b 74 84 bc 45 e4 d5 3c
       -0.029734785 0.059046973 -0.016168823 0.026109824
0002b0 64 44 23 3b d8 5b 33 3c 17 04 a9 bc dd bf 67 3c
       0.002491259 0.01094719 -0.020631833 0.014144865
0002c0 45 ff d1 bb 8f 43 c8 bb 12 8c 9e bc d4 63 80 3b
       -0.0064086043 -0.0061115692 -0.0193539 0.0039181504
0002d0 76 68 d2 bc 1f ad a5 3b 5e 3f a8 3c 43 7c 93 3c
       -0.025684576 0.005056038 0.020538028 0.018003589
0002e0 c8 60 54 bc 5a d8 9e bc 3a 6e 00 bd 78 e4 6a 3c
       -0.012962528 -0.019390274 -0.03135512 0.014336698
0002f0 0e 45 fc bc e6 ba b9 3b 65 b7 a1 3c 57 ea cf bc
       -0.030794647 0.005668032 0.01974077 -0.025380297
000300 6f 5d cb bb 4b 20 dc 3c ff 5d 61 bc 45 4a 2f 3c
       -0.0062062065 0.026870867 -0.013755321 0.01069886
000310 bb 44 f6 3c d9 45 60 bc b0 ed 68 bc ad 0e bd 3c
       0.03006207 -0.013688528 -0.014216825 0.023078287
000320 8e 59 b8 3c 68 28 dc bc ee 02 e1 3b b0 08 ba 3c
       0.02250364 -0.026874736 0.0068668043 0.02270922
000330 8c 84 40 bb bc 88 96 3c db 4a af 3c 36 ca 57 ba
       -0.002937588 0.018375747 0.021397999 -0.0008231731
000340 c4 e6 e4 bb 4f 00 03 3d 5e 0c 39 bc 08 9e 61 3c
       -0.006985517 0.031982716 -0.0112944525 0.013770588
000350 1b c6 00 3c 62 11 a7 3a e3 93 2b 3d 97 83 8c 3c
       0.007859732 0.0012746269 0.041889083 0.01715259
000360 ae 6a c3 3b e6 f9 b7 3b a9 4a d5 bc 31 bb a0 bb
       0.005963645 0.005614507 -0.026036577 -0.0049051275
000370 d3 ac fd 3c 23 b1 07 3b 69 94 22 bd 37 6e c0 3b
       0.030966198 0.0020704947 -0.039692316 0.0058725136
000380 93 59 88 3c 3d d7 25 3c fc 7b 37 3c b0 c3 93 bb
       0.016644275 0.010122118 0.011198994 -0.0045094118
000390 31 d0 66 ba c5 04 ca 3c 6b 51 eb ba fb 2d 57 bb
       -0.00088048266 0.024660477 -0.0017953342 -0.0032833803
0003a0 d5 18 66 3c 80 33 96 bc 0a e8 26 3d 0c 08 4f 3b
       0.014044006 -0.018335104 0.040748633 0.003159049
0003b0 ab 77 b9 3b 5d 77 9f 3c 59 25 08 bd 47 27 ad 3c
       0.0056600175 0.019466097 -0.033238743 0.021136893
0003c0 84 da d8 bb bb 32 b0 3c 0e 1b 2d bc 50 0a 91 bb
       -0.006617846 0.021508565 -0.010565532 -0.004426278
0003d0 cb 8d 9b bc 3b 9d 58 3c a7 4b 68 bc 28 5c 19 bc
       -0.01898851 0.01322108 -0.014178193 -0.009360351
0003e0 c8 bf 78 3c 47 dd e4 3b bd 82 56 bc f1 0c 17 3b
       0.015182443 0.006984386 -0.013092694 0.0023048485
0003f0 c3 c9 e8 3c 44 62 73 bc a4 20 55 3c ab 0b a8 bc
       0.02841652 -0.014854971 0.01300827 -0.020513376

action_model._continuous_distribution.mu.bias f4 [5]
000000 27 31 fa b9 ae c5 4f bb 3b f7 fe ba c6 5c 8b ba
       -0.00047720337 -0.003170352 -0.0019452343 -0.0010632507
000010 de 84 0b bb
       -0.0021288912

action_model._discrete_distribution.branches.0.weight f4 [5, 128]
000000 eb ec 4d 3c 3d 5c f6 3b e9 3c dd ba 2a d1 48 3c
       0.012568693 0.00751832 -0.0016879115 0.0122569
000010 4a 9e 1b bb 81 4b 16 3b b8 77 4b bc 2e f1 b3 bb
       -0.002374547 0.0022933187 -0.01241868 -0.0054913973
000020 b5 84 63 3b ab 2d b9 3a 12 ed 72 3c 4f d9 4a 3b
       0.003471655 0.001412799 0.01482703 0.003095228
000030 0e 6d 0c bc 38 41 99 3c d8 f5 ad bb b9 3e d1 bc
       -0.008570923 0.018707857 -0.005308848 -0.025542604
000040 0c c4 e9 3b 34 a7 e1 bb 31 c7 0a 3c a4 57 93 3b
       0.0071339663 -0.0068863872 0.0084703425 0.0044965316
000050 1d 6f 16 b8 d5 5a d5 3b 4c b1 04 3c bc 90 94 bc
       -3.586627e-05 0.006511072 0.0080989115 -0.018135421
000060 d3 a8 f7 bb 8e bd fa 3b 33 82 6a bb c1 16 39 bc
       -0.007557967 0.007651991 -0.0035783171 -0.011296929
000070 e0 51 40 39 8d 4b 89 b9 52 de fb bb b7 52 09 3c
       0.00018341048 -0.00026186966 -0.0076864148 0.008381537
000080 98 d4 eb 3a 97 54 55 bb 43 97 0e bc 68 81 46 bc
       0.0017992435 -0.003255164 -0.008703056 -0.012115814
000090 9b 0b 9e bc e0 41 83 bc 17 ae 81 b9 1f 7b 16 bc
       -0.019292643 -0.016022623 -0.00024734504 -0.009184628
0000a0 cb ce 43 3c 1d 78 c5 bb 50 f3 42 bc 1f 5f 65 bb
       0.011951159 -0.0060262815 -0.0118988305 -0.0034999324
0000b0 03 75 07 bd 5d 9d ad bc 9d 9a 23 3b 9b f2 9c 3c
       -0.033070575 -0.0211932 0.0024963983 0.019158652
0000c0 f6 18 8a bb 25 00 a5 bc 73 d1 ce 3a d8 65 dc 3a
       -0.0042144014 -0.02014167 0.0015778973 0.001681502
0000d0 a6 67 f6 bb 77 99 04 bb 1c a1 a8 3b 51 1f 2d bc
       -0.00751968 -0.0020233074 0.005146159 -0.010566548
0000e0 12 ed 91 bc c7 e4 1d 3c 98 e4 68 bb 91 dd a1 bb
       -0.01781324 0.009637064 -0.0035536643 -0.004939743
0000f0 da 4b 84 3b d9 52 24 3b d8 10 97 bb 62 29 ca 3b
       0.0040373625 0.0025073795 -0.004610162 0.006169484
000100 ba 16 93 3c 28 67 39 bc bc 18 e4 bb 06 92 01 bc
       0.017955173 -0.011316098 -0.0069609564 -0.00790835
000110 07 da e9 3b 96 8f 7a bc 0f e1 a3 3c b2 93 fc 3a
       0.0071365866 -0.015293023 0.020004777 0.0019270091
000120 73 b8 e5 ba 75 1e a4 bb d6 b9 0a 3c 57 cd 9a bc
       -0.0017526284 -0.0050085136 0.008467158 -0.018896742
000130 e1 2e 83 3b 39 5c 80 3c 0c 86 37 3c bb 59 05 b9
       0.004003391 0.015668975 0.011201393 -0.00012717296
000140 dd b7 96 b9 00 a2 23 bb f3 57 be bb e5 79 dd 3b
       -0.00028747218 -0.0024968386 -0.005808824 0.0067589157
000150 81 9f 1a bc 50 af 46 bc 06 0c 7f 3b e8 5f 9f bb
       -0.009437443 -0.012126759 0.0038917079 -0.004863728
000160 ac ba 5d bc 98 9c 80 3c b6 1a 10 3b 3f 58 a2 bb
       -0.013533276 0.01569967 0.0021988577 -0.0049543674
000170 7f c6 2a 3c 7f 97 19 3b 42 dd bd bb 4b ba 4c bc
       0.010423302 0.0023436246 -0.0057941983 -0.012495588
000180 f3 b0 57 39 79 31 3b 3b 99 5b ee 3a 4f 1b 90 3b
       0.00020569917 0.0028563424 0.0018185257 0.0043977867
000190 b0 18 4f 3b f2 01 04 bc 21 70 d2 3b 44 2d 13 3c
       0.0031600408 -0.008057104 0.006422058 0.00898296
0001a0 0c 0f 94 3a aa b9 f0 bb fd 1d 85 3b e4 62 05 bc
       0.0011295988 -0.0073463516 0.004062413 -0.008141253
0001b0 de 60 54 bb 5a e4 f9 3a 61 35 24 3c 51 51 d3 3b
       -0.003240637 0.0019065246 0.010022492 0.0064489027
0001c0 0f f1 62 3c 32 ba ab bc 99 16 1a bc 61 c6 15 bc
       0.013851418 -0.020962808 -0.009404802 -0.0091415355
0001d0 77 3c ef bb 71 74 74 3b be 86 f6 bb 67 1d 16 3b
       -0.007300909 0.003730085 -0.0075233867 0.0022905709
0001e0 48 04 8e bb 64 6d bb bc 75 42 08 3b 8b 38 8f bb
       -0.0043340065 -0.02287931 0.0020791565 -0.004370754
0001f0 9d 1c a5 38 d8 ae 03 3c 90 fe 9a bb f5 a0 9a 3c
       7.873143e-05 0.0080372915 -0.0047300532 0.018875578
000200 cd 53 85 3b 6b ad 8b b9 c7 4e 9c bb 0a c0 dc 3b
       0.0040688277 -0.00026641352 -0.004770133 0.00673676
000210 ec 8a 07 bc eb 75 8e 3c 64 48 af 3b 4a e1 17 3a
       -0.008272868 0.017390212 0.005349206 0.00057937636
000220 02 72 d1 3b 95 f2 bb 3b f2 27 55 bc 5e 04 62 3b
       0.0063917646 0.005735705 -0.013010012 0.0034487466
000230 e5 7c a3 3b c8 f9 f7 b9 86 78 5a 3a 79 dd ac bc
       0.004989254 -0.00047297613 0.00083339994 -0.0211017
000240 2a e2 c9 3c 2b 0b be ba 75 fb dd 3a f1 4c 38 3c
       0.024643976 -0.0014499178 0.0016935902 0.011248813
000250 29 1c 7b bc f4 a0 05 3a c2 1d 44 ba 3c 0c a3 bc
       -0.015326538 0.0005097531 -0.0007481241 -0.019903295
000260 ed 03 67 3c dc 76 6e 3b 9b d9 b3 ba 05 2f 5c 3c
       0.014100057 0.0036386764 -0.0013721468 0.013438945
000270 9b 60 0a bb 5e cb 69 3c a6 c4 6d bb bc ee 0c 3c
       -0.002111471 0.014269678 -0.0036280542 0.008601841
000280 bd 3c 4c bc a8 c3 9e bc bc 11 67 bb 5b e9 4d bb
       -0.012465653 -0.019380406 -0.0035258373 -0.0031419608
000290 f2 ec 9c bb 56 12 77 bb 74 83 85 bb ec 58 a6 bc
       -0.0047889883 -0.0037700138 -0.0040745083 -0.020306073
0002a0 c4 0c 17 3b 34 53 19 3c 0e d2 55 3b 65 1c 91 ba
       0.002304838 0.009358216 0.0032626423 -0.0011071084
0002b0 8c 3c ab ba e1 71 5c bb dd be 39 bb c1 e2 f8 bc
       -0.0013064309 -0.0033637213 -0.0028342523 -0.030381562
0002c0 cc a7 f5 3b ce d2 1f bc e8 25 42 3c b4 d8 6b 3c
       0.0074968096 -0.00975485 0.011849858 0.014394928
0002d0 c6 cc 1a 3c 02 8c b1 3c 8e d7 d3 3b 84 85 46 bc
       0.009448236 0.021673206 0.006464905 -0.012116794
0002e0 a6 ee 38 bb 86 3f ce 3b 85 70 12 bb b4 e1 75 bc
       -0.0028218417 0.0062941937 -0.00223449 -0.015007425
0002f0 ea ed 4e bc fe 08 7c bb bd 22 43 3c 25 45 96 bb
       -0.012629965 -0.0038457508 0.011910138 -0.0045858794
000300 e4 5d 12 3c a8 dd 0a 3b f2 ce 7e bc 8f 93 89 3b
       0.008933518 0.0021189246 -0.015552269 0.0041984986
000310 74 c2 51 3b 49 30 0f 3c b7 f2 0d 3b 68 8a a6 ba
       0.0032006772 0.008739539 0.0021659562 -0.0012706043
000320 a4 37 8d 3b 42 28 86 bc 5b 29 e3 bb 76 1f af bb
       0.0043096114 -0.016376618 -0.00693242 -0.0053443266
000330 88 34 a6 3b ba 59 13 bc 05 c8 ad 3b c6 ac 9e bb
       0.00507218 -0.00899356 0.005303385 -0.0048423735
000340 c0 4c 8e 3a f0 0e 70 3b 22 03 12 3c 89 37 dd bb
       0.0010856614 0.0036629997 0.00891188 -0.006751005
000350 65 ad 75 bc 80 2a 51 bb 7f da ac 3b e8 c7 26 bb
       -0.014994954 -0.00319162 0.00527507 -0.0025448743
000360 9e 56 3b bc ee d0 c6 ba 00 c6 17 bb 33 f5 f3 bb
       -0.011434225 -0.0015168467 -0.0023158789 -0.0074450015
000370 98 de c0 bb 4b af 3b 3b f8 95 73 3c 15 81 1a 3a
       -0.0058859102 0.0028638418 0.014867298 0.00058938685
000380 93 db d2 39 36 da ae 3a a8 ac 72 3c b5 a9 53 bb
       0.00040217917 0.0013340178 0.014811672 -0.0032297198
000390 cf 54 d8 3a a5 9e 85 3c 85 ef 0e 3a ea 03 48 3c
       0.0016504767 0.016311 0.00054525613 0.012207964
0003a0 f6 8d 06 3c 46 b1 c9 bc 02 1c 0b 3c cd ac 8d 3b
       0.008212557 -0.024620663 0.008490564 0.004323578
0003b0 18 7d a2 3c 43 18 52 3c f3 4d 59 bc 1a ac 4c 3c
       0.01983504 0.012823167 -0.013263213 0.012492204
0003c0 7e 76 2c bb a4 6a 84 bb f7 53 6d bb 55 96 d6 bb
       -0.0026315744 -0.004041033 -0.0036213377 -0.0065486827
0003d0 3e da 02 bb ca 4f bd 3b 6b 00 44 bc 1d f3 86 ba
       -0.0019966508 0.005777334 -0.01196299 -0.0010295842
0003e0 0c 12 45 3b 41 c2 7c bb b2 8f 3c bb 2b 5a 01 ba
       0.0030070571 -0.0038567933 -0.0028772173 -0.00049343955
0003f0 62 32 e4 bb a4 b4 07 bc 99 f9 00 bb b6 2f 22 3c
       -0.006964014 -0.008282814 -0.0019680022 0.0098990705

action_model._discrete_distribution.branches.0.bias f4 [5]
000000 45 84 34 3c ff 41 1a 3c 42 0f 1a 3c 7c 40 fa 3b
       0.011017864 0.009415149 0.009403052 0.0076370817
000010 db 5b 83 bc
       -0.016035011
