results/FasterTank/Tank/Tank-16472.onnx (onnx, 187360 bytes, 9 tensors)

network_body._body_endoder.seq_layers.0.weight f4 [128, 212]
000000 e1 1d 23 3e e3 0a e5 bd a4 e9 55 bc 2c b5 1f 3d
       0.15929367 -0.11183717 -0.013056193 0.03899114
000010 b4 1d a9 3d e4 65 c6 bd 20 05 78 3d 16 00 9e 3d
       0.082576185 -0.09687403 0.060551763 0.0771486
000020 e4 67 d4 bd 91 19 2c bc d4 a1 27 3d 6b 21 99 3c
       -0.10371378 -0.010504142 0.040925816 0.018692693
000030 c9 ee fc bd 71 5c 00 be 4d 7f 22 bc 13 51 7b 3c
       -0.12350232 -0.12535264 -0.009918046 0.015339154
000040 6e f5 1a be 05 8b c5 3c 6d 25 00 3d 3c 4e 36 3d
       -0.15132686 0.024114141 0.031285692 0.044508204
000050 7b a5 11 3d d3 02 74 3d 21 67 09 3d 90 57 9e 3d
       0.035558205 0.059573006 0.033545617 0.07731545
000060 e9 1d 2d 3d 88 e9 22 3c ea b0 24 3d 9c 03 cc bd
       0.042264853 0.0099433735 0.04020778 -0.09961626
000070 05 37 3c 3d 61 a6 5d 3d 97 db 76 3c 45 95 32 3d
       0.04595091 0.05411375 0.015067003 0.043599386
000080 74 6a 14 3b 1f 5b 00 3e c1 ff 51 3d 3c 87 f9 3d
       0.0022646459 0.1253476 0.051269297 0.12183997
000090 9a 4a 90 bd 93 5c 67 bd 7e b2 f4 bb e4 9f 25 bd
       -0.07045479 -0.05648477 -0.007467567 -0.040435687
0000a0 e7 7e b9 3a ce e3 96 bd 36 e6 58 3d 96 69 80 bd
       0.00141522 -0.07367669 0.05295392 -0.06270139
0000b0 d1 6e 68 3d 11 fe a0 bc 09 41 ab 3c 48 67 36 3d
       0.056746308 -0.019652398 0.020905035 0.04453209
0000c0 13 8f 7c 3d eb 71 2b 3d d2 9b 1f bb 2c 3a 34 bb
       0.061659884 0.041856688 -0.002435435 -0.0027500493
0000d0 e5 61 10 bc 56 69 74 3d 0b e0 cd bc 9d 19 9b bd
       -0.008812402 0.05967077 -0.025131246 -0.07573245
0000e0 fc 9e 4b 3d e3 8b 47 bd 20 9c c2 3c cf 9f cb bd
       0.049712166 -0.04871739 0.023756087 -0.099425904
0000f0 09 b5 ef bd ba 07 46 3a ac 72 c3 bc ed 8e fd bd
       -0.117044516 0.0007554252 -0.02385839 -0.123807766
000100 96 04 40 bd 28 9a ae bd 81 da 82 bd 24 f4 25 3d
       -0.046879373 -0.08525497 -0.063893326 0.040516034
000110 4a 9e 91 ba 01 c4 3b bc 53 78 d8 bc 69 3c a1 ba
       -0.0011109796 -0.011460305 -0.026424563 -0.0012301329
000120 46 51 63 3d ef 33 c8 3d b4 23 c9 3c d8 54 36 bd
       0.05549743 0.097755305 0.024553157 -0.044514507
000130 f2 12 59 3c 45 57 93 bc ad 0b af bc 40 91 60 3c
       0.013249146 -0.01798595 -0.021367872 0.013706505
000140 03 b5 fe bd 13 c0 b9 3c 04 90 82 3d 1b 94 e7 3c
       -0.12436869 0.022674596 0.06375125 0.028268864
000150 29 4d ad 3c 45 13 2b bc 9e 29 af bd d9 43 c1 bc
       0.021154957 -0.010441606 -0.0855286 -0.023591923
000160 63 f6 46 bd 19 db ca 3a f9 d7 9a 3c 77 8a 4b bd
       -0.048574816 0.0015476673 0.018901812 -0.049692597
000170 4c 77 36 3d b5 d5 15 3c 62 a4 13 3d 17 b3 ff bc
       0.044547364 0.00914519 0.03604544 -0.031213326
000180 be 20 63 bc bd c4 9d bd eb 24 d0 ba 27 8c 12 be
       -0.013862787 -0.077035405 -0.0015880143 -0.14311276
000190 a3 87 34 bd 15 68 bc bd 45 00 6d 3d 49 63 e0 bc
       -0.044074666 -0.091995396 0.057861585 -0.027391093
0001a0 3c 40 d7 bc 89 dc b9 bd 92 44 c9 bd ad 31 20 3d
       -0.026275747 -0.09075267 -0.09827532 0.039109875
0001b0 0a 09 3a 3e dd de a0 3d b7 64 96 b9 b3 55 25 3c
       0.1816751 0.07855008 -0.00028685268 0.010091233
0001c0 10 57 17 bd 69 b2 91 3d 1f 65 94 3d 21 aa a5 bd
       -0.036948264 0.07114107 0.0724585 -0.0808909
0001d0 85 d6 88 bc 88 60 6d 3d 07 69 8a bd b8 3c 1d 3e
       -0.016703853 0.057953387 -0.067583136 0.15355194
0001e0 b2 0f 36 3d bd b9 9f bc 8b f3 30 3c 4d 7b ba 3d
       0.044448562 -0.019497747 0.010800253 0.09105549
0001f0 74 0e 5f be 65 0c 86 3c 7f c6 dc 3c 0a 6b 16 3e
       -0.21782857 0.016363332 0.026950119 0.1468927
000200 6c ce 3b 3e 0d 25 ce bc 00 86 00 3e 7d 84 74 bc
       0.18340462 -0.025164152 0.12551117 -0.014924166
000210 4e 1f 4f bd 4d 90 82 3d e8 a7 a6 bd e7 ad ab bc
       -0.050566964 0.063751794 -0.08137494 -0.020956947
000220 3d ed a3 bd 9f e6 c8 3d 80 f9 38 bd f7 e9 81 3d
       -0.08004234 0.098096125 -0.045159817 0.063434534
000230 5d b4 de 3d d1 82 09 3e b9 98 42 3d fe 7e a7 bd
       0.10874245 0.13428809 0.04750893 -0.08178519
000240 54 d7 99 bd c0 9b 87 bc 92 cb 57 3d 06 5a b5 bb
       -0.07511774 -0.01655376 0.052684374 -0.0055344133
000250 d0 fb 4a 3d 0d e9 31 be 5c 50 9a bd b7 96 34 be
       0.049556553 -0.17374058 -0.075348586 -0.17635618
000260 c4 68 f8 3c 42 3d 54 3d 3c 79 0f 3e e8 b6 e2 3c
       0.030323394 0.051816233 0.14011091 0.027675107
000270 5d 30 2f 3c 51 3d be 3d 5c c7 0c bd 2e 5d 32 bd
       0.010692683 0.09289039 -0.03436981 -0.043545894
000280 6b 7f cd bc 3e f7 61 bd 71 0e f3 3c c5 71 8c bd
       -0.025085172 -0.05516743 0.029669972 -0.06857637
000290 bf 46 be bd 83 91 17 bb 4c a1 99 bd eb 1a 3a bd
       -0.092908375 -0.0023127503 -0.07501468 -0.045435827
0002a0 58 e9 f8 bc 45 e6 5f bd 9f d9 fc bc 91 c9 2c 3c
       -0.030384704 -0.05466296 -0.030865489 0.010546104
0002b0 b6 ee 3a 3d c9 0c ca bd 7b 2b d6 bd 62 1f a2 3d
       0.04563781 -0.0986572 -0.10457512 0.07916142
0002c0 80 3e 52 be bf 8d 1e 3d 67 c6 93 3c 19 af f9 3c
       -0.20531654 0.0387094 0.018038942 0.030479
0002d0 fe 4b 86 3d e9 ed 0c be aa ac c4 bc 1d 5e 7d bb
       0.06557463 -0.1376263 -0.024008114 -0.0038660832
0002e0 88 51 91 bd a1 16 3e bd 9a 74 95 3d 94 da 35 3d
       -0.07095629 -0.0464083 0.072976306 0.044397905
0002f0 22 67 ac 3c 1b 60 03 bc 03 89 11 bd b4 72 58 3c
       0.021045271 -0.008018519 -0.035531055 0.013210941
000300 41 b2 ad bb 30 07 8a bc 04 6b 04 3c 83 4d b7 3d
       -0.0053007905 -0.01684913 0.008082155 0.08950331
000310 e9 59 02 be 72 30 91 bd 91 5c 9e 3d a2 dc b4 bc
       -0.1272961 -0.07089318 0.077324994 -0.022077862
000320 52 f9 cb 3a f9 ac 8a 3d 0b 7c db 3d a6 38 88 bc
       0.0015561974 0.06771273 0.10717019 -0.016628575
000330 d5 1a 05 bd 94 8d 07 3e 62 ac b8 bc 6d 3e 1f 3d
       -0.032496292 0.13237602 -0.022543136 0.038877893
000340 03 72 42 bd 05 0a 97 3c c4 f5 1a bd c4 85 87 3d
       -0.04747201 0.018437395 -0.037832037 0.06617311
000350 cd 84 05 bd 5e 2e 71 3d f3 bd 05 3d 40 61 61 bd
       -0.03259735 0.05888211 0.032651853 -0.055024385
000360 b0 82 a2 bd 6d eb c5 bd 7a 9b 06 3e b5 9c 47 bd
       -0.07935083 -0.096640445 0.13145247 -0.04873343
000370 e5 8e 97 3d 15 ff ca bd cf 23 95 bd 5a 79 45 3c
       0.07400302 -0.09911934 -0.072822206 0.012052858
000380 a4 a0 d1 bc 9c 14 b1 bd 55 24 27 3e cf cb 0a 3d
       -0.025589295 -0.08646509 0.16322453 0.033885773
000390 bc 15 cb bd 14 49 a9 3c 3f 64 a0 bd 5d bd 04 bd
       -0.09916255 0.02066473 -0.078316204 -0.032407153
0003a0 3d 54 b0 bc b3 f8 d6 bd 1c b9 c6 bb 64 76 ad bd
       -0.021524543 -0.10496654 -0.006064547 -0.08469847
0003b0 66 78 57 bd 62 21 5d 3d 78 16 40 3d ff 94 d5 3d
       -0.052605055 0.053986914 0.046896428 0.104288094
0003c0 d1 70 40 3d 60 35 a6 3d f0 2a 82 bd b4 a9 47 bd
       0.04698259 0.08115649 -0.06355846 -0.048745826
0003d0 a4 18 28 3d 5a 17 2a bd e0 51 45 bd 2f d6 96 bc
       0.041039124 -0.041526176 -0.048173785 -0.018412678
0003e0 94 70 4f 3d 12 74 a8 bd dd c9 3d bd a1 1f fa bd
       0.050644472 -0.08225264 -0.04633509 -0.12213064
0003f0 58 5d d5 b9 10 a8 ee 3d c7 4d bb bc 5b 31 5b be
       -0.00040696072 0.11653149 -0.022864236 -0.21405546

network_body._body_endoder.seq_layers.0.bias f4 [128]
000000 a2 37 c7 ba 78 39 09 3a e4 cf fc b9 61 32 f2 36
       -0.0015199075 0.0005234699 -0.00048220076 7.218027e-06
000010 17 08 a4 ba 93 ee 57 3a e6 a1 1e ba b9 76 c5 3a
       -0.0012514618 0.00082371494 -0.00060513464 0.0015065289
000020 8a 5a 23 3b 32 06 e3 3a f9 a0 fe ba 80 20 ab 3a
       0.0024925792 0.0017320572 -0.0019426636 0.001305595
000030 02 12 19 3b 14 64 5b b8 2f 4e 56 bb 2f fa 40 3b
       0.002335668 -5.2306874e-05 -0.003270041 0.0029445996
000040 c9 ed af ba d6 ea af 3a 2b 2a e4 3a 9c 1d fc b9
       -0.0013422306 0.0013421427 0.0017407587 -0.00048087246
000050 9d 5e b9 b8 fa 56 88 ba 87 34 08 ba 17 c1 05 b9
       -8.8391105e-05 -0.0010401898 -0.00051958155 -0.000127558
000060 4c 10 b1 3a 2a 70 fa 3a a9 53 5e ba c2 2c 16 3a
       0.0013508885 0.0019106914 -0.0008481094 0.00057287153
000070 2d 56 e2 3a cc c6 08 3b 26 b1 17 3b 08 ef e9 39
       0.0017268114 0.0020870445 0.002314636 0.00044619315
000080 b5 0f d1 39 09 b2 e1 ba 41 57 e2 b9 86 89 b2 39
       0.0003987529 -0.0017219196 -0.00043171088 0.0003405327
000090 90 41 da ba 4a f1 1d bb c4 a4 20 3a 48 b7 1b b9
       -0.0016651619 -0.0024100118 0.00061280676 -0.0001485023
0000a0 61 fd b4 38 e9 b3 01 39 2a 8f 7c 39 33 bf d0 ba
       8.630264e-05 0.0001236942 0.00024085926 -0.0015926122
0000b0 e4 3a 2c b9 38 3b 7f 39 98 00 f3 3a 81 df 01 bb
       -0.00016425137 0.00024340756 0.0018539606 -0.0019817057
0000c0 28 12 dc 3a 81 ab 86 3a 18 66 9e b6 02 40 45 ba
       0.0016790079 0.0010274501 -4.720652e-06 -0.00075244915
0000d0 5d fa a4 b9 16 07 92 3a 0d cb 37 ba b0 6a 72 39
       -0.00031467053 0.0011141028 -0.0007011153 0.00023118663
0000e0 5b e1 b1 3a e7 f4 89 b8 59 2e 1c 3b 69 7f 6e 3b
       0.001357119 -6.578286e-05 0.0023831336 0.003639186
0000f0 5d 35 66 ba 08 d9 c1 3a ff df 3d bb a1 74 bc ba
       -0.00087817555 0.0014789412 -0.0028972623 -0.001437802
000100 5b aa 22 3a 44 62 8b b6 7a 03 1a bb fb 2b 84 3a
       0.00062051945 -4.1539624e-06 -0.0023500607 0.0010083908
000110 a4 8e f1 ba 69 0a f8 39 cf df 61 3b 34 d3 3c 3b
       -0.0018429351 0.00047310002 0.0034465676 0.002881241
000120 22 b3 0b 3b b1 71 99 3a 06 4d 8b 3a 8a 13 c5 3a
       0.0021316488 0.0011706856 0.0010627813 0.001503573
000130 0f 0e e6 b9 cd 08 8f 39 59 e9 3b bb 18 5a d2 ba
       -0.00043879493 0.00027281643 -0.0028673022 -0.0016048579
000140 31 1f 4a b9 38 cd 29 bb c1 77 77 ba 7e 1f e2 39
       -0.00019275841 -0.0025909673 -0.0009440147 0.00043129543
000150 8c 96 88 3a 9b df e0 ba 28 90 13 ba 16 15 ca 3a
       0.0010420843 -0.0017156483 -0.0005629086 0.0015417661
000160 8c a4 8c b9 b4 ec 67 3a 9f 15 e8 3a 14 0e 85 ba
       -0.00026825478 0.0008847222 0.0017706639 -0.001015129
000170 25 52 d8 b9 77 de 98 ba 75 0f 8c 39 e0 e4 07 ba
       -0.00041259933 -0.0011662979 0.00026714397 -0.00051839463
000180 56 08 f1 3a 08 1f 4b bb 46 b6 a5 39 cd 14 a9 3a
       0.0018389325 -0.0030993838 0.00031607057 0.0012899876
000190 f4 af b9 38 ac 30 a8 3a 84 9a 4d 3a d4 44 06 3a
       8.854261e-05 0.0012831888 0.0007843154 0.00051219505
0001a0 2b c6 89 39 80 e1 77 ba b3 84 99 3a ac 24 b0 ba
       0.00026278323 -0.00094559044 0.0011712521 -0.0013438663
0001b0 9b fd 52 3a f2 a5 aa 3a c0 38 18 bb 3e 8f 6b 3b
       0.00080486544 0.0013019426 -0.0023227185 0.0035943533
0001c0 0f 35 cd ba 90 64 e8 3a 9d 5c 1a bb cd 27 05 bb
       -0.0015656071 0.0017730165 -0.0023553737 -0.0020317913
0001d0 c3 f4 a0 b9 a5 5f 92 ba f9 be 0c bb 9e 6a 91 ba
       -0.0003069994 -0.001116742 -0.0021476133 -0.0011094396
0001e0 32 58 06 bb f3 50 a2 b9 d2 31 12 ba 8a 11 43 bb
       -0.0020499346 -0.0003095936 -0.0005576882 -0.0029765093
0001f0 41 a5 66 b9 f0 14 bd 3a 13 1f 9e ba 9f 0d 3f 3a
       -0.00021996071 0.0014425796 -0.0012063704 0.00072881015

network_body._body_endoder.seq_layers.2.weight f4 [128, 128]
000000 91 45 92 3d c6 8f 33 3d ff 44 79 3d 7f 05 8f 3d
       0.07142175 0.043838285 0.060856815 0.0698347
000010 f0 f0 bb bd 63 6c de 3d 2b 11 d2 bd 99 28 86 3d
       -0.091768146 0.10860517 -0.10257181 0.06550712
000020 e2 f6 a9 3b 90 94 49 bb 10 64 ff 3c 2d 73 dc bd
       0.0051869014 -0.0030758716 0.031175643 -0.107641555
000030 68 c9 e1 bd 7e 56 cc bd 8e b7 8d bd 4f ae 20 bd
       -0.11024743 -0.099774346 -0.06919776 -0.039228734
000040 02 ab 4e 3e 0e e2 0a be 18 78 99 3c 2a 2a f1 bd
       0.20182422 -0.13562796 0.018734023 -0.1177562
000050 ae 74 17 be ba d4 6c bd 14 57 60 3d 58 55 5e be
       -0.14790604 -0.05782006 0.054770544 -0.21712244
000060 8e 41 96 bd 39 33 84 3c 07 b1 ef bd 6e e5 b7 3d
       -0.07336722 0.016137706 -0.11703687 0.08979307
000070 91 7a a0 3d 66 1e 86 3d f2 f1 48 3d 2e b1 b4 bd
       0.07835878 0.06548767 0.049058862 -0.08822857
000080 03 a5 20 be bc 68 8d bd 5e 55 36 3e 62 b8 a9 3d
       -0.15687947 -0.06904742 0.17806002 0.08287121
000090 17 25 54 bd c3 8f 58 3d 9a 40 0f be 9f 6c d5 bd
       -0.051793184 0.052871477 -0.13989487 -0.104211085
0000a0 0e 0f 57 3d 12 74 c5 3c 5c 6a 98 bc 0a 8f d0 3b
       0.05250459 0.024103198 -0.018605404 0.006364708
0000b0 0a 4a 1f 3e b4 18 5a 3c f2 a4 fc 3b ce d5 43 bd
       0.15555587 0.013311554 0.0077100927 -0.047811322
0000c0 39 a8 c2 bd 3a d3 56 bb 44 be 2f 3e 5d c4 96 bd
       -0.09504742 -0.003277971 0.17162424 -0.07361672
0000d0 df a4 90 bd ce 18 13 be b4 56 20 3e 6b ef d3 3d
       -0.07062697 -0.14364931 0.15658075 0.103484
0000e0 98 50 13 bd 2f 0a 0c bd ed 11 30 bd 32 1d 86 bb
       -0.035965532 -0.0341894 -0.042985845 -0.004092836
0000f0 10 eb a6 bd 9b 67 e4 3d 2e 00 b2 bd be 00 38 3c
       -0.08150303 0.11152574 -0.086914405 0.011230646
000100 bf 90 13 bc 88 c0 ea 3d 05 89 24 bd e4 a0 5a bd
       -0.009006678 0.11462504 -0.040169735 -0.053376094
000110 09 5f b6 3d 10 12 58 3d 71 e2 8b bd a1 e7 9c 3d
       0.08904845 0.0527516 -0.068303 0.07661367
000120 9d 80 21 3d 69 2c 18 3d 21 1a 13 3e 9b 9f 15 bd
       0.039429296 0.037151728 0.14365436 -0.036529165
000130 3e e5 f9 bd bd f1 28 bd 48 31 af bd 6a f7 e0 3d
       -0.122019276 -0.041246165 -0.085543215 0.109846905
000140 f4 31 3b 3d 85 0f 93 3c 23 00 aa 3c f2 6e 5f bd
       0.045701936 0.017951736 0.020752018 -0.054549165
000150 4a a2 44 bd df 6f 46 3d 9f cb 82 3d cc 4e 16 bc
       -0.048006333 0.048446532 0.06386494 -0.00917406
000160 9f b1 30 bd 41 93 5d bd fc e9 c9 3c 57 fa 6f 3d
       -0.043138143 -0.05409551 0.024647705 0.058588352
000170 47 d4 24 be fa 3a 1b be cf 83 09 3e 22 77 86 bd
       -0.16096602 -0.15159217 0.13429187 -0.065656915
000180 2a e7 06 39 1f 3a 5b bd c6 94 bf bc b1 9f 6d bc
       0.00012865351 -0.053522225 -0.02338637 -0.014503405
000190 77 cd e7 3c f0 dc ba bd 55 95 ce 3c 7f 45 89 3d
       0.028296215 -0.09124172 0.025217691 0.067027085
0001a0 7a 89 14 be 5b 99 11 3c 2c ed 47 bd a6 ed 04 bd
       -0.14505568 0.00888666 -0.04881017 -0.0324532
0001b0 3f 8b 13 3d 3b 60 12 be 5d e6 17 3d d1 d3 a5 bc
       0.036021467 -0.14294522 0.037084926 -0.020242603
0001c0 e7 e0 85 3c b5 f7 50 bd 61 e8 45 be 0b 6e 54 bd
       0.016342593 -0.05101748 -0.19326927 -0.051862758
0001d0 99 ac 27 be 85 68 ef 3d a1 5c ee 3c c2 78 b8 3d
       -0.16374435 0.116898574 0.029096903 0.09007408
0001e0 36 28 8b bd 6e af 6d 3d 5b ee 1a 3c 63 f7 42 bd
       -0.06794779 0.05802863 0.009456242 -0.047599208
0001f0 47 74 43 be 9d c9 5f bd b6 ab a3 bd 54 a0 f7 bd
       -0.19087325 -0.054635633 -0.07991736 -0.12091127
000200 9d 1e 74 3b 3e 20 a5 bd c3 4b be bb c3 ff 9a bd
       0.0037249692 -0.0806279 -0.0058073713 -0.07568314
000210 3e 34 a6 bd 29 6f b5 bd a7 c8 d3 3c 6c 52 cd bd
       -0.08115433 -0.08859093 0.025852514 -0.10025486
000220 7e 79 03 3e 34 1c 62 be 1d 71 49 3d 53 f9 85 3d
       0.12839314 -0.22081071 0.04918014 0.065416954
000230 77 66 9a bd b5 61 46 3d ad 21 d0 bd c1 7f 21 3e
       -0.07539075 0.048433024 -0.10162673 0.1577139
000240 3f 8b f7 bc 35 06 f6 bb d2 2d 0c bd e2 d9 85 bd
       -0.030217765 -0.007508064 -0.034223385 -0.065356985
000250 5f 69 34 3c ae 7a ab 3d 78 3c 03 be 04 b1 23 3c
       0.011011451 0.08373009 -0.12816036 0.009990934
000260 40 a6 14 bd 22 95 f9 bc 2c bd 38 3d e3 5d 2a 39
       -0.03629136 -0.03046662 0.045102283 0.00016247439
000270 c4 17 5f bd 4e 5d cb bd ff cd 0c 3e 66 2e 42 3d
       -0.054466024 -0.09929906 0.13750456 0.04740753
000280 e0 e2 3b be fc cc 31 3d 45 54 8f bc d3 e0 1d 3d
       -0.18348265 0.04340838 -0.017496238 0.038544487
000290 f8 9f e3 3d 80 48 db bc 01 33 0d b9 c1 a4 1f 3c
       0.11114496 -0.02676797 -0.00013465808 0.00974387
0002a0 3c 81 11 3e fe fc 3a 3e cb 78 a5 3c 9f f1 82 bd
       0.14209455 0.18260571 0.0201992 -0.06393742
0002b0 9d cd 25 bd 4a 1d 93 bc f8 27 7a 3c 22 96 4e 3d
       -0.04047929 -0.017958302 0.015268318 0.050436147
0002c0 ff 5d 37 3e db c7 2e bd 80 c7 d6 3c 42 34 fe 3d
       0.1790695 -0.042671066 0.026218176 0.12412311
0002d0 3d a1 34 3d 38 05 47 bc f0 f7 0c be 68 37 2e bc
       0.04409908 -0.01214724 -0.13766456 -0.010633327
0002e0 a2 53 20 bc 83 25 42 3b 89 39 b9 3d 79 dc 4e 3d
       -0.009785565 0.002962441 0.09044177 0.050503228
0002f0 73 eb d7 3d 21 b7 06 bd e5 b6 ea bd 40 76 f5 bd
       0.10542955 -0.03288949 -0.114606656 -0.11985445
000300 83 19 ef 3c 43 2e 13 3d 19 f7 7e bd 3d cd 81 3d
       0.02918697 0.03593279 -0.06224737 0.06337974
000310 d4 dd 9f 3e 8f 3d dc 3d 4c 7a 43 3c af e4 45 bd
       0.3122393 0.10753929 0.011931013 -0.048313793
000320 4a 3f 04 bc 6a 12 14 3d 59 da aa bc 8a 56 24 be
       -0.00807173 0.036150374 -0.02085607 -0.16048637
000330 fb c5 04 3e ca 73 bf bc c2 14 ae 3d 97 ec 14 3b
       0.12966149 -0.023370642 0.08500053 0.0022724026
000340 4c 12 61 bd 4c 8d b2 3c dd d0 81 bd 9b 54 f6 3d
       -0.05494909 0.021795891 -0.06338666 0.12027856
000350 b3 b9 0a ba 36 92 d9 3c a2 8c 13 3d 19 1c 42 3c
       -0.00052919536 0.026558977 0.03602279 0.011847519
000360 ea e0 ae 3c 8a d7 85 bc 25 c6 92 bd 78 ac f5 bd
       0.021347482 -0.016338129 -0.07166699 -0.119957864
000370 70 10 80 3c fd 85 5e 3d 60 09 85 be ad c0 65 3d
       0.015632838 0.054327 -0.25983715 0.056091953
000380 ad d5 e2 bc 02 e2 c2 3d c1 36 3b 3d 70 02 05 3d
       -0.02768978 0.09515764 0.045706514 0.032473028
000390 10 48 55 bd d3 fb a0 bd 45 98 d9 3b ab 4c 2e bd
       -0.052070677 -0.07860532 0.0066404664 -0.042553585
0003a0 6b 51 06 be 44 11 9b 3d db e2 50 bd cd e2 82 3d
       -0.13116996 0.075716525 -0.050997596 0.06390915
0003b0 f5 d4 ba bc 76 38 2d bd a2 98 39 3e c2 c3 74 3c
       -0.022806624 -0.042290173 0.18124631 0.01493925
0003c0 6b 20 34 bd 0e 48 82 bd 6b e2 19 3d 9a e6 17 3d
       -0.04397623 -0.063613996 0.037569445 0.037085153
0003d0 2a 72 b7 3d 04 65 8e 3d f2 b8 9d 3d 7c 2c 24 be
       0.08957322 0.06952861 0.07701291 -0.16032594
0003e0 95 84 5b 3d 51 18 0d be 28 ca 23 be 7b 66 9e 3d
       0.053593237 -0.13778807 -0.15995085 0.0773439
0003f0 c4 c1 86 3b 2b 76 a5 bd 81 86 20 3d 4c 32 24 3d
       0.004112454 -0.080791794 0.039190773 0.04008703

network_body._body_endoder.seq_layers.2.bias f4 [128]
000000 9c ff bf ba d5 b7 2c bb d7 a3 a3 3a d1 5e 2b 3b
       -0.0014648321 -0.002635469 0.0012484741 0.0026149044
000010 f5 68 1d ba 8e de c0 b9 2f aa 52 3a 21 b6 37 3a
       -0.00060047145 -0.0003678691 0.00080362236 0.00070080353
000020 b6 03 89 ba ad 46 a5 3a 29 53 31 ba 66 72 bc 39
       -0.0010453376 0.0012609564 -0.0006764406 0.00035943388
000030 20 4d 91 3a 76 35 ae 3a be 2c 43 3b 68 c5 45 3b
       0.0011085607 0.0013291079 0.0029781307 0.0030177478
000040 fc 0d 4d ba d4 b4 5d 3a 99 7a 8e ba 35 67 82 39
       -0.0007822213 0.00084574264 -0.0010870277 0.00024872427
000050 a2 99 0b bb 58 5f f5 ba 62 6c 22 bb 9e fa ac 3a
       -0.002130129 -0.0018720431 -0.002478384 0.0013197248
000060 5f 4d 51 3a 3f 64 ab 39 e7 56 ac ba 68 96 17 3b
       0.00079842465 0.0003269035 -0.0013148458 0.002313042
000070 b0 e4 1f ba e0 53 9e b9 70 95 09 bb d2 79 b0 ba
       -0.0006099446 -0.000301986 -0.0020993613 -0.001346404
000080 56 7f dc 3a 9b f7 1f 3b 7b cb b6 ba 79 17 b3 3a
       0.0016822617 0.002440906 -0.001394614 0.0013663612
000090 30 ed 20 b9 86 86 9a 3a 75 38 6c bb f5 24 3d ba
       -0.00015347148 0.0011789359 -0.0036044393 -0.0007215285
0000a0 1e a1 67 3a 54 97 b8 3a bc 1e 1b bb 1e 57 7d ba
       0.0008835959 0.0014083185 -0.0023669442 -0.00096641656
0000b0 db 9b 88 3a db 59 8a ba 66 e1 02 bb d3 d7 c1 3a
       0.0010422425 -0.0010555343 -0.0019970774 0.0014789052
0000c0 6c 6f db 3a 3e 4e 15 ba a4 33 1a bb 06 e2 b9 ba
       0.001674158 -0.0005695558 -0.0023529315 -0.001418174
0000d0 84 af 43 bb 06 a1 30 bb d4 5c 09 39 88 5f db ba
       -0.0029859254 -0.0026951446 0.0001309992 -0.0016736845
0000e0 e3 1e 27 3a b3 23 b8 ba 96 fc 05 3a 5a 38 44 ba
       0.0006375147 -0.0014048725 0.00051111856 -0.00074852037
0000f0 8b d6 e3 ba f8 8a 8f bb 73 82 40 3a 47 8d 32 ba
       -0.0017382664 -0.00438058 0.0007343657 -0.0006811213
000100 d5 fd 8f ba 4a 33 e3 3a fd 8a c4 3a 64 6c f3 b9
       -0.0010985682 0.0017334011 0.0014995035 -0.0004642933
000110 62 0e 42 bb 6c 17 68 3a c8 ee 96 ba e2 5e 6e 3a
       -0.0029610624 0.0008853588 -0.0011515254 0.0009093118
000120 3f 0d 99 3a 04 9d bf 39 a3 84 37 bb 06 4b 12 3b
       0.0011676921 0.00036547345 -0.0028002642 0.002232255
000130 a2 02 43 39 45 26 8c ba 38 b2 07 3b 61 ac 12 3b
       0.0001859763 -0.0010692558 0.0020705592 0.0022380578
000140 d3 62 d4 b8 91 a6 87 38 2f c9 8d 3a 95 ae 3d 3b
       -0.00010127355 6.468327e-05 0.0010817404 0.002894317
000150 75 57 a3 ba 5e 6b ba ba c7 fd 49 bb 1c 47 eb 38
       -0.0012461977 -0.0014222672 -0.003082143 0.000112189184
000160 9b bf da b9 5b db 12 3a f9 79 97 3a 4a 12 e3 b7
       -0.00041722957 0.00056021445 0.0011556736 -2.7069025e-05
000170 38 74 7b 3a ec d5 ef 3a 0c 3c 4b b9 66 7f 89 b8
       0.0009592208 0.0018298007 -0.00019381958 -6.556399e-05
000180 65 6b 1a 3b 0a 36 8f bb 5e 9a ba 3a cc 5a 07 bb
       0.0023562547 -0.0043704556 0.0014236679 -0.0020653484
000190 49 5a b9 38 c7 ba 7e 38 55 c3 c8 3a d6 bf c7 39
       8.838304e-05 6.073227e-05 0.0015317003 0.00038099167
0001a0 8f f5 55 ba b7 37 71 ba 1e 41 c3 3a a2 06 e8 ba
       -0.0008161896 -0.00092017226 0.0014896726 -0.0017702172
0001b0 72 a0 18 3b 4b cf 86 3b ed 34 30 3a 43 04 d4 ba
       0.0023288992 0.0041140667 0.0006721754 -0.0016175586
0001c0 24 d0 96 3a 7d a8 96 b8 9d c0 68 ba 83 24 be 3a
       0.0011506123 -7.183941e-05 -0.0008878799 0.0014506731
0001d0 0e 0e 6e ba 65 d0 86 ba ac b1 61 3b 1d ff 03 3b
       -0.0009081074 -0.0010285495 0.0034438176 0.0020141073
0001e0 25 74 64 3a 5a 3e 83 38 f4 9f a5 3b 35 a9 c5 3a
       0.00087148166 6.258181e-05 0.0050544683 0.0015080335
0001f0 44 dc 49 b9 68 52 22 ba 85 85 df ba 33 12 d3 3a
       -0.00019250909 -0.0006192089 -0.0017053342 0.0016103446

action_model._continuous_distribution.log_sigma f4 [1, 5]
000000 96 97 26 b9 b6 c8 e8 b9 8f ec 1d 3a 02 87 b7 3a
       -0.00015887464 -0.0004440003 0.00060243247 0.0014002027
000010 8e 34 24 bb
       -0.002505574

action_model._continuous_distribution.mu.weight f4 [5, 128]
000000 40 f7 35 3d 42 6b 9e bc ec d9 07 bc 3b cf 34 bc
       0.04442525 -0.019338254 -0.008291703 -0.011035736
000010 46 cb f0 3b 10 fa a4 3c ff 8b 74 bc 3b 31 a1 bc
       0.007348451 0.02013877 -0.014925956 -0.019676795
000020 6a a7 68 ba 8f 27 26 bc bb 53 a3 bc 3b 39 cf bb
       -0.00088750443 -0.010141267 -0.019937387 -0.006323961
000030 78 0c 13 bb ab 90 c9 ba 1f 85 80 3b b3 81 a7 ba
       -0.0022437852 -0.0015378197 0.0039221193 -0.0012779742
000040 1f 6b 9a 3c 0e 64 b2 3c 27 e6 3d bc 41 67 9a 3c
       0.018849907 0.021776225 -0.011590517 0.018848063
000050 da d5 ef bc 29 9a df bc 72 bb a8 3c 53 cf 62 bc
       -0.029276777 -0.027295189 0.020597193 -0.013843375
000060 32 aa 57 3c 28 fa 82 bc 02 0b 9f 3c 5b 8d a3 bb
       0.013163136 -0.015988424 0.019414429 -0.004991216
000070 13 04 53 bb d2 d7 dc 3b 45 19 c4 3c ef f8 8c bc
       -0.0032198473 0.006739595 0.02393783 -0.017208545
000080 0c 4a 1d 3d fa 59 4c 3c 76 a4 5f bc 16 5b 8d bc
       0.038400695 0.012472624 -0.01365005 -0.017255347
000090 23 b7 ee bc b1 91 4b 3c ca c7 b0 3c 26 aa 87 3c
       -0.02914006 0.012424872 0.021579642 0.016560625
0000a0 48 e1 a2 3b 8e f8 ae b9 9e 6c d3 bb af 57 a4 3b
       0.0049707033 -0.00033373054 -0.006452157 0.0050153355
0000b0 b4 9f ad bc bd 17 9c bc 1d 0a 32 bb 60 65 8c 3c
       -0.021194316 -0.019054288 -0.0027166673 0.017138183
0000c0 5e cf 3e bc d9 a3 4a bd 00 0e 0b 3c 6e c6 76 bc
       -0.01164612 -0.049472664 0.008487225 -0.015061958
0000d0 8a 00 a0 bc b0 4f 06 3c c1 5f c4 bb 64 83 0b bb
       -0.019531507 0.00819771 -0.00599286 -0.0021288032
0000e0 15 39 15 3b aa 7e 5f 3b 91 2a 76 3c 88 0f 54 3c
       0.002276962 0.0034102597 0.015024797 0.012943156
0000f0 db ce b2 3c ea e6 01 bb 0e 98 89 bc f2 90 aa bc
       0.021827152 -0.0019821473 -0.016796138 -0.020821068
000100 7d 51 ac 3c 83 0b 0a bc de 60 81 bc 61 ff d8 bb
       0.02103495 -0.008425596 -0.01579326 -0.0066222404
000110 f3 a4 56 bc 06 82 a1 3c ba 09 be 3c 43 17 96 3c
       -0.01310085 0.01971532 0.023197997 0.018321639
000120 11 89 9f bc c7 82 ba bb d1 34 aa bc 0d 64 03 3d
       -0.019474538 -0.0056918594 -0.020777138 0.032077838
000130 65 55 9f bb ae 7a 30 3c c8 f5 3b 3c 23 52 20 3d
       -0.0048624747 0.010771437 0.011472173 0.03914083
000140 a9 42 71 bc e0 43 f1 ba 35 bc 3a 3c dc e8 10 3c
       -0.014725366 -0.0018407069 0.011397411 0.0088445805
000150 86 fd d1 b9 26 c8 9b 3b 7e 4a 14 bc 9a a2 87 bc
       -0.00040052476 0.004754084 -0.009050963 -0.016557027
000160 60 95 bc 3b 07 7d dc 3b 12 12 c3 bc 33 71 0c 3c
       0.0057551116 0.0067287716 -0.023812328 0.008571911
000170 53 d1 15 bc e5 09 70 3c e9 09 9e bc 7a 2f b4 bb
       -0.009144145 0.014650797 -0.019291835 -0.0054988237
000180 59 28 ca bc 4c 6f 83 bc 61 79 62 3c 2d 93 9b 3b
       -0.024677442 -0.016044281 0.013822884 0.0047477693
000190 3d 6d bf bc c1 41 f7 3c 91 82 88 3c 76 20 7c 39
       -0.023367519 0.030182721 0.016663821 0.00024044685
0001a0 7d 3a 01 bd 5f 6b 51 3c e6 fd 62 3b d3 b8 ba 3c
       -0.03154992 0.012781947 0.0034636199 0.02279321
0001b0 35 26 a6 bc 7f 75 1d 3c 7e b4 fa 3a 66 5f 11 bc
       -0.02028189 0.009610533 0.0019127277 -0.008872842
0001c0 ee c1 24 3c e4 65 17 bc f0 26 fb 3b 0b 06 3b 3c
       0.010056002 -0.009240601 0.007664554 0.011415015
0001d0 e3 c4 27 3c 94 74 be 3b 74 fd 88 3c 69 52 82 3c
       0.010239813 0.005812237 0.016722418 0.015908437
0001e0 09 f4 59 3c 97 f0 c9 bc 57 1b 9e 3c e1 1d 06 3c
       0.013302811 -0.024650855 0.019300146 0.008185835
0001f0 a2 dd e1 3c b8 92 89 3c dc 9c 31 bd d2 6e 53 bc
       0.027571503 0.016793594 -0.043362483 -0.01290484
000200 ee 93 a9 bc ae 11 ed bb 41 bc 84 3c 70 b6 95 bc
       -0.020700421 -0.0072347736 0.016203048 -0.01827547
000210 83 1a 89 bc 3e fa a0 bb 3d 0a 1c 3a 24 3a b4 3c
       -0.016736275 -0.0049126437 0.00059524534 0.02200038
000220 60 31 b8 3c 37 31 46 bc aa 2d b9 bc dc a6 e4 3c
       0.022484481 -0.012096695 -0.022604782 0.027911596
000230 51 fe c9 bc e1 6d 79 ba 8b 9d b2 bb fe 37 4b 3c
       -0.0246574 -0.00095149694 -0.0054509095 0.012403486
000240 3a 0a d1 3c 60 9a f0 3c 75 ce f1 bc 19 bc 42 bc
       0.025517572 0.029370487 -0.029517392 -0.011885666
000250 9d e6 10 3d c7 6b f2 3b 1d cf 64 bc cb c8 21 bc
       0.03537618 0.007398102 -0.013965395 -0.009874533
000260 13 78 7e bc de 8c 73 3c 36 e0 0e 3a 2b 70 c1 3c
       -0.015531558 0.014865128 0.000545028 0.023613056
000270 ce 87 ad 3b 8f d7 7e 3d 93 c0 82 bb 5f fb a8 bc
       0.00529573 0.06221729 -0.003990242 -0.020627676
000280 6b a9 1f bc 50 12 3d 3c ab f5 99 b8 a1 51 b9 bc
       -0.009744982 0.011540011 -7.341368e-05 -0.022621932
000290 7c c8 3b bc 0d 6f 75 ba 1e ce 16 39 49 0b 36 bc
       -0.011461373 -0.0009362556 0.000143819 -0.011111089
0002a0 fb ac 37 bc 78 cd bf bc ba 35 fa bc 7f 22 86 bc
       -0.011210675 -0.023413405 -0.030543197 -0.01637387
0002b0 bf 86 cb 3b 48 12 08 bd 32 91 d8 3a e7 45 01 bc
       0.0062111313 -0.03322056 0.0016522764 -0.007890201
0002c0 97 bd ed bb b0 4b 98 3c 79 51 23 bc 97 be 28 bc
       -0.007255267 0.018590778 -0.009968155 -0.010299346
0002d0 1d 7c 14 bd bb d1 a9 3a e0 a8 8e bc 46 85 26 bc
       -0.036251176 0.0012956181 -0.01741451 -0.010163611
0002e0 e9 2b 03 3b b8 70 8e 3b d0 70 08 3d d0 49 00 bc
       0.0020015186 0.004346933 0.03331071 -0.007830098
0002f0 56 dd da bb 05 87 98 3b 55 02 92 bb a6 99 2b 3c
       -0.0066792173 0.0046547675 -0.0044558444 0.010473644
000300 f8 3a c9 bc ab e4 ac bb 5a 63 85 3c bd 81 51 3c
       -0.024564251 -0.005276283 0.016282726 0.01278728
000310 5a 59 10 bc c4 27 71 3c dd 44 3a 3d 01 bc b0 ba
       -0.008810366 0.0147189535 0.04547583 -0.0013483764
000320 c7 0f ae bc 84 8e 1d 3d 1f 04 df ba d5 af d1 3c
       -0.021247758 0.03846599 -0.0017014778 0.025596539
000330 be 8b ef 3b f1 32 d0 bb 00 db 84 bb 33 9d 5e 3d
       0.0073103597 -0.006353729 -0.004054427 0.054349136
000340 9e a2 05 bd 2a 18 0a 3d 96 4a 02 3c 68 b3 49 3a
       -0.032625787 0.03371445 0.007952353 0.0007694275
000350 1b 75 39 3c 23 db 3d bb 72 3d 9d ba 63 5e ac bc
       0.011319424 -0.0028969727 -0.0011996462 -0.0210411
000360 c9 fb 40 bb 1d 2c 2f bc 8c ff ca bc 7f 73 f5 3c
       -0.002944695 -0.01069167 -0.024780057 0.0299623
000370 7b 38 4a bc 74 7d 3b 3c 4b 7f 05 bd ed cc 02 3c
       -0.012342568 0.011443485 -0.0325921 0.007983428
000380 49 2d b1 bc b8 3f 82 3c bf 27 37 bc d3 f9 4e 3b
       -0.021628039 0.015899524 -0.01117891 0.0031582012
000390 b9 54 a2 bc 94 5d 8d 3c f1 9b 28 bc f6 49 79 bb
       -0.01981579 0.017256536 -0.010291086 -0.003803847
0003a0 fb 0d 2f ba 46 74 54 bc 2c dc a1 ba 55 80 17 bc
       -0.00066778035 -0.012967175 -0.0012348942 -0.009246905
0003b0 3b d1 a4 3c e4 51 80 3c 12 e6 84 bb 74 5d ae 3c
       0.0201193 0.015664048 -0.004055747 0.021284796
0003c0 7e 7b 34 bc 18 39 47 bc bf 24 13 bb e5 6f 68 3b
       -0.011015771 -0.012159608 -0.0022452322 0.0035467085
0003d0 f7 9a c4 3c d8 af 05 bc 39 f0 ed ba fe d2 c7 bb
       0.023999674 -0.0081596 -0.0018153257 -0.0060981503
0003e0 8a f1 1b bc 4e b5 74 bb d9 f4 ad ba 15 dc 36 3c
       -0.009518037 -0.0037339511 -0.0013271823 0.01116087
0003f0 21 4f 0a bd 0c be 10 3d 15 a8 88 3c cb 4c 9d bc
       -0.03376687 0.035337493 0.01668171 -0.019201657

action_model._continuous_distribution.mu.bias f4 [5]
000000 e5 05 01 3a 59 96 17 39 aa a4 24 3b be ad ef 39
       0.0004921838 0.00014456491 0.0025122561 0.0004571508
000010 be 1b 05 bb
       -0.0020310725

action_model._discrete_distribution.branches.0.weight f4 [5, 128]
000000 32 56 61 3b e0 f4 d2 bb b9 24 ca 3b 95 ae 87 3c
       0.0034383652 -0.006437883 0.0061689285 0.01656274
000010 db 7b 0b bc 9f d5 2b 3b f7 9d 4f 3a 79 6a 84 bb
       -0.008513416 0.0026219857 0.0007919962 -0.004041013
000020 d8 6c 34 bc a0 66 81 bb 33 8d ca 3b a9 b3 b5 bb
       -0.0110122785 -0.0039490014 0.006181383 -0.005545099
000030 b0 9f 68 3c 5c 5b 96 bb 6a fc 49 bc a2 78 0c 3c
       0.014198229 -0.0045885276 -0.012328247 0.008573683
000040 e7 c5 cf bb 41 38 b7 bb 33 e1 c6 b9 c6 03 19 bb
       -0.0063407305 -0.005591423 -0.0003793329 -0.0023348196
000050 d7 52 97 bc 05 b4 20 bc 0f b7 a4 3b 07 72 f0 3b
       -0.018472118 -0.009808545 0.005026705 0.007337812
000060 23 51 53 3c 5b e1 70 bc 87 7d ea 3a 15 32 8b bb
       0.0128977625 -0.014702166 0.0017890193 -0.0042479136
000070 66 65 87 3a 77 e0 00 bc 84 99 fe 3a ea cd aa 3b
       0.0010329902 -0.007866017 0.0019424413 0.005212535
000080 5b 0b 6e bb df 52 f8 bb 00 63 47 3a f7 81 d3 3b
       -0.0036322686 -0.0075782384 0.00076059997 0.006454702
000090 ad 76 78 bc 34 45 ce bb 9c bf 8e bc 82 f5 0b bb
       -0.015165013 -0.0062948707 -0.01742535 -0.002135605
0000a0 e3 4b 8e 39 9e 32 dd 3a e1 d3 13 3b 98 33 87 bc
       0.0002714089 0.0016876047 0.002255671 -0.016504094
0000b0 01 1b da 39 6c 57 4f bc 9c fc a4 bb 9c 7b 41 bb
       0.0004160032 -0.01265512 -0.005034996 -0.002952314
0000c0 0a cf 54 3c fa 98 18 3c e0 90 a4 bc 49 d4 61 3b
       0.012988815 0.009313816 -0.020088613 0.0034458807
0000d0 51 88 dc ba 20 c8 ef 39 6b 27 80 bc fd 57 ba ba
       -0.0016825293 0.00045734737 -0.015643796 -0.0014216896
0000e0 2a bb 48 bb b6 e3 e2 bb 04 00 05 bc c4 bf 93 3b
       -0.0030629137 -0.006924118 -0.0081176795 0.004508944
0000f0 be 9e 6e ba ee df 4c bc 0b 1a 69 bb 2f 80 77 bc
       -0.0009102634 -0.012504561 -0.0035568501 -0.015106245
000100 37 0c b6 3a 06 90 db bb 35 8c 57 ba d0 d7 9d bc
       0.0013889138 -0.0067005185 -0.00082224916 -0.019267946
000110 e3 25 4d bc 06 fd 53 ba d8 6c 81 3a b8 f4 bb bb
       -0.01252124 -0.00080867147 0.0009874357 -0.00573596
000120 98 01 a4 bb ea 77 9f 3c ea fc 44 bc 2c df 91 3a
       -0.005005073 0.01946636 -0.01202319 0.0011129132
000130 cd 63 80 3c 24 07 9f 3b de 44 0f 3b 6c 4a c4 3b
       0.015672589 0.004853146 0.0021861116 0.005990317
000140 8a 7f 65 3c 67 14 cb ba 5c 5e 38 bb 9b 19 cb ba
       0.014007458 -0.0015493751 -0.0028132414 -0.0015495302
000150 e0 65 31 3c 2e 4f b2 bb 83 d4 17 bc 52 b1 ad 3b
       0.010827512 -0.005441568 -0.009266975 0.0053006792
000160 7c c9 96 3b 63 49 9d bc 98 4c 69 ba ba 0c cc 3b
       0.0046016555 -0.019200033 -0.0008899658 0.006227103
000170 e4 18 ae bb 8b d9 d7 ba 1c 5a d7 bb 23 4d 01 3c
       -0.005313026 -0.0016468031 -0.006572021 0.007891926
000180 8b ed fc 3a ed 54 36 bc 26 d8 77 bc ae 5c b3 3a
       0.0019296868 -0.011128646 -0.015127217 0.0013684237
000190 8e 84 01 bc e8 3a 93 3c 68 89 ec bb 04 63 a6 3c
       -0.007905139 0.017972425 -0.0072185285 0.020310886
0001a0 5c 86 73 3b 23 d3 0f 3c 0a 4c 6f bb f9 38 b1 bb
       0.0037158942 0.008778366 -0.0036513829 -0.005408403
0001b0 5b f3 ac 3c 9d b0 22 3c ed 0d 25 3c f3 0a 2c 3b
       0.021112135 0.009929803 0.010074121 0.0026251643
0001c0 b9 cf 36 3c 3c bc e6 3b 46 8e 10 3b 36 3a 02 3c
       0.011157923 0.0070414823 0.0022057458 0.007948449
0001d0 42 ef 1c bc 32 43 a2 3a 9c 50 2f 3a b0 f9 34 3a
       -0.009578528 0.0012379645 0.0006687732 0.00069036614
0001e0 db d2 c5 bb 71 d2 4d bc b9 42 5a 3a c1 92 b9 bb
       -0.006037099 -0.01256238 0.00083259825 -0.0056632464
0001f0 42 e7 20 3c 70 05 07 bc e4 1d 4e bc 9d 80 32 b9
       0.009820761 -0.0082410425 -0.012580369 -0.00017023315
000200 05 ce 1b ba 7c 27 61 bc 38 04 05 bc 1d f5 77 3c
       -0.000594348 -0.013742324 -0.008118682 0.015134123
000210 60 b4 97 bc 97 5a b9 3b 72 9f ee 3b d4 89 8a bc
       -0.018518627 0.005656551 0.007282191 -0.016911425
000220 a1 18 b9 bb ea a7 8d 3a 71 72 f3 bb 1f a9 a5 bb
       -0.005648688 0.0010807489 -0.007429414 -0.005055561
000230 6d ad c5 bc 37 3f ae bb a1 fe 63 3a fe 1b 15 3c
       -0.024130547 -0.0053175944 0.00086973055 0.009100912
000240 2f a9 62 3b 4b 75 29 3b 74 74 74 3c cc f0 2a bc
       0.0034585705 0.0025857266 0.014920343 -0.010433387
000250 ac 51 bd 3a 15 1f 16 bb a3 db 2f b9 72 c9 29 3c
       0.0014443896 -0.002290671 -0.00016771122 0.01036297
000260 ef 33 2c 3b bc 2f 98 bb ea 2b 04 bc 98 68 8d bb
       0.0026276072 -0.0046443623 -0.008067111 -0.004315447
000270 5d d9 50 3b 5b 8c f1 3a c4 63 83 3b 0b eb 58 3b
       0.003186784 0.001842867 0.0040096957 0.003309908
000280 59 9d 70 bb 28 e6 62 3b 8f 16 0c bc b6 cc c5 bb
       -0.003671488 0.0034622047 -0.0085503 -0.0060363663
000290 44 5f e4 3b 58 bb 39 bb 1a 49 02 bc 62 2b 12 bb
       0.0069693644 -0.0028340425 -0.007951999 -0.002230369
0002a0 64 01 98 3b 62 09 16 bb 75 31 dd ba 66 8c 30 bc
       0.0046388377 -0.0022893776 -0.0016875701 -0.010775661
0002b0 5d 19 4b bc ae 53 9a bb 6a 19 a8 bb e2 be 44 bc
       -0.012396184 -0.0047096824 -0.0051299827 -0.012008401
0002c0 91 87 2b ba 6e 3b ae 3b 93 a2 a2 3b f2 86 6c 3c
       -0.00065433333 0.005317143 0.004963228 0.01443647
0002d0 aa a2 9d bc 71 67 01 bc 8a 69 fa bb 5e 6a 6f bc
       -0.019242603 -0.0078981975 -0.007641976 -0.014612762
0002e0 d2 16 32 b9 8c 2d 26 bc 23 31 48 3b d9 52 7d 3c
       -0.00016983904 -0.010142695 0.0030546866 0.015461647
0002f0 43 b4 f6 3b 9c ba 5b 3a 1d 29 69 3b 06 71 4d 3b
       0.007528813 0.0008381994 0.0035577484 0.0031347885
000300 c8 ed db ba f7 f2 7b bc 65 9e 40 3c a2 e2 28 bc
       -0.0016779238 -0.015377752 0.011756514 -0.01030794
000310 2b f7 a6 bb 2d 8b 41 3c 9f 7d 80 bc 1b a9 07 3c
       -0.0050953827 0.011812967 -0.0156849 0.008280064
000320 e3 33 17 bb ff 33 e9 3a 70 dd 06 3c 4d 1a 17 3c
       -0.0023071698 0.0017791985 0.008231506 0.009222579
000330 0c bf cd bb 06 47 9f bc ef 8a d7 ba fe d9 dd bb
       -0.006278878 -0.019443046 -0.0016444604 -0.0067703715
000340 04 b5 2b bc f7 f0 78 bc 69 a8 a6 3a d2 f7 b6 39
       -0.010480169 -0.015194169 0.0012714985 0.00034898386
000350 67 ce 0d bc 14 2a 69 bb 5d da 25 bc b7 7d af ba
       -0.008655167 -0.003557806 -0.010122863 -0.0013388906
000360 ba a2 96 3c 73 b7 93 bb 77 82 37 3c 16 8e 50 3c
       0.018388141 -0.004507953 0.011200539 0.012729188
000370 8e 27 03 bc 32 58 b3 bb 23 87 1b 39 4c 70 70 3c
       -0.008005036 -0.00547316 0.00014832294 0.014675211
000380 a0 d5 40 bb 9f 34 6b bb 6d 92 03 3b be 3a b4 3b
       -0.0029424205 -0.003588952 0.002007629 0.0055001667
000390 c6 01 33 ba cc 7d 6b 3b bf a7 f1 bb c3 50 0a 3c
       -0.00068285724 0.0035933135 -0.007374733 0.008442107
0003a0 9c c3 55 bb cf 40 8a bb 83 c9 84 bc 27 b2 ad bb
       -0.0032617813 -0.0042191516 -0.01620937 -0.0053007784
0003b0 a6 cb ee 3b fe a2 1c bc 45 9e 8b 3a 5f 73 fa bb
       0.0072874604 -0.009560345 0.0010652026 -0.007643148
0003c0 92 27 c9 3b 1f e3 0e 3b 9b c2 83 3c 79 df 3e 3c
       0.0061387504 0.0021802855 0.016084006 0.01164996
0003d0 99 76 36 ba 4f 87 c9 39 ec 20 23 3c 20 64 2a 3c
       -0.00069604215 0.0003843852 0.00995658 0.010399848
0003e0 0b ae 0e bc eb 3c b0 b9 18 22 e0 3a 1b dd 2e 3c
       -0.008708487 -0.00033614723 0.0017100004 0.010672833
0003f0 53 06 08 3c 94 6e d7 bb 8b 31 11 bb 58 b6 29 bc
       0.008302289 -0.0065744612 -0.0022154774 -0.010358416

action_model._discrete_distribution.branches.0.bias f4 [5]
000000 01 5b 85 3b 98 26 5e 3b 28 67 12 3b 7c 18 c0 3a
       0.0040696864 0.0033897515 0.0022339318 0.0014655734
000010 ea 8e c2 bb
       -0.005937447
