results/FasterTank/Tank/Tank-7419.onnx (onnx, 135748 bytes, 7 tensors)

network_body._body_endoder.seq_layers.0.weight f4 [128, 112]
00000000: 30c0 d33d 88fd cb3d 8488 613c b322 c0bd
00000010: 1834 52be 3e56 d63d 57f8 80bd 9154 ba3b
00000020: 1390 823d 03c7 a3bd afd5 86bd 013f 3f3d
00000030: b068 e6bd b141 f33d 6046 813d e50f d33d
00000040: bc3b b6bc 5783 61bd 3e0e 133d 52df ee3d
00000050: 7560 bc3d 52a6 fbbd 67af 19bd 1051 123c
00000060: 45f1 3d3d faec b9bd c896 6d3c ea48 a8bd
00000070: 1fd8 f2bd 5ca9 253e a19f c03d b379 debd
00000080: eda4 ebbd f923 12bd a046 3f3d 6fb2 2b3d
00000090: 9560 d93c 0116 47be 3131 dd3d a3fc fdbd
000000a0: 974d 8b3c b579 913d 3b50 363e 2d47 6b3e
000000b0: 5331 d13d fd52 91bd 169b 793d 6795 babb
000000c0: 465a adbc 8d51 3c3d cc99 a8bd 6fab 2d3d
000000d0: af3c 1abc 715d 1d3d d57f 403d e73d b9bd
000000e0: 9c7c 8a3d 3025 9d3c b6f3 18be 07cd 613d
000000f0: 83b7 a2bd bb6c c1bd baa3 2ebe 68ee 89bd
00000100: c417 f8bc 83bd 2fbd 8653 a4bc c5fc 543c
00000110: 823b 03bd b24b 4f3e de21 adbd 3f5e 883d
00000120: 6161 27be 3d6d 94bd 2a54 133e 5240 b03d
00000130: 9d40 4cbc 98d2 ed3a 11cb 873d b7c3 cc3d
00000140: fc02 e73d e9b3 0d3e 1360 b23c 2954 19bd
00000150: f6b6 5ebd c868 35be 32bc 113e 258e dfbc
00000160: 5e41 01bd 401b ecbc 27a1 25bc 4bc7 a73c
00000170: e7d7 dabd 5ba9 953e f013 17be 988f 8cbd
00000180: 87a8 db3d 31d9 f13d b70b 8cbd 855a 923d
00000190: 3c76 78bc 5d4d 4cbe 3f14 97bd 2577 04bd
000001a0: cdb0 d6bd dc66 4a3c f154 a93d 8d54 cebc
000001b0: 3c7c e53c 4f34 a1bc e47e e2bc 1439 0cbe
000001c0: a7e6 d63d be0b 75bc 1287 5a3e d13c b23c
000001d0: 17ac 49bd 7d02 a5ba e6fc 1c3d 4410 01bc
000001e0: a48f 96bd 8e40 ce3d 6d31 603d b73d 92bd
000001f0: 5e34 b4bd 6890 553d 0f5c bb3d fa29 323b
00000200: 9cb5 fe3d ad1d e23c 6cc7 033d b5a3 f63c
00000210: e4b1 0e3e dc26 8f3d c261 6c3d c091 ebba
00000220: cd43 f0bc df69 d83d 6928 8d3d a583 d1bd
00000230: 882e a13d cdd0 3ebe 6c11 a03c d936 e63d
00000240: 9330 533c ad44 c13d 2735 96bd 8c25 95bd
00000250: 0f26 e2bd 66aa 78be 1315 6a3d 0b79 34be
00000260: 7d49 75bd 0f48 7fbd 920b 79bc 2084 abbd
00000270: 952b 84bc fbe0 123c 9f22 d4bd 26fa 6abd
00000280: c1ab 093d 8a51 b4bc bc5a 563d d1dc e4bd
00000290: c5f7 cebd c738 463c 3e14 06be fe10 51bc
000002a0: 35dc 533d a349 a93d c3ec 10bb 35d8 53bc
000002b0: c7e0 2f3d acd1 723d f53b 313d b5ed 05be
000002c0: 2d93 033e b4c1 5dbd f3a2 4f3d 9254 91bd
000002d0: 8195 40bb 69da aabb 93f5 b83d bea6 9e3d
000002e0: c750 a9bd 44f5 183d e774 88bd 855a efbd
000002f0: 709e cd3d fccc 443e 4c8a 0dbb b8a4 b0bd
00000300: fa73 5dbc c510 c03c 31aa fabc 065e aebb
00000310: 1de4 14bd 4008 0cbe a014 d8bc 3e0a 5bbd
00000320: 1d30 06bd 3c88 dfbc f540 eebb b358 66bd
00000330: a834 bd3c e058 cc3c 8931 9d3d e7c7 883d
00000340: 12e4 0dbe e512 60bc 9f11 073e 4d3b 8b3d
00000350: 9651 1dbb 5a98 ecbd 96db 22bb e4f7 d0be
00000360: 5f28 a9bd f977 273d eb42 1e3e d035 b7bd
00000370: c10b 3dbc a4ee bcbd afdd d2bd 6599 3ebd
00000380: 58f5 c33d 6008 4cbc f900 a0bd 7725 0f3e
00000390: b765 35bd 5551 9bbd 1d8b 9bbd 0a50 2dbe
000003a0: 19a3 d5bd 2d44 a0bc 8626 9ebd afe0 bb3c
000003b0: 4b5d a9bd b18e 42bd 991c 2a3d ef53 efba
000003c0: 8253 783b 784c 3b3d 1b8c 2d3e 027c b3bc
000003d0: aa4e b8bd 185a d8bc 9b2a bcbd 8d8b 9b3d
000003e0: a6c3 45bd edbf fb3d 3e5b bf3c d271 2639
000003f0: 1c61 7cbd 7c0e b23d d90d aa3d c585 5f3d
0.10339391 0.099604666 0.013765458 -0.09381618 -0.20527685 0.10465668 -0.06297367 0.0056863506
0.06375136 -0.07996943 -0.06583726 0.046690945 -0.11250436 0.11877764 0.06312251 0.10305766
-0.02224528 -0.055056896 0.035902254 0.11663689 0.09198085 -0.122875825 -0.037520792 0.00893046
0.04637267 -0.09078403 0.014501281 -0.08217032 -0.11857628 0.16177887 0.09405447 -0.10863056
-0.115060665 -0.035678837 0.046698213 0.041918214 0.026535312 -0.19441988 0.10800398 -0.12401702
0.017004771 0.07103292 0.17804043 0.2297637 0.10214486 -0.07095907 0.060938917 -0.0056940797
-0.02116121 0.04597621 -0.082324594 0.04239982 -0.009413882 0.03841919 0.04699691 -0.0904501
0.067620486 0.019182771 -0.14936718 0.05512717 -0.07945158 -0.09444567 -0.17054644 -0.067349255
-0.03028477 -0.04290534 -0.020059358 0.012999718 -0.032039173 0.20243719 -0.08453725 0.06658601
-0.16345741 -0.07247398 0.14387575 0.08606018 -0.012466577 0.0018144427 0.06630529 0.09998267
0.11279866 0.13838162 0.021774327 -0.037433777 -0.054373704 -0.17715752 0.14231947 -0.02728946
-0.03155648 -0.028821588 -0.0101092225 0.020480772 -0.10685711 0.2923077 -0.147537 -0.06863326
0.107255034 0.11809004 -0.06838172 0.071461715 -0.015164908 -0.19951387 -0.073769085 -0.032340188
-0.10482941 0.012353625 0.082681544 -0.025186801 0.028013341 -0.019678263 -0.027648397 -0.13693649
0.10493212 -0.014956413 0.21340588 0.021757515 -0.049236383 -0.0012589243 0.03832712 -0.007877413
-0.07351616 0.100709066 0.054734636 -0.071406774 -0.08799051 0.05213967 0.09148418 0.0027185665
0.12436983 0.027602041 0.032172605 0.030107358 0.13935047 0.06989834 0.057710417 -0.0017972514
-0.029329205 0.10567068 0.06892473 -0.10230187 0.07870203 -0.18634339 0.019539557 0.1124093
0.012889999 0.09436927 -0.07334357 -0.07282552 -0.11042415 -0.24283752 0.057149004 -0.17624299
-0.059884537 -0.06232458 -0.0152005125 -0.0837481 -0.016134063 0.008964772 -0.10358166 -0.057367466
0.033611063 -0.022011537 0.052332625 -0.1117493 -0.10105852 0.012098498 -0.1309366 -0.012760399
0.051723678 0.08265998 -0.0022113777 -0.012929966 0.042938974 0.05928199 0.04327007 -0.1307896
0.12849112 -0.054139808 0.05069251 -0.07096209 -0.0029385986 -0.005214025 0.090312146 0.07746647
-0.0826736 0.03734328 -0.06662922 -0.11687187 0.10039985 0.1921882 -0.0021597324 -0.086251676
-0.0135164205 0.023445496 -0.030598732 -0.005321267 -0.03635036 -0.13675022 -0.026377022 -0.053476565
-0.03276073 -0.027286641 -0.007270927 -0.056236934 0.023096398 0.024944723 0.07675464 0.06678753
-0.13856533 -0.01367638 0.13190316 0.0679842 -0.0024004928 -0.11552496 -0.0024850122 -0.40814126
-0.08259653 0.0408859 0.15455215 -0.08945811 -0.011538447 -0.092252046 -0.10296189 -0.046533007
0.0956828 -0.012453169 -0.078126855 0.13979135 -0.044286456 -0.07583872 -0.07594893 -0.16925064
-0.10431499 -0.019563759 -0.077221915 0.022934286 -0.08269747 -0.047499362 0.04153118 -0.0018259267
0.0037891571 0.045727223 0.16947977 -0.021909717 -0.08999379 -0.026410148 -0.09187814 0.075949766
-0.048282288 0.12292466 0.023358937 0.00015873395 -0.06161605 0.08694169 0.083034225 0.054570932

network_body._body_endoder.seq_layers.0.bias f4 [128]
00000000: 0000 0000 0000 0000 0000 0000 0000 0000
00000010: 0000 0000 0000 0000 0000 0000 0000 0000
00000020: 0000 0000 0000 0000 0000 0000 0000 0000
00000030: 0000 0000 0000 0000 0000 0000 0000 0000
00000040: 0000 0000 0000 0000 0000 0000 0000 0000
00000050: 0000 0000 0000 0000 0000 0000 0000 0000
00000060: 0000 0000 0000 0000 0000 0000 0000 0000
00000070: 0000 0000 0000 0000 0000 0000 0000 0000
00000080: 0000 0000 0000 0000 0000 0000 0000 0000
00000090: 0000 0000 0000 0000 0000 0000 0000 0000
000000a0: 0000 0000 0000 0000 0000 0000 0000 0000
000000b0: 0000 0000 0000 0000 0000 0000 0000 0000
000000c0: 0000 0000 0000 0000 0000 0000 0000 0000
000000d0: 0000 0000 0000 0000 0000 0000 0000 0000
000000e0: 0000 0000 0000 0000 0000 0000 0000 0000
000000f0: 0000 0000 0000 0000 0000 0000 0000 0000
00000100: 0000 0000 0000 0000 0000 0000 0000 0000
00000110: 0000 0000 0000 0000 0000 0000 0000 0000
00000120: 0000 0000 0000 0000 0000 0000 0000 0000
00000130: 0000 0000 0000 0000 0000 0000 0000 0000
00000140: 0000 0000 0000 0000 0000 0000 0000 0000
00000150: 0000 0000 0000 0000 0000 0000 0000 0000
00000160: 0000 0000 0000 0000 0000 0000 0000 0000
00000170: 0000 0000 0000 0000 0000 0000 0000 0000
00000180: 0000 0000 0000 0000 0000 0000 0000 0000
00000190: 0000 0000 0000 0000 0000 0000 0000 0000
000001a0: 0000 0000 0000 0000 0000 0000 0000 0000
000001b0: 0000 0000 0000 0000 0000 0000 0000 0000
000001c0: 0000 0000 0000 0000 0000 0000 0000 0000
000001d0: 0000 0000 0000 0000 0000 0000 0000 0000
000001e0: 0000 0000 0000 0000 0000 0000 0000 0000
000001f0: 0000 0000 0000 0000 0000 0000 0000 0000
0.0 0.0 0.0 0.0 0.0 0.0 0.0 0.0
0.0 0.0 0.0 0.0 0.0 0.0 0.0 0.0
0.0 0.0 0.0 0.0 0.0 0.0 0.0 0.0
0.0 0.0 0.0 0.0 0.0 0.0 0.0 0.0
0.0 0.0 0.0 0.0 0.0 0.0 0.0 0.0
0.0 0.0 0.0 0.0 0.0 0.0 0.0 0.0
0.0 0.0 0.0 0.0 0.0 0.0 0.0 0.0
0.0 0.0 0.0 0.0 0.0 0.0 0.0 0.0
0.0 0.0 0.0 0.0 0.0 0.0 0.0 0.0
0.0 0.0 0.0 0.0 0.0 0.0 0.0 0.0
0.0 0.0 0.0 0.0 0.0 0.0 0.0 0.0
0.0 0.0 0.0 0.0 0.0 0.0 0.0 0.0
0.0 0.0 0.0 0.0 0.0 0.0 0.0 0.0
0.0 0.0 0.0 0.0 0.0 0.0 0.0 0.0
0.0 0.0 0.0 0.0 0.0 0.0 0.0 0.0
0.0 0.0 0.0 0.0 0.0 0.0 0.0 0.0

network_body._body_endoder.seq_layers.2.weight f4 [128, 128]
00000000: b47f 2dbd a927 1abe c8d1 10bd 9b69 f33d
00000010: 88aa e3bd 8bd6 ba3d e236 aebd a9eb f63d
00000020: e5af 2dbe a1f4 893d 6287 f83d f123 e83c
00000030: 13cf 393d 850c 3f3d 9a4e 88bd 6d54 72bc
00000040: 5790 633b 0527 803d 802c d33d 9b73 d7bc
00000050: fae9 903d a27c 28bc 5633 223d 3737 803d
00000060: f8c2 adbd 801d ab3d 627e dc3d 71b8 6f3e
00000070: 06c6 053d 0539 52bd 1e29 78bc 31ad ccbc
00000080: 9424 3ebd 90c2 8fbd c599 24bc f180 5fbd
00000090: 022a cebc c55e 8b3c aeef 13bc 658c 8bbd
000000a0: a1ee 003b 604f 8abd 62b7 2abe 09b5 f5bd
000000b0: 19e2 8bbd d73d d5bc f0d2 563e feef c93c
000000c0: 537c 2a3d f1ae e1bd 4a9f 4dbd b0fd 743c
000000d0: 2e90 943d 667c 6b3d 293a 483e 8b9d 073e
000000e0: 852f 763d 8fea 563d bc59 833d e5bc 173d
000000f0: ca77 653d 43d9 023e 1f43 383c f2bc c9bd
00000100: b8b0 84bd 47ee 1ebd 3b3d 0bbd 1d1d 263e
00000110: 70c7 793c 9277 e4bd 11d8 39bc 4d5d 0e3e
00000120: 97e0 db3c f5e2 f33d 172f 963d f7b2 373c
00000130: fe52 943d 9f7d c63c 8d55 3f3c 41d3 0fbd
00000140: 4c35 01be 73fd 043e 5dbc c0bd 82fa 833c
00000150: 4fd9 a83d fc09 a73d be44 0fbc 4a03 ae3d
00000160: d876 743d 1060 2c3e 00c3 03bc 0af8 e13b
00000170: 73c7 aebd 9d8b c9bc 0b18 acbd 6fcf a93c
00000180: 0987 9fbc 1e18 a63c 0f4b 23bc 64ce 3f3d
00000190: 83ad 93bc c671 d23d 505d 013e 5a63 523e
000001a0: 93b5 eebd e9d7 113d 7aab 8cbc 9243 473c
000001b0: fd28 2abd 7615 1b3e 8d4f 143e 0567 6c3d
000001c0: 5435 04be e915 a03a fc5f 5bbe ece4 8e3d
000001d0: a080 6dbd 3e0c b5bd 29b1 ed3b da7f 113e
000001e0: 0e18 2fbe 2dd2 aa3c 379f 113e 0a05 16bd
000001f0: afde 1d3e eb1d 73be a993 833d f408 973c
00000200: ca29 c9bc 8cb9 ec3c abbe c2bd cc72 bc3d
00000210: 0208 f23d 2027 3fbd da5f d03d 7dab 963d
00000220: 0422 663d 7332 8dbd 19a0 fd3a 0f24 b1bd
00000230: 3249 eb3d ea7b 953d 9dfd 273e 3fb7 7bbd
00000240: 6d2f 3a3d 8db6 8abc a6a2 86bd 339d 36bd
00000250: 8d38 c63b 2c03 21bc 19d7 afbc 1851 89bd
00000260: 4291 f83d 240b 563d 38ca 773d d827 81bc
00000270: fd1a 91bc 32f5 1ebe ec08 163e 728e 3cbd
00000280: b35f 893c 53d5 373d 0298 8d3d fcee 04be
00000290: 3215 8ebd c1e8 e23b 632a b5bd 0b75 783b
000002a0: a0ff 75bd f53d a5bd 424d a23d d806 ec3d
000002b0: a2b8 f53d d581 8c3d 0233 c1bd 569a ce3c
000002c0: d2f8 df3d e892 c2bd d48f 20bc 2fa9 ff3d
000002d0: ff4f 303e 4487 973c 26d8 80bd ac13 89bc
000002e0: b9e3 f53c a167 60bd 3fb1 14be 7c71 ee3d
000002f0: 5b23 c73d 84a6 0fbd be56 19bc 6fe7 f5bd
00000300: 705f cbbd 60aa 03be 29d1 2c3d 8878 403d
00000310: 99d7 e03d 3332 19bd 491f fabb cb88 aa3d
00000320: 9079 24bd 65ea b7bd 827d f53c 35bd 79bd
00000330: 3233 373e 55a7 e6bc 9f02 9bbd e802 bb3d
00000340: 751b ae3d 3081 bdbd 22d8 b73d f968 f7bc
00000350: 6ad7 163e 3e1b 10bd 9c04 3e3e 33cc 923c
00000360: c461 d13c cf99 86bd 8d40 333e 09f4 4f3c
00000370: 8a55 e5bc 2860 803d c155 7b3b 27ac 803d
00000380: 6cc6 973d 3438 a6bd 1f54 bd3d ac79 2d3b
00000390: 477e b43d b94f 24bd a7ec b73b 14bb 213e
000003a0: a1db f73d 125c b13d 8560 38bd 7054 0f3e
000003b0: 8dd5 813c de74 97bd 1924 683b a577 0ebd
000003c0: a812 293c b019 b93d 83d5 07be 5ef0 b93b
000003d0: 189a 213d 77ea 9e3d 9181 703c b26a 1ebe
000003e0: 0697 22bd 5b78 373d 6eec 3dbc 6042 0cbe
000003f0: 9b97 083e 5699 dc3d 545b a9bd 2382 a33d
-0.042358115 -0.15054192 -0.035356313 0.11885377 -0.11116511 0.09122952 -0.08506562 0.12056667
-0.1696163 0.067361124 0.12135197 0.02833745 0.045363497 0.0466428 -0.06655617 -0.0147906365
0.0034723484 0.062574424 0.10311222 -0.026300242 0.070758775 -0.010283621 0.03959974 0.062605314
-0.08484453 0.08355236 0.10766293 0.23410203 0.032659553 -0.05132391 -0.015146522 -0.024984928
-0.046421602 -0.07019532 -0.010046427 -0.054566327 -0.025166515 0.017012963 -0.009029312 -0.068138875
0.0019673484 -0.06753421 -0.16671517 -0.1199742 -0.06830234 -0.026030464 0.20978904 0.02465057
0.04162247 -0.110196956 -0.050200738 0.014953062 0.072540626 0.057491682 0.19553436 0.13243692
0.060103912 0.052469786 0.064136 0.03704538 0.056022443 0.12778191 0.011246472 -0.098504916
-0.06479019 -0.038801458 -0.03399394 0.16222043 0.0152453035 -0.11155619 -0.011343018 0.13902779
0.026840491 0.11908523 0.073332004 0.011212102 0.07242392 0.024229823 0.011678112 -0.035113577
-0.12617987 0.12987308 -0.094109274 0.016110662 0.08244573 0.08156201 -0.008744417 0.08496721
0.05968365 0.1683352 -0.008042097 0.0068960236 -0.08534136 -0.024602706 -0.08403023 0.020728795
-0.01947357 0.020275172 -0.009966626 0.04682769 -0.018027073 0.10275607 0.12633252 0.20545712
-0.11655726 0.0356063 -0.01717161 0.012162106 -0.041542996 0.15144905 0.14483471 0.057715435
-0.12910968 0.0012213561 -0.21423334 0.06977257 -0.057983994 -0.08840226 0.007253785 0.14208928
-0.1709902 0.020852173 0.14220892 -0.0366259 0.15416978 -0.23741882 0.06424648 0.018436886
-0.02455606 0.02889707 -0.09509023 0.09201583 0.118179336 -0.046668172 0.10174532 0.073569275
0.056184784 -0.06894388 0.0019350081 -0.08649456 0.1148857 0.07299025 0.1640534 -0.061454054
0.045455385 -0.01693275 -0.065739915 -0.04458351 0.006049222 -0.009827416 -0.021464871 -0.067049205
0.12137081 0.05225672 0.060495585 -0.01576607 -0.017713064 -0.15523222 0.14651841 -0.046034284
0.016769266 0.044881176 0.06913759 -0.1298179 -0.069376364 0.006924719 -0.08845975 0.003791156
-0.060058236 -0.08068458 0.07924892 0.11524743 0.119981065 0.06860701 -0.09433557 0.025220077
0.109361306 -0.095006764 -0.009799916 0.12483441 0.17218016 0.018497117 -0.06291227 -0.016733013
0.030015813 -0.05478633 -0.14520739 0.11642739 0.097235404 -0.03507091 -0.00935906 -0.12007033
-0.09930313 -0.12857962 0.04219166 0.046989948 0.10978622 -0.03740139 -0.007633124 0.083268724
-0.040154994 -0.08980254 0.029967073 -0.060971458 0.17890623 -0.028155962 -0.07568859 0.09131414
0.08501331 -0.09253156 0.08976771 -0.030201422 0.14730611 -0.03518223 0.18556446 0.017919635
0.025559314 -0.065723054 0.17505093 0.01269246 -0.02799489 0.0626834 0.0038350674 0.062828355
0.07410893 -0.08116189 0.092445605 0.0026470227 0.08813148 -0.040115092 0.005612928 0.15794021
0.12102438 0.08660139 -0.045013923 0.13997054 0.0158489 -0.073953375 0.0035421907 -0.03478207
0.010319389 0.090381026 -0.13265042 0.005674406 0.039453596 0.07759564 0.014679329 -0.15470389
-0.03969481 0.044792514 -0.011592014 -0.13697195 0.13339083 0.10771434 -0.082693726 0.07983806

action_model._continuous_distribution.log_sigma f4 [1, 5]
00000000: 0000 0000 0000 0000 0000 0000 0000 0000
00000010: 0000 0000
0.0 0.0 0.0 0.0 0.0

action_model._continuous_distribution.mu.weight f4 [5, 128]
00000000: b512 debb ad71 673c b3a5 6cbc 0652 b1bc
00000010: cacc 76ba e152 ba3b 27dd 7abc c253 ea3b
00000020: 101f b83b ef4f 8abc afa0 77bb 9ea6 91bc
00000030: b535 213d 251e 0fbd 2a63 083d fbcf 4abb
00000040: d793 96bc 2046 b1bc 570a ef3c 7747 103d
00000050: 175c 7e3b 1696 29bc bd5c 25bc 2737 ca3b
00000060: d14b 003d aaa4 57bc ab86 fc3c 8201 a9bb
00000070: 0be1 263c 3362 75ba dbc6 653c af71 30bc
00000080: f07c ecba 03ce bdbc 0fd4 a3bb ccd1 28bc
00000090: 9f3e 7c3c c9f1 0a3d 13b1 81bc cd31 53bb
000000a0: 806c 0bba 6201 66bc b654 0dbd 5e9b 0e3d
000000b0: ab72 56bc e525 d0bb 1b68 293c 546e 193b
000000c0: 1d72 a73c 00cb 09bd bcee 2e3c 4d7a c73b
000000d0: 2429 bb3b 1a80 f83b 9f06 983c a7d6 d9bc
000000e0: a46b ae3a e9f9 a6bb 36a0 aabc 94e7 943b
000000f0: 88df 5fbc b369 8a3c c006 e73b 62be ffbb
00000100: a89d 80bc c648 833c 87cd bc3b 5d3f 5d39
00000110: 4f52 203c 77c3 d43c 7a61 843b 9788 783c
00000120: 4b80 973c 5c78 84bc 2b48 bebc 6f05 bfba
00000130: 1bac d53a 7191 21bc d747 763b 1e20 00bc
00000140: 3fb0 4bbc 5733 a5bc 2307 0f3c 04aa 953c
00000150: 98ef 24bb cf86 ef3c 38c5 213c 4fc8 8bbc
00000160: 7824 3e3d a833 5dbc 0fda 523b eaf3 5f3c
00000170: 2dcf f43a 1c3f 823a 4d63 55bc 5284 6cbc
00000180: 73b8 cf3c 8ceb 893c 2785 04bc 9bba e9bc
00000190: 57df babc 5f95 cf3c ba4c 19bc fd9e 6bbc
000001a0: 48f4 feba 476b 32bb e1ec 973b 2a40 fabb
000001b0: ba8c bd3c 7710 1cbc 1b5f dc3b e180 953c
000001c0: eaa6 cd3c d78a d7bc f162 acbb e5e7 1bbd
000001d0: 1274 55bc dbf8 1b3b 6c0c a53c 8f4c 5f3c
000001e0: 2dd7 483c 7a41 9abc 076b 203c d7d8 dfbc
000001f0: 576a 01bc 5e96 ae3c 40f3 1ebd d0fc c13c
00000200: a315 9dbb 9f46 7a3b 28ac 89bc b485 acbc
00000210: e35f 88bc 6f5a 83bb b3be 9e3c 5d03 d33b
00000220: 7b2d 013d b1bf 4c3b 48e4 07bd 3c33 943a
00000230: 0e4d 993c a611 05bc b0ef f33b 6bab 553c
00000240: ab0c c03c 3992 aa3b f716 163d d195 3dbc
00000250: 49f7 10bd 3a1e 3a3c 357b c83b 7b82 983c
00000260: 948c 493b 89f4 833c 02b8 e8bc 7d16 82bc
00000270: 1236 09bc fa34 0abc 3e95 14bc fad1 633c
00000280: e478 a3bb fc48 19bc ea84 6fbc 8508 6c3c
00000290: c42a 373d 78aa a8bc d74f 29ba b765 85bb
000002a0: aef7 343c 0320 96ba f73b bebc 5878 acbc
000002b0: 46fe 43bb b36f b93b f542 80bc 007c 9abc
000002c0: 3ab8 dfbc 69d4 423c 69ee 0fbc 0f64 883c
000002d0: f8c2 063c 34d7 9cbb b551 16bc 0083 e53c
000002e0: 1ad6 ebbb 4bc5 e13c 7d11 66bb f4e1 9e3c
000002f0: 4d68 613c 25ff 083a a05a 493c 5c27 9bbb
00000300: 2a39 e8bc 3d62 42bd 44dc 943c 4a0e 73bc
00000310: 9839 073a 01da b83b 12c8 933c 525e 44bc
00000320: 6cb2 ccbc 1c48 8ebc db8f 823c a21f d5bc
00000330: 5da8 9fbc 8fd6 96bc 6a73 ca3b 2231 e2bb
00000340: 2f82 9cbb 4d83 c9ba 550d f7bc 43a6 a93c
00000350: 7554 713b 30d1 4dba e2f8 d53c 3b2d e4bb
00000360: 33cc 12bc 2385 d1bb a87e 1bb9 8583 9e3c
00000370: a37d ccbb 4d09 ffbc e6db 333c 6a2e d13c
00000380: 787c b9bc 8821 efbb 0a6f 4b3c 01d7 82bb
00000390: 656b dc3b ae38 453b 704a 51bc efae c7bb
000003a0: 3bbf b53c af70 a73c 0895 69bb b387 08bc
000003b0: 2865 e63b e0a9 043c 3fe6 fbbc a0df e3ba
000003c0: 5140 bf3c b3c7 b7bb 37c9 b4bb b18e c9bb
000003d0: 08ce a13c 4fe3 c23a 625f dab8 0518 493c
000003e0: a7a2 06bc 3d6b 3aba 4510 603c c3f4 2c3b
000003f0: cdef 183a b0fa 8f3c eb9b 313c 8b00 4cbc
-0.0067771324 0.0141262235 -0.014443803 -0.021645557 -0.0009414671 0.0056861495 -0.015311516 0.007151098
0.0056189373 -0.016883818 -0.0037784984 -0.017779645 0.03935786 -0.034940857 0.033297695 -0.003094672
-0.018381042 -0.021639884 0.029179735 0.035224404 0.0038812214 -0.010350725 -0.010092911 0.0061711255
0.031322304 -0.013161818 0.030825933 -0.0051576504 0.01018549 -0.0009360641 0.014024462 -0.010769292
-0.0018042605 -0.023169523 -0.0049996446 -0.010303926 0.015395789 0.03392199 -0.015831506 -0.0032225729
-0.0005318597 -0.014038416 -0.034504615 0.03481614 -0.013088862 -0.0063521736 0.010339762 0.0023411708
0.020440156 -0.03364086 0.010677036 0.0060875774 0.0057116915 0.0075836303 0.018557845 -0.026591612
0.0013307226 -0.0050957096 -0.020828348 0.004544208 -0.013664134 0.016896104 0.007050365 -0.007804678
-0.015700176 0.016025912 0.0057618055 0.00021099807 0.009785249 0.025972111 0.0040399404 0.015169284
0.018493792 -0.016170673 -0.023227772 -0.0014573763 0.0016301902 -0.009861336 0.003757944 -0.007820157
-0.012432157 -0.020166082 0.008729729 0.018269546 -0.0025167223 0.029239086 0.009873681 -0.017063288
0.046421498 -0.013501085 0.003217343 0.0136689935 0.0018677466 0.0009937021 -0.013024163 -0.0144358445
0.025356507 0.01683595 -0.008088387 -0.028531363 -0.022811575 0.02533978 -0.009356672 -0.0143811675
-0.0019451464 -0.0027224587 0.0046363925 -0.0076370435 0.023138393 -0.00952541 0.0067252046 0.01824993
0.025104005 -0.026311321 -0.005260818 -0.03806295 -0.013028162 0.0023799452 0.020147525 0.013629093
0.012258333 -0.01883005 0.009791142 -0.027325077 -0.007898889 0.021311935 -0.0388062 0.02368012
-0.004793839 0.0038189066 -0.016805723 -0.021059848 -0.016647285 -0.0040085833 0.019378042 0.00643961
0.031537514 0.0031242187 -0.03317669 0.0011306773 0.0187135 -0.0081218835 0.0074443445 0.0130413575
0.02344354 0.0052054194 0.036642995 -0.011571364 -0.03539208 0.011359746 0.006118203 0.018616905
0.0030753957 0.016107814 -0.028408054 -0.015879864 -0.008374708 -0.008435482 -0.009068785 0.013905043
-0.0049887765 -0.00935578 -0.0146190915 0.014406328 0.04471852 -0.020589098 -0.00064587354 -0.0040709632
0.01104538 -0.0011453632 -0.023221953 -0.021053478 -0.0029906197 0.0056590675 -0.015656928 -0.018857956
-0.027309526 0.011891463 -0.008784869 0.016649274 0.008225195 -0.0047863964 -0.009174754 0.028016567
-0.0071971538 0.027559897 -0.0035105639 0.019394852 0.013757777 0.0005226008 0.012289673 -0.0047349166
-0.02834757 -0.04745697 0.018171437 -0.01483495 0.00051584234 0.0056412225 0.018039737 -0.011985378
-0.024987422 -0.017368369 0.015937736 -0.02601606 -0.019489462 -0.018412856 0.006178309 -0.0069028297
-0.0047762613 -0.0015374214 -0.030157724 0.020709163 0.0036824022 -0.0007851301 0.026119653 -0.0069633997
-0.008959818 -0.006394045 -0.00014829135 0.019349823 -0.006240563 -0.031132365 0.010977721 0.025534827
-0.02264236 -0.0072976984 0.0124166105 -0.0039929156 0.0067266696 0.0030093598 -0.012774095 -0.0060938518
0.022185912 0.020439474 -0.0035641808 -0.008333134 0.0070311017 0.008097142 -0.030749438 -0.0017385371
0.023346098 -0.005608523 -0.0055171507 -0.0061510433 0.019751564 0.0014868769 -0.000104128165 0.012273793
-0.00821749 -0.00071113167 0.013675754 0.0026391007 0.0005834073 0.017575592 0.010840396 -0.012451301

action_model._continuous_distribution.mu.bias f4 [5]
00000000: 0000 0000 0000 0000 0000 0000 0000 0000
00000010: 0000 0000
0.0 0.0 0.0 0.0 0.0

action_model._discrete_distribution.branches.0.weight f4 [5, 128]
00000000: 8be0 a43a 998c 213c 347e cbbb 2f8a c1bb
00000010: c010 afbb 0a67 4b3b 81db 1a3c 650d 543c
00000020: 43a5 f8ba 6bd9 1e3c af52 39bb 7232 83bc
00000030: 96ba bd3b 68a3 4a3b 9b32 bb3b b02e 8dbb
00000040: 9542 803c 8bb4 a63b 270e 5e3c 5fbe 30bc
00000050: 65f9 3dbc 83a8 013c 69ab c6bb 8a73 fb3b
00000060: eada 66bb 4210 a13c 561d 9cba eb17 d1ba
00000070: 1752 2f3a daf3 4bbc 7faf 39bc 4308 23b9
00000080: 5be8 8bbc f705 15bc 7bbd 333c 3a02 6f3c
00000090: 0820 533b b3bd 533b 79af 9fba 594f 04bb
000000a0: d04c 653b 6fda ac3b 432d 523b 84d2 3e3c
000000b0: a323 64bc 57db 9b3b 2ae1 6dbc 3356 3b3b
000000c0: 00f4 803c 3739 7339 bfdf 52bc 741a 83bb
000000d0: 00f5 6cbc 079d 583c 4b4b 953c 8271 283c
000000e0: fd6b 563c c05d 663c 15e5 cd3a 17fa f93a
000000f0: cdfd e63b 4712 2fbb 1921 00bc b062 1b3b
00000100: b585 4f3c dcc0 2dba d7b1 823b 0b34 6c3b
00000110: dba0 f5ba 5777 463c 371f 0dbb 3daa 653b
00000120: 8ffe 7fbc 707d 22bc a3e9 9f3c c322 c3ba
00000130: e29f d1ba 1afa f53a 437f 5bbc a6a6 293c
00000140: 0835 b83b bbf5 d63b 05fa acbc beb9 273b
00000150: c70f 30b8 7dbb e9bb 7988 0a3b a989 2abc
00000160: e3e7 09bc 6bdd c6bb 6016 f43b 8a1e 6aba
00000170: ccb1 173a 7231 633b ff8d 61bb 12fb a3bc
00000180: 8592 773b f3e5 683b e932 48bb 9f19 fbba
00000190: a498 093b 044d 8bbb e39e 60ba a326 ea3a
000001a0: d5ec 7cbb 4d54 263b 3feb 17bc 63a7 b13b
000001b0: e3f9 163c 958e 31bc 5f38 ab3b 4b12 f5ba
000001c0: 05fb d6bb 580a 63bc 4b44 80bc a453 bdbb
000001d0: f58a 70bc eebb 1c3c ddf2 413c 0526 b03b
000001e0: b07e 23bc a669 10bc f59c 3ebc 23e6 88bc
000001f0: 733b f9bb edca 2c3b 6bb5 223b 55c9 cdbb
00000200: d7ed 13bc 98c3 ebbb 00f1 14bc 7961 463c
00000210: ed07 763c 5f2e fe3b 1f73 243b c4a6 bcba
00000220: 726f d4bb 0f20 8e3b 3ddc c83b aa07 8cbb
00000230: a2bc 4cbc 6b4f c1ba d504 143c c882 07bb
00000240: f4b5 373c 98c9 c8bb dbf3 bebb c053 0c3c
00000250: cbd0 09bb 4d71 6ebc 9860 cf3b a749 69bc
00000260: f810 523a a767 1fbc f9a8 bfbb 132c ddbb
00000270: 43b0 f9bb 66d6 a63c 2f1e 79b9 21c4 c6ba
00000280: 686f f1ba 5fe1 c6bb 7208 613c dfd6 a93b
00000290: f278 cfb8 69e5 23bc 83b6 803b 7742 053c
000002a0: e760 953c b168 02bc b2e3 c33b d2a1 7cbc
000002b0: d3d5 47bc 0021 1f3c 571e bfbb b404 933c
000002c0: 48e4 bfbb f79b b83b 93b9 2a3a 11ec a13b
000002d0: 7162 133c 47ac dbba 21f7 173c d2f8 da3b
000002e0: cbbe 993b 47c3 553b 53f6 c2b9 6fca 17bc
000002f0: dd52 db3a 7222 d03b 8d64 9cbb 0780 363a
00000300: 638f 2239 cf5b 90bb 0f9e 883c 43e8 b4bb
00000310: 886e a73b 894c 243c 4379 103b c3e4 adbb
00000320: a75c 023b 29bd 85bc 5c48 b4bb 1435 1abb
00000330: 3421 243c bbec aabb 8b0a cdbb f09d 73bc
00000340: 9a97 7bba 18eb f339 1805 5ebb 800b 50bb
00000350: 3713 2fbc 2075 923b 6a6f 21bb c3be bdbb
00000360: 7219 3f3a f9c5 9a3b 99ca 27bc a493 873a
00000370: 3995 2abb bb53 d13b d1ab 82b8 6364 6cbc
00000380: 1ff5 ddba cb75 1a3c bb20 e33b 1f89 90bb
00000390: e68a babb 8b80 e5bb 10e8 683c b225 e0bb
000003a0: 156a e33b 0f4d 7f3b 1b6d 2ebc c3fd 353a
000003b0: b0c7 cf3c e8f0 edbb a1b7 84bc ce28 2a3c
000003c0: 3fe2 413b 63fd 033c aa59 2cbb 89d3 0d3a
000003d0: 9b78 9bbb 180c 0d3c 1411 cc3b 3d51 fd3b
000003e0: 3325 1c3c b709 5dbb f229 50ba ed08 1bbc
000003f0: 313c ccbc 66fc b4bb 5b3d 2abc 711f 9fbb
0.0012579126 0.009860181 -0.006210113 -0.0059063653 -0.005342573 0.0031036758 0.009451748 0.012942647
-0.001897015 0.009695391 -0.0028278043 -0.016015265 0.005790065 0.0030920152 0.0057128198 -0.004308544
0.015656749 0.0050874404 0.013553179 -0.0107875755 -0.011595105 0.0079137115 -0.006062914 0.0076736854
-0.0035225698 0.019661073 -0.0011910598 -0.0015952563 0.00066879526 -0.012448275 -0.011333345 -0.00015547969
-0.01707857 -0.00909566 0.010970469 0.014587933 0.0032215137 0.0032309114 -0.0012183032 -0.0020188896
0.003498841 0.0052750628 0.0032070435 0.0116468705 -0.013924512 0.004756372 -0.014519015 0.0028585314
0.015741348 0.000231956 -0.012870728 -0.004000956 -0.014462709 0.013221032 0.018224379 0.010280969
0.01308727 0.014060438 0.001570853 0.0019071725 0.0070492984 -0.0026713775 -0.007820391 0.0023709945
0.012666156 -0.00066281646 0.0039884853 0.0036041762 -0.0018739955 0.012113414 -0.0021533498 0.0035044097
-0.015624656 -0.009917602 0.019520586 -0.0014887679 -0.0015993083 0.0018766553 -0.013397041 0.0103546735
0.005621556 0.006560055 -0.021115312 0.0025592889 -4.1976364e-05 -0.007132946 0.0021138473 -0.010408797
-0.0084171025 -0.0060688755 0.0074489564 -0.0008930942 0.00057866867 0.0034666923 -0.0034416912 -0.02001718
0.0037776541 0.003553745 -0.0030547923 -0.0019157416 0.0020995522 -0.0042511243 -0.0008568598 0.0017864298
-0.0038593311 0.0025379837 -0.009272396 0.0054215654 0.009214851 -0.010837217 0.005225226 -0.0018697468
-0.0065606856 -0.013857447 -0.015657565 -0.005777793 -0.014681567 0.00956629 0.011837688 0.005375626
-0.009978935 -0.008814251 -0.011634101 -0.0167113 -0.007605964 0.002636607 0.0024827372 -0.006280104
-0.009028873 -0.0071949475 -0.009090662 0.0121082 0.015016538 0.0077569927 0.0025093032 -0.0014392962
-0.006483012 0.004337318 0.00612977 -0.0042733746 -0.012496145 -0.00147484 0.009034355 -0.0020677317
0.011212815 -0.0061275475 -0.0058274097 0.008564889 -0.0021028991 -0.01455338 0.0063286535 -0.0142387515
0.0008013393 -0.0097293025 -0.0058490005 -0.006749639 -0.007619889 0.020365905 -0.00023757735 -0.0015164652
-0.0018420042 -0.006069347 0.013734924 0.0051830853 -9.893057e-05 -0.010003426 0.003928007 0.008133522
0.018234683 -0.007959531 0.005978071 -0.01541944 -0.012196976 0.009712458 -0.005832474 0.017946579
-0.0058560707 0.005633827 0.0006512638 0.0049414714 0.008995638 -0.0016759717 0.009275229 0.0066824937
0.0046919337 0.0032617615 -0.0003718609 -0.0092645725 0.0016733069 0.0063517625 -0.004772729 0.00069618266
0.0001550294 -0.0044054757 0.01667693 -0.005520852 0.005109612 0.010028013 0.0022044934 -0.0053068115
0.001989165 -0.01632555 -0.00550179 -0.0023530172 0.010017682 -0.0052162088 -0.0062573603 -0.014869198
-0.00095974805 0.0004652373 -0.0033877548 -0.0031745136 -0.0106857335 0.004469529 -0.0024633058 -0.005790563
0.00072898634 0.004723307 -0.010241174 0.0010343683 -0.0026028885 0.0063881553 -6.230886e-05 -0.014428231
-0.0016934014 0.009427498 0.006931392 -0.0044108774 -0.0056928275 -0.007003849 0.014215484 -0.006840431
0.006940136 0.0038955843 -0.01064613 0.00069424155 0.025363773 -0.0072613843 -0.016200842 0.010385705
0.0029584316 0.008056018 -0.002629856 0.00054102443 -0.004744602 0.00860884 0.006227622 0.0077306316
0.009530353 -0.0033727714 -0.00079408207 -0.009462577 -0.024931045 -0.0055232523 -0.010390605 -0.004856043
