Assets/Model/TankBrain/My Behavior/My Behavior-0.onnx (onnx, 79308 bytes, 4 tensors)

network_body._body_endoder.seq_layers.0.weight f4 [128, 15]
-0.20803498 0.037831813 0.31123126 -0.03737406 -0.09013627 0.2695142 -0.1561373 0.24231622
0.18096888 0.002124818 0.48438644 -0.1706789 -0.0052287076 0.3176141 0.63509464 -0.1620016
-0.20065337 -0.18166956 -0.59659046 0.018701008 -0.0112209255 -0.071132146 0.0029944158 0.06742213
0.2742239 0.05195603 0.028508563 -0.18504186 -0.09477701 -0.06318978 0.1942082 0.06834474
0.202662 -0.03348765 0.21320182 0.30010718 0.17349297 -0.09764977 -0.23782384 -0.12283703
0.29760537 -0.3203938 -0.06636778 -0.29119885 0.08127704 0.12037743 -0.012072144 0.28005308
0.01988239 -0.47086367 0.13997535 0.0033083726 0.1046986 0.2372429 0.259158 -0.103511915
0.051594116 0.012005145 -0.50606036 0.013388385 0.06419056 -0.13985509 -0.57613856 -0.32169726
-0.17845014 -0.290719 0.1695439 0.036078222 0.14765558 0.08362865 -0.27514938 -0.2465127
-0.016539248 0.5448212 -0.31240767 -0.18903781 0.3169077 0.7436985 -0.16855258 0.25024208
0.014174734 0.3155681 0.24103871 -0.3273643 0.07239372 0.16855069 0.26484868 -0.27961382
-0.17360544 0.6537771 -0.70565325 -0.18910372 0.240514 0.22164007 0.07289937 -0.0024899482
0.13737601 0.1554586 -0.24323677 0.0016196374 0.097993165 0.33743498 -0.028290462 0.07074332
-0.03858672 -0.07039252 0.37369025 0.7038362 0.0062303906 0.16205142 0.14241695 -0.35801998
0.07856912 0.12862055 -0.068178885 -0.017379383 0.14903328 0.15418176 0.20732528 0.46599317
0.06922636 0.18107565 0.1403239 0.3453098 -0.1938116 -0.34117344 -0.17404105 0.2312821
0.02961663 0.274257 -0.049396258 -0.14638779 -0.063272074 0.16716465 -0.25004247 -0.112849236
-0.28654 -0.25778124 -0.12018978 0.19040895 0.38506207 0.09264105 -0.23757449 -0.36926264
-0.009767101 0.17233948 -0.22659704 -0.030037228 -0.07441812 -0.39950463 -0.27979207 0.030713843
-0.2407483 0.120560765 -0.039282024 0.19612163 0.27274555 -0.022649527 0.2652059 -0.092778504
-0.36416844 0.2621287 0.10578204 0.19837047 0.043966193 0.36929935 0.055903442 -0.11309761
0.013767484 -0.22231413 0.098420665 0.22460501 -0.37980098 0.1938957 -0.28930864 0.19216004
0.362004 -0.19602212 0.22423466 0.26726553 0.09441855 -0.048587598 0.64302075 -0.13950212
0.26772875 0.19870092 0.052699406 0.23913825 0.42312452 -0.2598207 -0.1370966 0.07306549
-0.12541035 -0.020603932 -0.501252 0.30204564 -0.3702623 0.15402976 -0.107515536 0.006734531
-0.5191973 0.04379319 0.4596312 0.07788431 -0.41024032 -0.2376492 0.2920501 0.2988497
0.13025993 0.12775539 0.52728856 -0.09470109 0.04645594 0.23227666 0.007347086 -0.17353301
0.38386077 0.1071611 0.11422935 -0.039758354 0.37099522 0.2373059 0.046603415 -0.5871452
-0.15284649 0.0031278566 -0.34862345 -0.4442837 0.12882353 -0.17455731 -0.121890046 0.0008205653
-0.5914938 0.19944169 -0.3399448 -0.43399552 0.03488054 -0.17085634 -0.14583007 0.11890818
-0.22270627 -0.23259273 -0.5170792 -0.034433715 -0.05161146 -0.13718586 -0.3456155 -0.10116356
0.046344846 0.39502043 0.1282915 0.0055292803 -0.26895887 -0.08003749 0.11323398 -0.013754503
00000000: 1f07 55be 88f5 1a3d b459 9f3e 8b15 19bd
00000010: 5d99 b8bd c4fd 893e 75e2 1fbe be21 783e
00000020: e84f 393e 8840 0b3b 8001 f83e 73c6 2ebe
00000030: 9455 abbb 519e a23e 9095 223f bfe3 25be
00000040: 1478 4dbe 9607 3abe 27ba 18bf db32 993c
00000050: f9d7 37bc bbad 91bd f63d 443b 9d14 8a3d
00000060: 1367 8c3e d9cf 543d ca8a e93c 9d7b 3dbe
00000070: 731a c2bd a569 81bd 84de 463e 54f8 8b3d
00000080: a186 4f3e 592a 09bd 9451 5a3e a6a7 993e
00000090: 24a8 313e 9afc c7bd 1888 73be fb91 fbbd
000000a0: bb5f 983e a80a a4be d5eb 87bd 0418 95be
000000b0: 9474 a63d 7188 f63d 3eca 45bc 1e63 8f3e
000000c0: 65e0 a23c 0b15 f1be b355 0f3e 48d1 583b
000000d0: 386c d63d ceef 723e 5bb0 843e 0efe d3bd
000000e0: 5a54 533d 3ab1 443c 2c8d 01bf f55a 5b3c
000000f0: 5776 833d 2c36 0fbe d17d 13bf 81b5 a4be
00000100: a2bb 36be 1fd9 94be eb9c 2d3e c2c6 133d
00000110: 0633 173e 7f45 ab3d 61e0 8cbe d36d 7cbe
00000120: 517d 87bc 6779 0b3f e6f3 9fbe 2193 41be
00000130: ba41 a23e 0663 3e3f 0c99 2cbe bb1f 803e
00000140: 253d 683c 2492 a13e dad2 763e 4b9c a7be
00000150: 2943 943d 8d98 2c3e 3f9a 873e 8b29 8fbe
00000160: a0c5 31be f05d 273f b1a5 34bf 68a4 41be
00000170: 4d49 763e 9df5 623e 444c 953d 662e 23bb
00000180: 4cac 0c3e 8a30 1f3e 0f13 79be 034a d43a
00000190: a4b0 c83d 47c4 ac3e 66c1 e7bc e0e1 903d
000001a0: 1c0d 1ebd f429 90bd 5454 bf3e 9c2e 343f
000001b0: 4e28 cc3b cff0 253e c0d5 113e 654e b7be
000001c0: d9e8 a03d 1bb5 033e 5fa1 8bbd 355f 8ebc
000001d0: 2e9c 183e d3e1 1d3e 144d 543e a896 ee3e
000001e0: 8dc6 8d3d e56b 393e 12b1 0f3e 72cc b03e
000001f0: 8c76 46be 49ae aebe d137 32be 37d5 6c3e
00000200: 939e f23c 6a6b 8c3e bb53 4abd aee6 15be
00000210: ca94 81bd 362d 2b3e 9105 80be 801d e7bd
00000220: 5fb5 92be e7fb 83be 0f26 f6bd 90fa 423e
00000230: db26 c53e 97ba bd3d ba46 73be fe0f bdbe
00000240: 3106 20bc c379 303e 0e09 68be a210 f6bc
00000250: 8768 98bd df8b ccbe e840 8fbe 999b fb3c
00000260: b986 76be 90e8 f63d 30e6 20bd 1cd4 483e
00000270: 4ea5 8b3e 808b b9bc 11c9 873e a802 bebd
00000280: 4974 babe bc35 863e 41a4 d83d a121 4b3e
00000290: e515 343d ce14 bd3e 02fb 643d b89f e7bd
000002a0: 0391 613c 51a6 63be c690 c93d dbfe 653e
000002b0: 4675 c2be 988c 463e 4320 94be 9ac5 443e
000002c0: 9758 b93e 06ba 48be c59d 653e 07d7 883e
000002d0: 835e c13d ca03 47bd 029d 243f a5d9 0ebe
000002e0: be13 893e 4178 4b3e 55db 573d a8e0 743e
000002f0: c7a3 d83e 3807 85be 0d63 0cbe 5ca3 953d
00000300: 926b 00be 94c9 a8bc 0d52 00bf baa5 9a3e
00000310: 0593 bdbe fab9 1d3e 1b31 dcbd 57ad dc3b
00000320: 1dea 04bf 7d60 333d c854 eb3e cf81 9f3d
00000330: 050b d2be 505a 73be 9787 953e d402 993e
00000340: dc62 053e 4fd2 023e 62fc 063f a5f2 c1bd
00000350: 9548 3e3d efd9 6d3e d3bf f03b a3b2 31be
00000360: 6689 c43e 4777 db3d 14f1 e93d a8d9 22bd
00000370: 16f3 bd3e 5100 733e 39e3 3e3d 264f 16bf
00000380: ca83 1cbe bafc 4c3b c67e b2be 2779 e3be
00000390: 51ea 033e 27bf 32be 7da1 f9bd 351b 573a
000003a0: 236c 17bf 713a 4c3e 3f0d aebe a934 debe
000003b0: e6de 0e3d f7f4 2ebe 7a54 15be 2286 f33d
000003c0: 1d0d 64be ca2c 6ebe 4d5f 04bf 5e0a 0dbd
000003d0: 8a66 53bd 737a 0cbe 84f4 b0be d72e cfbd
000003e0: 18d4 3d3d 1e40 ca3e d95e 033e f72e b53b
000003f0: fab4 89be b2ea a3bd 38e7 e73d 915a 61bc

network_body._body_endoder.seq_layers.0.bias f4 [128]
0.0 0.0 0.0 0.0 0.0 0.0 0.0 0.0
0.0 0.0 0.0 0.0 0.0 0.0 0.0 0.0
0.0 0.0 0.0 0.0 0.0 0.0 0.0 0.0
0.0 0.0 0.0 0.0 0.0 0.0 0.0 0.0
0.0 0.0 0.0 0.0 0.0 0.0 0.0 0.0
0.0 0.0 0.0 0.0 0.0 0.0 0.0 0.0
0.0 0.0 0.0 0.0 0.0 0.0 0.0 0.0
0.0 0.0 0.0 0.0 0.0 0.0 0.0 0.0
0.0 0.0 0.0 0.0 0.0 0.0 0.0 0.0
0.0 0.0 0.0 0.0 0.0 0.0 0.0 0.0
0.0 0.0 0.0 0.0 0.0 0.0 0.0 0.0
0.0 0.0 0.0 0.0 0.0 0.0 0.0 0.0
0.0 0.0 0.0 0.0 0.0 0.0 0.0 0.0
0.0 0.0 0.0 0.0 0.0 0.0 0.0 0.0
0.0 0.0 0.0 0.0 0.0 0.0 0.0 0.0
0.0 0.0 0.0 0.0 0.0 0.0 0.0 0.0
00000000: 0000 0000 0000 0000 0000 0000 0000 0000
00000010: 0000 0000 0000 0000 0000 0000 0000 0000
00000020: 0000 0000 0000 0000 0000 0000 0000 0000
00000030: 0000 0000 0000 0000 0000 0000 0000 0000
00000040: 0000 0000 0000 0000 0000 0000 0000 0000
00000050: 0000 0000 0000 0000 0000 0000 0000 0000
00000060: 0000 0000 0000 0000 0000 0000 0000 0000
00000070: 0000 0000 0000 0000 0000 0000 0000 0000
00000080: 0000 0000 0000 0000 0000 0000 0000 0000
00000090: 0000 0000 0000 0000 0000 0000 0000 0000
000000a0: 0000 0000 0000 0000 0000 0000 0000 0000
000000b0: 0000 0000 0000 0000 0000 0000 0000 0000
000000c0: 0000 0000 0000 0000 0000 0000 0000 0000
000000d0: 0000 0000 0000 0000 0000 0000 0000 0000
000000e0: 0000 0000 0000 0000 0000 0000 0000 0000
000000f0: 0000 0000 0000 0000 0000 0000 0000 0000
00000100: 0000 0000 0000 0000 0000 0000 0000 0000
00000110: 0000 0000 0000 0000 0000 0000 0000 0000
00000120: 0000 0000 0000 0000 0000 0000 0000 0000
00000130: 0000 0000 0000 0000 0000 0000 0000 0000
00000140: 0000 0000 0000 0000 0000 0000 0000 0000
00000150: 0000 0000 0000 0000 0000 0000 0000 0000
00000160: 0000 0000 0000 0000 0000 0000 0000 0000
00000170: 0000 0000 0000 0000 0000 0000 0000 0000
00000180: 0000 0000 0000 0000 0000 0000 0000 0000
00000190: 0000 0000 0000 0000 0000 0000 0000 0000
000001a0: 0000 0000 0000 0000 0000 0000 0000 0000
000001b0: 0000 0000 0000 0000 0000 0000 0000 0000
000001c0: 0000 0000 0000 0000 0000 0000 0000 0000
000001d0: 0000 0000 0000 0000 0000 0000 0000 0000
000001e0: 0000 0000 0000 0000 0000 0000 0000 0000
000001f0: 0000 0000 0000 0000 0000 0000 0000 0000

network_body._body_endoder.seq_layers.2.weight f4 [128, 128]
-0.013799379 -0.0015935295 0.0575653 -0.060813818 -0.025990352 -0.038245313 0.07290416 -0.044410214
-0.14950718 -0.11956076 -0.07899579 -0.014447837 -0.08483077 0.06754852 0.051647995 -0.06410036
-0.15124376 -0.063659266 -0.040028233 0.09553014 0.16486427 0.01849105 0.11555111 -0.0018175255
0.025797017 -0.052919023 0.122864276 -0.005540618 0.12509328 -0.033488147 0.018413527 0.068711944
-0.08542204 -0.08435135 0.11545633 0.097092636 0.0053671137 0.15710174 0.17378147 0.12965104
-0.027238296 0.078027695 -0.119525544 -0.12241003 -0.1068699 0.029768048 -0.021909919 0.099016905
0.051335447 0.09657199 -0.0891261 0.025120517 -0.061767563 -0.042158242 0.014499 0.0007821066
-0.17114039 -0.06060769 0.22459227 -0.02236573 -0.023916429 0.11290524 0.044568136 -0.10404334
0.041012783 -0.16289587 -0.03566101 -0.04724155 0.19676088 -0.053026035 0.023345266 0.118348874
-0.061756074 0.030780936 -0.0035230978 -0.06768486 -0.041735236 -0.05619061 0.13887514 -0.013081378
-0.06760355 -0.007895931 -0.050437596 0.084906034 -0.1118159 -0.17065926 0.25004795 0.16398458
-0.020467497 -0.06940244 -0.010481176 0.061085477 0.014815447 0.045050662 0.02477469 -0.015189785
-0.0438661 0.07364992 0.082649365 -0.119302765 0.03574208 -0.07942009 0.027875554 0.0062600635
0.009073582 -0.050649773 0.0302828 -0.066427216 -0.0056880745 -0.08927824 -0.0776832 0.0876642
-0.0050914586 -0.08201193 -0.09973326 -0.08094973 0.010008471 -0.13840006 -0.035664495 0.078468144
0.1437539 0.009625699 -0.0369298 0.114305094 0.039961066 0.08951252 0.053425014 -0.16836153
0.22340411 0.05302436 -0.040186528 -0.008295269 0.06328591 -0.04823757 0.16358274 0.19252478
0.13709599 0.023806402 0.07487995 -0.013121701 -0.04246204 -0.05726619 0.06768124 -0.06942144
0.05497238 0.0009677237 0.086544625 0.029427111 -0.117446534 -0.21568169 0.15310295 0.0996782
0.06022723 -0.015010817 0.10475882 -0.002877029 -0.13830552 -0.05961062 0.057519484 -0.018242499
-0.16460226 -0.18063542 -0.032877218 -0.101065315 0.0857873 0.07147446 0.1599346 0.11499359
-0.12626591 -0.23825158 0.0023342834 0.07638338 -0.037669133 -0.1745665 -0.12501717 -0.07667113
-0.017355366 -0.053085312 0.04530325 0.052806683 0.054438245 0.037022375 0.03803303 -0.12255566
-0.028345807 0.010953736 -0.062410656 0.010543372 -0.012110163 -0.027431827 -0.056662954 -0.0397133
0.14788382 -0.19448657 0.09191945 0.07188877 0.018727511 0.04667585 0.045454606 -0.021462869
0.1370141 -0.14758986 0.1267697 -0.032082155 -0.114146516 0.0685333 0.054404564 0.0071654865
0.012974762 -0.1641456 0.04698187 -0.05760573 -0.074603625 -0.17864607 0.00088285765 -0.14708471
0.0018229214 -0.060959198 0.0010508847 0.0060175243 0.1558612 0.043920357 0.024547296 -0.0050701606
0.0268129 -0.10486263 -0.04261448 -0.09767933 -0.04999373 0.025973031 0.06944229 -0.018403292
0.061064295 -0.12785327 0.015159247 0.066638395 -0.042957917 0.029778447 0.008926861 -0.07849048
0.019380206 0.096730135 0.06935991 -0.0781887 -0.028256455 -0.06685491 -0.15907584 -0.058785755
0.03579394 0.07376359 0.012057213 0.1325299 -0.07000242 -0.05846169 -0.11760741 -0.025630036
00000000: ca16 62bc fadd d0ba 98c9 6b3d e917 79bd
00000010: b8e9 d4bc 1ea7 1cbd c74e 953d 7ce7 35bd
00000020: 6918 19be 46dc f4bd 8bc8 a1bd 9fb6 6cbc
00000030: c1bb adbd e156 8a3d d98c 533d 0d47 83bd
00000040: a5df 1abe ca5f 82bd a5f4 23bd 4ea5 c33d
00000050: 2ed2 283e 8b7a 973c 0fa6 ec3d 093a eeba
00000060: 4454 d33c 9ec1 58bd 44a0 fb3d 138e b5bb
00000070: 7418 003e de2a 09bd f7d7 963c d9b8 8c3d
00000080: c0f1 aebd 67c0 acbd 5e74 ec3d 81d8 c63d
00000090: 9dde af3b 47df 203e c5f3 313e 3ec3 043e
000000a0: d922 dfbc fccc 9f3d cfc9 f4bd 1cb2 fabd
000000b0: 9bde dabd 1fdc f33c 6e7c b3bc 60c9 ca3d
000000c0: 1e45 523d 89c7 c53d bf87 b6bd 8bc9 cd3c
000000d0: fcff 7cbd 1fae 2cbd 378d 6d3c 4906 4d3a
000000e0: 6d3f 2fbe c53f 78bd 84fb 653e 5638 b7bc
000000f0: 63ec c3bc dd3a e73d 148d 363d ad14 d5bd
00000100: 05fd 273d 2dce 26be 4711 12bd 5b80 41bd
00000110: af7b 493e d431 59bd 923e bf3c e560 f23d
00000120: f0f3 7cbd 4d28 fc3c c6e3 66bb 5c9e 8abd
00000130: 91f2 2abd 2028 66bd 4935 0e3e 4753 56bc
00000140: bb73 8abd ef5d 01bc a797 4ebd 37e3 ad3d
00000150: bcff e4bd 4dc1 2ebe 4906 803e 93eb 273e
00000160: 74ab a7bc de22 8ebd 3db9 2bbc c434 7a3d
00000170: 7dbc 723c 0b87 383d 4af4 ca3c 93de 78bc
00000180: f1ac 33bd c5d5 963d 1244 a93d 0255 f4bd
00000190: 4a66 123d 00a7 a2bd 465b e43c 3821 cd3b
000001a0: 5ca9 143c 2376 4fbd a213 f83c fe0a 88bd
000001b0: 0763 babb 83d7 b6bd 5f18 9fbd 4a89 b33d
000001c0: 40d6 a6bb dff5 a7bd f440 ccbd f9c8 a5bd
000001d0: 92fa 233c bfb8 0dbe ef14 12bd e8b3 a03d
000001e0: 3934 133e 1cb5 1d3c b443 17bd ca18 ea3d
000001f0: 37ae 233d 5752 b73d 30d4 5a3d f766 2cbe
00000200: 0cc4 643e 1230 593d a19a 24bd e1e8 07bc
00000210: 0b9c 813d c294 45bd 3c82 273e 3725 453e
00000220: e462 0c3e a505 c33c a95a 993d 67fc 56bc
00000230: adec 2dbd f48f 6abd 769c 8a3d d42c 8ebd
00000240: b82a 613d d7ae 7d3a 4f3e b13d 2011 f13c
00000250: cf87 f0bd a9db 5cbe 05c7 1c3e 1624 cc3d
00000260: d4b0 763d eeef 75bc cb8b d63d 898c 3cbb
00000270: f69f 0dbe 442a 74bd 8d99 6b3d 4b71 95bc
00000280: 7f8d 28be 7ef8 38be 43aa 06bd 55fb cebd
00000290: 40b1 af3d 3461 923d e5c5 233e c281 eb3d
000002a0: da4b 01be 39f8 73be c7fa 183b e46e 9c3d
000002b0: f34a 1abd 90c1 32be 8004 00be c105 9dbd
000002c0: d72c 8ebc fc6f 59bd e78f 393d d24b 583d
000002d0: a3fa 5e3d c6a4 173d 86c8 1b3d 76fe fabd
000002e0: 7735 e8bc 4c77 333c 51a2 7fbd 1bbe 2c3c
000002f0: b569 46bc b6b8 e0bc 6a17 68bd 6aaa 22bd
00000300: db6e 173e 7d27 47be 4440 bc3d 6b3a 933d
00000310: 706a 993c 2d2f 3f3d 9c2e 3a3d e6d2 afbc
00000320: 6d4d 0c3e cc21 17be ebcf 013e 9468 03bd
00000330: a6c5 e9bd 305b 8c3d 52d7 5e3d 75cc ea3b
00000340: 1994 543c c915 28be 1070 403d fcf3 6bbd
00000350: c9c9 98bd ffee 36be 936f 673a 609d 16be
00000360: 18ef ee3a 5ab0 79bd d7bd 893a a72e c53b
00000370: 149a 1f3e d5e5 333d 6917 c93c 9723 a6bb
00000380: baa6 db3c 38c2 d6bd 858c 2ebd 1a0c c8bd
00000390: 3ac6 4cbd 65c5 d43c c237 8e3d 80c2 96bc
000003a0: 8e1e 7a3d f8eb 02be 7e5e 783c b679 883d
000003b0: a4f4 2fbd eef1 f33c f841 123c 9ebf a0bd
000003c0: 3dc3 9e3c 731a c63d 920c 8e3d 6621 a0bd
000003d0: 157a e7bc 3aeb 88bd c7e4 22be 55c9 70bd
000003e0: ab9c 123d 5d11 973d 9e8b 453c ebb5 073e
000003f0: 6e5d 8fbd 8675 6fbd 27dc f0bd 15f6 d1bc

action_model._discrete_distribution.branches.0.weight f4 [1, 128]
-0.001031904 0.004003012 0.0003342951 0.0077243107 -0.0035182294 0.0050998176 -0.0013382728 0.0097158495
0.0020895647 -0.004254405 0.011811223 0.00010435588 0.013039678 -0.0009499794 0.009681145 0.004057492
0.0022467074 -0.0032227046 -0.0053026904 -0.0025763265 0.008574933 -0.0042840005 -0.0009187964 -0.01653818
0.012815884 0.007735209 0.00377255 -0.007062903 -0.012513272 -0.0128402235 0.011213805 0.0033494018
0.0012675414 -0.01686836 -0.0047704144 0.00075245317 0.0011125676 0.015266702 0.010729047 -0.00028084972
0.0014501925 -0.0061277044 -0.0073596197 0.003876599 0.009747347 -0.013549814 -0.015243907 0.011090796
0.006413359 0.0043648956 0.0033148364 -0.0070255734 -0.005622721 -0.012346233 -0.0008263374 -0.00238795
0.0032187216 -0.005844191 0.010419926 0.0014348662 0.0049687396 -0.006528699 -0.0076539665 0.014375051
-0.010192366 -0.007569913 0.0011656322 -0.005241244 -0.014932006 0.0043731923 -0.0057641957 0.00069694844
-0.012951182 0.0022937073 -0.0030223802 0.012737855 -0.003464258 -0.009550752 0.01970732 0.0049085347
0.013172899 7.678592e-05 -0.0046260566 -0.005511524 -0.014410826 0.009308639 0.011836226 0.018247541
6.883279e-05 0.00080801174 -0.008352275 -0.00416447 -0.0012255259 -0.0036852646 -0.0042719143 0.005595874
-0.0034394928 0.00028215078 -0.0027616723 0.008018191 0.0032162354 0.0065345215 -0.0008768349 0.008057035
0.0025982398 -0.013679384 0.007291646 0.0021232932 0.0063889595 -0.0053617023 -0.00767054 -0.0037297679
-0.0034230505 0.008030123 -0.010247864 -0.0068570743 0.013447652 0.014299996 0.00544233 -0.0033223971
-0.0017548472 -0.007942736 -0.012363443 0.0058240877 0.006258342 0.0065721893 0.0043310574 -0.0008458071
00000000: f440 87ba b32b 833b 5444 af39 371c fd3b
00000010: 1892 66bb 5f1c a73b fc68 afba 3a2f 1f3c
00000020: 14f1 083b 8968 8bbb dc83 413c a3d9 da38
00000030: 60a4 553c 0a08 79ba aa9d 1e3c b6f4 843b
00000040: 7f3d 133b 0334 53bb 31c2 adbb 96d7 28bb
00000050: e07d 0c3c cd60 8cbb 62db 70ba 147b 87bc
00000060: b7f9 513c a377 fd3b e33c 773b ed6f e7bb
00000070: 7804 4dbc cd5f 52bc 1bba 373c a381 5b3b
00000080: a223 a63a 842f 8abc 2351 9cbb 4740 453a
00000090: 93d3 913a 3021 7a3c e2c8 2f3c 033f 93b9
000000a0: 6314 be3a e9ca c8bb f728 f1bb 8a0e 7e3b
000000b0: 56b3 1f3c 0a00 5ebc 95c1 79bc 2cb6 353c
000000c0: 2827 d23b 6607 8f3b ba3d 593b c836 e6bb
000000d0: cd3e b8bb db47 4abc 909e 58ba 277f 1cbb
000000e0: 30f1 523b a180 bfbb 56b8 2a3c 1f12 bc3a
000000f0: cfd0 a23b b2ee d5bb 20ce fabb 5585 6b3c
00000100: e2fd 26bc 080d f8bb 20c8 983a bebe abbb
00000110: 5fa5 74bc ff4c 8f3b 94e1 bcbb 6bb3 363a
00000120: 3231 54bc 0652 163b 2013 46bb 70b2 503c
00000130: 9b08 63bb c27a 1cbc 3f71 a13c c6d7 a03b
00000140: 25d3 573c 2008 a138 2d96 97bb 049a b4bb
00000150: 631b 6cbc 4383 183c bbec 413c de7b 953c
00000160: 535a 9038 c0d0 533a fbd7 08bc 1b76 88bb
00000170: d3a1 a0ba 7b84 71bb 6afb 8bbb 985d b73b
00000180: 1d69 61bb a3ed 9339 2cfd 34bb bb5e 033c
00000190: 7ac7 523b 8a1f d63b 65db 65ba a701 043c
000001a0: 3b47 2a3b 7f1f 60bc c3ee ee3b f326 0b3b
000001b0: 7a5a d13b 38b1 afbb 2759 fbbb 1f6f 74bb
000001c0: 4255 60bb c790 033c a8e6 27bc 4fb1 e0bb
000001d0: 8a53 5c3c 884a 6a3c 9355 b23b 93bc 59bb
000001e0: e702 e6ba 4022 02bc 0a90 4abc fdd7 be3b
000001f0: c712 cd3b 855b d73b 8beb 8d3b 27b9 5dba
